networks/quantized_models/iscx2016vpn/CheckSize_w_Pytorch_flow.pth (torch, 23760 bytes, 22 tensors)

cpu f8 [16]
000000 00 00 00 e0 3a 72 9c 3f 00 00 00 40 1e be 91 3f
       0.027779502794146538 0.017326805740594864
000010 00 00 00 a0 3c f0 96 3f 00 00 00 20 55 2f 8a 3f
       0.022400805726647377 0.0127855921164155
000020 00 00 00 e0 59 84 8c 3f 00 00 00 20 a6 15 ad 3f
       0.013924314640462399 0.056805793195962906
000030 00 00 00 e0 f9 73 a6 3f 00 00 00 60 7a be 94 3f
       0.043853577226400375 0.020257866010069847
000040 00 00 00 40 b7 25 b1 3f 00 00 00 00 6d 11 a2 3f
       0.06698174774646759 0.03528919816017151
000050 00 00 00 60 20 4c a0 3f 00 00 00 a0 38 5e af 3f
       0.0318307988345623 0.0612657256424427
000060 00 00 00 20 3d c0 90 3f 00 00 00 e0 52 1a a1 3f
       0.016358332708477974 0.03340395912528038
000070 00 00 00 a0 10 8e 9c 3f 00 00 00 20 6b b4 93 3f
       0.027885684743523598 0.01924292929470539

conv1.bias f4 [16]
000000 f8 b8 8d 3f be f0 ad bf 3e 6a 2f bf f2 1b 2b be
       1.1072073 -1.3589094 -0.6852149 -0.16709879
000010 aa 9e 5b bf 64 c0 6f 3e 60 89 b1 3e ec d2 84 bf
       -0.8578898 0.23413235 0.3467512 -1.0376868
000020 b4 7a 90 be df bc a3 3f 02 5e 57 3e e0 1e 87 3f
       -0.28218615 1.2792014 0.21031955 1.0556297
000030 87 8a b0 3f c4 22 13 3e 52 c7 e5 3d 98 54 3f 3f
       1.3792275 0.14368731 0.11219658 0.74738455

cpu f8 [16]
000000 00 00 00 80 e1 88 9c 3f 00 00 00 60 cf cf 9c 3f
       0.027865909039974213 0.02813648246228695
000010 00 00 00 a0 93 50 95 3f 00 00 00 a0 2c 2d 95 3f
       0.020815188065171242 0.0206801388412714
000020 00 00 00 80 3a 31 96 3f 00 00 00 60 e6 56 a5 3f
       0.021672166883945465 0.041678618639707565
000030 00 00 00 e0 08 c0 a0 3f 00 00 00 00 f5 71 95 3f
       0.03271510824561119 0.020942524075508118
000040 00 00 00 c0 f1 8e a0 3f 00 00 00 60 43 c7 93 3f
       0.032340578734874725 0.01931481622159481
000050 00 00 00 80 b3 58 a1 3f 00 00 00 a0 1f cb 94 3f
       0.03387986123561859 0.02030610479414463
000060 00 00 00 00 f1 29 9b 3f 00 00 00 e0 8e e1 97 3f
       0.026527181267738342 0.023321373388171196
000070 00 00 00 80 59 a2 93 3f 00 00 00 40 54 1b 93 3f
       0.0191740021109581 0.018658939749002457

conv2.bias f4 [16]
000000 a5 af 9c be 75 49 de 3e 9b a7 9c 3f 82 83 16 bf
       -0.30602756 0.43415418 1.2238649 -0.58794415
000010 d9 87 8d bf 0d bb 1d 3c a6 02 1b 3f 57 ff 6c bd
       -1.1057082 0.009627116 0.60550916 -0.0578607
000020 0c 7a 19 3f f3 81 f1 3e d6 8d 47 3f f0 5b fd be
       0.59951854 0.47169456 0.779508 -0.49484205
000030 f8 53 8c be 79 5d 6f be b1 4e 82 3f d3 9f 41 3f
       -0.27407813 -0.233755 1.0180265 0.756345

bn2.weight f4 [16]
000000 a4 9d 32 40 a1 99 db 3f 3c 6c ed 3f 68 7f ce 3f
       2.7908716 1.7156259 1.8548656 1.6132631
000010 d2 87 1f 40 11 4e 98 3f 22 e9 ed 3f ce 8d f4 3e
       2.4926648 1.1898824 1.8586771 0.47764438
000020 f5 b8 1f 3f 08 c8 01 3f d9 23 8b 3f 84 82 e8 3f
       0.623916 0.5069585 1.0870315 1.816483
000030 30 05 ce 3e 07 01 6f 3f 99 25 11 40 87 de 96 3e
       0.40238333 0.9336094 2.2679198 0.2946665

bn2.bias f4 [16]
000000 4e f6 8a bf e5 d7 b8 be 84 b2 e9 be 54 5d e6 be
       -1.0856416 -0.36102214 -0.4564401 -0.4499308
000010 65 38 75 be c1 b2 4e bf 2e 55 15 bf a4 80 59 bf
       -0.23947294 -0.80741507 -0.583331 -0.84961915
000020 3b 9d 7c be fa d8 d9 bf 78 95 ca bf 27 ea 1f bf
       -0.24669354 -1.7019341 -1.5826864 -0.62466663
000030 a1 4b a5 be f4 1d 1a bf 28 75 52 bf b1 a4 99 bd
       -0.32284263 -0.60201955 -0.82210016 -0.075021155

bn2.running_mean f4 [16]
000000 d7 df d2 3f 93 86 6b c0 a3 d7 96 40 11 ea 2a 40
       1.647456 -3.6800888 4.713823 2.6705363
000010 95 61 cf 3f 2e 7c a9 3f 5f 89 9f 40 51 18 13 bf
       1.6201655 1.3241022 4.985519 -0.5745898
000020 0b 4e 81 c0 9c c1 90 3f ee 73 96 40 23 52 cc c0
       -4.0407767 1.1309085 4.7016516 -6.3850265
000030 2a 0b 5e 3f 53 89 45 c0 8e bc ce 3e 41 e1 64 bf
       0.86735785 -3.0865066 0.4037823 -0.8940621

bn2.running_var f4 [16]
000000 41 1d ae 41 5e 3c db 40 2e d1 87 41 58 9b 49 41
       21.764284 6.851119 16.977139 12.600426
000010 ad 91 9a 41 ab fd 79 41 97 7e 93 41 79 41 2f 3f
       19.32113 15.624431 18.436811 0.6845928
000020 59 83 18 41 f1 40 78 3f aa 61 91 41 0f 0c 2e 41
       9.532067 0.9697409 18.172688 10.877944
000030 b6 d4 09 40 af 31 9e 41 18 b8 28 41 74 b3 b4 3f
       2.1536078 19.77426 10.544945 1.4117265

cpu f8 [32]
000000 00 00 00 00 33 3c 90 3f 00 00 00 00 1b 99 97 3f
       0.015854641795158386 0.02304498851299286
000010 00 00 00 60 47 8d 8e 3f 00 00 00 40 cb 92 99 3f
       0.014917905442416668 0.0249740369617939
000020 00 00 00 a0 cd 9e 92 3f 00 00 00 e0 82 e7 9a 3f
       0.018183911219239235 0.02627377025783062
000030 00 00 00 40 fd 6d 94 3f 00 00 00 00 8c 32 91 3f
       0.019950825721025467 0.01679438352584839
000040 00 00 00 80 12 4d 93 3f 00 00 00 80 3e c3 9a 3f
       0.01884869486093521 0.02613542228937149
000050 00 00 00 a0 64 4b 95 3f 00 00 00 20 fb 10 95 3f
       0.020795414224267006 0.020572589710354805
000060 00 00 00 40 f7 50 93 3f 00 00 00 80 b3 07 93 3f
       0.01886354759335518 0.01858406513929367
000070 00 00 00 20 57 57 97 3f 00 00 00 60 4d f6 92 3f
       0.02279411442577839 0.018517693504691124
000080 00 00 00 c0 f3 a3 95 3f 00 00 00 00 1a 02 97 3f
       0.021133240312337875 0.02246895432472229
000090 00 00 00 c0 71 09 99 3f 00 00 00 60 97 df 94 3f
       0.024450089782476425 0.020384183153510094
0000a0 00 00 00 60 fc 11 93 3f 00 00 00 80 3e 91 99 3f
       0.018623298034071922 0.02496812492609024
0000b0 00 00 00 00 a1 57 94 3f 00 00 00 a0 89 a5 97 3f
       0.019865527749061584 0.02309241332113743
0000c0 00 00 00 60 bd 68 92 3f 00 00 00 80 17 1b 93 3f
       0.017977675423026085 0.01865803450345993
0000d0 00 00 00 40 c7 4e 9c 3f 00 00 00 40 44 1a 93 3f
       0.027644265443086624 0.01865488663315773
0000e0 00 00 00 60 2a 6d 8f 3f 00 00 00 a0 3b d3 99 3f
       0.015344935469329357 0.025219852104783058
0000f0 00 00 00 e0 6a 35 91 3f 00 00 00 80 13 69 98 3f
       0.016805334016680717 0.023838333785533905

conv3.bias f4 [32]
000000 b0 69 0e bf 5d f4 dd 3d 19 f4 08 bf 2c 5b 2b be
       -0.55630016 0.10837624 -0.53497463 -0.16733998
000010 f0 74 da bd d4 30 22 be ca 7d 37 bd 6c 05 43 bf
       -0.10666835 -0.15838939 -0.044797696 -0.7618015
000020 78 31 6f be c3 99 0a 3d 98 8f 92 3e 7e 46 bc 3e
       -0.23358715 0.033838045 0.28625178 0.3677253
000030 9d 0c e1 3c 7e dc ce 3d 12 07 0a 3f f0 2e 9f 3e
       0.027471835 0.10100649 0.5391704 0.31090498
000040 d1 eb 78 bf f9 29 42 3e eb de 09 bf d1 8e 42 bf
       -0.9723483 0.18961324 -0.5385577 -0.7599917
000050 c4 07 b2 be 6a 83 48 bd b9 5a 8e be 66 18 26 bf
       -0.3477155 -0.04895345 -0.2780359 -0.6488098
000060 c9 d2 41 bd 90 11 40 3e dc 85 03 3f 68 a7 95 be
       -0.04732016 0.187567 0.5137613 -0.29229283
000070 bd 91 94 3e 78 29 19 bf c2 b7 a5 3c b5 b4 ba be
       0.2901744 -0.598289 0.020229224 -0.36465994

bn3.weight f4 [32]
000000 bd 2f c0 3f 9b 20 47 3f 6f 28 bd 3f e2 dc 28 3f
       1.5014569 0.77784127 1.4777964 0.6596204
000010 9e 8e 9d 3f e0 bd a5 3f 0e 45 33 3f 61 68 e6 3e
       1.2309148 1.294857 0.70027244 0.4500151
000020 f8 8a 89 3f 58 2f 71 3f a7 da 9d 3f f5 fd c2 3f
       1.0745535 0.94212866 1.2332352 1.5233752
000030 a6 0b 8f 3f a8 8f d6 3f ea 19 26 3f 00 12 fe 3e
       1.117543 1.676259 0.6488329 0.49623108
000040 47 bc 04 3f c5 ef 1d 3f e7 02 c2 3f a5 39 e8 3f
       0.5184979 0.61693984 1.5157136 1.8142592
000050 87 22 67 3f 8c aa 88 3f 67 89 b2 3f 15 02 97 3f
       0.9028706 1.0677047 1.3948182 1.179751
000060 c7 31 a3 3f 0a 3c 85 3f 1c a6 d3 3f 33 db af 3f
       1.2749566 1.0408947 1.6535068 1.3738769
000070 e2 a2 91 3f 7b fe ca 3f 47 66 6f 3f 3f ca 89 3f
       1.1377833 1.5858911 0.9351544 1.0764846

bn3.bias f4 [32]
000000 16 b3 b7 bf 76 2b ba bf e3 3c a5 bf aa c9 80 bf
       -1.4351528 -1.4544513 -1.2909206 -1.0061543
000010 e1 3a 4c bf f4 48 91 bf 87 d1 fb bf e5 42 68 bf
       -0.7977734 -1.1350389 -1.9673318 -0.9072707
000020 a2 e0 7c bf 14 67 11 c0 65 78 8e bf 74 3a 99 bf
       -0.9878026 -2.2719164 -1.1130491 -1.1970963
000030 ae 84 05 bf 9f ae f5 bf 97 02 a5 bf 38 3e cb be
       -0.5215558 -1.9193915 -1.2891415 -0.39695907
000040 95 50 de be 96 1c fb bf ba bb 8b bf d6 a3 bd bf
       -0.43420854 -1.9618099 -1.0916665 -1.4815624
000050 8d e7 34 bf d6 4c 10 bf 80 a6 af bf c7 dd 42 bf
       -0.7066582 -0.5636724 -1.3722687 -0.76119655
000060 e8 53 3d bf 36 0b 6f bf f3 3a a9 bf d6 a1 b0 bf
       -0.73956156 -0.9337648 -1.3221115 -1.3799388
000070 2e a0 62 bf c9 24 a8 bf bb 59 46 bf 0d 24 ce bf
       -0.88525665 -1.3136226 -0.7748067 -1.6104752

bn3.running_mean f4 [32]
000000 91 41 80 3f 78 4d a6 bf f4 92 14 3f 7b 57 22 c0
       1.0020009 -1.2992392 0.5803673 -2.5365894
000010 52 fd 20 3f a6 3c 02 be e3 81 55 3f 00 43 35 bf
       0.62886536 -0.12718448 0.83401316 -0.7080536
000020 94 a8 26 40 71 f3 a5 bf 17 e4 b9 be 7e c0 93 3f
       2.6040392 -1.2964917 -0.3630683 1.1543119
000030 38 42 c7 3f 23 7e 28 3d f2 6c 6d 3f 75 46 1d 3f
       1.5567083 0.04113592 0.9274436 0.61435634
000040 45 dc bb bd 02 7f 54 bd b2 6a 8c be 14 1f 0f c0
       -0.091728725 -0.051878937 -0.27425152 -2.2362719
000050 cb b1 95 3f 70 27 01 40 27 1c c6 3f b7 a1 9e bf
       1.1694883 2.018032 1.5477341 -1.2393101
000060 88 96 df 3e e9 4d 75 3f da 52 fc 3f 78 4b 44 3f
       0.43669534 0.95822006 1.9712784 0.76677656
000070 7b 31 a4 3f 1c 51 03 bf 68 8f 2f 3f c7 15 15 3f
       1.28276 -0.5129564 0.68578196 0.58236355

bn3.running_var f4 [32]
000000 22 63 f0 40 5a 08 22 40 c9 25 1d 41 36 ec 55 40
       7.512101 2.5317597 9.821725 3.3425422
000010 07 ab 09 41 b2 e4 dc 40 c9 32 cd 3f 24 96 07 40
       8.604255 6.902917 1.6031123 2.1185389
000020 5b d0 16 41 e2 32 f9 3f e5 d5 d7 40 2c 95 a1 40
       9.425868 1.9468653 6.74486 5.0494595
000030 da bf e3 40 3e 93 1b 41 e6 89 b8 3f 37 6a 53 40
       7.1171694 9.723448 1.4417083 3.3033578
000040 39 53 57 40 8d d2 a3 3f dc 3b d7 40 a0 33 f7 40
       3.3644545 1.279863 6.726057 7.725052
000050 d9 d2 f1 40 3f 96 0d 41 8c 25 7f 41 e6 18 06 41
       7.5569882 8.849181 15.946667 8.381079
000060 96 b3 16 41 1a 78 c0 40 d4 a1 54 41 ba dc 15 41
       9.418844 6.014661 13.289509 9.366388
000070 86 39 04 41 3a 40 e2 40 65 37 fe 40 55 1b 92 40
       8.264044 7.07034 7.944262 4.5658364

cpu f8 [32]
000000 00 00 00 e0 42 00 95 3f 00 00 00 40 93 34 93 3f
       0.02050880901515484 0.018755245953798294
000010 00 00 00 60 6b 5c 96 3f 00 00 00 a0 7b 7a 97 3f
       0.02183692716062069 0.02292817272245884
000020 00 00 00 80 af ef 9f 3f 00 00 00 80 17 8e 90 3f
       0.031187765300273895 0.016167037189006805
000030 00 00 00 80 0a fd 92 3f 00 00 00 00 e9 8d 96 3f
       0.01854339987039566 0.02202571928501129
000040 00 00 00 c0 bc 6b 98 3f 00 00 00 80 8e 03 97 3f
       0.023848485201597214 0.022474505007267
000050 00 00 00 a0 fb 06 91 3f 00 00 00 00 2a b8 95 3f
       0.016628200188279152 0.02121034264564514
000060 00 00 00 c0 bb 4a 94 3f 00 00 00 40 66 c2 9b 3f
       0.019816335290670395 0.02710876241326332
000070 00 00 00 c0 5a b8 9d 3f 00 00 00 a0 db 7d 93 3f
       0.02902356907725334 0.019034797325730324
000080 00 00 00 c0 d2 a8 90 3f 00 00 00 40 96 3c 95 3f
       0.016269009560346603 0.020738933235406876
000090 00 00 00 80 ae 01 94 3f 00 00 00 60 30 98 91 3f
       0.01953766494989395 0.017182117328047752
0000a0 00 00 00 80 ad d3 90 3f 00 00 00 c0 67 9b 97 3f
       0.016432486474514008 0.023053761571645737
0000b0 00 00 00 00 bb e8 93 3f 00 00 00 e0 b1 1b 93 3f
       0.01944248378276825 0.01866033487021923
0000c0 00 00 00 e0 f3 c1 90 3f 00 00 00 80 84 7e 90 3f
       0.016364870592951775 0.016107626259326935
0000d0 00 00 00 20 dd 81 9b 3f 00 00 00 a0 21 e0 94 3f
       0.026862578466534615 0.020386243239045143
0000e0 00 00 00 20 a0 7d 90 3f 00 00 00 c0 6f a7 93 3f
       0.01610422320663929 0.019193407148122787
0000f0 00 00 00 a0 4c 17 93 3f 00 00 00 80 a8 7c 95 3f
       0.018643567338585854 0.020983345806598663

conv4.bias f4 [32]
000000 08 71 a6 3e 54 3c ef 3c 7a 96 db be ba 93 0f 3e
       0.3250811 0.029203571 -0.42888242 0.14021197
000010 c9 f2 3a be 78 40 66 be b6 07 1f 3e 06 51 6e 3c
       -0.18256678 -0.2248553 0.15530285 0.014545685
000020 f2 4d d2 be d1 b8 d5 bc 21 43 89 be 1b 7a cb bd
       -0.41075093 -0.026089104 -0.26809028 -0.09935399
000030 47 19 24 3e 00 d0 6d be 5a 30 e0 3c bf e1 38 bd
       0.16025268 -0.23223877 0.027366806 -0.045137163
000040 e0 e6 a1 3c 95 a1 cb bd 94 5a 08 bf 78 af 9c bb
       0.01976341 -0.09942929 -0.5326321 -0.0047816597
000050 4c 87 93 3c 1d 95 cc 3d 60 60 f7 3c 14 26 af 3c
       0.01800885 0.099893786 0.030197322 0.021380462
000060 73 88 0e 3e 31 70 bf be e9 3b 99 be 18 50 44 be
       0.13919239 -0.37390283 -0.2992852 -0.19171178
000070 cb 86 12 bf 90 30 6b be b3 58 84 bd e8 00 2b 3d
       -0.5723693 -0.22967744 -0.064622305 0.04174891

bn4.weight f4 [32]
000000 e2 5e a2 40 2b 48 cf 40 fe cd 60 40 3d fd aa 40
       5.0740824 6.4775596 3.5125728 5.343413
000010 60 8c c0 40 2e c1 b0 40 04 92 a6 40 ec 58 bf 40
       6.0171356 5.5235815 5.205324 5.9796047
000020 0b f8 b8 40 92 33 c1 40 c3 48 85 40 0f a1 aa 40
       5.7802787 6.037545 4.165132 5.3321605
000030 1a 8b b7 40 75 aa c0 40 e3 8a 9d 40 9f 0f c7 40
       5.73573 6.0208077 4.923204 6.220657
000040 ab e1 da 40 19 cb bc 40 1c e9 c8 40 23 86 b3 40
       6.8400474 5.899792 6.2784557 5.610124
000050 45 3f 8b 40 d2 80 c0 40 73 d6 a4 40 23 3e bb 40
       4.3514733 6.015725 5.151178 5.851335
000060 89 54 90 40 ca 3e b7 40 bc b3 a9 40 35 42 ab 40
       4.510319 5.7264147 5.30319 5.351832
000070 9e b9 c8 40 f5 85 aa 40 e2 20 ad 40 1f be bb 40
       6.2726583 5.328852 5.410264 5.866958

bn4.bias f4 [32]
000000 fc f8 42 c0 4b 42 31 c0 f9 7b 8e bd b1 30 0a c0
       -3.0464468 -2.7696712 -0.0695724 -2.159222
000010 d9 e1 d3 bf 0c 5a 4f c0 ea 31 44 c0 1f 9a a5 c0
       -1.6553298 -3.239871 -3.0655465 -5.1750636
000020 5b 1e 4b c0 51 ad a1 bf 85 b0 25 c0 ae 2d 69 c0
       -3.1737278 -1.2631017 -2.588899 -3.643413
000030 e5 8e b8 bf 02 69 1d c0 19 d0 fa bf 02 a4 78 c0
       -1.4418608 -2.4595342 -1.9594756 -3.8850102
000040 a0 a1 43 c0 9c 34 85 c0 8f 9e a4 be 6d de 72 bf
       -3.0567398 -4.162672 -0.3215222 -0.94870645
000050 65 37 26 bf 26 8e c2 bf 26 2c 35 bf c2 b2 67 c0
       -0.64928275 -1.519963 -0.7077049 -3.6202855
000060 36 0e a0 bf a6 36 48 c0 e3 35 8a c0 33 86 4d c0
       -1.2504337 -3.1283355 -4.319078 -3.2113159
000070 85 5b 3d c0 da 8d 92 c0 d7 0e 2b c0 8a b6 73 c0
       -2.958711 -4.579816 -2.6727808 -3.8080163

bn4.running_mean f4 [32]
000000 ff 45 21 bb a9 cd 74 be e8 c9 a9 be e0 20 3c 3e
       -0.0024608371 -0.23906578 -0.33161855 0.18371916
000010 75 5d 8e bd dd 89 f3 be af 00 34 3e 95 7f c0 be
       -0.06951419 -0.4756612 0.17578386 -0.37597337
000020 61 be 47 bf 36 f8 5d be 7f f9 ce 3d 5a b9 bd 3d
       -0.7802487 -0.21676716 0.10106181 0.09263869
000030 02 ad 65 3d c9 0c f1 be bd ae a8 3e b3 b0 66 be
       0.056073196 -0.47080067 0.32945815 -0.22528343
000040 9a 97 76 3d c3 ad 2f 3e f1 cf 25 bf 18 12 97 bd
       0.060203172 0.17156129 -0.6477042 -0.07376498
000050 9b f5 81 bd 90 0c b5 be d9 89 3c bd 70 ff 88 bd
       -0.06345674 -0.35361147 -0.0460299 -0.06689346
000060 0f 14 dc 3d 17 34 84 be 73 d7 89 be f4 e9 c0 be
       0.107460134 -0.2582099 -0.26922187 -0.37678492
000070 79 08 6e bf 5d 4b 8a be b2 ef 77 be c2 22 6b 3e
       -0.9298168 -0.27010623 -0.2421253 0.22962478

bn4.running_var f4 [32]
000000 d6 32 9c 3f 3a 0b 9c 3f 19 75 10 40 1a b8 d5 3f
       1.2203014 1.2190926 2.257147 1.6696808
000010 18 d3 ad 3f ca ee 9a 3f ce 5b 9c 3f 44 1b c7 3f
       1.3580046 1.2104123 1.2215517 1.5555196
000020 f7 70 97 3f c0 c6 c0 3f 3f 7d b3 3f f5 7a 6d 3f
       1.1831349 1.5060654 1.4022597 0.9276574
000030 b1 bc 87 3f 10 40 f3 3f ab fb 8b 3f af d4 c9 3f
       1.0604459 1.9003925 1.0936178 1.5768031
000040 ee 41 e5 3f b7 44 9e 3f 33 d4 f8 3f b2 95 c0 3f
       1.7910745 1.236472 1.9439758 1.5045683
000050 52 b0 a9 3f 64 a2 ba 3f ec bf ef 3f df 5a a2 3f
       1.3256934 1.4580808 1.8730445 1.2683982
000060 c2 57 bd 3f 7c 80 ac 3f 37 0f dc 3f 0c be c7 3f
       1.4792407 1.347671 1.7192143 1.5604873
000070 45 2e d8 3f 18 86 9b 3f 2e fb d5 3f 87 87 e8 3f
       1.688912 1.2150297 1.6717279 1.816636

cpu f8 [16]
000000 00 00 00 60 17 46 99 3f 00 00 00 a0 6a 60 9e 3f
       0.024681439623236656 0.029664674773812294
000010 00 00 00 e0 ec a3 a7 3f 00 00 00 20 2c 56 a3 3f
       0.046172525733709335 0.03776681795716286
000020 00 00 00 a0 15 87 98 3f 00 00 00 00 0c 2f a5 3f
       0.023952806368470192 0.0413745641708374
000030 00 00 00 80 88 f1 a1 3f 00 00 00 c0 34 aa 9d 3f
       0.03504587709903717 0.028969597071409225
000040 00 00 00 e0 94 cf 9b 3f 00 00 00 60 c2 85 a4 3f
       0.02715904824435711 0.04008300229907036
000050 00 00 00 e0 21 2b a2 3f 00 00 00 40 0f 01 a5 3f
       0.03548532351851463 0.04102370887994766
000060 00 00 00 20 d1 f9 a3 3f 00 00 00 e0 2a 43 9e 3f
       0.03901532664895058 0.02955309860408306
000070 00 00 00 60 a5 d1 a1 3f 00 00 00 20 29 4e a2 3f
       0.034802597016096115 0.035752568393945694

conv5.bias f4 [16]
000000 62 49 50 3f 37 a1 f2 3e 41 8e 09 bf e9 23 85 3e
       0.81361973 0.47388622 -0.5373269 0.2600396
000010 07 92 93 3b c1 20 23 c0 84 4d ec bf ef 23 a7 3e
       0.004503492 -2.5488741 -1.8461156 0.32644603
000020 86 1b cb 3e 56 61 88 bf b5 3d 21 3f 2b c6 aa bf
       0.39669436 -1.0654705 0.6298478 -1.3341726
000030 54 34 55 bf b0 62 1e 3f 67 b3 35 3f 8c 41 b3 bf
       -0.8328297 0.61869335 0.7097687 -1.4004378
