networks/quantized_models/iscx2016vpn/CNN1D_TrafficClassification_iscx2016vpn.pt (torch, 66764 bytes, 37 tensors)

conv1.bias f4 [16]
000000 fe 94 d1 3f 0e d6 df 3f 76 cb ef 3d 0c 03 76 bf
       1.6373594 1.7487199 0.11708729 -0.960984
000010 14 5e 90 bd 8e 89 4f 3f 6e 78 51 bb 10 0a 45 bf
       -0.07049194 0.81069267 -0.003196265 -0.7696848
000020 91 c0 e7 bf 0b 88 0a c0 43 90 f1 3f bf 07 2c bf
       -1.8105642 -2.1645534 1.887215 -0.6719932
000030 88 87 f0 be e4 f1 26 3f 67 9b 20 bf 0f 23 2f 3d
       -0.46978402 0.65212846 -0.62737125 0.042758044

conv1.weight_orig f4 [16, 1, 3]
000000 8d af ba bf 4b c9 c6 be 15 98 ac bf cf 68 0c 3f
       -1.4584824 -0.3882545 -1.3483912 0.54847425
000010 2b 75 06 40 5a 8c 70 be 8f 30 08 bf 5d 11 0b 40
       2.1009014 -0.2349104 -0.53199095 2.1729348
000020 b2 1a 48 be c6 6d 86 3f 6d 01 c9 be 1e a8 92 3f
       -0.19541433 1.050225 -0.392589 1.1457555
000030 f5 5f 76 3e d1 67 d8 3e 60 a4 00 40 1b 84 f3 3e
       0.24060042 0.42266706 2.0100327 0.47561726
000040 be 3a a1 be 9a f9 06 c0 bf 47 92 3e 3f fa 22 c0
       -0.3149013 -2.1089845 0.28570363 -2.5465238
000050 7c c7 d7 bf fb 56 e8 3f 40 48 46 3f c6 b1 54 be
       -1.6857753 1.8151544 0.77453995 -0.2077094
000060 b3 18 1a c0 3d 59 c7 3e ad 9c 41 3d 24 f5 bb bd
       -2.4077575 0.3893527 0.04726856 -0.09177616
000070 45 6c bb bf 98 bd 06 c0 30 2e 24 3f 00 37 af bf
       -1.4642416 -2.105322 0.64132977 -1.368866
000080 2f db 02 bf 66 7a 38 3e 54 fa b2 c0 91 c1 86 3d
       -0.511157 0.18015441 -5.5930576 0.065798886
000090 52 2a 42 3f 55 51 08 be 41 fe ca bf a3 4b cf bf
       0.75845826 -0.13312276 -1.5858842 -1.6194957
0000a0 8e 6e 4c 3f 2f ba 30 bf 4c ef bb bf 28 fc 4a 3f
       0.79856193 -0.69034094 -1.4682403 0.7929101
0000b0 56 31 e5 bd ed e1 43 be ca de 5a 3f 7d 59 b9 bf
       -0.11191051 -0.19129153 0.854962 -1.4480435

conv1.weight_mask f4 [16, 1, 3]
000000 00 00 80 3f 00 00 80 3f 00 00 80 3f 00 00 80 3f
       1.0 1.0 1.0 1.0
000010 00 00 80 3f 00 00 80 3f 00 00 80 3f 00 00 80 3f
       1.0 1.0 1.0 1.0
000020 00 00 80 3f 00 00 80 3f 00 00 80 3f 00 00 80 3f
       1.0 1.0 1.0 1.0
000030 00 00 80 3f 00 00 80 3f 00 00 80 3f 00 00 80 3f
       1.0 1.0 1.0 1.0
000040 00 00 80 3f 00 00 80 3f 00 00 80 3f 00 00 80 3f
       1.0 1.0 1.0 1.0
000050 00 00 80 3f 00 00 80 3f 00 00 80 3f 00 00 80 3f
       1.0 1.0 1.0 1.0
000060 00 00 80 3f 00 00 80 3f 00 00 80 3f 00 00 80 3f
       1.0 1.0 1.0 1.0
000070 00 00 80 3f 00 00 80 3f 00 00 80 3f 00 00 80 3f
       1.0 1.0 1.0 1.0
000080 00 00 80 3f 00 00 80 3f 00 00 80 3f 00 00 80 3f
       1.0 1.0 1.0 1.0
000090 00 00 80 3f 00 00 80 3f 00 00 80 3f 00 00 80 3f
       1.0 1.0 1.0 1.0
0000a0 00 00 80 3f 00 00 80 3f 00 00 80 3f 00 00 80 3f
       1.0 1.0 1.0 1.0
0000b0 00 00 80 3f 00 00 80 3f 00 00 80 3f 00 00 80 3f
       1.0 1.0 1.0 1.0

conv1._weight_quantizer._amax f4 [16, 1, 1]
000000 20 a1 ba 3f 86 74 06 40 78 04 0b 40 7c 5e 92 3f
       1.4580421 2.100862 2.1721478 1.1435084
000010 21 c8 00 40 74 ca 06 40 6a f8 22 40 70 34 e8 3f
       2.012215 2.1061068 2.546412 1.8141003
000020 4c 01 1a 40 78 b4 06 40 f4 27 af 3f 54 f6 b2 40
       2.4063292 2.104765 1.3684068 5.5925694
000030 eb fc ca 3f df 23 cf 3f de de bb 3f 0a d2 bd 3f
       1.5858434 1.6182822 1.4677389 1.4829724

bn1.weight f4 [16]
000000 d5 28 03 40 f7 cd 37 3f 82 cb 2b 3f 1e ca 56 3f
       2.0493672 0.7179865 0.67107403 0.83902156
000010 c5 ce 1c 3f 52 93 04 40 47 bb 14 40 e5 89 52 3f
       0.61253005 2.0714917 2.3239305 0.8224166
000020 f8 f6 0f 40 bb 9c 07 40 d0 ca 9d 3f 8a c8 0c 40
       2.2494488 2.118941 1.2327518 2.19974
000030 9f 64 00 3f e2 0f a5 3f 2a d2 36 3f ab 5d 1a 3f
       0.50153536 1.2895472 0.71414435 0.60299176

bn1.bias f4 [16]
000000 2c 1d 81 be 61 71 66 bf 48 a5 af be fd 6b bc 3e
       -0.2521757 -0.9001675 -0.34305787 0.3680114
000010 7c a9 fa be b7 87 6d bf 9c 89 9c bf 4a 6a b8 be
       -0.4895743 -0.9278521 -1.2229495 -0.36018592
000020 81 85 ae bf 63 74 58 ba d2 f7 0d bf 02 26 0e be
       -1.3634492 -0.0008257089 -0.5545627 -0.13881686
000030 78 32 91 3f 74 3a 0e bf e1 65 94 bd af af e0 3e
       1.1343527 -0.5555794 -0.07245994 0.43884036

bn1.running_mean f4 [16]
000000 0a 81 8a 3f bc cf 0a 40 cb 6a bd 3e 13 f1 25 bf
       1.082063 2.168929 0.3699554 -0.64820975
000010 36 6d ca 3e fb 3a f2 3e 70 bf 30 bf f1 7b b6 be
       0.39536446 0.47310624 -0.6904211 -0.35641435
000020 0b c0 09 c0 b2 34 33 c0 41 ef d5 3f 96 fe cc bf
       -2.1523464 -2.8000913 1.671364 -1.6015193
000030 cd 2d 23 bf 97 fa c7 3e bb 95 43 bf 76 d1 bf bd
       -0.6374176 0.39058372 -0.76400346 -0.093661234

bn1.running_var f4 [16]
000000 cc ae 30 3f 89 b6 ef 3e ca 44 89 3e 9f 64 83 3e
       0.6901672 0.4681895 0.26810294 0.25662705
000010 f9 3f 07 3f 5c bb b4 3e e8 81 93 3f 89 92 dd 3e
       0.5283199 0.35299194 1.1524019 0.4327586
000020 9b 46 c9 3e cf fd 70 3f eb 10 26 3e 58 d7 21 40
       0.3931168 0.9413728 0.16217391 2.5287685
000030 3c b3 14 3e 68 dc 72 3e f2 94 f1 3d 2a a9 f4 3d
       0.14521497 0.23716891 0.11795987 0.11946328

conv2.bias f4 [16]
000000 a5 af 9c be 75 49 de 3e 9b a7 9c 3f 82 83 16 bf
       -0.30602756 0.43415418 1.2238649 -0.58794415
000010 d9 87 8d bf 10 bb 1d 3c a6 02 1b 3f 57 ff 6c bd
       -1.1057082 0.009627119 0.60550916 -0.0578607
000020 0c 7a 19 3f f3 81 f1 3e d6 8d 47 3f f0 5b fd be
       0.59951854 0.47169456 0.779508 -0.49484205
000030 f8 53 8c be 79 5d 6f be b1 4e 82 3f d3 9f 41 3f
       -0.27407813 -0.233755 1.0180265 0.756345

conv2.weight_orig f4 [16, 16, 3]
000000 e1 cc af 3f c8 d2 d5 3e 07 50 dc be 0d b8 9a bf
       1.3734399 0.41762376 -0.43029806 -1.2087418
000010 60 80 f5 be b1 63 90 be 01 8c 89 be 0d ad 2a 3e
       -0.47949505 -0.28201059 -0.26864627 0.16667576
000020 e3 87 ba be 6a be 3a bf 0a 42 93 3f f8 e7 be be
       -0.36431798 -0.729468 1.1504529 -0.37286353
000030 d9 d5 17 bf 2e f9 07 3f dc f1 98 3f b2 5c 01 c0
       -0.5931068 0.53114593 1.194881 -2.0212827
000040 62 ed 00 bf 3d 9a 14 bf 75 fd 1c c0 78 e4 9e 3f
       -0.5036222 -0.5804785 -2.4529698 1.2413473
000050 74 9d 32 3f 9e f1 b5 3d 09 8a 6e be 9a fa e9 be
       0.69771504 0.088839754 -0.23294844 -0.45699006
000060 a6 2d 80 bf 79 6c 46 bf 2e cd ef 3e ea 7b bd 3f
       -1.0013931 -0.77509266 0.46836227 1.480344
000070 5f ea 03 40 25 32 a4 3e 5b db 9b 3f 74 e0 63 3e
       2.0611799 0.32069507 1.2176317 0.22253591
000080 01 23 fe be 72 4e 78 3f fc a3 80 be 1b 34 69 bc
       -0.4963608 0.969947 -0.2512511 -0.014233614
000090 77 c8 8a bf e6 70 53 3f 9b c5 34 3f 8c 6c 91 bf
       -1.0842427 0.82594144 0.7061402 -1.1361251
0000a0 3f b1 e0 3e 1f 5b e0 3e bd 64 63 c0 1c 08 67 be
       0.43885228 0.4381952 -3.5530236 -0.22561687
0000b0 a1 10 8d 3f 92 64 f8 bc df 96 ad bf 98 c0 44 bf
       1.10207 -0.030321393 -1.3561667 -0.76856375
0000c0 f7 bd f7 bd 57 44 60 3f 4d 6a ae be ae ec 8f 3f
       -0.1209678 0.8760428 -0.34065476 1.1244104
0000d0 7f 97 19 3e 8a f6 5a bf cb 38 b0 bd 72 0a 99 bf
       0.14999197 -0.8553244 -0.086045824 -1.1956313
0000e0 f7 4a 28 3f 97 e1 b1 bf 44 d2 83 3f d0 57 f6 be
       0.6573939 -1.389697 1.0298543 -0.4811387
0000f0 4d fb 97 bd 4e 58 0c 3e e0 8e a9 3d 11 a7 88 3f
       -0.07420979 0.1370556 0.08279204 1.0675985
000100 f1 03 2f 3f 76 3b d0 3d 70 5a 10 3d a0 52 c0 3f
       0.6836539 0.10167591 0.035242498 1.5025215
000110 d6 fe 09 40 3a 34 73 bf a9 c1 86 bf c3 8e c1 be
       2.156179 -0.95001566 -1.052785 -0.3780423
000120 e3 83 98 3e ed dd 2a bd 90 99 65 c0 79 df 3a bf
       0.29788122 -0.04171555 -3.5874977 -0.7299724
000130 c3 53 26 3f 4f 12 38 bf 5b 18 1c bf 7a a5 ee bf
       0.6497156 -0.71902937 -0.60974663 -1.864425
000140 8d f4 d4 bf b3 13 ec be 89 8f 48 bf e9 14 92 bd
       -1.6637131 -0.4610878 -0.7834402 -0.071328945
000150 29 66 cd be 89 20 8c 3f ae a4 00 be 7c 69 95 3f
       -0.40117005 1.0947429 -0.1256282 1.1672816
000160 6e 4f b5 3f 27 a1 8e bf 67 0d a2 3e 40 5f 67 3f
       1.4164865 -1.114293 0.3165085 0.90379715
000170 68 fc 26 bf 0a c0 b0 bf 4d 0b aa bf c6 a0 e6 bc
       -0.6522889 -1.3808606 -1.3284699 -0.028152835
000180 82 31 16 3f 6b de 81 3f dc 4f 86 3f fa b5 3e 3f
       0.5866929 1.0146002 1.0493121 0.74496424
000190 66 0c 18 3d da d5 6e bf 4b ca 26 3c cb 5a 1a c0
       0.0371212 -0.9329506 0.010180066 -2.4117916
0001a0 2d 50 55 3e d2 a3 55 be 56 8b 0b 40 fd 1b 6b 3e
       0.20831366 -0.20863274 2.1803794 0.22959895
0001b0 42 29 ec be e5 ab 53 3f 68 74 b6 3e 62 28 f6 3e
       -0.46125227 0.82684165 0.35635686 0.48077685
0001c0 5b aa 95 be 12 78 14 3e 18 da 29 40 4f d2 b8 3d
       -0.29231533 0.14498928 2.6539364 0.09024488
0001d0 c3 7a fd be 51 fb b7 be 78 68 c2 be 70 2e ec bf
       -0.49507722 -0.35933927 -0.37970328 -1.8451672
0001e0 d1 55 19 3f ff d9 ef bf ec 20 2c bf 88 64 06 3f
       0.5989657 -1.8738402 -0.67237735 0.5249715
0001f0 49 15 d8 3f f4 5f 19 3f 95 db d7 be db af 00 39
       1.6881496 0.5991204 -0.42159715 0.00012272543
000200 d3 87 4a 3d 2b 01 e8 3e 71 00 55 3c c2 d3 15 3e
       0.04944594 0.4531339 0.0130005935 0.1463156
000210 d1 c9 30 3f 0a f3 27 be a5 35 ad bf 29 85 f1 3e
       0.6905795 -0.16401306 -1.3531996 0.47171906
000220 fb 12 08 bf 36 fd 5c 3f 76 7d 14 3e 75 e6 fd 3e
       -0.5315396 0.8632387 0.14500985 0.49589887
000230 a8 2c 02 3f 28 1f 38 bf 29 b5 a6 be c8 5a 16 3e
       0.5084939 -0.7192254 -0.3256009 0.14683068
000240 1d 2b 10 bf 48 6c d1 be da ce 99 3e af 18 f8 be
       -0.56315786 -0.40902925 0.30040628 -0.48456332
000250 13 3e 1b 3f 44 9d fb bd 61 1a 1e be 5f 65 bb bf
       0.6064159 -0.122858554 -0.1543975 -1.4640311
000260 a0 3e 37 be 7d ee 12 bd 00 cb d6 bf 51 d5 82 3f
       -0.17894983 -0.03587197 -1.6780701 1.0221349
000270 60 23 08 3e 0e 57 81 3f d7 a7 50 bf 6e ba 3a bc
       0.13294744 1.0104692 -0.81506103 -0.011396987
000280 fc bf 28 40 d3 43 7d 3e 9d 6d 47 be 4c ae 84 3f
       2.6367178 0.24732904 -0.19475408 1.0365691
000290 0c 92 da 3f a3 03 9c 3e ad 8d 88 bf f6 4c 07 3f
       1.707582 0.30471525 -1.0668236 0.5285181
0002a0 95 4d 97 be 00 06 dd 3f a6 36 b7 be cd f0 d5 bd
       -0.29551378 1.7267456 -0.3578388 -0.1044632
0002b0 c1 ef 03 3f 06 38 f4 3f 61 18 39 bd 50 a8 2d 3f
       0.5153771 1.9079597 -0.045189265 0.6783495
0002c0 b5 61 09 bf 46 49 8a 3d f5 01 ca be d2 1a 4a 3f
       -0.53664714 0.06752257 -0.39454618 0.78947175
0002d0 e7 f5 e0 bc a5 bf e4 3f ee 93 1f 3a 54 ab ef 3c
       -0.027461005 1.7870985 0.0006087412 0.0292565
0002e0 47 f6 a1 3f 1f 8d 80 be 90 04 57 3e 00 a8 d7 be
       1.2653283 -0.25107667 0.20997834 -0.4212036
0002f0 2b a4 9d 3d b6 4a 93 3d d4 37 b9 bf 30 64 21 be
       0.07697328 0.07191984 -1.4470162 -0.15760875
000300 2a 26 1b 40 d4 c8 a8 3f 23 ed 3b bf c6 67 81 3e
       2.4242043 1.3186288 -0.73408717 0.25274485
000310 58 5c 33 bf c6 fa 41 bf 51 4b 9b bd fe 98 f4 bc
       -0.7006278 -0.75773275 -0.07582725 -0.029858109
000320 41 53 ee be a0 36 56 bf 59 01 3c bf 61 af 08 3f
       -0.46547893 -0.836771 -0.73439556 0.53392607
000330 81 2e 61 3f 94 31 97 be 52 5b 03 3f b2 ea c5 be
       0.87961584 -0.29530013 0.5131122 -0.3865562
000340 40 97 1d 3e 31 b9 48 be f6 1d c2 3d 22 a5 0f 40
       0.15389729 -0.19601895 0.09478371 2.244454
000350 e6 a3 6c 3f cf 69 25 3e 7d 94 f8 bd c0 0f 23 3f
       0.9243759 0.16153644 -0.12137697 0.6369591
000360 68 ed 84 3e a9 c9 e5 be 5b db 30 c0 83 56 8f 3e
       0.25962377 -0.44880417 -2.7633884 0.2799569
000370 b8 c7 8f 3f 16 0a 19 bf a0 c9 bb be 1c 71 85 3e
       1.1232824 -0.59781015 -0.36677265 0.26062858
000380 38 9f a4 3e c2 75 db 3d e6 65 ef 3e 7b 3d 02 bf
       0.32152724 0.1071582 0.4675743 -0.5087506
000390 99 4e f7 3e e1 0c bd be 44 0b ae be 61 ca 99 bf
       0.48302153 -0.36923888 -0.3399297 -1.2014886
0003a0 be b8 56 bf f0 0f 79 bf 29 db 28 c0 c1 2d 5a 3f
       -0.83875644 -0.97289944 -2.6383765 0.85226065
0003b0 48 e2 00 3f d6 c2 b6 3e 10 16 0c 3f a3 53 61 3e
       0.5034528 0.35695523 0.54721165 0.22004561
0003c0 7d c2 20 be f8 1b 15 bf b4 77 bf 3e ab 8f 01 bf
       -0.15699191 -0.582458 0.37396014 -0.50609845
0003d0 e3 c9 8b 3d ee cd 10 3f b1 e3 cb 3e 79 de b5 3e
       0.06825616 0.56564224 0.39822152 0.35521296
0003e0 40 dc b6 bf cf 64 80 3d 15 5e 49 3d c0 db 85 bd
       -1.4285965 0.06269228 0.04916199 -0.065360546
0003f0 8f 55 5e be ac 97 12 bf 20 b8 18 3f 3a a5 69 3f
       -0.21712326 -0.5726268 0.5965595 0.9126774

conv2.weight_mask f4 [16, 16, 3]
000000 00 00 80 3f 00 00 80 3f 00 00 80 3f 00 00 80 3f
       1.0 1.0 1.0 1.0
000010 00 00 80 3f 00 00 80 3f 00 00 80 3f 00 00 80 3f
       1.0 1.0 1.0 1.0
000020 00 00 80 3f 00 00 80 3f 00 00 80 3f 00 00 80 3f
       1.0 1.0 1.0 1.0
000030 00 00 80 3f 00 00 80 3f 00 00 80 3f 00 00 80 3f
       1.0 1.0 1.0 1.0
000040 00 00 80 3f 00 00 80 3f 00 00 80 3f 00 00 80 3f
       1.0 1.0 1.0 1.0
000050 00 00 80 3f 00 00 80 3f 00 00 80 3f 00 00 80 3f
       1.0 1.0 1.0 1.0
000060 00 00 80 3f 00 00 80 3f 00 00 80 3f 00 00 80 3f
       1.0 1.0 1.0 1.0
000070 00 00 80 3f 00 00 80 3f 00 00 80 3f 00 00 80 3f
       1.0 1.0 1.0 1.0
000080 00 00 80 3f 00 00 80 3f 00 00 80 3f 00 00 80 3f
       1.0 1.0 1.0 1.0
000090 00 00 80 3f 00 00 80 3f 00 00 80 3f 00 00 80 3f
       1.0 1.0 1.0 1.0
0000a0 00 00 80 3f 00 00 80 3f 00 00 80 3f 00 00 80 3f
       1.0 1.0 1.0 1.0
0000b0 00 00 80 3f 00 00 80 3f 00 00 80 3f 00 00 80 3f
       1.0 1.0 1.0 1.0
0000c0 00 00 80 3f 00 00 80 3f 00 00 80 3f 00 00 80 3f
       1.0 1.0 1.0 1.0
0000d0 00 00 80 3f 00 00 80 3f 00 00 80 3f 00 00 80 3f
       1.0 1.0 1.0 1.0
0000e0 00 00 80 3f 00 00 80 3f 00 00 80 3f 00 00 80 3f
       1.0 1.0 1.0 1.0
0000f0 00 00 80 3f 00 00 80 3f 00 00 80 3f 00 00 80 3f
       1.0 1.0 1.0 1.0
000100 00 00 80 3f 00 00 80 3f 00 00 80 3f 00 00 80 3f
       1.0 1.0 1.0 1.0
000110 00 00 80 3f 00 00 80 3f 00 00 80 3f 00 00 80 3f
       1.0 1.0 1.0 1.0
000120 00 00 80 3f 00 00 80 3f 00 00 80 3f 00 00 80 3f
       1.0 1.0 1.0 1.0
000130 00 00 80 3f 00 00 80 3f 00 00 80 3f 00 00 80 3f
       1.0 1.0 1.0 1.0
000140 00 00 80 3f 00 00 80 3f 00 00 80 3f 00 00 80 3f
       1.0 1.0 1.0 1.0
000150 00 00 80 3f 00 00 80 3f 00 00 80 3f 00 00 80 3f
       1.0 1.0 1.0 1.0
000160 00 00 80 3f 00 00 80 3f 00 00 80 3f 00 00 80 3f
       1.0 1.0 1.0 1.0
000170 00 00 80 3f 00 00 80 3f 00 00 80 3f 00 00 80 3f
       1.0 1.0 1.0 1.0
000180 00 00 00 00 00 00 00 00 00 00 00 00 00 00 00 00
       0.0 0.0 0.0 0.0
000190 00 00 00 00 00 00 00 00 00 00 00 00 00 00 00 00
       0.0 0.0 0.0 0.0
0001a0 00 00 00 00 00 00 00 00 00 00 00 00 00 00 00 00
       0.0 0.0 0.0 0.0
0001b0 00 00 00 00 00 00 00 00 00 00 00 00 00 00 00 00
       0.0 0.0 0.0 0.0
0001c0 00 00 00 00 00 00 00 00 00 00 00 00 00 00 00 00
       0.0 0.0 0.0 0.0
0001d0 00 00 00 00 00 00 00 00 00 00 00 00 00 00 00 00
       0.0 0.0 0.0 0.0
0001e0 00 00 00 00 00 00 00 00 00 00 00 00 00 00 00 00
       0.0 0.0 0.0 0.0
0001f0 00 00 00 00 00 00 00 00 00 00 00 00 00 00 00 00
       0.0 0.0 0.0 0.0
000200 00 00 00 00 00 00 00 00 00 00 00 00 00 00 00 00
       0.0 0.0 0.0 0.0
000210 00 00 00 00 00 00 00 00 00 00 00 00 00 00 00 00
       0.0 0.0 0.0 0.0
000220 00 00 00 00 00 00 00 00 00 00 00 00 00 00 00 00
       0.0 0.0 0.0 0.0
000230 00 00 00 00 00 00 00 00 00 00 00 00 00 00 00 00
       0.0 0.0 0.0 0.0
000240 00 00 00 00 00 00 00 00 00 00 00 00 00 00 00 00
       0.0 0.0 0.0 0.0
000250 00 00 00 00 00 00 00 00 00 00 00 00 00 00 00 00
       0.0 0.0 0.0 0.0
000260 00 00 00 00 00 00 00 00 00 00 00 00 00 00 00 00
       0.0 0.0 0.0 0.0
000270 00 00 00 00 00 00 00 00 00 00 00 00 00 00 00 00
       0.0 0.0 0.0 0.0
000280 00 00 00 00 00 00 00 00 00 00 00 00 00 00 00 00
       0.0 0.0 0.0 0.0
000290 00 00 00 00 00 00 00 00 00 00 00 00 00 00 00 00
       0.0 0.0 0.0 0.0
0002a0 00 00 00 00 00 00 00 00 00 00 00 00 00 00 00 00
       0.0 0.0 0.0 0.0
0002b0 00 00 00 00 00 00 00 00 00 00 00 00 00 00 00 00
       0.0 0.0 0.0 0.0
0002c0 00 00 00 00 00 00 00 00 00 00 00 00 00 00 00 00
       0.0 0.0 0.0 0.0
0002d0 00 00 00 00 00 00 00 00 00 00 00 00 00 00 00 00
       0.0 0.0 0.0 0.0
0002e0 00 00 00 00 00 00 00 00 00 00 00 00 00 00 00 00
       0.0 0.0 0.0 0.0
0002f0 00 00 00 00 00 00 00 00 00 00 00 00 00 00 00 00
       0.0 0.0 0.0 0.0
000300 00 00 80 3f 00 00 80 3f 00 00 80 3f 00 00 80 3f
       1.0 1.0 1.0 1.0
000310 00 00 80 3f 00 00 80 3f 00 00 80 3f 00 00 80 3f
       1.0 1.0 1.0 1.0
000320 00 00 80 3f 00 00 80 3f 00 00 80 3f 00 00 80 3f
       1.0 1.0 1.0 1.0
000330 00 00 80 3f 00 00 80 3f 00 00 80 3f 00 00 80 3f
       1.0 1.0 1.0 1.0
000340 00 00 80 3f 00 00 80 3f 00 00 80 3f 00 00 80 3f
       1.0 1.0 1.0 1.0
000350 00 00 80 3f 00 00 80 3f 00 00 80 3f 00 00 80 3f
       1.0 1.0 1.0 1.0
000360 00 00 80 3f 00 00 80 3f 00 00 80 3f 00 00 80 3f
       1.0 1.0 1.0 1.0
000370 00 00 80 3f 00 00 80 3f 00 00 80 3f 00 00 80 3f
       1.0 1.0 1.0 1.0
000380 00 00 80 3f 00 00 80 3f 00 00 80 3f 00 00 80 3f
       1.0 1.0 1.0 1.0
000390 00 00 80 3f 00 00 80 3f 00 00 80 3f 00 00 80 3f
       1.0 1.0 1.0 1.0
0003a0 00 00 80 3f 00 00 80 3f 00 00 80 3f 00 00 80 3f
       1.0 1.0 1.0 1.0
0003b0 00 00 80 3f 00 00 80 3f 00 00 80 3f 00 00 80 3f
       1.0 1.0 1.0 1.0
0003c0 00 00 80 3f 00 00 80 3f 00 00 80 3f 00 00 80 3f
       1.0 1.0 1.0 1.0
0003d0 00 00 80 3f 00 00 80 3f 00 00 80 3f 00 00 80 3f
       1.0 1.0 1.0 1.0
0003e0 00 00 80 3f 00 00 80 3f 00 00 80 3f 00 00 80 3f
       1.0 1.0 1.0 1.0
0003f0 00 00 80 3f 00 00 80 3f 00 00 80 3f 00 00 80 3f
       1.0 1.0 1.0 1.0

conv2._weight_quantizer._amax f4 [16, 1, 1]
000000 c5 62 63 40 fd 97 65 40 18 da 29 40 fc bf 28 40
       3.5529034 3.5874016 2.6539364 2.6367178
000010 4a d8 30 40 7c 0c aa 40 47 7a 85 40 18 e4 2a 40
       2.7632012 5.314024 4.1711764 2.6701717
000020 16 f3 83 40 e1 9b 1d 40 d6 3a 8a 40 a4 b2 25 40
       4.1234236 2.462639 4.319682 2.5890284
000030 38 76 58 40 6b 4d 3e 40 b9 75 1c 40 c7 41 18 40
       3.3822155 2.9734752 2.4446852 2.3790147

bn2.weight f4 [16]
000000 27 ed 38 40 75 9e d3 3f 3c 6c ed 3f 68 7f ce 3f
       2.8894746 1.6532732 1.8548656 1.6132631
000010 45 be 1d 40 28 71 a3 3f 1f ea ed 3f ce 8d f4 3e
       2.4647381 1.2768908 1.8587073 0.47764438
000020 8b 12 2c 3f 08 c8 01 3f 26 e5 7e 3f 33 90 e1 3f
       0.67215794 0.5069585 0.995684 1.7622131
000030 30 05 ce 3e 5f ca 4a 3f 95 e3 19 40 87 de 96 3e
       0.40238333 0.79215044 2.4045155 0.2946665

bn2.bias f4 [16]
000000 7b 54 6f bf 09 69 d6 be 84 b2 e9 be 54 5d e6 be
       -0.9348828 -0.4187701 -0.4564401 -0.4499308
000010 d0 14 b8 be fb de 3d bf 06 14 13 bf a4 80 59 bf
       -0.3595338 -0.74168366 -0.5745243 -0.84961915
000020 29 79 6c be fa d8 d9 bf 2a 76 d2 bf 27 0d 38 bf
       -0.23093094 -1.7019341 -1.6442311 -0.7189507
000030 a1 4b a5 be 7b 88 2b bf 06 27 1d bf b1 a4 99 bd
       -0.32284263 -0.6700513 -0.6138767 -0.075021155

bn2.running_mean f4 [16]
000000 6c 38 f2 3f 77 17 53 c0 9d a7 9c 3f 7c 83 16 bf
       1.8923469 -3.2983072 1.2238652 -0.5879438
000010 13 e0 a1 3f 26 d3 ac 3f 92 d8 a7 40 59 ff 6c bd
       1.2646507 1.3501937 5.245187 -0.057860706
000020 2f e2 84 c0 f3 81 f1 3e 00 93 8d 40 ef 31 c6 c0
       -4.1526103 0.47169456 4.4241943 -6.1935954
000030 f2 53 8c be e8 b0 43 c0 33 d0 5d 3f cc 9f 41 3f
       -0.27407795 -3.0576725 0.8664581 0.75634456

bn2.running_var f4 [16]
000000 a5 d1 ae 41 60 ad 00 41 8f f2 23 26 f8 66 82 27
       21.852365 8.042328 5.6880714e-16 3.6193887e-15
000010 ef 6a 6e 41 3c 03 7e 41 ef 38 b5 41 43 90 23 24
       14.901107 15.87579 22.6528 3.5467185e-17
000020 f2 53 01 41 2c b5 84 26 92 7d 64 41 84 a2 17 41
       8.082994 9.208447e-16 14.280657 9.477177
000030 0e 38 a6 24 90 e4 e8 41 b7 b1 82 41 13 21 a8 27
       7.2085985e-17 29.111603 16.336775 4.6665226e-15

conv3.bias f4 [32]
000000 b0 69 0e bf 5d f4 dd 3d 19 f4 08 bf 2c 5b 2b be
       -0.55630016 0.10837624 -0.53497463 -0.16733998
000010 f0 74 da bd d4 30 22 be ca 7d 37 bd 6c 05 43 bf
       -0.10666835 -0.15838939 -0.044797696 -0.7618015
000020 78 31 6f be c3 99 0a 3d 98 8f 92 3e 7e 46 bc 3e
       -0.23358715 0.033838045 0.28625178 0.3677253
000030 9d 0c e1 3c 7e dc ce 3d 12 07 0a 3f f0 2e 9f 3e
       0.027471835 0.10100649 0.5391704 0.31090498
000040 d1 eb 78 bf f9 29 42 3e eb de 09 bf d1 8e 42 bf
       -0.9723483 0.18961324 -0.5385577 -0.7599917
000050 c4 07 b2 be 6a 83 48 bd b9 5a 8e be 66 18 26 bf
       -0.3477155 -0.04895345 -0.2780359 -0.6488098
000060 c9 d2 41 bd 90 11 40 3e dc 85 03 3f 68 a7 95 be
       -0.04732016 0.187567 0.5137613 -0.29229283
000070 bd 91 94 3e 78 29 19 bf c2 b7 a5 3c b5 b4 ba be
       0.2901744 -0.598289 0.020229224 -0.36465994

conv3.weight_orig f4 [32, 16, 3]
000000 96 54 b3 3e 65 94 29 3f a3 e0 c5 bf 63 db 86 3f
       0.3502547 0.6624206 -1.5459179 1.0535702
000010 44 0e db bf 8c 4f e2 3f cb e7 98 3f 06 0c aa be
       -1.7113729 1.7680526 1.1945738 -0.33212298
000020 7b 4e 74 bf d1 3e 6f bf 97 75 03 be bc 0a aa 3f
       -0.9543225 -0.93455225 -0.12837826 1.3284526
000030 84 22 68 3f 42 9b ba 3b b7 0b 3d 3f 58 60 01 c0
       0.90677667 0.0056947777 0.73846 -2.0215054
000040 6e 31 5d be 4a 8a 8f bf 88 bd 44 bf b6 ef 36 3e
       -0.21600887 -1.1214077 -0.768517 0.1786488
000050 a6 4c 23 3f d9 fa df bf 32 f0 bf be 19 98 6f 3f
       0.6378883 -1.7498428 -0.37487942 0.9359146
000060 f4 ce ab bf 1c bb 91 be 4a 32 33 3f 86 98 e6 be
       -1.3422532 -0.28463066 0.6999861 -0.4503824
000070 f1 99 55 3e 51 57 a8 bf 32 8d c6 3d 48 ca ac 3d
       0.20859505 -1.3151647 0.096948996 0.084370196
000080 c7 4a 9d 3d 1a a9 a3 3f f4 f3 55 3f 73 84 9a bf
       0.07680278 1.2785981 0.8357537 -1.207167
000090 92 9c 8d be 50 0b dd bf fa 5a 18 3f 9b b4 47 be
       -0.27658516 -1.7269077 0.5951382 -0.1950249
0000a0 f1 0b 06 be 2c 08 0d 3e d5 71 30 3f 11 b2 56 3e
       -0.13090493 0.13772649 0.68923694 0.20966364
0000b0 d7 c8 f4 be 4f 1c f7 3d f6 05 9f be dd a7 3f 3e
       -0.4780948 0.12065946 -0.31059235 0.18716379
0000c0 20 7b 6c 3f bf d2 76 bf 5c ca 04 3f 87 7c 66 3f
       0.92375374 -0.96415323 0.51871276 0.90033764
0000d0 8d 47 1d c0 b2 59 d4 3e c9 df c3 3f ab f5 7d bf
       -2.457492 0.41474682 1.5302669 -0.99202985
0000e0 86 2e b6 bf b8 31 c2 3e cf dc 88 bf e8 1d 6f be
       -1.4232948 0.37928557 -1.0692385 -0.23351252
0000f0 31 cc e4 3e 26 d5 33 3f b0 bf 3d 3f c5 0e 90 3e
       0.44687036 0.70247114 0.74120617 0.28136268
000100 2e f9 06 bf af de 30 3e 20 5b 55 3f 9e 11 3c c0
       -0.5272397 0.17272447 0.8334217 -2.9385753
000110 4c ff 08 bf 8e 00 86 bf e1 a3 0a bc d9 71 37 3d
       -0.5351455 -1.0468919 -0.008461923 0.044786308
000120 a4 20 bc 3e fc 62 cd 3d 01 d0 21 bc 29 74 86 be
       0.36743653 0.100286454 -0.009876252 -0.26260498
000130 1a 4f f6 be c6 88 70 3e 2a 39 a4 bf 39 8c 77 3e
       -0.48107225 0.23489675 -1.2829945 0.24174584
000140 d9 74 9a 3d f2 3b 80 3f 55 48 b4 3e 8d e6 8e bf
       0.07541818 1.0018294 0.35211435 -1.1164109
000150 92 7f b6 be cc 0a 94 3e 89 52 a0 3e 71 02 c0 bf
       -0.35644203 0.28914487 0.3131297 -1.5000745
000160 6e a6 bb 3e 2b 49 a6 3e 94 b3 1d 3f 9f 01 aa bf
       0.36650413 0.32477698 0.6160214 -1.3281745
000170 79 43 eb bd 5b 46 83 3e 20 ef ad bf b0 ec d7 3e
       -0.11487479 0.25639614 -1.35886 0.42172766
000180 c3 f2 89 be 28 c1 ac 3f 2e 4c 9e 3e 9d 98 0a bf
       -0.26943025 1.3496447 0.30917495 -0.5413912
000190 a1 20 24 3c 7f 73 bf bf 76 34 bf 3d 34 1a 21 bf
       0.010017545 -1.4957122 0.09336178 -0.6293061
0001a0 de 2c 91 3e 2b ad ce bd 97 af 40 bf b8 99 df bf
       0.28354543 -0.10091623 -0.7526793 -1.7468786
0001b0 06 84 a4 3f b7 fa e0 3f f3 67 e9 be ba 09 83 bf
       1.285279 1.7576512 -0.4558712 -1.0237343
0001c0 15 1a 6b be c9 19 93 3f dd a1 2f 3e bc 30 33 3f
       -0.22959168 1.1492244 0.1715159 0.6999624
0001d0 38 02 ce 3d 8c 05 93 bf 2f 6a 85 3f f3 b1 26 3f
       0.10059017 -1.1486068 1.042303 0.6511528
0001e0 a3 0c 52 bf ac 8a bb be 19 ed a8 3e 7a a4 e2 3f
       -0.8205053 -0.36629236 0.3299339 1.7706444
0001f0 d1 75 f3 bf 0c 8d e9 be a2 4c de 3e 36 57 c7 bf
       -1.902033 -0.45615423 0.4341784 -1.557349
000200 53 75 8c 3c 40 59 bb 3f f6 01 0b bf 53 e4 88 be
       0.017145788 1.4636612 -0.5429987 -0.26736698
000210 59 e7 07 bf 2f 78 01 bf 1d 20 7b 3e 1b a8 f1 bd
       -0.53087384 -0.5057401 0.24523969 -0.11799642
000220 f8 d6 f5 be 1a 4a 64 3e 4b e4 30 bf 44 73 86 3f
       -0.4801557 0.22293893 -0.6909835 1.0503926
000230 56 37 67 3f 74 10 41 bf 03 a2 96 bd 9a 4c 62 bf
       0.9031881 -0.7541573 -0.0735512 -0.88398135
000240 10 d5 fe be 9d b5 87 bf 6d 82 5d 3e 65 d1 4b c0
       -0.4977193 -1.0602299 0.21631785 -3.1846554
000250 f5 25 43 3f 1a ff 2d 3f 6c 50 ae bf e6 68 42 3f
       0.7622979 0.6796738 -1.3618293 0.7594131
000260 d3 bf b3 3f 27 4f 90 be 3a 7d 8c bf 00 24 55 be
       1.4042915 -0.28185388 -1.0975716 -0.20814514
000270 01 1b 87 bf 2e b8 2c bf d9 c6 08 3f 1c 6d 40 bf
       -1.0555116 -0.67468536 0.5342842 -0.7516649
000280 ed a1 f1 be c1 32 d1 be a0 e2 00 bf 19 96 5a 3f
       -0.47193852 -0.40859035 -0.503458 0.8538528
000290 94 a1 3a be e7 90 b0 bd db 16 00 bf b7 7d 4d be
       -0.182257 -0.08621388 -0.50034875 -0.20067488
0002a0 aa 58 15 3f 1f 91 9b bd 3a 39 da be f6 fc 9f 3f
       0.58338416 -0.07596039 -0.42621785 1.2499073
0002b0 11 1f 09 bf 7d a0 63 3e 56 2f fc bd 95 2f 0c 3f
       -0.5356303 0.2222919 -0.12313716 0.54760104
0002c0 db d2 88 3d 9c ed c7 3e a2 c6 13 bd 81 53 82 3f
       0.066808425 0.3904847 -0.036078103 1.0181733
0002d0 40 62 14 3e 06 c7 fa 3e ec 87 43 c0 b6 91 b7 3e
       0.14490604 0.48979968 -3.055171 0.35853356
0002e0 45 12 bf be 3c bc 9d bf ba 1c 63 3f 13 f4 23 bf
       -0.37318626 -1.232307 0.8871571 -0.640443
0002f0 82 7b 87 3f 97 d1 5c be 7b f8 27 3f 09 05 48 bd
       1.0584567 -0.21564327 0.65613526 -0.048832927
000300 f0 e8 16 3f d4 d1 a4 be 1c 35 bd be 1d d7 83 3e
       0.58949184 -0.32191336 -0.36954582 0.25750056
000310 fd bb 8e be df eb cc be e5 80 a9 bf 3f 05 f7 be
       -0.278778 -0.40023705 -1.324246 -0.4824619
000320 77 61 14 40 ee 37 7c 3f 9b 57 ff be 29 f1 11 3d
       2.3184488 0.9852284 -0.49871525 0.03563038
000330 82 0d 97 bf ed b6 a5 3f f0 a1 05 3f 2e e4 60 3e
       -1.1800997 1.294645 0.5220022 0.21962044
000340 70 00 10 3f 96 01 e1 bf 0f 68 8a 3f 98 bf 08 bf
       0.5625067 -1.7578609 1.0813006 -0.5341735
000350 c1 f2 8b bf e0 ab 73 3f cf 8f 0f bd 25 0e d6 bf
       -1.0933458 0.95184135 -0.035049256 -1.6723067
000360 03 20 aa 3e 82 84 1d 3f 6f a1 bf bf 8e 06 12 bf
       0.33227548 0.61530316 -1.4971141 -0.5704125
000370 b3 6c da 3e 2e 67 69 bf 0a 03 70 be 84 98 e3 be
       0.42661056 -0.91173065 -0.2343866 -0.44452298
000380 ce 94 1f be 87 d3 89 bf fe cd f1 be 07 a1 04 40
       -0.15584108 -1.0767678 -0.47227472 2.0723283
000390 b0 49 23 3e 68 f6 b4 3e 51 e4 fa be 20 e8 19 3f
       0.15946078 0.35344243 -0.49002317 0.6011982
0003a0 65 75 4a bf 3b c7 c3 bf 38 0a b2 3f 9e 4c f8 be
       -0.7908538 -1.5295175 1.3909369 -0.48495954
0003b0 c8 cf a3 3f 18 06 36 3e b8 ae cd 3e f7 c5 84 bf
       1.2797785 0.17775762 0.40172362 -1.0372914
0003c0 09 15 da 3f f5 aa 31 3f ca cd e1 bd 43 66 6e 3f
       1.703767 0.69401485 -0.11025579 0.9312479
0003d0 d0 27 d3 be d2 9d 8c be d7 c6 1b c0 06 b8 60 be
       -0.41241312 -0.27464157 -2.4340112 -0.219452
0003e0 3b dc d5 3d a0 9a de bf cb f8 e6 3e 84 0d 0d 3f
       0.10442396 -1.7390938 0.4511169 0.5509875
0003f0 14 1b 3b 3e b3 fc 29 3f 9c b8 a6 3e ef 0c 53 bf
       0.18272048 0.66401213 0.3256272 -0.8244161

conv3.weight_mask f4 [32, 16, 3]
000000 00 00 80 3f 00 00 80 3f 00 00 80 3f 00 00 80 3f
       1.0 1.0 1.0 1.0
000010 00 00 80 3f 00 00 80 3f 00 00 80 3f 00 00 80 3f
       1.0 1.0 1.0 1.0
000020 00 00 80 3f 00 00 80 3f 00 00 80 3f 00 00 80 3f
       1.0 1.0 1.0 1.0
000030 00 00 80 3f 00 00 80 3f 00 00 80 3f 00 00 80 3f
       1.0 1.0 1.0 1.0
000040 00 00 80 3f 00 00 80 3f 00 00 80 3f 00 00 80 3f
       1.0 1.0 1.0 1.0
000050 00 00 80 3f 00 00 80 3f 00 00 80 3f 00 00 80 3f
       1.0 1.0 1.0 1.0
000060 00 00 80 3f 00 00 80 3f 00 00 80 3f 00 00 80 3f
       1.0 1.0 1.0 1.0
000070 00 00 80 3f 00 00 80 3f 00 00 80 3f 00 00 80 3f
       1.0 1.0 1.0 1.0
000080 00 00 80 3f 00 00 80 3f 00 00 80 3f 00 00 80 3f
       1.0 1.0 1.0 1.0
000090 00 00 80 3f 00 00 80 3f 00 00 80 3f 00 00 80 3f
       1.0 1.0 1.0 1.0
0000a0 00 00 80 3f 00 00 80 3f 00 00 80 3f 00 00 80 3f
       1.0 1.0 1.0 1.0
0000b0 00 00 80 3f 00 00 80 3f 00 00 80 3f 00 00 80 3f
       1.0 1.0 1.0 1.0
0000c0 00 00 80 3f 00 00 80 3f 00 00 80 3f 00 00 80 3f
       1.0 1.0 1.0 1.0
0000d0 00 00 80 3f 00 00 80 3f 00 00 80 3f 00 00 80 3f
       1.0 1.0 1.0 1.0
0000e0 00 00 80 3f 00 00 80 3f 00 00 80 3f 00 00 80 3f
       1.0 1.0 1.0 1.0
0000f0 00 00 80 3f 00 00 80 3f 00 00 80 3f 00 00 80 3f
       1.0 1.0 1.0 1.0
000100 00 00 80 3f 00 00 80 3f 00 00 80 3f 00 00 80 3f
       1.0 1.0 1.0 1.0
000110 00 00 80 3f 00 00 80 3f 00 00 80 3f 00 00 80 3f
       1.0 1.0 1.0 1.0
000120 00 00 80 3f 00 00 80 3f 00 00 80 3f 00 00 80 3f
       1.0 1.0 1.0 1.0
000130 00 00 80 3f 00 00 80 3f 00 00 80 3f 00 00 80 3f
       1.0 1.0 1.0 1.0
000140 00 00 80 3f 00 00 80 3f 00 00 80 3f 00 00 80 3f
       1.0 1.0 1.0 1.0
000150 00 00 80 3f 00 00 80 3f 00 00 80 3f 00 00 80 3f
       1.0 1.0 1.0 1.0
000160 00 00 80 3f 00 00 80 3f 00 00 80 3f 00 00 80 3f
       1.0 1.0 1.0 1.0
000170 00 00 80 3f 00 00 80 3f 00 00 80 3f 00 00 80 3f
       1.0 1.0 1.0 1.0
000180 00 00 80 3f 00 00 80 3f 00 00 80 3f 00 00 80 3f
       1.0 1.0 1.0 1.0
000190 00 00 80 3f 00 00 80 3f 00 00 80 3f 00 00 80 3f
       1.0 1.0 1.0 1.0
0001a0 00 00 80 3f 00 00 80 3f 00 00 80 3f 00 00 80 3f
       1.0 1.0 1.0 1.0
0001b0 00 00 80 3f 00 00 80 3f 00 00 80 3f 00 00 80 3f
       1.0 1.0 1.0 1.0
0001c0 00 00 80 3f 00 00 80 3f 00 00 80 3f 00 00 80 3f
       1.0 1.0 1.0 1.0
0001d0 00 00 80 3f 00 00 80 3f 00 00 80 3f 00 00 80 3f
       1.0 1.0 1.0 1.0
0001e0 00 00 80 3f 00 00 80 3f 00 00 80 3f 00 00 80 3f
       1.0 1.0 1.0 1.0
0001f0 00 00 80 3f 00 00 80 3f 00 00 80 3f 00 00 80 3f
       1.0 1.0 1.0 1.0
000200 00 00 80 3f 00 00 80 3f 00 00 80 3f 00 00 80 3f
       1.0 1.0 1.0 1.0
000210 00 00 80 3f 00 00 80 3f 00 00 80 3f 00 00 80 3f
       1.0 1.0 1.0 1.0
000220 00 00 80 3f 00 00 80 3f 00 00 80 3f 00 00 80 3f
       1.0 1.0 1.0 1.0
000230 00 00 80 3f 00 00 80 3f 00 00 80 3f 00 00 80 3f
       1.0 1.0 1.0 1.0
000240 00 00 80 3f 00 00 80 3f 00 00 80 3f 00 00 80 3f
       1.0 1.0 1.0 1.0
000250 00 00 80 3f 00 00 80 3f 00 00 80 3f 00 00 80 3f
       1.0 1.0 1.0 1.0
000260 00 00 80 3f 00 00 80 3f 00 00 80 3f 00 00 80 3f
       1.0 1.0 1.0 1.0
000270 00 00 80 3f 00 00 80 3f 00 00 80 3f 00 00 80 3f
       1.0 1.0 1.0 1.0
000280 00 00 80 3f 00 00 80 3f 00 00 80 3f 00 00 80 3f
       1.0 1.0 1.0 1.0
000290 00 00 80 3f 00 00 80 3f 00 00 80 3f 00 00 80 3f
       1.0 1.0 1.0 1.0
0002a0 00 00 80 3f 00 00 80 3f 00 00 80 3f 00 00 80 3f
       1.0 1.0 1.0 1.0
0002b0 00 00 80 3f 00 00 80 3f 00 00 80 3f 00 00 80 3f
       1.0 1.0 1.0 1.0
0002c0 00 00 80 3f 00 00 80 3f 00 00 80 3f 00 00 80 3f
       1.0 1.0 1.0 1.0
0002d0 00 00 80 3f 00 00 80 3f 00 00 80 3f 00 00 80 3f
       1.0 1.0 1.0 1.0
0002e0 00 00 80 3f 00 00 80 3f 00 00 80 3f 00 00 80 3f
       1.0 1.0 1.0 1.0
0002f0 00 00 80 3f 00 00 80 3f 00 00 80 3f 00 00 80 3f
       1.0 1.0 1.0 1.0
000300 00 00 80 3f 00 00 80 3f 00 00 80 3f 00 00 80 3f
       1.0 1.0 1.0 1.0
000310 00 00 80 3f 00 00 80 3f 00 00 80 3f 00 00 80 3f
       1.0 1.0 1.0 1.0
000320 00 00 80 3f 00 00 80 3f 00 00 80 3f 00 00 80 3f
       1.0 1.0 1.0 1.0
000330 00 00 80 3f 00 00 80 3f 00 00 80 3f 00 00 80 3f
       1.0 1.0 1.0 1.0
000340 00 00 80 3f 00 00 80 3f 00 00 80 3f 00 00 80 3f
       1.0 1.0 1.0 1.0
000350 00 00 80 3f 00 00 80 3f 00 00 80 3f 00 00 80 3f
       1.0 1.0 1.0 1.0
000360 00 00 80 3f 00 00 80 3f 00 00 80 3f 00 00 80 3f
       1.0 1.0 1.0 1.0
000370 00 00 80 3f 00 00 80 3f 00 00 80 3f 00 00 80 3f
       1.0 1.0 1.0 1.0
000380 00 00 80 3f 00 00 80 3f 00 00 80 3f 00 00 80 3f
       1.0 1.0 1.0 1.0
000390 00 00 80 3f 00 00 80 3f 00 00 80 3f 00 00 80 3f
       1.0 1.0 1.0 1.0
0003a0 00 00 80 3f 00 00 80 3f 00 00 80 3f 00 00 80 3f
       1.0 1.0 1.0 1.0
0003b0 00 00 80 3f 00 00 80 3f 00 00 80 3f 00 00 80 3f
       1.0 1.0 1.0 1.0
0003c0 00 00 80 3f 00 00 80 3f 00 00 80 3f 00 00 80 3f
       1.0 1.0 1.0 1.0
0003d0 00 00 80 3f 00 00 80 3f 00 00 80 3f 00 00 80 3f
       1.0 1.0 1.0 1.0
0003e0 00 00 80 3f 00 00 80 3f 00 00 80 3f 00 00 80 3f
       1.0 1.0 1.0 1.0
0003f0 00 00 80 3f 00 00 80 3f 00 00 80 3f 00 00 80 3f
       1.0 1.0 1.0 1.0

conv3._weight_quantizer._amax f4 [32, 1, 1]
000000 b6 5f 01 40 0f 0c 3c 40 d1 75 f3 3f c4 c9 4b 40
       2.0214667 2.938236 1.902033 3.1841898
000010 77 61 14 40 db 64 56 40 7a cc 22 40 cc 0a 09 40
       2.3184488 3.3499057 2.5437303 2.141284
000020 2b ce 19 40 da 43 55 40 ca b0 29 40 51 df 27 40
       2.4032085 3.3322663 2.6514153 2.6230052
000030 32 ed 19 40 5e a5 17 40 fe ff 39 40 b9 1a 17 40
       2.4051023 2.3694682 2.9062495 2.361006
000040 7e 72 2c 40 bf 58 37 40 42 83 47 40 be 55 26 40
       2.694488 2.8647916 3.1173863 2.5989833
000050 53 f7 17 40 6a bd 4b 40 4b 1a 22 40 21 6f 3c 40
       2.3744705 3.183436 2.5328548 2.9442828
000060 a5 b2 12 40 e3 3f 18 40 c4 93 61 40 50 39 18 40
       2.2921536 2.3788993 3.524644 2.378498
000070 ea 6d fa 3f 43 cb 4d 40 ac 21 09 40 53 85 42 40
       1.9564793 3.215531 2.1426802 3.0393875

bn3.weight f4 [32]
000000 d6 ba ba 3f 0f e8 5d 3f 2b 28 b0 3f ad 03 f7 3e
       1.4588268 0.8668222 1.3762258 0.48244992
000010 de 4f 9d 3f c4 bf a9 3f b3 90 25 3f ce c9 bc 3e
       1.2289999 1.3261647 0.6467392 0.36872715
000020 6f 98 86 3f bf 81 73 3f 6f 46 9b 3f 3d a0 ba 3f
       1.0515269 0.9511985 1.213087 1.4580151
000030 a3 57 83 3f da d6 d2 3f dd d9 30 3f c1 3a f6 3e
       1.026112 1.6471817 0.69082433 0.480917
000040 62 59 f7 3e 1d b2 34 3f 29 ad c4 3f f3 ad dc 3f
       0.4831038 0.7058428 1.5365344 1.7240585
000050 3e 80 83 3f f7 f2 8d 3f b0 20 b3 3f 21 a2 89 3f
       1.0273511 1.1089772 1.399435 1.0752603
000060 ef 1d b4 3f 49 89 97 3f 14 7b d4 3f 62 09 a7 3f
       1.4071635 1.1838771 1.660006 1.3049738
000070 69 cd 8d 3f d9 fe c4 3f d6 91 7c 3f db c8 86 3f
       1.1078311 1.5390273 0.9866003 1.0530046

bn3.bias f4 [32]
000000 41 e9 bd bf 59 20 b5 bf 39 5e af bf d5 15 89 bf
       -1.4836808 -1.4150497 -1.370063 -1.0709788
000010 4f 0d 4e bf f3 46 8d bf 06 2e fc bf 0a 14 6d bf
       -0.8048906 -1.1037277 -1.9701545 -0.926087
000020 19 32 85 bf 6b 92 10 c0 94 86 91 bf 6c ae 9c bf
       -1.0405914 -2.2589366 -1.1369195 -1.2240729
000030 80 d6 1c bf e7 2a fa bf 31 96 a2 bf 44 cf 9c be
       -0.612648 -1.9544343 -1.2702085 -0.3062688
000040 49 3c e5 be 70 ae f8 bf d3 44 8d bf 40 92 c4 bf
       -0.44772556 -1.9428234 -1.1036628 -1.5357132
000050 77 ea 28 bf 08 16 21 bf 86 92 ae bf d9 fe 49 bf
       -0.65982765 -0.6292424 -1.3638465 -0.7890449
000060 bf 05 1b bf 0f b5 62 bf 16 45 a9 bf 83 7a b7 bf
       -0.6055564 -0.88557523 -1.3224208 -1.4334263
000070 6e f2 61 bf 6a 36 ad bf 36 60 46 bf 3c b1 cc bf
       -0.88260543 -1.3532231 -0.77490556 -1.5991588

bn3.running_mean f4 [32]
000000 61 ae 7b 3f 18 3e b5 be 27 0c 36 40 cd 76 ed bf
       0.98312956 -0.35398936 2.8444917 -1.855188
000010 33 54 5f 3f 41 22 18 40 1c 61 94 3f d9 08 d5 bf
       0.8723785 2.3770907 1.1592135 -1.6643325
000020 1f 2c ab 3f 7e a4 10 3f 3c ae 70 3f a9 47 80 40
       1.337284 0.56500995 0.9401586 4.0087476
000030 55 ad de 3f 0d cf 53 be 5a e0 35 3e ee 7a 9e 3f
       1.7396647 -0.20684452 0.17761365 1.2381265
000040 87 8d 3c 3e 2f 8a ec 3f e3 da 00 3f 2e 09 0a c0
       0.18413363 1.847967 0.50333995 -2.1568103
000050 33 a2 ca 3f a6 20 a3 3f 09 14 f4 3f 3f 62 9a bf
       1.5830749 1.2744339 1.9068614 -1.2061232
000060 62 86 75 3f 4c ee 15 40 09 6f cd 3f 88 b1 19 40
       0.95908177 2.3426695 1.604951 2.4014606
000070 16 c5 f9 3f 56 cf c6 3e 5e 54 d0 3f 98 17 b0 3f
       1.9513271 0.3883006 1.6275747 1.37572

bn3.running_var f4 [32]
000000 38 49 91 40 1f 48 7f 3f 83 a5 53 41 b3 84 cf 3f
       4.540188 0.99719423 13.227908 1.6212372
000010 25 9e a8 40 c5 0a 20 41 ca a4 95 3f 6c c8 86 3f
       5.2693048 10.002629 1.1690915 1.0529914
000020 ae 66 4d 40 0a 4c da 3f b0 fe 43 40 a9 ba 50 40
       3.209392 1.7054455 3.06242 3.2613928
000030 d9 c5 c9 40 cc 66 a3 40 28 90 a3 3f 27 d9 0a 3f
       6.3054013 5.1062984 1.2778368 0.542376
000040 fb 86 80 40 3d c3 fd 3f e7 d7 7d 40 a0 b0 9a 40
       4.016477 1.9825207 3.9663026 4.8340607
000050 b3 2b cf 40 63 74 73 40 ba e9 14 41 1f 6d 22 40
       6.4740844 3.8039787 9.307062 2.5379102
000060 bf 65 a9 40 03 68 be 40 d6 a5 10 41 49 80 dd 40
       5.29367 5.9501967 9.040487 6.92191
000070 c6 d1 bd 40 20 fd b1 40 2a 64 31 41 d0 3d 15 40
       5.931857 5.562149 11.086954 2.3318977

conv4.bias f4 [32]
000000 08 71 a6 3e 54 3c ef 3c 7a 96 db be ba 93 0f 3e
       0.3250811 0.029203571 -0.42888242 0.14021197
000010 c9 f2 3a be 78 40 66 be b6 07 1f 3e 06 51 6e 3c
       -0.18256678 -0.2248553 0.15530285 0.014545685
000020 f2 4d d2 be d1 b8 d5 bc 21 43 89 be 1b 7a cb bd
       -0.41075093 -0.026089104 -0.26809028 -0.09935399
000030 47 19 24 3e 00 d0 6d be 5a 30 e0 3c bf e1 38 bd
       0.16025268 -0.23223877 0.027366806 -0.045137163
000040 e0 e6 a1 3c 95 a1 cb bd 94 5a 08 bf 78 af 9c bb
       0.01976341 -0.09942929 -0.5326321 -0.0047816597
000050 4c 87 93 3c 1d 95 cc 3d 60 60 f7 3c 14 26 af 3c
       0.01800885 0.099893786 0.030197322 0.021380462
000060 73 88 0e 3e 31 70 bf be e9 3b 99 be 18 50 44 be
       0.13919239 -0.37390283 -0.2992852 -0.19171178
000070 cb 86 12 bf 90 30 6b be b3 58 84 bd e8 00 2b 3d
       -0.5723693 -0.22967744 -0.064622305 0.04174891

conv4.weight_orig f4 [32, 32, 3]
000000 bd 69 4d 3f 6f 61 52 3e a1 2c 1a 3f 4d ff dc bf
       0.8023947 0.2054498 0.6022435 -1.7265412
000010 81 9b ea bf 04 73 ae bf 32 60 63 3f e5 d4 15 3e
       -1.8328706 -1.362885 0.8881866 0.14631994
000020 ed 5e 4e be b5 cd 62 3f cb 08 49 3e 51 41 15 3f
       -0.20153399 0.88595134 0.1963226 0.5830279
000030 f9 68 11 3f 69 f2 cc bf 60 14 dd be 2e e0 20 bf
       0.568008 -1.6011478 -0.43179607 -0.6284207
000040 d5 f7 d4 3e 9a 86 03 3f 70 d2 80 3d 46 48 27 3f
       0.4159533 0.5137726 0.06290138 0.65344656
000050 d5 fc 6e bf 56 b7 4b 3f 20 86 d8 3e ec 5a ce be
       -0.9335454 0.79576623 0.4228983 -0.40303743
000060 08 86 44 3e 29 2a 44 be 1e b1 fc be f6 3c 56 bf
       0.19191754 -0.19156708 -0.4935388 -0.8368677
000070 1f 08 29 bf 66 f5 9b 3f 69 38 10 3f 72 eb 20 bd
       -0.66028017 1.2184265 0.56336075 -0.03928704
000080 4a 49 df 3b 63 27 d0 3f 98 7c a2 3f 24 95 1d be
       0.0068141567 1.626202 1.2694273 -0.15388924
000090 4b 8e e7 bd 88 6e 23 3f 38 0b 29 bf 62 e3 43 bf
       -0.11306437 0.6384053 -0.66032743 -0.76518834
0000a0 60 1f b1 bf b0 85 78 3f 68 a1 e1 bd 62 c1 b9 3e
       -1.38377 0.9707899 -0.11017114 0.36280352
0000b0 13 19 ca bf ef 0f fe be 66 d0 b0 bf 69 29 b2 be
       -1.5788902 -0.4962153 -1.3813598 -0.34797218
0000c0 7f a0 f1 bd a5 94 ba 3f 16 b3 45 bf 7d 8f 77 3f
       -0.1179819 1.4576613 -0.7722639 0.9670332
0000d0 1e 4b f6 be 47 21 90 3f b1 7a 50 bf 3f bf 08 be
       -0.48104185 1.1260155 -0.8143721 -0.13354205
0000e0 33 b4 96 bf 8e 7c 3d 3e 8e 66 a3 3f 7a ac bc be
       -1.1773742 0.18504545 1.2765672 -0.3685034
0000f0 3f a4 c6 3d b5 17 8f 3e 55 c5 a2 3f 02 3a 95 3d
       0.09699296 0.27947775 1.2716471 0.07286455
000100 cf 5b 21 3f a3 bd a3 bf e2 20 57 be 59 a6 28 3f
       0.63030714 -1.2792248 -0.21008638 0.65878826
000110 9e 7b 05 be bb d2 37 bf e2 32 10 bd 62 a9 3a 3f
       -0.13035437 -0.71805924 -0.035204776 0.7291471
000120 3e 61 fb 3d 35 fb 86 3e 19 be d9 be 34 4c 0c bf
       0.12274407 0.2636353 -0.42527846 -0.54803777
000130 ac 79 b1 3f ce 43 69 be dc 05 34 bf 8c 7f 3e bf
       1.3865256 -0.22779772 -0.7032144 -0.7441337
000140 91 6a a6 be 4b a1 11 40 42 25 16 bf 55 f5 11 3f
       -0.3250318 2.2754695 -0.586506 0.5701497
000150 b2 09 7a bf 89 c2 68 3f 17 73 97 3f 34 c0 26 40
       -0.97671044 0.9092184 1.1831998 2.6054811
000160 9e 53 6a bf 7a bb a5 3f 91 56 7e bf 4d ab 54 3e
       -0.9153384 1.2947838 -0.9935084 0.20768471
000170 fb 7a ba 3b 05 2b ae bf ed d6 ae bf c7 d6 eb 3d
       0.00569093 -1.3606879 -1.365934 0.11515575
000180 6d 83 a4 3e 02 0d b7 3f 79 e2 9f be 12 cf f0 bd
       0.3213152 1.4300845 -0.31227472 -0.117582455
000190 90 ef d5 3f a3 cf 1f 3d a1 14 c9 3f ef e5 a6 be
       1.6713734 0.039016377 1.570942 -0.325973
0001a0 ec f4 54 3e 25 68 7d bf 52 14 96 be 26 c3 08 40
       0.20796555 -0.98987037 -0.29312378 2.136911
0001b0 81 bc 94 3f 03 e3 44 3d cd 64 4a bd 71 70 10 3f
       1.1620027 0.048068058 -0.049412537 0.5642157
0001c0 3a 7c 97 be 70 01 1a 3f 9d 3c 94 3f 5d 0f 0d 3e
       -0.29586965 0.60158443 1.1580998 0.13775392
0001d0 4a cc 14 3f 54 07 67 bf d5 fb 98 bf e0 45 85 3f
       0.5812422 -0.90245557 -1.1951853 1.0411949
0001e0 4e 20 13 bf 9c 8f 24 be 42 ee 04 bd bc f3 ed 3e
       -0.5747117 -0.16070408 -0.032453783 0.46475017
0001f0 88 8b 0d bf d8 b0 4d bf 19 f8 73 3f cf 0f 03 bf
       -0.5529103 -0.8034797 0.9530044 -0.51195997
000200 48 9a 88 bf 5c 48 02 40 ac fd 92 bd 05 1d 18 bf
       -1.0672083 2.0356665 -0.0717729 -0.5941928
000210 75 2d d3 bf 0b d0 3e 3f ac b3 92 3f 82 75 3b 3f
       -1.6498247 0.745362 1.1461082 0.7322618
000220 9d 4c 84 3f 37 91 6b bf 90 b7 44 bf 55 6c e5 3e
       1.033588 -0.92018455 -0.76842594 0.44809213
000230 9a fa 4b 3f e0 c3 27 bc c2 3f 96 3e b9 41 89 bf
       0.7967926 -0.010239571 0.29345518 -1.0723182
000240 23 d1 a9 3e 60 9b 17 3f 87 aa fe bf 81 22 fa 3e
       0.3316737 0.5922146 -1.9895791 0.4885445
000250 5e 0a 88 be 22 cc 3f 3e 2f 0a 25 bf 8b ed 37 bd
       -0.2657041 0.18730214 -0.64468664 -0.044904273
000260 74 cd 97 3f 88 33 9e 3f e4 ff 95 3e dd 0b 19 c0
       1.1859574 1.2359476 0.29296792 -2.391349
000270 24 ac 08 3f de d4 55 bf db 81 31 3d 7f 23 a5 bf
       0.53387666 -0.83527935 0.04333673 -1.2901458
000280 c0 89 4e 3e 34 6d ce be 1e e0 b5 bf 68 c3 a2 be
       0.20169735 -0.4031769 -1.420902 -0.31789708
000290 b5 a9 2a bf 4c a3 46 bf 09 df ca 3f 25 b0 a1 bf
       -0.666652 -0.7759292 1.5849315 -1.263188
0002a0 7a e5 92 bf d6 11 e7 be a9 9b 30 3f f0 46 40 bd
       -1.1476281 -0.45130795 0.6898752 -0.04694265
0002b0 a9 81 55 3f 47 d0 22 3f 2e 69 60 3e 6b 86 8f be
       0.8340097 0.63599056 0.21915123 -0.2803224
0002c0 ad 33 2f 3f 2e 35 fc 3e 2b 1d d7 bf c3 c7 b2 3d
       0.68438226 0.49259323 -1.6805776 0.08729508
0002d0 38 ce a2 3f 73 65 00 bf 29 cb b8 bc f4 1a bc be
       1.2719183 -0.501548 -0.022557812 -0.36739314
0002e0 93 5c 79 3e fc 06 83 bf e6 41 2f bf 3a 6e ea be
       0.2435172 -1.0236506 -0.6845993 -0.4578722
0002f0 69 e1 72 3e 07 4f 18 3e 38 bc be be 03 51 ae 3f
       0.237188 0.14873897 -0.37252975 1.3618473
000300 50 08 ad 3f 54 41 0c bf 05 12 31 bf bb 76 fb be
       1.3518162 -0.5478718 -0.6916812 -0.49114022
000310 36 6f 44 3f aa 3b 1d 3f e6 92 ae bf da ad f1 3d
       0.76732194 0.61419165 -1.363858 0.11800738
000320 07 fa e5 be 3e 69 87 be 5d 7a f5 3d 48 cc ca bf
       -0.44917318 -0.2644748 0.119862296 -1.5843592
000330 d7 f0 45 bf 3a d3 44 3f e9 eb 09 3d 59 90 18 3e
       -0.7732062 0.76884806 0.033672247 0.14898814
000340 e8 09 f6 bf 3c b6 9c 3f d2 64 d5 3e 21 88 ff 3d
       -1.9221773 1.2243114 0.41678482 0.124771364
000350 4c 09 1b 40 94 79 6c 3f cb ea 62 3e a6 df 66 3d
       2.4224424 0.92373013 0.22159879 0.05636563
000360 ee 82 24 bf 0b 48 3b 3f e2 55 92 bf 42 8a e3 3e
       -0.6426228 0.73156804 -1.1432459 0.4444142
000370 4b 14 73 3f 9f ca 5a be 11 c2 0e bf da 2a 22 bf
       0.9495284 -0.21366356 -0.5576487 -0.63346636
000380 d0 fb db 3f c5 e7 d9 3f 16 ad a5 3f ba 64 01 bf
       1.7186222 1.7023855 1.2943447 -0.5054432
000390 e1 1a 3e 3f cb d8 63 3e 05 48 5f bf be 75 88 bf
       0.74259764 0.22250669 -0.8721927 -1.0660932
0003a0 0c cc 95 3f 1b 43 32 3f 9b 98 9f bf e0 a2 bf be
       1.1702895 0.69633645 -1.2468446 -0.3742895
0003b0 d0 a9 18 3f 4c e9 1f bf 37 36 b8 3d bb dd 8f 3c
       0.59634113 -0.6246536 0.08994716 0.017561784
0003c0 82 c6 6a 3f 70 c9 a9 be cc ff 91 bf a7 37 25 3d
       0.9170915 -0.33161497 -1.1406188 0.040336277
0003d0 72 0d 1a 3e 59 db 5a 3f 11 c3 a5 3e 40 c3 cf 3f
       0.15044191 0.8549095 0.32375386 1.623146
0003e0 11 32 06 c0 ba a2 0e 3f ab 63 db be 6c 5b a6 3b
       -2.0968058 0.5571705 -0.42849478 0.0050768163
0003f0 2b 4b c0 3e 04 77 f4 3d 7b 5e 3a bf d4 c4 5b 3f
       0.3755735 0.11936763 -0.72800416 0.8584721

conv4.weight_mask f4 [32, 32, 3]
000000 00 00 80 3f 00 00 80 3f 00 00 80 3f 00 00 80 3f
       1.0 1.0 1.0 1.0
000010 00 00 80 3f 00 00 80 3f 00 00 80 3f 00 00 80 3f
       1.0 1.0 1.0 1.0
000020 00 00 80 3f 00 00 80 3f 00 00 80 3f 00 00 80 3f
       1.0 1.0 1.0 1.0
000030 00 00 80 3f 00 00 80 3f 00 00 80 3f 00 00 80 3f
       1.0 1.0 1.0 1.0
000040 00 00 80 3f 00 00 80 3f 00 00 80 3f 00 00 80 3f
       1.0 1.0 1.0 1.0
000050 00 00 80 3f 00 00 80 3f 00 00 80 3f 00 00 80 3f
       1.0 1.0 1.0 1.0
000060 00 00 80 3f 00 00 80 3f 00 00 80 3f 00 00 80 3f
       1.0 1.0 1.0 1.0
000070 00 00 80 3f 00 00 80 3f 00 00 80 3f 00 00 80 3f
       1.0 1.0 1.0 1.0
000080 00 00 80 3f 00 00 80 3f 00 00 80 3f 00 00 80 3f
       1.0 1.0 1.0 1.0
000090 00 00 80 3f 00 00 80 3f 00 00 80 3f 00 00 80 3f
       1.0 1.0 1.0 1.0
0000a0 00 00 80 3f 00 00 80 3f 00 00 80 3f 00 00 80 3f
       1.0 1.0 1.0 1.0
0000b0 00 00 80 3f 00 00 80 3f 00 00 80 3f 00 00 80 3f
       1.0 1.0 1.0 1.0
0000c0 00 00 80 3f 00 00 80 3f 00 00 80 3f 00 00 80 3f
       1.0 1.0 1.0 1.0
0000d0 00 00 80 3f 00 00 80 3f 00 00 80 3f 00 00 80 3f
       1.0 1.0 1.0 1.0
0000e0 00 00 80 3f 00 00 80 3f 00 00 80 3f 00 00 80 3f
       1.0 1.0 1.0 1.0
0000f0 00 00 80 3f 00 00 80 3f 00 00 80 3f 00 00 80 3f
       1.0 1.0 1.0 1.0
000100 00 00 80 3f 00 00 80 3f 00 00 80 3f 00 00 80 3f
       1.0 1.0 1.0 1.0
000110 00 00 80 3f 00 00 80 3f 00 00 80 3f 00 00 80 3f
       1.0 1.0 1.0 1.0
000120 00 00 80 3f 00 00 80 3f 00 00 80 3f 00 00 80 3f
       1.0 1.0 1.0 1.0
000130 00 00 80 3f 00 00 80 3f 00 00 80 3f 00 00 80 3f
       1.0 1.0 1.0 1.0
000140 00 00 80 3f 00 00 80 3f 00 00 80 3f 00 00 80 3f
       1.0 1.0 1.0 1.0
000150 00 00 80 3f 00 00 80 3f 00 00 80 3f 00 00 80 3f
       1.0 1.0 1.0 1.0
000160 00 00 80 3f 00 00 80 3f 00 00 80 3f 00 00 80 3f
       1.0 1.0 1.0 1.0
000170 00 00 80 3f 00 00 80 3f 00 00 80 3f 00 00 80 3f
       1.0 1.0 1.0 1.0
000180 00 00 80 3f 00 00 80 3f 00 00 80 3f 00 00 80 3f
       1.0 1.0 1.0 1.0
000190 00 00 80 3f 00 00 80 3f 00 00 80 3f 00 00 80 3f
       1.0 1.0 1.0 1.0
0001a0 00 00 80 3f 00 00 80 3f 00 00 80 3f 00 00 80 3f
       1.0 1.0 1.0 1.0
0001b0 00 00 80 3f 00 00 80 3f 00 00 80 3f 00 00 80 3f
       1.0 1.0 1.0 1.0
0001c0 00 00 80 3f 00 00 80 3f 00 00 80 3f 00 00 80 3f
       1.0 1.0 1.0 1.0
0001d0 00 00 80 3f 00 00 80 3f 00 00 80 3f 00 00 80 3f
       1.0 1.0 1.0 1.0
0001e0 00 00 80 3f 00 00 80 3f 00 00 80 3f 00 00 80 3f
       1.0 1.0 1.0 1.0
0001f0 00 00 80 3f 00 00 80 3f 00 00 80 3f 00 00 80 3f
       1.0 1.0 1.0 1.0
000200 00 00 80 3f 00 00 80 3f 00 00 80 3f 00 00 80 3f
       1.0 1.0 1.0 1.0
000210 00 00 80 3f 00 00 80 3f 00 00 80 3f 00 00 80 3f
       1.0 1.0 1.0 1.0
000220 00 00 80 3f 00 00 80 3f 00 00 80 3f 00 00 80 3f
       1.0 1.0 1.0 1.0
000230 00 00 80 3f 00 00 80 3f 00 00 80 3f 00 00 80 3f
       1.0 1.0 1.0 1.0
000240 00 00 80 3f 00 00 80 3f 00 00 80 3f 00 00 80 3f
       1.0 1.0 1.0 1.0
000250 00 00 80 3f 00 00 80 3f 00 00 80 3f 00 00 80 3f
       1.0 1.0 1.0 1.0
000260 00 00 80 3f 00 00 80 3f 00 00 80 3f 00 00 80 3f
       1.0 1.0 1.0 1.0
000270 00 00 80 3f 00 00 80 3f 00 00 80 3f 00 00 80 3f
       1.0 1.0 1.0 1.0
000280 00 00 80 3f 00 00 80 3f 00 00 80 3f 00 00 80 3f
       1.0 1.0 1.0 1.0
000290 00 00 80 3f 00 00 80 3f 00 00 80 3f 00 00 80 3f
       1.0 1.0 1.0 1.0
0002a0 00 00 80 3f 00 00 80 3f 00 00 80 3f 00 00 80 3f
       1.0 1.0 1.0 1.0
0002b0 00 00 80 3f 00 00 80 3f 00 00 80 3f 00 00 80 3f
       1.0 1.0 1.0 1.0
0002c0 00 00 80 3f 00 00 80 3f 00 00 80 3f 00 00 80 3f
       1.0 1.0 1.0 1.0
0002d0 00 00 80 3f 00 00 80 3f 00 00 80 3f 00 00 80 3f
       1.0 1.0 1.0 1.0
0002e0 00 00 80 3f 00 00 80 3f 00 00 80 3f 00 00 80 3f
       1.0 1.0 1.0 1.0
0002f0 00 00 80 3f 00 00 80 3f 00 00 80 3f 00 00 80 3f
       1.0 1.0 1.0 1.0
000300 00 00 80 3f 00 00 80 3f 00 00 80 3f 00 00 80 3f
       1.0 1.0 1.0 1.0
000310 00 00 80 3f 00 00 80 3f 00 00 80 3f 00 00 80 3f
       1.0 1.0 1.0 1.0
000320 00 00 80 3f 00 00 80 3f 00 00 80 3f 00 00 80 3f
       1.0 1.0 1.0 1.0
000330 00 00 80 3f 00 00 80 3f 00 00 80 3f 00 00 80 3f
       1.0 1.0 1.0 1.0
000340 00 00 80 3f 00 00 80 3f 00 00 80 3f 00 00 80 3f
       1.0 1.0 1.0 1.0
000350 00 00 80 3f 00 00 80 3f 00 00 80 3f 00 00 80 3f
       1.0 1.0 1.0 1.0
000360 00 00 80 3f 00 00 80 3f 00 00 80 3f 00 00 80 3f
       1.0 1.0 1.0 1.0
000370 00 00 80 3f 00 00 80 3f 00 00 80 3f 00 00 80 3f
       1.0 1.0 1.0 1.0
000380 00 00 80 3f 00 00 80 3f 00 00 80 3f 00 00 80 3f
       1.0 1.0 1.0 1.0
000390 00 00 80 3f 00 00 80 3f 00 00 80 3f 00 00 80 3f
       1.0 1.0 1.0 1.0
0003a0 00 00 80 3f 00 00 80 3f 00 00 80 3f 00 00 80 3f
       1.0 1.0 1.0 1.0
0003b0 00 00 80 3f 00 00 80 3f 00 00 80 3f 00 00 80 3f
       1.0 1.0 1.0 1.0
0003c0 00 00 80 3f 00 00 80 3f 00 00 80 3f 00 00 80 3f
       1.0 1.0 1.0 1.0
0003d0 00 00 80 3f 00 00 80 3f 00 00 80 3f 00 00 80 3f
       1.0 1.0 1.0 1.0
0003e0 00 00 80 3f 00 00 80 3f 00 00 80 3f 00 00 80 3f
       1.0 1.0 1.0 1.0
0003f0 00 00 80 3f 00 00 80 3f 00 00 80 3f 00 00 80 3f
       1.0 1.0 1.0 1.0

conv4._weight_quantizer._amax f4 [32, 1, 1]
000000 15 5a 27 40 f5 0a 19 40 78 30 32 40 09 18 3b 40
       2.6148732 2.3912938 2.7842083 2.923342
000010 ff 7d 7e 40 4b ec 03 40 6c 50 17 40 d9 ba 33 40
       3.9764402 2.0612972 2.3642836 2.8082793
000020 88 9a 42 40 58 64 37 40 a5 af 07 40 8f 13 2d 40
       3.0406818 2.8654995 2.1200955 2.7043188
000030 88 b3 21 40 1f 35 5d 40 13 d5 6c 40 ee 52 1b 40
       2.5265827 3.4563673 3.700505 2.4269366
000040 4f c1 04 40 cd 3a 29 40 67 6d 1f 40 c1 34 0c 40
       2.0742986 2.644214 2.4910524 2.1907198
000050 cf 16 06 40 63 1e 3c 40 92 a6 1e 40 b1 44 18 40
       2.0951421 2.9393547 2.4789166 2.3791926
000060 8f 89 05 40 30 70 03 40 da 32 5b 40 0c 5a 26 40
       2.086521 2.0537224 3.4249787 2.599246
000070 14 69 03 40 43 9e 1c 40 ab 21 18 40 5f 39 2b 40
       2.0532885 2.4471595 2.377055 2.6753767

bn4.weight f4 [32]
000000 d5 b3 9f 40 75 78 ce 40 75 90 5c 40 6a 55 ac 40
       4.990702 6.452204 3.446317 5.3854265
000010 a9 88 bc 40 71 a0 af 40 6e f9 a5 40 ec 58 bf 40
       5.891682 5.488335 5.186698 5.9796047
000020 a0 b1 b9 40 92 33 c1 40 a8 3a 85 40 ec 08 aa 40
       5.8029327 6.037545 4.16341 5.313589
000030 1a 8b b7 40 6f 33 c0 40 0c c0 9d 40 0d 3a c7 40
       5.73573 6.0062785 4.929693 6.2258363
000040 ab e1 da 40 19 cb bc 40 d2 e6 c8 40 7c 5d b4 40
       6.8400474 5.899792 6.2781763 5.6364117
000050 45 3f 8b 40 27 2f bf 40 af 10 a5 40 23 3e bb 40
       4.3514733 5.974506 5.1582866 5.851335
000060 89 54 90 40 dd e3 b7 40 1f 63 aa 40 b1 f8 aa 40
       4.510319 5.7465653 5.3245997 5.342858
000070 68 77 c9 40 e4 54 a9 40 bc 74 ac 40 b4 df ba 40
       6.295826 5.2916126 5.38925 5.8398075
