networks/quantized_models/iscx2016vpn/CNN1D_TrafficClassification_iscx2016vpn.pt (torch, 66764 bytes, 37 tensors)

conv1.bias f4 [16]
0	0x3fd194fe	1.6373594
1	0x3fdfd60e	1.7487199
2	0x3defcb76	0.11708729
3	0xbf76030c	-0.960984
4	0xbd905e14	-0.07049194
5	0x3f4f898d	0.8106926
6	0xbb51a296	-0.0031987778
7	0xbf450a10	-0.7696848
8	0xbfe7c091	-1.8105642
9	0xc00a880b	-2.1645534
10	0x3ff19043	1.887215
11	0xbf2c07bf	-0.6719932
12	0xbef0878e	-0.4697842
13	0x3f26f1e4	0.65212846
14	0xbf209b67	-0.62737125
15	0x3d2f1fc9	0.042754922

conv1.weight_orig f4 [16, 1, 3]
0	0xbfbaa326	-1.4581039
1	0xbf17d0c0	-0.593029
2	0xbfb21589	-1.3912822
3	0x3f029cd8	0.51020575
4	0x4006768c	2.1009855
5	0xbed83197	-0.42225334
6	0xbef4976e	-0.47771782
7	0x400b05e1	2.1722338
8	0xbe0cb5bc	-0.13741201
9	0x3f7511ca	0.9573027
10	0xbeeeba75	-0.4662663
11	0x3f92675f	1.1437796
12	0x3efe1c50	0.49630976
13	0x3e9d9db0	0.3078437
14	0x4000cd31	2.012524
15	0x3f1be70c	0.60899425
16	0xbec7f16a	-0.39051372
17	0xc006e2b7	-2.1075876
18	0x3ea9526e	0.330707
19	0xc0231508	-2.5481586
20	0xbff58d6e	-1.9183786
21	0x3fe834e5	1.8141142
22	0x3eedfc1a	0.464814
23	0xbeeb3646	-0.45939845
24	0xc01a09e3	-2.4068534
25	0x3efba4bc	0.4914912
26	0x3da529ee	0.08064638
27	0xbd7fe437	-0.062473502
28	0xbfb89c21	-1.4422647
29	0xc006c5c6	-2.1058211
30	0x3f3d4077	0.7392649
31	0xbfaf3487	-1.3687905
32	0xbf2e6d02	-0.6813508
33	0xbcc6d78c	-0.024272703
34	0xc0b2f796	-5.592723
35	0x3ebae767	0.3650467
36	0x3f505b48	0.81389284
37	0xbd6d8210	-0.057985365
38	0xbfcb2cf4	-1.5873094
39	0xbfcf3115	-1.6186854
40	0x3f42ccdb	0.76093835
41	0xbf162827	-0.5865502
42	0xbfbc05eb	-1.4689306
43	0x3f61de01	0.88229376
44	0x3ca66f23	0.020316666
45	0xbe82a64e	-0.25517505
46	0x3f456339	0.77104527
47	0xbfbe4e35	-1.4867617

conv1.weight_mask f4 [16, 1, 3]
0	0x3f800000	1.0
1	0x3f800000	1.0
2	0x3f800000	1.0
3	0x3f800000	1.0
4	0x3f800000	1.0
5	0x3f800000	1.0
6	0x3f800000	1.0
7	0x3f800000	1.0
8	0x3f800000	1.0
9	0x3f800000	1.0
10	0x3f800000	1.0
11	0x3f800000	1.0
12	0x3f800000	1.0
13	0x3f800000	1.0
14	0x3f800000	1.0
15	0x3f800000	1.0
16	0x3f800000	1.0
17	0x3f800000	1.0
18	0x3f800000	1.0
19	0x3f800000	1.0
20	0x3f800000	1.0
21	0x3f800000	1.0
22	0x3f800000	1.0
23	0x3f800000	1.0
24	0x3f800000	1.0
25	0x3f800000	1.0
26	0x3f800000	1.0
27	0x3f800000	1.0
28	0x3f800000	1.0
29	0x3f800000	1.0
30	0x3f800000	1.0
31	0x3f800000	1.0
32	0x3f800000	1.0
33	0x3f800000	1.0
34	0x3f800000	1.0
35	0x3f800000	1.0
36	0x3f800000	1.0
37	0x3f800000	1.0
38	0x3f800000	1.0
39	0x3f800000	1.0
40	0x3f800000	1.0
41	0x3f800000	1.0
42	0x3f800000	1.0
43	0x3f800000	1.0
44	0x3f800000	1.0
45	0x3f800000	1.0
46	0x3f800000	1.0
47	0x3f800000	1.0

conv1._weight_quantizer._amax f4 [16, 1, 1]
0	0x3fbaa120	1.4580421
1	0x40067486	2.100862
2	0x400b0478	2.1721478
3	0x3f925e7c	1.1435084
4	0x4000c821	2.012215
5	0x4006ca74	2.1061068
6	0x4022f86a	2.546412
7	0x3fe83470	1.8141003
8	0x401a014c	2.4063292
9	0x4006b478	2.104765
10	0x3faf27f4	1.3684068
11	0x40b2f654	5.5925694
12	0x3fcafceb	1.5858434
13	0x3fcf23df	1.6182822
14	0x3fbbdede	1.4677389
15	0x3fbdd20a	1.4829724

bn1.weight f4 [16]
0	0x4021d738	2.528761
1	0x3f4c25b5	0.79745036
2	0x3f4bcb4f	0.796071
3	0x3f2efde8	0.6835618
4	0x3f432c34	0.76239324
5	0x402170ca	2.522509
6	0x40283677	2.6283243
7	0x3f4cc5b0	0.7998915
8	0x4012a0e2	2.2910695
9	0x3ff2a51d	1.8956639
10	0x3fb5fbb8	1.4217443
11	0x40218867	2.5239503
12	0x3f0269b1	0.5094252
13	0x3f8b35d8	1.0875807
14	0x3f65f678	0.89829206
15	0x3f53cd46	0.827351

bn1.bias f4 [16]
0	0xbecc83e5	-0.39944378
1	0xbf4a3a3d	-0.78995115
2	0xbedf8dc6	-0.43662852
3	0x3eb923c6	0.36160105
4	0xbedd5bad	-0.43234006
5	0xbf9e0b0b	-1.234712
6	0xbf8e7418	-1.1129179
7	0xbea86f00	-0.32897186
8	0xbfd929b3	-1.696585
9	0xbcfab1ff	-0.030602453
10	0xbf317634	-0.6932099
11	0x3e18ecac	0.14934033
12	0x3fc36d2e	1.5267694
13	0xbece0941	-0.40241435
14	0xbe0117cd	-0.12606736
15	0x3f1a0aaf	0.6017255

bn1.running_mean f4 [16]
0	0x3f851d68	1.0399599
1	0x400844da	2.1292024
2	0x3ec631bb	0.38709816
3	0xbf2d7419	-0.67755276
4	0x3ed511a2	0.41615015
5	0x3ef7bbe7	0.48385546
6	0xbf3907e9	-0.72277695
7	0xbee80177	-0.45313618
8	0xc0083b47	-2.128618
9	0xc032a391	-2.7912333
10	0x3fd4a863	1.6613888
11	0xbfcb1a4d	-1.5867401
12	0xbf1d67e7	-0.6148667
13	0x3ecd88a2	0.40143305
14	0xbf39ace8	-0.7252946
15	0xbdff9648	-0.12479836

bn1.running_var f4 [16]
0	0x3f47338e	0.7781304
1	0x3ecfe7a4	0.40606415
2	0x3e8ea829	0.2786267
3	0x3e5eedae	0.21770355
4	0x3f0f27a9	0.5591989
5	0x3eae6e53	0.34068546
6	0x3f9f48ec	1.2444129
7	0x3e95908f	0.29211852
8	0x3eb93811	0.36175588
9	0x3f67d4d1	0.9055911
10	0x3e3620b1	0.17785908
11	0x401c8697	2.4457147
12	0x3e074d01	0.13212968
13	0x3e5f568e	0.21810362
14	0x3dd4212a	0.10357888
15	0x3e0a7ac2	0.13523391

conv2.bias f4 [16]
0	0xbe9cafa5	-0.30602756
1	0x3ede4975	0.43415418
2	0x3f9ca79b	1.2238649
3	0xbf168382	-0.58794415
4	0xbf8d87d9	-1.1057082
5	0x3c1dbb26	0.009627139
6	0x3f1b02a6	0.60550916
7	0xbd6cff57	-0.0578607
8	0x3f197a0c	0.59951854
9	0x3ef181f3	0.47169456
10	0x3f478dd6	0.779508
11	0xbefd5bf0	-0.49484205
12	0xbe8c53f8	-0.27407813
13	0xbe6f5d79	-0.233755
14	0x3f824eb1	1.0180265
15	0x3f419fd3	0.756345

conv2.weight_orig f4 [16, 16, 3]
0	0x3fc509cd	1.5393616
1	0x3eafd9f2	0.34345967
2	0xbd25ea83	-0.04050685
3	0xbfb6c90e	-1.4280107
4	0xbf33e673	-0.7027351
5	0x3db06090	0.08612168
6	0x3dbeebdc	0.0932233
7	0x3f28d919	0.65956265
8	0xbef9f639	-0.48820665
9	0xbf356874	-0.7086251
10	0x3fa44436	1.2833316
11	0xbd202b34	-0.0391037
12	0x3d5315ad	0.051534344
13	0xbe464b4f	-0.19364665
14	0x3f56ad85	0.8385852
15	0xbfe3201b	-1.7744173
16	0xbf173f72	-0.59081185
17	0xbeded240	-0.43519783
18	0xc03dbcc5	-2.9646466
19	0x3f9709cf	1.1799868
20	0x3f09caca	0.53825057
21	0x3ed04bb3	0.40682754
22	0xbef22c1f	-0.47299287
23	0xbf35c1ec	-0.70999026
24	0xbf97d394	-1.1861444
25	0xbed962b3	-0.42458114
26	0x3f1290de	0.572523
27	0x3fd50329	1.6641589
28	0x401b7f26	2.4296355
29	0x3d302518	0.043004125
30	0x3fc288ff	1.5198058
31	0x3c93a357	0.018022222
32	0xbe3f8e8f	-0.18706726
33	0x3fab8d68	1.3402529
34	0xbbb64377	-0.0055622417
35	0xbe04478e	-0.12917921
36	0xbfa04faf	-1.2524318
37	0x3f6e4a09	0.9308172
38	0x3f9509f0	1.1643658
39	0xbfa552bb	-1.2915872
40	0xbe3d97cd	-0.18514939
41	0x3ef51970	0.4787097
42	0xc063651b	-3.553046
43	0x3dfc3633	0.12315025
44	0x3fac41e9	1.3457614
45	0x3e09ec40	0.13469028
46	0xbf4e9950	-0.80702686
47	0xbf358c88	-0.7091756
48	0x3e745a84	0.23862654
49	0x3f97de90	1.1864796
50	0xbea10fe5	-0.3145744
51	0x3f4215f7	0.75814766
52	0xbe1303e3	-0.14356951
53	0xbf34f85d	-0.7069147
54	0xbd77fcc6	-0.060543798
55	0xbf9b0f27	-1.2113999
56	0x3f1c8e9a	0.6115509
57	0xbfa24d6a	-1.2679875
58	0x3f92664a	1.1437466
59	0xbf6bf905	-0.9217685
60	0xbdfdb8e2	-0.12388779
61	0xbe16acf0	-0.14714408
62	0x3e9f22f6	0.3108136
63	0x3ebf115a	0.37317926
64	0x3fa43c10	1.283083
65	0xbdaa9c55	-0.08330599
66	0x3eca98fb	0.3956984
67	0x3f77ddbb	0.9682271
68	0x3fbdaea6	1.4818923
69	0xbf3d59c8	-0.7396512
70	0xbfbdd5fe	-1.483093
71	0xbeb20eda	-0.34776956
72	0x3c72c0c8	0.01481647
73	0xbf8ed5bc	-1.1158977
74	0xc06598f4	-3.5874605
75	0xbf99a2ae	-1.2002771
76	0x3f13500e	0.5754403
77	0xbf58a75e	-0.8463038
78	0xbf11a540	-0.56892776
79	0xbfd7ef52	-1.686991
80	0xbf25ca02	-0.64761364
81	0xbe9d23bf	-0.30691335
82	0xbf678587	-0.9043812
83	0xbd35f4a7	-0.04442277
84	0xbf7876a5	-0.9705604
85	0x3f805d0a	1.0028393
86	0xbe506020	-0.20349169
87	0x3fa701af	1.3047389
88	0x3ffbea5c	1.9680896
89	0xbf2fa29b	-0.6860749
90	0x3eca3568	0.3949387
91	0x3fcf305a	1.6186631
92	0xbe43cb71	-0.19120575
93	0xbfbd4feb	-1.4790014
94	0xbfd96d20	-1.6986427
95	0xbb5a118c	-0.003327462
96	0x3edc22ee	0.429954
97	0x3f73b218	0.95193624
98	0x3fcd65cf	1.6046695
99	0x3e031b31	0.12803341
100	0xbd7692e6	-0.060198687
101	0xbf6a71bd	-0.915798
102	0xbea2b1eb	-0.31776366
103	0xc00cf00b	-2.202151
104	0xbe33168e	-0.17489073
105	0x3e60049d	0.2187676
106	0x4025db24	2.5915003
107	0x3e404212	0.18775204
108	0xbf387b4b	-0.7206313
109	0x3f998831	1.1994687
110	0x3f43e992	0.76528275
111	0x3e5afa00	0.2138443
112	0xbedf4a0c	-0.4361118
113	0x3d01f4ad	0.03172748
114	0x4029db1b	2.6539981
115	0xbdbc00b2	-0.0917982
116	0xbe656895	-0.22403176
117	0xbee50bc0	-0.44735527
118	0xbf5bfb4e	-0.85930336
119	0xc01eaf05	-2.4794323
120	0x3f15ee4e	0.5856675
121	0xbfd3a365	-1.6534239
122	0xbed21520	-0.41031742
123	0x3e574abb	0.21024601
124	0x3fce99a4	1.6140637
125	0x3f0ebc1f	0.557558
126	0xbe1cc6e3	-0.15310244
127	0x3bcb9379	0.0062126485
128	0x3e80342d	0.25039807
129	0xbc59f6c9	-0.013303467
130	0x3e70727b	0.23481171
131	0xbe17d152	-0.14825943
132	0x3ecf6ab1	0.40511087
133	0xbe627a0e	-0.22116873
134	0xbe721b2e	-0.2364318
135	0x3e82a5cf	0.25517127
136	0xbf9d8cf0	-1.2308636
137	0x3f41815d	0.7558802
138	0x3e66f661	0.22554924
139	0x3f79d52f	0.9759092
140	0x3f25317c	0.6452863
141	0xbf06031f	-0.5234851
142	0xbf97215a	-1.1807053
143	0x3ec449cf	0.3833756
144	0xbf102b1d	-0.56315786
145	0xbed16c48	-0.40902925
146	0x3e99ceda	0.30040628
147	0xbef818af	-0.48456332
148	0x3f1b3e13	0.6064159
149	0xbdfb9d44	-0.122858554
150	0xbe1e1a61	-0.1543975
151	0xbfbb655f	-1.4640311
152	0xbe373ea0	-0.17894983
153	0xbd12ee7d	-0.03587197
154	0xbfd6cb00	-1.6780701
155	0x3f82d551	1.0221349
156	0x3e082360	0.13294744
157	0x3f81570e	1.0104692
158	0xbf50a7d7	-0.81506103
159	0xbc3aba6e	-0.011396987
160	0x4028bffc	2.6367178
161	0x3e7d43d3	0.24732904
162	0xbe476d9d	-0.19475408
163	0x3f84ae4c	1.0365691
164	0x3fda920c	1.707582
165	0x3e9c03a3	0.30471525
166	0xbf888dad	-1.0668236
167	0x3f074cf6	0.5285181
168	0xbe974d95	-0.29551378
169	0x3fdd0600	1.7267456
170	0xbeb736a6	-0.3578388
171	0xbdd5f0cd	-0.1044632
172	0x3f03efc1	0.5153771
173	0x3ff43806	1.9079597
174	0xbd391861	-0.045189265
175	0x3f2da850	0.6783495
176	0xbf0961b5	-0.53664714
177	0x3d8a4946	0.06752257
178	0xbeca01f5	-0.39454618
179	0x3f4a1ad2	0.78947175
180	0xbce0f5e7	-0.027461005
181	0x3fe4bfa5	1.7870985
182	0x3a1f93ee	0.0006087412
183	0x3cefab54	0.0292565
184	0x3fa1f647	1.2653283
185	0xbe808d1f	-0.25107667
186	0x3e570490	0.20997834
187	0xbed7a800	-0.4212036
188	0x3d9da42b	0.07697328
189	0x3d934ab6	0.07191984
190	0xbfb937d4	-1.4470162
191	0xbe216430	-0.15760875
192	0x402efaa8	2.7340488
193	0x3f3f486f	0.747199
194	0xbe6164de	-0.22011134
195	0xbf140c4f	-0.5783128
196	0xbe2e31ce	-0.17011186
197	0xbf16758d	-0.5877312
198	0xbf490236	-0.78519
199	0xbeb88906	-0.3604204
200	0xbdf157ae	-0.11784302
201	0xbf853b6a	-1.0408757
202	0xbf1aea57	-0.60513824
203	0x3efc2e25	0.49253955
204	0x3f3c6948	0.73598146
205	0xbee58398	-0.4482696
206	0x3f23e700	0.64024353
207	0xbf03aa79	-0.51431996
208	0x3e718fb6	0.23589978
209	0xbe993fe4	-0.29931557
210	0xbd8f5337	-0.06998294
211	0x40009952	2.009358
212	0x3f93532f	1.1509761
213	0xbf1041b9	-0.56350285
214	0x3d758506	0.059941314
215	0x3f6ce472	0.9253608
216	0x3e9aa931	0.30207208
217	0xbf21ec00	-0.6325073
218	0xc030da5b	-2.7633274
219	0x3d2d40a4	0.042297974
220	0x3f8ab890	1.0837574
221	0xbf3fce67	-0.7492432
222	0x3e4f6190	0.20252061
223	0x3e5001d9	0.20313205
224	0x3c67e520	0.014153749
225	0x3eb8087d	0.35943976
226	0x3ef0034f	0.46877524
227	0xbeb99bcd	-0.3625168
228	0x3ef1112f	0.47083423
229	0xbe92470c	-0.2856983
230	0x3e53f74f	0.2069981
231	0xbf7f4d62	-0.9972745
232	0xbf49fedb	-0.78904504
233	0xbf321d36	-0.6957582
234	0xc030dc71	-2.7634547
235	0x3f02928f	0.5100488
236	0x3d219947	0.039452817
237	0x3f26baee	0.6512898
238	0x3ec49a4c	0.3839897
239	0xbd6f6574	-0.058446363
240	0xbf459fac	-0.77196765
241	0xbf307881	-0.68933874
242	0x3f9f88aa	1.2463582
243	0xbe295b83	-0.16538815
244	0x3e455f4f	0.19274639
245	0x3f25ec48	0.6481366
246	0x3e704c85	0.2346669
247	0x3ef3d83a	0.47625905
248	0xbf87f659	-1.0622054
249	0xbe22fe8c	-0.15917414
250	0x3ec38b72	0.38192326
251	0xbd41f8df	-0.047356483
252	0xbe8dc904	-0.27692425
253	0xbf15c542	-0.58504117
254	0xbef9c225	-0.48780933
255	0x3f565aaf	0.8373212

conv2.weight_mask f4 [16, 16, 3]
0	0x3f800000	1.0
1	0x3f800000	1.0
2	0x3f800000	1.0
3	0x3f800000	1.0
4	0x3f800000	1.0
5	0x3f800000	1.0
6	0x3f800000	1.0
7	0x3f800000	1.0
8	0x3f800000	1.0
9	0x3f800000	1.0
10	0x3f800000	1.0
11	0x3f800000	1.0
12	0x3f800000	1.0
13	0x3f800000	1.0
14	0x3f800000	1.0
15	0x3f800000	1.0
16	0x3f800000	1.0
17	0x3f800000	1.0
18	0x3f800000	1.0
19	0x3f800000	1.0
20	0x3f800000	1.0
21	0x3f800000	1.0
22	0x3f800000	1.0
23	0x3f800000	1.0
24	0x3f800000	1.0
25	0x3f800000	1.0
26	0x3f800000	1.0
27	0x3f800000	1.0
28	0x3f800000	1.0
29	0x3f800000	1.0
30	0x3f800000	1.0
31	0x3f800000	1.0
32	0x3f800000	1.0
33	0x3f800000	1.0
34	0x3f800000	1.0
35	0x3f800000	1.0
36	0x3f800000	1.0
37	0x3f800000	1.0
38	0x3f800000	1.0
39	0x3f800000	1.0
40	0x3f800000	1.0
41	0x3f800000	1.0
42	0x3f800000	1.0
43	0x3f800000	1.0
44	0x3f800000	1.0
45	0x3f800000	1.0
46	0x3f800000	1.0
47	0x3f800000	1.0
48	0x3f800000	1.0
49	0x3f800000	1.0
50	0x3f800000	1.0
51	0x3f800000	1.0
52	0x3f800000	1.0
53	0x3f800000	1.0
54	0x3f800000	1.0
55	0x3f800000	1.0
56	0x3f800000	1.0
57	0x3f800000	1.0
58	0x3f800000	1.0
59	0x3f800000	1.0
60	0x3f800000	1.0
61	0x3f800000	1.0
62	0x3f800000	1.0
63	0x3f800000	1.0
64	0x3f800000	1.0
65	0x3f800000	1.0
66	0x3f800000	1.0
67	0x3f800000	1.0
68	0x3f800000	1.0
69	0x3f800000	1.0
70	0x3f800000	1.0
71	0x3f800000	1.0
72	0x3f800000	1.0
73	0x3f800000	1.0
74	0x3f800000	1.0
75	0x3f800000	1.0
76	0x3f800000	1.0
77	0x3f800000	1.0
78	0x3f800000	1.0
79	0x3f800000	1.0
80	0x3f800000	1.0
81	0x3f800000	1.0
82	0x3f800000	1.0
83	0x3f800000	1.0
84	0x3f800000	1.0
85	0x3f800000	1.0
86	0x3f800000	1.0
87	0x3f800000	1.0
88	0x3f800000	1.0
89	0x3f800000	1.0
90	0x3f800000	1.0
91	0x3f800000	1.0
92	0x3f800000	1.0
93	0x3f800000	1.0
94	0x3f800000	1.0
95	0x3f800000	1.0
96	0x3f800000	1.0
97	0x3f800000	1.0
98	0x3f800000	1.0
99	0x3f800000	1.0
100	0x3f800000	1.0
101	0x3f800000	1.0
102	0x3f800000	1.0
103	0x3f800000	1.0
104	0x3f800000	1.0
105	0x3f800000	1.0
106	0x3f800000	1.0
107	0x3f800000	1.0
108	0x3f800000	1.0
109	0x3f800000	1.0
110	0x3f800000	1.0
111	0x3f800000	1.0
112	0x3f800000	1.0
113	0x3f800000	1.0
114	0x3f800000	1.0
115	0x3f800000	1.0
116	0x3f800000	1.0
117	0x3f800000	1.0
118	0x3f800000	1.0
119	0x3f800000	1.0
120	0x3f800000	1.0
121	0x3f800000	1.0
122	0x3f800000	1.0
123	0x3f800000	1.0
124	0x3f800000	1.0
125	0x3f800000	1.0
126	0x3f800000	1.0
127	0x3f800000	1.0
128	0x3f800000	1.0
129	0x3f800000	1.0
130	0x3f800000	1.0
131	0x3f800000	1.0
132	0x3f800000	1.0
133	0x3f800000	1.0
134	0x3f800000	1.0
135	0x3f800000	1.0
136	0x3f800000	1.0
137	0x3f800000	1.0
138	0x3f800000	1.0
139	0x3f800000	1.0
140	0x3f800000	1.0
141	0x3f800000	1.0
142	0x3f800000	1.0
143	0x3f800000	1.0
144	0x00000000	0.0
145	0x00000000	0.0
146	0x00000000	0.0
147	0x00000000	0.0
148	0x00000000	0.0
149	0x00000000	0.0
150	0x00000000	0.0
151	0x00000000	0.0
152	0x00000000	0.0
153	0x00000000	0.0
154	0x00000000	0.0
155	0x00000000	0.0
156	0x00000000	0.0
157	0x00000000	0.0
158	0x00000000	0.0
159	0x00000000	0.0
160	0x00000000	0.0
161	0x00000000	0.0
162	0x00000000	0.0
163	0x00000000	0.0
164	0x00000000	0.0
165	0x00000000	0.0
166	0x00000000	0.0
167	0x00000000	0.0
168	0x00000000	0.0
169	0x00000000	0.0
170	0x00000000	0.0
171	0x00000000	0.0
172	0x00000000	0.0
173	0x00000000	0.0
174	0x00000000	0.0
175	0x00000000	0.0
176	0x00000000	0.0
177	0x00000000	0.0
178	0x00000000	0.0
179	0x00000000	0.0
180	0x00000000	0.0
181	0x00000000	0.0
182	0x00000000	0.0
183	0x00000000	0.0
184	0x00000000	0.0
185	0x00000000	0.0
186	0x00000000	0.0
187	0x00000000	0.0
188	0x00000000	0.0
189	0x00000000	0.0
190	0x00000000	0.0
191	0x00000000	0.0
192	0x3f800000	1.0
193	0x3f800000	1.0
194	0x3f800000	1.0
195	0x3f800000	1.0
196	0x3f800000	1.0
197	0x3f800000	1.0
198	0x3f800000	1.0
199	0x3f800000	1.0
200	0x3f800000	1.0
201	0x3f800000	1.0
202	0x3f800000	1.0
203	0x3f800000	1.0
204	0x3f800000	1.0
205	0x3f800000	1.0
206	0x3f800000	1.0
207	0x3f800000	1.0
208	0x3f800000	1.0
209	0x3f800000	1.0
210	0x3f800000	1.0
211	0x3f800000	1.0
212	0x3f800000	1.0
213	0x3f800000	1.0
214	0x3f800000	1.0
215	0x3f800000	1.0
216	0x3f800000	1.0
217	0x3f800000	1.0
218	0x3f800000	1.0
219	0x3f800000	1.0
220	0x3f800000	1.0
221	0x3f800000	1.0
222	0x3f800000	1.0
223	0x3f800000	1.0
224	0x3f800000	1.0
225	0x3f800000	1.0
226	0x3f800000	1.0
227	0x3f800000	1.0
228	0x3f800000	1.0
229	0x3f800000	1.0
230	0x3f800000	1.0
231	0x3f800000	1.0
232	0x3f800000	1.0
233	0x3f800000	1.0
234	0x3f800000	1.0
235	0x3f800000	1.0
236	0x3f800000	1.0
237	0x3f800000	1.0
238	0x3f800000	1.0
239	0x3f800000	1.0
240	0x3f800000	1.0
241	0x3f800000	1.0
242	0x3f800000	1.0
243	0x3f800000	1.0
244	0x3f800000	1.0
245	0x3f800000	1.0
246	0x3f800000	1.0
247	0x3f800000	1.0
248	0x3f800000	1.0
249	0x3f800000	1.0
250	0x3f800000	1.0
251	0x3f800000	1.0
252	0x3f800000	1.0
253	0x3f800000	1.0
254	0x3f800000	1.0
255	0x3f800000	1.0

conv2._weight_quantizer._amax f4 [16, 1, 1]
0	0x406362c5	3.5529034
1	0x406597fd	3.5874016
2	0x4029da18	2.6539364
3	0x4028bffc	2.6367178
4	0x4030d84a	2.7632012
5	0x40aa0c7c	5.314024
6	0x40857a47	4.1711764
7	0x402ae418	2.6701717
8	0x4083f316	4.1234236
9	0x401d9be1	2.462639
10	0x408a3ad6	4.319682
11	0x4025b2a4	2.5890284
12	0x40587638	3.3822155
13	0x403e4d6b	2.9734752
14	0x401c75b9	2.4446852
15	0x401841c7	2.3790147

bn2.weight f4 [16]
0	0x40282469	2.6272223
1	0x3fd306da	1.6486466
2	0x400e064d	2.2191346
3	0x3fce7f68	1.6132631
4	0x4017ba86	2.3707595
5	0x3f8e3aa7	1.1111649
6	0x3ff9ed78	1.9525595
7	0x3f181ba0	0.5941715
8	0x3f335fd1	0.7006808
9	0x3f01c808	0.5069585
10	0x3f74705e	0.9548396
11	0x3fe0d56c	1.7565131
12	0x3ea09478	0.31363273
13	0x3f161855	0.5863088
14	0x400ca414	2.1975145
15	0x3e9ef4e1	0.31046203

bn2.bias f4 [16]
0	0xbf914127	-1.1348008
1	0xbea881c4	-0.32911503
2	0xbf07fc97	-0.53119797
3	0xbee65d54	-0.4499308
4	0xbe2bff63	-0.16796641
5	0xbe813013	-0.2523199
6	0xbf32668f	-0.6968774
7	0xbfc7be3d	-1.5604931
8	0xbe33fccb	-0.17576902
9	0xbfd9d8fa	-1.7019341
10	0xbfa73f2e	-1.3066156
11	0xbef605e4	-0.4805137
12	0xbc940ea7	-0.018073393
13	0x3d222d6f	0.03959411
14	0xbf3de066	-0.7417053
15	0x3eec1f65	0.46117702

bn2.running_mean f4 [16]
0	0x4083bce8	4.11681
1	0xc09d6185	-4.9181542
2	0x409e4888	4.946354
3	0xbf16837c	-0.5879438
4	0x402f6cfe	2.7410274
5	0x4076f6b8	3.8588085
6	0x411daf48	9.855293
7	0x3e43ef4f	0.19134258
8	0xc0b5dee1	-5.683457
9	0x3ef181f3	0.47169456
10	0x40889dab	4.2692466
11	0xc109d504	-8.614506
12	0x4027487c	2.613799
13	0xbfb22c91	-1.391985
14	0x3f2bc19d	0.67092305
15	0xc00f02d6	-2.234548

bn2.running_var f4 [16]
0	0x41c8f461	25.119326
1	0x411191ca	9.098093
2	0x41aa8daa	21.319172
3	0x2780020e	3.5529364e-15
4	0x420c0f4c	35.01494
5	0x420f4dbd	35.825916
6	0x423ce646	47.224876
7	0x3f6dfd1c	0.9296434
8	0x41dfab87	27.958754
9	0x2680020e	8.882341e-16
10	0x417e1890	15.880997
11	0x416438ce	14.263868
12	0x40225031	2.5361445
13	0x4146c0ed	12.422101
14	0x4195bf6c	18.718468
15	0x3fcaaf56	1.5834758

conv3.bias f4 [32]
0	0xbf0e69b0	-0.55630016
1	0x3dddf45d	0.10837624
2	0xbf08f419	-0.53497463
3	0xbe2b5b2c	-0.16733998
4	0xbdda74f0	-0.10666835
5	0xbe2230d4	-0.15838939
6	0xbd377dca	-0.044797696
7	0xbf43056c	-0.7618015
8	0xbe6f3178	-0.23358715
9	0x3d0a99c3	0.033838045
10	0x3e928f98	0.28625178
11	0x3ebc467e	0.3677253
12	0x3ce10c9d	0.027471835
13	0x3dcedc7e	0.10100649
14	0x3f0a0712	0.5391704
15	0x3e9f2ef0	0.31090498
16	0xbf78ebd1	-0.9723483
17	0x3e4229f9	0.18961324
18	0xbf09deeb	-0.5385577
19	0xbf428ed1	-0.7599917
20	0xbeb207c4	-0.3477155
21	0xbd48836a	-0.04895345
22	0xbe8e5ab9	-0.2780359
23	0xbf261866	-0.6488098
24	0xbd41d2c9	-0.04732016
25	0x3e401190	0.187567
26	0x3f0385dc	0.5137613
27	0xbe95a768	-0.29229283
28	0x3e9491bd	0.2901744
29	0xbf192978	-0.598289
30	0x3ca5b7c2	0.020229224
31	0xbebab4b5	-0.36465994

conv3.weight_orig f4 [32, 16, 3]
0	0x3f1accc4	0.604687
1	0x3f5357cd	0.8255585
2	0xbfbe552d	-1.4869744
3	0x3f69577a	0.91149104
4	0xc001650d	-2.0217927
5	0x3fb6895a	1.4260666
6	0x3faa6b7e	1.3314054
7	0xbf2694a3	-0.6507055
8	0xbf3a5de1	-0.727995
9	0xbf6f3ed1	-0.93455225
10	0xbe037597	-0.12837826
11	0x3faa0abc	1.3284526
12	0x3f7d0bb4	0.9884598
13	0x3e317890	0.17331147
14	0x3f29eac9	0.6637388
15	0xc00161b7	-2.021589
16	0xbf87ff5b	-1.0624803
17	0xbf7ad817	-0.97985977
18	0x3cb49620	0.022044241
19	0x3ea9f2ed	0.3319315
20	0x3f878c4e	1.0589693
21	0xbfd758c6	-1.6823967
22	0xbe2545b0	-0.16139865
23	0x3facce12	1.3500388
24	0xbfa39b58	-1.2781782
25	0xbed7f238	-0.42176986
26	0x3f5015eb	0.81283444
27	0xbee69886	-0.4503824
28	0x3e5599f1	0.20859505
29	0xbfa85751	-1.3151647
30	0x3e1615ad	0.14656706
31	0xbcfce72c	-0.03087195
32	0xbe018be6	-0.12651023
33	0x3f731e64	0.9496825
34	0x3f98c542	1.1935198
35	0xbf905966	-1.1277282
36	0xbeaf6b4a	-0.34261543
37	0xbfab077a	-1.3361657
38	0x3f93a077	1.1533345
39	0xbeaa053f	-0.33207127
40	0xbe889df8	-0.2668302
41	0xbe9eaf7d	-0.30993262
42	0x3a308cb1	0.0006734832
43	0x3da14e90	0.07876313
44	0xbe9ac7c8	-0.30230546
45	0xbecafc14	-0.39645445
46	0x3e708ee2	0.23492005
47	0xbe4708a0	-0.19436884
48	0x3f93a250	1.1533909
49	0xbfe3f7c1	-1.7809983
50	0x3ea9bf1c	0.33153617
51	0x3fb8622c	1.440496
52	0xc029c954	-2.652913
53	0x3ef55285	0.4791452
54	0x3f280184	0.6562731
55	0xbf537add	-0.8260935
56	0xbf4b8351	-0.7949725
57	0x3ec231b8	0.37928557
58	0xbf88dccf	-1.0692385
59	0xbe6f1de8	-0.23351252
60	0x3de34835	0.11097757
61	0x3f86e0ec	1.0537391
62	0x3f64f474	0.89435506
63	0x3ebfe449	0.37478855
64	0xbf5efade	-0.8710154
65	0x3ebab12d	0.364633
66	0x3f64be0a	0.89352477
67	0xc01828c5	-2.3774884
68	0xbed42747	-0.41436216
69	0xbf458a25	-0.77163917
70	0x3deedf70	0.11663711
71	0x3ea35f12	0.3190847
72	0x3e5aa166	0.21350631
73	0xbe721876	-0.23642144
74	0x3efa5ac5	0.48897377
75	0xbe867429	-0.26260498
76	0xbef64f1a	-0.48107225
77	0x3e7088c6	0.23489675
78	0xbf9e0524	-1.2345319
79	0x3dff2ab7	0.12459319
80	0xbd2156e5	-0.03938951
81	0x3f70c44b	0.9404952
82	0x3ed2d78b	0.4118007
83	0xbf3db43f	-0.7410316
84	0xbeed7f8c	-0.46386373
85	0x3f187521	0.59553725
86	0x3eff370a	0.4984668
87	0xbfb0bb1d	-1.3807102
88	0x3eada491	0.33914617
89	0x3fae39ec	1.3611426
90	0x3fad571c	1.3542209
91	0xbfbaa67d	-1.4582058
92	0x3d1957f3	0.03743739
93	0x3d6bf7e5	0.057609458
94	0xbeb739ba	-0.3578623
95	0x3edfc140	0.43702126
96	0xbf0d642e	-0.5523099
97	0x3f9dee7c	1.2338405
98	0x3f179e14	0.59225583
99	0xbf077dad	-0.5292614
100	0xbeae1625	-0.3400127
101	0xbfb912a3	-1.4458812
102	0x3d36746a	0.044544615
103	0xbed4c01b	-0.41552815
104	0xbd85bed0	-0.06530535
105	0xbdcead2b	-0.10091623
106	0xbf40af97	-0.7526793
107	0xbfdf99b8	-1.7468786
108	0x3fbd1725	1.4772688
109	0x3f807c59	1.0037948
110	0xbeb3a8ad	-0.35089627
111	0xbf9abf2d	-1.2089592
112	0xbebe81c2	-0.37208372
113	0x3f985d65	1.1903502
114	0xbd7a99f7	-0.06118199
115	0x3f8aba95	1.083819
116	0xbe79dfd9	-0.24401797
117	0xbfa9315a	-1.3218186
118	0x3fa0092c	1.2502799
119	0x3f3b5d93	0.7318966
120	0xbf89c669	-1.0763675
121	0xbf01cc16	-0.50702035
122	0x3f4b26d0	0.793561
123	0x3fe2a47a	1.7706444
124	0xbff375d1	-1.902033
125	0xbee98d0c	-0.45615423
126	0x3efa29cb	0.4886001
127	0xbfb7bc90	-1.435442
128	0xbf0739f0	-0.5282278
129	0x3fc21913	1.5163902
130	0xbf419857	-0.7562308
131	0xbd59ac12	-0.053142615
132	0xbf3d2797	-0.73888534
133	0xbe129214	-0.14313537
134	0x3d167bb2	0.03673906
135	0xbe7f7f4a	-0.249509
136	0xbe2c5974	-0.16830999
137	0x3e93de24	0.28880417
138	0xbf02c9d8	-0.5108924
139	0x3f003285	0.50077087
140	0x3f8c160f	1.0944232
141	0xbf5b1915	-0.8558515
142	0xbdbf8e1a	-0.093532756
143	0xbe9dbe23	-0.30809125
144	0xbed5982d	-0.41717663
145	0xbf1f69b5	-0.6227067
146	0x3cea7109	0.028618352
147	0xc04bd284	-3.1847239
148	0x3effb102	0.49939734
149	0x3e8e2f32	0.27770382
150	0xbf7e692c	-0.9937923
151	0x3ede631c	0.4343499
152	0x3fa0b8d8	1.255641
153	0xbe904f27	-0.28185388
154	0xbf8c7d3a	-1.0975716
155	0xbe552400	-0.20814514
156	0xbfab7671	-1.339552
157	0xbf76166e	-0.96127975
158	0x3f203b11	0.6259013
159	0xbf93d586	-1.1549537
160	0xbeff5a00	-0.49873352
161	0xbe253de2	-0.16136888
162	0xbec63607	-0.38713095
163	0x3d829f33	0.06378021
164	0x3d359fe3	0.044341933
165	0xbd0b2b86	-0.033977054
166	0xbf05b01f	-0.52221864
167	0x3d4b7d5e	0.049680106
168	0x3e83348d	0.2562603
169	0x3f164384	0.5869677
170	0xbe94281c	-0.2893685
171	0x3f9ffcf6	1.2499073
172	0xbf091f11	-0.5356303
173	0x3e63a07d	0.2222919
174	0x3ec10969	0.37702492
175	0x3ecf5edc	0.4050206
176	0x3eca102d	0.39465466
177	0x3f08edf5	0.53488094
178	0x3e16dd1c	0.14732784
179	0x3f9a697c	1.2063441
180	0x3db2caec	0.087301105
181	0x3eda7a3d	0.42671385
182	0xc03de4ec	-2.9670973
183	0x3f2de2c0	0.6792412
184	0xbf124a4a	-0.57144606
185	0xbfbf054b	-1.492349
186	0x3fd2039c	1.6407351
187	0xbf5d3ad4	-0.8641789
188	0x3f764eef	0.96214193
189	0xbf08ea3d	-0.5348242
190	0x3e90297b	0.28156647
191	0x3e495db8	0.19664657
192	0x3eb44a39	0.35212877
193	0xbf1505ab	-0.58211774
194	0xbeb323f2	-0.34988362
195	0x3f8f4dc4	1.1195607
196	0xbeb0aa57	-0.3450496
197	0xbf14ce0a	-0.5812689
198	0xbfe88a68	-1.8167238
199	0xbf2fb4fa	-0.68635523
200	0x401462e5	2.318536
201	0x3f7c37ee	0.9852284
202	0xbeff579b	-0.49871525
203	0x3d11f129	0.03563038
204	0xbfc564bf	-1.542137
205	0x3fb8613b	1.4404672
206	0x3f6f3c3b	0.9345128
207	0x3dec84f0	0.11548793
208	0x3f359787	0.7093434
209	0xbfcb0c34	-1.5863099
210	0x3f9f2714	1.2433801
211	0xbee1320a	-0.4398349
212	0xbf651c27	-0.8949608
213	0x3f1cc40d	0.6123665
214	0x3e699fbe	0.22814843
215	0xbfba9111	-1.4575521
216	0x3cdde391	0.027086051
217	0x3f5a4f0f	0.85276884
218	0xbf943f01	-1.1581727
219	0xbf12068e	-0.5704125
220	0x3eda6cb3	0.42661056
221	0xbf69672e	-0.91173065
222	0xbe98fcd7	-0.29880401
223	0xbec2987a	-0.38006955
224	0xbee377f5	-0.44427457
225	0xbf48665e	-0.782812
226	0xbe9c608e	-0.30542415
227	0x401465c3	2.318711
228	0xbdbd787d	-0.09251497
229	0xbd6f8509	-0.05847648
230	0xbe487c45	-0.19578655
231	0x3f87d044	1.0610433
232	0xbf38475d	-0.7198389
233	0xbf300e9e	-0.68772304
234	0x3fc6fde0	1.5546227
235	0x3d5ed768	0.054404646
236	0x3f813bd7	1.0096387
237	0x3e808880	0.2510414
238	0xbe8a6803	-0.2703248
239	0xbd346457	-0.044041004
240	0x3fe6dabb	1.8035501
241	0x3f47551a	0.7786423
242	0xbc538d05	-0.01291204
243	0x3f9c823c	1.2227244
244	0xbeeb12d4	-0.45912802
245	0xbe6e5dca	-0.23277965
246	0xc01b5cfe	-2.4275508
247	0xbf248ad1	-0.6427432
248	0x3d11b599	0.035573576
249	0xbfde9aa0	-1.7390938
250	0x3ee6f8cb	0.4511169
251	0x3f0d0d84	0.5509875
252	0xbbd812a7	-0.0065940204
253	0x3f656de7	0.8962082
254	0x3ec1ca22	0.37849528
255	0xbf34ca6c	-0.7062137

conv3.weight_mask f4 [32, 16, 3]
0	0x3f800000	1.0
1	0x3f800000	1.0
2	0x3f800000	1.0
3	0x3f800000	1.0
4	0x3f800000	1.0
5	0x3f800000	1.0
6	0x3f800000	1.0
7	0x3f800000	1.0
8	0x3f800000	1.0
9	0x3f800000	1.0
10	0x3f800000	1.0
11	0x3f800000	1.0
12	0x3f800000	1.0
13	0x3f800000	1.0
14	0x3f800000	1.0
15	0x3f800000	1.0
16	0x3f800000	1.0
17	0x3f800000	1.0
18	0x3f800000	1.0
19	0x3f800000	1.0
20	0x3f800000	1.0
21	0x3f800000	1.0
22	0x3f800000	1.0
23	0x3f800000	1.0
24	0x3f800000	1.0
25	0x3f800000	1.0
26	0x3f800000	1.0
27	0x3f800000	1.0
28	0x3f800000	1.0
29	0x3f800000	1.0
30	0x3f800000	1.0
31	0x3f800000	1.0
32	0x3f800000	1.0
33	0x3f800000	1.0
34	0x3f800000	1.0
35	0x3f800000	1.0
36	0x3f800000	1.0
37	0x3f800000	1.0
38	0x3f800000	1.0
39	0x3f800000	1.0
40	0x3f800000	1.0
41	0x3f800000	1.0
42	0x3f800000	1.0
43	0x3f800000	1.0
44	0x3f800000	1.0
45	0x3f800000	1.0
46	0x3f800000	1.0
47	0x3f800000	1.0
48	0x3f800000	1.0
49	0x3f800000	1.0
50	0x3f800000	1.0
51	0x3f800000	1.0
52	0x3f800000	1.0
53	0x3f800000	1.0
54	0x3f800000	1.0
55	0x3f800000	1.0
56	0x3f800000	1.0
57	0x3f800000	1.0
58	0x3f800000	1.0
59	0x3f800000	1.0
60	0x3f800000	1.0
61	0x3f800000	1.0
62	0x3f800000	1.0
63	0x3f800000	1.0
64	0x3f800000	1.0
65	0x3f800000	1.0
66	0x3f800000	1.0
67	0x3f800000	1.0
68	0x3f800000	1.0
69	0x3f800000	1.0
70	0x3f800000	1.0
71	0x3f800000	1.0
72	0x3f800000	1.0
73	0x3f800000	1.0
74	0x3f800000	1.0
75	0x3f800000	1.0
76	0x3f800000	1.0
77	0x3f800000	1.0
78	0x3f800000	1.0
79	0x3f800000	1.0
80	0x3f800000	1.0
81	0x3f800000	1.0
82	0x3f800000	1.0
83	0x3f800000	1.0
84	0x3f800000	1.0
85	0x3f800000	1.0
86	0x3f800000	1.0
87	0x3f800000	1.0
88	0x3f800000	1.0
89	0x3f800000	1.0
90	0x3f800000	1.0
91	0x3f800000	1.0
92	0x3f800000	1.0
93	0x3f800000	1.0
94	0x3f800000	1.0
95	0x3f800000	1.0
96	0x3f800000	1.0
97	0x3f800000	1.0
98	0x3f800000	1.0
99	0x3f800000	1.0
100	0x3f800000	1.0
101	0x3f800000	1.0
102	0x3f800000	1.0
103	0x3f800000	1.0
104	0x3f800000	1.0
105	0x3f800000	1.0
106	0x3f800000	1.0
107	0x3f800000	1.0
108	0x3f800000	1.0
109	0x3f800000	1.0
110	0x3f800000	1.0
111	0x3f800000	1.0
112	0x3f800000	1.0
113	0x3f800000	1.0
114	0x3f800000	1.0
115	0x3f800000	1.0
116	0x3f800000	1.0
117	0x3f800000	1.0
118	0x3f800000	1.0
119	0x3f800000	1.0
120	0x3f800000	1.0
121	0x3f800000	1.0
122	0x3f800000	1.0
123	0x3f800000	1.0
124	0x3f800000	1.0
125	0x3f800000	1.0
126	0x3f800000	1.0
127	0x3f800000	1.0
128	0x3f800000	1.0
129	0x3f800000	1.0
130	0x3f800000	1.0
131	0x3f800000	1.0
132	0x3f800000	1.0
133	0x3f800000	1.0
134	0x3f800000	1.0
135	0x3f800000	1.0
136	0x3f800000	1.0
137	0x3f800000	1.0
138	0x3f800000	1.0
139	0x3f800000	1.0
140	0x3f800000	1.0
141	0x3f800000	1.0
142	0x3f800000	1.0
143	0x3f800000	1.0
144	0x3f800000	1.0
145	0x3f800000	1.0
146	0x3f800000	1.0
147	0x3f800000	1.0
148	0x3f800000	1.0
149	0x3f800000	1.0
150	0x3f800000	1.0
151	0x3f800000	1.0
152	0x3f800000	1.0
153	0x3f800000	1.0
154	0x3f800000	1.0
155	0x3f800000	1.0
156	0x3f800000	1.0
157	0x3f800000	1.0
158	0x3f800000	1.0
159	0x3f800000	1.0
160	0x3f800000	1.0
161	0x3f800000	1.0
162	0x3f800000	1.0
163	0x3f800000	1.0
164	0x3f800000	1.0
165	0x3f800000	1.0
166	0x3f800000	1.0
167	0x3f800000	1.0
168	0x3f800000	1.0
169	0x3f800000	1.0
170	0x3f800000	1.0
171	0x3f800000	1.0
172	0x3f800000	1.0
173	0x3f800000	1.0
174	0x3f800000	1.0
175	0x3f800000	1.0
176	0x3f800000	1.0
177	0x3f800000	1.0
178	0x3f800000	1.0
179	0x3f800000	1.0
180	0x3f800000	1.0
181	0x3f800000	1.0
182	0x3f800000	1.0
183	0x3f800000	1.0
184	0x3f800000	1.0
185	0x3f800000	1.0
186	0x3f800000	1.0
187	0x3f800000	1.0
188	0x3f800000	1.0
189	0x3f800000	1.0
190	0x3f800000	1.0
191	0x3f800000	1.0
192	0x3f800000	1.0
193	0x3f800000	1.0
194	0x3f800000	1.0
195	0x3f800000	1.0
196	0x3f800000	1.0
197	0x3f800000	1.0
198	0x3f800000	1.0
199	0x3f800000	1.0
200	0x3f800000	1.0
201	0x3f800000	1.0
202	0x3f800000	1.0
203	0x3f800000	1.0
204	0x3f800000	1.0
205	0x3f800000	1.0
206	0x3f800000	1.0
207	0x3f800000	1.0
208	0x3f800000	1.0
209	0x3f800000	1.0
210	0x3f800000	1.0
211	0x3f800000	1.0
212	0x3f800000	1.0
213	0x3f800000	1.0
214	0x3f800000	1.0
215	0x3f800000	1.0
216	0x3f800000	1.0
217	0x3f800000	1.0
218	0x3f800000	1.0
219	0x3f800000	1.0
220	0x3f800000	1.0
221	0x3f800000	1.0
222	0x3f800000	1.0
223	0x3f800000	1.0
224	0x3f800000	1.0
225	0x3f800000	1.0
226	0x3f800000	1.0
227	0x3f800000	1.0
228	0x3f800000	1.0
229	0x3f800000	1.0
230	0x3f800000	1.0
231	0x3f800000	1.0
232	0x3f800000	1.0
233	0x3f800000	1.0
234	0x3f800000	1.0
235	0x3f800000	1.0
236	0x3f800000	1.0
237	0x3f800000	1.0
238	0x3f800000	1.0
239	0x3f800000	1.0
240	0x3f800000	1.0
241	0x3f800000	1.0
242	0x3f800000	1.0
243	0x3f800000	1.0
244	0x3f800000	1.0
245	0x3f800000	1.0
246	0x3f800000	1.0
247	0x3f800000	1.0
248	0x3f800000	1.0
249	0x3f800000	1.0
250	0x3f800000	1.0
251	0x3f800000	1.0
252	0x3f800000	1.0
253	0x3f800000	1.0
254	0x3f800000	1.0
255	0x3f800000	1.0

conv3._weight_quantizer._amax f4 [32, 1, 1]
0	0x40015fb6	2.0214667
1	0x403c0c0f	2.938236
2	0x3ff375d1	1.902033
3	0x404bc9c4	3.1841898
4	0x40146177	2.3184488
5	0x405664db	3.3499057
6	0x4022cc7a	2.5437303
7	0x40090acc	2.141284
8	0x4019ce2b	2.4032085
9	0x405543da	3.3322663
10	0x4029b0ca	2.6514153
11	0x4027df51	2.6230052
12	0x4019ed32	2.4051023
13	0x4017a55e	2.3694682
14	0x4039fffe	2.9062495
15	0x40171ab9	2.361006
16	0x402c727e	2.694488
17	0x403758bf	2.8647916
18	0x40478342	3.1173863
19	0x402655be	2.5989833
20	0x4017f753	2.3744705
21	0x404bbd6a	3.183436
22	0x40221a4b	2.5328548
23	0x403c6f21	2.9442828
24	0x4012b2a5	2.2921536
25	0x40183fe3	2.3788993
26	0x406193c4	3.524644
27	0x40183950	2.378498
28	0x3ffa6dea	1.9564793
29	0x404dcb43	3.215531
30	0x400921ac	2.1426802
31	0x40428553	3.0393875

bn3.weight f4 [32]
0	0x3fbdf44c	1.4840178
1	0x3f423b41	0.75871664
2	0x3fbbe68c	1.4679732
3	0x3f26cf86	0.65160406
4	0x3fa27837	1.2692937
5	0x3f98035b	1.1876024
6	0x3f2399d5	0.63906604
7	0x3efb86f9	0.49126413
8	0x3f22ad06	0.6354526
9	0x3f4d17c4	0.8011439
10	0x3f98cd40	1.1937637
11	0x3fce4285	1.611405
12	0x3f9f1e9a	1.2431214
13	0x3fcb5dba	1.5887978
14	0x3f3feefc	0.74974036
15	0x3ef9ad2e	0.48764938
16	0x3f455c02	0.7709352
17	0x3f42710b	0.7595374
18	0x3fed001d	1.851566
19	0x3fdfdf31	1.7489988
20	0x3f89dce1	1.0770532
21	0x3f67f1b0	0.9060316
22	0x3fc82437	1.5636052
23	0x3fa47fb9	1.2851478
24	0x3f9f1e30	1.2431087
25	0x3f83da5d	1.0301014
26	0x3fa2d136	1.2720096
27	0x3fbdd5ff	1.4830931
28	0x3f5ffdff	0.8749694
29	0x3fb64789	1.4240581
30	0x3f554cc4	0.8332026
31	0x3f58b0ba	0.84644663

bn3.bias f4 [32]
0	0xc007e9d6	-2.1236472
1	0xc0098c5c	-2.1491919
2	0xbfb8b442	-1.443001
3	0xbf94d794	-1.1628289
4	0xbf226aa0	-0.63443947
5	0xbf96b998	-1.1775389
6	0xbfed8a91	-1.8557912
7	0xbf83936f	-1.0279368
8	0xbf2dbfb0	-0.67870617
9	0xc013eb75	-2.3112462
10	0xbfe69be8	-1.8016329
11	0xbff93bb0	-1.947134
12	0xbe6ea5b2	-0.23305395
13	0xc006273d	-2.096145
14	0xbfc1c5f2	-1.5138533
15	0xbe21a765	-0.15786512
16	0xbf8ad5b7	-1.084647
17	0xbfe91f6f	-1.8212718
18	0xbfdb7122	-1.71439
19	0xbfd6a66a	-1.6769536
20	0xbf0a71b5	-0.54079753
21	0xbe5377e0	-0.20651197
22	0xbfda19fc	-1.703918
23	0xbfb556f3	-1.416716
24	0xbf305a39	-0.6888767
25	0xbfa84a03	-1.3147587
26	0xbfc012b1	-1.5005704
27	0xbfd5aa32	-1.6692564
28	0xbf7ee5eb	-0.99569577
29	0xbfbc720b	-1.4722303
30	0xbf528ef6	-0.8224939
31	0xc02123f5	-2.5178196

bn3.running_mean f4 [32]
0	0xbe1347b5	-0.14382823
1	0x3f1186d3	0.5684635
2	0x3e2c269d	0.16811605
3	0xc01f20da	-2.48638
4	0x3fab71c7	1.3394097
5	0x3d92b41b	0.07163259
6	0x3f4d3a28	0.80166864
7	0xbfd3477a	-1.6506188
8	0x3ef9ac03	0.48764047
9	0xbf0e6479	-0.5562206
10	0x3f5e2622	0.86776936
11	0x3dd57a4c	0.10423717
12	0x3fd1de6d	1.6396004
13	0xbf1157b6	-0.5677446
14	0x3f5a6eed	0.8532551
15	0x3e829e8a	0.2551158
16	0xc0032e4c	-2.0497007
17	0xbe2d38ed	-0.16916247
18	0x3ea96f20	0.33092594
19	0xc038e964	-2.889245
20	0x3fa14b4b	1.2601103
21	0x3f86a98d	1.0520493
22	0xbe414c26	-0.18876705
23	0xbfdaea42	-1.710274
24	0xbe6fea4e	-0.23429224
25	0x3f9432db	1.157802
26	0x3fd454b9	1.6588355
27	0xbf874758	-1.0568647
28	0x3fc00aff	1.5003356
29	0xbf98939c	-1.1920047
30	0xbc59b811	-0.013288514
31	0xbd0d7311	-0.034533564

bn3.running_var f4 [32]
0	0x40e15381	7.0414433
1	0x3ffa07d1	1.9533635
2	0x412231dd	10.137174
3	0x40660a52	3.59438
4	0x40c179c9	6.0461164
5	0x40a2e8ec	5.090933
6	0x3fb594d2	1.4186041
7	0x3fa37034	1.2768617
8	0x403422bd	2.8146203
9	0x3fcfe99f	1.624317
10	0x40f84c8e	7.759345
11	0x40b41c3c	5.6284466
12	0x40e9bd92	7.304391
13	0x4102f8b5	8.1857195
14	0x4014ba9e	2.3238902
15	0x40401922	3.001534
16	0x3fef6a74	1.8704362
17	0x4000d181	2.012787
18	0x40a96879	5.294003
19	0x4102f6d9	8.185266
20	0x411c23ea	9.758768
21	0x408bc5d6	4.3679
22	0x416cae46	14.792547
23	0x4109b918	8.607689
24	0x405b12b2	3.423016
25	0x408df1e2	4.4357767
26	0x40d5f731	6.6864247
27	0x40a8594a	5.2608995
28	0x4075dd75	3.8416417
29	0x40a069bd	5.0129075
30	0x40aaf2cc	5.3421383
31	0x4020bf9d	2.5116951

conv4.bias f4 [32]
0	0x3ea67108	0.3250811
1	0x3cef3c54	0.029203571
2	0xbedb967a	-0.42888242
3	0x3e0f93ba	0.14021197
4	0xbe3af2c9	-0.18256678
5	0xbe664078	-0.2248553
6	0x3e1f07b6	0.15530285
7	0x3c6e5106	0.014545685
8	0xbed24df2	-0.41075093
9	0xbcd5b8d1	-0.026089104
10	0xbe894321	-0.26809028
11	0xbdcb7a1b	-0.09935399
12	0x3e241947	0.16025268
13	0xbe6dd000	-0.23223877
14	0x3ce0305a	0.027366806
15	0xbd38e1bf	-0.045137163
16	0x3ca1e6e0	0.01976341
17	0xbdcba195	-0.09942929
18	0xbf085a94	-0.5326321
19	0xbb9cafbf	-0.0047816928
20	0x3c93874c	0.01800885
21	0x3dcc951d	0.099893786
22	0x3cf76060	0.030197322
23	0x3caf2614	0.021380462
24	0x3e0e8873	0.13919239
25	0xbebf7031	-0.37390283
26	0xbe993be9	-0.2992852
27	0xbe445018	-0.19171178
28	0xbf1286cb	-0.5723693
29	0xbe6b3090	-0.22967744
30	0xbd8458b3	-0.064622305
31	0x3d2b00e8	0.04174891

conv4.weight_orig f4 [32, 32, 3]
0	0x3f52c6c5	0.8233455
1	0x3e5d1dfe	0.21593472
2	0x3f1be363	0.6089384
3	0xbfd745b0	-1.6818142
4	0xbfe591d0	-1.7935123
5	0xbfa8aa4d	-1.3176972
6	0x3f674ead	0.90354425
7	0x3e1ddce1	0.1541629
8	0xbe40c89f	-0.18826531
9	0x3f6839f5	0.90713435
10	0x3e5bb06f	0.21454023
11	0x3f17bd25	0.59272987
12	0x3f10ef86	0.56615484
13	0xbfcc200e	-1.5947282
14	0xbede2f5f	-0.43395516
15	0xbf1f619a	-0.62258303
16	0x3ed9b37f	0.42519757
17	0x3f047fef	0.5175771
18	0x3d8e4953	0.06947579
19	0x3f282efc	0.6569669
20	0xbf6bfe29	-0.9218469
21	0x3f50b904	0.8153231
22	0x3edd9501	0.43277743
23	0xbeca2b4a	-0.39486152
24	0x3e6ff1db	0.23432104
25	0xbe287ca0	-0.1645379
26	0xbef1da7e	-0.4723701
27	0xbf52849d	-0.822336
28	0xbf276c2e	-0.65399444
29	0x3f9ebd13	1.2401451
30	0x3f1908d8	0.5977912
31	0xba1c25fb	-0.0005956587
32	0x3cc79719	0.024364041
33	0x3fd8bfea	1.6933568
34	0x3fa71891	1.3054372
35	0xbdeb64d4	-0.11493841
36	0xbdbf0f7a	-0.09329124
37	0x3f2bca4f	0.67105573
38	0xbf26d204	-0.6516421
39	0xbf40d4b5	-0.75324565
40	0xbfaf32bf	-1.3687361
41	0x3f78c238	0.97171354
42	0xbdbc3363	-0.09189489
43	0x3ec727a8	0.38897443
44	0xbfc9184d	-1.5710541
45	0xbee38d47	-0.44443724
46	0xbfaa8ae0	-1.3323631
47	0xbe95d552	-0.29264313
48	0xbde4d763	-0.11173894
49	0x3fbc2084	1.4697423
50	0xbf44dc3d	-0.76898557
51	0x3f7bc46e	0.983466
52	0xbef2d49e	-0.4742784
53	0x3f91cb44	1.1390157
54	0xbf488b31	-0.7833739
55	0xbdd76bfd	-0.10518644
56	0xbf9334aa	-1.1500447
57	0x3e48239a	0.19544831
58	0x3fa645c9	1.2990047
59	0xbebc2793	-0.36748943
60	0x3de37f7b	0.11108299
61	0x3e9b7515	0.30362764
62	0x3fa3a586	1.2784889
63	0x3d9ca79c	0.076491565
64	0x3f2631d5	0.6491979
65	0xbfa468e8	-1.2844515
66	0xbe497963	-0.19675212
67	0x3f2a2153	0.664571
68	0xbe011851	-0.12606932
69	0xbf2b5f2d	-0.669421
70	0x3bb06b59	0.0053838906
71	0x3f4857ab	0.7825877
72	0x3df35447	0.11881309
73	0x3e8199e9	0.25312737
74	0xbedb5154	-0.42835486
75	0xbf079883	-0.5296709
76	0x3fb25e21	1.3934976
77	0xbe571afa	-0.21006384
78	0xbf33ac24	-0.7018454
79	0xbf3d39f9	-0.73916584
80	0xbea652dc	-0.32485092
81	0x401468c8	2.3188953
82	0xbf1088c6	-0.564587
83	0x3f1b2bcb	0.606137
84	0xbf72f8fd	-0.94911176
85	0x3f6ad57d	0.9173201
86	0x3f99fa71	1.2029554
87	0x40275a15	2.6148732
88	0xbf681e67	-0.9067139
89	0x3fa6c8f4	1.3030076
90	0xbf7c5c02	-0.9857789
91	0x3e5640a3	0.20923094
92	0x3c51222d	0.012764496
93	0xbfa84a59	-1.3147689
94	0xbfac30de	-1.3452413
95	0x3e1996a3	0.1499887
96	0x3ea56c82	0.32309347
97	0x3fbb173f	1.4616469
98	0xbe9f4487	-0.3110697
99	0xbdb4299f	-0.08797001
100	0x3fd45cf3	1.6590866
101	0x3d9e1867	0.07719498
102	0x3fc7d5a6	1.5612075
103	0xbea590c6	-0.32337016
104	0x3e4e5b1c	0.20151943
105	0xbf7d8ad7	-0.9903998
106	0xbe93f167	-0.28895113
107	0x4008cb72	2.1374173
108	0x3f957df5	1.1679064
109	0x3d54c348	0.051944047
110	0xbd27954e	-0.040913872
111	0x3f103858	0.56335974
112	0xbe97ba8d	-0.29634514
113	0x3f17c7dd	0.5928934
114	0x3f940ee9	1.156705
115	0x3e028db5	0.1274937
116	0x3f16d9cf	0.589261
117	0xbf65dadb	-0.8978707
118	0xbf98ec4e	-1.1947114
119	0x3f85932e	1.0435541
120	0xbf0f7406	-0.5603641
121	0xbe2f3efe	-0.17113873
122	0xbd00134d	-0.031268407
123	0x3ee62a52	0.44954163
124	0xbf0fea53	-0.56216925
125	0xbf503ee6	-0.81345975
126	0x3f6e72a9	0.9314371
127	0xbf0943e3	-0.5361921
128	0xbf885d53	-1.065348
129	0x4003ddbd	2.0604088
130	0xbd299766	-0.04140415
131	0xbf13f85d	-0.5780085
132	0xbfd42785	-1.657456
133	0x3f3e6127	0.7436699
134	0x3f918b44	1.1370625
135	0x3f3d756b	0.7400729
136	0x3f81f5d9	1.0153152
137	0xbf676c1d	-0.9039934
138	0xbf42c467	-0.76080936
139	0x3ef010f1	0.46887925
140	0x3f4c67ba	0.79845774
141	0x3ba013f0	0.0048851892
142	0x3e91bffc	0.28466785
143	0xbf85e622	-1.0460856
144	0x3ead2f45	0.33825126
145	0x3f1a7b08	0.6034398
146	0xbffea1e0	-1.989315
147	0x3ef6cb49	0.4820197
148	0xbe905d3c	-0.28196132
149	0x3e3cee3e	0.18450257
150	0xbf29241d	-0.6607073
151	0xbd7e1bef	-0.06203836
152	0x3f96721d	1.1753575
153	0x3f9ae863	1.2102169
154	0x3e9768fc	0.29572284
155	0xc0190af5	-2.3912938
156	0x3f08d8f0	0.5345602
157	0xbf552d7f	-0.83272547
158	0x3d15cc94	0.036572054
159	0xbfa53fec	-1.2910132
160	0x3e584d7a	0.21123305
161	0xbecf91d3	-0.40540943
162	0xbfb5157e	-1.4147184
163	0xbea5aded	-0.32359257
164	0xbf286f97	-0.6579527
165	0xbf4ff953	-0.81239814
166	0x3fc92307	1.5713814
167	0xbfa093ee	-1.2545145
168	0xbf93e2ca	-1.1553586
169	0xbeeedb6e	-0.46651787
170	0x3f33a494	0.70173
171	0xbd804dae	-0.06264816
172	0x3f4dfe4b	0.80466145
173	0x3f2294b4	0.6350815
174	0x3e5edeec	0.21764725
175	0xbe8f9c43	-0.28048906
176	0x3f2ed19f	0.68288606
177	0x3efca235	0.49342504
178	0xbfd888d7	-1.691676
179	0x3dcf17a9	0.10111935
180	0x3fa11aaf	1.2586268
181	0xbeff2efd	-0.49840537
182	0xbcb87aec	-0.022519551
183	0xbec22a8f	-0.37923095
184	0x3e7208cd	0.2363617
185	0xbf835edb	-1.0263323
186	0xbf301733	-0.687854
187	0xbeebe1ca	-0.460707
188	0x3e731fa2	0.23742536
189	0x3e1cb71c	0.15304226
190	0xbec15b72	-0.3776508
191	0x3fb14494	1.3849053
192	0x3faf371e	1.3688695
193	0xbe441e77	-0.19152246
194	0xbf31ab9a	-0.6940247
195	0xbf01ed42	-0.5075265
196	0x3dc6fb52	0.09715904
197	0x3e9662b5	0.29372182
198	0xbf6c3b3f	-0.922779
199	0x3ef55a34	0.47920382
200	0xbc8f642d	-0.017503822
201	0xbebd494f	-0.36969993
202	0x3e1d70ba	0.15375033
203	0xbfce1ccc	-1.6102538
204	0xbf153f2e	-0.5829953
205	0x3f271123	0.65260524
206	0x3d0deeba	0.034651496
207	0xbd8cd866	-0.06877212
208	0xbfffe62b	-1.9992117
209	0x3f8dc57d	1.1075894
210	0x3eb37185	0.35047546
211	0x3dd68eba	0.10476442
212	0x401c42e4	2.4415827
213	0x3ea35f8d	0.31908837
214	0xbdaef64d	-0.08543072
215	0xbe8a2439	-0.2698076
216	0xbefe0ed4	-0.49620688
217	0x3f3bbe9b	0.73337716
218	0xbf908af4	-1.1292405
219	0x3f3cf32c	0.7380855
220	0x3f82a0a5	1.0205275
221	0xbe192f4d	-0.1495945
222	0xbf856037	-1.0419987
223	0xbf5a9c5b	-0.8539483
224	0x3fba01fe	1.4531858
225	0x40226f42	2.5380406
226	0x3fe0ea4c	1.7571502
227	0xbeaa0b19	-0.33211592
228	0x3c150b7e	0.009096978
229	0x3e055792	0.13021687
230	0xbf8d063e	-1.101753
231	0xbf9301b3	-1.1484894
232	0x3f4950b7	0.78638786
233	0x3f3809d6	0.7189001
234	0xbfe627ae	-1.7980859
235	0xbe63ccc1	-0.22246076
236	0x3edfc79f	0.43706986
237	0xbf43e143	-0.765156
238	0xbe9375f1	-0.2880092
239	0xbdc34d98	-0.09536284
240	0x3f577615	0.84164554
241	0xbef3079c	-0.47466743
242	0xbf92a271	-1.1455823
243	0xbe4f92fb	-0.20270912
244	0xbd96493c	-0.07338187
245	0x3f989faf	1.1923732
246	0x3ef3f69e	0.4764909
247	0x3ff12939	1.8840705
248	0xbfe83dc2	-1.8143847
249	0x3ec7c389	0.3901637
250	0xbcc04057	-0.02346818
251	0x3caafd9f	0.02087289
252	0x3f2d99c8	0.67812777
253	0xbbc744aa	-0.0060811834
254	0xbe9351c1	-0.2877331
255	0x3f3f371b	0.7469346

conv4.weight_mask f4 [32, 32, 3]
0	0x00000000	0.0
1	0x00000000	0.0
2	0x00000000	0.0
3	0x00000000	0.0
4	0x00000000	0.0
5	0x00000000	0.0
6	0x00000000	0.0
7	0x00000000	0.0
8	0x00000000	0.0
9	0x00000000	0.0
10	0x00000000	0.0
11	0x00000000	0.0
12	0x00000000	0.0
13	0x00000000	0.0
14	0x00000000	0.0
15	0x00000000	0.0
16	0x00000000	0.0
17	0x00000000	0.0
18	0x00000000	0.0
19	0x00000000	0.0
20	0x00000000	0.0
21	0x00000000	0.0
22	0x00000000	0.0
23	0x00000000	0.0
24	0x00000000	0.0
25	0x00000000	0.0
26	0x00000000	0.0
27	0x00000000	0.0
28	0x00000000	0.0
29	0x00000000	0.0
30	0x00000000	0.0
31	0x00000000	0.0
32	0x00000000	0.0
33	0x00000000	0.0
34	0x00000000	0.0
35	0x00000000	0.0
36	0x00000000	0.0
37	0x00000000	0.0
38	0x00000000	0.0
39	0x00000000	0.0
40	0x00000000	0.0
41	0x00000000	0.0
42	0x00000000	0.0
43	0x00000000	0.0
44	0x00000000	0.0
45	0x00000000	0.0
46	0x00000000	0.0
47	0x00000000	0.0
48	0x00000000	0.0
49	0x00000000	0.0
50	0x00000000	0.0
51	0x00000000	0.0
52	0x00000000	0.0
53	0x00000000	0.0
54	0x00000000	0.0
55	0x00000000	0.0
56	0x00000000	0.0
57	0x00000000	0.0
58	0x00000000	0.0
59	0x00000000	0.0
60	0x00000000	0.0
61	0x00000000	0.0
62	0x00000000	0.0
63	0x00000000	0.0
64	0x00000000	0.0
65	0x00000000	0.0
66	0x00000000	0.0
67	0x00000000	0.0
68	0x00000000	0.0
69	0x00000000	0.0
70	0x00000000	0.0
71	0x00000000	0.0
72	0x00000000	0.0
73	0x00000000	0.0
74	0x00000000	0.0
75	0x00000000	0.0
76	0x00000000	0.0
77	0x00000000	0.0
78	0x00000000	0.0
79	0x00000000	0.0
80	0x00000000	0.0
81	0x00000000	0.0
82	0x00000000	0.0
83	0x00000000	0.0
84	0x00000000	0.0
85	0x00000000	0.0
86	0x00000000	0.0
87	0x00000000	0.0
88	0x00000000	0.0
89	0x00000000	0.0
90	0x00000000	0.0
91	0x00000000	0.0
92	0x00000000	0.0
93	0x00000000	0.0
94	0x00000000	0.0
95	0x00000000	0.0
96	0x00000000	0.0
97	0x00000000	0.0
98	0x00000000	0.0
99	0x00000000	0.0
100	0x00000000	0.0
101	0x00000000	0.0
102	0x00000000	0.0
103	0x00000000	0.0
104	0x00000000	0.0
105	0x00000000	0.0
106	0x00000000	0.0
107	0x00000000	0.0
108	0x00000000	0.0
109	0x00000000	0.0
110	0x00000000	0.0
111	0x00000000	0.0
112	0x00000000	0.0
113	0x00000000	0.0
114	0x00000000	0.0
115	0x00000000	0.0
116	0x00000000	0.0
117	0x00000000	0.0
118	0x00000000	0.0
119	0x00000000	0.0
120	0x00000000	0.0
121	0x00000000	0.0
122	0x00000000	0.0
123	0x00000000	0.0
124	0x00000000	0.0
125	0x00000000	0.0
126	0x00000000	0.0
127	0x00000000	0.0
128	0x00000000	0.0
129	0x00000000	0.0
130	0x00000000	0.0
131	0x00000000	0.0
132	0x00000000	0.0
133	0x00000000	0.0
134	0x00000000	0.0
135	0x00000000	0.0
136	0x00000000	0.0
137	0x00000000	0.0
138	0x00000000	0.0
139	0x00000000	0.0
140	0x00000000	0.0
141	0x00000000	0.0
142	0x00000000	0.0
143	0x00000000	0.0
144	0x00000000	0.0
145	0x00000000	0.0
146	0x00000000	0.0
147	0x00000000	0.0
148	0x00000000	0.0
149	0x00000000	0.0
150	0x00000000	0.0
151	0x00000000	0.0
152	0x00000000	0.0
153	0x00000000	0.0
154	0x00000000	0.0
155	0x00000000	0.0
156	0x00000000	0.0
157	0x00000000	0.0
158	0x00000000	0.0
159	0x00000000	0.0
160	0x00000000	0.0
161	0x00000000	0.0
162	0x00000000	0.0
163	0x00000000	0.0
164	0x00000000	0.0
165	0x00000000	0.0
166	0x00000000	0.0
167	0x00000000	0.0
168	0x00000000	0.0
169	0x00000000	0.0
170	0x00000000	0.0
171	0x00000000	0.0
172	0x00000000	0.0
173	0x00000000	0.0
174	0x00000000	0.0
175	0x00000000	0.0
176	0x00000000	0.0
177	0x00000000	0.0
178	0x00000000	0.0
179	0x00000000	0.0
180	0x00000000	0.0
181	0x00000000	0.0
182	0x00000000	0.0
183	0x00000000	0.0
184	0x00000000	0.0
185	0x00000000	0.0
186	0x00000000	0.0
187	0x00000000	0.0
188	0x00000000	0.0
189	0x00000000	0.0
190	0x00000000	0.0
191	0x00000000	0.0
192	0x3f800000	1.0
193	0x3f800000	1.0
194	0x3f800000	1.0
195	0x3f800000	1.0
196	0x3f800000	1.0
197	0x3f800000	1.0
198	0x3f800000	1.0
199	0x3f800000	1.0
200	0x3f800000	1.0
201	0x3f800000	1.0
202	0x3f800000	1.0
203	0x3f800000	1.0
204	0x3f800000	1.0
205	0x3f800000	1.0
206	0x3f800000	1.0
207	0x3f800000	1.0
208	0x3f800000	1.0
209	0x3f800000	1.0
210	0x3f800000	1.0
211	0x3f800000	1.0
212	0x3f800000	1.0
213	0x3f800000	1.0
214	0x3f800000	1.0
215	0x3f800000	1.0
216	0x3f800000	1.0
217	0x3f800000	1.0
218	0x3f800000	1.0
219	0x3f800000	1.0
220	0x3f800000	1.0
221	0x3f800000	1.0
222	0x3f800000	1.0
223	0x3f800000	1.0
224	0x3f800000	1.0
225	0x3f800000	1.0
226	0x3f800000	1.0
227	0x3f800000	1.0
228	0x3f800000	1.0
229	0x3f800000	1.0
230	0x3f800000	1.0
231	0x3f800000	1.0
232	0x3f800000	1.0
233	0x3f800000	1.0
234	0x3f800000	1.0
235	0x3f800000	1.0
236	0x3f800000	1.0
237	0x3f800000	1.0
238	0x3f800000	1.0
239	0x3f800000	1.0
240	0x3f800000	1.0
241	0x3f800000	1.0
242	0x3f800000	1.0
243	0x3f800000	1.0
244	0x3f800000	1.0
245	0x3f800000	1.0
246	0x3f800000	1.0
247	0x3f800000	1.0
248	0x3f800000	1.0
249	0x3f800000	1.0
250	0x3f800000	1.0
251	0x3f800000	1.0
252	0x3f800000	1.0
253	0x3f800000	1.0
254	0x3f800000	1.0
255	0x3f800000	1.0

conv4._weight_quantizer._amax f4 [32, 1, 1]
0	0x40275a15	2.6148732
1	0x40190af5	2.3912938
2	0x40323078	2.7842083
3	0x403b1809	2.923342
4	0x407e7dff	3.9764402
5	0x4003ec4b	2.0612972
6	0x4017506c	2.3642836
7	0x4033bad9	2.8082793
8	0x40429a88	3.0406818
9	0x40376458	2.8654995
10	0x4007afa5	2.1200955
11	0x402d138f	2.7043188
12	0x4021b388	2.5265827
13	0x405d351f	3.4563673
14	0x406cd513	3.700505
15	0x401b52ee	2.4269366
16	0x4004c14f	2.0742986
17	0x40293acd	2.644214
18	0x401f6d67	2.4910524
19	0x400c34c1	2.1907198
20	0x400616cf	2.0951421
21	0x403c1e63	2.9393547
22	0x401ea692	2.4789166
23	0x401844b1	2.3791926
24	0x4005898f	2.086521
25	0x40037030	2.0537224
26	0x405b32da	3.4249787
27	0x40265a0c	2.599246
28	0x40036914	2.0532885
29	0x401c9e43	2.4471595
30	0x401821ab	2.377055
31	0x402b395f	2.6753767

bn4.weight f4 [32]
0	0x40a25ee2	5.0740824
1	0x40cf482b	6.4775596
2	0x40a4b2df	5.146835
3	0x40bf326c	5.974905
4	0x40dd33f3	6.9125915
5	0x40b0c12e	5.5235815
6	0x40a69204	5.205324
7	0x40bf58ec	5.9796047
8	0x40b8f80b	5.7802787
9	0x40c13392	6.037545
10	0x408548c3	4.165132
11	0x40da4f70	6.822197
12	0x40b78b1a	5.73573
13	0x40d207a3	6.563432
14	0x40bcb6b7	5.897304
15	0x40e48d23	7.1422286
16	0x40dae1ab	6.8400474
17	0x40bccb19	5.899792
18	0x4100b893	8.045062
19	0x40c65ef6	6.199092
20	0x408b3f45	4.3514733
21	0x40c34e4d	6.103308
22	0x40ee4a0c	7.446539
23	0x40bb3e23	5.851335
24	0x40905489	4.510319
25	0x40ed14c9	7.4087873
26	0x40df2ab4	6.973963
27	0x40ab4235	5.351832
28	0x40c8b99e	6.2726583
29	0x40aa85f5	5.328852
30	0x40ad20e2	5.410264
31	0x40bbbe1f	5.866958

bn4.bias f4 [32]
0	0xc042f8fc	-3.0464468
1	0xc031424b	-2.7696712
2	0x3d339a27	0.043848183
3	0xc025591b	-2.5835636
4	0xc006f997	-2.1089838
5	0xc04f5a0c	-3.239871
6	0xc04431ea	-3.0655465
7	0xc0a59a1f	-5.1750636
8	0xc04b1e5b	-3.1737278
9	0xbfa1ad51	-1.2631017
10	0xc025b085	-2.588899
11	0xc0718594	-3.773778
12	0xbfb88ee5	-1.4418608
13	0xc02dea92	-2.717442
14	0xbfcd69e4	-1.604794
15	0xc0898c7c	-4.298399
16	0xc043a1a0	-3.0567398
17	0xc085349c	-4.162672
18	0xbea1e203	-0.31617746
19	0xbf2ab208	-0.66677904
20	0xbf263765	-0.64928275
21	0xc0276835	-2.6157353
22	0xbfa1c8de	-1.2639425
23	0xc067b2c2	-3.6202855
24	0xbfa00e36	-1.2504337
25	0xc047347c	-3.1125784
26	0xc0937602	-4.6081553
27	0xc04d8633	-3.2113159
28	0xc03d5b85	-2.958711
29	0xc0928dda	-4.579816
30	0xc02b0ed7	-2.6727808
31	0xc073b68a	-3.8080163

bn4.running_mean f4 [32]
0	0x3ea67100	0.32508087
1	0x3cef3c4b	0.029203555
2	0xbf58108a	-0.84400237
3	0xbebd33ea	-0.3695367
4	0xbe6d6c3f	-0.23185824
5	0xbe664077	-0.22485529
6	0x3e1f07b8	0.15530288
7	0x3c6e50fe	0.014545677
8	0xbed24df2	-0.41075093
9	0xbcd5b8d1	-0.026089104
10	0xbe89431b	-0.2680901
11	0xbe0a8da5	-0.13530596
12	0x3e241940	0.16025257
13	0xbf5c3817	-0.86023086
14	0xbe99faef	-0.3007426
15	0xbf1a0d80	-0.6017685
16	0x3ca1e6e1	0.019763412
17	0xbdcba18e	-0.099429235
18	0xbf15f043	-0.58569735
19	0xbde8d835	-0.11369363
20	0x3c938747	0.018008841
21	0xbefcf7c7	-0.4940779
22	0x3d7b2565	0.06131496
23	0x3caf260e	0.02138045
24	0x3e0e886c	0.13919228
25	0xbf40af39	-0.7526737
26	0xbed74baf	-0.4204993
27	0xbe445019	-0.1917118
28	0xbf1286cc	-0.57236934
29	0xbe6b3090	-0.22967744
30	0xbd8458b5	-0.06462232
31	0x3d2b00e8	0.04174891

bn4.running_var f4 [32]
0	0x26800c5a	8.885132e-16
1	0x22800c5a	3.4707547e-18
2	0x3ff9193e	1.9460828
3	0x3fcc1ec2	1.5946887
4	0x3f93c964	1.1545835
5	0x26800c5a	8.885132e-16
6	0x00000004	6e-45
7	0x00000004	6e-45
8	0x27800c51	3.554049e-15
9	0x00000004	6e-45
10	0x26800c51	8.885123e-16
11	0x3f9b3b43	1.212746
12	0x00000004	6e-45
13	0x400da623	2.2132652
14	0x3fa171d6	1.2612865
15	0x3fbcbf6a	1.4745915
16	0x22800c5a	3.4707547e-18
17	0x00000004	6e-45
18	0x3fe7077c	1.8049159
19	0x4002f0df	2.0459516
20	0x00000004	6e-45
21	0x3fb021a0	1.3760262
22	0x400cc280	2.1993713
23	0x00000004	6e-45
24	0x00000004	6e-45
25	0x3f8fab72	1.1224196
26	0x3ff6e6ee	1.9289224
27	0x00000004	6e-45
28	0x00000004	6e-45
29	0x25800c5a	2.221283e-16
30	0x00000004	6e-45
31	0x23800c5a	1.3883019e-17
