networks/quantized_models/iscx2016vpn/model.onnx (onnx, 37425 bytes, 26 tensors)

conv1.bias f4 [16]
0	0x3fd194fd	1.6373593
1	0x3fdfd60e	1.7487199
2	0x3defcb76	0.11708729
3	0xbf76030c	-0.960984
4	0xbd905e14	-0.07049194
5	0x3f4f898e	0.81069267
6	0xbb5172f7	-0.0031959394
7	0xbf450a10	-0.7696848
8	0xbfe7c091	-1.8105642
9	0xc00a880b	-2.1645534
10	0x3ff19043	1.887215
11	0xbf2c07bf	-0.6719932
12	0xbef08788	-0.46978402
13	0x3f26f1e4	0.65212846
14	0xbf209b66	-0.6273712
15	0x3d2f22ff	0.042757984

conv1.weight f4 [16, 1, 3]
0	0xbfbaa9fd	-1.4583126
1	0xbef676d1	-0.48137525
2	0xbfa85e71	-1.3153821
3	0x3f04a8a9	0.51819855
4	0x40067730	2.1010246
5	0xbe9154a3	-0.28384885
6	0xbf16e45b	-0.5894219
7	0x400b0501	2.1721804
8	0xbd9425cd	-0.072337724
9	0x3f80453b	1.0021127
10	0xbec5022a	-0.38478214
11	0x3f927b2e	1.1443841
12	0x3e58654b	0.2113239
13	0x3ee16a86	0.44026583
14	0x4000c88f	2.0122411
15	0x3ef7a11b	0.483651
16	0xbeb45710	-0.35222673
17	0xc006e83c	-2.1079245
18	0x3e995d9d	0.29954234
19	0xc022fc70	-2.5466576
20	0xbfd4a3a8	-1.6612444
21	0x3fe8481c	1.8147006
22	0x3f3bdf0a	0.73387206
23	0xbec86078	-0.391361
24	0xc01a09b1	-2.4068415
25	0x3ef10494	0.47073805
26	0x3db6154e	0.08890782
27	0xbe0330a8	-0.1281153
28	0xbfb76d67	-1.4330262
29	0xc006b5c9	-2.1048453
30	0x3f3a4101	0.7275544
31	0xbfaf4f68	-1.3696108
32	0xbf0daf8f	-0.55346006
33	0x3e8f8bf7	0.28036472
34	0xc0b2f667	-5.5925784
35	0x3e4bfa9e	0.19919822
36	0x3f3c3bd1	0.7352877
37	0xbe04fe08	-0.1298753
38	0xbfcb291d	-1.5871922
39	0xbfcf3187	-1.618699
40	0x3f49148b	0.7854697
41	0xbf2dce4b	-0.67892903
42	0xbfbcb291	-1.4741994
43	0x3f58edc3	0.84737796
44	0xbaff2fb8	-0.0019469177
45	0xbe6abcbc	-0.22923559
46	0x3f43fe53	0.7655994
47	0xbfbdf4c7	-1.4840325

bn1.weight f4 [16]
0	0x3ffdc492	1.9825613
1	0x3f226858	0.63440466
2	0x3f2e8ba9	0.68181854
3	0x3f3d3d42	0.73921597
4	0x3f17dbf7	0.59320015
5	0x4006836f	2.101772
6	0x40185e75	2.3807652
7	0x3f4db0db	0.80347985
8	0x4008d00d	2.1376984
9	0x3fff868f	1.9962939
10	0x3f915892	1.1355155
11	0x401403b8	2.312727
12	0x3f0bb32b	0.54570264
13	0x3fa2bc97	1.2713803
14	0x3f5357b0	0.82555676
15	0x3f2a53df	0.6653423

bn1.bias f4 [16]
0	0xbe698c9a	-0.22807541
1	0xbf51afde	-0.8190898
2	0xbea1da37	-0.31611797
3	0x3ea35425	0.31900135
4	0xbeb12430	-0.3459792
5	0xbf76db1c	-0.96428084
6	0xbf80002c	-1.0000052
7	0xbebfee1d	-0.37486354
8	0xbfc30fab	-1.5239156
9	0x3d8e6aae	0.06953941
10	0xbf01ac9e	-0.5065402
11	0xbd9b112d	-0.075716354
12	0x3f96fb8c	1.1795516
13	0xbf0cd821	-0.55017287
14	0xbe1ce568	-0.15321887
15	0x3ede380d	0.43402138

bn1.running_mean f4 [16]
0	0x3f876e83	1.05806
1	0x400a711b	2.1631534
2	0x3ec65ecc	0.387442
3	0xbf262788	-0.6490407
4	0x3ece1224	0.40248215
5	0x3eeb864b	0.46000895
6	0xbf32ad13	-0.6979534
7	0xbec5e309	-0.38649777
8	0xc008c92c	-2.1372786
9	0xc0342ee6	-2.8153625
10	0x3fd65a1d	1.674625
11	0xbfca3513	-1.5797447
12	0xbf2499a4	-0.64296937
13	0x3ec52187	0.38502142
14	0xbf3ceb64	-0.7379668
15	0xbe00745d	-0.12544389

bn1.running_var f4 [16]
0	0x3f34e850	0.7066698
1	0x3ee2daa4	0.44307435
2	0x3e8fdc5e	0.28097814
3	0x3e7912a9	0.24323525
4	0x3f04cb94	0.51873136
5	0x3eb82bcc	0.35970914
6	0x3f8fb119	1.1225921
7	0x3ec09a5d	0.3761777
8	0x3ebcd674	0.36882365
9	0x3f6eb1f9	0.93240315
10	0x3e24b042	0.16082862
11	0x4018ba58	2.3863735
12	0x3e15a904	0.14615256
13	0x3e71aef1	0.23601891
14	0x3dde5520	0.1085608
15	0x3e0ae190	0.13562608

conv2.bias f4 [16]
0	0xbe9cafa5	-0.30602756
1	0x3ede4975	0.43415418
2	0x3f9ca79b	1.2238649
3	0xbf168382	-0.58794415
4	0xbf8d87d9	-1.1057082
5	0x3c1dbb32	0.00962715
6	0x3f1b02a6	0.60550916
7	0xbd6cff58	-0.057860702
8	0x3f197a0c	0.59951854
9	0x3ef181f3	0.47169456
10	0x3f478dd6	0.779508
11	0xbefd5bf0	-0.49484205
12	0xbe8c53f8	-0.27407813
13	0xbe6f5d79	-0.233755
14	0x3f824eb1	1.0180265
15	0x3f419fd3	0.756345

conv2.weight f4 [16, 16, 3]
0	0x3faaa82e	1.3332574
1	0x3eca74b5	0.39542165
2	0xbf079bd8	-0.52972174
3	0xbf9b1f97	-1.2119015
4	0xbef32b2c	-0.47493875
5	0xbecb6408	-0.39724755
6	0xbe89fdd4	-0.26951468
7	0x3e469152	0.19391373
8	0xbebd29f4	-0.3694607
9	0xbf36edfc	-0.71456885
10	0x3f9d4ecc	1.2289672
11	0xbe8839f8	-0.26606727
12	0xbf16725b	-0.5876824
13	0x3f02f517	0.5115523
14	0x3f945ed6	1.1591442
15	0xc00114da	-2.0168977
16	0xbf0bb0be	-0.5456656
17	0xbf0d740b	-0.5525519
18	0xc01f3f10	-2.488224
19	0x3f9a2e0f	1.2045306
20	0x3f34585a	0.70447314
21	0x3db82faf	0.0899347
22	0xbe831f83	-0.2560998
23	0xbedc2041	-0.42993358
24	0xbf8356fc	-1.026092
25	0xbf3d70e1	-0.74000365
26	0x3ef3734e	0.47548908
27	0x3fb8fe44	1.4452596
28	0x40028d9a	2.0398927
29	0x3e9c4d33	0.30527648
30	0x3f9c55b2	1.2213652
31	0x3e429362	0.19001535
32	0xbef7a4c5	-0.48367897
33	0x3f6e73c0	0.9314537
34	0xbe864fc4	-0.2623273
35	0xbcbd6c85	-0.023123035
36	0xbf8905e5	-1.0704924
37	0x3f4efc91	0.80854136
38	0x3f3dc724	0.7413199
39	0xbf93cda2	-1.1547129
40	0x3eced9e1	0.40400603
41	0x3f06762f	0.52524084
42	0xc0636fea	-3.5537057
43	0xbe0476b0	-0.129359
44	0x3f92891c	1.1448092
45	0xbd022712	-0.03177554
46	0xbfb1a038	-1.387702
47	0xbf33a3e5	-0.7017196
48	0xbe2b19e3	-0.16709094
49	0x3f5b3099	0.8562103
50	0xbe9aa8ea	-0.30206996
51	0x3f8e74e7	1.1129426
52	0x3e051883	0.12997632
53	0xbf4a3c14	-0.7899792
54	0xbe027b42	-0.12742332
55	0xbf9722d8	-1.1807508
56	0x3f2ff7c8	0.6873746
57	0xbfb23b3b	-1.3924326
58	0x3f8ebef0	1.115202
59	0xbef897b1	-0.4855323
60	0xbdb09296	-0.08621709
61	0x3e0e7e25	0.13915308
62	0x3e058496	0.13038859
63	0x3f84c2e3	1.0371975
64	0x3f29ac8a	0.662789
65	0x3dd6f85a	0.10496588
66	0x3ce3ea35	0.02782164
67	0x3fbdbc7e	1.4823148
68	0x4009f169	2.1553595
69	0xbf716754	-0.9429829
70	0xbf875798	-1.0573606
71	0xbebc18ae	-0.3673758
72	0x3e821e68	0.25413823
73	0xbd6689c5	-0.05628373
74	0xc0659882	-3.5874333
75	0xbf4c1f26	-0.7973503
76	0x3f189f82	0.5961839
77	0xbf2bae02	-0.6706239
78	0xbf20d66c	-0.6282718
79	0xbff05b9d	-1.8777958
80	0xbfc95775	-1.5729815
81	0xbf00c0bb	-0.50294083
82	0xbf58033d	-0.8437994
83	0xb9956a06	-0.00028498488
84	0xbedfe40f	-0.43728682
85	0x3f8707a2	1.0549204
86	0xbd8698de	-0.06572126
87	0x3f9121e5	1.1338469
88	0x3fba652f	1.4562129
89	0xbf9048e5	-1.1272246
90	0x3e87a296	0.2649123
91	0x3f747806	0.9549564
92	0xbf22468f	-0.63388914
93	0xbfb5fdce	-1.421808
94	0xbfab6763	-1.3390926
95	0xbbda083b	-0.006653813
96	0x3f10ae9c	0.5651643
97	0x3f81b66c	1.0133796
98	0x3f8d982d	1.1062065
99	0x3f3b5f47	0.73192257
100	0x3d106843	0.03525568
101	0xbf713a32	-0.94229424
102	0x3d2a5f52	0.04159481
103	0xc019e3f3	-2.404538
104	0x3e3f34d6	0.18672499
105	0xbe7fc4d3	-0.24977426
106	0x4007590e	2.1148105
107	0x3e5562f9	0.20838536
108	0xbef0a896	-0.4700362
109	0x3f4be2d9	0.7964302
110	0x3eda34a4	0.42618287
111	0x3ee895b4	0.45426714
112	0xbe920aa9	-0.28523758
113	0x3e0bdbdf	0.13658093
114	0x4029db25	2.6540005
115	0x3dc32db8	0.095302045
116	0xbef8a0e7	-0.4856026
117	0xbeca58f8	-0.39521003
118	0xbed17650	-0.40910578
119	0xbff3a4d1	-1.9034673
120	0x3f1a7b0e	0.60344017
121	0xbfefd794	-1.8737664
122	0xbf228ba7	-0.6349434
123	0x3f0db32f	0.5535154
124	0x3fd95831	1.6980039
125	0x3f1fa53c	0.623615
126	0xbeed0cc6	-0.46298808
127	0x3cbfb461	0.023401441
128	0x3d959ad9	0.073049255
129	0x3ee69661	0.45036605
130	0x3d1e34f7	0.03862473
131	0x3e749b1f	0.23887299
132	0x3f2cb65c	0.6746576
133	0xbe1dbe7f	-0.154047
134	0xbfb0cab0	-1.3811855
135	0x3ef1a54d	0.47196427
136	0xbf030810	-0.5118418
137	0x3f525dbc	0.8217428
138	0x3e1f2794	0.15542442
139	0x3f01d348	0.50713015
140	0x3f0c6703	0.54844683
141	0xbf328011	-0.69726664
142	0xbe9d4eef	-0.30724284
143	0x3dea58c9	0.11442716
144	0x80000000	-0.0
145	0x80000000	-0.0
146	0x00000000	0.0
147	0x80000000	-0.0
148	0x00000000	0.0
149	0x80000000	-0.0
150	0x80000000	-0.0
151	0x80000000	-0.0
152	0x80000000	-0.0
153	0x80000000	-0.0
154	0x80000000	-0.0
155	0x00000000	0.0
156	0x00000000	0.0
157	0x00000000	0.0
158	0x80000000	-0.0
159	0x80000000	-0.0
160	0x00000000	0.0
161	0x00000000	0.0
162	0x80000000	-0.0
163	0x00000000	0.0
164	0x00000000	0.0
165	0x00000000	0.0
166	0x80000000	-0.0
167	0x00000000	0.0
168	0x80000000	-0.0
169	0x00000000	0.0
170	0x80000000	-0.0
171	0x80000000	-0.0
172	0x00000000	0.0
173	0x00000000	0.0
174	0x80000000	-0.0
175	0x00000000	0.0
176	0x80000000	-0.0
177	0x00000000	0.0
178	0x80000000	-0.0
179	0x00000000	0.0
180	0x80000000	-0.0
181	0x00000000	0.0
182	0x00000000	0.0
183	0x00000000	0.0
184	0x00000000	0.0
185	0x80000000	-0.0
186	0x00000000	0.0
187	0x80000000	-0.0
188	0x00000000	0.0
189	0x00000000	0.0
190	0x80000000	-0.0
191	0x80000000	-0.0
192	0x401cf6f7	2.4525735
193	0x3faa63d2	1.3311713
194	0xbf3fcea5	-0.7492469
195	0x3e62d497	0.22151409
196	0xbf3fad43	-0.7487375
197	0xbf35b917	-0.7098555
198	0xbdf5edcf	-0.12008249
199	0xbd57389d	-0.052544225
200	0xbeae2912	-0.3401571
201	0xbf5c7e06	-0.86129797
202	0xbf486f7a	-0.782951
203	0x3ed234ff	0.41056058
204	0x3f58f9a5	0.8475593
205	0xbe9e0c84	-0.30868924
206	0x3f1447e5	0.579222
207	0xbebffa76	-0.37495774
208	0x3df51770	0.11967361
209	0xbe52f245	-0.20600231
210	0x3dcfe078	0.10150236
211	0x400d352e	2.2063708
212	0x3f7021bc	0.93801475
213	0x3ded9004	0.115997344
214	0xbe49e889	-0.19717611
215	0x3f2f7917	0.68544143
216	0x3e832172	0.25611454
217	0xbed6375d	-0.41839114
218	0xc030daa4	-2.7633448
219	0x3e93fa2e	0.2890181
220	0x3f8cf901	1.101349
221	0xbf0df247	-0.5544781
222	0xbeacb114	-0.3372885
223	0x3e7224de	0.23646876
224	0x3e5c9802	0.21542361
225	0x3df73483	0.12070563
226	0x3ef70bd6	0.48251218
227	0xbf1d8ef8	-0.6154628
228	0x3efe07e6	0.496154
229	0xbebfba81	-0.3744698
230	0xbea48081	-0.3212929
231	0xbf997a9d	-1.1990544
232	0xbf50ac0d	-0.8151253
233	0xbf7a564b	-0.9778792
234	0xc02a2ef5	-2.659116
235	0x3f5c269b	0.8599641
236	0x3f12fcac	0.57416797
237	0x3eb47f2e	0.3525328
238	0x3f078d5e	0.52950084
239	0x3e5e5689	0.21712698
240	0xbdaa8a79	-0.08327193
241	0xbf07649e	-0.52887905
242	0x3ed7f6d8	0.42180514
243	0xbee7f9b1	-0.45307687
244	0x3d851262	0.06497647
245	0x3f0e371b	0.55552834
246	0x3edf2318	0.43581462
247	0x3ea2b6f3	0.31780204
248	0xbfc4f3ed	-1.538694
249	0x3c967eef	0.018371074
250	0x3d1e3fba	0.038634993
251	0xbd8ae6f0	-0.06782329
252	0xbe4336bc	-0.19063848
253	0xbf177eb4	-0.5917771
254	0x3f061a45	0.52383834
255	0x3f74e103	0.9565584

bn2.weight f4 [16]
0	0x402ca842	2.6977696
1	0x3fdd232a	1.7276356
2	0x3fd9f281	1.7027131
3	0x3fce7f68	1.6132631
4	0x4014441b	2.3166568
5	0x3fa111b6	1.258353
6	0x3ff40a03	1.9065555
7	0x3ef4f095	0.478398
8	0x3f1a2136	0.60206926
9	0x3f01c808	0.5069585
10	0x3f7ebc48	0.99506044
11	0x3fdf694f	1.7454013
12	0x3ecf830d	0.4052967
13	0x3f360ff9	0.7111812
14	0x400d3fda	2.2070222
15	0x3e9b16ce	0.30290836

bn2.bias f4 [16]
0	0xbf8e5dd2	-1.1122382
1	0xbe3e1e43	-0.18566231
2	0xbeeb6b40	-0.45980263
3	0xbee65d54	-0.4499308
4	0xbead3c60	-0.33835125
5	0xbf3137f5	-0.6922601
6	0xbf093fb7	-0.53612846
7	0xbf5a089a	-0.85169375
8	0xbd962ce9	-0.07332785
9	0xbfd9d8fa	-1.7019341
10	0xbfbf55ae	-1.4948022
11	0xbf22fda1	-0.63668257
12	0xbe8d478d	-0.2759365
13	0xbf0571ee	-0.5212697
14	0xbf4e5c66	-0.8060974
15	0xbd48d4b7	-0.049030986

bn2.running_mean f4 [16]
0	0x3feeba2b	1.8650564
1	0xc039c59f	-2.9026868
2	0x40a9e66e	5.3093786
3	0xbf16837c	-0.5879438
4	0x3fe3fee4	1.7812161
5	0x3ffab46b	1.9586309
6	0x40c78bb3	6.235803
7	0xbef3032d	-0.4746336
8	0xc09fdd5c	-4.9957714
9	0x3ef181f3	0.47169456
10	0x40894875	4.290095
11	0xc0e42498	-7.129467
12	0x3faaaa2a	1.333318
13	0xc0573003	-3.3623054
14	0x3fb82c52	1.4388525
15	0xbfd08404	-1.6290288

bn2.running_var f4 [16]
0	0x419ced7e	19.615963
1	0x41063bd3	8.3896055
2	0x41b65f60	22.79657
3	0x27800413	3.5531554e-15
4	0x41a986b6	21.190777
5	0x41a9d4e1	21.228945
6	0x41b2be3e	22.342892
7	0x3f41bc0b	0.75677556
8	0x418db776	17.71458
9	0x26800413	8.882889e-16
10	0x418f09c2	17.879765
11	0x4141c56d	12.1107
12	0x40172999	2.361914
13	0x41c65b97	24.794722
14	0x41510d79	13.065789
15	0x3fff1367	1.9927796

conv3.bias f4 [32]
0	0xbf0e69b0	-0.55630016
1	0x3dddf45d	0.10837624
2	0xbf08f419	-0.53497463
3	0xbe2b5b2c	-0.16733998
4	0xbdda74f0	-0.10666835
5	0xbe2230d4	-0.15838939
6	0xbd377dca	-0.044797696
7	0xbf43056c	-0.7618015
8	0xbe6f3178	-0.23358715
9	0x3d0a99c3	0.033838045
10	0x3e928f98	0.28625178
11	0x3ebc467e	0.3677253
12	0x3ce10c9d	0.027471835
13	0x3dcedc7e	0.10100649
14	0x3f0a0712	0.5391704
15	0x3e9f2ef0	0.31090498
16	0xbf78ebd1	-0.9723483
17	0x3e4229f9	0.18961324
18	0xbf09deeb	-0.5385577
19	0xbf428ed1	-0.7599917
20	0xbeb207c4	-0.3477155
21	0xbd48836a	-0.04895345
22	0xbe8e5ab9	-0.2780359
23	0xbf261866	-0.6488098
24	0xbd41d2c9	-0.04732016
25	0x3e401190	0.187567
26	0x3f0385dc	0.5137613
27	0xbe95a768	-0.29229283
28	0x3e9491bd	0.2901744
29	0xbf192978	-0.598289
30	0x3ca5b7c2	0.020229224
31	0xbebab4b5	-0.36465994

conv3.weight f4 [32, 16, 3]
0	0x3ec612bb	0.38686165
1	0x3f29c856	0.66321313
2	0xbfc76239	-1.557685
3	0x3f8119e3	1.0086025
4	0xbfe64e79	-1.7992698
5	0x3fdcd3f7	1.7252187
6	0x3f954e16	1.1664455
7	0xbe9190bb	-0.28430733
8	0xbf6b6baf	-0.9196119
9	0xbf6f3ed1	-0.93455225
10	0xbe037597	-0.12837826
11	0x3faa0abc	1.3284526
12	0x3f65b189	0.8972402
13	0x3d9f0603	0.077648185
14	0x3f1bec1a	0.6090714
15	0xc00163cc	-2.021716
16	0xbe64ee3f	-0.22356509
17	0xbf87e851	-1.0617772
18	0xbf424ac4	-0.75895333
19	0x3e1ee73c	0.15517896
20	0x3f51e018	0.81982565
21	0xbfe0cc17	-1.7562283
22	0xbebd62cf	-0.36989447
23	0x3f5e9088	0.8693929
24	0xbfaa51a2	-1.3306162
25	0xbe3d3e33	-0.18480758
26	0x3f53547e	0.825508
27	0xbee69886	-0.4503824
28	0x3e5599f1	0.20859505
29	0xbfa85751	-1.3151647
30	0x3db23c7e	0.08702944
31	0x3e2df3fc	0.16987604
32	0x3e0fe30d	0.14051457
33	0x3fa231fb	1.2671503
34	0x3f5a6120	0.8530445
35	0xbf99ece0	-1.2025414
36	0xbe9569cd	-0.29182282
37	0xbfdba3bb	-1.7159342
38	0x3f45cbfe	0.7726439
39	0xbe42e215	-0.19031556
40	0xbcd91a2b	-0.026501736
41	0x3e3a74ba	0.1820859
42	0x3f21134c	0.6292007
43	0x3e169f3e	0.14709184
44	0xbf02bde6	-0.5107101
45	0x3dc0ffcc	0.094237894
46	0xbe92a4aa	-0.28641254
47	0x3e185bb1	0.14878727
48	0x3f72ab5a	0.9479271
49	0xbf5dfd63	-0.8671476
50	0x3f09e956	0.5387167
51	0x3f647f96	0.8925718
52	0xc01e0bc0	-2.4694672
53	0x3ee3521d	0.44398585
54	0x3fc249c6	1.5178764
55	0xbf810362	-1.0079157
56	0xbfb77536	-1.4332645
57	0x3ec231b8	0.37928557
58	0xbf88dccf	-1.0692385
59	0xbe6f1de8	-0.23351252
60	0x3ee73207	0.45155355
61	0x3f2bfc7f	0.67182153
62	0x3f4098c5	0.7523311
63	0x3e98adac	0.2982
64	0xbf02c4b6	-0.5108141
65	0x3e055fd6	0.1302484
66	0x3f5f230b	0.87162846
67	0xc03c0c1a	-2.9382386
68	0xbf184b91	-0.59490305
69	0xbf8d8864	-1.1057248
70	0xbd174da7	-0.03693929
71	0x3c2b42bf	0.010452925
72	0x3ec2a058	0.38012958
73	0x3d79e0a5	0.061005253
74	0xbbc01ffd	-0.0058631883
75	0xbe867429	-0.26260498
76	0xbef64f1a	-0.48107225
77	0x3e7088c6	0.23489675
78	0xbfa4e9b3	-1.2883819
79	0x3e90123f	0.2813892
80	0x3d449dc2	0.048002012
81	0x3f7feb45	0.9996837
82	0x3eb5fac6	0.35542887
83	0xbf8dd361	-1.1080133
84	0xbeaf5af7	-0.34249088
85	0x3e93c9f7	0.28865024
86	0x3ec92cec	0.39292085
87	0xbfc187d7	-1.511958
88	0x3ea59612	0.32341057
89	0x3e9f6994	0.31135237
90	0x3f0baa31	0.54556566
91	0xbfa53513	-1.2906822
92	0xbdcb0b15	-0.09914223
93	0x3e8221d2	0.25416428
94	0xbfacfe56	-1.3515117
95	0x3efe69b2	0.49690014
96	0xbea4e656	-0.32206982
97	0x3fb440b7	1.4082249
98	0x3e875d48	0.26438355
99	0xbefb0828	-0.4902966
100	0x3d1bba94	0.03801973
101	0xbfbf77a6	-1.4958389
102	0x3dc0430d	0.09387789
103	0xbf2ad9b8	-0.6673846
104	0x3e854a65	0.2603332
105	0xbdcead2b	-0.10091623
106	0xbf40af97	-0.7526793
107	0xbfdf99b8	-1.7468786
108	0x3fa9c29e	1.3262517
109	0x3fdd9b4c	1.7313018
110	0xbef1c720	-0.47222233
111	0xbf822489	-1.01674
112	0xbe7cfd51	-0.24706008
113	0x3f8af5c3	1.085625
114	0x3e0834dc	0.13301414
115	0x3f32c487	0.69831127
116	0xbddfee26	-0.10934095
117	0xbf9408dd	-1.1565205
118	0x3f808ca6	1.0042922
119	0x3f3d9fa3	0.7407171
120	0xbf5b8b4b	-0.8575942
121	0xbed3151f	-0.41227052
122	0x3eb22b5a	0.347987
123	0x3fe2a47a	1.7706444
124	0xbff375d1	-1.902033
125	0xbee98d0c	-0.45615423
126	0x3ecf7dfc	0.40525806
127	0xbfc76e5c	-1.5580554
128	0x3c695a3b	0.014242704
129	0x3fbc23a8	1.4698381
130	0xbf0f6553	-0.56013983
131	0xbea68c0e	-0.32528728
132	0xbf0c8596	-0.54891336
133	0xbf06255c	-0.52400756
134	0x3df671cd	0.120334245
135	0xbe180906	-0.14847192
136	0xbf035362	-0.5129911
137	0x3e7faca0	0.24968195
138	0xbf312c34	-0.69208074
139	0x3f78ea0f	0.97232145
140	0x3f56515d	0.837179
141	0xbf42ed0b	-0.7614295
142	0xbdce47bd	-0.10072277
143	0xbf5cffc4	-0.8632777
144	0xbf074d22	-0.5285207
145	0xbf871e0c	-1.0556045
146	0x3e4abaf4	0.1979788
147	0xc04bcb58	-3.184286
148	0x3f3bd97c	0.7337873
149	0x3f240072	0.6406318
150	0xbfb1f4b8	-1.3902807
151	0x3f3666d9	0.71250683
152	0x3fac7a83	1.3474888
153	0xbe904f27	-0.28185388
154	0xbf8c7d3a	-1.0975716
155	0xbe552400	-0.20814514
156	0xbf8dee7b	-1.1088403
157	0xbf37253a	-0.7154118
158	0x3efcd83f	0.49383733
159	0xbf45fb3a	-0.77336466
160	0xbef0e5e1	-0.47050384
161	0xbed425d9	-0.41435125
162	0xbf0e9d6a	-0.55708945
163	0x3f555447	0.8333172
164	0xbe4bc55b	-0.19899504
165	0xbdbf6d39	-0.093470044
166	0xbefbf4d8	-0.49210238
167	0xbe4b8d5b	-0.19878142
168	0x3f2a3860	0.6649227
169	0xbc025b85	-0.00795639
170	0xbebff656	-0.37492627
171	0x3f9ffcf6	1.2499073
172	0xbf091f11	-0.5356303
173	0x3e63a07d	0.2222919
174	0xbd9a81bd	-0.07544277
175	0x3f0a661f	0.54062074
176	0x3de53ef3	0.11193647
177	0x3ec2158b	0.3790706
178	0xbd2a1da7	-0.041532185
179	0x3f82646a	1.0186894
180	0x3e184cf4	0.14873105
181	0x3efd8925	0.49518695
182	0xc041e3c0	-3.0295258
183	0x3ed533d4	0.41641104
184	0xbea88973	-0.32917365
185	0xbf9b53ce	-1.213495
186	0x3f654d6d	0.8957127
187	0xbf264ce7	-0.64961094
188	0x3f858bba	1.0433266
189	0xbe5533f8	-0.20820606
190	0x3f29ea29	0.66372925
191	0xbd33aec8	-0.043867856
192	0x3f0b32ad	0.543742
193	0xbeab462d	-0.33451977
194	0xbeb42b50	-0.35189295
195	0x3e8db804	0.27679455
196	0xbea8681e	-0.32891935
197	0xbeb8318e	-0.35975307
198	0xbfa43bc5	-1.283074
199	0xbef0b08a	-0.4700969
200	0x401461af	2.3184621
201	0x3f7c37ee	0.9852284
202	0xbeff579b	-0.49871525
203	0x3d11f129	0.03563038
204	0xbf8f7b10	-1.1209431
205	0x3fac7217	1.3472317
206	0x3f05a54c	0.5220535
207	0x3e816f1b	0.2528008
208	0x3efbbeb0	0.4916892
209	0xbfe2e664	-1.772656
210	0x3f97233e	1.180763
211	0xbf117a7d	-0.5682753
212	0xbf8bf37d	-1.0933682
213	0x3f6da687	0.92832226
214	0xbcb8a530	-0.022539705
215	0xbfd5bc72	-1.6698134
216	0x3ebbcdbf	0.3668041
217	0x3f254081	0.6455155
218	0xbfbcda56	-1.4754131
219	0xbf12068e	-0.5704125
220	0x3eda6cb3	0.42661056
221	0xbf69672e	-0.91173065
222	0xbe17bed8	-0.14818895
223	0xbedc0463	-0.42972097
224	0xbdd89578	-0.10575384
225	0xbf853510	-1.0406818
226	0xbee9478f	-0.45562407
227	0x4006a036	2.1035285
228	0x3e2d3afe	0.16917035
229	0x3eae7e11	0.34080556
230	0xbef7c628	-0.4839337
231	0x3f2ee53c	0.68318534
232	0xbf4894a8	-0.7835183
233	0xbfc161d8	-1.5107985
234	0x3fbddfc1	1.4833909
235	0xbee85297	-0.4537551
236	0x3f9c9af7	1.2234792
237	0x3e3804cc	0.1797058
238	0x3ea0125a	0.31264
239	0xbf849a10	-1.0359516
240	0x3fd61bb6	1.6727207
241	0x3f1e3aad	0.6180828
242	0xbd770753	-0.06030972
243	0x3f51812d	0.8183773
244	0xbefa7fa3	-0.48925504
245	0xbe5fc6e6	-0.21853217
246	0xc023ebcc	-2.561267
247	0xbe991778	-0.29900718
248	0x3e024f6f	0.12725614
249	0xbfde9aa0	-1.7390938
250	0x3ee6f8cb	0.4511169
251	0x3f0d0d84	0.5509875
252	0x3e14f363	0.1454597
253	0x3f039713	0.51402396
254	0x3e9bf27e	0.30458444
255	0xbf5ea7b5	-0.8697465

bn3.weight f4 [32]
0	0x3fb5ae98	1.4193907
1	0x3f3e4f7f	0.7434005
2	0x3fab04f1	1.3360883
3	0x3f23f07e	0.64038837
4	0x3f9802fd	1.1875912
5	0x3f944103	1.158234
6	0x3f2bc407	0.6709599
7	0x3f08bd45	0.534138
8	0x3f7a0f53	0.9767963
9	0x3f66e539	0.90193516
10	0x3f9a0da4	1.2035413
11	0x3fa87d23	1.3163189
12	0x3f8c460c	1.0958877
13	0x3fca1110	1.5786457
14	0x3f23b163	0.63942546
15	0x3f03405b	0.51270074
16	0x3ed19f5f	0.40941903
17	0x3f203924	0.6258719
18	0x3fb9f1ac	1.4526877
19	0x3fd78c63	1.6839718
20	0x3f8b1d8a	1.086839
21	0x3f8a3b67	1.0799378
22	0x3fb1558b	1.3854231
23	0x3f9b135a	1.2115281
24	0x3fa91204	1.3208623
25	0x3f76fdcc	0.96481013
26	0x3fbe06f5	1.4845873
27	0x3fb630e7	1.4233674
28	0x3f8644c3	1.0489734
29	0x3fbab501	1.4586488
30	0x3f61e5cd	0.88241273
31	0x3f8ac57a	1.0841515

bn3.bias f4 [32]
0	0xbfc2a927	-1.5207871
1	0xbfbe334e	-1.4859407
2	0xbfa8929d	-1.3169743
3	0xbf8a0361	-1.0782281
4	0xbf3705da	-0.71493304
5	0xbf9de7c5	-1.2336355
6	0xbff7313e	-1.9311903
7	0xbf60a6fc	-0.877548
8	0xbf818862	-1.0119746
9	0xc0134bb0	-2.3014946
10	0xbfa7f8e2	-1.3122828
11	0xbfa15af8	-1.2605886
12	0xbef739f3	-0.482864
13	0xbfff191d	-1.9929539
14	0xbfa15458	-1.2603865
15	0xbeb2a48a	-0.34891158
16	0xbef2135e	-0.472804
17	0xbff5da1b	-1.9207186
18	0xbf88b551	-1.0680333
19	0xbfcc1dc7	-1.5946587
20	0xbf3fb722	-0.74888813
21	0xbf11adc8	-0.56905794
22	0xbfbacb89	-1.4593364
23	0xbf55a2a9	-0.83451325
24	0xbf3c2a1c	-0.73501754
25	0xbf8fc007	-1.1230477
26	0xbfb2e2e5	-1.3975493
27	0xbfbeea8c	-1.4915328
28	0xbf4c2c31	-0.7975493
29	0xbfa6f184	-1.3042455
30	0xbf5fb08d	-0.8737877
31	0xbfcf2e50	-1.6186008

bn3.running_mean f4 [32]
0	0x3f433a13	0.7626049
1	0xbf995fed	-1.1982399
2	0x3f58910a	0.8459631
3	0xc009c501	-2.1526492
4	0x3f18fda0	0.59762
5	0xbd1503e6	-0.03638067
6	0x3fbf1919	1.4929534
7	0xbfaea7d0	-1.3644962
8	0x3fa36300	1.2764587
9	0xbf63a44a	-0.8892256
10	0xbf41fa63	-0.75772685
11	0x3fee26d3	1.8605598
12	0x3ecc5f08	0.39916253
13	0xbdf0fd79	-0.11767096
14	0x3f05c6bb	0.52256364
15	0x3f0c95fc	0.5491636
16	0xbf7d8818	-0.9903579
17	0x3ebd5ca7	0.3698475
18	0xbde3fb41	-0.11131907
19	0xc024fa18	-2.5777645
20	0x3ff0a7df	1.880123
21	0x3fc4a8b3	1.5363983
22	0x3f9d5068	1.2290163
23	0xbfd00820	-1.625248
24	0x3dac663d	0.08417938
25	0x3f98cb39	1.1937019
26	0x3f97cb28	1.1858873
27	0x3f687484	0.9080279
28	0x3fb3d67d	1.4049832
29	0xbf637bb7	-0.8886065
30	0x3f0b4374	0.543998
31	0x3efb01cb	0.49024805

bn3.running_var f4 [32]
0	0x40b75469	5.729054
1	0x400d10d0	2.2041512
2	0x4145b876	12.357534
3	0x4076c0b1	3.855511
4	0x40bec0b2	5.9610224
5	0x403a3677	2.9095743
6	0x3fcb5c73	1.5887588
7	0x3fdf0ba1	1.7425424
8	0x40a2854d	5.078772
9	0x3fbba625	1.4660078
10	0x40a713e8	5.22118
11	0x40cdcf7f	6.431579
12	0x40cd9d8e	6.4254827
13	0x40efbc3e	7.491729
14	0x3f9efb8a	1.2420514
15	0x407957db	3.8959873
16	0x3fd10b63	1.63316
17	0x3f92fb41	1.1482927
18	0x409ec49f	4.9615016
19	0x40b20a53	5.5637603
20	0x40fb9455	7.861857
21	0x40c984f2	6.2974787
22	0x413c4b44	11.768375
23	0x40d4cdbb	6.6501136
24	0x40ac6ed6	5.38853
25	0x40c6c189	6.211125
26	0x411353e1	9.207978
27	0x410a4204	8.641117
28	0x410336c4	8.2008705
29	0x40a2d278	5.088192
30	0x40d31fc4	6.5976276
31	0x406d0290	3.7032814

conv4.bias f4 [32]
0	0x3ea67108	0.3250811
1	0x3cef3c54	0.029203571
2	0xbedb967a	-0.42888242
3	0x3e0f93ba	0.14021197
4	0xbe3af2c9	-0.18256678
5	0xbe664078	-0.2248553
6	0x3e1f07b6	0.15530285
7	0x3c6e5106	0.014545685
8	0xbed24df2	-0.41075093
9	0xbcd5b8d1	-0.026089104
10	0xbe894321	-0.26809028
11	0xbdcb7a1b	-0.09935399
12	0x3e241947	0.16025268
13	0xbe6dd000	-0.23223877
14	0x3ce0305a	0.027366806
15	0xbd38e1bf	-0.045137163
16	0x3ca1e6e0	0.01976341
17	0xbdcba195	-0.09942929
18	0xbf085a94	-0.5326321
19	0xbb9caf80	-0.0047816634
20	0x3c93874c	0.01800885
21	0x3dcc951d	0.099893786
22	0x3cf76060	0.030197322
23	0x3caf2614	0.021380462
24	0x3e0e8873	0.13919239
25	0xbebf7031	-0.37390283
26	0xbe993be9	-0.2992852
27	0xbe445018	-0.19171178
28	0xbf1286cb	-0.5723693
29	0xbe6b3090	-0.22967744
30	0xbd8458b3	-0.064622305
31	0x3d2b00e8	0.04174891

conv4.weight f4 [32, 32, 3]
0	0x3f4fc9c6	0.81167257
1	0x3e5f8234	0.21827012
2	0x3f2529ec	0.6451709
3	0xbfde326b	-1.7359136
4	0xbfe72d29	-1.8060657
5	0xbfa9ccb3	-1.3265594
6	0x3f62d3ce	0.8860444
7	0x3de17eca	0.11010511
8	0xbe39bafd	-0.18137737
9	0x3f67e494	0.9058316
10	0x3e4eb927	0.20187818
11	0x3f172d42	0.5905343
12	0x3f13e0a0	0.57764626
13	0xbfcc12f3	-1.5943283
14	0xbee6903a	-0.4503191
15	0xbf2250a7	-0.63404316
16	0x3ed148d5	0.4087588
17	0x3efabd35	0.48972479
18	0x3d7e19c9	0.06203631
19	0x3f27f7d9	0.6561256
20	0xbf685ad0	-0.9076357
21	0x3f4a36d6	0.78989923
22	0x3eddc61d	0.4331521
23	0xbeddf925	-0.43354145
24	0x3e5c2d87	0.21501742
25	0xbe467ec8	-0.193843
26	0xbeeb75a0	-0.45988178
27	0xbf5ec4c6	-0.87019
28	0xbf2ecd5e	-0.68282115
29	0x3fa00f7b	1.2504724
30	0x3f18e773	0.59728163
31	0xbd762257	-0.060091343
32	0x3cc5c648	0.0241424
33	0x3fd4d1fc	1.6626582
34	0x3fa543c5	1.2911307
35	0xbd8c2168	-0.06842309
36	0xbe19a2e5	-0.15003546
37	0x3f2b23c0	0.66851425
38	0xbf26563c	-0.64975333
39	0xbf43846e	-0.76373947
40	0xbfaf9b2a	-1.3719227
41	0x3f7418a1	0.9535008
42	0xbda20a0a	-0.07912071
43	0x3ecd9b3c	0.40157497
44	0xbfc7f38e	-1.5621202
45	0xbeed5341	-0.4635258
46	0xbfadb179	-1.3569785
47	0xbea9a43b	-0.3313311
48	0xbdc58433	-0.096443556
49	0x3fba9287	1.4575967
50	0xbf449916	-0.7679609
51	0x3f765c9a	0.9623505
52	0xbefb8c7a	-0.49130613
53	0x3f93a387	1.153428
54	0xbf574fee	-0.8410634
55	0xbdde5677	-0.108563356
56	0xbf91343c	-1.1344066
57	0x3e622c4f	0.22087215
58	0x3f9fc3a5	1.2481581
59	0xbead0bbf	-0.33798024
60	0x3d9bfcc7	0.07616573
61	0x3ea08dc4	0.3135816
62	0x3fa3f489	1.2809001
63	0x3dd44ce2	0.10366227
64	0x3f264b6f	0.6495885
65	0xbfa6a181	-1.3018037
66	0xbe5a174c	-0.2129795
67	0x3f267952	0.6502887
68	0xbde72216	-0.11285798
69	0xbf31f9bf	-0.6952171
70	0xbd2d4dee	-0.042310648
71	0x3f4eb4ff	0.8074493
72	0x3da9b199	0.08285827
73	0x3e7d0256	0.24707922
74	0xbed8c786	-0.42339724
75	0xbf0f4a7d	-0.55973035
76	0x3faeb401	1.3648683
77	0xbe51aede	-0.20476863
78	0xbf32564d	-0.69662935
79	0xbf38d34c	-0.72197413
80	0xbe9faaa6	-0.31184882
81	0x40146ccc	2.3191404
82	0xbf123648	-0.57114077
83	0x3f1e2473	0.6177437
84	0xbf7b5605	-0.9817813
85	0x3f60e7a2	0.87853444
86	0x3f960488	1.1720133
87	0x4025bc2c	2.58961
88	0xbf6bc741	-0.9210091
89	0x3f9eda06	1.2410285
90	0xbf81bb98	-1.0135374
91	0x3e48cfb7	0.19610487
92	0x3cf22196	0.02955703
93	0xbfaa7384	-1.3316503
94	0xbfaeb940	-1.3650284
95	0x3e365d9c	0.17809147
96	0x3ebb95cd	0.36637726
97	0x3fbc8cc3	1.4730457
98	0xbeacfa5e	-0.33784765
99	0xbce170e2	-0.027519647
100	0x3fd85dd2	1.6903632
101	0x3d9639bd	0.073352315
102	0x3fc7abe1	1.5599328
103	0xbea6e2d4	-0.3259493
104	0x3e3e0038	0.18554771
105	0xbf75518e	-0.9582757
106	0xbe883514	-0.26602995
107	0x400803f4	2.1252413
108	0x3f98e712	1.1945517
109	0x3d36df30	0.044646442
110	0xbd53214c	-0.051545426
111	0x3f173c90	0.59076786
112	0xbe9341f1	-0.28761247
113	0x3f1624f6	0.5865015
114	0x3f940324	1.1563458
115	0x3e02def9	0.1278037
116	0x3f0ea6ef	0.5572347
117	0xbf68fa44	-0.91006875
118	0xbf916037	-1.1357487
119	0x3f7b0b14	0.9806378
120	0xbf124d3a	-0.5714909
121	0xbe1c9b6f	-0.15293668
122	0xbd1cb91d	-0.038262475
123	0x3ef9af22	0.48766428
124	0xbf06cc48	-0.5265546
125	0xbf5375e9	-0.8260179
126	0x3f831915	1.024203
127	0xbf084e09	-0.5324407
128	0xbf870607	-1.0548714
129	0x4001d304	2.0285044
130	0xbb357ee8	-0.002769405
131	0xbf265ed8	-0.6498847
132	0xbfcc02f2	-1.5938399
133	0x3f4734d7	0.77815
134	0x3f96fd09	1.179597
135	0x3f4905d4	0.7852452
136	0x3f85b703	1.0446476
137	0xbf67331a	-0.9031235
138	0xbf3884c2	-0.7207757
139	0x3eeec907	0.46637747
140	0x3f55ffa2	0.8359319
141	0xbc9795f4	-0.01850412
142	0x3e8c12b4	0.2735802
143	0xbf871bb8	-1.0555334
144	0x3e9cf7c5	0.30657783
145	0x3f1f1412	0.6214
146	0xbffdad24	-1.9818463
147	0x3f0945b5	0.5362199
148	0xbe5a50c2	-0.21319869
149	0x3e15bef6	0.14623627
150	0xbf17f5e4	-0.59359574
151	0xbd8e2ff8	-0.06942743
152	0x3f983f00	1.1894226
153	0x3fa4fe1e	1.289005
154	0x3e8db7f5	0.2767941
155	0xc0190b96	-2.3913321
156	0x3f0465d8	0.517179
157	0xbf50837f	-0.8145065
158	0x3d4aa03c	0.049469218
159	0xbfa722c4	-1.3057485
160	0x3e8afbde	0.27145284
161	0xbeda1a67	-0.42598268
162	0xbfb4450f	-1.4083575
163	0xbea6b906	-0.32563037
164	0xbf2d8e3e	-0.6779517
165	0xbf413dc3	-0.75484866
166	0x3fcd08c9	1.6018306
167	0xbfa13fbb	-1.2597574
168	0xbf92ad30	-1.1459103
169	0xbee327be	-0.44366258
170	0x3f2657a9	0.6497751
171	0xbbcf5eaf	-0.006328426
172	0x3f5e2512	0.86775315
173	0x3f19c348	0.600636
174	0x3e516dc3	0.20452027
175	0xbe88a913	-0.26691493
176	0x3f27f4f8	0.6560817
177	0x3f049209	0.5178533
178	0xbfda1a15	-1.703921
179	0x3dbc807d	0.09204195
180	0x3fa03df7	1.251891
181	0xbef44cd3	-0.47714862
182	0xbd3965ce	-0.045263104
183	0xbeba1234	-0.36342013
184	0x3e7f005b	0.2490248
185	0xbf83a594	-1.0284905
186	0xbf2e5825	-0.6810325
187	0xbedff1bd	-0.4373912
188	0x3e520af2	0.20511988
189	0x3e323b25	0.17405374
190	0xbeb92482	-0.36160666
191	0x3fad693a	1.3547738
192	0x3faec68f	1.3654345
193	0xbf0b2565	-0.54353935
194	0xbf2f2ccb	-0.68427724
195	0xbef6d84c	-0.48211896
196	0x3f473911	0.7782145
197	0x3f1c91db	0.6116006
198	0xbfaca04c	-1.3486419
199	0x3df51e13	0.11968627
200	0xbee15b81	-0.44015124
201	0xbe853e0b	-0.26023898
202	0x3e12f6a9	0.14351906
203	0xbfca66ae	-1.5812585
204	0xbf439aeb	-0.7640826
205	0x3f4ae9b1	0.79262835
206	0x3d4cc15d	0.049989093
207	0x3e1f9ab0	0.15586352
208	0xbff5c615	-1.9201075
209	0x3f9cd72b	1.2253164
210	0x3ee09a5b	0.43867764
211	0x3e106cfa	0.14104071
212	0x401ab63f	2.4173734
213	0x3f648148	0.8925977
214	0x3e555d32	0.20836332
215	0x3cce1dd9	0.025160717
216	0xbf253c73	-0.64545363
217	0x3f3bdf20	0.73387337
218	0xbf924fec	-1.143064
219	0x3ee50257	0.44728348
220	0x3f6fab00	0.936203
221	0xbe5c9b54	-0.21543628
222	0xbf10c08b	-0.565438
223	0xbf25e083	-0.647957
224	0x3fdb7a4c	1.7146697
225	0x3fdc5293	1.72127
226	0x3fa7091e	1.3049657
227	0xbf004661	-0.5010739
228	0x3f45d61b	0.77279824
229	0x3e7cc40a	0.24684158
230	0xbf58f18b	-0.84743565
231	0xbf88993a	-1.0671761
232	0x3f95b89f	1.1696967
233	0x3f302c57	0.6881766
234	0xbf9df840	-1.2341385
235	0xbec0f1b8	-0.37684417
236	0x3f1a15c3	0.60189456
237	0xbf2ffe4b	-0.68747395
238	0x3cafa2d8	0.021439955
239	0xbd4d26b9	-0.050085757
240	0x3f63c00d	0.8896492
241	0xbeae7481	-0.3407326
242	0xbf91a23b	-1.1377634
243	0x3d4aaa02	0.04947854
244	0x3e1b9ff3	0.15197735
245	0x3f5ad0b8	0.8547473
246	0x3ea6dd05	0.325905
247	0x3fcf668d	1.6203171
248	0xc005ba38	-2.089491
249	0x3f119366	0.5686554
250	0xbedb640e	-0.42849773
251	0x3c61c2d3	0.01377936
252	0x3ec5de1c	0.38646019
253	0x3e047737	0.12936102
254	0xbf37ed19	-0.7184616
255	0x3f6226bb	0.8834035

bn4.weight f4 [32]
0	0x409dc2b2	4.9300165
1	0x40d0389c	6.5069103
2	0x405ef47d	3.4836724
3	0x40a998fe	5.299926
4	0x40bec5d0	5.961647
5	0x40af2350	5.4730606
6	0x40a6cf42	5.2128
7	0x40bd03e7	5.9067264
8	0x40b77d1c	5.734022
9	0x40bf13fd	5.97119
10	0x4086661a	4.1999636
11	0x40a7fcef	5.2496257
12	0x40b673b0	5.701622
13	0x40c0c683	6.0242324
14	0x409d28f5	4.9112496
15	0x40c715d3	6.221414
16	0x40daad9e	6.8336935
17	0x40b939a9	5.7882886
18	0x40c9b8d0	6.30381
19	0x40b41c84	5.628481
20	0x408b2ad6	4.348979
21	0x40bd19a7	5.9093814
22	0x40a34282	5.1018686
23	0x40ba78da	5.8272524
24	0x408de867	4.4346194
25	0x40b72da1	5.72432
26	0x40a91890	5.2842484
27	0x40ab2fae	5.3495703
28	0x40c7d856	6.245158
29	0x40a9a3ab	5.301229
30	0x40ac7f0f	5.39051
31	0x40baf5cf	5.842506

bn4.bias f4 [32]
0	0xc045b908	-3.0894184
1	0xc030eb20	-2.764351
2	0xbd1c0116	-0.038086973
3	0xc00c7a4f	-2.1949651
4	0xbfd8fbbd	-1.6951824
5	0xc04efabf	-3.2340543
6	0xc0443f07	-3.066347
7	0xc0a5c1e1	-5.179917
8	0xc04bd421	-3.1848223
9	0xbfaa65ab	-1.3312277
10	0xc023fa10	-2.5621376
11	0xc06ba9b6	-3.6822333
12	0xbfbe8c5c	-1.4886584
13	0xc01c48a0	-2.4419327
14	0xbffc25e2	-1.9699061
15	0xc0782baf	-3.8776662
16	0xc0450eee	-3.0790362
17	0xc086597f	-4.198425
18	0xbe9307a5	-0.2871677
19	0xbf734dc2	-0.95040524
20	0xbf26d187	-0.65163463
21	0xbfcdfc90	-1.6092701
22	0xbf3a299f	-0.7271976
23	0xc0687bcb	-3.6325557
24	0xbf9e674d	-1.2375275
25	0xc0478c8a	-3.1179528
26	0xc08a92b0	-4.330406
27	0xc04c3e98	-3.1913204
28	0xc03e79f8	-2.9761944
29	0xc092ee17	-4.5915637
30	0xc02b4aa3	-2.6764305
31	0xc073844a	-3.8049493

bn4.running_mean f4 [32]
0	0xbceab96b	-0.028652867
1	0xbe5db65b	-0.21651594
2	0xbe93a776	-0.288387
3	0x3dd0ab3e	0.10188912
4	0x3d668849	0.056282315
5	0xbf1b875f	-0.60753435
6	0x3e2c9e79	0.16857328
7	0xbee55c4b	-0.44796976
8	0xbf6967d9	-0.91174084
9	0xbdb8b2a2	-0.090184465
10	0x3ea7d82f	0.32782122
11	0x3da786bc	0.081799954
12	0x3c821da8	0.015883282
13	0xbf1a415e	-0.6025599
14	0x3ec76a54	0.3894831
15	0xbea2ffe1	-0.31835845
16	0xbd1eac6f	-0.038738664
17	0x3dfe6d5e	0.12423204
18	0xbf32d2a5	-0.6985267
19	0xbda5db56	-0.08098476
20	0xbe0a13c2	-0.134841
21	0xbea06a7c	-0.3133124
22	0xbe1de68d	-0.1541998
23	0xbce934c0	-0.028467536
24	0x3e50bd9d	0.20384832
25	0xbeca934d	-0.39565507
26	0xbe4dadda	-0.2008585
27	0xbee96c1e	-0.455903
28	0xbf8041f1	-1.0020124
29	0xbe8937a7	-0.26800272
30	0xbe9f2b4c	-0.3108772
31	0x3e870599	0.26371458

bn4.running_var f4 [32]
0	0x3fba65ef	1.4562358
1	0x3fa6acfa	1.3021538
2	0x40162172	2.3457913
3	0x3fed2b88	1.852891
4	0x3fc1288c	1.5090499
5	0x3fa73d4d	1.3065583
6	0x3f9f6c5b	1.2454942
7	0x3fd25770	1.6432934
8	0x3fa22640	1.2667923
9	0x40064086	2.0976882
10	0x3fe2ab3a	1.7708504
11	0x3f873dcf	1.0565737
12	0x3f9d10b9	1.2270728
13	0x402e27f5	2.7211888
14	0x3f9a0eb2	1.2035735
15	0x3ffce063	1.9755977
16	0x40053220	2.0811844
17	0x3f96f2ec	1.1792884
18	0x4006acda	2.1043
19	0x3fca93b2	1.5826323
20	0x3fb23057	1.3921002
21	0x3f8fee50	1.1244602
22	0x3fdded12	1.7337973
23	0x3fab52f6	1.3384693
24	0x3fbea518	1.4894133
25	0x3fbbffb3	1.4687408
26	0x3ff75f03	1.932587
27	0x3fa3b506	1.2789619
28	0x4002534f	2.0363348
29	0x3fc830fd	1.563995
30	0x3fcde4f2	1.6085494
31	0x400fdf27	2.2479951

conv5.bias f4 [16]
0	0x3f50e695	0.8160184
1	0x3ef826b3	0.48467025
2	0xbf03c064	-0.5146544
3	0x3e95e103	0.29273233
4	0xbc4ef224	-0.012630973
5	0xc023b160	-2.557701
6	0xbfef480d	-1.8693863
7	0x3ea88321	0.32912543
8	0x3ec856b9	0.39128664
9	0xbf868fe4	-1.0512662
10	0x3f1789e4	0.5919478
11	0xbfac5c5d	-1.3465687
12	0xbf50929e	-0.8147372
13	0x3f2beb2e	0.6715573
14	0x3f2a5d84	0.66548944
15	0xbfb42960	-1.4075127

conv5.weight f4 [16, 32, 1]
0	0x3eaee5ad	0.34159604
1	0xc0056b16	-2.084661
2	0x3fe62384	1.7979589
3	0xbef828cd	-0.4846863
4	0xc04881bf	-3.132919
5	0xbfd0bd5b	-1.6307787
6	0xbe1260ab	-0.14294688
7	0x401f59b2	2.4898496
8	0x3fad6be6	1.3548553
9	0xbfd68af4	-1.6761155
10	0x3fb6248f	1.4229907
11	0xc00994a8	-2.1496983
12	0xbfa31fe5	-1.2744108
13	0x3fac71c4	1.3472219
14	0xbf30066c	-0.687598
15	0xbd540fb0	-0.051772773
16	0x3f724dcb	0.9464995
17	0xbf4106bd	-0.75400907
18	0x3f843a78	1.0330343
19	0xbf206c1f	-0.6266498
20	0xbfa30ff7	-1.2739247
21	0x3f4a0da1	0.78927046
22	0x3e920d69	0.28525856
23	0xbe8c0ddd	-0.27354327
24	0xbfa8495c	-1.3147388
25	0x3edd0045	0.43164268
26	0x3fb83b5e	1.4393117
27	0xbfdbf79d	-1.718494
28	0xbfe68b91	-1.8011342
29	0xbf70d0aa	-0.94068396
30	0x400ac3b4	2.1681948
31	0x3eada7ac	0.33916986
32	0x3fa0e6d5	1.2570444
33	0xbf274647	-0.6534161
34	0x3e3bf129	0.18353714
35	0x3e558779	0.2085246
36	0xbfa0b580	-1.255539
37	0xc0283cf5	-2.6287205
38	0x3f770ab4	0.96500707
39	0x3f45b7a5	0.77233344
40	0x3f6b1ba9	0.9183908
41	0xbe4a49b6	-0.19754681
42	0x3f880e0b	1.0629286
43	0x401c108e	2.4385104
44	0x3f9e0cac	1.2347617
45	0xbea07d85	-0.31345764
46	0xbe1a8e83	-0.15093426
47	0x3ea10333	0.31447753
48	0x403374c3	2.8040016
49	0xc06a40db	-3.6602085
50	0xbf80c0aa	-1.0058796
51	0xbec178ec	-0.3778757
52	0x3f6c3569	0.92269
53	0x3f0968fe	0.5367583
54	0x3f8def7e	1.1088712
55	0x3ee8c001	0.45458987
56	0xbfcaaf2b	-1.5834707
57	0xbf6ebbe4	-0.9325545
58	0xbeade5dd	-0.33964434
59	0xbfb1e605	-1.3898321
60	0xc02d7416	-2.7102103
61	0x3f5ed895	0.8704923
62	0xc0721141	-3.782303
63	0xc019570e	-2.3959384
64	0xc03ca52d	-2.9475815
65	0x40397864	2.897973
66	0xbe194549	-0.14967836
67	0xc084d50f	-4.151008
68	0xbf4c8a4b	-0.7989852
69	0x3f51fa9e	0.82023036
70	0x3f4f9a76	0.81095064
71	0x3f3f0872	0.7462226
72	0xbfde04f6	-1.7345264
73	0x3e846335	0.2585694
74	0x3fa053ff	1.2525634
75	0xc0bbaa3e	-5.8645315
76	0x3faf6d2f	1.3705195
77	0x3f231d41	0.6371651
78	0xbd021033	-0.03175373
79	0x400dd5be	2.2161708
80	0x4008dcdb	2.13848
81	0xc098b40a	-4.7719774
82	0x3fbfd8e0	1.498806
83	0xbfa20943	-1.2659076
84	0x4013877f	2.305145
85	0xc0ab03d2	-5.3442163
86	0x3faaf3a2	1.3355601
87	0xc083b96d	-4.116385
88	0xc011a97e	-2.27597
89	0x4019f9bd	2.4058678
90	0xc070b5c8	-3.761095
91	0x3fe46162	1.7842219
92	0xbfaa6095	-1.3310724
93	0x3fd39876	1.6530902
94	0x3e92745a	0.28604394
95	0xc09846d9	-4.7586484
96	0xbf8b90cf	-1.0903567
97	0x401dc501	2.4651492
98	0xbd2fc5d7	-0.042913284
99	0x3f64ee13	0.8942577
100	0xbf8a5154	-1.0806069
101	0x3f5ea932	0.8697692
102	0x400a8bcc	2.1647825
103	0xbfea367e	-1.829788
104	0x401fe02b	2.4980571
105	0x3f2ff3c8	0.68731356
106	0x3e351652	0.17684296
107	0x3f17eca8	0.59345484
108	0x3fe07d38	1.7538214
109	0xc07a02ce	-3.9064212
110	0x3e4ff802	0.20309451
111	0xbfe97a01	-1.8240358
112	0xc017d34f	-2.3722723
113	0x3ddefab1	0.10887659
114	0xc0571d72	-3.3611722
115	0xbf96d5c3	-1.1783985
116	0xbfa0721c	-1.2534823
117	0xbea083e7	-0.31350634
118	0x3f037324	0.51347566
119	0xbe15b2b1	-0.14618947
120	0x3f963fcb	1.1738218
121	0x3f3d53b7	0.73955864
122	0xbfb5566f	-1.4167002
123	0xc0995f77	-4.7929034
124	0x3f8a96bc	1.082725
125	0xc04a83e7	-3.1643007
126	0xbfc42b5d	-1.5325733
127	0x40412432	3.0178342
128	0x3efb45d5	0.49076715
129	0xc0209412	-2.5090375
130	0xbff58384	-1.918076
131	0x3fd13d88	1.6346903
132	0xbf1e0cc0	-0.61738205
133	0xbfb33eb9	-1.4003516
134	0x40229f78	2.5409832
135	0x403946b1	2.8949397
136	0xbfb373fa	-1.4019768
137	0xbe379db5	-0.17931254
138	0x3feb5a71	1.8386976
139	0xbefdd06f	-0.49573085
140	0x3e85639e	0.26052564
141	0x3e315080	0.17315865
142	0x3e8d06f4	0.27544367
143	0xc0437638	-3.0540905
144	0xbff463ce	-1.9092958
145	0xbeb8edff	-0.36119077
146	0x3ebcb021	0.36853126
147	0xbfece9c9	-1.8508846
148	0xbb49fdf1	-0.0030821527
149	0xbe496974	-0.19669133
150	0x3e99756a	0.29972392
151	0x3f1c399d	0.6102541
152	0x3ea80abe	0.32820696
153	0xbd277952	-0.040887184
154	0xbf8edd08	-1.1161203
155	0x3f72f133	0.9489929
156	0x4042627a	3.0372605
157	0xbf8d34ee	-1.1031778
158	0xbfe17751	-1.7614537
159	0xbf90b0c5	-1.1303946
160	0xc051b7be	-3.2768397
161	0xbe80457b	-0.2505301
162	0xc00ba681	-2.1820376
163	0xc0a8cfe9	-5.2753797
164	0xc0517b83	-3.2731636
165	0xbf3d6ce6	-0.7399429
166	0xc0048c0b	-2.0710475
167	0xbfd5771a	-1.6676972
168	0xbe26263c	-0.16225523
169	0x403bb15a	2.9326997
170	0xbf140c11	-0.5783091
171	0x40044f6d	2.0673478
172	0xbef3b58f	-0.47599456
173	0x400ffccd	2.2498047
174	0xc04ab268	-3.167139
175	0x3fca0e6f	1.5785655
176	0x3e073505	0.13203819
177	0x4056c3d9	3.3557036
178	0xbd11266a	-0.035437025
179	0x3fb009ed	1.3753029
180	0x3f8c7e50	1.0976048
181	0xc01b7fb9	-2.4296706
182	0xbe38bf17	-0.18041645
183	0xc01d1fc8	-2.4550648
184	0xbefa9cd1	-0.48947766
185	0x4041e860	3.029808
186	0xbfc555b7	-1.5416783
187	0xbe0ae438	-0.13563621
188	0xc020c607	-2.5120866
189	0x4061c62b	3.5277202
190	0xbf718ebb	-0.94358414
191	0x3f97f94f	1.1872958
192	0x3f61c13c	0.8818548
193	0xbf2ff74e	-0.6873673
194	0x3d6486e6	0.05579271
195	0x3fe82b69	1.8138248
196	0x3e9f1aca	0.31075126
197	0x40147ec7	2.3202379
198	0x3f0f1b70	0.5590124
199	0xc064582f	-3.5678823
200	0x3f9a4539	1.2052375
201	0xbfde8219	-1.7383453
202	0x3f45175a	0.76988757
203	0xbf25be5d	-0.64743596
204	0xc0842e55	-4.130656
205	0x3f5fb66c	0.8738773
206	0xbfbf8474	-1.4962296
207	0x3f2f63ec	0.68511844
208	0x3f94c314	1.1622033
209	0x3e5928ab	0.2120692
210	0x3fe42d43	1.7826313
211	0x3ebcd674	0.36882365
212	0x3fea1d8a	1.8290265
213	0xc063cfd7	-3.5595605
214	0xc08efe3b	-4.468534
215	0x3f8912df	1.0708884
216	0xbf73c2e1	-0.95219237
217	0xbe628059	-0.22119273
218	0xbfedfd6b	-1.8592962
219	0xbf2a749e	-0.66584194
220	0x3efbbcb7	0.49167415
221	0xc003319e	-2.0499034
222	0x3f8860f1	1.0654584
223	0x3fdfb2f4	1.7476487
224	0x3fcddfff	1.6083983
225	0x401e6fd7	2.4755762
226	0x3ed728af	0.42023227
227	0x3f90cef7	1.1313161
228	0xbfda3fbb	-1.7050699
229	0x4008b1c4	2.13585
230	0xc06af9c1	-3.6714938
231	0xbf327214	-0.6970532
232	0x3cc79402	0.024362568
233	0x3fc7035f	1.5547904
234	0xc06c64e0	-3.693657
235	0x3f4256f2	0.7591392
236	0x3f899a33	1.0750183
237	0x3f609b1a	0.87736666
238	0x3ff0c57a	1.8810265
239	0xc06b6a5b	-3.6783664
240	0xbffe6743	-1.9875263
241	0xbed1fbdf	-0.41012475
242	0xc02ceac6	-2.7018294
243	0xbf4e532f	-0.8059568
244	0xc01bc9c9	-2.434191
245	0xbf2b8920	-0.6700611
246	0x3df4236a	0.11920817
247	0x3f9bf2e0	1.2183495
248	0xbe287fa3	-0.1645494
249	0xbe653844	-0.22384745
250	0xbe02d190	-0.12775254
251	0xbfa3f912	-1.2810385
252	0xbfa659b8	-1.299613
253	0xc0003520	-2.0032425
254	0xbeda132c	-0.42592752
255	0x3e963dde	0.29344076
