networks/quantized_models/iscx2016vpn/model.pt (torch, 62381 bytes, 36 tensors)

conv1.bias f4 [16]
00000000: fd94 d13f 0ed6 df3f 76cb ef3d 0c03 76bf
00000010: 145e 90bd 8e89 4f3f d374 51bb 100a 45bf
00000020: 91c0 e7bf 0b88 0ac0 4390 f13f bf07 2cbf
00000030: 8887 f0be e4f1 263f 669b 20bf bc22 2f3d
1.6373593 1.7487199 0.11708729 -0.960984 -0.07049194 0.81069267 -0.0031960502 -0.7696848
-1.8105642 -2.1645534 1.887215 -0.6719932 -0.46978402 0.65212846 -0.6273712 0.042757735

conv1.weight_orig f4 [16, 1, 3]
00000000: fda9 babf 2f88 edbe 5670 a8bf 7be8 fc3e
00000010: 3077 0640 228a 2dbe f8ae 21bf 0105 0b40
00000020: ea31 ebbd a35b 7c3f 8f38 a3be 2e7b 923f
00000030: 5be6 6a3e 652d ca3e 8fc8 0040 a8cf e63e
00000040: 0735 a5be 3ce8 06c0 b3c2 873e 70fc 22c0
00000050: b8b1 d5bf 1c48 e83f abe6 3f3f 2dff 96be
00000060: b109 1ac0 8d74 da3e 77c2 553d 95b6 06be
00000070: 1c49 b8bf c9b5 06c0 570d 243f 684f afbf
00000080: 9cb1 0fbf b888 923e 67f6 b2c0 53ef 1d3e
00000090: b0b4 353f f6e7 2cbe 1d29 cbbf 8731 cfbf
000000a0: 3038 4f3f e4ba 31bf 91b2 bcbf 91d7 6a3f
000000b0: c2ae b6bc 1b67 8fbe 7710 4a3f c7f4 bdbf
-1.4583126 -0.46392962 -1.3159282 0.4939612 2.1010246 -0.16947225 -0.63157606 2.1721804
-0.1148413 0.98577327 -0.31879088 1.1443841 0.22939436 0.39487758 2.0122411 0.45080304
-0.3226702 -2.1079245 0.2651573 -2.5466576 -1.669486 1.8147006 0.74961346 -0.2949156
-2.4068415 0.42667046 0.05218741 -0.13155587 -1.4397311 -2.1048453 0.64082855 -1.3696108
-0.56130385 0.28619933 -5.5925784 0.15423326 0.7097883 -0.16885361 -1.5871922 -1.618699
0.8094511 -0.694258 -1.4741994 0.9173518 -0.022300128 -0.2800835 0.78931373 -1.4840325

conv1.weight_mask f4 [16, 1, 3]
00000000: 0000 803f 0000 803f 0000 803f 0000 803f
00000010: 0000 803f 0000 803f 0000 803f 0000 803f
00000020: 0000 803f 0000 803f 0000 803f 0000 803f
00000030: 0000 803f 0000 803f 0000 803f 0000 803f
00000040: 0000 803f 0000 803f 0000 803f 0000 803f
00000050: 0000 803f 0000 803f 0000 803f 0000 803f
00000060: 0000 803f 0000 803f 0000 803f 0000 803f
00000070: 0000 803f 0000 803f 0000 803f 0000 803f
00000080: 0000 803f 0000 803f 0000 803f 0000 803f
00000090: 0000 803f 0000 803f 0000 803f 0000 803f
000000a0: 0000 803f 0000 803f 0000 803f 0000 803f
000000b0: 0000 803f 0000 803f 0000 803f 0000 803f
1.0 1.0 1.0 1.0 1.0 1.0 1.0 1.0
1.0 1.0 1.0 1.0 1.0 1.0 1.0 1.0
1.0 1.0 1.0 1.0 1.0 1.0 1.0 1.0
1.0 1.0 1.0 1.0 1.0 1.0 1.0 1.0
1.0 1.0 1.0 1.0 1.0 1.0 1.0 1.0
1.0 1.0 1.0 1.0 1.0 1.0 1.0 1.0

conv1._weight_quantizer._amax f4 [16, 1, 1]
00000000: 20a1 ba3f 8674 0640 7804 0b40 7c5e 923f
00000010: 21c8 0040 74ca 0640 6af8 2240 7034 e83f
00000020: 4c01 1a40 78b4 0640 f427 af3f 54f6 b240
00000030: ebfc ca3f df23 cf3f dede bb3f 0ad2 bd3f
1.4580421 2.100862 2.1721478 1.1435084 2.012215 2.1061068 2.546412 1.8141003
2.4063292 2.104765 1.3684068 5.5925694 1.5858434 1.6182822 1.4677389 1.4829724

bn1.weight f4 [16]
00000000: 115b 0140 ffba 383f 971b 333f d0e0 433f
00000010: 3b7f 1e3f 3605 0540 f513 1940 4137 6b3f
00000020: 1667 0b40 13ed 0140 2c62 953f 58f8 0f40
00000030: d1a0 0d3f 6844 a33f 4e4f 4b3f 9ac8 3a3f
2.0211833 0.72160333 0.69963974 0.7651491 0.6191289 2.078443 2.391843 0.91881186
2.1781669 2.0300949 1.1670585 2.2495327 0.5532351 1.2755251 0.79417884 0.72962344

bn1.bias f4 [16]
00000000: 60b6 a4be 2ecf 75bf b2dc a8be 76b3 b53e
00000010: d404 e8be 6051 74bf 5ac4 8dbf a96e afbe
00000020: fc6b b9bf 956f ddbd a8f4 ddbe 41e4 65be
00000030: 92a3 953f 2880 0cbf 5203 e5bd 3c00 e23e
-0.3217039 -0.96019256 -0.32980877 0.3548848 -0.45316184 -0.9543667 -1.1075547 -0.34264114
-1.4486079 -0.10812298 -0.4335072 -0.22450353 1.1690543 -0.5488305 -0.11182274 0.44140804

bn1.running_mean f4 [16]
00000000: c07d 883f 5c5e 0b40 252b bc3e edf6 23bf
00000010: 6570 c93e c4d6 ec3e a72f 33bf 3e49 bebe
00000020: 02a4 09c0 dc10 34c0 fb5d d43f 8a6c cabf
00000030: e8a2 27bf 8553 c53e aaaf 3abf d943 03be
1.0663376 2.1776342 0.36751667 -0.64048654 0.39343563 0.46257603 -0.69994587 -0.37165254
-2.1506352 -2.813529 1.659118 -1.5814373 -0.6548295 0.38540283 -0.7292429 -0.1281885

bn1.running_var f4 [16]
00000000: f7df 363f 037e f33e 9eed 893e 9748 843e
00000010: 8ddc 043f a207 ba3e 6ac6 943f fd1e d03e
00000020: 7717 c83e 5a02 763f ff09 313e 70d7 1c40
00000030: fc7c 1e3e 5e83 783e 7144 e03d e094 103e
0.71435493 0.47557077 0.269391 0.25836632 0.51899034 0.36333948 1.1623051 0.40648642
0.39080402 0.9609734 0.1728897 2.4506493 0.15477365 0.24268863 0.10950554 0.14119291

conv2.bias f4 [16]
00000000: a5af 9cbe 7549 de3e 9ba7 9c3f 8283 16bf
00000010: d987 8dbf 16bb 1d3c a602 1b3f 58ff 6cbd
00000020: 0c7a 193f f381 f13e d68d 473f f05b fdbe
00000030: f853 8cbe 795d 6fbe b14e 823f d39f 413f
-0.30602756 0.43415418 1.2238649 -0.58794415 -1.1057082 0.009627124 0.60550916 -0.057860702
0.59951854 0.47169456 0.779508 -0.49484205 -0.27407813 -0.233755 1.0180265 0.756345

conv2.weight_orig f4 [16, 16, 3]
00000000: 5c3a af3f 7a15 de3e 982b 05bf 706e 9abf
00000010: 7415 fdbe bb4a babe f0cb 87be a106 333e
00000020: 68c7 a4be 7b42 37bf f02e 993f c273 96be
00000030: f4b5 16bf d782 043f 7fda 973f c905 01c0
00000040: 778f 08bf 0f6e 16bf c3e2 1cc0 0847 9d3f
00000050: 8c82 363f 2636 d13d ca56 7abe 8803 efbe
00000060: e44e 80bf aba0 42bf b953 f93e 9ca3 bc3f
00000070: 7487 0340 a996 9c3e be56 9d3f b386 443e
00000080: 943a f3be 84c8 763f 57d5 82be 66b8 90bd
00000090: c08c 8abf 21bf 4e3f 4898 333f 4000 91bf
000000a0: 41d2 e93e 6294 053f ea6f 63c0 41d1 34be
000000b0: a26d 8d3f 96a0 eebc e2cb aebf 0101 35bf
000000c0: 8241 25be ea41 5c3f bfb9 9dbe bed1 8f3f
000000d0: 804e 093e 2633 4fbf 4ee5 d2bd a7a1 99bf
000000e0: 26b0 283f 1a7f b2bf afb4 893f b0f0 fbbe
000000f0: f198 9fbd 3181 103e 14c8 d43d ae97 843f
00000100: 642d 2f3f ba64 f63d 6aba 883c cfb4 c03f
00000110: babc 0b40 a3b6 70bf 90a7 87bf bda4 b6be
00000120: 0c36 903e 708b 0cbd 8298 65c0 630a 48bf
00000130: 0715 243f 9c82 24bf 455e 25bf d129 ecbf
00000140: ce00 cdbf e369 01bf 9012 4fbf 4bc3 b1bc
00000150: 1a9d d8be 90d0 8a3f 6f11 98bd f1f4 933f
00000160: 0495 b43f b9f6 92bf 5901 983e 9da8 6c3f
00000170: fdb0 28bf e844 b1bf ddf2 abbf 5476 713c
00000180: df00 163f fb71 813f 68d3 853f da28 403f
00000190: 8791 323d 4ddd 6fbf 6780 3f3d c915 1ac0
000001a0: 6826 3b3e e26b 6abe c9aa 0b40 3d09 573e
000001b0: bfba e5be 2656 533f 4794 ca3e 9143 ec3e
000001c0: 9243 93be e16c 0a3e 25db 2940 fca6 bf3d
000001d0: 2538 00bf e107 c5be b316 bfbe b7b8 eabf
000001e0: 0e1c 1d3f a4d9 efbf af27 28bf 3b0f 0e3f
000001f0: 7d3e d93f 036f 143f a2d5 e7be 4d6a 2c3c
00000200: c98e 6e3d 96a9 eb3e 5e3b ed3c f39d 2c3e
00000210: e150 2c3f 09e5 20be 971c b1bf fe12 f73e
00000220: 1adb 05bf 9dcf 513f 3823 353e d7ab fd3e
00000230: 6080 053f ff79 36bf e83f 9dbe b54d f83d
00000240: 1d2b 10bf 486c d1be dace 993e af18 f8be
00000250: 133e 1b3f 449d fbbd 611a 1ebe 5f65 bbbf
00000260: a03e 37be 7dee 12bd 00cb d6bf 51d5 823f
00000270: 6023 083e 0e57 813f d7a7 50bf 6eba 3abc
00000280: fcbf 2840 d343 7d3e 9d6d 47be 4cae 843f
00000290: 0c92 da3f a303 9c3e ad8d 88bf f64c 073f
000002a0: 954d 97be 0006 dd3f a636 b7be cdf0 d5bd
000002b0: c1ef 033f 0638 f43f 6118 39bd 50a8 2d3f
000002c0: b561 09bf 4649 8a3d f501 cabe d21a 4a3f
000002d0: e7f5 e0bc a5bf e43f ee93 1f3a 54ab ef3c
000002e0: 47f6 a13f 1f8d 80be 9004 573e 00a8 d7be
000002f0: 2ba4 9d3d b64a 933d d437 b9bf 3064 21be
00000300: 8401 1d40 fe31 ac3f 2f4a 40bf 4649 763e
00000310: ab7f 40bf 2f4e 47bf 9e46 c6bd 10e1 a1bd
00000320: 6355 d0be d82d 5abf 3d45 46bf bb00 ce3e
00000330: 2c44 5d3f d65b adbe 1ff3 023f ce16 bebe
00000340: 56d9 163e 0eaf 2abe 450a e33d 099c 0f40
00000350: 2a63 6a3f 0a39 153e 3d94 2abe c1fc 223f
00000360: 7a39 843e 2f07 e2be a4da 30c0 b08c 9b3e
00000370: 9551 913f 61e9 15bf 3f79 b2be b736 813e
00000380: 5ddc 8e3e 8d2c fc3d c2d4 f93e 26d1 06bf
00000390: 7d2e fc3e 2c24 bebe 0d9d 9dbe 0895 99bf
000003a0: e6b8 51bf 0763 6abf a4af 29c0 b339 513f
000003b0: a5f7 123f 98ef b43e f63a 0a3f 7d19 613e
000003c0: c6bf abbd ed66 0cbf 78ca c33e 3751 f8be
000003d0: fb72 283d c0ca 103f 893e d43e 5e7d 9d3e
000003e0: 5abb bdbf ae88 fa3c bf06 a13c a501 5ebd
000003f0: 0433 5fbe 9e6d 1abf c8ba 113f 64fb 723f
1.3689685 0.4337576 -0.52019644 -1.2064953 -0.4943043 -0.3638514 -0.2652278 0.17482997
-0.32183385 -0.71585816 1.1967449 -0.2938519 -0.5887139 0.51762146 1.1863555 -2.015978
-0.5334391 -0.58761686 -2.4513404 1.2287302 0.7129295 0.10215406 -0.2444717 -0.46682382
-1.0024076 -0.7602641 0.48696688 1.473743 2.0551424 0.30583695 1.2292097 0.19192009
-0.4750563 0.9639971 -0.2555339 -0.07066421 -1.0824203 0.8076039 0.7015424 -1.1328201
0.45668224 0.5217954 -3.5537057 -0.17657949 1.1049082 -0.029129308 -1.365597 -0.70704657
-0.1613827 0.86038077 -0.30805776 1.1235883 0.13408852 -0.8093742 -0.10297643 -1.2002457
0.6589378 -1.3945038 1.0758265 -0.49207067 -0.07792843 0.14111783 0.103897244 1.0358789
0.68428636 0.12030931 0.016690452 1.5055178 2.183394 -0.9402868 -1.0598011 -0.3567256
0.28166234 -0.034312665 -3.5874333 -0.7814085 0.64094585 -0.64261794 -0.6459697 -1.8450261
-1.601587 -0.50552195 -0.808877 -0.021699568 -0.4230736 1.0844898 -0.074252 1.1559125
1.4107976 -1.1481544 0.29688528 0.92444783 -0.6589506 -1.3849154 -1.3433491 0.014737684
0.5859508 1.0112909 1.0455141 0.75062335 0.043595817 -0.93697053 0.046753313 -2.4075797
0.1827637 -0.22892717 2.182299 0.20999618 -0.44869038 0.8255333 0.39566252 0.461453
-0.2876249 0.13518097 2.6540005 0.093580216 -0.5008567 -0.38482574 -0.37322006 -1.833762
0.61370933 -1.8738294 -0.6568555 0.5549199 1.6972195 0.5798189 -0.45280176 0.010523391
0.05824164 0.4602782 0.028958973 0.16857128 0.6731091 -0.1571237 -1.383685 0.48256677
-0.5228745 0.8195742 0.17689216 0.49545166 0.5214901 -0.712799 -0.3071282 0.121241964
-0.56315786 -0.40902925 0.30040628 -0.48456332 0.6064159 -0.122858554 -0.1543975 -1.4640311
-0.17894983 -0.03587197 -1.6780701 1.0221349 0.13294744 1.0104692 -0.81506103 -0.011396987
2.6367178 0.24732904 -0.19475408 1.0365691 1.707582 0.30471525 -1.0668236 0.5285181
-0.29551378 1.7267456 -0.3578388 -0.1044632 0.5153771 1.9079597 -0.045189265 0.6783495
-0.53664714 0.06752257 -0.39454618 0.78947175 -0.027461005 1.7870985 0.0006087412 0.0292565
1.2653283 -0.25107667 0.20997834 -0.4212036 0.07697328 0.07191984 -1.4470162 -0.15760875
2.4532175 1.3452756 -0.75113195 0.24051389 -0.75194806 -0.77853674 -0.09681438 -0.079042554
-0.40690145 -0.852262 -0.774494 0.40234932 0.8643215 -0.33859128 0.51152223 -0.37126774
0.14731345 -0.1666834 0.11085943 2.2438986 0.9155756 0.1457254 -0.16658111 0.6366692
0.258251 -0.44146106 -2.7633448 0.30380774 1.1353022 -0.5855923 -0.34858128 0.25237057
0.279025 0.12313185 0.48795134 -0.52662885 0.49254218 -0.37136972 -0.30783883 -1.1998606
-0.8192276 -0.91557354 -2.6513453 0.8172867 0.57409126 0.35339046 0.5399622 0.2198238
-0.08386187 -0.5484455 0.3824041 -0.48499462 0.04112528 0.5655937 0.4145396 0.3075971
-1.48228 0.030582752 0.019656537 -0.054200787 -0.21796805 -0.6032351 0.5692563 0.9491484

conv2.weight_mask f4 [16, 16, 3]
00000000: 0000 803f 0000 803f 0000 803f 0000 803f
00000010: 0000 803f 0000 803f 0000 803f 0000 803f
00000020: 0000 803f 0000 803f 0000 803f 0000 803f
00000030: 0000 803f 0000 803f 0000 803f 0000 803f
00000040: 0000 803f 0000 803f 0000 803f 0000 803f
00000050: 0000 803f 0000 803f 0000 803f 0000 803f
00000060: 0000 803f 0000 803f 0000 803f 0000 803f
00000070: 0000 803f 0000 803f 0000 803f 0000 803f
00000080: 0000 803f 0000 803f 0000 803f 0000 803f
00000090: 0000 803f 0000 803f 0000 803f 0000 803f
000000a0: 0000 803f 0000 803f 0000 803f 0000 803f
000000b0: 0000 803f 0000 803f 0000 803f 0000 803f
000000c0: 0000 803f 0000 803f 0000 803f 0000 803f
000000d0: 0000 803f 0000 803f 0000 803f 0000 803f
000000e0: 0000 803f 0000 803f 0000 803f 0000 803f
000000f0: 0000 803f 0000 803f 0000 803f 0000 803f
00000100: 0000 803f 0000 803f 0000 803f 0000 803f
00000110: 0000 803f 0000 803f 0000 803f 0000 803f
00000120: 0000 803f 0000 803f 0000 803f 0000 803f
00000130: 0000 803f 0000 803f 0000 803f 0000 803f
00000140: 0000 803f 0000 803f 0000 803f 0000 803f
00000150: 0000 803f 0000 803f 0000 803f 0000 803f
00000160: 0000 803f 0000 803f 0000 803f 0000 803f
00000170: 0000 803f 0000 803f 0000 803f 0000 803f
00000180: 0000 803f 0000 803f 0000 803f 0000 803f
00000190: 0000 803f 0000 803f 0000 803f 0000 803f
000001a0: 0000 803f 0000 803f 0000 803f 0000 803f
000001b0: 0000 803f 0000 803f 0000 803f 0000 803f
000001c0: 0000 803f 0000 803f 0000 803f 0000 803f
000001d0: 0000 803f 0000 803f 0000 803f 0000 803f
000001e0: 0000 803f 0000 803f 0000 803f 0000 803f
000001f0: 0000 803f 0000 803f 0000 803f 0000 803f
00000200: 0000 803f 0000 803f 0000 803f 0000 803f
00000210: 0000 803f 0000 803f 0000 803f 0000 803f
00000220: 0000 803f 0000 803f 0000 803f 0000 803f
00000230: 0000 803f 0000 803f 0000 803f 0000 803f
00000240: 0000 0000 0000 0000 0000 0000 0000 0000
00000250: 0000 0000 0000 0000 0000 0000 0000 0000
00000260: 0000 0000 0000 0000 0000 0000 0000 0000
00000270: 0000 0000 0000 0000 0000 0000 0000 0000
00000280: 0000 0000 0000 0000 0000 0000 0000 0000
00000290: 0000 0000 0000 0000 0000 0000 0000 0000
000002a0: 0000 0000 0000 0000 0000 0000 0000 0000
000002b0: 0000 0000 0000 0000 0000 0000 0000 0000
000002c0: 0000 0000 0000 0000 0000 0000 0000 0000
000002d0: 0000 0000 0000 0000 0000 0000 0000 0000
000002e0: 0000 0000 0000 0000 0000 0000 0000 0000
000002f0: 0000 0000 0000 0000 0000 0000 0000 0000
00000300: 0000 803f 0000 803f 0000 803f 0000 803f
00000310: 0000 803f 0000 803f 0000 803f 0000 803f
00000320: 0000 803f 0000 803f 0000 803f 0000 803f
00000330: 0000 803f 0000 803f 0000 803f 0000 803f
00000340: 0000 803f 0000 803f 0000 803f 0000 803f
00000350: 0000 803f 0000 803f 0000 803f 0000 803f
00000360: 0000 803f 0000 803f 0000 803f 0000 803f
00000370: 0000 803f 0000 803f 0000 803f 0000 803f
00000380: 0000 803f 0000 803f 0000 803f 0000 803f
00000390: 0000 803f 0000 803f 0000 803f 0000 803f
000003a0: 0000 803f 0000 803f 0000 803f 0000 803f
000003b0: 0000 803f 0000 803f 0000 803f 0000 803f
000003c0: 0000 803f 0000 803f 0000 803f 0000 803f
000003d0: 0000 803f 0000 803f 0000 803f 0000 803f
000003e0: 0000 803f 0000 803f 0000 803f 0000 803f
000003f0: 0000 803f 0000 803f 0000 803f 0000 803f
1.0 1.0 1.0 1.0 1.0 1.0 1.0 1.0
1.0 1.0 1.0 1.0 1.0 1.0 1.0 1.0
1.0 1.0 1.0 1.0 1.0 1.0 1.0 1.0
1.0 1.0 1.0 1.0 1.0 1.0 1.0 1.0
1.0 1.0 1.0 1.0 1.0 1.0 1.0 1.0
1.0 1.0 1.0 1.0 1.0 1.0 1.0 1.0
1.0 1.0 1.0 1.0 1.0 1.0 1.0 1.0
1.0 1.0 1.0 1.0 1.0 1.0 1.0 1.0
1.0 1.0 1.0 1.0 1.0 1.0 1.0 1.0
1.0 1.0 1.0 1.0 1.0 1.0 1.0 1.0
1.0 1.0 1.0 1.0 1.0 1.0 1.0 1.0
1.0 1.0 1.0 1.0 1.0 1.0 1.0 1.0
1.0 1.0 1.0 1.0 1.0 1.0 1.0 1.0
1.0 1.0 1.0 1.0 1.0 1.0 1.0 1.0
1.0 1.0 1.0 1.0 1.0 1.0 1.0 1.0
1.0 1.0 1.0 1.0 1.0 1.0 1.0 1.0
1.0 1.0 1.0 1.0 1.0 1.0 1.0 1.0
1.0 1.0 1.0 1.0 1.0 1.0 1.0 1.0
0.0 0.0 0.0 0.0 0.0 0.0 0.0 0.0
0.0 0.0 0.0 0.0 0.0 0.0 0.0 0.0
0.0 0.0 0.0 0.0 0.0 0.0 0.0 0.0
0.0 0.0 0.0 0.0 0.0 0.0 0.0 0.0
0.0 0.0 0.0 0.0 0.0 0.0 0.0 0.0
0.0 0.0 0.0 0.0 0.0 0.0 0.0 0.0
1.0 1.0 1.0 1.0 1.0 1.0 1.0 1.0
1.0 1.0 1.0 1.0 1.0 1.0 1.0 1.0
1.0 1.0 1.0 1.0 1.0 1.0 1.0 1.0
1.0 1.0 1.0 1.0 1.0 1.0 1.0 1.0
1.0 1.0 1.0 1.0 1.0 1.0 1.0 1.0
1.0 1.0 1.0 1.0 1.0 1.0 1.0 1.0
1.0 1.0 1.0 1.0 1.0 1.0 1.0 1.0
1.0 1.0 1.0 1.0 1.0 1.0 1.0 1.0

conv2._weight_quantizer._amax f4 [16, 1, 1]
00000000: c562 6340 fd97 6540 18da 2940 fcbf 2840
00000010: 4ad8 3040 7c0c aa40 477a 8540 18e4 2a40
00000020: 16f3 8340 e19b 1d40 d63a 8a40 a4b2 2540
00000030: 3876 5840 6b4d 3e40 b975 1c40 c741 1840
3.5529034 3.5874016 2.6539364 2.6367178 2.7632012 5.314024 4.1711764 2.6701717
4.1234236 2.462639 4.319682 2.5890284 3.3822155 2.9734752 2.4446852 2.3790147

bn2.weight f4 [16]
00000000: d5e9 3240 998d e03f bb1f e03f 687f ce3f
00000010: 11ef 1c40 bfdf 9c3f 8a15 f23f ebb1 ed3e
00000020: e27b 333f 08c8 013f 1587 883f 03f8 e53f
00000030: 90e8 c03e e78f 563f bb1a 1140 9e03 923e
2.795522 1.7543212 1.7509683 1.6132631 2.4520915 1.2255782 1.8912823 0.46424803
0.70110905 0.5069585 1.0666224 1.7966312 0.3767743 0.8381333 2.2672565 0.28518385

bn2.bias f4 [16]
00000000: dd9e 8bbf 9bdb 8bbe 36eb fcbe 545d e6be
00000010: d6c6 96be 0954 4abf 3705 0fbf c6b0 5dbf
00000020: b4cc 47be fad8 d9bf 8b11 c9bf e113 29bf
00000030: 4d51 80be dd34 1dbf 3d03 49bf 2390 2a3b
-1.0907856 -0.27315983 -0.49398202 -0.4499308 -0.29448575 -0.7903448 -0.5586733 -0.8659786
-0.19511682 -1.7019341 -1.5708479 -0.6604596 -0.25062028 -0.6140879 -0.78520566 0.0026025854

bn2.running_mean f4 [16]
00000000: 23f0 943f a36b 53c0 d645 8e40 7c83 16bf
00000010: ce59 c43f bafc 8a3f 373f a340 e8e2 65bf
00000020: c365 87c0 f381 f13e d416 9440 0baa e2c0
00000030: 8f82 a23f 58b7 2ec0 58c6 753e 746b 81bf
1.1635784 -3.3034446 4.446025 -0.5879438 1.5339906 1.0858376 5.1014667 -0.89799356
-4.231172 0.47169456 4.6277866 -7.083257 1.2696093 -2.7299404 0.24001443 -1.0110917

bn2.running_var f4 [16]
00000000: 527e a241 af2f 0641 2853 9041 2c63 6627
00000010: d32b 9a41 d6c1 9941 667f 9d41 a61d 1f3f
00000020: 851f 2741 2200 8026 ced3 b141 bb5b 3d41
00000030: dbf7 1540 7b05 a141 2ef9 2b41 7a17 e43f
20.31168 8.3866415 18.040604 3.1972673e-15 19.271399 19.219646 19.687206 0.62154615
10.445195 8.88182e-16 22.22842 11.834895 2.343253 20.127676 10.748335 1.7819664

conv3.bias f4 [32]
00000000: b069 0ebf 5df4 dd3d 19f4 08bf 2c5b 2bbe
00000010: f074 dabd d430 22be ca7d 37bd 6c05 43bf
00000020: 7831 6fbe c399 0a3d 988f 923e 7e46 bc3e
00000030: 9d0c e13c 7edc ce3d 1207 0a3f f02e 9f3e
00000040: d1eb 78bf f929 423e ebde 09bf d18e 42bf
00000050: c407 b2be 6a83 48bd b95a 8ebe 6618 26bf
00000060: c9d2 41bd 9011 403e dc85 033f 68a7 95be
00000070: bd91 943e 7829 19bf c2b7 a53c b5b4 babe
-0.55630016 0.10837624 -0.53497463 -0.16733998 -0.10666835 -0.15838939 -0.044797696 -0.7618015
-0.23358715 0.033838045 0.28625178 0.3677253 0.027471835 0.10100649 0.5391704 0.31090498
-0.9723483 0.18961324 -0.5385577 -0.7599917 -0.3477155 -0.04895345 -0.2780359 -0.6488098
-0.04732016 0.187567 0.5137613 -0.29229283 0.2901744 -0.598289 0.020229224 -0.36465994

conv3.weight_orig f4 [32, 16, 3]
00000000: 1cc1 b73e 3cc0 233f b3dd c8bf 1573 813f
00000010: 0d67 e2bf 3522 de3f 0458 963f 9817 9fbe
00000020: 2c50 71bf d13e 6fbf 9775 03be bc0a aa3f
00000030: deec 6e3f fc5b 023d 3bc7 183f cc63 01c0
00000040: 69b9 57be f000 8abf 0249 49bf bd44 303e
00000050: 460e 3b3f 0f88 e0bf d9f4 b5be ed36 683f
00000060: 3c88 abbf 34e3 61be 004b 403f 8698 e6be
00000070: f199 553e 5157 a8bf 9555 cb3d eb1c fe3d
00000080: f714 093e de9a a33f 8ba2 553f 999f 9bbf
00000090: 0673 8fbe ed23 ddbf 995c 303f af3f 3fbe
000000a0: e589 87bd 37bc 123e 1768 2c3f 2512 163e
000000b0: 77f3 08bf 3903 cf3d 3813 9ebe f8ca 203e
000000c0: b57f 733f 982c 6abf 95db 083f eee0 633f
000000d0: 9114 1dc0 ea0d ec3e 64d2 c23f 1b75 7dbf
000000e0: 7bc3 b6bf b831 c23e cfdc 88bf e81d 6fbe
000000f0: 3215 f13e e8de 283f 727e 463f eda8 913e
00000100: df7b 01bf a903 0f3e 79c6 583f 1a0c 3cc0
00000110: 6704 0fbf 4eb5 8abf 5b09 a3bc 3cd9 813c
00000120: c1bf c13e 11d8 9c3d 4ec4 63bd 2974 86be
00000130: 1a4f f6be c688 703e 253a a6bf 4b15 883e
00000140: 51bb 183d 502e 813f 1e6e bb3e 1626 8dbf
00000150: 0dbb b7be e22c 923e 2b8e ad3e 1450 c1bf
00000160: a4d5 a63e 6449 963e fa1b 0f3f 24f5 a9bf
00000170: b305 afbd a089 803e 8de2 afbf 2d05 eb3e
00000180: d4e0 8dbe 5b3e b03f 17d6 973e 03b5 03bf
00000190: c95e 0f3d 6282 bfbf 0c61 d83d 20f8 23bf
000001a0: a21f 953e 2bad cebd 97af 40bf b899 dfbf
000001b0: 7970 a63f 6a56 e33f 922e f7be 2598 82bf
000001c0: dd25 6ebe 0a60 8d3f 2b9e 333e 941d 343f
000001d0: 7aa9 17bd 8d46 93bf 3ef8 823f 1757 313f
000001e0: 8f58 54bf 45c6 bcbe ed53 ba3e 7aa4 e23f
000001f0: d175 f3bf 0c8d e9be 0eb6 d63e 85e4 c6bf
00000200: 70d7 ab3c 56e7 bb3f 2009 0cbf 70ff 94be
00000210: 70fd 08bf e659 04bf 7f7d 443e e59c 01be
00000220: 3567 ffbe 1e7a 833e cdc4 2fbf cc21 823f
00000230: ff96 5b3f 98f0 42bf bde0 b7bd b111 5cbf
00000240: 5b23 00bf d4b5 85bf aa67 673e 58cb 4bc0
00000250: 4a28 443f 03a0 2e3f 9863 afbf cf17 3d3f
00000260: 3b4e b03f 274f 90be 3a7d 8cbf 0024 55be
00000270: 25c1 86bf d1f4 2bbf 3fbe 0c3f 2d34 43bf
00000280: 3bde f1be f618 d0be 62df 03bf 967a 5c3f
00000290: f545 31be d6b5 c2bd bc6d 00bf 3b43 51be
000002a0: 7e3c 163f 96ec 90bd 18d5 ddbe f6fc 9f3f
000002b0: 111f 09bf 7da0 633e 451a 08be 5a11 073f
000002c0: 06cc 973d fe26 c83e 723e 04bd bcbc 833f
000002d0: 9799 023e d099 f73e bdbe 43c0 1f12 b83e
000002e0: fa11 c2be 49d8 9fbf c238 663f cb52 22bf
000002f0: 3cb0 883f 600b 6cbe 49e4 233f 287f 7ebd
00000300: c7e1 123f 5e87 abbe 24f5 b7be be4e 873e
00000310: b146 9abe 620d bdbe f606 a6bf 1bf1 f6be
00000320: af61 1440 ee37 7c3f 9b57 ffbe 29f1 113d
00000330: 3c8f 91bf e839 ac3f 298d 023f 2a28 6c3e
00000340: 42cf 043f b0a4 e1bf 02e9 903f 0209 12bf
00000350: 69b5 8abf 19c1 6e3f 8c80 fdbc e495 d6bf
00000360: 6a46 963e b6cb 1a3f 155b c0bf 8e06 12bf
00000370: b36c da3e 2e67 69bf 30f1 69be 7d9f e6be
00000380: 3d54 0ebe e649 87bf 9fee f1be e3b5 0540
00000390: c183 0d3e 0ed1 a93e 8a92 fcbe f83d 183f
000003a0: c9eb 4ebf b186 c4bf 31b7 b83f a2f3 f0be
000003b0: 6b5a 9e3f 2b16 1c3e 9c4e ad3e 978e 85bf
000003c0: 0ad9 d83f e877 1e3f 88d7 a0bd 4437 593f
000003d0: 6a50 efbe 2eb9 83be 3d09 21c0 9efa 8cbe
000003e0: 9d16 dd3d a09a debf cbf8 e63e 840d 0d3f
000003f0: a50f 413e 8d37 0e3f 983d 973e 7fab 5abf
0.35889518 0.639652 -1.5692657 1.0113245 -1.7687699 1.7354189 1.174561 -0.31072688
-0.9426296 -0.93455225 -0.12837826 1.3284526 0.9333018 0.031826004 0.59679 -2.021716
-0.21066822 -1.0781536 -0.78627026 0.17213722 0.73068655 -1.7541522 -0.35538366 0.9070881
-1.340095 -0.22059327 0.7511444 -0.4503824 0.20859505 -1.3151647 0.09928433 0.124078594
0.13386904 1.2781637 0.83451146 -1.215808 -0.28017443 -1.7276589 0.6889129 -0.18676637
-0.06618098 0.14329611 0.6734633 0.14655359 -0.534965 0.101080365 -0.30874038 0.15702426
0.9511674 -0.91474295 0.53460056 0.8901509 -2.4543803 0.46104366 1.5220456 -0.99006814
-1.4278406 0.37928557 -1.0692385 -0.23351252 0.47086483 0.6596513 0.7753669 0.28449193
-0.5057964 0.1396624 0.84677845 -2.9382386 -0.5586609 -1.083658 -0.019901922 0.015850656
0.3784161 0.07658399 -0.055607133 -0.26260498 -0.48107225 0.23489675 -1.2986494 0.26578745
0.037288014 1.0092258 0.3660745 -1.1027248 -0.35884896 0.28549868 0.33897528 -1.5102563
0.3258487 0.29352868 0.55902064 -1.3277936 -0.08546009 0.25105 -1.3741013 0.45902386
-0.27710593 1.3769029 0.29655525 -0.51448077 0.035002504 -1.4961665 0.10565385 -0.64050484
0.29125696 -0.10091623 -0.7526793 -1.7468786 1.3003074 1.7760746 -0.48277718 -1.0202681
-0.23256631 1.1044934 0.17540805 0.7035763 -0.03702686 -1.1505905 1.0232008 0.69273514
-0.8294763 -0.36870018 0.36392155 1.7706444 -1.902033 -0.45615423 0.41935772 -1.5538489
0.020976752 1.4679973 -0.54701424 -0.29101133 -0.53511715 -0.51699674 0.19188498 -0.12657507
-0.49883428 0.25679106 -0.6865967 1.0166564 0.85777277 -0.76148367 -0.08978412 -0.85964495
-0.5005395 -1.0446115 0.22598138 -3.184286 0.76623976 0.6821291 -1.3702269 0.73864454
1.3773874 -0.28185388 -1.0975716 -0.20814514 -1.0527693 -0.67170435 0.5497779 -0.7625149
-0.4723986 -0.40644044 -0.5151273 0.8612455 -0.17311843 -0.09507339 -0.5016744 -0.20435803
0.58686054 -0.07076375 -0.4332664 1.2499073 -0.5356303 0.2222919 -0.13291271 0.5276085
0.07411961 0.3909225 -0.032286115 1.0291972 0.12753902 0.48359537 -3.0585167 0.35951325
-0.3790434 -1.248788 0.89930356 -0.6340758 1.0678782 -0.23051214 0.6402021 -0.062132984
0.5737576 -0.33501714 -0.35929215 0.26427263 -0.30132058 -0.36924273 -1.2970874 -0.48230824
2.3184621 0.9852284 -0.49871525 0.03563038 -1.1371837 1.3455172 0.50996643 0.23062196
0.5187875 -1.7628384 1.1321108 -0.57044995 -1.0836612 0.93263394 -0.030945085 -1.6764493
0.29350597 0.6046709 -1.5027796 -0.5704125 0.42661056 -0.91173065 -0.22845912 -0.45043555
-0.13899322 -1.0569427 -0.47252366 2.0892265 0.13819791 0.3316731 -0.4933055 0.59469557
-0.8082853 -1.5353605 1.4430906 -0.47060877 1.2371343 0.15242831 0.33849037 -1.043414
1.6941235 0.6190171 -0.07853609 0.84849954 -0.4674104 -0.25727218 -2.5161889 -0.27534956
0.10795329 -1.7390938 0.4511169 0.5509875 0.18853624 0.55553514 0.2953918 -0.8541793

conv3.weight_mask f4 [32, 16, 3]
00000000: 0000 803f 0000 803f 0000 803f 0000 803f
00000010: 0000 803f 0000 803f 0000 803f 0000 803f
00000020: 0000 803f 0000 803f 0000 803f 0000 803f
00000030: 0000 803f 0000 803f 0000 803f 0000 803f
00000040: 0000 803f 0000 803f 0000 803f 0000 803f
00000050: 0000 803f 0000 803f 0000 803f 0000 803f
00000060: 0000 803f 0000 803f 0000 803f 0000 803f
00000070: 0000 803f 0000 803f 0000 803f 0000 803f
00000080: 0000 803f 0000 803f 0000 803f 0000 803f
00000090: 0000 803f 0000 803f 0000 803f 0000 803f
000000a0: 0000 803f 0000 803f 0000 803f 0000 803f
000000b0: 0000 803f 0000 803f 0000 803f 0000 803f
000000c0: 0000 803f 0000 803f 0000 803f 0000 803f
000000d0: 0000 803f 0000 803f 0000 803f 0000 803f
000000e0: 0000 803f 0000 803f 0000 803f 0000 803f
000000f0: 0000 803f 0000 803f 0000 803f 0000 803f
00000100: 0000 803f 0000 803f 0000 803f 0000 803f
00000110: 0000 803f 0000 803f 0000 803f 0000 803f
00000120: 0000 803f 0000 803f 0000 803f 0000 803f
00000130: 0000 803f 0000 803f 0000 803f 0000 803f
00000140: 0000 803f 0000 803f 0000 803f 0000 803f
00000150: 0000 803f 0000 803f 0000 803f 0000 803f
00000160: 0000 803f 0000 803f 0000 803f 0000 803f
00000170: 0000 803f 0000 803f 0000 803f 0000 803f
00000180: 0000 803f 0000 803f 0000 803f 0000 803f
00000190: 0000 803f 0000 803f 0000 803f 0000 803f
000001a0: 0000 803f 0000 803f 0000 803f 0000 803f
000001b0: 0000 803f 0000 803f 0000 803f 0000 803f
000001c0: 0000 803f 0000 803f 0000 803f 0000 803f
000001d0: 0000 803f 0000 803f 0000 803f 0000 803f
000001e0: 0000 803f 0000 803f 0000 803f 0000 803f
000001f0: 0000 803f 0000 803f 0000 803f 0000 803f
00000200: 0000 803f 0000 803f 0000 803f 0000 803f
00000210: 0000 803f 0000 803f 0000 803f 0000 803f
00000220: 0000 803f 0000 803f 0000 803f 0000 803f
00000230: 0000 803f 0000 803f 0000 803f 0000 803f
00000240: 0000 803f 0000 803f 0000 803f 0000 803f
00000250: 0000 803f 0000 803f 0000 803f 0000 803f
00000260: 0000 803f 0000 803f 0000 803f 0000 803f
00000270: 0000 803f 0000 803f 0000 803f 0000 803f
00000280: 0000 803f 0000 803f 0000 803f 0000 803f
00000290: 0000 803f 0000 803f 0000 803f 0000 803f
000002a0: 0000 803f 0000 803f 0000 803f 0000 803f
000002b0: 0000 803f 0000 803f 0000 803f 0000 803f
000002c0: 0000 803f 0000 803f 0000 803f 0000 803f
000002d0: 0000 803f 0000 803f 0000 803f 0000 803f
000002e0: 0000 803f 0000 803f 0000 803f 0000 803f
000002f0: 0000 803f 0000 803f 0000 803f 0000 803f
00000300: 0000 803f 0000 803f 0000 803f 0000 803f
00000310: 0000 803f 0000 803f 0000 803f 0000 803f
00000320: 0000 803f 0000 803f 0000 803f 0000 803f
00000330: 0000 803f 0000 803f 0000 803f 0000 803f
00000340: 0000 803f 0000 803f 0000 803f 0000 803f
00000350: 0000 803f 0000 803f 0000 803f 0000 803f
00000360: 0000 803f 0000 803f 0000 803f 0000 803f
00000370: 0000 803f 0000 803f 0000 803f 0000 803f
00000380: 0000 803f 0000 803f 0000 803f 0000 803f
00000390: 0000 803f 0000 803f 0000 803f 0000 803f
000003a0: 0000 803f 0000 803f 0000 803f 0000 803f
000003b0: 0000 803f 0000 803f 0000 803f 0000 803f
000003c0: 0000 803f 0000 803f 0000 803f 0000 803f
000003d0: 0000 803f 0000 803f 0000 803f 0000 803f
000003e0: 0000 803f 0000 803f 0000 803f 0000 803f
000003f0: 0000 803f 0000 803f 0000 803f 0000 803f
1.0 1.0 1.0 1.0 1.0 1.0 1.0 1.0
1.0 1.0 1.0 1.0 1.0 1.0 1.0 1.0
1.0 1.0 1.0 1.0 1.0 1.0 1.0 1.0
1.0 1.0 1.0 1.0 1.0 1.0 1.0 1.0
1.0 1.0 1.0 1.0 1.0 1.0 1.0 1.0
1.0 1.0 1.0 1.0 1.0 1.0 1.0 1.0
1.0 1.0 1.0 1.0 1.0 1.0 1.0 1.0
1.0 1.0 1.0 1.0 1.0 1.0 1.0 1.0
1.0 1.0 1.0 1.0 1.0 1.0 1.0 1.0
1.0 1.0 1.0 1.0 1.0 1.0 1.0 1.0
1.0 1.0 1.0 1.0 1.0 1.0 1.0 1.0
1.0 1.0 1.0 1.0 1.0 1.0 1.0 1.0
1.0 1.0 1.0 1.0 1.0 1.0 1.0 1.0
1.0 1.0 1.0 1.0 1.0 1.0 1.0 1.0
1.0 1.0 1.0 1.0 1.0 1.0 1.0 1.0
1.0 1.0 1.0 1.0 1.0 1.0 1.0 1.0
1.0 1.0 1.0 1.0 1.0 1.0 1.0 1.0
1.0 1.0 1.0 1.0 1.0 1.0 1.0 1.0
1.0 1.0 1.0 1.0 1.0 1.0 1.0 1.0
1.0 1.0 1.0 1.0 1.0 1.0 1.0 1.0
1.0 1.0 1.0 1.0 1.0 1.0 1.0 1.0
1.0 1.0 1.0 1.0 1.0 1.0 1.0 1.0
1.0 1.0 1.0 1.0 1.0 1.0 1.0 1.0
1.0 1.0 1.0 1.0 1.0 1.0 1.0 1.0
1.0 1.0 1.0 1.0 1.0 1.0 1.0 1.0
1.0 1.0 1.0 1.0 1.0 1.0 1.0 1.0
1.0 1.0 1.0 1.0 1.0 1.0 1.0 1.0
1.0 1.0 1.0 1.0 1.0 1.0 1.0 1.0
1.0 1.0 1.0 1.0 1.0 1.0 1.0 1.0
1.0 1.0 1.0 1.0 1.0 1.0 1.0 1.0
1.0 1.0 1.0 1.0 1.0 1.0 1.0 1.0
1.0 1.0 1.0 1.0 1.0 1.0 1.0 1.0

conv3._weight_quantizer._amax f4 [32, 1, 1]
00000000: b65f 0140 0f0c 3c40 d175 f33f c4c9 4b40
00000010: 7761 1440 db64 5640 7acc 2240 cc0a 0940
00000020: 2bce 1940 da43 5540 cab0 2940 51df 2740
00000030: 32ed 1940 5ea5 1740 feff 3940 b91a 1740
00000040: 7e72 2c40 bf58 3740 4283 4740 be55 2640
00000050: 53f7 1740 6abd 4b40 4b1a 2240 216f 3c40
00000060: a5b2 1240 e33f 1840 c493 6140 5039 1840
00000070: ea6d fa3f 43cb 4d40 ac21 0940 5385 4240
2.0214667 2.938236 1.902033 3.1841898 2.3184488 3.3499057 2.5437303 2.141284
2.4032085 3.3322663 2.6514153 2.6230052 2.4051023 2.3694682 2.9062495 2.361006
2.694488 2.8647916 3.1173863 2.5989833 2.3744705 3.183436 2.5328548 2.9442828
2.2921536 2.3788993 3.524644 2.378498 1.9564793 3.215531 2.1426802 3.0393875

bn3.weight f4 [32]
00000000: 26a6 be3f c9f8 2d3f 77b9 b23f e973 163f
00000010: 830c 9e3f 85c3 ae3f eb91 323f b352 fe3e
00000020: 2a74 853f ebcb 6d3f eb4d 9f3f c65a b73f
00000030: e7de 873f 99c6 d33f 27f8 173f a465 f03e
00000040: 0ee2 e73e 736b 1f3f 9e94 c33f d812 e83f
00000050: 0219 833f 79d7 8f3f 3e92 bd3f 6a89 993f
00000060: ff04 ac3f 5abe 893f bba4 cd3f 8e1e ba3f
00000070: 2106 973f 33ff c83f 531d 743f b6d1 893f
1.4894454 0.6795774 1.3962849 0.58770615 1.2347568 1.3653418 0.69753903 0.4967247
1.0426075 0.9288928 1.2445654 1.4324577 1.0614899 1.6544982 0.59363025 0.46952546
0.45289654 0.6227333 1.5279729 1.8130751 1.0242007 1.1237632 1.4810255 1.199506
1.3439025 1.0761216 1.6065897 1.4540575 1.1798745 1.5702881 0.95357245 1.0767124

bn3.bias f4 [32]
00000000: 2746 b9bf 8f64 bebf 4af7 a4bf 974d 86bf
00000010: 6019 40bf 1186 87bf 1a03 f8bf 7ce1 5fbf
00000020: 1b3c 77bf ba9e 12c0 2566 9bbf 52ca 98bf
00000030: e890 07bf 399e f8bf 28cf a4bf 8e64 c3be
00000040: 8510 e6be 7364 f8bf 8049 83bf 54d5 bfbf
00000050: 1f94 2fbf b227 f9be 9bb9 acbf 9d1c 50bf
00000060: 583a 38bf 2b6c 72bf feea a6bf 4a8d b0bf
00000070: 229d 4dbf ec72 9fbf 81da 42bf 0b35 cebf
-1.4474534 -1.4874438 -1.2887967 -1.0492429 -0.7503872 -1.0587789 -1.9375947 -0.87453437
-0.9657609 -2.290938 -1.2140547 -1.1936743 -0.52955484 -1.9423286 -1.2875719 -0.38162655
-0.44934478 -1.9405655 -1.0256805 -1.4986978 -0.6858539 -0.48663098 -1.3494142 -0.8129366
-0.71964025 -0.946963 -1.3040464 -1.3793118 -0.8031789 -1.2456946 -0.7611466 -1.6109937

bn3.running_mean f4 [32]
00000000: ab60 703f 72ea 7dbf 0f6f c03f 9f09 03c0
00000010: 7aa0 0f3f d23e 4f3e 3ce6 eb3f 8491 d1bf
00000020: 0650 a23f 8831 79bf 4503 e9be 365a 3240
00000030: fa13 163f c8ec 383e 6cbb 353f 8070 853f
00000040: 706b e3be 72a9 2e3f 96ba d43e a7d4 14c0
00000050: 4b4e ff3f 22e3 e93f d538 b23f 621f cabf
00000060: 9fb6 8bbe f239 db3f 08c9 a23f 6e09 b33f
00000070: 822d d73f 7989 17bf 84c1 723f 429b 543f
0.93897504 -0.9918586 1.5033892 -2.0474622 0.5610424 0.20238808 1.8429637 -1.6372533
1.2680671 -0.97341204 -0.45510307 2.786756 0.5862423 0.18059075 0.7098911 1.0424957
-0.44417906 0.68227303 0.41548604 -2.3254793 1.9945768 1.827244 1.3923594 -1.5790827
-0.27287766 1.7127059 1.27176 1.3987253 1.6810763 -0.5919414 0.9482653 0.83049405

bn3.running_var f4 [32]
00000000: 4759 d640 7fb5 eb3f f26e 6941 643a 4040
00000010: 584e ef40 824b 9940 8428 b13f 4b8d ed3f
00000020: dff2 b340 0ef5 ba3f 80d6 c140 cdd6 0541
00000030: 23ca cc40 81a0 1b41 2e0e 8a3f bd41 4840
00000040: 4c69 0340 f76d 953f a401 d740 bb12 ee40
00000050: 369c 1841 3878 e840 03b8 6a41 3596 dc40
00000060: 1ce1 9940 bf2b 0741 ed19 1e41 7c8b 2b41
00000070: 39e5 0b41 e0fb c640 eae5 1641 4be3 8640
6.698398 1.8414763 14.589586 3.003564 7.4783134 4.7904673 1.3840489 1.8558744
5.6233974 1.4606035 6.057434 8.364942 6.399675 9.726686 1.0785577 3.1290123
2.0533018 1.1674184 6.7189503 7.4397864 9.538137 7.264675 14.669925 6.893336
4.808729 8.44818 9.88133 10.721554 8.743463 6.2182465 9.431131 4.2152457

conv4.bias f4 [32]
00000000: 0871 a63e 543c ef3c 7a96 dbbe ba93 0f3e
00000010: c9f2 3abe 7840 66be b607 1f3e 0651 6e3c
00000020: f24d d2be d1b8 d5bc 2143 89be 1b7a cbbd
00000030: 4719 243e 00d0 6dbe 5a30 e03c bfe1 38bd
00000040: e0e6 a13c 95a1 cbbd 945a 08bf 77af 9cbb
00000050: 4c87 933c 1d95 cc3d 6060 f73c 1426 af3c
00000060: 7388 0e3e 3170 bfbe e93b 99be 1850 44be
00000070: cb86 12bf 9030 6bbe b358 84bd e800 2b3d
0.3250811 0.029203571 -0.42888242 0.14021197 -0.18256678 -0.2248553 0.15530285 0.014545685
-0.41075093 -0.026089104 -0.26809028 -0.09935399 0.16025268 -0.23223877 0.027366806 -0.045137163
0.01976341 -0.09942929 -0.5326321 -0.004781659 0.01800885 0.099893786 0.030197322 0.021380462
0.13919239 -0.37390283 -0.2992852 -0.19171178 -0.5723693 -0.22967744 -0.064622305 0.04174891

conv4.weight_orig f4 [32, 32, 3]
00000000: b6bd 523f 2817 5a3e 7278 233f 23dd dbbf
00000010: dd1a e7bf 2906 abbf 7eb0 663f fbcb 033e
00000020: a778 33be a5c1 623f bc88 533e c057 163f
00000030: 8379 113f 681d cbbf 7d1d e1be f754 21bf
00000040: 25c9 d43e 930e 003f 6e23 8a3d 1600 283f
00000050: 91ab 67bf a4af 4d3f ad29 e13e b62c d5be
00000060: 31c6 5c3e f4dc 2abe b21f f0be ee74 57bf
00000070: 0af7 2dbf e276 a03f 994c 193f 8047 48bd
00000080: 880f e53c 11d3 d63f 4a55 a53f 0331 abbd
00000090: 6c90 f9bd 2d35 2c3f ac60 26bf 19f9 41bf
000000a0: 1997 afbf 0181 753f 3be9 a9bd e7a9 c83e
000000b0: 7c78 c8bf 20c4 e5be 5858 abbf 8874 9ebe
000000c0: ed99 ecbd 05f3 bb3f 6f3f 46bf c036 773f
000000d0: 8ada f8be b752 933f feb2 51bf 73f0 c3bd
000000e0: 52e1 91bf 8910 5b3e 0bd8 a13f 111c afbe
000000f0: c69b c83d de8b 9e3e 059f a43f 630f b43d
00000100: 1c78 263f ce7d a5bf a7cb 49be 8b47 283f
00000110: 7990 f2bd 0238 2dbf f55b d3bc e1d4 4b3f
00000120: 415c e33d 908e 823e e003 dabe 2c34 0abf
00000130: 92be af3f b744 54be 3c18 33bf 28c1 39bf
00000140: 9287 a3be 09b5 1440 ec4d 11bf 124a 1d3f
00000150: 9be3 75bf 8416 653f c119 983f 66c9 2640
00000160: 78f0 69bf df2b a23f 48ed 7ebf 4373 4f3e
00000170: 42ec a73c abd1 a8bf fa20 aebf 86b5 333e
00000180: deb8 ad3e 17cd bc3f 5f4f a8be 997d 45bd
00000190: 2ce0 d73f 5224 9c3d 3a2f c73f 4d4b a4be
000001a0: d69d 3e3e b234 76bf 87ac 8ebe ccc4 0840
000001b0: 506d 973f 3702 3e3d fc48 32bd 10fb 123f
000001c0: cc87 94be 6915 173f f18e 933f cc52 fc3d
000001d0: e1f9 103f 970c 69bf ebae 94bf 3d6e 813f
000001e0: b8b1 11bf da1a 24be 819a 15bd ee9f ee3e
000001f0: b755 08bf f06f 53bf b3fd 783f dcac 07bf
00000200: f472 87bf c87c 0240 b859 51bc 31ff 1fbf
00000210: 55bd cfbf 6f7c 433f f6b5 943f 5c59 433f
00000220: 609e 843f ac5c 65bf 076e 3ebf b6a6 f43e
00000230: fc3a 523f 030f a7bb fa4c 8d3e 8218 86bf
00000240: bfc6 a53e 3f48 1d3f fc9a fdbf 6f78 ff3e
00000250: 1b0a 7abe 5170 1d3e 72f4 20bf 447c 84bd
00000260: fd83 963f 762f a13f d129 953e 960b 19c0
00000270: a617 083f 5267 52bf 05bc 323d adc1 a6bf
00000280: 7e7b 7a3e e00f d7be a32a b5bf 9f31 a4be
00000290: 898e 2bbf a1c2 47bf bc6f cb3f b85a a1bf
000002a0: 4ba5 94bf ffa9 e7be 92fb 293f 8f8c 22bd
000002b0: a143 573f c176 1c3f 7576 5c3e 6bcb 88be
000002c0: 0c01 2b3f b9d7 003f 0f2b d9bf 2771 d43d
000002d0: d227 a13f fa60 fabe c4d1 d4bc d435 bcbe
000002e0: f6cf 853e fd4a 83bf e8aa 2fbf b57e e3be
000002f0: 7187 5b3e 869d 173e cafa bbbe 03a3 ae3f
00000300: 269b ad3f d398 0cbf e96a 30bf 3ffc f6be
00000310: 4f5f 483f e8a2 1c3f e255 adbf 851c f53d
00000320: 05eb e4be ff89 83be ac78 093e 7263 cabf
00000330: 2ff7 46bf 93c6 453f 4ddc fb3c 628a 1d3e
00000340: b51f f6bf 13a0 9c3f 6bf3 dd3e dbe5 0e3e
00000350: 80f4 1a40 dcdb 6d3f 2872 653e d15f 4f3d
00000360: 7764 24bf 9cdb 3a3f ef4b 92bf a811 e63e
00000370: a92c 733f a22c 5dbe ddf3 0ebf 3775 24bf
00000380: 9081 db3f 2816 db3f b3fe a53f d1eb 01bf
00000390: de51 403f 21bc 633e 7a63 5fbf ac4e 88bf
000003a0: bd02 963f 8503 313f 6105 9ebf 1e3f c0be
000003b0: 57fb 193f 0d8b 23bf bf33 933d ca53 a1bb
000003c0: e1ab 683f 56a6 a8be 277b 91bf 9614 463d
000003d0: 3140 1d3e d5a6 5a3f 01e8 a33e 065e ce3f
000003e0: a952 06c0 a710 103f 4352 ddbe 84b4 ce3b
000003f0: a10e c13e d35d f63d 29e5 3abf 2031 5f3f
0.82320726 0.21297896 0.6385566 -1.717686 -1.8055073 -1.3361255 0.90113056 0.12870781
-0.17526494 0.8857673 0.20657629 0.58727646 0.5682604 -1.5868349 -0.4396781 -0.6302027
0.4155971 0.5002224 0.06745039 0.6562513 -0.90496165 0.8034613 0.4397711 -0.41635674
0.21559979 -0.1668585 -0.46899182 -0.84162796 -0.67955077 1.253628 0.59882504 -0.048896313
0.027961507 1.6783162 1.2916653 -0.083589576 -0.121857494 0.6726864 -0.6499126 -0.7577072
-1.3717986 0.9589997 -0.08296438 0.39192125 -1.5661769 -0.44876194 -1.3386335 -0.3094828
-0.115527965 1.4683539 -0.7744054 0.96567917 -0.48604232 1.1509618 -0.81913745 -0.095673464
-1.1396887 0.21393026 1.2644056 -0.342011 0.097953364 0.30966085 1.2861029 0.08791997
0.6502702 -1.2929018 -0.19706593 0.65734166 -0.11843962 -0.67663586 -0.025800684 0.796217
0.111015804 0.25499392 -0.4258108 -0.5398586 1.3730032 -0.20729338 -0.69958854 -0.7256036
-0.3193937 2.3235495 -0.56759524 0.6144115 -0.96050423 0.8948748 1.188286 2.6060424
-0.9138255 1.2669638 -0.9958081 0.20258813 0.020498399 -1.3188986 -1.3603814 0.17549714
0.33930105 1.4750088 -0.32873055 -0.048215482 1.6865287 0.07624115 1.5561287 -0.320887
0.18614897 -0.96174157 -0.27866003 2.1370115 1.1830235 0.04638883 -0.043526635 0.5741434
-0.29009855 0.59017044 1.1527997 0.1232048 0.56631285 -0.91034836 -1.1615881 1.0111767
-0.569118 -0.16025868 -0.0365243 0.46606392 -0.5325579 -0.8259268 0.97262114 -0.5299814
-1.0581956 2.038866 -0.012777738 -0.62498766 -1.6229655 0.76361746 1.161803 0.76308227
1.0360832 -0.8959453 -0.7438664 0.4778344 0.82121253 -0.005098225 0.2759779 -1.0476229
0.32378194 0.61438364 -1.9812922 0.4989657 -0.24417917 0.15374877 -0.62872994 -0.06469014
1.175903 1.2592609 0.29133466 -2.3913321 0.53161085 -0.82188904 0.04363634 -1.3027855
0.24461171 -0.420043 -1.4153637 -0.32069108 -0.67014366 -0.78031355 1.5893474 -1.260581
-1.1612943 -0.45246884 0.6639949 -0.03968483 0.8408757 0.61118704 0.21529563 -0.26717696
0.6679847 0.50329167 -1.6966265 0.103731446 1.2590277 -0.48902112 -0.02597893 -0.36759818
0.26135224 -1.025726 -0.6862016 -0.44432607 0.21438386 0.14806184 -0.36714774 1.3643497
1.3562973 -0.5492069 -0.6891313 -0.48239323 0.7827043 0.61186075 -1.3541834 0.1196833
-0.44710556 -0.2569122 0.13424939 -1.5811598 -0.7772092 0.77256125 0.030744696 0.1538482
-1.9228426 1.2236351 0.43349776 0.1395487 2.421173 0.92913604 0.22406828 0.050628487
-0.642158 0.7299135 -1.1429423 0.44935346 0.9499002 -0.21599057 -0.55840856 -0.64241356
1.7148914 1.7116137 1.2968353 -0.5075045 0.7512492 0.22239734 -0.87261164 -1.0649009
1.1719586 0.69145995 -1.2345392 -0.37548155 0.6014914 -0.6388405 0.07187604 -0.0049233185
0.90887266 -0.32939404 -1.1365708 0.048359476 0.15356518 0.85410815 0.32012942 1.6122444
-2.0987952 0.5627541 -0.43226823 0.0063081402 0.37706473 0.12029614 -0.7300592 0.87184334

conv4.weight_mask f4 [32, 32, 3]
00000000: 0000 803f 0000 803f 0000 803f 0000 803f
00000010: 0000 803f 0000 803f 0000 803f 0000 803f
00000020: 0000 803f 0000 803f 0000 803f 0000 803f
00000030: 0000 803f 0000 803f 0000 803f 0000 803f
00000040: 0000 803f 0000 803f 0000 803f 0000 803f
00000050: 0000 803f 0000 803f 0000 803f 0000 803f
00000060: 0000 803f 0000 803f 0000 803f 0000 803f
00000070: 0000 803f 0000 803f 0000 803f 0000 803f
00000080: 0000 803f 0000 803f 0000 803f 0000 803f
00000090: 0000 803f 0000 803f 0000 803f 0000 803f
000000a0: 0000 803f 0000 803f 0000 803f 0000 803f
000000b0: 0000 803f 0000 803f 0000 803f 0000 803f
000000c0: 0000 803f 0000 803f 0000 803f 0000 803f
000000d0: 0000 803f 0000 803f 0000 803f 0000 803f
000000e0: 0000 803f 0000 803f 0000 803f 0000 803f
000000f0: 0000 803f 0000 803f 0000 803f 0000 803f
00000100: 0000 803f 0000 803f 0000 803f 0000 803f
00000110: 0000 803f 0000 803f 0000 803f 0000 803f
00000120: 0000 803f 0000 803f 0000 803f 0000 803f
00000130: 0000 803f 0000 803f 0000 803f 0000 803f
00000140: 0000 803f 0000 803f 0000 803f 0000 803f
00000150: 0000 803f 0000 803f 0000 803f 0000 803f
00000160: 0000 803f 0000 803f 0000 803f 0000 803f
00000170: 0000 803f 0000 803f 0000 803f 0000 803f
00000180: 0000 803f 0000 803f 0000 803f 0000 803f
00000190: 0000 803f 0000 803f 0000 803f 0000 803f
000001a0: 0000 803f 0000 803f 0000 803f 0000 803f
000001b0: 0000 803f 0000 803f 0000 803f 0000 803f
000001c0: 0000 803f 0000 803f 0000 803f 0000 803f
000001d0: 0000 803f 0000 803f 0000 803f 0000 803f
000001e0: 0000 803f 0000 803f 0000 803f 0000 803f
000001f0: 0000 803f 0000 803f 0000 803f 0000 803f
00000200: 0000 803f 0000 803f 0000 803f 0000 803f
00000210: 0000 803f 0000 803f 0000 803f 0000 803f
00000220: 0000 803f 0000 803f 0000 803f 0000 803f
00000230: 0000 803f 0000 803f 0000 803f 0000 803f
00000240: 0000 803f 0000 803f 0000 803f 0000 803f
00000250: 0000 803f 0000 803f 0000 803f 0000 803f
00000260: 0000 803f 0000 803f 0000 803f 0000 803f
00000270: 0000 803f 0000 803f 0000 803f 0000 803f
00000280: 0000 803f 0000 803f 0000 803f 0000 803f
00000290: 0000 803f 0000 803f 0000 803f 0000 803f
000002a0: 0000 803f 0000 803f 0000 803f 0000 803f
000002b0: 0000 803f 0000 803f 0000 803f 0000 803f
000002c0: 0000 803f 0000 803f 0000 803f 0000 803f
000002d0: 0000 803f 0000 803f 0000 803f 0000 803f
000002e0: 0000 803f 0000 803f 0000 803f 0000 803f
000002f0: 0000 803f 0000 803f 0000 803f 0000 803f
00000300: 0000 803f 0000 803f 0000 803f 0000 803f
00000310: 0000 803f 0000 803f 0000 803f 0000 803f
00000320: 0000 803f 0000 803f 0000 803f 0000 803f
00000330: 0000 803f 0000 803f 0000 803f 0000 803f
00000340: 0000 803f 0000 803f 0000 803f 0000 803f
00000350: 0000 803f 0000 803f 0000 803f 0000 803f
00000360: 0000 803f 0000 803f 0000 803f 0000 803f
00000370: 0000 803f 0000 803f 0000 803f 0000 803f
00000380: 0000 803f 0000 803f 0000 803f 0000 803f
00000390: 0000 803f 0000 803f 0000 803f 0000 803f
000003a0: 0000 803f 0000 803f 0000 803f 0000 803f
000003b0: 0000 803f 0000 803f 0000 803f 0000 803f
000003c0: 0000 803f 0000 803f 0000 803f 0000 803f
000003d0: 0000 803f 0000 803f 0000 803f 0000 803f
000003e0: 0000 803f 0000 803f 0000 803f 0000 803f
000003f0: 0000 803f 0000 803f 0000 803f 0000 803f
1.0 1.0 1.0 1.0 1.0 1.0 1.0 1.0
1.0 1.0 1.0 1.0 1.0 1.0 1.0 1.0
1.0 1.0 1.0 1.0 1.0 1.0 1.0 1.0
1.0 1.0 1.0 1.0 1.0 1.0 1.0 1.0
1.0 1.0 1.0 1.0 1.0 1.0 1.0 1.0
1.0 1.0 1.0 1.0 1.0 1.0 1.0 1.0
1.0 1.0 1.0 1.0 1.0 1.0 1.0 1.0
1.0 1.0 1.0 1.0 1.0 1.0 1.0 1.0
1.0 1.0 1.0 1.0 1.0 1.0 1.0 1.0
1.0 1.0 1.0 1.0 1.0 1.0 1.0 1.0
1.0 1.0 1.0 1.0 1.0 1.0 1.0 1.0
1.0 1.0 1.0 1.0 1.0 1.0 1.0 1.0
1.0 1.0 1.0 1.0 1.0 1.0 1.0 1.0
1.0 1.0 1.0 1.0 1.0 1.0 1.0 1.0
1.0 1.0 1.0 1.0 1.0 1.0 1.0 1.0
1.0 1.0 1.0 1.0 1.0 1.0 1.0 1.0
1.0 1.0 1.0 1.0 1.0 1.0 1.0 1.0
1.0 1.0 1.0 1.0 1.0 1.0 1.0 1.0
1.0 1.0 1.0 1.0 1.0 1.0 1.0 1.0
1.0 1.0 1.0 1.0 1.0 1.0 1.0 1.0
1.0 1.0 1.0 1.0 1.0 1.0 1.0 1.0
1.0 1.0 1.0 1.0 1.0 1.0 1.0 1.0
1.0 1.0 1.0 1.0 1.0 1.0 1.0 1.0
1.0 1.0 1.0 1.0 1.0 1.0 1.0 1.0
1.0 1.0 1.0 1.0 1.0 1.0 1.0 1.0
1.0 1.0 1.0 1.0 1.0 1.0 1.0 1.0
1.0 1.0 1.0 1.0 1.0 1.0 1.0 1.0
1.0 1.0 1.0 1.0 1.0 1.0 1.0 1.0
1.0 1.0 1.0 1.0 1.0 1.0 1.0 1.0
1.0 1.0 1.0 1.0 1.0 1.0 1.0 1.0
1.0 1.0 1.0 1.0 1.0 1.0 1.0 1.0
1.0 1.0 1.0 1.0 1.0 1.0 1.0 1.0

conv4._weight_quantizer._amax f4 [32, 1, 1]
00000000: 155a 2740 f50a 1940 7830 3240 0918 3b40
00000010: ff7d 7e40 4bec 0340 6c50 1740 d9ba 3340
00000020: 889a 4240 5864 3740 a5af 0740 8f13 2d40
00000030: 88b3 2140 1f35 5d40 13d5 6c40 ee52 1b40
00000040: 4fc1 0440 cd3a 2940 676d 1f40 c134 0c40
00000050: cf16 0640 631e 3c40 92a6 1e40 b144 1840
00000060: 8f89 0540 3070 0340 da32 5b40 0c5a 2640
00000070: 1469 0340 439e 1c40 ab21 1840 5f39 2b40
2.6148732 2.3912938 2.7842083 2.923342 3.9764402 2.0612972 2.3642836 2.8082793
3.0406818 2.8654995 2.1200955 2.7043188 2.5265827 3.4563673 3.700505 2.4269366
2.0742986 2.644214 2.4910524 2.1907198 2.0951421 2.9393547 2.4789166 2.3791926
2.086521 2.0537224 3.4249787 2.599246 2.0532885 2.4471595 2.377055 2.6753767

bn4.weight f4 [32]
00000000: e05f a040 f1ca cf40 5979 6040 4f20 aa40
00000010: a759 c040 a008 b040 fd17 a740 d9c7 bd40
00000020: f8f6 b840 b523 c040 49b8 8540 4d68 a940
00000030: 3971 b740 8681 c040 ffd4 9d40 4a75 c640
00000040: 4b7a da40 17a2 ba40 02af c940 b8c2 b340
00000050: 2e57 8b40 7c83 bf40 52d1 a340 bcfd ba40
00000060: ff8f 8f40 17f0 b640 d531 aa40 726a ab40
00000070: 439e c840 fa2c ab40 8da7 ad40 e2d1 bb40
5.0117035 6.493523 3.5074065 5.316444 6.010944 5.501053 5.2216783 5.9306455
5.7801476 6.004359 4.1787457 5.293982 5.732571 6.015811 4.9322505 6.2018175
6.8274283 5.8322864 6.3026133 5.6175194 4.354392 5.9848003 5.119302 5.8434734
4.4863276 5.716808 5.318583 5.356744 6.269319 5.3492403 5.426703 5.8693705

bn4.bias f4 [32]
00000000: 457b 43c0 774d 31c0 7c2b 38bd 7105 0bc0
00000010: 094b d4bf aabd 4ec0 2f09 44c0 b1c8 a5c0
00000020: 0e07 4bc0 f24d a4bf 8fa7 25c0 9a0f 6ac0
00000030: 90be b8bf e878 1dc0 a424 fabf be19 79c0
00000040: dd0c 44c0 5dce 85c0 1cff 97be 90d7 6fbf
00000050: 3b5a 26bf a02c c3bf 9015 35bf 1c19 68c0
00000060: 1c03 9fbf a628 48c0 e51f 8ac0 2ee6 4cc0
00000070: b703 3dc0 8785 92c0 f6d3 2ac0 8b61 73c0
-3.0543988 -2.770353 -0.044963345 -2.172207 -1.6585399 -3.2303262 -3.0630605 -5.1807485
-3.1723056 -1.2836287 -2.588352 -3.6572022 -1.4433155 -2.4605045 -1.9542432 -3.8921962
-3.063285 -4.181441 -0.2968682 -0.936883 -0.6498143 -1.5247993 -0.70736027 -3.6265326
-1.2422824 -3.127481 -4.3163934 -3.201549 -2.9533517 -4.5787997 -2.669187 -3.8028286

bn4.running_mean f4 [32]
00000000: 4add 99bd 65d5 9fbe f4cd 72be 4940 863e
00000010: 6c89 b7bd 635c 1bbf cc1e 18be 1d18 32bf
00000020: 1908 50bf f591 4ebc b7ac 8a3e 2976 2b3d
00000030: 190e 19bd a68a cbbe 7939 fa3e a4be 04bf
00000040: ae85 51be 95e5 af3d b99a 4abf 707a 39bd
00000050: 4cdf 20be 900e a7be 76e5 cbbd 9ef5 dbbe
00000060: 9f70 c2bd e3c6 21be 044a c4bd 24b4 2dbf
00000070: a956 84bf eaf9 a8be 1d35 a6be c3f5 b23e
-0.07512911 -0.31217495 -0.23711377 0.2622092 -0.08961758 -0.60687846 -0.14855498 -0.69568044
-0.81262356 -0.012608041 0.27084896 0.041860733 -0.03736696 -0.39754218 0.48871973 -0.51853395
-0.20461151 0.08588711 -0.7914234 -0.04528278 -0.15710181 -0.32628298 -0.099558756 -0.4296083
-0.09494137 -0.15798526 -0.0958443 -0.67853 -1.0338947 -0.3300317 -0.32462397 0.34953126

bn4.running_var f4 [32]
00000000: 5c65 943f 3d4d 883f 40e3 fb3f 54f6 ae3f
00000010: 7a19 963f 057c 8e3f 6701 813f bfd8 af3f
00000020: eca6 763f 47f4 cd3f 63ae 9f3f 1007 463f
00000030: 3aea 7f3f 8f50 0d40 8a70 853f a496 e83f
00000040: 3a77 cb3f 3756 833f 1e9d f73f 6e0b a83f
00000050: 3624 9f3f f625 503f b6b1 b53f 4cfc 843f
00000060: 7fde 8b3f e564 b03f 6e58 bb3f 9ec9 7f3f
00000070: fd99 ca3f 948c ac3f 5bbf c43f 3651 e43f
1.1593432 1.0648571 1.9678726 1.3668923 1.1726525 1.1131598 1.0078553 1.3738021
0.9634845 1.6090173 1.2475094 0.77354527 0.99966776 2.208042 1.0424969 1.8170972
1.589576 1.0260686 1.9344823 1.3128488 1.2432926 0.81307924 1.4194858 1.0389495
1.0927275 1.378079 1.4636362 0.9991702 1.5828243 1.3480401 1.5370897 1.7837284

conv5.bias f4 [16]
00000000: 3750 523f 0704 f23e 602a 07bf 8fcb 933e
00000010: 3a68 92bc 42d0 23c0 ea10 efbf 7544 a53e
00000020: 4996 cd3e d25c 86bf dbb3 1e3f d1fc acbf
00000030: 164c 52bf b199 263f 89b9 2e3f fcbb b2bf
0.8215365 0.47268698 -0.52799034 0.2886624 -0.017871965 -2.559586 -1.8677037 0.3227879
0.4015372 -1.0497077 0.6199319 -1.3514653 -0.8214735 0.65078264 0.68251854 -1.3963618
