networks/quantized_models/iscx2016vpn/model.onnx (onnx, 37425 bytes, 26 tensors)

conv1.bias f4 [16]
0	0x3fd194fe	1.6373594
1	0x3fdfd60e	1.7487199
2	0x3defcb76	0.11708729
3	0xbf76030c	-0.960984
4	0xbd905e14	-0.07049194
5	0x3f4f8990	0.8106928
6	0xbb5128d9	-0.0031915216
7	0xbf450a10	-0.7696848
8	0xbfe7c091	-1.8105642
9	0xc00a880b	-2.1645534
10	0x3ff19043	1.887215
11	0xbf2c07bf	-0.6719932
12	0xbef08788	-0.46978402
13	0x3f26f1e4	0.65212846
14	0xbf209b69	-0.6273714
15	0x3d2f237d	0.042758454

conv1.weight f4 [16, 1, 3]
0	0xbfbaaf8d	-1.4584824
1	0xbeb9af94	-0.36266768
2	0xbfbab651	-1.4586889
3	0x3ef5e216	0.48024052
4	0x4006752b	2.1009014
5	0xbee86596	-0.45390004
6	0xbf0fb6df	-0.56138414
7	0x400b115d	2.1729348
8	0xbcd7593c	-0.026287667
9	0x3f933ae9	1.1502353
10	0xbe63248d	-0.22181912
11	0x3f92a81e	1.1457555
12	0x3f2cce1b	0.6750199
13	0x3f08eb40	0.53483963
14	0x4001019c	2.0157232
15	0x3f361a1b	0.71133584
16	0xbe7f2dd8	-0.24919832
17	0xc006f99a	-2.1089845
18	0x3eae568d	0.34050408
19	0xc022fa3f	-2.5465238
20	0xbfb4f334	-1.413672
21	0x3fe856fb	1.8151544
22	0x3f09dbed	0.53851205
23	0xbeb7e0dd	-0.35913745
24	0xc01a18b3	-2.4077575
25	0x3edc154f	0.42985007
26	0x3dd747a7	0.105117135
27	0xbe2f2edd	-0.1710772
28	0xbfd4287f	-1.6574858
29	0xc006bd98	-2.105322
30	0x3f514c54	0.8175709
31	0xbfaf3700	-1.368866
32	0xbf2cf579	-0.6756206
33	0x3e6da380	0.23206902
34	0xc0b2fa54	-5.5930576
35	0x3e973c0c	0.29538
36	0x3f0fab06	0.56120336
37	0x3e11012f	0.14160608
38	0xbfcafe41	-1.5858842
39	0xbfcf4ba3	-1.6194957
40	0x3f339ed1	0.7016421
41	0xbf2b5988	-0.6693349
42	0xbfbbef4c	-1.4682403
43	0x3f705987	0.9388661
44	0x3c4374e8	0.011929728
45	0xbe9f3e9d	-0.31102458
46	0x3f4673b5	0.77520305
47	0xbfbf0e59	-1.4926254

bn1.weight f4 [16]
0	0x40354baa	2.8327432
1	0x3f4149b0	0.75503063
2	0x3f3c114d	0.734639
3	0x3f429011	0.7600108
4	0x3f4a5e1e	0.7904986
5	0x3ffc360c	1.9703994
6	0x4038f772	2.8901029
7	0x3f39d451	0.72589594
8	0x40276645	2.615617
9	0x3ffbb16f	1.9663523
10	0x3fac71f0	1.3472271
11	0x403d5ccc	2.9587889
12	0x3f1eff3d	0.6210821
13	0x3f94ab8e	1.1614854
14	0x3f5e46bf	0.868267
15	0x3f59d388	0.85088396

bn1.bias f4 [16]
0	0xbf255b86	-0.6459278
1	0xbf3b9618	-0.732759
2	0xbee20ed8	-0.4415195
3	0x3f2056bc	0.62632346
4	0xbf09aa43	-0.53775424
5	0xbf6bfd39	-0.9218326
6	0xbfa902d8	-1.3203993
7	0xbe8bcac2	-0.2730313
8	0xbff0dcaa	-1.8817341
9	0x3e316633	0.17324142
10	0xbf695af7	-0.91154426
11	0xbdde7502	-0.10862161
12	0x3fe679f2	1.8005965
13	0xbeb5180f	-0.35369918
14	0xbe1ab6b4	-0.15108758
15	0x3f3a502f	0.727786

bn1.running_mean f4 [16]
0	0x3f8a5baf	1.080923
1	0x40071032	2.1103635
2	0x3ec5808f	0.38574645
3	0xbf1c8476	-0.6113962
4	0x3ef44105	0.47705856
5	0x3f084733	0.5323364
6	0xbf1de4ee	-0.61677444
7	0xbedc95c3	-0.4308301
8	0xc0084340	-2.1291046
9	0xc0352e56	-2.8309531
10	0x3fd6e414	1.6788354
11	0xbfc40379	-1.531356
12	0xbf1ebbde	-0.6200541
13	0x3ec4cc2b	0.38437018
14	0xbf36e99b	-0.71450204
15	0xbe0689db	-0.13138525

bn1.running_var f4 [16]
0	0x3f36bc21	0.7138081
1	0x3ec72101	0.38892367
2	0x3e9133b8	0.2835977
3	0x3e9e33f3	0.3089901
4	0x3f351800	0.70739746
5	0x3e95f3f8	0.29287696
6	0x3f76ad2f	0.9635801
7	0x3ea6cbdf	0.32577416
8	0x3ebbb08b	0.3665813
9	0x3f867936	1.0505741
10	0x3e2de9fc	0.16983789
11	0x40142248	2.3145924
12	0x3e010523	0.12599616
13	0x3e74f4ec	0.23921555
14	0x3dd2abed	0.102866985
15	0x3e113688	0.14180958

conv2.bias f4 [16]
0	0xbe9cafa5	-0.30602756
1	0x3ede4975	0.43415418
2	0x3f9ca79b	1.2238649
3	0xbf168382	-0.58794415
4	0xbf8d87d9	-1.1057082
5	0x3c1dbb0f	0.009627118
6	0x3f1b02a6	0.60550916
7	0xbd6cff57	-0.0578607
8	0x3f197a0c	0.59951854
9	0x3ef181f3	0.47169456
10	0x3f478dd6	0.779508
11	0xbefd5bf0	-0.49484205
12	0xbe8c53f8	-0.27407813
13	0xbe6f5d79	-0.233755
14	0x3f824eb1	1.0180265
15	0x3f419fd3	0.756345

conv2.weight f4 [16, 16, 3]
0	0x3fbcb117	1.4741544
1	0xbde95d34	-0.1139473
2	0x3c2f4281	0.010697008
3	0xbfc4ccfb	-1.5375055
4	0xbf35e1fa	-0.7104794
5	0xbe30bad5	-0.17258771
6	0xbddab20b	-0.1067849
7	0x3f1d2350	0.6138201
8	0xbe739131	-0.23785855
9	0xbfb324f4	-1.3995652
10	0x3fdc2c1a	1.7200959
11	0xbdc51529	-0.096231766
12	0xbeeb40ee	-0.45947975
13	0xbd6a773b	-0.057242613
14	0x3f482411	0.7818003
15	0xbfc3a18f	-1.5283679
16	0xbf3803fa	-0.7188107
17	0xbed09c7f	-0.40744397
18	0xc03b0bcc	-2.922595
19	0x3f82a0b5	1.0205294
20	0x3ec82ff6	0.3909909
21	0x3f403907	0.75087017
22	0xbf37aabd	-0.717449
23	0xbf493b2b	-0.7860591
24	0xbf874973	-1.056929
25	0xbedddab7	-0.4333093
26	0x3d175ab9	0.036951754
27	0x3f94d2c8	1.1626825
28	0x400f23ed	2.2365677
29	0x3e5629e6	0.2091442
30	0x3f9528ea	1.1653111
31	0x3e25661d	0.16152234
32	0xbef8a935	-0.48566595
33	0x3fa54fc2	1.2914965
34	0x3cdd45ae	0.027010765
35	0xbdd823fa	-0.10553737
36	0xbf4df5ed	-0.8045338
37	0x3f64a9c7	0.8932156
38	0x3f89c724	1.0763898
39	0xbfb1c760	-1.388897
40	0x3eb3617c	0.35035312
41	0x3f222b17	0.63347
42	0xc06364bd	-3.5530236
43	0xbe812a77	-0.2522771
44	0x3fce3ec2	1.6112902
45	0xbdb80f20	-0.0898726
46	0xbfa5db13	-1.2957481
47	0xbf77598a	-0.96621
48	0x3a91d8ae	0.0011127198
49	0x3f8428de	1.0324972
50	0x3dbba2c3	0.09161904
51	0x3f288e40	0.65842056
52	0xbe7ecda3	-0.24883132
53	0xbf5b9e82	-0.8578874
54	0x3e637aca	0.22214809
55	0xbfa8f7c5	-1.3200613
56	0x3f5dd34c	0.8665054
57	0xbfe6134c	-1.7974639
58	0x3f5c32cd	0.86015016
59	0xbf01d0b8	-0.50709105
60	0xbe8d9637	-0.27653667
61	0xbe703349	-0.23457064
62	0xbe3e0445	-0.18556316
63	0x3e38297e	0.17984578
64	0x3f4cfe2c	0.80075336
65	0xbe89de70	-0.2692752
66	0x3e187d01	0.14891435
67	0x3f2ca9e3	0.67446727
68	0x3f628edd	0.8849924
69	0xbf39068e	-0.72275627
70	0xbfa4788d	-1.2849289
71	0xbe8e2a7d	-0.2776679
72	0xbed9a248	-0.42506623
73	0xbf89765c	-1.0739245
74	0xc0659990	-3.5874977
75	0xbf526c3f	-0.8219642
76	0x3f0752ea	0.5286089
77	0xbf1fb963	-0.6239225
78	0xbf013a15	-0.5047925
79	0xbfb4b875	-1.4118792
80	0xbe49b053	-0.19696169
81	0xbeb25d28	-0.34836698
82	0xbf5381af	-0.82619756
83	0xbd9b09c4	-0.07570222
84	0xbf6e5e55	-0.9311269
85	0x3f4eab44	0.8073008
86	0xbe22f319	-0.15913047
87	0x3fef35de	1.8688314
88	0x3fa623b7	1.2979649
89	0xbea6086a	-0.32428294
90	0x3ec960eb	0.39331755
91	0x3fe88d7c	1.8168178
92	0xbec6b0c2	-0.3880673
93	0xbfb17093	-1.386248
94	0xbfc0b538	-1.5055304
95	0xbe039cf8	-0.12852848
96	0x00000000	0.0
97	0x00000000	0.0
98	0x00000000	0.0
99	0x00000000	0.0
100	0x00000000	0.0
101	0x80000000	-0.0
102	0x00000000	0.0
103	0x80000000	-0.0
104	0x00000000	0.0
105	0x80000000	-0.0
106	0x00000000	0.0
107	0x00000000	0.0
108	0x80000000	-0.0
109	0x00000000	0.0
110	0x00000000	0.0
111	0x00000000	0.0
112	0x80000000	-0.0
113	0x00000000	0.0
114	0x00000000	0.0
115	0x00000000	0.0
116	0x80000000	-0.0
117	0x80000000	-0.0
118	0x80000000	-0.0
119	0x80000000	-0.0
120	0x00000000	0.0
121	0x80000000	-0.0
122	0x80000000	-0.0
123	0x00000000	0.0
124	0x00000000	0.0
125	0x00000000	0.0
126	0x80000000	-0.0
127	0x00000000	0.0
128	0x00000000	0.0
129	0x00000000	0.0
130	0x00000000	0.0
131	0x00000000	0.0
132	0x00000000	0.0
133	0x80000000	-0.0
134	0x80000000	-0.0
135	0x00000000	0.0
136	0x80000000	-0.0
137	0x00000000	0.0
138	0x00000000	0.0
139	0x00000000	0.0
140	0x00000000	0.0
141	0x80000000	-0.0
142	0x80000000	-0.0
143	0x00000000	0.0
144	0x80000000	-0.0
145	0x80000000	-0.0
146	0x00000000	0.0
147	0x80000000	-0.0
148	0x00000000	0.0
149	0x80000000	-0.0
150	0x80000000	-0.0
151	0x80000000	-0.0
152	0x80000000	-0.0
153	0x80000000	-0.0
154	0x80000000	-0.0
155	0x00000000	0.0
156	0x00000000	0.0
157	0x00000000	0.0
158	0x80000000	-0.0
159	0x80000000	-0.0
160	0x00000000	0.0
161	0x00000000	0.0
162	0x80000000	-0.0
163	0x00000000	0.0
164	0x00000000	0.0
165	0x00000000	0.0
166	0x80000000	-0.0
167	0x00000000	0.0
168	0x80000000	-0.0
169	0x00000000	0.0
170	0x80000000	-0.0
171	0x80000000	-0.0
172	0x00000000	0.0
173	0x00000000	0.0
174	0x80000000	-0.0
175	0x00000000	0.0
176	0x80000000	-0.0
177	0x00000000	0.0
178	0x80000000	-0.0
179	0x00000000	0.0
180	0x80000000	-0.0
181	0x00000000	0.0
182	0x00000000	0.0
183	0x00000000	0.0
184	0x00000000	0.0
185	0x80000000	-0.0
186	0x00000000	0.0
187	0x80000000	-0.0
188	0x00000000	0.0
189	0x00000000	0.0
190	0x80000000	-0.0
191	0x80000000	-0.0
192	0x4030e086	2.7637038
193	0x3fb9e5db	1.4523271
194	0xbec1f477	-0.37881824
195	0xbdda0a22	-0.10646464
196	0xbe690409	-0.22755446
197	0xbe84893b	-0.2588595
198	0xbf1d3469	-0.61408097
199	0x3eb9720d	0.36219826
200	0xbf2fab26	-0.68620527
201	0xbf63f898	-0.890512
202	0xbff4a2ff	-1.9112242
203	0x3f15ac0c	0.5846565
204	0x3f167493	0.5877163
205	0xbf44ae82	-0.7682878
206	0x3ef24b6f	0.47323176
207	0xbecb83aa	-0.3974889
208	0x3dbb1604	0.091350585
209	0xbf0a2d93	-0.5397579
210	0xbd79f69d	-0.061026204
211	0x40052756	2.0805259
212	0x3f408eb8	0.7521777
213	0x3d0f2977	0.034951653
214	0xbdba4db4	-0.09096852
215	0x3fb5fe9c	1.4218326
216	0x3e6de792	0.23232868
217	0xbeda6036	-0.42651528
218	0xc030db5b	-2.7633884
219	0x3e0180d7	0.12646805
220	0x3f9de1b8	1.2334509
221	0xbf187a50	-0.59561634
222	0x3e11e8c1	0.14248945
223	0x3f27cc87	0.6554646
224	0xbe181582	-0.14851955
225	0x3f0a02e0	0.53910637
226	0x3f47933e	0.7795905
227	0xbeea5271	-0.45766023
228	0x3e9a4195	0.3012816
229	0xbe3a294c	-0.18179816
230	0x3e707f68	0.23486102
231	0xbf8a1783	-1.0788425
232	0xbfa82a9e	-1.3138006
233	0xbfaeb4d0	-1.364893
234	0xc030dc99	-2.7634642
235	0x3f14b21d	0.5808428
236	0x3ec3712a	0.38172275
237	0x3f239e92	0.63913834
238	0x3ee5e807	0.44903585
239	0x3e0526f9	0.13003148
240	0xbf05b746	-0.5223278
241	0xbf00b6dc	-0.5027902
242	0x3f6692c9	0.90067726
243	0xbcbcb3c4	-0.023034938
244	0xbd72fc38	-0.059322566
245	0x3f4ef020	0.8083515
246	0x3f423508	0.7586217
247	0xbe3f0c2c	-0.18656987
248	0xbf9c516f	-1.2212352
249	0xbe390eee	-0.18072101
250	0x3f178d69	0.5920015
251	0x3dce5eb2	0.100766554
252	0x3d8c495b	0.06849929
253	0xbead93bc	-0.33901775
254	0xbf23306d	-0.63745767
255	0xbe3db30b	-0.1852533

bn2.weight f4 [16]
0	0x402664b3	2.5998962
1	0x3fbbfcf5	1.4686571
2	0x3fed6c3c	1.8548656
3	0x3fce7f68	1.6132631
4	0x401be4e0	2.4358444
5	0x3fba15d9	1.4537917
6	0x401d5c36	2.458753
7	0x3ef48dce	0.47764438
8	0x3f24265a	0.6412102
9	0x3f01c808	0.5069585
10	0x3f7ce9f0	0.9879446
11	0x400364fb	2.0530384
12	0x3ece0530	0.40238333
13	0x3f0becff	0.546585
14	0x40222045	2.5332196
15	0x3e96de87	0.2946665

bn2.bias f4 [16]
0	0xbf58f165	-0.8474334
1	0xbbcfc7b1	-0.0063409437
2	0xbee9b284	-0.4564401
3	0xbee65d54	-0.4499308
4	0xbdf31ae5	-0.11870364
5	0xbf0544d5	-0.52058154
6	0xbf2a94eb	-0.6663348
7	0xbf5980a4	-0.84961915
8	0x3df5a8e6	0.119951054
9	0xbfd9d8fa	-1.7019341
10	0xbfb07ee1	-1.378872
11	0xbea49ff2	-0.3215328
12	0xbea54ba1	-0.32284263
13	0x3e6c22d8	0.23060167
14	0xbf266811	-0.6500254
15	0xbd99a4b1	-0.075021155

bn2.running_mean f4 [16]
0	0x404ddf07	3.2167375
1	0xc0bb6e08	-5.8571815
2	0x3f9ca79d	1.2238652
3	0xbf16837c	-0.5879438
4	0x405641ce	3.3477664
5	0x409b2ae4	4.8489857
6	0x410d0d59	8.815759
7	0xbd6cff59	-0.057860706
8	0xc0bad750	-5.8387833
9	0x3ef181f3	0.47169456
10	0x408dd5df	4.4323573
11	0xc110fa7f	-9.061156
12	0xbe8c53f2	-0.27407795
13	0x3f9e8e42	1.2387164
14	0xbeaf1377	-0.34194538
15	0x3f419fcc	0.75634456

bn2.running_var f4 [16]
0	0x41f6cd7e	30.850338
1	0x412103f3	10.063464
2	0x00000004	6e-45
3	0x2780020e	3.5529364e-15
4	0x42290672	42.256294
5	0x41e18be6	28.19331
6	0x42345e24	45.091934
7	0x2380020e	1.3878658e-17
8	0x41b75d71	22.920626
9	0x2680020e	8.882341e-16
10	0x4134b25b	11.293544
11	0x419ba3a3	19.4549
12	0x00000004	6e-45
13	0x412534df	10.325408
14	0x41b179d8	22.184494
15	0x2780020e	3.5529364e-15

conv3.bias f4 [32]
0	0xbf0e69b0	-0.55630016
1	0x3dddf45d	0.10837624
2	0xbf08f419	-0.53497463
3	0xbe2b5b2c	-0.16733998
4	0xbdda74f0	-0.10666835
5	0xbe2230d4	-0.15838939
6	0xbd377dca	-0.044797696
7	0xbf43056c	-0.7618015
8	0xbe6f3178	-0.23358715
9	0x3d0a99c3	0.033838045
10	0x3e928f98	0.28625178
11	0x3ebc467e	0.3677253
12	0x3ce10c9d	0.027471835
13	0x3dcedc7e	0.10100649
14	0x3f0a0712	0.5391704
15	0x3e9f2ef0	0.31090498
16	0xbf78ebd1	-0.9723483
17	0x3e4229f9	0.18961324
18	0xbf09deeb	-0.5385577
19	0xbf428ed1	-0.7599917
20	0xbeb207c4	-0.3477155
21	0xbd48836a	-0.04895345
22	0xbe8e5ab9	-0.2780359
23	0xbf261866	-0.6488098
24	0xbd41d2c9	-0.04732016
25	0x3e401190	0.187567
26	0x3f0385dc	0.5137613
27	0xbe95a768	-0.29229283
28	0x3e9491bd	0.2901744
29	0xbf192978	-0.598289
30	0x3ca5b7c2	0.020229224
31	0xbebab4b5	-0.36465994

conv3.weight f4 [32, 16, 3]
0	0x3e71e292	0.23621586
1	0x3f830bec	1.0238013
2	0xbf9e56cb	-1.2370237
3	0x3f7ada9e	0.97989833
4	0xc001688e	-2.0220065
5	0x3ff702ba	1.9297707
6	0x3f98e7cb	1.1945738
7	0xbeaa0c06	-0.33212298
8	0xbf744e7b	-0.9543225
9	0xbf6f3ed1	-0.93455225
10	0xbe037597	-0.12837826
11	0x3faa0abc	1.3284526
12	0x3f391a3d	0.7230566
13	0x3e0c2476	0.13685784
14	0x3edd4045	0.43213096
15	0xc0016058	-2.0215054
16	0xbf9a8d70	-1.2074413
17	0xbec10a18	-0.37703013
18	0xbd6c3c8c	-0.05767493
19	0xbc52525b	-0.012837018
20	0x3f1789d2	0.5919467
21	0xbfdffad9	-1.7498428
22	0xbebff032	-0.37487942
23	0x3f6f9819	0.9359146
24	0xbfc412c2	-1.5318224
25	0xbf2cfd0f	-0.67573637
26	0x3f9b6650	1.2140598
27	0xbee69886	-0.4503824
28	0x3e5599f1	0.20859505
29	0xbfa85751	-1.3151647
30	0xbbd5d6e7	-0.0065258625
31	0xbefdb599	-0.4955261
32	0x3cead59c	0.02866631
33	0x3fb5beb4	1.4198823
34	0x3f8cc1df	1.0996665
35	0xbffab8ab	-1.9587606
36	0xbe8d9c92	-0.27658516
37	0xbfdd0b50	-1.7269077
38	0x3f185afa	0.5951382
39	0xbe803f75	-0.25048414
40	0xbd5d571a	-0.054038145
41	0x3ecb5f0a	0.39720947
42	0x3f06c37e	0.5264205
43	0x3db8bdde	0.09020589
44	0xbec28f7e	-0.380001
45	0x3df71c4f	0.12065946
46	0xbe9f05f6	-0.31059235
47	0x3e3fa7dd	0.18716379
48	0x3f9ec448	1.240365
49	0xbf1f1a1d	-0.6214922
50	0x3e2ede93	0.17077093
51	0x3f9d51a8	1.2290545
52	0xc024389d	-2.5659554
53	0x3f04e6bc	0.5191457
54	0x3fc3dfc9	1.5302669
55	0xbf7df5ab	-0.99202985
56	0xbfb62e86	-1.4232948
57	0x3ec231b8	0.37928557
58	0xbf88dccf	-1.0692385
59	0xbe6f1de8	-0.23351252
60	0x3f098462	0.53717625
61	0x3f182b29	0.5944086
62	0x3f0febc1	0.56219107
63	0x3f9f4032	1.2441466
64	0xbf18810a	-0.595719
65	0x3ee91905	0.455269
66	0x3f80e3da	1.0069535
67	0xc03c119e	-2.9385753
68	0xbea9c484	-0.33157742
69	0xbf86008e	-1.0468919
70	0xbc0aa3e1	-0.008461923
71	0x3d3771d9	0.044786308
72	0x3eb788cc	0.35846555
73	0x3d91211d	0.07086394
74	0x3f044cb7	0.5167956
75	0xbe867429	-0.26260498
76	0xbef64f1a	-0.48107225
77	0x3e7088c6	0.23489675
78	0xbfac16b4	-1.3444428
79	0xbdc709d0	-0.097186685
80	0xbe5d6958	-0.21622217
81	0x3fa0199e	1.2507818
82	0x3ecbc4ab	0.39798483
83	0xbf562144	-0.8364451
84	0xbeb67f92	-0.35644203
85	0x3e940acc	0.28914487
86	0x3ea05289	0.3131297
87	0xbf8af82d	-1.0856987
88	0xbe09f322	-0.13471654
89	0x3f7a0a8e	0.97672355
90	0x3f978e5f	1.1840323
91	0xbfb8dd04	-1.4442449
92	0x3eaf7bc7	0.34274122
93	0x3e83465b	0.25639614
94	0xbfadef20	-1.35886
95	0x3ed7ecb0	0.42172766
96	0xbe0babfb	-0.13639824
97	0x3f888a3b	1.0667185
98	0x3dc5cc4a	0.09658106
99	0xbfc310b9	-1.5239478
100	0x3e32f47d	0.17476077
101	0xbf838e3b	-1.027778
102	0x3dbf3476	0.09336178
103	0xbf211a34	-0.6293061
104	0x3e912cde	0.28354543
105	0xbdcead2b	-0.10091623
106	0xbf40af97	-0.7526793
107	0xbfdf99b8	-1.7468786
108	0x3f9ff59c	1.2496829
109	0x3fca967c	1.5827174
110	0xbf5a924d	-0.8537949
111	0xbfa623b2	-1.2979643
112	0xbe2dd315	-0.16975053
113	0x3fb2c4c4	1.3966298
114	0x3d697f8b	0.0570064
115	0x3f4c51e0	0.7981243
116	0xbda5d636	-0.08097498
117	0xbf93058c	-1.1486068
118	0x3f856a2f	1.042303
119	0x3f26b1f3	0.6511528
120	0xbf785c1c	-0.9701555
121	0xbba5bab4	-0.005057657
122	0x3f40c6af	0.7530317
123	0x3fe2a47a	1.7706444
124	0xbff375d1	-1.902033
125	0xbee98d0c	-0.45615423
126	0x3ea537ec	0.32269228
127	0xbfb87e3f	-1.4413527
128	0xbe37efb6	-0.17962536
129	0x3faee9f1	1.3665143
130	0xbf787321	-0.9705067
131	0xbe012ced	-0.12614794
132	0xbf07e759	-0.53087384
133	0xbf01782f	-0.5057401
134	0x3e7b201d	0.24523969
135	0xbf24a2d2	-0.64310944
136	0xbf6545fe	-0.89559925
137	0x3da964e1	0.08271194
138	0xbf1b461a	-0.6065384
139	0x3f02ed9f	0.5114383
140	0x3f344efc	0.7043302
141	0xbf411074	-0.7541573
142	0xbd96a203	-0.0735512
143	0xbf624c9a	-0.88398135
144	0xbf7e6447	-0.9937176
145	0xbf3aad58	-0.7292075
146	0xbd30e6ae	-0.043188743
147	0xc04bd165	-3.1846554
148	0x3f43a0bd	0.7641714
149	0x3f22a550	0.63533497
150	0xbfae506c	-1.3618293
151	0x3f4268e6	0.7594131
152	0x3fb3bfd3	1.4042915
153	0xbe904f27	-0.28185388
154	0xbf8c7d3a	-1.0975716
155	0xbe552400	-0.20814514
156	0xbf21c923	-0.63197535
157	0xbf53eacf	-0.82780164
158	0x3f81ea2b	1.0149587
159	0xbf4a3134	-0.7898133
160	0xbe0bf8c5	-0.13669117
161	0xbf48932a	-0.78349555
162	0xbf751dbd	-0.957485
163	0x3f77f09a	0.96851504
164	0xbefc27bb	-0.49249062
165	0xbdb090e7	-0.08621388
166	0xbf0016db	-0.50034875
167	0xbe4d7db7	-0.20067488
168	0x3e909815	0.2824103
169	0x3e3402bd	0.1757917
170	0xbed953fd	-0.4244689
171	0x3f9ffcf6	1.2499073
172	0xbf091f11	-0.5356303
173	0x3e63a07d	0.2222919
174	0x3e286ebd	0.16448493
175	0x3eff6ae2	0.49886233
176	0xbe34b10d	-0.17645665
177	0x3ebd8d7d	0.3702201
178	0xbcb22b3e	-0.021749135
179	0x3fd15898	1.6355162
180	0x3e146240	0.14490604
181	0x3efac706	0.48979968
182	0xc04387ec	-3.055171
183	0x3f39bdd6	0.7255529
184	0xbf2814b5	-0.65656596
185	0xbf39f5a9	-0.7264047
186	0x3f9ada3d	1.2097851
187	0xbf587070	-0.84546566
188	0x3fb5e60a	1.4210827
189	0xbe5cd197	-0.21564327
190	0x3f27f87b	0.65613526
191	0xbd480509	-0.048832927
192	0x3e1d4d58	0.15361536
193	0xbef9e0cf	-0.48804328
194	0x3d751f95	0.059844572
195	0x3d448126	0.047974728
196	0xbec4bea1	-0.38426688
197	0xbe92cb3f	-0.2867069
198	0xbfa980e5	-1.324246
199	0xbef7053f	-0.4824619
200	0x40146177	2.3184488
201	0x3f7c37ee	0.9852284
202	0xbeff579b	-0.49871525
203	0x3d11f129	0.03563038
204	0xbfca4e1e	-1.580509
205	0x3fa97dce	1.3241518
206	0x3f5a2cbf	0.8522453
207	0x3db5cb66	0.08876686
208	0x3ef934ce	0.486731
209	0xbfb82cb0	-1.4388638
210	0x3f80eb19	1.0071746
211	0x3c9573de	0.018243726
212	0xbf1c400f	-0.61035246
213	0x3f73abe0	0.95184135
214	0xbd0f8fcf	-0.035049256
215	0xbfd60e25	-1.6723067
216	0x3f2f95a1	0.6858769
217	0x3f77361f	0.9656696
218	0xbfbfac99	-1.4974548
219	0xbf12068e	-0.5704125
220	0x3eda6cb3	0.42661056
221	0xbf69672e	-0.91173065
222	0xbe5202ef	-0.20508932
223	0xbebf3765	-0.3734695
224	0xbe33e70b	-0.17568605
225	0xbf5de396	-0.86675394
226	0xbf0803fa	-0.5313107
227	0x4014638e	2.3185763
228	0x3e2349b0	0.15946078
229	0x3eb4f668	0.35344243
230	0xbefae451	-0.49002317
231	0x3f4ec01a	0.80761874
232	0xbf43eb7c	-0.76531196
233	0xbfa4656a	-1.2843449
234	0x3f811484	1.0084386
235	0xbc9e07f1	-0.019290896
236	0x3f9e99ab	1.2390646
237	0x3e360618	0.17775762
238	0x3ecdaeb8	0.40172362
239	0xbf84c5f7	-1.0372914
240	0x3fb7b44e	1.43519
241	0x3e8bccf6	0.2730481
242	0xbe98e754	-0.2986399
243	0x3e42c930	0.1902206
244	0xbe9aa597	-0.3020446
245	0xbe945ba1	-0.28976157
246	0xc01bc6d7	-2.4340112
247	0xbe60b806	-0.219452
248	0x3dd5dc3b	0.10442396
249	0xbfde9aa0	-1.7390938
250	0x3ee6f8cb	0.4511169
251	0x3f0d0d84	0.5509875
252	0x3ec301a7	0.38087198
253	0x3f0f8b63	0.5607206
254	0x3e1cc518	0.1530956
255	0xbf579926	-0.8421806

bn3.weight f4 [32]
0	0x3fbb57bd	1.4636151
1	0x3f4b602e	0.79443634
2	0x3fc6949d	1.5514103
3	0x3f07fbe5	0.53118736
4	0x3f891d3f	1.071205
5	0x3fc3b46c	1.5289435
6	0x3f35a187	0.70949596
7	0x3ee57489	0.44815472
8	0x3f5853e9	0.84503037
9	0x3f6f96a1	0.93589216
10	0x3fce7e1d	1.6132237
11	0x3f6a34f4	0.9148705
12	0x3fa73a95	1.3064753
13	0x3fc5ada9	1.5443622
14	0x3f25b220	0.6472492
15	0x3f16e07b	0.5893628
16	0x3f11ce6b	0.56955594
17	0x3fa31bc3	1.2742847
18	0x3fe1fc27	1.7655076
19	0x3fc65577	1.5494832
20	0x3f8bdef2	1.0927413
21	0x3f958082	1.1679842
22	0x3fa270db	1.2690691
23	0x3f6a903d	0.9162634
24	0x3fd935b0	1.6969509
25	0x3f6fe88b	0.9371421
26	0x3fe6b672	1.8024428
27	0x3fbb04e7	1.4610871
28	0x3f767bf4	0.9628289
29	0x3fba488a	1.4553387
30	0x3f873c77	1.0565327
31	0x3f8c4f26	1.0961654

bn3.bias f4 [32]
0	0xbfc679bd	-1.5505902
1	0xbfc29862	-1.5202754
2	0xbfed71f9	-1.8550407
3	0xbf50fd82	-0.8163682
4	0xbefceb2a	-0.49398166
5	0xbfaa0703	-1.328339
6	0xc0050523	-2.0784385
7	0xbf1f3b8e	-0.6220025
8	0xbf299a42	-0.66251004
9	0xc0156eba	-2.3348832
10	0xc0092462	-2.1428456
11	0xbfb3ea46	-1.405587
12	0xbf0f8332	-0.56059563
13	0xbfefc904	-1.873322
14	0xbfa39e3a	-1.2782662
15	0xbe99665f	-0.29960915
16	0xbf2746a8	-0.6534219
17	0xbfdde9ba	-1.7336953
18	0xbfba099b	-1.4534181
19	0xbfd87e5d	-1.6913563
20	0xbf4b1fe6	-0.7934555
21	0xbe92690a	-0.28595763
22	0xbfc7c4b9	-1.560691
23	0xbf43839a	-0.76372683
24	0xbf1e8047	-0.61914486
25	0xbfba462b	-1.4552664
26	0xbff5fed2	-1.921839
27	0xbfc6fa7b	-1.554519
28	0xbf4d4302	-0.8018037
29	0xbfc4791b	-1.5349458
30	0xbf8836ea	-1.0641758
31	0xbf93c208	-1.1543589

bn3.running_mean f4 [32]
0	0x3f215211	0.6301585
1	0x3f8d412a	1.1035511
2	0x3f32788c	0.6971519
3	0xbf9eabc2	-1.2396166
4	0x3fc2a97b	1.5207971
5	0xbe389edc	-0.1802935
6	0x3f5dc441	0.86627585
7	0xbf9ff735	-1.2497317
8	0x3fd82ce4	1.68887
9	0xbed7f958	-0.42182422
10	0x3bdd2c0a	0.0067496346
11	0x3fa9f7e4	1.3278775
12	0x400b0aa4	2.1725245
13	0xbed6b351	-0.41933683
14	0x3fad36cf	1.3532351
15	0xbf1855f9	-0.59506184
16	0xbf14421c	-0.57913375
17	0x3f423d8a	0.7587515
18	0xbf4b4803	-0.79406756
19	0xc004026c	-2.0626478
20	0x4006c022	2.1054769
21	0x40177b40	2.3668976
22	0x3f064e85	0.5246356
23	0xbf67f5d3	-0.90609473
24	0x3e222b77	0.15836893
25	0x3fa52c4c	1.2904143
26	0x4045e375	3.0920079
27	0x400119ff	2.0172117
28	0x3f9756f2	1.1823409
29	0xbfc7b57a	-1.5602257
30	0x3e9c53f2	0.30532795
31	0x3f3e2502	0.7427522

bn3.running_var f4 [32]
0	0x40c3284a	6.098668
1	0x405036d8	3.2533474
2	0x411ba337	9.727347
3	0x400686f3	2.1019866
4	0x40ecd864	7.401415
5	0x40e70002	7.218751
6	0x4005c265	2.08999
7	0x3fd46d8a	1.6595929
8	0x411613ff	9.379882
9	0x3fffedf4	1.9994493
10	0x40c98d10	6.2984695
11	0x402edabc	2.7321005
12	0x415fd970	13.990585
13	0x4121409c	10.078274
14	0x4036160f	2.8450963
15	0x406e3dd8	3.7225246
16	0x4012ac5d	2.2917702
17	0x40ace2e9	5.402699
18	0x40e0b2b8	7.0218163
19	0x4121068e	10.0641
20	0x40cb03f8	6.3442345
21	0x411a6bc6	9.651312
22	0x411ccf0f	9.800551
23	0x4016864a	2.3519464
24	0x409350d0	4.603615
25	0x4093ba84	4.616518
26	0x413a6b6d	11.651227
27	0x41216bad	10.088788
28	0x40e6612d	7.1993623
29	0x408e3c0f	4.4448314
30	0x40b1f6f0	5.5613937
31	0x4069995a	3.6499848

conv4.bias f4 [32]
0	0x3ea67108	0.3250811
1	0x3cef3c54	0.029203571
2	0xbedb967a	-0.42888242
3	0x3e0f93ba	0.14021197
4	0xbe3af2c9	-0.18256678
5	0xbe664078	-0.2248553
6	0x3e1f07b6	0.15530285
7	0x3c6e5106	0.014545685
8	0xbed24df2	-0.41075093
9	0xbcd5b8d1	-0.026089104
10	0xbe894321	-0.26809028
11	0xbdcb7a1b	-0.09935399
12	0x3e241947	0.16025268
13	0xbe6dd000	-0.23223877
14	0x3ce0305a	0.027366806
15	0xbd38e1bf	-0.045137163
16	0x3ca1e6e0	0.01976341
17	0xbdcba195	-0.09942929
18	0xbf085a94	-0.5326321
19	0xbb9caf5d	-0.004781647
20	0x3c93874c	0.01800885
21	0x3dcc951d	0.099893786
22	0x3cf76060	0.030197322
23	0x3caf2614	0.021380462
24	0x3e0e8873	0.13919239
25	0xbebf7031	-0.37390283
26	0xbe993be9	-0.2992852
27	0xbe445018	-0.19171178
28	0xbf1286cb	-0.5723693
29	0xbe6b3090	-0.22967744
30	0xbd8458b3	-0.064622305
31	0x3d2b00e8	0.04174891

conv4.weight f4 [32, 32, 3]
0	0x3f3ad8c7	0.72987026
1	0x3d66a640	0.056310892
2	0x3ce0b4d1	0.02742997
3	0xc0030dc5	-2.0477154
4	0xbfb20e68	-1.3910646
5	0xbfde3222	-1.7359049
6	0x3f98b9a8	1.1931658
7	0xbd551642	-0.05202318
8	0x3ec2efdd	0.38073626
9	0x3f27b534	0.6551087
10	0x3eaf75a9	0.34269455
11	0x3ee0e2ec	0.43923128
12	0x3f178efb	0.59202546
13	0xbfd9fdd6	-1.703059
14	0xbee302da	-0.44338113
15	0xbec79114	-0.38977873
16	0x3e5cd890	0.21566987
17	0x3f685d2e	0.9076718
18	0x3ebf801b	0.37402424
19	0x3ee74b21	0.45174506
20	0xbf0dae3d	-0.5534399
21	0x3e8b6166	0.27222747
22	0x3e9ab65a	0.30217248
23	0xbf2da635	-0.67831737
24	0xbf17f26f	-0.593543
25	0x3e3dbe3a	0.18529597
26	0xbf2f96d3	-0.68589514
27	0xbf1d1508	-0.61360216
28	0xbf2edaa8	-0.6830239
29	0x3f93487c	1.1506495
30	0x3e81270d	0.25225106
31	0xbf3b48ea	-0.73158133
32	0x3ef01145	0.46888176
33	0x3fce818b	1.6133283
34	0x3f6896a2	0.9085485
35	0xbebb0356	-0.36525983
36	0xbdb4f945	-0.08836607
37	0x3f5e8ed9	0.8693672
38	0xbf2a01fb	-0.6640927
39	0xbf93676f	-1.151594
40	0xbfd48596	-1.6603267
41	0x3e9f60d9	0.31128576
42	0xbe184237	-0.14869009
43	0x3eb408a8	0.35162854
44	0xbf120597	-0.5703978
45	0xbf21dd55	-0.6322835
46	0xbf95cbef	-1.170286
47	0xbec45964	-0.3834945
48	0xbe98d506	-0.29850024
49	0x3fa38f0c	1.277803
50	0xbf970b4f	-1.1800326
51	0x3f9b1954	1.2117105
52	0x3ea9aa7e	0.33137888
53	0x3f9d411c	1.2285495
54	0xbf9b6169	-1.2139102
55	0x3f2e46c1	0.6807671
56	0xbf9f7856	-1.2458599
57	0x3f29d11f	0.6633472
58	0x3fbad54a	1.4596341
59	0xbf0cda7e	-0.5502089
60	0x3f1f3178	0.6218486
61	0x3e118260	0.1420989
62	0x3f8e05db	1.1095537
63	0x3ebbc3de	0.36672872
64	0x3e613c33	0.2199562
65	0xbffab204	-1.9585576
66	0xbe98d43a	-0.29849416
67	0x3f1f52e2	0.62235844
68	0xbe844924	-0.25837052
69	0xbf1eac91	-0.61982065
70	0xbed68917	-0.41901466
71	0x3f36a33e	0.7134284
72	0x3c25419d	0.010086444
73	0x3f8a3b40	1.0799332
74	0xbe2f1d56	-0.17101035
75	0xbf2ce791	-0.6754084
76	0x3fa6ab6a	1.3021061
77	0xbf085eb3	-0.532695
78	0xbe844b12	-0.25838524
79	0xbe582722	-0.21108678
80	0xbdbc71d0	-0.092013955
81	0x3fdb9144	1.7153707
82	0xbeeb9a24	-0.46016037
83	0x3e754140	0.23950672
84	0xbf7231a2	-0.94606984
85	0x3f1a3f18	0.60252523
86	0x3f1afbc8	0.6054044
87	0x40275c61	2.6150134
88	0xbf6f5dbb	-0.93502396
89	0x3fc385a9	1.5275165
90	0xbf5935e9	-0.84847885
91	0xbe0bb498	-0.1364311
92	0xbe7552b1	-0.23957326
93	0xbfb3f00a	-1.4057629
94	0xbf87aa8a	-1.0598919
95	0xbe1f0d06	-0.15532312
96	0x3e9257f9	0.28582743
97	0x3fcd4917	1.603793
98	0xbe72b9cc	-0.23703688
99	0x3b89754f	0.0041948925
100	0x3f93bccc	1.1541991
101	0xbded8f5e	-0.11599611
102	0x3fecc67f	1.8498076
103	0xbf47ac87	-0.7799763
104	0x3e027432	0.12739637
105	0xbf62bcea	-0.8856951
106	0xbeed8d53	-0.46396884
107	0x400119fa	2.0172105
108	0x3fa3e43e	1.2804029
109	0xbe12492d	-0.14285727
110	0x3e8df6f7	0.27727482
111	0x3eb25905	0.34833542
112	0xbefd3e31	-0.4946151
113	0x3ef4e216	0.4782874
114	0x3fabf81d	1.3435093
115	0x3dd3a20a	0.10333641
116	0x3f21f127	0.63258594
117	0xbf95d39e	-1.1705205
118	0xbef818b9	-0.48456362
119	0x3f5f9dc3	0.873501
120	0xbf6e0933	-0.92982787
121	0xbf0c0556	-0.5469564
122	0xbe54dc14	-0.20787078
123	0x3e7f002e	0.24902412
124	0xbf1b31d3	-0.606229
125	0xbf2dd5cc	-0.67904353
126	0x3f7ea9e3	0.99477977
127	0xbe99cae6	-0.30037612
128	0xbf2b9ad7	-0.6703314
129	0x3fe5997f	1.7937468
130	0x3e971af8	0.29512763
131	0xbf672e45	-0.90304977
132	0xbf62c2b7	-0.8857836
133	0x3f9a4bec	1.205442
134	0x3fa64c88	1.2992105
135	0x3d851d05	0.06499676
136	0x3f98d0ce	1.1938722
137	0xbf8dc33a	-1.1075203
138	0xbf013139	-0.5046573
139	0x3e6d717e	0.23187825
140	0x3f8f2687	1.1183633
141	0xbefedfbe	-0.49780077
142	0x3dc60514	0.09668937
143	0xbf803fb9	-1.0019447
144	0x3e750ff4	0.23931867
145	0xbe286efd	-0.16448589
146	0xbfe807cb	-1.8127378
147	0x3f103a48	0.5633893
148	0xbe73d3f2	-0.2381132
149	0x3e697a15	0.22800477
150	0xbf00456d	-0.50105935
151	0xbe44d23f	-0.19220828
152	0x3fc0f28b	1.5074018
153	0x3fd52c58	1.6654158
154	0x3e05ce37	0.13066946
155	0xc0190bdd	-2.391349
156	0x3e446550	0.19179273
157	0xbfaca995	-1.3489252
158	0xbd070323	-0.032961976
159	0xbf8cf840	-1.101326
160	0xbd64cb81	-0.05585814
161	0x3e280024	0.16406304
162	0xbff6a912	-1.9270346
163	0xbea91bf5	-0.33029142
164	0xbf8884af	-1.0665492
165	0xbf30bac7	-0.69035
166	0x3fc88578	1.5665731
167	0xbf82d01b	-1.0219759
168	0xbf28a79a	-0.6588074
169	0xbeeaac50	-0.4583459
170	0x3e3860b3	0.18005638
171	0x3ed367c1	0.41290095
172	0x3eff306b	0.49841627
173	0x3f6e0fc5	0.9299281
174	0xbefd596b	-0.49482283
175	0xbee80716	-0.45317906
176	0x3edbb226	0.42909354
177	0x3f0e794c	0.55653834
178	0xc0023137	-2.0342538
179	0x3e14dd14	0.1453746
180	0x3f9889c8	1.1917048
181	0xbeca4a96	-0.3951003
182	0x3ddf5fad	0.109069206
183	0xbf00e3a5	-0.5034736
184	0xbd503173	-0.05082841
185	0xbf88523b	-1.0650095
186	0xbf0eda99	-0.55802304
187	0xbc002925	-0.00782231
188	0x3e9a1868	0.30096745
189	0x3f30ebd9	0.69109875
190	0xbf904b86	-1.1273048
191	0x3f7693e8	0.9631944
192	0x3f88c9e4	1.0686612
193	0xbf06aa50	-0.52603626
194	0xbf20222a	-0.6255213
195	0xbee11a60	-0.43965435
196	0x3ee30840	0.44342232
197	0x3f2516b0	0.64487743
198	0xbf9eb057	-1.2397565
199	0x3e1858cc	0.14877623
200	0xbee90591	-0.4551206
201	0xbe15819b	-0.14600222
202	0x3e8f74d8	0.28018832
203	0xbfc8839f	-1.5665168
204	0xbf42a75b	-0.76036614
205	0x3f452d03	0.7702181
206	0xbcde054e	-0.027102139
207	0x3d57a9e4	0.052652255
208	0xc0020a89	-2.031893
209	0x3f91bd06	1.138581
210	0x3ee88af4	0.45418513
211	0x3dc812ce	0.09769212
212	0x400f93f1	2.2434046
213	0x3f1437b7	0.57897514
214	0x3e4048ce	0.18777773
215	0xbe6746c1	-0.22585584
216	0xbf203ab1	-0.62589556
217	0x3f2e3e73	0.6806404
218	0xbfa73ec5	-1.3066031
219	0x3ee69b46	0.4504034
220	0x3f48e3de	0.784727
221	0xbe834476	-0.2563817
222	0xbf4c5dbd	-0.79830533
223	0xbf067fa4	-0.52538514
224	0x3fe38ddb	1.7777666
225	0x3fe68766	1.801007
226	0x3fa970e8	1.3237581
227	0xbee7be11	-0.45262197
228	0x3f1d508f	0.6145105
229	0x3e4cea17	0.20011173
230	0xbf681779	-0.90660816
231	0xbf8a577d	-1.0807949
232	0x3f798f9b	0.9748475
233	0x3f3aea18	0.7301345
234	0xbfbf6922	-1.4953959
235	0xbf0aeb2c	-0.54265094
236	0x3f1dfdd9	0.61715466
237	0xbf3bb9cb	-0.7333037
238	0x3d5db58f	0.054128226
239	0xbdfb98c6	-0.122849986
240	0x3f73e99f	0.9527835
241	0xbed9dc9c	-0.42551124
242	0xbf85e2a1	-1.0459787
243	0x3e02e277	0.12781702
244	0x3edc24d1	0.4299684
245	0x3f6458cd	0.89198
246	0x3ec12176	0.3772084
247	0x3ffb9c53	1.9657081
248	0xc0068ffe	-2.1025386
249	0x3ee8c9fd	0.45466605
250	0xbe9a2d18	-0.3011253
251	0x3e03c4be	0.1286802
252	0x3e85ce7f	0.26134107
253	0x3e2e36f7	0.17013155
254	0xbf568110	-0.83790684
255	0x3f07ee9b	0.5309846

bn4.weight f4 [32]
0	0x40a08624	5.0163746
1	0x40d4daa0	6.6516876
2	0x407518f7	3.8296487
3	0x409d930d	4.9242005
4	0x40b08421	5.516129
5	0x40bfea3a	5.997342
6	0x40b03565	5.506518
7	0x40bf58ec	5.9796047
8	0x40a78575	5.235041
9	0x40c13392	6.037545
10	0x408a6deb	4.3259177
11	0x40b18a9f	5.5481715
12	0x40b78b1a	5.73573
13	0x40bf1d0d	5.972296
14	0x40971680	4.7214966
15	0x40d69c6c	6.7065945
16	0x40dae1ab	6.8400474
17	0x40bccb19	5.899792
18	0x40d1abad	6.5522065
19	0x40bbf492	5.873605
20	0x408b3f45	4.3514733
21	0x40afefd8	5.498028
22	0x40b023d8	5.5043755
23	0x40bb3e23	5.851335
24	0x40905489	4.510319
25	0x40c64dd9	6.197003
26	0x40b92ea5	5.786944
27	0x4098e716	4.7782087
28	0x40c96f67	6.294849
29	0x40a64d6f	5.1969523
30	0x40b70513	5.7193694
31	0x40c08133	6.0157714

bn4.bias f4 [32]
0	0xc076e147	-3.8574998
1	0xc0373c9e	-2.8630748
2	0xbd37545b	-0.044758182
3	0xc01af9ba	-2.421492
4	0xc01e2e6f	-2.471584
5	0xc0577da1	-3.3670428
6	0xc053e03e	-3.3105617
7	0xc0a59a1f	-5.1750636
8	0xc04d1d7c	-3.2049246
9	0xbfa1ad51	-1.2631017
10	0xc03e5283	-2.973786
11	0xc08114f4	-4.0338078
12	0xbfb88ee5	-1.4418608
13	0xc02aa162	-2.6661
14	0xc0023be2	-2.034905
15	0xc0757435	-3.8352177
16	0xc043a1a0	-3.0567398
17	0xc085349c	-4.162672
18	0xbe861949	-0.26191166
19	0xbf3dbc2e	-0.74115264
20	0xbf263765	-0.64928275
21	0xc01814c7	-2.3762681
22	0xbf3a6d56	-0.72823083
23	0xc067b2c2	-3.6202855
24	0xbfa00e36	-1.2504337
25	0xc040292a	-3.0025125
26	0xc090d3d1	-4.5258565
27	0xc04e3c1c	-3.2224188
28	0xc05b34a9	-3.4250891
29	0xc09b5137	-4.853664
30	0xc04075e9	-3.0071967
31	0xc07b0ca5	-3.9226468

bn4.running_mean f4 [32]
0	0xbef2c1ef	-0.47413585
1	0xbeb54a6b	-0.3540834
2	0xbe63ee28	-0.22258818
3	0xbc4de1b5	-0.01256602
4	0xbd941d73	-0.072321795
5	0xbf7869f7	-0.9703669
6	0x3e372e63	0.17888789
7	0x3c6e50fe	0.014545677
8	0xbfa8e997	-1.3196286
9	0xbcd5b8d1	-0.026089104
10	0x3d731376	0.05934473
11	0xbe026826	-0.12735042
12	0x3e241940	0.16025257
13	0xbf238de6	-0.63888395
14	0x3efa34a4	0.48868287
15	0xbf17f774	-0.5936196
16	0x3ca1e6e1	0.019763412
17	0xbdcba18e	-0.099429235
18	0xbf49c816	-0.7882093
19	0xbe2ea061	-0.17053367
20	0x3c938747	0.018008841
21	0xbf1694a0	-0.58820534
22	0xbead6867	-0.33868715
23	0x3caf260e	0.02138045
24	0x3e0e886c	0.13919228
25	0xbf16088b	-0.58606786
26	0xbef8199a	-0.48457032
27	0xbf11af08	-0.569077
28	0xbf873b9b	-1.0565065
29	0xbf1eca3d	-0.6202734
30	0xbea51da2	-0.3224917
31	0xbdb26b31	-0.087118514

bn4.running_var f4 [32]
0	0x3fa30a6e	1.2737558
1	0x3f8fc46c	1.1231818
2	0x4037177a	2.860808
3	0x3fc8ddf6	1.5692737
4	0x3f8fc6e1	1.1232568
5	0x3fa4a1f6	1.2861927
6	0x3fc5ab32	1.544287
7	0x00000004	6e-45
8	0x3f9ca6aa	1.2238362
9	0x00000004	6e-45
10	0x3f9b03d5	1.2110544
11	0x3f8f6e94	1.1205621
12	0x00000004	6e-45
13	0x40445004	3.0673838
14	0x3f9e5462	1.2369502
15	0x3fe3afe6	1.7788055
16	0x22800c5a	3.4707547e-18
17	0x00000004	6e-45
18	0x3fcb9c1f	1.5907019
19	0x401dc972	2.4654202
20	0x00000004	6e-45
21	0x3f9d99cf	1.2312564
22	0x4028aec2	2.6356664
23	0x00000004	6e-45
24	0x00000004	6e-45
25	0x3faf316c	1.3686957
26	0x3ff39a76	1.9031513
27	0x3fb115e2	1.3834803
28	0x3fdcb78c	1.7243514
29	0x3fbe0df4	1.4848008
30	0x3fefa40d	1.8721939
31	0x3fc64e4c	1.5492644

conv5.bias f4 [16]
0	0x3f784334	0.96977544
1	0x3ed60544	0.41800892
2	0xbf07dcb3	-0.53071135
3	0x3f1be2ba	0.6089283
4	0x3ea966a6	0.33086127
5	0xc0201d32	-2.501782
6	0xc022aed1	-2.54192
7	0x3eb87c74	0.3603245
8	0x3f1b3804	0.6063235
9	0xbfb372ae	-1.4019372
10	0x3e5a4b1f	0.21317719
11	0xbfd25551	-1.6432287
12	0xbd899420	-0.06717706
13	0x3f5d3595	0.86409885
14	0x3f026e01	0.509491
15	0xbfc354aa	-1.5260212

conv5.weight f4 [16, 32, 1]
0	0x3dae26e5	0.08503512
1	0xc03c6c6c	-2.9441175
2	0x3f96f183	1.1792454
3	0xbfb7bb00	-1.4353943
4	0xc0497356	-3.1476645
5	0xc001b641	-2.026749
6	0xbed54495	-0.41653886
7	0x402249c6	2.5357528
8	0x3fcbebd6	1.5931346
9	0xbfd789b2	-1.6838896
10	0x3fda0114	1.7031579
11	0xbfca7fc9	-1.5820247
12	0xbfa0e11f	-1.2568702
13	0x3f99a991	1.2004873
14	0xbedd6ea5	-0.43248478
15	0x3eed9491	0.4640241
16	0x3f7251b0	0.94655895
17	0xbf3d026f	-0.7383184
18	0x3f96a51e	1.176914
19	0xbfb80653	-1.437693
20	0xbfa43d6c	-1.2831244
21	0x3e4cbd2a	0.19994035
22	0x3efcec75	0.49399152
23	0xbe7f8900	-0.24954605
24	0xbfa3d42c	-1.2799125
25	0x3e3350f0	0.17511344
26	0x3fd60575	1.6720415
27	0xc021b26f	-2.5265157
28	0xbfe855ff	-1.8151244
29	0xbf850bd4	-1.0394235
30	0x3fce2e16	1.6107814
31	0xbe5c9739	-0.21542062
32	0x3fad8d68	1.3558779
33	0xbeb6012d	-0.35547772
34	0xbe2b9d5e	-0.1675925
35	0x3cb9c3c3	0.022676354
36	0xbfa3676b	-1.2765936
37	0xc0075a44	-2.1148844
38	0x3fbc78fb	1.472442
39	0x3f44f6eb	0.76939267
40	0x3f7cac90	0.9870081
41	0xbe484b81	-0.19560052
42	0x3fc866ed	1.565641
43	0x40181153	2.3760574
44	0x3fa1d6a7	1.2643632
45	0xbf20ad14	-0.62764096
46	0x3ddc2fc8	0.10751301
47	0x3f81c2da	1.0137589
48	0x40333ce4	2.8005915
49	0xc06b3909	-3.6753561
50	0xbed1b31e	-0.40956968
51	0xbe42193d	-0.1895494
52	0x3f6b8f13	0.9201519
53	0x3d3ddce9	0.046353254
54	0x3fb16fb6	1.3862216
55	0x3ee86e5b	0.45396695
56	0xbfcc2a06	-1.5950325
57	0xbee6e3f1	-0.4509578
58	0xbf5039b4	-0.8133805
59	0xc00a410b	-2.16022
60	0xc032193b	-2.78279
61	0x3f7d1afe	0.9886931
62	0xc072146b	-3.7824962
63	0xc02b6d9b	-2.6785648
64	0xc0431602	-3.0482183
65	0x403ad9c4	2.9195414
66	0xbe33a581	-0.17543603
67	0xc086ad95	-4.208689
68	0xbf47f1b0	-0.7810316
69	0x3f93d285	1.154862
70	0x3f5ee390	0.8706598
71	0x3f318498	0.69342947
72	0xbfcf3977	-1.6189412
73	0x3e64c2ce	0.22339937
74	0x3f9b65f3	1.2140487
75	0xc0b82da9	-5.7555737
76	0x3fa7babb	1.3103861
77	0x3f276ffe	0.6540526
78	0xbf488472	-0.78327096
79	0x3ff1e583	1.8898166
80	0x4005e9de	2.0923991
81	0xc099d51d	-4.807265
82	0x3fde6bb0	1.7376614
83	0xbfd0dd3f	-1.6317519
84	0x401210e4	2.282281
85	0xc0a7cb24	-5.2435474
86	0x3f603bd1	0.8759127
87	0xc085159a	-4.158887
88	0xc015788f	-2.3354833
89	0x401c84bf	2.4456022
90	0xc08373f2	-4.1079035
91	0x4005678b	2.0844448
92	0xbfa84c5e	-1.3148305
93	0x3faed30e	1.3658159
94	0x3f2a9038	0.6662631
95	0xc097e8b4	-4.747156
96	0xbf80a749	-1.0051051
97	0x404b00af	3.1719167
98	0x3ea3beb8	0.31981444
99	0x3f9b3abc	1.2127299
100	0xbf55c9fe	-0.8351134
101	0x3f504e4b	0.81369466
102	0x3fd81376	1.6880939
103	0xbfec0d32	-1.8441527
104	0x3ffcff7c	1.9765468
105	0x3f247de9	0.64254624
106	0xbf47a80a	-0.7799078
107	0x3f648f5f	0.89281267
108	0x3fdb195f	1.7117118
109	0xc06a9538	-3.6653576
110	0x3f6ff748	0.93736696
111	0xbfe9120b	-1.8208631
112	0xc01796f1	-2.3685877
113	0x3e0e325c	0.13886398
114	0xc04d0414	-3.203374
115	0xbe8b94bb	-0.2726191
116	0xbf9cbada	-1.2244523
117	0xbf723caf	-0.94623846
118	0x3f7ee313	0.9956524
119	0xbe0b7cde	-0.13621852
120	0x3f97e278	1.1865988
121	0x3f077b50	0.52922535
122	0xbf8e281f	-1.1105994
123	0xc09a1dda	-4.816144
124	0x3f4bf13c	0.7966497
125	0xc04b6617	-3.178106
126	0xbf48f65d	-0.7850092
127	0x403b1ee2	2.92376
128	0x3f0db67f	0.5535659
129	0xbff35e2c	-1.9013114
130	0xbf21190f	-0.6292886
131	0x40085be8	2.1306095
132	0xbea1e455	-0.31619516
133	0xc002c3be	-2.0431972
134	0x4021fef4	2.531186
135	0x4039dc76	2.9040809
136	0xbfa8c735	-1.3185793
137	0xbe0df9ac	-0.13864774
138	0x3ffc88fc	1.9729304
139	0xbf5380bc	-0.8261831
140	0x3e91aad8	0.28450656
141	0x3f403862	0.75086033
142	0x3e826154	0.2546488
143	0xc0210286	-2.515779
144	0xbff39306	-1.9029243
145	0xbeb2ec7b	-0.34946045
146	0xbed9f3e7	-0.42568895
147	0xbfc54eee	-1.5414712
148	0x3d0a7b03	0.03380872
149	0x3de7b846	0.11314444
150	0x3f0f8275	0.56058437
151	0x3f24d317	0.643846
152	0x3eadb59a	0.33927613
153	0xbefcfe15	-0.494126
154	0xbf91b82c	-1.138433
155	0x3f87f1df	1.0620688
156	0x40437809	3.0542014
157	0xbf9f6d5b	-1.2455248
158	0xbfd876d4	-1.6911263
159	0xbf7b7b9e	-0.982355
160	0xc051a660	-3.2757797
161	0xbd495cd1	-0.049160782
162	0xbffa4a8f	-1.9554003
163	0xc0859781	-4.174744
164	0xc0467255	-3.1007283
165	0xbf4f2987	-0.8092274
166	0xc00639c7	-2.0972764
167	0xbfd30b25	-1.6487776
168	0x3e99e763	0.30059347
169	0x403ce56f	2.9515035
170	0xbeb8a528	-0.36063504
171	0x3ff89f33	1.9423584
172	0xbef220ed	-0.47290745
173	0x40197108	2.3975239
174	0xc0359881	-2.837433
175	0x3fe4989b	1.7859071
176	0x3e17d35c	0.14826721
177	0x4059986c	3.399928
178	0xbdd12bfa	-0.10213466
179	0x4005a836	2.0883918
180	0x3f90097f	1.1252898
181	0xc0122d02	-2.283997
182	0x3ed7dd2b	0.42160925
183	0xc01d61c4	-2.4590921
184	0xbef0dcec	-0.4704355
185	0x40756a56	3.8346152
186	0xbfbd7f35	-1.4804446
187	0x3e575951	0.21030165
188	0xc0271f7b	-2.6112964
189	0x405fb67f	3.4955137
190	0xbf5a03df	-0.85162157
191	0x3f8325d9	1.0245925
192	0x3fa9f700	1.3278503
193	0xbfb741b3	-1.4316925
194	0xbd2e0584	-0.04248573
195	0x3fdabf9b	1.7089723
196	0x3efea899	0.49738005
197	0x4013581f	2.3022535
198	0x3f926bd8	1.1439161
199	0xc0658649	-3.586321
200	0x3f586730	0.8453245
201	0xbfd9bb1e	-1.7010229
202	0x3f313581	0.69222265
203	0xbf40b63c	-0.7527807
204	0xc0843b21	-4.132218
205	0x3f676eeb	0.9040362
206	0xbff23be7	-1.8924531
207	0x3e3b7f79	0.18310346
208	0x3f984f02	1.1899111
209	0x3e522f0f	0.20525764
210	0x400808e7	2.1255434
211	0xbec74f0a	-0.3892749
212	0x3fed32c0	1.8531113
213	0xc05e2e69	-3.4715827
214	0xc08f024d	-4.469031
215	0x3f8ab037	1.0835027
216	0xbf7d3a01	-0.9891663
217	0xbe25027a	-0.16114226
218	0xbffc9a68	-1.9734621
219	0xbf490a2e	-0.7853116
220	0x3e8f2891	0.27960637
221	0xc0129dac	-2.2908735
222	0x3fc64add	1.5491596
223	0x400c31c6	2.190538
224	0x3ff9bae8	1.9510164
225	0x401902a8	2.3907871
226	0x3ea9c384	0.3315698
227	0x3fdc4a87	1.7210244
228	0xbff6a978	-1.9270468
229	0x4024f201	2.5772707
230	0xc06c6631	-3.6937373
231	0xbf30ffbf	-0.6914024
232	0xbdc06803	-0.09394839
233	0x3fcb19b1	1.5867215
234	0xc054a772	-3.32272
235	0x3f70b153	0.94020575
236	0x3f8aa7cd	1.0832459
237	0x3f38f76c	0.72252536
238	0x3fa62880	1.298111
239	0xc06c14b4	-3.6887636
240	0xbfff32a5	-1.993733
241	0xbedfd701	-0.43718722
242	0xc0398a69	-2.899073
243	0xbf5b9f99	-0.857904
244	0xc01c997a	-2.4468675
245	0xbe523a76	-0.20530114
246	0x3eca827f	0.39552686
247	0x3f9c4482	1.2208407
248	0xbe24e3a4	-0.16102463
249	0xbe0e4be2	-0.13896134
250	0x3e9bf7e7	0.30462572
251	0xbfc6fb07	-1.5545357
252	0xbfa2c3d1	-1.2716008
253	0xbfd73156	-1.6811931
254	0xbf255909	-0.6458898
255	0x3f848896	1.0354183
