networks/quantized_models/iscx2016vpn/model.onnx (onnx, 37425 bytes, 26 tensors)

conv1.bias f4 [16]
0	0x3fd194fe	1.6373594
1	0x3fdfd60e	1.7487199
2	0x3defcb76	0.11708729
3	0xbf76030c	-0.960984
4	0xbd905e14	-0.07049194
5	0x3f4f898c	0.81069255
6	0xbb519a6a	-0.0031982907
7	0xbf450a10	-0.7696848
8	0xbfe7c091	-1.8105642
9	0xc00a880b	-2.1645534
10	0x3ff19043	1.887215
11	0xbf2c07bf	-0.6719932
12	0xbef0878e	-0.4697842
13	0x3f26f1e4	0.65212846
14	0xbf209b67	-0.62737125
15	0x3d2f1e0c	0.042753264

conv1.weight f4 [16, 1, 3]
0	0xbfbaa326	-1.4581039
1	0xbf14edb2	-0.58175194
2	0xbfb4b0c7	-1.4116448
3	0x3efaa1ec	0.48951662
4	0x4006768c	2.1009855
5	0xbed5f9e8	-0.41792226
6	0xbef0c68e	-0.47026485
7	0x400b05e1	2.1722338
8	0xbe0258bf	-0.12729166
9	0x3f75a81d	0.95959646
10	0xbeee7cd4	-0.4657961
11	0x3f92675f	1.1437796
12	0x3efbb1a0	0.49158955
13	0x3e9a6a85	0.30159393
14	0x4000cd31	2.012524
15	0x3f1e1a03	0.6175844
16	0xbeca1c94	-0.39474928
17	0xc006e2b7	-2.1075876
18	0x3ea4cd21	0.3218775
19	0xc0231508	-2.5481586
20	0xbff3067d	-1.8986355
21	0x3fe834e5	1.8141142
22	0x3ee721a9	0.45142868
23	0xbee71525	-0.4513332
24	0xc01a09e3	-2.4068534
25	0x3ef5ecf1	0.48032334
26	0x3daf9103	0.08572581
27	0xbd9a1c46	-0.07524924
28	0xbfb9e50e	-1.4523027
29	0xc006c5c6	-2.1058211
30	0x3f35ded3	0.7104313
31	0xbfaf3487	-1.3687905
32	0xbf2ced40	-0.67549515
33	0xbc7bd911	-0.015371577
34	0xc0b2f796	-5.592723
35	0x3ebe6f3a	0.37194234
36	0x3f525c17	0.8217177
37	0xbd79c779	-0.060981248
38	0xbfcb2cf4	-1.5873094
39	0xbfcf3115	-1.6186854
40	0x3f45e373	0.77300185
41	0xbf19d39d	-0.6008852
42	0xbfbc05eb	-1.4689306
43	0x3f6132e9	0.8796831
44	0x3b520161	0.003204428
45	0xbe81dda1	-0.25364402
46	0x3f4147ee	0.7550038
47	0xbfbe4e35	-1.4867617

bn1.weight f4 [16]
0	0x40240b85	2.563203
1	0x3f49b7ac	0.78795886
2	0x3f514224	0.8174155
3	0x3f2b4693	0.6690456
4	0x3f40f7ff	0.7537841
5	0x401fd980	2.4976501
6	0x4027ef6b	2.623988
7	0x3f4a1f16	0.78953683
8	0x40138a86	2.3053298
9	0x3ff585fc	1.9181514
10	0x3fb8cf4c	1.4438262
11	0x4022736f	2.5382955
12	0x3f0306ce	0.5118226
13	0x3f88fa5b	1.0701402
14	0x3f66551d	0.8997362
15	0x3f5289af	0.8224134

bn1.bias f4 [16]
0	0xbee1c624	-0.44096482
1	0xbf4f5bb8	-0.80999327
2	0xbed3810f	-0.413094
3	0x3eba5cdf	0.3639898
4	0xbed96316	-0.4245841
5	0xbf9c7373	-1.2222732
6	0xbf8d3369	-1.1031314
7	0xbeb17de4	-0.3466636
8	0xbfda2e3b	-1.7045358
9	0xbc571f73	-0.013130057
10	0xbf31ccc2	-0.6945306
11	0x3e065068	0.1311661
12	0x3fc27000	1.519043
13	0xbecd58c7	-0.40106794
14	0xbe01dd1e	-0.12682006
15	0x3f16b5b8	0.5887103

bn1.running_mean f4 [16]
0	0x3f8043f5	1.0020739
1	0x40099be8	2.1501408
2	0x3ecfec6b	0.4061006
3	0xbf28ffb8	-0.66015196
4	0x3ee3e323	0.4450923
5	0x3eed131e	0.46303648
6	0xbf433974	-0.7625954
7	0xbedf582a	-0.4362195
8	0xc0096251	-2.1466258
9	0xc0356ec5	-2.8348858
10	0x3fd22cad	1.6419884
11	0xbfd1381f	-1.6345252
12	0xbf1f261a	-0.62167513
13	0x3ec621a8	0.38697553
14	0xbf3c714e	-0.7361039
15	0xbe0c1716	-0.13680682

bn1.running_var f4 [16]
0	0x3f4e7828	0.80652094
1	0x3ed63b1d	0.41841975
2	0x3e96df1e	0.294671
3	0x3e684570	0.22682738
4	0x3f13a85d	0.57678777
5	0x3eb66458	0.3562343
6	0x3fa2f6bd	1.2731549
7	0x3e99dce2	0.30051333
8	0x3ec12011	0.37719777
9	0x3f72ae47	0.94797176
10	0x3e41444c	0.1887371
11	0x4021517e	2.520599
12	0x3e0e4784	0.13894469
13	0x3e6aea45	0.22940929
14	0x3de58a4c	0.11208019
15	0x3e12a1e3	0.14319567

conv2.bias f4 [16]
0	0xbe9cafa5	-0.30602756
1	0x3ede4975	0.43415418
2	0x3f9ca79b	1.2238649
3	0xbf168382	-0.58794415
4	0xbf8d87d9	-1.1057082
5	0x3c1dbb26	0.009627139
6	0x3f1b02a6	0.60550916
7	0xbd6cff57	-0.0578607
8	0x3f197a0c	0.59951854
9	0x3ef181f3	0.47169456
10	0x3f478dd6	0.779508
11	0xbefd5bf0	-0.49484205
12	0xbe8c53f8	-0.27407813
13	0xbe6f5d79	-0.233755
14	0x3f824eb1	1.0180265
15	0x3f419fd3	0.756345

conv2.weight f4 [16, 16, 3]
0	0x3fc81167	1.5630311
1	0x3eaace5c	0.33360565
2	0xbd311ee8	-0.043242365
3	0xbfbb0c79	-1.4613181
4	0xbf2da0a0	-0.6782322
5	0x3dc110c0	0.09427023
6	0x3ddc3700	0.10752678
7	0x3f29daeb	0.6634967
8	0xbef5bdfb	-0.47996506
9	0xbf3b12d8	-0.7307563
10	0x3fa951df	1.322811
11	0xbc83eb44	-0.016103394
12	0x3da943d4	0.0826489
13	0xbe3ec87e	-0.18631169
14	0x3f57e084	0.8432696
15	0xbfdf3862	-1.7439082
16	0xbf1b3535	-0.6062806
17	0xbee05227	-0.43812677
18	0xc03ed3b9	-2.9816725
19	0x3f957d15	1.1678797
20	0x3f11951c	0.5686815
21	0x3ed32f3c	0.41246974
22	0xbf002b55	-0.5006612
23	0xbf39d35d	-0.7258814
24	0xbf99db94	-1.2020135
25	0xbee050b8	-0.43811584
26	0x3f0bebcf	0.5465669
27	0x3fd688d6	1.6760509
28	0x401c1962	2.4390492
29	0x3d24bc2f	0.04021853
30	0x3fc38713	1.5275596
31	0xbbe0a83d	-0.006855993
32	0xbe460bc8	-0.19340432
33	0x3fade7f3	1.358641
34	0xbb3c6397	-0.0028745884
35	0xbe011c18	-0.12608373
36	0xbfa3e0c9	-1.2802974
37	0x3f6a5c5f	0.915472
38	0x3f94b51c	1.161777
39	0xbfa5706d	-1.2924935
40	0xbe4e268e	-0.20131895
41	0x3efaf64a	0.4901603
42	0xc063651b	-3.553046
43	0x3dd08b1c	0.10182783
44	0x3faeb059	1.3647567
45	0x3e0a9aa1	0.13535549
46	0xbf4680d1	-0.7754031
47	0xbf374862	-0.7159482
48	0x3e6a7cc0	0.22899151
49	0x3f990f63	1.1957821
50	0xbe96b7be	-0.2943706
51	0x3f452fe8	0.77026224
52	0xbe04e2d4	-0.12977153
53	0xbf39a28e	-0.72513664
54	0xbd31d465	-0.043415446
55	0xbf9d92c4	-1.2310414
56	0x3f215e54	0.6303456
57	0xbfa147b1	-1.2600003
58	0x3f949262	1.1607172
59	0xbf6f61a3	-0.93508357
60	0xbdd400bb	-0.10351702
61	0xbe1d4c66	-0.15361175
62	0x3ea37a72	0.31929356
63	0x3eb20a44	0.34773457
64	0x3fa47076	1.284682
65	0xbdc5da57	-0.09660786
66	0x3ec7cb67	0.3902237
67	0x3f6fe6e4	0.93711686
68	0x3fb74414	1.4317651
69	0xbf3fe7f9	-0.7496334
70	0xbfbe6e5a	-1.4877427
71	0xbeaf0563	-0.34183797
72	0x3d1d18cc	0.038353726
73	0xbf9488e2	-1.1604273
74	0xc06598f4	-3.5874605
75	0xbf9da1c6	-1.2314994
76	0x3f113c20	0.5673237
77	0xbf5cd006	-0.8625492
78	0xbf0d1f94	-0.5512631
79	0xbfd690b0	-1.6762905
80	0xbf1df409	-0.61700493
81	0xbe99a0ce	-0.30005497
82	0xbf71c5b1	-0.9444228
83	0xbd97cdcc	-0.074122995
84	0xbf7b8126	-0.9824394
85	0x3f8279b7	1.0193394
86	0xbe57bbbe	-0.21067712
87	0x3fa5c9ae	1.2952173
88	0x3ffb4078	1.9629049
89	0xbf323700	-0.69615173
90	0x3ed3d4d7	0.4137332
91	0x3fd45e6a	1.6591313
92	0xbe68085a	-0.22659436
93	0xbfbc122e	-1.4693048
94	0xbfda6a6c	-1.7063727
95	0xbb8db049	-0.0043239933
96	0x3ed40cae	0.41415924
97	0x3f76fe8d	0.96482164
98	0x3fd0529c	1.627521
99	0x3e0b5dbe	0.13609979
100	0xbd39c37e	-0.04535245
101	0xbf63696e	-0.8883275
102	0xbeac05ba	-0.3359812
103	0xc00c6e40	-2.1942291
104	0xbe2f5ab8	-0.1712445
105	0x3e63e22d	0.22254248
106	0x4026598a	2.599215
107	0x3e50edaa	0.20403162
108	0xbf3917f3	-0.7230217
109	0x3f9a3797	1.2048215
110	0x3f3fca87	0.7491841
111	0x3e5b0c4d	0.21391411
112	0xbee8f79c	-0.4550141
113	0x3cd271ee	0.025689092
114	0x4029db1b	2.6539981
115	0xbdc5190c	-0.09623918
116	0xbe4f9c49	-0.20274462
117	0xbee9438c	-0.45559347
118	0xbf5d9ffa	-0.8657223
119	0xc020ed65	-2.5144894
120	0x3f185794	0.59508634
121	0xbfd32992	-1.6497061
122	0xbed33b7a	-0.41256315
123	0x3e34142a	0.17585817
124	0x3fcffd71	1.6249219
125	0x3f107419	0.5642715
126	0xbe118a1c	-0.14212841
127	0x3bb18cc3	0.0054183914
128	0x3e87738a	0.26455337
129	0xbc865d80	-0.016402006
130	0x3e80111a	0.25013047
131	0xbe2c64a9	-0.16835274
132	0x3ec8b2e0	0.3919897
133	0xbe4fdfee	-0.20300266
134	0xbe575948	-0.21030152
135	0x3e82a3cc	0.25515592
136	0xbfa42ac9	-1.2825557
137	0x3f45486d	0.7706364
138	0x3e5b9b4c	0.2144596
139	0x3f7d17b2	0.9886428
140	0x3f24ce58	0.64377356
141	0xbef4b630	-0.47795248
142	0xbf9b7034	-1.2143617
143	0x3ebca699	0.36845854
144	0x80000000	-0.0
145	0x80000000	-0.0
146	0x00000000	0.0
147	0x80000000	-0.0
148	0x00000000	0.0
149	0x80000000	-0.0
150	0x80000000	-0.0
151	0x80000000	-0.0
152	0x80000000	-0.0
153	0x80000000	-0.0
154	0x80000000	-0.0
155	0x00000000	0.0
156	0x00000000	0.0
157	0x00000000	0.0
158	0x80000000	-0.0
159	0x80000000	-0.0
160	0x00000000	0.0
161	0x00000000	0.0
162	0x80000000	-0.0
163	0x00000000	0.0
164	0x00000000	0.0
165	0x00000000	0.0
166	0x80000000	-0.0
167	0x00000000	0.0
168	0x80000000	-0.0
169	0x00000000	0.0
170	0x80000000	-0.0
171	0x80000000	-0.0
172	0x00000000	0.0
173	0x00000000	0.0
174	0x80000000	-0.0
175	0x00000000	0.0
176	0x80000000	-0.0
177	0x00000000	0.0
178	0x80000000	-0.0
179	0x00000000	0.0
180	0x80000000	-0.0
181	0x00000000	0.0
182	0x00000000	0.0
183	0x00000000	0.0
184	0x00000000	0.0
185	0x80000000	-0.0
186	0x00000000	0.0
187	0x80000000	-0.0
188	0x00000000	0.0
189	0x00000000	0.0
190	0x80000000	-0.0
191	0x80000000	-0.0
192	0x402f9db4	2.7440004
193	0x3f3ad884	0.72986627
194	0xbe6851f6	-0.22687516
195	0xbf1f69dc	-0.62270904
196	0xbe0c2dee	-0.13689396
197	0xbf120a55	-0.57047015
198	0xbf4f93b1	-0.81084734
199	0xbeb5ee9e	-0.35533613
200	0xbdb96c92	-0.09053911
201	0xbf849786	-1.0358741
202	0xbf1c4186	-0.6103748
203	0x3ef80c50	0.48446894
204	0x3f3cc707	0.7374119
205	0xbedfbad2	-0.4369722
206	0x3f201167	0.62526554
207	0xbf01f0c5	-0.5075801
208	0x3e7bc008	0.24584973
209	0xbe9dab8e	-0.30794948
210	0xbda7c165	-0.08191184
211	0x3ffd70a9	1.9800006
212	0x3f92fd79	1.1483604
213	0xbf0f2167	-0.5591034
214	0x3d9d4378	0.07678884
215	0x3f6d7a3d	0.92764646
216	0x3e9d2018	0.30688548
217	0xbf24da2a	-0.6439539
218	0xc030da5b	-2.7633274
219	0x3cf79e56	0.030226868
220	0x3f8cc89d	1.0998722
221	0xbf46dac4	-0.7767756
222	0x3e7d2eef	0.24724935
223	0x3e4e8803	0.20169072
224	0x3c8fd735	0.017558673
225	0x3ed4c64f	0.41557547
226	0x3ee49f56	0.44652814
227	0xbebcab99	-0.3684967
228	0x3ef47a36	0.4774949
229	0xbe8f9a39	-0.2804735
230	0x3e4ca630	0.1998527
231	0xbf816c8a	-1.0111248
232	0xbf4bb98e	-0.7958001
233	0xbf310eba	-0.69163096
234	0xc030dc71	-2.7634547
235	0x3f0ad600	0.5423279
236	0x3d66df2f	0.05636519
237	0x3f274a00	0.6534729
238	0x3ece9f60	0.40355968
239	0xbd4da49c	-0.05020581
240	0xbf51ae06	-0.81906164
241	0xbf38412a	-0.7197443
242	0x3fa01f02	1.2509463
243	0xbe3380b3	-0.17529564
244	0x3e391a56	0.18076453
245	0x3f2ab680	0.6668472
246	0x3e5929e7	0.2120739
247	0x3eee3fdb	0.46533093
248	0xbf84fe9b	-1.03902
249	0xbe1f1147	-0.15533935
250	0x3ecac418	0.39602733
251	0xbcfe515b	-0.031044653
252	0xbe90f236	-0.28309792
253	0xbf186973	-0.595359
254	0xbf057263	-0.52127665
255	0x3f5cb62c	0.8621547

bn2.weight f4 [16]
0	0x40288a3c	2.6334372
1	0x3fd33741	1.6501237
2	0x40101c7d	2.2517388
3	0x3fce7f68	1.6132631
4	0x40184154	2.3789873
5	0x3f8f8f44	1.1215596
6	0x3ffb8e57	1.9652814
7	0x3f1b3604	0.60629296
8	0x3f3388a4	0.7013037
9	0x3f01c808	0.5069585
10	0x3f75ad4e	0.95967567
11	0x3fe3849e	1.7774847
12	0x3eb16113	0.34644374
13	0x3f14cb56	0.58122766
14	0x400c46af	2.1918142
15	0x3ea1ceeb	0.31603178

bn2.bias f4 [16]
0	0xbf9496a1	-1.1608468
1	0xbea72017	-0.3264167
2	0xbf0f28c2	-0.55921566
3	0xbee65d54	-0.4499308
4	0xbe2ca3aa	-0.16859308
5	0xbe7ab9cc	-0.24484938
6	0xbf2f341e	-0.684389
7	0xbfcad654	-1.5846658
8	0xbe4dc3da	-0.20094243
9	0xbfd9d8fa	-1.7019341
10	0xbfa47716	-1.2848842
11	0xbefe6855	-0.49688974
12	0xbd1469a1	-0.036233548
13	0x3d55752a	0.05211369
14	0xbf403b7f	-0.75090784
15	0x3ee9ea8b	0.45686755

bn2.running_mean f4 [16]
0	0x40873b18	4.2259636
1	0xc0a0fdeb	-5.030996
2	0x40a6be43	5.2107253
3	0xbf16837c	-0.5879438
4	0x40313768	2.7690067
5	0x408210b1	4.0645375
6	0x412433de	10.262663
7	0x3ebf2308	0.37331414
8	0xc0bd7264	-5.9202137
9	0x3ef181f3	0.47169456
10	0x40889141	4.267731
11	0xc10b45b4	-8.704517
12	0x402b0569	2.6722052
13	0xbfc5e992	-1.5461905
14	0x3f1971f4	0.59939504
15	0xc005c1ca	-2.089953

bn2.running_var f4 [16]
0	0x41cacba5	25.349436
1	0x410d34cf	8.825393
2	0x41bccf10	23.601105
3	0x2780020e	3.5529364e-15
4	0x4211808e	36.37554
5	0x421242bd	36.565174
6	0x424fbfb1	51.9372
7	0x3f8bb1af	1.09136
8	0x41f797d2	30.949131
9	0x2680020e	8.882341e-16
10	0x4167718f	14.465224
11	0x416bd931	14.740525
12	0x402f8d91	2.7430155
13	0x4156a9f8	13.416496
14	0x4193d0bf	18.476927
15	0x3fd3bdd5	1.6542307

conv3.bias f4 [32]
0	0xbf0e69b0	-0.55630016
1	0x3dddf45d	0.10837624
2	0xbf08f419	-0.53497463
3	0xbe2b5b2c	-0.16733998
4	0xbdda74f0	-0.10666835
5	0xbe2230d4	-0.15838939
6	0xbd377dca	-0.044797696
7	0xbf43056c	-0.7618015
8	0xbe6f3178	-0.23358715
9	0x3d0a99c3	0.033838045
10	0x3e928f98	0.28625178
11	0x3ebc467e	0.3677253
12	0x3ce10c9d	0.027471835
13	0x3dcedc7e	0.10100649
14	0x3f0a0712	0.5391704
15	0x3e9f2ef0	0.31090498
16	0xbf78ebd1	-0.9723483
17	0x3e4229f9	0.18961324
18	0xbf09deeb	-0.5385577
19	0xbf428ed1	-0.7599917
20	0xbeb207c4	-0.3477155
21	0xbd48836a	-0.04895345
22	0xbe8e5ab9	-0.2780359
23	0xbf261866	-0.6488098
24	0xbd41d2c9	-0.04732016
25	0x3e401190	0.187567
26	0x3f0385dc	0.5137613
27	0xbe95a768	-0.29229283
28	0x3e9491bd	0.2901744
29	0xbf192978	-0.598289
30	0x3ca5b7c2	0.020229224
31	0xbebab4b5	-0.36465994

conv3.weight f4 [32, 16, 3]
0	0x3f20a668	0.62753916
1	0x3f52f9e7	0.8241257
2	0xbfc5c48b	-1.5450605
3	0x3f6d39ac	0.92666125
4	0xc001650d	-2.0217927
5	0x3fb5d30f	1.4205035
6	0x3fa5c03d	1.2949291
7	0xbf25bcd7	-0.6474127
8	0xbf457183	-0.7712633
9	0xbf6f3ed1	-0.93455225
10	0xbe037597	-0.12837826
11	0x3faa0abc	1.3284526
12	0x3f7cf75f	0.9881496
13	0x3e1aa004	0.15100104
14	0x3f3388f0	0.70130825
15	0xc00161b7	-2.021589
16	0xbf88c4e4	-1.0685086
17	0xbf69ec9a	-0.9137665
18	0x3d57f660	0.052725196
19	0x3eb40520	0.3516016
20	0x3f888d89	1.0668193
21	0xbfd6bf37	-1.6777104
22	0xbe11edf9	-0.14250936
23	0x3fa6e0d3	1.3037361
24	0xbfa2ab42	-1.2708514
25	0xbee2b5be	-0.44279283
26	0x3f5719df	0.8402385
27	0xbee69886	-0.4503824
28	0x3e5599f1	0.20859505
29	0xbfa85751	-1.3151647
30	0x3e0f6185	0.14002044
31	0xbcdabd54	-0.026701607
32	0xbe063adf	-0.13108395
33	0x3f6c0a4e	0.92203224
34	0x3f9d13e0	1.227169
35	0xbf914a0b	-1.1350721
36	0xbeb2aeac	-0.3489889
37	0xbfa56675	-1.2921892
38	0x3f9493bf	1.1607589
39	0xbeb2e115	-0.3493735
40	0xbe9da845	-0.30792442
41	0xbea0ee38	-0.31431746
42	0xbc805d6f	-0.015669553
43	0x3dbb3c51	0.09142364
44	0xbe962b8e	-0.29330105
45	0xbed6a5fb	-0.41923508
46	0x3e782c02	0.24235538
47	0xbe48f3a5	-0.19624193
48	0x3f9598ab	1.1687216
49	0xbfe7016b	-1.8047308
50	0x3eababd8	0.33529544
51	0x3fbc493a	1.4709847
52	0xc028f28b	-2.6398036
53	0x3ef40bde	0.47665304
54	0x3f24c3b2	0.6436111
55	0xbf4a6d14	-0.7907269
56	0xbf44f463	-0.76935405
57	0x3ec231b8	0.37928557
58	0xbf88dccf	-1.0692385
59	0xbe6f1de8	-0.23351252
60	0x3dcd1868	0.10014421
61	0x3f89c0fa	1.0762017
62	0x3f5f8e61	0.8732663
63	0x3ec323ef	0.38113353
64	0xbf5d7c33	-0.8651764
65	0x3ebd7966	0.37006682
66	0x3f65993a	0.8968693
67	0xc016fe76	-2.359281
68	0xbed39f05	-0.4133226
69	0xbf3bab45	-0.7330821
70	0x3dff415a	0.12463637
71	0x3eb19c08	0.34689355
72	0x3e556952	0.20840958
73	0xbe89696a	-0.26838237
74	0x3f0752d6	0.5286077
75	0xbe867429	-0.26260498
76	0xbef64f1a	-0.48107225
77	0x3e7088c6	0.23489675
78	0xbf9a436c	-1.2051826
79	0x3dad59a1	0.08464361
80	0xbc9a6993	-0.01884917
81	0x3f6cd94d	0.92519075
82	0x3ed74452	0.42044312
83	0xbf3a4224	-0.7275717
84	0xbef70cc6	-0.48251933
85	0x3f1ed771	0.6204749
86	0x3f0139d0	0.5047884
87	0xbfaff329	-1.3746082
88	0x3eaa4660	0.33256817
89	0x3fb0a1bf	1.3799361
90	0x3fb37799	1.4020873
91	0xbfbc8bca	-1.473016
92	0x3cfbbcf7	0.030729754
93	0x3d2d4b82	0.042308338
94	0xbea1e66f	-0.3162112
95	0x3ec7972a	0.38982517
96	0xbf176ad7	-0.591474
97	0x3f9e38b0	1.236105
98	0x3f1abb94	0.6044247
99	0xbf09389f	-0.5360202
100	0xbeb21a24	-0.3478557
101	0xbfba8c00	-1.4573975
102	0x3d2f4d4e	0.042798333
103	0xbed30973	-0.41218147
104	0xbd9d57dd	-0.07682774
105	0xbdcead2b	-0.10091623
106	0xbf40af97	-0.7526793
107	0xbfdf99b8	-1.7468786
108	0x3fbc5809	1.4714366
109	0x3f763bf5	0.9618524
110	0xbeb50845	-0.35357872
111	0xbf9cef1c	-1.226047
112	0xbec452e8	-0.38344502
113	0x3f98dd5b	1.1942552
114	0xbd84f634	-0.06492272
115	0x3f889a4c	1.0672088
116	0xbe6e0057	-0.23242317
117	0xbfaa94ec	-1.3326697
118	0x3f9e4afe	1.2366636
119	0x3f3e3945	0.74306136
120	0xbf8c3da7	-1.0956315
121	0xbf0024cc	-0.5005615
122	0x3f485713	0.78257865
123	0x3fe2a47a	1.7706444
124	0xbff375d1	-1.902033
125	0xbee98d0c	-0.45615423
126	0x3ef4c850	0.47809076
127	0xbfb75e78	-1.4325705
128	0xbf07877c	-0.5294111
129	0x3fc10d78	1.5082235
130	0xbf48d585	-0.78450805
131	0xbd5d8bac	-0.05408828
132	0xbf4150d1	-0.7551394
133	0xbe11fbf2	-0.14256266
134	0x3ce6677d	0.028125519
135	0xbe7e5c6e	-0.24839947
136	0xbe0d33b9	-0.13789262
137	0x3e90a09f	0.28247544
138	0xbf01c73f	-0.5069465
139	0x3ef0587e	0.46942514
140	0x3f8e38d2	1.111109
141	0xbf5ba4ab	-0.8579814
142	0xbdf5a34b	-0.11994036
143	0xbe9b28c9	-0.30304554
144	0xbed9d8bf	-0.42548177
145	0xbf18517b	-0.5949933
146	0x3c91a6df	0.017779766
147	0xc04bd284	-3.1847239
148	0x3ee5a971	0.44855836
149	0x3e7dc3ac	0.24781674
150	0xbf78477a	-0.96984065
151	0x3eddd043	0.43322954
152	0x3fa07f4d	1.2538849
153	0xbe904f27	-0.28185388
154	0xbf8c7d3a	-1.0975716
155	0xbe552400	-0.20814514
156	0xbfad1519	-1.3522063
157	0xbf78ccd2	-0.9718753
158	0x3f24021b	0.6406571
159	0xbf94bb5d	-1.1619679
160	0xbefbd2e4	-0.49184334
161	0xbe2645a4	-0.16237503
162	0xbebb74cd	-0.3661255
163	0x3cfac69d	0.030612284
164	0x3d8292db	0.06375667
165	0xbc8e5953	-0.017376577
166	0xbf03e7db	-0.5152566
167	0x3d823a36	0.06358759
168	0x3e85cb32	0.26131588
169	0x3f1b032d	0.6055172
170	0xbe9693c2	-0.29409605
171	0x3f9ffcf6	1.2499073
172	0xbf091f11	-0.5356303
173	0x3e63a07d	0.2222919
174	0x3ebd9042	0.37024122
175	0x3ec9b9f8	0.39399695
176	0x3eca1bc6	0.39474314
177	0x3f0a07be	0.53918064
178	0x3e1434e2	0.14473298
179	0x3f9dc005	1.2324225
180	0x3ddd5198	0.108065784
181	0x3edb14b0	0.4278922
182	0xc03d9345	-2.9621136
183	0x3f38ed77	0.7223734
184	0xbf1605db	-0.58602685
185	0xbfc11441	-1.5084306
186	0x3fd4250e	1.6573808
187	0xbf5ba33e	-0.8579596
188	0x3f72ea73	0.9488899
189	0xbf0c44d4	-0.54792523
190	0x3e894f73	0.26818427
191	0x3e4aa891	0.19790865
192	0x3ec0e1f3	0.37672386
193	0xbf219bb0	-0.63128185
194	0xbeb672e2	-0.35634524
195	0x3f8f84de	1.1212423
196	0xbeae0d98	-0.33994746
197	0xbf1e33e1	-0.6179791
198	0xbfeb7778	-1.8395834
199	0xbf2f41de	-0.6845988
200	0x401462e5	2.318536
201	0x3f7c37ee	0.9852284
202	0xbeff579b	-0.49871525
203	0x3d11f129	0.03563038
204	0xbfc47059	-1.5346786
205	0x3fb40933	1.4065307
206	0x3f70778c	0.93932414
207	0x3de0a705	0.109693564
208	0x3f34bca8	0.70600367
209	0xbfca89d0	-1.5823307
210	0x3f9d6b80	1.2298431
211	0xbecfe0cd	-0.40601197
212	0xbf5f30c6	-0.871838
213	0x3f14d6e2	0.58140385
214	0x3e82f97b	0.25580963
215	0xbfba0b05	-1.4534613
216	0xbbca342f	-0.0061707716
217	0x3f586cbe	0.8454093
218	0xbf9566f3	-1.1672043
219	0xbf12068e	-0.5704125
220	0x3eda6cb3	0.42661056
221	0xbf69672e	-0.91173065
222	0xbea56c90	-0.3230939
223	0xbeb4ec0c	-0.3533634
224	0xbee7dc15	-0.45285097
225	0xbf42d979	-0.76113087
226	0xbe9fc3b6	-0.31204003
227	0x401465c3	2.318711
228	0xbdd87324	-0.10568836
229	0xbdafad62	-0.08577992
230	0xbe2eb02e	-0.17059395
231	0x3f88426d	1.0645272
232	0xbf2ef303	-0.68339556
233	0xbf20aa75	-0.62760097
234	0x3fc8fafc	1.5701594
235	0x3e02ac0d	0.12760945
236	0x3f7ab847	0.97937435
237	0x3e79d815	0.24398835
238	0xbe93992a	-0.28827792
239	0xbc268b5a	-0.01016506
240	0x3fe8f743	1.8200458
241	0x3f468b25	0.7755607
242	0xbd2635d2	-0.04057867
243	0x3f9ef437	1.2418278
244	0xbedea277	-0.43483326
245	0xbe59d1ae	-0.21271393
246	0xc01af155	-2.4209797
247	0xbf27911c	-0.65455794
248	0x3d877f46	0.06616072
249	0xbfde9aa0	-1.7390938
250	0x3ee6f8cb	0.4511169
251	0x3f0d0d84	0.5509875
252	0x3d2111f4	0.039323762
253	0x3f712485	0.9419635
254	0x3ecb015c	0.39649475
255	0xbf3486be	-0.705181

bn3.weight f4 [32]
0	0x3fbe93be	1.4888837
1	0x3f3dc4ac	0.7412822
2	0x3fbcffc8	1.4765558
3	0x3f262bf6	0.6491083
4	0x3fa4f521	1.2887307
5	0x3f97d275	1.1861101
6	0x3f1fe7e6	0.62463224
7	0x3ef64115	0.4809653
8	0x3f26c43f	0.651432
9	0x3f544e53	0.82932013
10	0x3f99ecc7	1.2025384
11	0x3fcf8988	1.6213846
12	0x3f9f387e	1.2439115
13	0x3fca0886	1.5783851
14	0x3f438de8	0.76388407
15	0x3ef1c7f8	0.47222877
16	0x3f4488df	0.7677135
17	0x3f470b7d	0.77751905
18	0x3fe90bd0	1.820673
19	0x3fdeaab5	1.7395846
20	0x3f8ba9b6	1.0911167
21	0x3f6d5386	0.9270557
22	0x3fc66800	1.5500488
23	0x3fa4d858	1.2878523
24	0x3f9ffb7c	1.2498622
25	0x3f86207b	1.0478662
26	0x3fa36dbb	1.2767862
27	0x3fbcef98	1.4760618
28	0x3f632482	0.8872758
29	0x3fb3a1db	1.4033769
30	0x3f595885	0.84900695
31	0x3f5d9e76	0.8656992

bn3.bias f4 [32]
0	0xc00aff4a	-2.1718316
1	0xc00b4dc3	-2.1766212
2	0xbfb88037	-1.4414128
3	0xbf96712e	-1.175329
4	0xbf25f8a2	-0.6483251
5	0xbf990db8	-1.1957312
6	0xbff10d79	-1.8832237
7	0xbf819aa7	-1.0125321
8	0xbf2e55d6	-0.68099725
9	0xc01339e4	-2.3004084
10	0xbfeb22f0	-1.8370037
11	0xbffbad46	-1.9662254
12	0xbe711d96	-0.23546442
13	0xc0074e20	-2.1141434
14	0xbfc49ec8	-1.5360956
15	0xbe2b2692	-0.16713932
16	0xbf8c6e1a	-1.09711
17	0xbfe61a91	-1.7976857
18	0xbfdecbd4	-1.7405953
19	0xbfd96d52	-1.6986487
20	0xbf15aac8	-0.58463717
21	0xbe48b794	-0.1960128
22	0xbfdcc189	-1.7246562
23	0xbfb71486	-1.4303138
24	0xbf2c4d53	-0.6730549
25	0xbfa3eb10	-1.280611
26	0xbfbeaad4	-1.4895883
27	0xbfd65487	-1.6744546
28	0xbf7d0c22	-0.9884664
29	0xbfc532a0	-1.5406075
30	0xbf52ba92	-0.82315934
31	0xc023f846	-2.5620284

bn3.running_mean f4 [32]
0	0xbe2f0232	-0.17090681
1	0x3f16228b	0.5864646
2	0x3dabff65	0.08398322
3	0xc0269007	-2.6025407
4	0x3fb20d68	1.3910341
5	0x3e5a9929	0.21347488
6	0x3f47c5cc	0.7803619
7	0xbfc26295	-1.5186335
8	0x3efc155f	0.49235055
9	0xbf22285b	-0.6334283
10	0x3f715013	0.9426281
11	0x3cd1b212	0.025597606
12	0x3fd92f1e	1.6967504
13	0xbefe030a	-0.49611694
14	0x3f510b96	0.81658304
15	0x3dce107a	0.100617364
16	0xc000d1b2	-2.0127988
17	0xbe1727fb	-0.14761345
18	0x3e9f03d0	0.31057596
19	0xc03b7882	-2.9292302
20	0x3f9afb6b	1.2107977
21	0x3fa29996	1.2703121
22	0xbe6654e4	-0.2249332
23	0xbfe0389e	-1.7517278
24	0xbe56ed5e	-0.20988986
25	0x3f8b2a8a	1.0872357
26	0x3fdaf5c5	1.7106253
27	0xbf9801ae	-1.1875513
28	0x3fc88842	1.5666583
29	0xbfa086be	-1.254112
30	0x3db5e62f	0.08881795
31	0xbd04c556	-0.032414757

bn3.running_var f4 [32]
0	0x40f576e8	7.670765
1	0x40079cf1	2.118954
2	0x41238435	10.219777
3	0x40801e9e	4.0037374
4	0x40d20d75	6.5641427
5	0x40c22dfd	6.068114
6	0x3fca563d	1.5807568
7	0x3fb5aca4	1.4193311
8	0x404d9d99	3.212744
9	0x3fdbbbee	1.7166727
10	0x410a8d9d	8.659574
11	0x40c59275	6.174128
12	0x40ff0688	7.9695473
13	0x41073cbb	8.452327
14	0x401ae0f5	2.4199803
15	0x405581b8	3.3360424
16	0x3ff4300f	1.9077166
17	0x400865a8	2.1312046
18	0x40bc0120	5.8751373
19	0x40fd6b02	7.9193125
20	0x411d716c	9.840191
21	0x40a9d7d8	5.307598
22	0x416f9cf3	14.975818
23	0x410f6a8e	8.963514
24	0x405f97e0	3.4936447
25	0x4098c2f0	4.773796
26	0x40d4e717	6.653209
27	0x409b995c	4.8624706
28	0x4084f44a	4.1548204
29	0x409735ea	4.7253313
30	0x40b2b5c5	5.5846887
31	0x40341be1	2.8142016

conv4.bias f4 [32]
0	0x3ea67108	0.3250811
1	0x3cef3c54	0.029203571
2	0xbedb967a	-0.42888242
3	0x3e0f93ba	0.14021197
4	0xbe3af2c9	-0.18256678
5	0xbe664078	-0.2248553
6	0x3e1f07b6	0.15530285
7	0x3c6e5106	0.014545685
8	0xbed24df2	-0.41075093
9	0xbcd5b8d1	-0.026089104
10	0xbe894321	-0.26809028
11	0xbdcb7a1b	-0.09935399
12	0x3e241947	0.16025268
13	0xbe6dd000	-0.23223877
14	0x3ce0305a	0.027366806
15	0xbd38e1bf	-0.045137163
16	0x3ca1e6e0	0.01976341
17	0xbdcba195	-0.09942929
18	0xbf085a94	-0.5326321
19	0xbb9cafc0	-0.004781693
20	0x3c93874c	0.01800885
21	0x3dcc951d	0.099893786
22	0x3cf76060	0.030197322
23	0x3caf2614	0.021380462
24	0x3e0e8873	0.13919239
25	0xbebf7031	-0.37390283
26	0xbe993be9	-0.2992852
27	0xbe445018	-0.19171178
28	0xbf1286cb	-0.5723693
29	0xbe6b3090	-0.22967744
30	0xbd8458b3	-0.064622305
31	0x3d2b00e8	0.04174891

conv4.weight f4 [32, 32, 3]
0	0x00000000	0.0
1	0x00000000	0.0
2	0x00000000	0.0
3	0x80000000	-0.0
4	0x80000000	-0.0
5	0x80000000	-0.0
6	0x00000000	0.0
7	0x00000000	0.0
8	0x80000000	-0.0
9	0x00000000	0.0
10	0x00000000	0.0
11	0x00000000	0.0
12	0x00000000	0.0
13	0x80000000	-0.0
14	0x80000000	-0.0
15	0x80000000	-0.0
16	0x00000000	0.0
17	0x00000000	0.0
18	0x00000000	0.0
19	0x00000000	0.0
20	0x80000000	-0.0
21	0x00000000	0.0
22	0x00000000	0.0
23	0x80000000	-0.0
24	0x00000000	0.0
25	0x80000000	-0.0
26	0x80000000	-0.0
27	0x80000000	-0.0
28	0x80000000	-0.0
29	0x00000000	0.0
30	0x00000000	0.0
31	0x80000000	-0.0
32	0x00000000	0.0
33	0x00000000	0.0
34	0x00000000	0.0
35	0x80000000	-0.0
36	0x80000000	-0.0
37	0x00000000	0.0
38	0x80000000	-0.0
39	0x80000000	-0.0
40	0x80000000	-0.0
41	0x00000000	0.0
42	0x80000000	-0.0
43	0x00000000	0.0
44	0x80000000	-0.0
45	0x80000000	-0.0
46	0x80000000	-0.0
47	0x80000000	-0.0
48	0x80000000	-0.0
49	0x00000000	0.0
50	0x80000000	-0.0
51	0x00000000	0.0
52	0x80000000	-0.0
53	0x00000000	0.0
54	0x80000000	-0.0
55	0x80000000	-0.0
56	0x80000000	-0.0
57	0x00000000	0.0
58	0x00000000	0.0
59	0x80000000	-0.0
60	0x00000000	0.0
61	0x00000000	0.0
62	0x00000000	0.0
63	0x00000000	0.0
64	0x00000000	0.0
65	0x80000000	-0.0
66	0x80000000	-0.0
67	0x00000000	0.0
68	0x80000000	-0.0
69	0x80000000	-0.0
70	0x00000000	0.0
71	0x00000000	0.0
72	0x00000000	0.0
73	0x00000000	0.0
74	0x80000000	-0.0
75	0x80000000	-0.0
76	0x00000000	0.0
77	0x80000000	-0.0
78	0x80000000	-0.0
79	0x80000000	-0.0
80	0x80000000	-0.0
81	0x00000000	0.0
82	0x80000000	-0.0
83	0x00000000	0.0
84	0x80000000	-0.0
85	0x00000000	0.0
86	0x00000000	0.0
87	0x00000000	0.0
88	0x80000000	-0.0
89	0x00000000	0.0
90	0x80000000	-0.0
91	0x00000000	0.0
92	0x00000000	0.0
93	0x80000000	-0.0
94	0x80000000	-0.0
95	0x00000000	0.0
96	0x00000000	0.0
97	0x00000000	0.0
98	0x80000000	-0.0
99	0x80000000	-0.0
100	0x00000000	0.0
101	0x00000000	0.0
102	0x00000000	0.0
103	0x80000000	-0.0
104	0x00000000	0.0
105	0x80000000	-0.0
106	0x80000000	-0.0
107	0x00000000	0.0
108	0x00000000	0.0
109	0x00000000	0.0
110	0x80000000	-0.0
111	0x00000000	0.0
112	0x80000000	-0.0
113	0x00000000	0.0
114	0x00000000	0.0
115	0x00000000	0.0
116	0x00000000	0.0
117	0x80000000	-0.0
118	0x80000000	-0.0
119	0x00000000	0.0
120	0x80000000	-0.0
121	0x80000000	-0.0
122	0x80000000	-0.0
123	0x00000000	0.0
124	0x80000000	-0.0
125	0x80000000	-0.0
126	0x00000000	0.0
127	0x80000000	-0.0
128	0x80000000	-0.0
129	0x00000000	0.0
130	0x80000000	-0.0
131	0x80000000	-0.0
132	0x80000000	-0.0
133	0x00000000	0.0
134	0x00000000	0.0
135	0x00000000	0.0
136	0x00000000	0.0
137	0x80000000	-0.0
138	0x80000000	-0.0
139	0x00000000	0.0
140	0x00000000	0.0
141	0x00000000	0.0
142	0x00000000	0.0
143	0x80000000	-0.0
144	0x00000000	0.0
145	0x00000000	0.0
146	0x80000000	-0.0
147	0x00000000	0.0
148	0x80000000	-0.0
149	0x00000000	0.0
150	0x80000000	-0.0
151	0x80000000	-0.0
152	0x00000000	0.0
153	0x00000000	0.0
154	0x00000000	0.0
155	0x80000000	-0.0
156	0x00000000	0.0
157	0x80000000	-0.0
158	0x00000000	0.0
159	0x80000000	-0.0
160	0x00000000	0.0
161	0x80000000	-0.0
162	0x80000000	-0.0
163	0x80000000	-0.0
164	0x80000000	-0.0
165	0x80000000	-0.0
166	0x00000000	0.0
167	0x80000000	-0.0
168	0x80000000	-0.0
169	0x80000000	-0.0
170	0x00000000	0.0
171	0x80000000	-0.0
172	0x00000000	0.0
173	0x00000000	0.0
174	0x00000000	0.0
175	0x80000000	-0.0
176	0x00000000	0.0
177	0x00000000	0.0
178	0x80000000	-0.0
179	0x00000000	0.0
180	0x00000000	0.0
181	0x80000000	-0.0
182	0x80000000	-0.0
183	0x80000000	-0.0
184	0x00000000	0.0
185	0x80000000	-0.0
186	0x80000000	-0.0
187	0x80000000	-0.0
188	0x00000000	0.0
189	0x00000000	0.0
190	0x80000000	-0.0
191	0x00000000	0.0
192	0x3fb09acc	1.379724
193	0xbe31dcc9	-0.17369379
194	0xbf310bc9	-0.6915861
195	0xbf0860ce	-0.5327271
196	0x3db50a31	0.088398345
197	0x3e8991f8	0.26869178
198	0xbf699cf8	-0.9125514
199	0x3ef84f7a	0.48498136
200	0xbaba14ff	-0.0014196931
201	0xbec30f6a	-0.38097697
202	0x3e1e1f46	0.15441617
203	0xbfcf6220	-1.620182
204	0xbf158a5e	-0.58414257
205	0x3f2a96c1	0.6663628
206	0x3d132f45	0.03593375
207	0xbdb211eb	-0.08694824
208	0xbffed043	-1.9907306
209	0x3f8dcedc	1.1078753
210	0x3eae7f38	0.34081435
211	0x3db61f2f	0.088926665
212	0x401bc9cc	2.4341917
213	0x3e9ddd01	0.30832675
214	0xbda37a97	-0.079823665
215	0xbe92f6a3	-0.28703794
216	0xbefd7e29	-0.49510315
217	0x3f3c3352	0.7351581
218	0xbf9096d7	-1.1296033
219	0x3f3fa45a	0.74860156
220	0x3f8445f3	1.0333847
221	0xbe124511	-0.14284159
222	0xbf8669f0	-1.050108
223	0xbf576847	-0.8414349
224	0x3fb7ccf5	1.4359423
225	0x4023f70d	2.5619538
226	0x3fe19988	1.7624979
227	0xbea3dda1	-0.32005027
228	0xbc08c428	-0.008347549
229	0x3def33d4	0.11679807
230	0xbf8bbbc5	-1.0916678
231	0xbf93fcbf	-1.1561507
232	0x3f4a82a5	0.791056
233	0x3f392ace	0.7233094
234	0xbfe818dd	-1.8132588
235	0xbe44a6ed	-0.19204302
236	0x3ed75a61	0.4206114
237	0xbf41bb1b	-0.75676125
238	0xbe96c4fa	-0.29447156
239	0xbdcd9834	-0.10038796
240	0x3f5a189f	0.8519382
241	0xbee78477	-0.4521825
242	0xbf935cd2	-1.1512702
243	0xbe6c2775	-0.23061927
244	0xbdcee557	-0.10102337
245	0x3f99fc95	1.2030207
246	0x3ef6e6f1	0.4822307
247	0x3ff058e9	1.8777133
248	0xbfe49afe	-1.78598
249	0x3ec72c60	0.38901043
250	0xbc0aa949	-0.008463212
251	0x3cb76114	0.022385158
252	0x3f320491	0.6953822
253	0xbc70d5d3	-0.014699417
254	0xbe8b18dc	-0.27167404
255	0x3f3e4628	0.743258

bn4.weight f4 [32]
0	0x40a25ee2	5.0740824
1	0x40cf482b	6.4775596
2	0x40a6db71	5.2142873
3	0x40bfd7f8	5.9951134
4	0x40e0020f	7.0002513
5	0x40b0c12e	5.5235815
6	0x40a69204	5.205324
7	0x40bf58ec	5.9796047
8	0x40b8f80b	5.7802787
9	0x40c13392	6.037545
10	0x408548c3	4.165132
11	0x40dba789	6.864201
12	0x40b78b1a	5.73573
13	0x40d32212	6.597909
14	0x40be32e1	5.943711
15	0x40e6d4fe	7.2135
16	0x40dae1ab	6.8400474
17	0x40bccb19	5.899792
18	0x41018481	8.09485
19	0x40c79d42	6.2379465
20	0x408b3f45	4.3514733
21	0x40c378e9	6.1085095
22	0x40f0ea27	7.528583
23	0x40bb3e23	5.851335
24	0x40905489	4.510319
25	0x40edb019	7.4277463
26	0x40e1c916	7.0557966
27	0x40ab4235	5.351832
28	0x40c8b99e	6.2726583
29	0x40aa85f5	5.328852
30	0x40ad20e2	5.410264
31	0x40bbbe1f	5.866958

bn4.bias f4 [32]
0	0xc042f8fc	-3.0464468
1	0xc031424b	-2.7696712
2	0x3c5deea0	0.013545662
3	0xc02840ff	-2.628967
4	0xc006cafe	-2.1061397
5	0xc04f5a0c	-3.239871
6	0xc04431ea	-3.0655465
7	0xc0a59a1f	-5.1750636
8	0xc04b1e5b	-3.1737278
9	0xbfa1ad51	-1.2631017
10	0xc025b085	-2.588899
11	0xc07230a7	-3.7842195
12	0xbfb88ee5	-1.4418608
13	0xc02f767e	-2.7416072
14	0xbfcbfdf7	-1.5936879
15	0xc08a77d5	-4.327128
16	0xc043a1a0	-3.0567398
17	0xc085349c	-4.162672
18	0xbeb41713	-0.35173854
19	0xbf2ce24b	-0.67532796
20	0xbf263765	-0.64928275
21	0xc0290932	-2.6411862
22	0xbfa4db9b	-1.2879518
23	0xc067b2c2	-3.6202855
24	0xbfa00e36	-1.2504337
25	0xc046e96f	-3.1079977
26	0xc0949321	-4.64296
27	0xc04d8633	-3.2113159
28	0xc03d5b85	-2.958711
29	0xc0928dda	-4.579816
30	0xc02b0ed7	-2.6727808
31	0xc073b68a	-3.8080163

bn4.running_mean f4 [32]
0	0x3ea67100	0.32508087
1	0x3cef3c4b	0.029203555
2	0xbf571765	-0.8402007
3	0xbe95ccce	-0.29257816
4	0xbe6fbd39	-0.23412026
5	0xbe664077	-0.22485529
6	0x3e1f07b8	0.15530288
7	0x3c6e50fe	0.014545677
8	0xbed24df2	-0.41075093
9	0xbcd5b8d1	-0.026089104
10	0xbe89431b	-0.2680901
11	0xbd3cc066	-0.046081923
12	0x3e241940	0.16025257
13	0xbf4b2b9c	-0.7936342
14	0xbe92d4ba	-0.28677922
15	0xbf212cbb	-0.6295888
16	0x3ca1e6e1	0.019763412
17	0xbdcba18e	-0.099429235
18	0xbf184dd4	-0.59493756
19	0xbdd73359	-0.10507841
20	0x3c938747	0.018008841
21	0xbefaf338	-0.49013686
22	0xbc9fc98a	-0.019505281
23	0x3caf260e	0.02138045
24	0x3e0e886c	0.13919228
25	0xbf4234f9	-0.7586208
26	0xbee302c7	-0.44338056
27	0xbe445019	-0.1917118
28	0xbf1286cc	-0.57236934
29	0xbe6b3090	-0.22967744
30	0xbd8458b5	-0.06462232
31	0x3d2b00e8	0.04174891

bn4.running_var f4 [32]
0	0x26800c5a	8.885132e-16
1	0x22800c5a	3.4707547e-18
2	0x3feaf092	1.8354666
3	0x3fc871f4	1.5659776
4	0x3f9630ad	1.1733605
5	0x26800c5a	8.885132e-16
6	0x00000004	6e-45
7	0x00000004	6e-45
8	0x27800c51	3.554049e-15
9	0x00000004	6e-45
10	0x26800c51	8.885123e-16
11	0x3fac6620	1.3468666
12	0x00000004	6e-45
13	0x40124a9c	2.2858038
14	0x3f9625f9	1.1730338
15	0x3fc62f0d	1.5483109
16	0x22800c5a	3.4707547e-18
17	0x00000004	6e-45
18	0x3ff6bf43	1.9277118
19	0x400cde93	2.2010849
20	0x00000004	6e-45
21	0x3fb2a77b	1.3957361
22	0x400a7d7f	2.1639097
23	0x00000004	6e-45
24	0x00000004	6e-45
25	0x3f9121df	1.1338462
26	0x3fe54814	1.7912621
27	0x00000004	6e-45
28	0x00000004	6e-45
29	0x25800c5a	2.221283e-16
30	0x00000004	6e-45
31	0x23800c5a	1.3883019e-17

conv5.bias f4 [16]
0	0x3ed5a555	0.417277
1	0x3f832c95	1.024798
2	0xbf2ca6f0	-0.67442226
3	0x3f84b4e6	1.0367706
4	0x3e2613c1	0.16218473
5	0xc017213e	-2.361404
6	0xbfde62f9	-1.7373954
7	0x3e92f5c7	0.28703138
8	0x3e752670	0.23940444
9	0xbfa4c53b	-1.287269
10	0x3f2ceb12	0.6754619
11	0xbfe00e77	-1.7504414
12	0xbf92d934	-1.1472535
13	0x3f43e2e2	0.7651807
14	0x3f0c0720	0.5469837
15	0xbfc3ac6c	-1.5286994

conv5.weight f4 [16, 32, 1]
0	0x3ea789eb	0.3272241
1	0xc004c566	-2.0745482
2	0x3fd641b6	1.6738803
3	0xbfd3ebf9	-1.6556388
4	0xc0496d8a	-3.1473107
5	0xbfd46051	-1.6591893
6	0xbde73203	-0.11288836
7	0x402249c6	2.5357528
8	0x3fafd8ec	1.3738074
9	0xbfd789b2	-1.6838896
10	0x3fb6b427	1.4273728
11	0xc014ad99	-2.3230956
12	0xbfa0e11f	-1.2568702
13	0x3fec9a3a	1.8484566
14	0xbf3d5b3a	-0.73967326
15	0x3f460dc6	0.77364767
16	0x3f7251b0	0.94655895
17	0xbf3d026f	-0.7383184
18	0x3f8e04f6	1.1095264
19	0xc015c16a	-2.33993
20	0xbfa43d6c	-1.2831244
21	0xbe025a2c	-0.1272971
22	0xbedb260c	-0.42802465
23	0xbe7f8900	-0.24954605
24	0xbfa3d42c	-1.2799125
25	0x3dbac501	0.09119607
26	0x3febafe0	1.8413048
27	0xbfd9a22e	-1.7002618
28	0xbfe5e03f	-1.795906
29	0xbf6f649d	-0.935129
30	0x400c25ed	2.1898148
31	0x3eb3c653	0.35112247
32	0x3fa07207	1.2534798
33	0xbf24a93f	-0.6432075
34	0xbef5b383	-0.4798852
35	0xbf099c82	-0.53754437
36	0xc00e49e3	-2.2232597
37	0xc028ab37	-2.6354501
38	0x3f75dac4	0.96036935
39	0x3f44f6eb	0.76939267
40	0x3f6a40b3	0.91504973
41	0xbe484b81	-0.19560052
42	0x3f877a5f	1.058422
43	0x40278927	2.617746
44	0x3fa1d6a7	1.2643632
45	0xbf7d6410	-0.9898081
46	0x3ecbbb7b	0.39791474
47	0x3f6cb2de	0.9246043
48	0x40333ce4	2.8005915
49	0xc06b3909	-3.6753561
50	0x3bb9ac7c	0.0056663137
51	0xbf179c5d	-0.59222966
52	0x3f6b8f13	0.9201519
53	0x3ef030fd	0.46912375
54	0x3fd055b5	1.6276156
55	0x3ee86e5b	0.45396695
56	0xbfcc2a06	-1.5950325
57	0xc017640e	-2.3654819
58	0xbfd9ac3e	-1.7005689
59	0xbfb2bcb7	-1.3963841
60	0xc02e0efc	-2.7196646
61	0x3f5ef9ca	0.870999
62	0xc0721052	-3.782246
63	0xc019ac61	-2.4011462
64	0xc03e822a	-2.9766946
65	0x4036462c	2.848033
66	0xbe8a18b3	-0.2697197
67	0xc0873428	-4.2251167
68	0xbebb7a68	-0.36616826
69	0x3f4d13f6	0.8010858
70	0x3f471d08	0.77778673
71	0x3f318498	0.69342947
72	0xbfe26e73	-1.7689956
73	0x3e64c2ce	0.22339937
74	0x3f9e0cdb	1.2347673
75	0xc0bc62ca	-5.887059
76	0x3fa7babb	1.3103861
77	0x3e3e0bf3	0.18559246
78	0xbf18ed3e	-0.59737
79	0x402af3b4	2.6711245
80	0x4005e9de	2.0923991
81	0xc099d51d	-4.807265
82	0x40026553	2.0374343
83	0xbfc41d3c	-1.5321422
84	0x401210e4	2.282281
85	0xc0afd143	-5.4942946
86	0x400658be	2.0991664
87	0xc085159a	-4.158887
88	0xc015788f	-2.3354833
89	0x406610a8	3.5947666
90	0xc06dfdde	-3.7186198
91	0x3fe07beb	1.7537817
92	0xbfac9505	-1.3482977
93	0x3fce3bf5	1.6112047
94	0x3e5d52bd	0.21613593
95	0xc0990038	-4.7812767
96	0xbf909d96	-1.1298091
97	0x401cea4e	2.4518008
98	0x3e77e27a	0.24207488
99	0x3edb4a64	0.42830193
100	0xbfb11b92	-1.3836539
101	0x3f646991	0.8922358
102	0x400b5503	2.1770637
103	0xbfec0d32	-1.8441527
104	0x40233dd2	2.5506482
105	0x3f247de9	0.64254624
106	0x3e3bea86	0.18351182
107	0x400625e4	2.0960627
108	0x3fdb195f	1.7117118
109	0xc085c78a	-4.180608
110	0x3f53cfdd	0.8273905
111	0xbfe53f3d	-1.7909924
112	0xc01796f1	-2.3685877
113	0x3e0e325c	0.13886398
114	0xc0373883	-2.8628242
115	0x3f6d1da6	0.92623365
116	0xbf9cbada	-1.2244523
117	0xbf58cc7a	-0.84687006
118	0x3ee9b6c6	0.45647258
119	0xbe0b7cde	-0.13621852
120	0x3f97e278	1.1865988
121	0x40328e08	2.789919
122	0xbf59ef6d	-0.8513096
123	0xc09a16b0	-4.8152695
124	0x3f8cf38a	1.1011822
125	0xc04c5810	-3.192875
126	0xbfc5fc13	-1.5467552
127	0x4043d4b7	3.059858
128	0x3f01d0e0	0.5070934
129	0xc01f7f3c	-2.4921408
130	0xbf596ad4	-0.8492863
131	0x4022bef8	2.5429058
132	0x3ec21bc0	0.37911797
133	0xbfb0d1bf	-1.381401
134	0x4023673d	2.5531762
135	0x4039dc76	2.9040809
136	0xbfaec4dd	-1.3653828
137	0xbe0df9ac	-0.13864774
138	0x3fecaa92	1.8489554
139	0xbf9a53ca	-1.205682
140	0x3e91aad8	0.28450656
141	0x3f298918	0.66224813
142	0xbcc7a602	-0.02437115
143	0xc043783d	-3.0542138
144	0xbff39306	-1.9029243
145	0xbeb2ec7b	-0.34946045
146	0x3f1718fd	0.59022504
147	0xbe8c1898	-0.27362514
148	0x3d0a7b03	0.03380872
149	0xbe98e628	-0.29863095
150	0x3f87c082	1.0605624
151	0x3f24d317	0.643846
152	0x3eadb59a	0.33927613
153	0xbff6de41	-1.9286577
154	0xbfb0df17	-1.3818082
155	0x3f748bdf	0.95525926
156	0x4042891f	3.0396192
157	0xbf882505	-1.0636297
158	0xbfe16eb9	-1.7611915
159	0xbf8c9d2a	-1.0985463
160	0xc052ec6c	-3.29568
161	0xbe59a593	-0.21254568
162	0xc004d116	-2.0752616
163	0xc0762cc5	-3.8464825
164	0xbfd49d62	-1.661053
165	0xbf3bfd99	-0.73433834
166	0xc0043f87	-2.0663774
167	0xbfd30b25	-1.6487776
168	0xbe1b4f88	-0.15167058
169	0x403ce56f	2.9515035
170	0xbf10dc7b	-0.56586426
171	0x404e61b8	3.2247143
172	0xbef220ed	-0.47290745
173	0x401c3568	2.4407597
174	0xc04370b0	-3.053753
175	0x3ff2068a	1.8908246
176	0x3e17d35c	0.14826721
177	0x4059986c	3.399928
178	0xbeb3d424	-0.35122788
179	0x3fb67dda	1.4257157
180	0x3f90097f	1.1252898
181	0xbfdb1762	-1.7116511
182	0x3e223d47	0.15843688
183	0xc01d61c4	-2.4590921
184	0xbef0dcec	-0.4704355
185	0x404ab829	3.1674902
186	0xbf8e7594	-1.1129632
187	0xbdd5a463	-0.10431745
188	0xc020e9db	-2.5142734
189	0x40632890	3.5493507
190	0xbf76a7a8	-0.96349573
191	0x3f978ae8	1.1839266
192	0x3f68080f	0.90637296
193	0xbf283c1e	-0.6571673
194	0xbdaf3e5a	-0.085568145
195	0x40077fbe	2.1171718
196	0x3e45dc94	0.19322425
197	0x40189fa4	2.3847437
198	0x3f08de34	0.53464055
199	0xc0658649	-3.586321
200	0x3f9b28b3	1.2121795
201	0xbfd9bb1e	-1.7010229
202	0x3f4670b8	0.77515745
203	0xbed0427f	-0.40675732
204	0xc0843b21	-4.132218
205	0x3fce41b9	1.6113807
206	0xbfef33df	-1.8687705
207	0x3ec0fa7b	0.376911
208	0x3f984f02	1.1899111
209	0x3e522f0f	0.20525764
210	0x4029fed6	2.656179
211	0x3f37a2bc	0.7173269
212	0x3fed32c0	1.8531113
213	0xc078b807	-3.8862321
214	0xc08eff92	-4.4686975
215	0x3f8ab037	1.0835027
216	0xbf7d3a01	-0.9891663
217	0x3f88479c	1.0646853
218	0xc0313b4f	-2.769245
219	0xbf2d41ac	-0.6767833
220	0x3f024236	0.5088228
221	0xc003cd88	-2.0594196
222	0x3f8c0c5b	1.094127
223	0x3fe22970	1.7668896
224	0x3fd2e958	1.6477461
225	0x401fae41	2.4950106
226	0x3eefb7cc	0.46819913
227	0x401655fc	2.348998
228	0xc03db1fb	-2.963988
229	0x40088e00	2.133667
230	0xc06c00db	-3.6875522
231	0xbf30ffbf	-0.6914024
232	0x3c37c7ff	0.011217116
233	0x3fcb19b1	1.5867215
234	0xc06c6454	-3.6936235
235	0x3fd9c069	1.7011844
236	0x3f8aa7cd	1.0832459
237	0x3fe1767d	1.7614285
238	0x400192aa	2.0245767
239	0xc05a2352	-3.4084058
240	0xbfff32a5	-1.993733
241	0xbedfd701	-0.43718722
242	0xc06c6de4	-3.6942072
243	0xbfb0d763	-1.3815731
244	0xc01c997a	-2.4468675
245	0xbdad94f6	-0.08475678
246	0x3d233106	0.039841674
247	0x3f9c4482	1.2208407
248	0xbe24e3a4	-0.16102463
249	0x3f6ac531	0.9170714
250	0xbe3fd925	-0.18735178
251	0xbfa482af	-1.2852381
252	0xbfa87085	-1.3159338
253	0xc000b76a	-2.0111947
254	0xbed03f3a	-0.40673238
255	0x3e90c3fe	0.2827453
