networks/pretrained_models/ustc-tfc2016/CNN1D_TrafficClassification_best_model_without_aux.pth (torch, 37362 bytes, 26 tensors)

conv1.weight f4 [16, 1, 3]
00000000: c9a2 44bf 5e78 a1be 7893 1fbf 6219 6bbd
00000010: 0f15 abbf dc9e e3bf eb7f 11bf 5064 95be
00000020: 2ade d03e 3953 84bf 18ed 813e 341e 0fbc
00000030: 54a3 f33e 9d35 4c3f 9cd7 5d3e 8d7a 9a3e
00000040: 2157 1e3e 9900 45bf 8206 a63d 8c75 053d
00000050: 4a08 42c0 fd71 b2bf 74a6 b5be 320b 0a3e
00000060: 12ec 8cc0 fda1 15bd c94d 6d3d 30e9 1bbf
00000070: 4b2d 083f 68d1 123f 5ce6 393f 5d00 0f3f
00000080: 8354 7a3e bc76 53bc 5804 a5bf 8db6 3b3e
00000090: 8d04 9e3e f766 403d 04a1 5b3f baee 27be
000000a0: bf9e bd3e b6d9 a03f 5111 1e3f 9ba2 d1be
000000b0: c452 4bbf fac3 523e 6051 94be 502c 763f
-0.7681089 -0.31537145 -0.62334394 -0.057397254 -1.3365802 -1.7782855 -0.5683581 -0.29178095
0.40794498 -1.0337898 0.253762 -0.008735228 0.47585547 0.7976931 0.2166428 0.30171624
0.15462925 -0.76954037 0.0810671 0.032582805 -3.031756 -1.3941036 -0.35478556 0.13480833
-4.403817 -0.036531437 0.05793551 -0.6090269 0.5319411 0.5735078 0.72617126 0.5585993
0.24446301 -0.012906726 -1.2891951 0.18331356 0.30862847 0.046973195 0.85792565 -0.1639966
0.37035176 1.256644 0.6174517 -0.4094437 -0.79423165 0.20582572 -0.28968334 0.96161366

conv1.bias f4 [16]
00000000: 7515 b5bd 261d 3abf 38bb 903d e7ad 193f
00000010: 8105 1cbd a7a8 ee3d e9d3 5cbe 2a16 123d
00000020: 8d15 9abf f63f ae3f 8916 1040 e0f0 4c3d
00000030: d91a 253f 29f7 afbf 69be 2f3e 27a2 3540
-0.08841983 -0.72700727 0.07066959 0.6003098 -0.038091186 0.11653262 -0.21565212 0.03566567
-1.2037827 1.3613269 2.2513754 0.050034404 0.6449409 -1.3747302 0.1716248 2.838022

bn1.weight f4 [16]
00000000: 2b10 7a40 5208 9740 7776 353f f948 1f40
00000010: 88e9 5d3f dd57 ef3f 77c4 3a40 f7f0 0540
00000020: 66db 6240 4d34 883f 6b2f bb3f 3601 2040
00000030: 216d 9a3f 2564 da3f 23cd 9d40 e738 8d3f
3.9072368 4.7197657 0.7088389 2.488829 0.86684465 1.8698689 2.9182413 2.0928323
3.544641 1.0640961 1.4623846 2.500074 1.2064553 1.7061812 4.931291 1.103299

bn1.bias f4 [16]
00000000: 6e03 52bf 9ca2 f5be 58ba f23e ec73 9fbf
00000010: b859 103f 6d65 313f ea5b 71bf 7bbd 123f
00000020: 049b 87bf b872 17bf 2ec9 8dbf 84d1 1fbf
00000030: de90 bb3f 2b8d 26c0 8c81 09c0 20d1 84bf
-0.82036483 -0.47975624 0.47407794 -1.2457252 0.563869 0.6929539 -0.94280875 0.57320374
-1.0594182 -0.5915942 -1.107702 -0.6242907 1.4653585 -2.6023662 -2.148532 -1.037632

bn1.running_mean f4 [16]
00000000: e746 92be 9de6 8bbf d370 8b3c c40b 023f
00000010: b710 053e 3756 a53d 2016 0dbf 05a0 17be
00000020: f194 dabf 66a2 b53f 0969 1b40 41cd a4bd
00000030: 146a 493f 2777 9abf 92f6 d43d e70d 3c40
-0.2856972 -1.0929753 0.017021572 0.507992 0.12994657 0.08073085 -0.55111885 -0.14807136
-1.7076703 1.4190185 2.4282858 -0.080469616 0.7867749 -1.2067612 0.10398592 2.9383485

bn1.running_var f4 [16]
00000000: 1f9f 163e 7638 083f 61b4 a13c f02e 443d
00000010: 6b5d e93d b505 8f3c 10b0 0a3f aaf5 1b3e
00000020: 8bfc 983f ce92 ef3c 17a3 f33d 096c b03d
00000030: 2b49 a33d cdfa 003e 3b01 183d b0b0 583d
0.14709137 0.5321115 0.019739332 0.047896326 0.11394771 0.017458776 0.541749 0.15230432
1.195207 0.029244807 0.11896341 0.08614356 0.0797294 0.12595673 0.03711055 0.052902877

conv2.weight f4 [16, 16, 3]
00000000: 701e 9f3f a434 b5bf add9 15bf f73e 823e
00000010: 9a70 893f 8208 acbe 84b5 543f 307f da3e
00000020: 07c2 8c3d d25a 5a3e 4781 97be 56cd 003e
00000030: cfa2 6fbe bd00 d3bc 259a e53e 50ed 423d
00000040: 7232 913e 4f5e f5bd 86a1 33bf 0209 6cbe
00000050: ee09 a83e a3b9 05bf 2fdc cfbd 51fb 733e
00000060: f2b2 0abf a56a 0fbe 8e19 613e 2591 283e
00000070: 7116 d93d 4a9c 573c 7025 753e 01af 47be
00000080: 011a 823d c8eb 4f3f 2e19 d93e 963b 8ebd
00000090: 72b2 b23e 37ac 933e 2973 cbbe 7e4e 9cbe
000000a0: 5c9e 3abe 5413 cc3d cc41 233d eba5 123c
000000b0: 8b48 0e3d 4a22 b5be e2ec a2be e235 4b3e
000000c0: 8451 0340 08e5 6abf e678 bcbc eec0 abbf
000000d0: c66e 1d3e e0ea 283c db0f 543d 7895 c6bc
000000e0: 9220 abbd 2d0e bd3e c6ad b7bd 749c abbd
000000f0: 45eb f0be 28e0 26be ca7f 7fbd 8a4a fdbc
00000100: 49ce a8bd 6988 853c a750 c5be 80a3 5ebf
00000110: 78ca 91be 970c 1bc0 a4fc b13e 3912 003f
00000120: ee26 b3bd f675 513f b311 6b3f 8658 8ebd
00000130: 5a60 8f3e 2bfb be3d b2fc 183f 79b0 923d
00000140: 074f 11bd 40ba 893e 23dc 1abe 99a9 a83e
00000150: 799f 21bf f0c7 6abe 6169 533e 3116 393e
00000160: 14bc aebd 3de0 c3bd e1fa f9bb 99b5 393d
00000170: bd71 1b3c 4276 a23e 2956 133e a7df 20be
00000180: 0642 0e40 e897 b33e c481 f6bd c39e ea3e
00000190: e48b abbe 0e9c 39be e66d 853e 9a16 efbd
000001a0: 56cc 063e d1e2 e93e df52 a5bf 1180 0b3f
000001b0: b570 d63e f9a1 cbbc e233 4a3f 69e8 113e
000001c0: ab83 48bd edd7 2a3d 3782 e2bf 6cdf e1be
000001d0: f70e 663e 15cf 8e3d d023 12be 1df6 e23e
000001e0: 840a a73d b7c6 41be fe69 b5bd 46d2 b6be
000001f0: 8bd7 71be 7394 b7bd 7a23 68be a4b3 8e3e
00000200: ac66 73be b187 af3e 494e 42be 2d36 4bbf
00000210: ed7c 6a3e 2cb5 b5be 3e34 793e d606 e93c
00000220: a410 623e e4dd f8bc 8130 a3bd 78e6 183d
00000230: 2f9b 823c b002 b4be 3db6 1f3c 9f7b 67be
00000240: 4a0e f2be 5ffe e2bd 2cde 323f b77d 8a3f
00000250: d766 c0be d498 913f e8e2 49be 176e ac3d
00000260: 9c31 a3bd 29d2 243d 5813 2c3f 95c0 dfbe
00000270: 25ed ef3e 9610 ca3d e676 a53e 697a 64bd
00000280: f0f3 f83c a7d6 3b3d b6d5 073f 7301 84bf
00000290: 4e49 0bbf 954f 603e 95c9 f0bb 4057 86bd
000002a0: 8d38 75bf dd4c c8be 6e6e 6cbf e1d0 5f3c
000002b0: b77d 2d3e 89cc 803d 83f0 adbe 1dcd 3abc
000002c0: 8eaa dabe 5bac 14bf 44e4 adbd e8aa 3c3f
000002d0: c078 fabc 78b9 e23d d255 f93e a845 f3bb
000002e0: 6788 83be 6036 bdbd 50c7 ce3a 4596 f83b
000002f0: 0ea8 9d3c 19f0 df3d 57df 8d3d a99d 98be
00000300: 4ed7 033f a727 dfbf 085b 003f 2515 173f
00000310: d6f5 80bf 7c10 6e3e acc2 98be 4b8b afbd
00000320: 21e8 0f3e 8b03 a6be 6024 083f e640 1fbf
00000330: 48e4 afbe 571c e03e f899 3c3e 22dd 78bd
00000340: f9aa 6ebc 1bd5 193d 2047 b6bf 5e28 293f
00000350: 1de0 00bf f28c 3c3e a411 0bbe 0b5f 19be
00000360: 2a7a 4d3f 86ed b3bf 78e4 963f 605b 233e
00000370: 9093 6dbe 0611 a13d 8965 503d b1e4 14be
00000380: de91 3fbc 616b d23e 2189 303f a1e5 9a3e
00000390: 08e0 0abf 1feb de3d 7e07 033e 2929 d03d
000003a0: 5e0c 8c3c f4f5 5fbe e065 c43a e718 12bb
000003b0: 7d86 123c a6c0 e53e 3702 a1bd b3d7 713d
000003c0: 3d40 cebe f064 0abf 2ae2 193e d6ef 0f3f
000003d0: fac6 1c3f 8cb9 08bf fb47 383e 3600 8d3e
000003e0: 046b 943d 04fc 253f 8380 a63d 0594 bc3d
000003f0: 212d 8d3e 177a 64be bb34 b5be 2c6d 8a3d
1.2431164 -1.415669 -0.5853527 0.25438663 1.0737488 -0.3360024 0.8308947 0.4267516
0.06872945 0.21323708 -0.29590818 0.1257833 -0.2340195 -0.025757188 0.44844165 0.0475896
0.283588 -0.119808786 -0.7016834 -0.23050311 0.32820076 -0.52236384 -0.101494186 0.23826338
-0.541793 -0.14005525 0.21982405 0.16461618 0.105999835 0.013159821 0.23940063 -0.19500352
0.06352616 0.8121915 0.42402023 -0.06944959 0.34901768 0.28842327 -0.39736298 -0.30528635
-0.18224472 0.09964624 0.03985767 0.008950691 0.03473715 -0.35377723 -0.31821352 0.19844773
2.0518503 -0.91755724 -0.023006868 -1.3418252 0.15374288 0.010309905 0.051772933 -0.024241194
-0.08355822 0.36924878 -0.089686915 -0.083794504 -0.47054496 -0.16296446 -0.06237773 -0.030919332
-0.08242471 0.016300397 -0.38538095 -0.8696823 -0.28474784 -2.4226434 0.34763062 0.50027806
-0.087476596 0.8182062 0.9182388 -0.06950478 0.28003198 0.0932525 0.5976058 0.07162566
-0.035475757 0.2689991 -0.15123038 0.32941893 -0.6313396 -0.22927833 0.20645668 0.18074872
-0.08531967 -0.095642544 -0.007628784 0.0453392 0.009487567 0.3173085 0.14388336 -0.15710317
2.2227798 0.35076833 -0.120364696 0.4582425 -0.33505166 -0.18125936 0.26060408 -0.11674233
0.13163885 0.4568086 -1.2915915 0.5449229 0.41882864 -0.024857508 0.78985417 0.14248814
-0.048953693 0.04170983 -1.7695988 -0.4411577 0.22466646 0.069730915 -0.14271474 0.44328395
0.081563026 -0.1892346 -0.08858107 -0.357073 -0.2361738 -0.08963861 -0.22669783 0.2787143
-0.23769635 0.34283212 -0.18975176 -0.7937954 0.22899218 -0.35489786 0.24336335 0.028445642
0.2207666 -0.030379243 -0.07968236 0.037329167 0.015943138 -0.351583 0.009748039 -0.22605751
-0.47276527 -0.11083674 0.6987026 1.0819615 -0.3757846 1.1374764 -0.19715464 0.084194355
-0.079684466 0.040239487 0.67217016 -0.43701616 0.46860614 0.09866445 0.32317275 -0.055780802
0.030389756 0.045859005 0.5306047 -1.0312942 -0.5440873 0.21905358 -0.007348249 -0.0655961
-0.95789415 -0.39121142 -0.92356 0.01366064 0.16942488 0.06289012 -0.33972558 -0.011401442
-0.42708248 -0.58075494 -0.08490804 0.7369828 -0.030575156 0.110705316 0.48698288 -0.007424075
-0.25690004 -0.09238887 0.0015775952 0.007586273 0.019245174 0.10934467 0.06927364 -0.29807785
0.51500404 -1.7433976 0.501389 0.5901664 -1.0075023 0.23248476 -0.29836023 -0.0857149
0.14053394 -0.32424578 0.53180504 -0.622084 -0.34353852 0.43771622 0.1841811 -0.060757764
-0.01456713 0.03755675 -1.4240456 0.6607722 -0.5034197 0.18413141 -0.13580948 -0.14977662
0.8026453 -1.4056861 1.1788473 0.15952826 -0.23200822 0.07864575 0.05087808 -0.14540364
-0.011692492 0.4109755 0.6895924 0.30253318 -0.54248095 0.108846895 0.12795827 0.10164101
0.01709574 -0.21871167 0.0014983974 -0.0022292675 0.008943197 0.44873542 -0.078617506 0.059043597
-0.40283385 -0.5406027 0.15027681 0.56225336 0.61241114 -0.5340812 0.17996208 0.27539223
0.07246974 0.6483767 0.081299804 0.0920792 0.27573493 -0.22312199 -0.35391793 0.06759104

conv2.bias f4 [16]
00000000: 219f 6f40 3e6f 99c0 2f70 f13f 5f44 7f3f
00000010: a9b0 b4c0 e31a 3cc0 327d 5340 b353 713f
00000020: dcce 8ec0 8e58 5940 91e9 9b3f c1da 69be
00000030: 7c6b 87c0 503f 7b3f 42cb 783e b9a4 e7be
3.7440875 -4.7948294 1.8862361 0.997137 -5.646565 -2.939141 3.3045163 0.9426834
-4.4627514 3.39603 1.2180654 -0.22837354 -4.2318707 0.9814348 0.24296287 -0.4524286

bn2.weight f4 [16]
00000000: 9c4a 9440 f8a9 b740 3f5b 0a41 b4aa 8a40
00000010: 7534 d340 7755 8a40 06be 0b41 8f67 2e41
00000020: 8f27 a240 661a c540 9dc8 3341 c36f 1241
00000030: ac14 bb40 e86b 0941 b497 2141 b289 dc40
4.6341076 5.739498 8.647277 4.333338 6.6001534 4.3229327 8.733892 10.900283
5.067329 6.1594725 11.236478 9.152286 5.8462734 8.588844 10.099537 6.8918085

bn2.bias f4 [16]
00000000: f97f 86bf e54c c13f b4d4 b5bf 1ad8 fdc0
00000010: 0eb8 11bf 7e82 903f f955 9dc0 2449 fec0
00000020: 8324 90bf cab4 98bf 391b c3bf 5d12 f9be
00000030: 6dbf 6f3f 8d1d 27bf 0057 88bf cc44 e73f
-1.0507804 1.5101591 -1.4205537 -7.9326296 -0.5692147 1.1289823 -4.9167447 -7.9464283
-1.1261142 -1.1930172 -1.5242683 -0.48646823 0.9365147 -0.65279466 -1.065155 1.806787

bn2.running_mean f4 [16]
00000000: 1003 b940 0881 02c1 fd63 8840 c869 6b40
00000010: 65b1 d7c0 e2f4 92c0 f587 c440 df01 963f
00000020: fa7d 86c0 c27a 7b40 e402 a940 9733 ffbe
00000030: 9b8c 9ec0 5911 8640 56dd 3b3f 4c1e ddbe
5.781624 -8.156502 4.2622056 3.6783314 -6.7404046 -4.592393 6.1415963 1.1719321
-4.202878 3.9293675 5.281603 -0.49844047 -4.9546638 4.1896176 0.73384607 -0.43187177

bn2.running_var f4 [16]
00000000: e2c0 cd3e 323f 2c3f 554c 683f 6556 313e
00000010: 65a8 d53e 2e53 e53e 2252 9d3e 966d 773f
00000020: 1226 3f3e 0817 9a3e 6210 783f 7e60 eb3f
00000030: d55a 493e 34de 9f3f 4193 043f 0d01 5c3f
0.4018622 0.6728393 0.90741473 0.17318113 0.41730037 0.44790024 0.30726725 0.9665159
0.18666866 0.30095696 0.969 1.8388822 0.19663556 1.2489686 0.5178719 0.85939103

conv3.weight f4 [32, 16, 3]
00000000: d67f 8f3d 42f1 f0bd dd1b 2a3e 0b3d b1be
00000010: 20b2 63bd ee57 99be ca5c 8bbf 3ec0 f13e
00000020: 54c9 5dbf 5d9f 7d3d 3612 c0bd 1ccf 973e
00000030: 7a1d d43e 97f7 16bf 3be4 a73e c27b 21bf
00000040: 18ae 5c3d 827a 4abf 4ea7 91be fb0c 403f
00000050: f6af 06bf 207d 533f 6500 85bf b3b7 7c3f
00000060: 2a98 31be 989d 98be 6416 57be a1b7 163e
00000070: 3950 313e 4059 06bd 96d3 56be 03c0 653f
00000080: 0cc1 7d3e 96df 1c3e c2fe b63f fda2 7fbf
00000090: 4513 00bf be5b 123d e635 51bb bb5e fc3e
000000a0: bea4 f7be 548d 1e3f ac52 d03d fecf 2fbf
000000b0: 40d2 12be 6879 883e 5a21 4c3e a9b4 1f3f
000000c0: 33a2 c9be 7d52 bb3e 36c4 97be 68b2 47be
000000d0: b89d f1be 64f4 e2be 72cb 61be df23 24be
000000e0: 7833 9b3d f6a7 7cbf 4dc8 42bf 34b0 c33e
000000f0: c9b4 9bbd 6377 d43e 3f1a 5b3e 4ace aabe
00000100: 2c45 c7be 9afc 8cbe cfcb 403e f0bf e73e
00000110: f2d2 3b3f 1d51 553f 79af d03f a0aa 21bc
00000120: 92dc c03d ba5e 30be ada3 60be 7d88 e13d
00000130: 02b2 8cbe 129a e93d b863 4d3e a2ed 51bf
00000140: 14e6 0dbf 9ac8 b33f b7fd 6dbf ae17 883e
00000150: 01d0 803d 4257 0cbf 28fd 0dbd 4f09 0c3f
00000160: 85b3 1e3d 3492 24be 14ef b13e 758d 073e
00000170: b306 483e b99b 46be 4613 583f d14c cc3e
00000180: 25d4 eabe 1d01 93bd e0fe 45be a0a1 eb3e
00000190: 9d73 873f c5d3 04bf 8f12 dcbd e491 02bf
000001a0: d154 1cbe 78b7 1fbd 5d58 24be 6109 b73c
000001b0: 6be7 313d 1e41 42be af03 2cbe b9cc 9c3e
000001c0: 1bb9 b4bd 373d d23d d991 733e 6d0c 6d3e
000001d0: b7bc b7bd 3a32 113f c873 ee3e 68eb e5be
000001e0: 5332 943d 671d 253e a5da 923d ad00 b2bb
000001f0: 2274 e0bd 78c8 5dbd 8936 05be 9a81 f23e
00000200: 263e 003f b006 c3bf 5f30 023e cf9d 1740
00000210: f651 2fbe 7394 d9bd d774 4cbe bc60 a5bf
00000220: cdc5 783f 3d58 103e bdf1 c63f 466d f2be
00000230: bccd cbbe 9806 723e 778d 84be 406d 0bbf
00000240: 1c6c 4cbe 6998 073e cc63 2a3f 3037 53bf
00000250: 46ca 713f 9999 9f3e 6035 ca3e bfed 3b3e
00000260: d59f b33d 13b9 ab3e dd38 0ebd 44e2 19bf
00000270: 26bb 57bd 878e 7a3d 1833 0c3e 8c2a 64be
00000280: 9a06 933e f0ca 913e 652f f43e 5103 713e
00000290: 152e 60be b57a 273f 743d f13e 5bd7 85bf
000002a0: da6f f0bc 220b 9f3b 786f 4dbd 9407 2bbf
000002b0: 3572 9fbe 1ab0 81be f37a 47bc 3fc4 ae3d
000002c0: 2067 b1be af7f 503f fd66 38bf e033 54bf
000002d0: 6e8a 0f3e 2be9 8bbd d619 093d a1f8 563f
000002e0: 7687 163f c9bf 003f 7ada edbd 5139 013f
000002f0: 72df 543f 7360 0dbf 6079 6cbe 3d05 ecbd
00000300: d6e7 a03e b303 b3be 211e 6e3f 2cb2 44bf
00000310: 90b4 aa3e 0a1d 71be f1a5 a8be 53b1 19bc
00000320: cf99 2dbf 8727 99be 74ee b43e 32c8 bfbe
00000330: 8169 203f 81fe b5be 1b34 1abb 48dc 223f
00000340: 63d1 11bf de71 3f3f 2fb6 d93e 2983 703f
00000350: cee2 adbe a2e7 4bbd f2ff babd 94a5 dbbe
00000360: 24cf f2bd c5c6 0a3e 70da e4be a572 19be
00000370: 4c30 bfbe e22f e6be 01a5 adbe 8d0d 953e
00000380: 002c b2bd 70e3 1e3c 84f2 3fbf 7a6e 19be
00000390: 0358 4dbe 92f6 a4be f29c 7dbd 1f4a c13e
000003a0: 7fd8 2fbf b114 273f a0a0 443f 627e ef3d
000003b0: 4970 2e3f 3a99 e0bc 6f78 21be 19f8 48be
000003c0: df94 7fbf f259 d4bd 3751 86be de7e 2bbe
000003d0: 8f81 d63d 40ff 7c3d e91e 6c3f c0a1 313f
000003e0: e49d 0c3f b873 70be 3f59 cbbd 3f02 efbe
000003f0: 0c38 1fbe c2e1 52be dd62 943e fc0a 17bf
0.07006805 -0.11764766 0.16612191 -0.34616885 -0.055589795 -0.29949898 -1.0887692 0.47216982
-0.8663533 0.06191956 -0.093784735 0.296502 0.4142874 -0.5897154 0.32791314 -0.63079464
0.053876966 -0.7909318 -0.28447956 0.75019807 -0.52612245 0.826128 -1.0390745 0.987178
-0.17343202 -0.29807734 -0.21004635 0.14718486 0.17315759 -0.03279996 -0.20979151 0.8974611
0.24780673 0.15319666 1.4296496 -0.99858075 -0.500294 0.035732023 -0.0031922995 0.49291024
-0.48367876 0.619344 0.101720184 -0.68676746 -0.14338017 0.26655126 0.19934598 0.6238504
-0.3938156 0.3658637 -0.29641885 -0.1950165 -0.47190642 -0.4432708 -0.22050264 -0.16029309
0.07578176 -0.9869379 -0.76086885 0.3822037 -0.076028414 0.41497335 0.21396731 -0.3336051
-0.3891996 -0.2753647 0.18827747 0.45263624 0.7336875 0.83326894 1.630355 -0.00986734
0.094170704 -0.17223635 -0.21937437 0.11012361 -0.2747956 0.1140634 0.20057571 -0.82003224
-0.55429196 1.4045594 -0.92965263 0.26580566 0.062896736 -0.54820645 -0.034665257 0.54701704
0.038745422 -0.16071397 0.34752715 0.13237555 0.19533806 -0.19395341 0.8440441 0.39902356
-0.45864978 -0.07177947 -0.19335508 0.46021748 1.0582157 -0.51885635 -0.10745727 -0.5100386
-0.1526673 -0.03899333 -0.16049333 0.02234334 0.043433588 -0.18970153 -0.1679828 0.3062494
-0.088243686 0.10265582 0.23786105 0.23149271 -0.089715414 0.56717265 0.4657271 -0.44906163
0.07236161 0.16124497 0.071706094 -0.0054322095 -0.109596506 -0.05414626 -0.13009085 0.47364503
0.5009483 -1.5236416 0.12713765 2.3690069 -0.1712111 -0.106240176 -0.19966446 -1.2920146
0.9717682 0.1409616 1.5542523 -0.47348994 -0.398054 0.23635328 -0.2588918 -0.5446358
-0.19963115 0.13241734 0.6655853 -0.82506084 0.9444927 0.31171873 0.39493847 0.18352412
0.0877072 0.33539638 -0.034722198 -0.6011088 -0.052668713 0.06117108 0.13691366 -0.22281855
0.28715974 0.28475142 0.4769241 0.23536421 -0.21892579 0.6542161 0.47117198 -1.0456346
-0.02935021 0.004853622 -0.050155133 -0.6680844 -0.3114182 -0.25329667 -0.0121753095 0.08533525
-0.3464899 0.8144483 -0.7203215 -0.82891655 0.1401765 -0.06831583 0.033471905 0.8397313
0.58800447 0.5029264 -0.11613937 0.5047808 0.8315345 -0.55225295 -0.23093176 -0.115244366
0.31426877 -0.3496376 0.93014723 -0.7683437 0.33340883 -0.23546234 -0.32939103 -0.009380656
-0.6781282 -0.2991297 0.35338175 -0.37457424 0.62660986 -0.35545734 -0.0023529592 0.6361737
-0.56960124 0.7478312 0.42521808 0.93950135 -0.339621 -0.04978145 -0.09130849 -0.42899764
-0.11855915 0.13552387 -0.44697905 -0.1498514 -0.37341535 -0.44958407 -0.3391495 0.291119
-0.086997986 0.00969778 -0.74979424 -0.1498355 -0.20053105 -0.32219368 -0.061917253 0.37751862
-0.6868972 0.6526595 0.76807594 0.116940275 0.68140084 -0.027416814 -0.15768598 -0.19625892
-0.99836534 -0.10368718 -0.26233837 -0.16747615 0.1047393 0.061766863 0.92234665 0.69387436
0.5492842 -0.23481643 -0.09929132 -0.466814 -0.15548724 -0.20593932 0.28981677 -0.59001136

conv3.bias f4 [32]
00000000: 9aba 953d 8d94 f9be c425 4abe 8ddd e8be
00000010: e1d1 0f3d 13b3 60bf 017d 943e 3f93 fd3c
00000020: 2548 78bd 59db 62be 4aa7 09bf 2ce7 00bf
00000030: 928f 81be 2cc7 acbe c0df 8c3a 78ff 423f
00000040: aef6 c93e 9f50 d9be cf87 3d3e 68c1 90be
00000050: 584f 16bf ec33 49be 655f 3a3d 80bc 26be
00000060: c946 b8be 1ab1 1b3e 002a cb3e 94d4 98be
00000070: 4b4b 823d f8ef 1b3e 9ba2 6ebd efe0 26bf
0.07310982 -0.48746148 -0.19740969 -0.4548153 0.035112265 -0.87773246 0.2900162 0.030954001
-0.060615677 -0.22153987 -0.5377089 -0.5035274 -0.25304848 -0.33745706 0.0010747835 0.76171064
0.39446014 -0.42444322 0.18508838 -0.28272557 -0.5871482 -0.19648713 0.04550113 -0.16282845
-0.35991505 0.15204278 0.3968048 -0.29849684 0.06362017 0.1522826 -0.05826054 -0.6518697

bn3.weight f4 [32]
00000000: 62b7 9140 131d b940 ab4b c140 27a1 fc40
00000010: 3fa6 bb40 c70b ce40 0243 9c40 36ee 1241
00000020: 336c a140 a863 b140 69c1 c540 6557 9b40
00000030: 279c f640 6055 0341 1504 f840 ae21 5c40
00000040: 08fe b240 be95 f240 f3a9 b740 5c00 1141
00000050: 8c5c ef40 5d56 1141 f4c8 9b40 d4a2 ed40
00000060: 497a f740 f8a1 bc40 1fb2 1241 ea67 7940
00000070: 4eec 2241 03e1 b440 ab86 9b40 11fc a340
4.5536356 5.784799 6.040487 7.894672 5.8640437 6.4389377 4.8831797 9.183157
5.044458 5.543415 6.1798596 4.8544183 7.7065616 8.2083435 7.7504983 3.4395556
5.5935097 7.580779 5.7394958 9.062588 7.480047 9.083585 4.8682804 7.4261265
7.7336774 5.8947716 9.168487 3.8969674 10.182692 5.6524673 4.860189 5.12452

bn3.bias f4 [32]
00000000: f28a 06c0 e91e 20c0 f759 90bf fd8c 92c0
00000010: f2d9 8ebf 60b6 e6c0 2b14 a9bf 0694 b7c0
00000020: f687 12bf acdd cabe 45c3 b3bf 4237 49c0
00000030: 69f7 9cc0 e6bc a9c0 17ce 8ac0 44ab a8bf
00000040: b743 85bf e412 acc0 9a7f 5fbf 5bd9 c0c0
00000050: c9cd bec0 bae7 82c0 4b0c cebf e37f dfbf
00000060: a7a7 6ac0 b0da b1bf 1a72 c3c0 5fed 2cc0
00000070: 3474 e1c0 2a7b 2bbf a658 ba3e f63c 3fc0
-2.1022305 -2.5018866 -1.1277455 -4.5797105 -1.1160262 -7.2097626 -1.320928 -5.7368193
-0.5723871 -0.39622247 -1.4043967 -3.1439977 -4.9052014 -5.304309 -4.3376575 -1.3177266
-1.041129 -5.377306 -0.8730408 -6.0265326 -5.9626203 -4.090787 -1.6097502 -1.7460903
-3.6664827 -1.3894863 -6.1076784 -2.701988 -7.045435 -0.6698481 0.36395758 -2.9880958

bn3.running_mean f4 [32]
00000000: f992 54bf 1df0 36c0 6f08 5d40 77b7 6540
00000010: 0d30 9fc0 2128 eb3f 9ad9 eebf 91a8 2fc1
00000020: f161 1d41 5a74 e240 f29d 5ac0 615a 7141
00000030: 5f79 1440 6916 a1c0 e434 c73f 5cd9 31c0
00000040: 199d f33f 4f57 16c1 c3d5 8340 8908 0841
00000050: 2a6a b9c0 4052 413e f719 8cc0 ed06 ddbe
00000060: 2302 2bc0 1626 b9be 0e03 9ec0 4540 45be
00000070: 5ec3 efc0 b6d4 6b41 3688 19c0 e0ab 1541
-0.8303676 -2.8584054 3.4536397 3.5893228 -4.9746156 1.8371621 -1.8660157 -10.978654
9.836411 7.076703 -3.4158902 15.084565 2.319908 -5.0339856 1.5563016 -2.7788916
1.9032317 -9.396316 4.119844 8.502084 -5.7942095 0.18879032 -4.3781695 -0.43169346
-2.6720054 -0.3616187 -4.937873 -0.19262798 -7.4925985 14.739431 -2.3989387 9.354462

bn3.running_var f4 [32]
00000000: ecfc b842 2d3e d242 0dfa fa42 1016 0543
00000010: 08e5 fc42 2b77 0143 5424 2543 d95c 4343
00000020: 3001 df42 684d f242 c24c d542 6e69 3442
00000030: 400b 3343 461d 2d43 1d84 2243 38f3 8042
00000040: b07c 3543 40e3 cd42 4e29 1043 e198 e742
00000050: f38d 0543 6fc9 a842 c0d8 d342 836b ea42
00000060: 6614 0d43 6e29 1443 5a10 fe42 3f26 7842
00000070: ef41 1e43 373c 8443 2f4a 4443 daba 0343
92.49399 105.12144 125.48838 133.08618 126.44733 129.4655 165.1419 195.36269
111.50232 121.151184 106.64992 45.10296 179.04395 173.11435 162.51607 64.47504
181.48706 102.94385 144.16135 115.79859 133.55449 84.393425 105.92334 117.209984
141.07968 148.16183 127.03194 62.03735 158.25755 264.47043 196.28978 131.72989

conv4.weight f4 [32, 32, 3]
00000000: a029 4fbf 9f48 003d 0327 90be e965 ab3e
00000010: 6027 d4bc 4c2d 913d 2802 2dbf 1bd7 95be
00000020: db06 813e dc75 b5bd f417 b03e 2d5f 82be
00000030: e462 4dbf 8319 8cbe 6b2a c63e 7295 0e3e
00000040: 214c 8ebf 1534 213f c9ab ed3e 8b85 e43e
00000050: 8688 e93e 34dc 0e3c d5e2 0dbe 3c58 a43e
00000060: cbf7 c43d 3911 0a3e 9701 4abe e43d bcbc
00000070: ec32 94be 4120 143e 9b3b 0dbe 2d67 293f
00000080: 6e38 323d dff4 773e f117 d53d 9308 a3be
00000090: 0047 14bf 1156 89be 052d cc3e 5d87 df3d
000000a0: 94d2 64be 6ab0 063f 64cf f63e b428 193f
000000b0: ae38 99bc 2839 5abd a1e2 94be 0bfe 6dbe
000000c0: 12de 863f dd0c 693e 4313 3fbe 5fe4 d7be
000000d0: 3dcc e13b c6d3 943e 0003 b63d 4d2b afbe
000000e0: 34a3 883e b7e5 f1be 0403 13bf d250 d0bd
000000f0: e71d 243f 47ef bc3c a59f 083f 39a0 393d
00000100: 3869 023e b1a3 1a3e 70b2 81be 4803 22bf
00000110: 997c 40bf 0cb6 d83e 4a6d 5cbf 3e52 15bf
00000120: 3c49 09bd 11f8 64be 3c8b bb3e ebbe 8bbe
00000130: db61 323f b5dd 573f 2e85 87bd 4cd2 2c3e
00000140: 000c 32be 73eb bc3e 2525 07bf 5670 b5be
00000150: 0ac8 29be f811 fc3e 5b67 e1be ce58 243f
00000160: ed79 b33f 288e 89bf 4179 0b3f a0c8 8cbf
00000170: 4fb2 89be e3e5 7e3e 252a 5e3e da16 5cbe
00000180: d30d a6be 5caa 403d bea4 f0bd 8a9f 403f
00000190: f093 4dbe a0fb 8f3e 7a88 c9be b398 503f
000001a0: a027 df3e 07e4 2abe e263 1fbf 84ad a23d
000001b0: 6ee3 7ebd 22f3 57be 85aa 693e b0db 00be
000001c0: d20f 843f b24f 553e dc2c 293f 9abb 3abe
000001d0: a1be 5bbf 91e4 e03e d806 b6bd e761 193f
000001e0: aced 5bbf 88eb 2dbe 4947 cdbe 94a8 8abd
000001f0: 4c4c 38be 9d8c 7fbe 433f 0abf 13b1 08bd
00000200: 2ed9 623e 5b1c ad3e 3841 e03d b378 38bd
00000210: d24c e43d ecea a53e ffb7 dd3d ff7e 783f
00000220: db7d 2b3f c09a efbe 479b df3c f3c8 f73e
00000230: 39f5 c53d 5028 15bf 1b18 4bbe cd1c 20bf
00000240: c622 4f3f 54a5 403f 8a23 c6be 8762 163e
00000250: f2b7 06bf 8043 39be dc8d 553e cd75 3f3e
00000260: b517 a7bf 510f 953d 231b adbe debe 6dbe
00000270: 1203 b73d 1aff 1fbf 8340 b73e 2d03 9b3d
00000280: 69d2 84be de22 08bc d404 ab3e 1e6e 0abe
00000290: d594 453d ec03 05bf 649a b93d 9b0e 323f
000002a0: 1d8a c33e 71ce c1bd 437e 58bc 8a3b bc3d
000002b0: 2fe5 f03c e060 eebe 8d21 ef3c 8a05 193e
000002c0: fd51 95bd cb21 973e 8b32 aebe accd 5dbe
000002d0: a1fd 92bf 94a9 8ebf 026a 713e dc5d f1be
000002e0: abe1 343f 6675 403f 029e 343e 4d04 60bd
000002f0: 2df1 333f 3ce1 eb3d 8374 883e 2889 c2bd
00000300: 93bc 28bf e6b0 cbbe f1ff 11be 003e a0be
00000310: ebcb 17bc 5f17 c4be 80cb 253f f8e8 bf3e
00000320: 1d3e 37bc 8d7f 9abe 7b0c 7cbe c268 983b
00000330: 90dd 8fbe 04d7 b1be 859e 4cbd 1889 4cbc
00000340: 7d6c a53e 0274 4b3f 6e35 363f 27f6 233f
00000350: f0da 763e 954a cd3e 3121 f73d 706b a63a
00000360: a3e6 26bf 7eaf 2abf f53f 133e 6df8 82bf
00000370: 86ae c13e f3d0 d03e 837e 11bf 3701 bdbe
00000380: 6b5f b23e bb9c 17bf e3ae 663e 48f5 623e
00000390: b645 7abf be72 32be 08f6 bd3e a168 213e
000003a0: 59a8 52be 7f33 dbbd a281 d1bb 7a2f ca3e
000003b0: 12f1 14be 41a2 a13d 34c0 95bd 009c a2be
000003c0: e146 af3e 7727 6fbf 7120 ba3d 7033 d53e
000003d0: 2e08 2bbd 16dc 7abe 592b ad3e 6df3 2f3e
000003e0: 24b1 9f3d c518 8b3e 7889 44be 004d d4be
000003f0: 2fca d03e c8e3 9dbc 1f68 adbe a250 ff3e
-0.8092289 0.031319257 -0.28154764 0.3347619 -0.025897682 0.07088718 -0.67581415 -0.29265675
0.25200543 -0.088603705 0.34393275 -0.25463238 -0.8022902 -0.27363214 0.38704237 0.13924196
-1.1116983 0.62970096 0.46420124 0.44633135 0.45611972 0.008719493 -0.13856061 0.32098567
0.09617575 0.13483132 -0.19727169 -0.02297873 -0.289451 0.14465429 -0.13792269 0.6617306
0.043510847 0.24214505 0.10404957 -0.3184248 -0.5792084 -0.26823476 0.39878097 0.1091449
-0.22345954 0.52612936 0.482051 0.59827733 -0.018703785 -0.053277165 -0.29079154 -0.23241441
1.053652 0.22758813 -0.18659692 -0.4216642 0.006890802 0.2906782 0.08887291 -0.34212723
0.26687014 -0.4724557 -0.57426476 -0.10171665 0.6410813 0.023063315 0.533686 0.045318816
0.1273545 0.15101506 -0.2533145 -0.63286257 -0.7519012 0.4232639 -0.8610426 -0.58328617
-0.033517107 -0.22360255 0.36629665 -0.27294096 0.69680566 0.84322673 -0.06617199 0.16877097
-0.1738739 0.36898383 -0.52791053 -0.35437268 -0.16580215 0.4923246 -0.44024166 0.64198005
1.4021584 -1.0746508 0.54481894 -1.0998726 -0.2689385 0.24892382 0.21695764 -0.21493092
-0.32432422 0.047037467 -0.11750172 0.7524344 -0.20075965 0.28121662 -0.39361936 0.81483
0.4358492 -0.16688548 -0.62261784 0.07943252 -0.062228613 -0.21088842 0.22818954 -0.12583804
1.0317328 0.20831183 0.66084075 -0.18235627 -0.8583775 0.43924382 -0.08888024 0.5991501
-0.85909534 -0.1698438 -0.4009345 -0.06770435 -0.17997855 -0.24955983 -0.5400278 -0.033371996
0.2215316 0.33810696 0.109499395 -0.045036983 0.11147465 0.32405794 0.1082611 0.9706878
0.66988915 -0.46797752 0.027295722 0.483955 0.09665913 -0.58264637 -0.19833414 -0.62543947
0.80912435 0.7525227 -0.3869899 0.14686023 -0.5262443 -0.18092155 0.20854896 0.18697281
-1.305411 0.07278312 -0.33809766 -0.23217341 0.089361325 -0.6249863 0.35791406 0.07568965
-0.2594178 -0.008309094 0.3340212 -0.13518569 0.04823764 -0.5195911 0.09062651 0.69553536
0.3819131 -0.09463204 -0.013213697 0.09191044 0.029406158 -0.46558285 0.029190803 0.14943519
-0.07291029 0.2951797 -0.34022936 -0.21660489 -1.1483651 -1.1145501 0.23575595 -0.47141922
0.7065684 0.75179136 0.176384 -0.0546916 0.7028988 0.115175694 0.2665139 -0.09498817
-0.6591274 -0.397834 -0.1425779 -0.31297302 -0.009264926 -0.3829908 0.6476364 0.3748243
-0.011184243 -0.3017544 -0.24614136 0.00465116 -0.28098726 -0.34734356 -0.049955864 -0.012483858
0.32309332 0.7947389 0.7117528 0.64047474 0.24106956 0.40095964 0.12066878 0.0012696814
-0.65195674 -0.6667403 0.14379866 -1.0232064 0.37828463 0.40784416 -0.56833667 -0.3691499
0.34838423 -0.59223527 0.22527651 0.2216388 -0.9776262 -0.17426583 0.3710177 0.15762569
-0.20572032 -0.107031815 -0.0063936273 0.39489347 -0.14545086 0.078922756 -0.073120505 -0.31759644
0.34233764 -0.93419594 0.09088219 0.41640806 -0.041755848 -0.24498019 0.33822134 0.17182703
0.07797459 0.27167335 -0.19193065 -0.41464996 0.40779254 -0.019273654 -0.338685 0.49866205

conv4.bias f4 [32]
00000000: 5fc7 f2bd 0eb1 173b 862a fabc b14c d7be
00000010: 193e 463d 7163 8bbe f485 73be 81ee 14be
00000020: cca4 98bd c626 78be 0b9a 4dbe eafc a1be
00000030: 40b9 503c 6f6c 88be 5c35 70be a0bf 803e
00000040: 33fa 9cbe 338f 21be b9fe d0bd b0cc be3d
00000050: 7b52 1cbe 25e4 8cbe 9952 66be 2f3f 8ebe
00000060: 9e60 88be 79ad fbbd 0b68 a2bd 32d8 04be
00000070: 1757 cd3e bc51 1cbc 1cfe 26bf 504a a0bd
-0.11854433 0.0023146304 -0.030537855 -0.42050698 0.048399065 -0.27224305 -0.23781568 -0.14544107
-0.074533075 -0.24233541 -0.20078294 -0.3163827 0.01273948 -0.26645228 -0.23457855 0.25146198
-0.30659637 -0.15777282 -0.102048345 0.09316385 -0.15265839 -0.2751781 -0.22492446 -0.2778258
-0.26636213 -0.12288947 -0.07930001 -0.12973097 0.40105507 -0.009540971 -0.6523149 -0.07826674

bn4.weight f4 [32]
00000000: a886 d740 daae f840 e90f c940 5ae9 bc40
00000010: 2815 e840 a4ea ad40 b398 de40 a8b8 be40
00000020: 9d94 c640 5b90 c240 7a27 bd40 ad43 0141
00000030: 8270 ca40 b5f4 0041 8009 be40 fb68 bf40
00000040: 5dbc e840 71ac b640 0396 ec40 698a fa40
00000050: a306 b540 4b74 bb40 4d91 bc40 ff36 ba40
00000060: 60c6 d340 5fce be40 9d94 d940 a3a7 af40
00000070: ddc7 c640 0b6d db40 c091 f040 4a62 eb40
6.7351875 7.771344 6.283192 5.9034853 7.2525826 5.4348927 6.95614 5.960041
6.2056413 6.0801215 5.911069 8.079022 6.326234 8.059743 5.9386597 5.981565
7.2729936 5.70855 7.393312 7.829396 5.65706 5.857946 5.892737 5.8192134
6.6179657 5.962692 6.7993913 5.4892135 6.2118974 6.857061 7.5177917 7.355748

bn4.bias f4 [32]
00000000: d080 6dbf 3813 dbbf 6084 d2bf b4f1 47bf
00000010: 168b c2bf 838e 96bf 86fc f7bf 7856 74be
00000020: f40c ddbf 4859 4dbf 7b7b 88bf 4a53 abbf
00000030: ec08 ee3d 2579 e2be 6722 813e 8afc 95bf
00000040: d636 953e f83d f9bf 104d 17c0 7b32 7bbf
00000050: e284 67bf 726d fcbf ce0d 90bf 6243 d53e
00000060: 1321 53be 1267 393f 9b90 9abf 54a8 04bf
00000070: 812c 353f 3e01 dabc 624d 4fc0 d8c6 a6be
-0.9277468 -1.711524 -1.6446648 -0.78103185 -1.5198696 -1.1762241 -1.9373939 -0.2386111
-1.7269578 -0.8021436 -1.0662683 -1.3384793 0.116227955 -0.4423305 0.2522156 -1.1717694
0.291434 -1.9472036 -2.3640785 -0.981239 -0.9043714 -1.97209 -1.1254213 0.41652972
-0.20618086 0.724229 -1.207538 -0.5181935 0.7077103 -0.02661192 -3.239098 -0.3257358

bn4.running_mean f4 [32]
00000000: 935a 0bbf fad7 2d3f c4f9 1940 366b 8840
00000010: 8745 6f40 d3c1 0240 45c8 b3be 86e6 5540
00000020: d253 db3f 78e3 273f f96e 3840 cf2e d9be
00000030: 1f7e c43f 4893 803f fd5f ac3f e96f f1be
00000040: e008 61bf 8baa a140 8ceb ea3f cdfc 05c0
00000050: 96a6 9f3f 2306 5dc0 9137 8abf 3756 973f
00000060: cfcb 10c0 5a6f 92bf 5ba0 1940 1876 16bf
00000070: b3f5 1340 c7ec 86bf e510 33bf 3fe0 bb3f
-0.5443508 0.6790768 2.4058695 4.2630873 3.7386186 2.04308 -0.3511373 3.342195
1.7134955 0.65581465 2.8817732 -0.42418525 1.5350989 1.0044947 1.3466793 -0.47155693
-0.8790417 5.052068 1.8353133 -2.0935547 1.2472713 -3.4534996 -1.0798208 1.1823186
-2.2624395 -1.1440232 2.4004123 -0.58773947 2.3118713 -1.0541009 -0.69947654 1.467781

bn4.running_var f4 [32]
00000000: 9ae6 bf42 a39a b742 f654 9d42 61ee b942
00000010: f0ae ee42 40a8 fb42 5362 ed42 057f 0443
00000020: ea10 da42 93fd 9d42 62c8 cf42 f685 f242
00000030: 1a43 ce42 b7ae 1343 4e1b c642 0c89 f842
00000040: 8582 b542 bacf fe42 3a78 3743 0278 a942
00000050: 9b49 0643 0757 af42 7b71 ab42 4cd5 a842
00000060: 98b7 c242 ee2b f342 b567 d042 e032 e442
00000070: bda5 bd42 6844 b442 56a1 e242 25c6 ee42
95.95039 91.802025 78.66594 92.96558 119.341675 125.82861 118.69204 132.49617
109.033035 78.99526 103.89137 121.26164 103.13106 147.68248 99.05333 124.26767
90.75492 127.405716 183.46964 84.73439 134.28752 87.669975 85.72164 84.416595
97.35858 121.5858 104.20255 114.099365 94.82371 90.133606 113.31511 119.387

conv5.weight f4 [20, 32, 1]
00000000: 426d 7c3f 77b3 72c0 99f2 be3e c132 c2bf
00000010: 4be2 0e3e 9b50 853f 361d c7bd 6142 723e
00000020: 29db 89bf ee0d a3c0 db51 b9be 168d b43f
00000030: 41e9 b33e 485f a53f 581f 593f bfa1 a43f
00000040: 71a8 833f d008 45c0 91d9 84bf 8969 3fbf
00000050: 7fb8 37c0 471d 9dbe fc54 06c0 9f10 15bf
00000060: 9de8 cc3f 22f3 883f 1ec1 2440 612a 823f
00000070: d767 41be ab24 abbf 84f2 11c0 d3b8 a7bf
00000080: 27ec 42c0 0274 d53e 7aa7 15c0 f00a 2e3f
00000090: e5ee eabe 7e6c 2fbf 9d5c f8bf 61db ec3e
000000a0: 5d57 343f 7340 0f3f f3cf 553f f2a8 82c0
000000b0: 058a 8b3f 6457 eabe 7076 2dc0 6b8d 71c0
000000c0: 93bd aa3d 3af1 f03e 51f5 083f 075f f73e
000000d0: 1fe0 a2bf 161b 0cc0 6a6f c8bf 49c5 0f3f
000000e0: b448 a4bf 0954 e73d 1bce b73d da77 933f
000000f0: ca54 803d 827b 95bd 6bc2 8a3f 9463 8d3f
00000100: 6e1c e93e 261d 05c1 fe5e 853f 3be8 00bf
00000110: 02db 59c0 da6a dc3f c7a3 733f 37da 1140
00000120: 5a41 f93f 6278 0040 da77 b53e 0da0 babe
00000130: 07a7 afbd f32f 6cbe 4b87 13c0 4f79 1f40
00000140: 2f8e 83bf aeb2 1ebf 0341 ac3e cb9d 9f3f
00000150: 74da 783f 0c48 5d3f 6f81 c43f 6f14 e3bf
00000160: e501 8ec0 77c6 a8bf 3a49 bdbe 7790 abbf
00000170: 484b 94bf efc2 843f 8c20 6cbf 2436 363f
00000180: 247e 10bf 3392 2fbf 3e78 a0bf 1d7e 293f
00000190: beea 3c3e 98d1 543f c2b2 d73d ed5d 8bbf
000001a0: 9af8 a3bf 054b b03f 25f3 6f3f 9a78 61be
000001b0: 6081 ba3d cfe3 fcbf bae3 03bf bcb5 18bf
000001c0: 0ae8 88be 5cb8 5f3f cd0f 393f 92c8 2dc0
000001d0: eaf8 13c0 4c6e b13f 3e92 f6bf 77d1 913f
000001e0: 55d6 85be 42c2 0d3f 124a 0cbf e6d5 d83e
000001f0: 43bc 813f a605 743f 5b28 54bf df02 1ec0
00000200: 986c 2a3f 809d 45c0 73ea 40c0 e8c8 8e3f
00000210: fa77 6dbf 6503 1b3f 95a2 d63f 6e6f 34bf
00000220: 103f dcbf 86d2 b1bd 60b2 cabf bb41 8f3f
00000230: 6d86 15c0 c296 643f 883b d33f 185a 04bf
00000240: 9d20 813f 46c0 81c0 33bc 32bf 7d3a febf
00000250: 356c 873e 58ed 3e3f c8e8 2ebd 1109 073f
00000260: 35de 1ec0 4800 a13f 1ea5 c03e 24e3 bac0
00000270: e30e a93f 422e 683f 7aa6 b9c0 a1ec 8b3f
00000280: 1833 febe acfc 0140 dc34 68be daeb 0ac0
00000290: 7eab 15c0 dced b63f 394c 07c0 8485 9dbe
000002a0: 6639 1ac0 6b59 873f 08fa cb3f acde 8fbe
000002b0: 5423 bb3e 3389 b3bf 5aad 9fbe 7518 2cbf
000002c0: 63c1 63bf 41df c1bf c18e c6be a7e7 5ec0
000002d0: 0719 683f e9f3 9cbf 1581 683f 8016 133e
000002e0: 8b05 d73f bf63 8dbf 337d 2d40 8284 c63e
000002f0: c4bb 8b3f c7bb 6e3f 8f20 cbbf 002c 12c0
00000300: 7b26 90bd 2e9d d43e fed1 8d3e 8b68 703f
00000310: 3caa 0bc0 6926 f2be dd76 b03f 47a2 42be
00000320: 0d17 abbf c170 b0bf 2c26 26c0 b452 1b3d
00000330: 8028 8d3f c920 5b3f 6843 abbf 95bd 853e
00000340: eeec cbbd aab0 c73f e0ab 1cc1 b2dc 903e
00000350: 8e7e 203f a45c e93f 822b 6c3f 1e43 753e
00000360: a2a3 92be 7ae6 78bf cfe8 03c0 d4f2 2c3f
00000370: 8e49 d2bf 7f2c 82be 621c fa3e 4cfb aabb
00000380: e9a8 6e3f 5724 4cc0 9c43 8e3f f3af f33f
00000390: 4fc9 f13f b373 2c3e 654f b03f 6fd7 d93e
000003a0: 7618 b4be 2d1b 56bf 2777 033e 9d3e 783f
000003b0: d4d0 42c0 5395 903f 7638 70bf c982 43bf
000003c0: 9cea ed3e 1beb 98c0 7da9 573e c52b 30c0
000003d0: ab77 f53f 616d 18bf 96aa 75be dbd3 35bf
000003e0: c871 15c0 20f9 e0bf 9ede f33f b1e5 7dbf
000003f0: 4582 973e b431 a2c0 8ea3 e7bf 19e4 5f3f
0.98604214 -3.7922037 0.37294462 -1.5171739 0.13953511 1.0415224 -0.097223684 0.23658134
-1.0770007 -5.0954504 -0.36195263 1.4105556 0.35138896 1.2919703 0.8481345 1.2861861
1.0285779 -3.0786629 -1.0378896 -0.7477041 -2.8706357 -0.306864 -2.098937 -0.58228487
1.6008488 1.0699198 2.574287 1.0169183 -0.18887268 -1.3370565 -2.280427 -1.3103279
-3.0456636 0.4169007 -2.338347 0.6798544 -0.45885387 -0.6852492 -1.9403263 0.46261123
0.70445806 0.55957717 0.8352043 -4.083123 1.0901495 -0.457698 -2.7103539 -3.7742565
0.0833694 0.4705904 0.53499323 0.48314688 -1.2724646 -2.1891532 -1.5659001 0.5616041
-1.2834687 0.11295325 0.089748584 1.1520951 0.06266172 -0.07298948 1.0840582 1.1046014
0.45529503 -8.319616 1.0419614 -0.50354356 -3.4039922 1.7220109 0.9517178 2.2789438
1.9473069 2.0073476 0.35443002 -0.36450234 -0.0857678 -0.23065166 -2.3051326 2.491779
-1.0277766 -0.61991394 0.3364335 1.247003 0.97208333 0.8643806 1.5352 -1.7740611
-4.4377313 -1.3185567 -0.3696993 -1.3403462 -1.1585474 1.0371989 -0.9223716 0.7117636
-0.56442475 -0.6858246 -1.2536695 0.6620806 0.18448922 0.83132315 0.10532142 -1.0888039
-1.2810242 1.3772894 0.93730384 -0.22018662 0.091067076 -1.9757022 -0.5151936 -0.59652305
-0.26739532 0.87390685 0.72289735 -2.7153668 -2.3120675 1.3861785 -1.926338 1.1392049
-0.26140085 0.5537454 -0.5480052 0.42350692 1.0135578 0.9532112 -0.8287408 -2.4689252
0.6657195 -3.087738 -3.0143096 1.1155062 -0.92761195 0.60552055 1.6768366 -0.7048253
-1.7206745 -0.08682732 -1.5835686 1.1191934 -2.3363297 0.8929254 1.6502542 -0.5169997
1.0088078 -4.054721 -0.6981842 -1.9861599 0.26449743 0.7458091 -0.042702466 0.5274821
-2.4823124 1.2578211 0.37625974 -5.840227 1.3207668 0.90695584 -5.801572 1.0931588
-0.49648356 2.0310469 -0.22676414 -2.1706452 -2.338592 1.4291339 -2.1140273 -0.30765927
-2.4097533 1.0574163 1.5935678 -0.28099573 0.3655039 -1.4026245 -0.31186944 -0.6722482
-0.8896696 -1.5146257 -0.38780788 -3.482889 0.9066319 -1.2261935 0.90821964 0.14364052
1.6798567 -1.1046065 2.7107666 0.3877297 1.0916677 0.93255275 -1.5869311 -2.2839355
-0.070385896 0.4152617 0.27699274 0.9390952 -2.1822653 -0.4729493 1.3786274 -0.19007216
-1.336641 -1.378441 -2.5960798 0.03792067 1.1027985 0.855969 -1.3379946 0.26121202
-0.099573 1.5600789 -9.791962 0.28293377 0.6269311 1.8231397 0.9225389 0.23951384
-0.28640467 -0.9722668 -2.0610845 0.67558026 -1.6428697 -0.25424573 0.4884978 -0.005217945
0.93226486 -3.189718 1.1114383 1.903807 1.888956 0.16841011 1.3774229 0.42547175
-0.35174912 -0.83635217 0.12838422 0.9697054 -3.0439959 1.129557 -0.9383615 -0.7637144
0.46468055 -4.7786994 0.21060748 -2.7526715 1.9177145 -0.595419 -0.23990855 -0.7102639
-2.3350697 -1.7576027 1.9052312 -0.99178606 0.29591575 -5.0685673 -1.8096788 0.87457424

conv5.bias f4 [20]
00000000: bf8f 073f b3f1 af3d 4d8b 81bf 56a1 883f
00000010: c128 2b3e 2a76 523d 1e36 a63e 4d05 88bf
00000020: 225e 78bf 918f 8abd 2559 873f ffb3 8b3e
00000030: eb48 87bf cd1a 46bf ea36 9ebf 0ff7 01bf
00000040: d318 05bf f769 803f 4803 0bbe e741 9bbe
0.52953714 0.08591022 -1.0120636 1.0674236 0.16714765 0.05138222 0.32463163 -1.0626618
-0.97018635 -0.06765664 1.057408 0.27285764 -1.0569128 -0.77384645 -1.2360508 -0.50767606
-0.51991004 1.0032338 -0.1357547 -0.30323717
