networks/pretrained_models/ustc-tfc2016/CNN1D_TrafficClassification_with_auxiliary_best_model.pth (torch, 141594 bytes, 86 tensors)

conv1.weight f4 [16, 1, 3]
0	0xbf44a2c9	-0.7681089
1	0xbea1785e	-0.31537145
2	0xbf1f9378	-0.62334394
3	0xbd6b1962	-0.057397254
4	0xbfab150f	-1.3365802
5	0xbfe39edc	-1.7782855
6	0xbf117feb	-0.5683581
7	0xbe956450	-0.29178095
8	0x3ed0de2a	0.40794498
9	0xbf845339	-1.0337898
10	0x3e81ed18	0.253762
11	0xbc0f1e34	-0.008735228
12	0x3ef3a354	0.47585547
13	0x3f4c359d	0.7976931
14	0x3e5dd79c	0.2166428
15	0x3e9a7a8d	0.30171624
16	0x3e1e5721	0.15462925
17	0xbf450099	-0.76954037
18	0x3da60682	0.0810671
19	0x3d05758c	0.032582805
20	0xc042084a	-3.031756
21	0xbfb271fd	-1.3941036
22	0xbeb5a674	-0.35478556
23	0x3e0a0b32	0.13480833
24	0xc08cec12	-4.403817
25	0xbd15a1fd	-0.036531437
26	0x3d6d4dc9	0.05793551
27	0xbf1be930	-0.6090269
28	0x3f082d4b	0.5319411
29	0x3f12d168	0.5735078
30	0x3f39e65c	0.72617126
31	0x3f0f005d	0.5585993
32	0x3e7a5483	0.24446301
33	0xbc5376bc	-0.012906726
34	0xbfa50458	-1.2891951
35	0x3e3bb68d	0.18331356
36	0x3e9e048d	0.30862847
37	0x3d4066f7	0.046973195
38	0x3f5ba104	0.85792565
39	0xbe27eeba	-0.1639966
40	0x3ebd9ebf	0.37035176
41	0x3fa0d9b6	1.256644
42	0x3f1e1151	0.6174517
43	0xbed1a29b	-0.4094437
44	0xbf4b52c4	-0.79423165
45	0x3e52c3fa	0.20582572
46	0xbe945160	-0.28968334
47	0x3f762c50	0.96161366

conv1.bias f4 [16]
0	0xbdb51575	-0.08841983
1	0xbf3a1d26	-0.72700727
2	0x3d90bb38	0.07066959
3	0x3f19ade7	0.6003098
4	0xbd1c0581	-0.038091186
5	0x3deea8a7	0.11653262
6	0xbe5cd3e9	-0.21565212
7	0x3d12162a	0.03566567
8	0xbf9a158d	-1.2037827
9	0x3fae3ff6	1.3613269
10	0x40101689	2.2513754
11	0x3d4cf0e0	0.050034404
12	0x3f251ad9	0.6449409
13	0xbfaff729	-1.3747302
14	0x3e2fbe69	0.1716248
15	0x4035a227	2.838022

bn1.weight f4 [16]
0	0x407a102b	3.9072368
1	0x40970852	4.7197657
2	0x3f357677	0.7088389
3	0x401f48f9	2.488829
4	0x3f5de988	0.86684465
5	0x3fef57dd	1.8698689
6	0x403ac477	2.9182413
7	0x4005f0f7	2.0928323
8	0x4062db66	3.544641
9	0x3f88344d	1.0640961
10	0x3fbb2f6b	1.4623846
11	0x40200136	2.500074
12	0x3f9a6d21	1.2064553
13	0x3fda6425	1.7061812
14	0x409dcd23	4.931291
15	0x3f8d38e7	1.103299

bn1.bias f4 [16]
0	0xbf52036e	-0.82036483
1	0xbef5a29c	-0.47975624
2	0x3ef2ba58	0.47407794
3	0xbf9f73ec	-1.2457252
4	0x3f1059b8	0.563869
5	0x3f31656d	0.6929539
6	0xbf715bea	-0.94280875
7	0x3f12bd7b	0.57320374
8	0xbf879b04	-1.0594182
9	0xbf1772b8	-0.5915942
10	0xbf8dc92e	-1.107702
11	0xbf1fd184	-0.6242907
12	0x3fbb90de	1.4653585
13	0xc0268d2b	-2.6023662
14	0xc009818c	-2.148532
15	0xbf84d120	-1.037632

bn1.running_mean f4 [16]
0	0xbe9246e7	-0.2856972
1	0xbf8be69d	-1.0929753
2	0x3c8b70d3	0.017021572
3	0x3f020bc4	0.507992
4	0x3e0510b7	0.12994657
5	0x3da55637	0.08073085
6	0xbf0d1620	-0.55111885
7	0xbe17a005	-0.14807136
8	0xbfda94f1	-1.7076703
9	0x3fb5a266	1.4190185
10	0x401b6909	2.4282858
11	0xbda4cd41	-0.080469616
12	0x3f496a14	0.7867749
13	0xbf9a7727	-1.2067612
14	0x3dd4f692	0.10398592
15	0x403c0de7	2.9383485

bn1.running_var f4 [16]
0	0x3e169f1f	0.14709137
1	0x3f083876	0.5321115
2	0x3ca1b461	0.019739332
3	0x3d442ef0	0.047896326
4	0x3de95d6b	0.11394771
5	0x3c8f05b5	0.017458776
6	0x3f0ab010	0.541749
7	0x3e1bf5aa	0.15230432
8	0x3f98fc8b	1.195207
9	0x3cef92ce	0.029244807
10	0x3df3a317	0.11896341
11	0x3db06c09	0.08614356
12	0x3da3492b	0.0797294
13	0x3e00facd	0.12595673
14	0x3d18013b	0.03711055
15	0x3d58b0b0	0.052902877

submod1.weight f4 [20, 16, 1]
0	0xbe1c3584	-0.1525479
1	0x3ea1cc56	0.31601208
2	0x3f0b1b73	0.5433876
3	0xc127ce9c	-10.487942
4	0xbab1a4b2	-0.0013553111
5	0x3eb36bc7	0.35043165
6	0xbe977871	-0.29584077
7	0xbe332009	-0.17492689
8	0x3e594bfe	0.21220395
9	0x3f035a71	0.5130988
10	0xbfaed572	-1.3658888
11	0xbf9893c0	-1.192009
12	0xbd330171	-0.043702547
13	0x3db4c61f	0.08826851
14	0x3dedf7a8	0.11619502
15	0x3f1806ff	0.59385675
16	0x3ee1a061	0.44067672
17	0xbdf5be6f	-0.11999213
18	0x3e5b2b12	0.21403149
19	0x4173681d	15.212918
20	0x406fa79c	3.744605
21	0xbfb957c6	-1.4479911
22	0x3f708f73	0.93968886
23	0xbf46b5f6	-0.776214
24	0x3f5dab52	0.8658954
25	0x3f12267d	0.5708998
26	0xbde10afd	-0.10988424
27	0xbf1d0d9a	-0.6134888
28	0x3febd08b	1.8423017
29	0xc104e1cc	-8.305126
30	0xc114c64c	-9.298412
31	0xc11aba14	-9.670429
32	0xbfd73551	-1.6813146
33	0xbda2f0ac	-0.07956061
34	0x406642c9	3.5978262
35	0xbfaeb46f	-1.3648814
36	0xbfdb85cf	-1.715021
37	0x4036ebd7	2.8581445
38	0xbefdd146	-0.49573725
39	0xbd0c59f8	-0.03426549
40	0xbf86ec7f	-1.0540923
41	0xc0a0216f	-5.0040812
42	0xc0ababd5	-5.3647256
43	0x3f3bdc90	0.73383427
44	0xbf920297	-1.140704
45	0xbf6d782f	-0.9276151
46	0x4143d4e5	12.239476
47	0xbfecb11e	-1.8491552
48	0x3e601586	0.2188321
49	0x3d1eb49c	0.03874646
50	0x3e862d1d	0.26206294
51	0xbf8f0e79	-1.1176292
52	0x3f517dba	0.8183247
53	0xbf3344fd	-0.7002714
54	0xbe8b54ca	-0.27213126
55	0xbe03a728	-0.12856734
56	0x3e2bcc14	0.16777068
57	0xbf83b288	-1.0288858
58	0x3f63e4ce	0.89021003
59	0x3df6b218	0.120456874
60	0x3f49586f	0.78650564
61	0xbf55a14a	-0.8344923
62	0xbf772179	-0.9653545
63	0xbf9348bd	-1.1506573
64	0xbe72dc1f	-0.23716782
65	0x3e190268	0.14942324
66	0x3ec3577c	0.38152683
67	0xc1fdc74d	-31.722315
68	0xbd1a0a41	-0.037607435
69	0x3f75e2ed	0.96049386
70	0x3ec8f970	0.39252806
71	0xbe260c68	-0.1621567
72	0xbec93be1	-0.39303496
73	0x41130a0b	9.189952
74	0xc1929c09	-18.326189
75	0xbf502d70	-0.8131933
76	0x3e53968a	0.20662895
77	0xbfb407dc	-1.4064898
78	0x40b43a37	5.6321063
79	0x3fa6ffa2	1.3046763
80	0xbe13c9d8	-0.14432466
81	0x3e49f4c9	0.19722284
82	0x3ee31523	0.44352064
83	0x404a6810	3.1626015
84	0xbf29d63e	-0.6634253
85	0xbfca6d02	-1.5814517
86	0xbf03c690	-0.5147486
87	0x3fa26201	1.2686158
88	0xbf3d62b1	-0.73978716
89	0xbe0f2317	-0.1397823
90	0xbee120b7	-0.43970272
91	0x3fb30ee6	1.3988922
92	0xbebb6e90	-0.3660779
93	0x3f4e862d	0.80673486
94	0x4040cd99	3.0125487
95	0x3f263bbb	0.6493489
96	0xbc509bf6	-0.0127324965
97	0x3ea804c1	0.32816127
98	0x3f5727c7	0.8404507
99	0x4094d1c4	4.650606
100	0xbfe74ce8	-1.8070345
101	0x3f9964ef	1.1983927
102	0xbf672917	-0.90297073
103	0xbe4a39c5	-0.197486
104	0xbfbff336	-1.4996097
105	0x3f22c422	0.63580525
106	0xbdb8370e	-0.08994876
107	0x3f6780c3	0.9043085
108	0xbf297754	-0.66197705
109	0x3ed4c716	0.4155814
110	0xbf7e24c4	-0.9927485
111	0x3ff527ed	1.9152809
112	0x3ebbdbc0	0.36691093
113	0x3f7bbf15	0.98338443
114	0x3e49560d	0.19661732
115	0xbf8ef3d4	-1.116816
116	0xbe69405b	-0.22778456
117	0xc00005e4	-2.0003595
118	0xbf4426a9	-0.7662149
119	0x3ed188ca	0.40924674
120	0xbf74c16a	-0.95607626
121	0x40576fa9	3.3661902
122	0xc120d10e	-10.051039
123	0xbf0f1b64	-0.5590117
124	0x3f82e1c0	1.0225143
125	0xc143c714	-12.236103
126	0x408eb4f8	4.459591
127	0x40ee6216	7.4494734
128	0xc06bc08d	-3.6836274
129	0xc0227d7e	-2.5389094
130	0xbff685a5	-1.9259535
131	0x40d6ea43	6.7160964
132	0x3e14718e	0.14496443
133	0xbddc8abb	-0.10768648
134	0x40d1d84b	6.557653
135	0xbf728ff3	-0.947509
136	0x40f1344d	7.5376344
137	0x3efac7f4	0.48980677
138	0x3f277447	0.654118
139	0x4096a213	4.7072845
140	0x3fa27115	1.269076
141	0xbf426482	-0.7593461
142	0xc0c8deed	-6.2772126
143	0x405bf223	3.4366539
144	0x3f1e80bd	0.6191519
145	0x3e71bce0	0.23607206
146	0xbef5ceb6	-0.4800927
147	0xbe35d0f5	-0.17755492
148	0x3f6d5474	0.9270699
149	0x3ea3900a	0.3194583
150	0x3d0fc70c	0.035101935
151	0xbf9b04bc	-1.211082
152	0x3c56ac40	0.013102591
153	0x3edfc901	0.4370804
154	0xbee52349	-0.44753483
155	0xbf0180d9	-0.5058723
156	0x3f3e1f34	0.7426636
157	0xbfa84b26	-1.3147933
158	0xc01ac874	-2.4184847
159	0x3e8c1fe0	0.2736807
160	0x3e12bd2a	0.14329973
161	0xbf09a05d	-0.5376032
162	0xbdb1d4c8	-0.08683163
163	0x40607861	3.5073473
164	0x3fc1f907	1.5154122
165	0x3de9ed97	0.1142227
166	0x3e0821cf	0.13294147
167	0x3e51fcb8	0.20506561
168	0x3ec52fd2	0.38513047
169	0x3ec0f3ca	0.37685996
170	0xbe1cf5bb	-0.15328114
171	0x3ddff474	0.109352976
172	0x3edf8abd	0.43660536
173	0xc071d74f	-3.7787664
174	0xbf33d6f1	-0.7024985
175	0xbfe64da5	-1.7992445
176	0x3c864421	0.016389908
177	0xbdb23464	-0.08701399
178	0xbe0ca0e9	-0.13733257
179	0xc1af0378	-21.876694
180	0x40a9e104	5.3087177
181	0xbfd8b51d	-1.6930271
182	0x3fc9e4ca	1.5772946
183	0xbd6d6113	-0.057953905
184	0x3f3a30df	0.7273082
185	0xc01fc428	-2.4963474
186	0xbd8bda62	-0.068287626
187	0xbf30b779	-0.6902996
188	0x401427e5	2.314935
189	0xc14700bd	-12.43768
190	0xc1293ccf	-10.577346
191	0xc133287b	-11.197383
192	0x3dce73f2	0.100807086
193	0xbbf477ad	-0.0074605555
194	0x3eeccbb6	0.4624917
195	0x40778236	3.8673224
196	0x3f869cfb	1.0516657
197	0xbf184e7e	-0.5949477
198	0x3cb7fa67	0.022458268
199	0xbf371557	-0.71516937
200	0xbef19a14	-0.47187865
201	0xbf24708a	-0.6423422
202	0x3f5d385a	0.8641411
203	0x3fa73816	1.3063991
204	0x3ec95315	0.393212
205	0x3e6f83ae	0.23390076
206	0xbfd10cfa	-1.6332085
207	0xbf8dbfaa	-1.1074116
208	0x3f7b1348	0.98076296
209	0xbff61f12	-1.9228232
210	0x40118b9a	2.2741456
211	0xc0fdefd4	-7.935526
212	0xbf223bc9	-0.63372475
213	0x40595e4a	3.39638
214	0xc020afe8	-2.5107365
215	0x3faeea9a	1.3665345
216	0xbe98c711	-0.29839376
217	0x3e54a851	0.20767333
218	0xbd33888d	-0.043831397
219	0xc069f1e5	-3.655389
220	0xc015702d	-2.3349717
221	0x3fd15978	1.6355429
222	0x40af4c11	5.4780354
223	0xbffbfbfc	-1.9686275
224	0x3dc106cb	0.09425124
225	0xbe6fd419	-0.23420753
226	0xc07d3508	-3.9563618
227	0xc206891f	-33.633907
228	0x41287fb5	10.531178
229	0xc0afafb4	-5.490198
230	0x3fae9374	1.3638749
231	0x3e23eb94	0.16007835
232	0x401a76f7	2.413511
233	0xc2310477	-44.25436
234	0xc21b2cca	-38.79374
235	0x3fe7ada6	1.8099868
236	0x40e22d39	7.0680203
237	0xc21f24a7	-39.785793
238	0x419191b1	18.196138
239	0xc1d29c95	-26.326456
240	0x403105b0	2.7659721
241	0x40964e7b	4.69708
242	0xc0d761c3	-6.730684
243	0xc1546b2a	-13.276163
244	0x3f4cd84e	0.80017555
245	0xc114bf22	-9.296663
246	0xbdcdb99f	-0.1004517
247	0x40384872	2.8794217
248	0x3ef12b03	0.47103128
249	0x407c5e5e	3.9432597
250	0x40c0c823	6.0244308
251	0xc0e60bde	-7.1889486
252	0x3fcf78bb	1.6208719
253	0x410427a4	8.259678
254	0xc1626bf5	-14.151357
255	0x3fa2fcfe	1.2733457

submod1.bias f4 [20]
0	0x3ed5b607	0.41740438
1	0x3f9ee7a5	1.2414442
2	0xc01c9eb5	-2.4471867
3	0x3ef2f78e	0.47454494
4	0xbd2c5362	-0.042071708
5	0xbed13bdc	-0.40865982
6	0xbed9c1e3	-0.42530736
7	0x3ecd7b3a	0.40133077
8	0xbf98c10d	-1.1933914
9	0x3f25458b	0.6455924
10	0x3eadc381	0.3393822
11	0x3f83726e	1.0269296
12	0x3f5c4a6a	0.86051047
13	0xc0553125	-3.3311245
14	0x40144451	2.3166697
15	0x3f8e9350	1.1138706
16	0xbf84738f	-1.0347766
17	0x3f1fab99	0.6237121
18	0x3eb88fac	0.36047113
19	0xbf313eb4	-0.692363

conv2.weight f4 [16, 16, 3]
0	0x3f9f1e70	1.2431164
1	0xbfb534a4	-1.415669
2	0xbf15d9ad	-0.5853527
3	0x3e823ef7	0.25438663
4	0x3f89709a	1.0737488
5	0xbeac0882	-0.3360024
6	0x3f54b584	0.8308947
7	0x3eda7f30	0.4267516
8	0x3d8cc207	0.06872945
9	0x3e5a5ad2	0.21323708
10	0xbe978147	-0.29590818
11	0x3e00cd56	0.1257833
12	0xbe6fa2cf	-0.2340195
13	0xbcd300bd	-0.025757188
14	0x3ee59a25	0.44844165
15	0x3d42ed50	0.0475896
16	0x3e913272	0.283588
17	0xbdf55e4f	-0.119808786
18	0xbf33a186	-0.7016834
19	0xbe6c0902	-0.23050311
20	0x3ea809ee	0.32820076
21	0xbf05b9a3	-0.52236384
22	0xbdcfdc2f	-0.101494186
23	0x3e73fb51	0.23826338
24	0xbf0ab2f2	-0.541793
25	0xbe0f6aa5	-0.14005525
26	0x3e61198e	0.21982405
27	0x3e289125	0.16461618
28	0x3dd91671	0.105999835
29	0x3c579c4a	0.013159821
30	0x3e752570	0.23940063
31	0xbe47af01	-0.19500352
32	0x3d821a01	0.06352616
33	0x3f4febc8	0.8121915
34	0x3ed9192e	0.42402023
35	0xbd8e3b96	-0.06944959
36	0x3eb2b272	0.34901768
37	0x3e93ac37	0.28842327
38	0xbecb7329	-0.39736298
39	0xbe9c4e7e	-0.30528635
40	0xbe3a9e5c	-0.18224472
41	0x3dcc1354	0.09964624
42	0x3d2341cc	0.03985767
43	0x3c12a5eb	0.008950691
44	0x3d0e488b	0.03473715
45	0xbeb5224a	-0.35377723
46	0xbea2ece2	-0.31821352
47	0x3e4b35e2	0.19844773
48	0x40035184	2.0518503
49	0xbf6ae508	-0.91755724
50	0xbcbc78e6	-0.023006868
51	0xbfabc0ee	-1.3418252
52	0x3e1d6ec6	0.15374288
53	0x3c28eae0	0.010309905
54	0x3d540fdb	0.051772933
55	0xbcc69578	-0.024241194
56	0xbdab2092	-0.08355822
57	0x3ebd0e2d	0.36924878
58	0xbdb7adc6	-0.089686915
59	0xbdab9c74	-0.083794504
60	0xbef0eb45	-0.47054496
61	0xbe26e028	-0.16296446
62	0xbd7f7fca	-0.06237773
63	0xbcfd4a8a	-0.030919332
64	0xbda8ce49	-0.08242471
65	0x3c858869	0.016300397
66	0xbec550a7	-0.38538095
67	0xbf5ea380	-0.8696823
68	0xbe91ca78	-0.28474784
69	0xc01b0c97	-2.4226434
70	0x3eb1fca4	0.34763062
71	0x3f001239	0.50027806
72	0xbdb326ee	-0.087476596
73	0x3f5175f6	0.8182062
74	0x3f6b11b3	0.9182388
75	0xbd8e5886	-0.06950478
76	0x3e8f605a	0.28003198
77	0x3dbefb2b	0.0932525
78	0x3f18fcb2	0.5976058
79	0x3d92b079	0.07162566
80	0xbd114f07	-0.035475757
81	0x3e89ba40	0.2689991
82	0xbe1adc23	-0.15123038
83	0x3ea8a999	0.32941893
84	0xbf219f79	-0.6313396
85	0xbe6ac7f0	-0.22927833
86	0x3e536961	0.20645668
87	0x3e391631	0.18074872
88	0xbdaebc14	-0.08531967
89	0xbdc3e03d	-0.095642544
90	0xbbf9fae1	-0.007628784
91	0x3d39b599	0.0453392
92	0x3c1b71bd	0.009487567
93	0x3ea27642	0.3173085
94	0x3e135629	0.14388336
95	0xbe20dfa7	-0.15710317
96	0x400e4206	2.2227798
97	0x3eb397e8	0.35076833
98	0xbdf681c4	-0.120364696
99	0x3eea9ec3	0.4582425
100	0xbeab8be4	-0.33505166
101	0xbe399c0e	-0.18125936
102	0x3e856de6	0.26060408
103	0xbdef169a	-0.11674233
104	0x3e06cc56	0.13163885
105	0x3ee9e2d1	0.4568086
106	0xbfa552df	-1.2915915
107	0x3f0b8011	0.5449229
108	0x3ed670b5	0.41882864
109	0xbccba1f9	-0.024857508
110	0x3f4a33e2	0.78985417
111	0x3e11e869	0.14248814
112	0xbd4883ab	-0.048953693
113	0x3d2ad7ed	0.04170983
114	0xbfe28237	-1.7695988
115	0xbee1df6c	-0.4411577
116	0x3e660ef7	0.22466646
117	0x3d8ecf15	0.069730915
118	0xbe1223d0	-0.14271474
119	0x3ee2f61d	0.44328395
120	0x3da70a84	0.081563026
121	0xbe41c6b7	-0.1892346
122	0xbdb569fe	-0.08858107
123	0xbeb6d246	-0.357073
124	0xbe71d78b	-0.2361738
125	0xbdb79473	-0.08963861
126	0xbe68237a	-0.22669783
127	0x3e8eb3a4	0.2787143
128	0xbe7366ac	-0.23769635
129	0x3eaf87b1	0.34283212
130	0xbe424e49	-0.18975176
131	0xbf4b362d	-0.7937954
132	0x3e6a7ced	0.22899218
133	0xbeb5b52c	-0.35489786
134	0x3e79343e	0.24336335
135	0x3ce906d6	0.028445642
136	0x3e6210a4	0.2207666
137	0xbcf8dde4	-0.030379243
138	0xbda33081	-0.07968236
139	0x3d18e678	0.037329167
140	0x3c829b2f	0.015943138
141	0xbeb402b0	-0.351583
142	0x3c1fb63d	0.009748039
143	0xbe677b9f	-0.22605751
144	0xbef20e4a	-0.47276527
145	0xbde2fe5f	-0.11083674
146	0x3f32de2c	0.6987026
147	0x3f8a7db7	1.0819615
148	0xbec066d7	-0.3757846
149	0x3f9198d4	1.1374764
150	0xbe49e2e8	-0.19715464
151	0x3dac6e17	0.084194355
152	0xbda3319c	-0.079684466
153	0x3d24d229	0.040239487
154	0x3f2c1358	0.67217016
155	0xbedfc095	-0.43701616
156	0x3eefed25	0.46860614
157	0x3dca1096	0.09866445
158	0x3ea576e6	0.32317275
159	0xbd647a69	-0.055780802
160	0x3cf8f3f0	0.030389756
161	0x3d3bd6a7	0.045859005
162	0x3f07d5b6	0.5306047
163	0xbf840173	-1.0312942
164	0xbf0b494e	-0.5440873
165	0x3e604f95	0.21905358
166	0xbbf0c995	-0.007348249
167	0xbd865740	-0.0655961
168	0xbf75388d	-0.95789415
169	0xbec84cdd	-0.39121142
170	0xbf6c6e6e	-0.92356
171	0x3c5fd0e1	0.01366064
172	0x3e2d7db7	0.16942488
173	0x3d80cc89	0.06289012
174	0xbeadf083	-0.33972558
175	0xbc3acd1d	-0.011401442
176	0xbedaaa8e	-0.42708248
177	0xbf14ac5b	-0.58075494
178	0xbdade444	-0.08490804
179	0x3f3caae8	0.7369828
180	0xbcfa78c0	-0.030575156
181	0x3de2b978	0.110705316
182	0x3ef955d2	0.48698288
183	0xbbf345a8	-0.007424075
184	0xbe838867	-0.25690004
185	0xbdbd3660	-0.09238887
186	0x3acec750	0.0015775952
187	0x3bf89645	0.007586273
188	0x3c9da80e	0.019245174
189	0x3ddff019	0.10934467
190	0x3d8ddf57	0.06927364
191	0xbe989da9	-0.29807785
192	0x3f03d74e	0.51500404
193	0xbfdf27a7	-1.7433976
194	0x3f005b08	0.501389
195	0x3f171525	0.5901664
196	0xbf80f5d6	-1.0075023
197	0x3e6e107c	0.23248476
198	0xbe98c2ac	-0.29836023
199	0xbdaf8b4b	-0.0857149
200	0x3e0fe821	0.14053394
201	0xbea6038b	-0.32424578
202	0x3f082460	0.53180504
203	0xbf1f40e6	-0.622084
204	0xbeafe448	-0.34353852
205	0x3ee01c57	0.43771622
206	0x3e3c99f8	0.1841811
207	0xbd78dd22	-0.060757764
208	0xbc6eaaf9	-0.01456713
209	0x3d19d51b	0.03755675
210	0xbfb64720	-1.4240456
211	0x3f29285e	0.6607722
212	0xbf00e01d	-0.5034197
213	0x3e3c8cf2	0.18413141
214	0xbe0b11a4	-0.13580948
215	0xbe195f0b	-0.14977662
216	0x3f4d7a2a	0.8026453
217	0xbfb3ed86	-1.4056861
218	0x3f96e478	1.1788473
219	0x3e235b60	0.15952826
220	0xbe6d9390	-0.23200822
221	0x3da11106	0.07864575
222	0x3d506589	0.05087808
223	0xbe14e4b1	-0.14540364
224	0xbc3f91de	-0.011692492
225	0x3ed26b61	0.4109755
226	0x3f308921	0.6895924
227	0x3e9ae5a1	0.30253318
228	0xbf0ae008	-0.54248095
229	0x3ddeeb1f	0.108846895
230	0x3e03077e	0.12795827
231	0x3dd02929	0.10164101
232	0x3c8c0c5e	0.01709574
233	0xbe5ff5f4	-0.21871167
234	0x3ac465e0	0.0014983974
235	0xbb1218e7	-0.0022292675
236	0x3c12867d	0.008943197
237	0x3ee5c0a6	0.44873542
238	0xbda10237	-0.078617506
239	0x3d71d7b3	0.059043597
240	0xbece403d	-0.40283385
241	0xbf0a64f0	-0.5406027
242	0x3e19e22a	0.15027681
243	0x3f0fefd6	0.56225336
244	0x3f1cc6fa	0.61241114
245	0xbf08b98c	-0.5340812
246	0x3e3847fb	0.17996208
247	0x3e8d0036	0.27539223
248	0x3d946b04	0.07246974
249	0x3f25fc04	0.6483767
250	0x3da68083	0.081299804
251	0x3dbc9405	0.0920792
252	0x3e8d2d21	0.27573493
253	0xbe647a17	-0.22312199
254	0xbeb534bb	-0.35391793
255	0x3d8a6d2c	0.06759104

conv2.bias f4 [16]
0	0x406f9f21	3.7440875
1	0xc0996f3e	-4.7948294
2	0x3ff1702f	1.8862361
3	0x3f7f445f	0.997137
4	0xc0b4b0a9	-5.646565
5	0xc03c1ae3	-2.939141
6	0x40537d32	3.3045163
7	0x3f7153b3	0.9426834
8	0xc08ecedc	-4.4627514
9	0x4059588e	3.39603
10	0x3f9be991	1.2180654
11	0xbe69dac1	-0.22837354
12	0xc0876b7c	-4.2318707
13	0x3f7b3f50	0.9814348
14	0x3e78cb42	0.24296287
15	0xbee7a4b9	-0.4524286

bn2.weight f4 [16]
0	0x40944a9c	4.6341076
1	0x40b7a9f8	5.739498
2	0x410a5b3f	8.647277
3	0x408aaab4	4.333338
4	0x40d33475	6.6001534
5	0x408a5577	4.3229327
6	0x410bbe06	8.733892
7	0x412e678f	10.900283
8	0x40a2278f	5.067329
9	0x40c51a66	6.1594725
10	0x4133c89d	11.236478
11	0x41126fc3	9.152286
12	0x40bb14ac	5.8462734
13	0x41096be8	8.588844
14	0x412197b4	10.099537
15	0x40dc89b2	6.8918085

bn2.bias f4 [16]
0	0xbf867ff9	-1.0507804
1	0x3fc14ce5	1.5101591
2	0xbfb5d4b4	-1.4205537
3	0xc0fdd81a	-7.9326296
4	0xbf11b80e	-0.5692147
5	0x3f90827e	1.1289823
6	0xc09d55f9	-4.9167447
7	0xc0fe4924	-7.9464283
8	0xbf902483	-1.1261142
9	0xbf98b4ca	-1.1930172
10	0xbfc31b39	-1.5242683
11	0xbef9125d	-0.48646823
12	0x3f6fbf6d	0.9365147
13	0xbf271d8d	-0.65279466
14	0xbf885700	-1.065155
15	0x3fe744cc	1.806787

bn2.running_mean f4 [16]
0	0x40b90310	5.781624
1	0xc1028108	-8.156502
2	0x408863fd	4.2622056
3	0x406b69c8	3.6783314
4	0xc0d7b165	-6.7404046
5	0xc092f4e2	-4.592393
6	0x40c487f5	6.1415963
7	0x3f9601df	1.1719321
8	0xc0867dfa	-4.202878
9	0x407b7ac2	3.9293675
10	0x40a902e4	5.281603
11	0xbeff3397	-0.49844047
12	0xc09e8c9b	-4.9546638
13	0x40861159	4.1896176
14	0x3f3bdd56	0.73384607
15	0xbedd1e4c	-0.43187177

bn2.running_var f4 [16]
0	0x3ecdc0e2	0.4018622
1	0x3f2c3f32	0.6728393
2	0x3f684c55	0.90741473
3	0x3e315665	0.17318113
4	0x3ed5a865	0.41730037
5	0x3ee5532e	0.44790024
6	0x3e9d5222	0.30726725
7	0x3f776d96	0.9665159
8	0x3e3f2612	0.18666866
9	0x3e9a1708	0.30095696
10	0x3f781062	0.969
11	0x3feb607e	1.8388822
12	0x3e495ad5	0.19663556
13	0x3f9fde34	1.2489686
14	0x3f049341	0.5178719
15	0x3f5c010d	0.85939103

submod2.weight f4 [20, 16, 1]
0	0xbeb35391	-0.35024694
1	0xbf885ae5	-1.0652739
2	0x4041ace3	3.0261772
3	0x407d3ba4	3.9567652
4	0xc06f0231	-3.7345088
5	0xbea252aa	-0.31703693
6	0xc08ffca6	-4.499591
7	0xc1c048f6	-24.035625
8	0xc021b2b3	-2.526532
9	0x40c0594a	6.0108995
10	0xc071a86f	-3.7759054
11	0xbea225b9	-0.31669405
12	0x3eeddd5e	0.46457952
13	0xbe832e2c	-0.25621164
14	0x405fa4be	3.49443
15	0x3f27eab7	0.6559252
16	0x411eaeda	9.917688
17	0xbf28dd25	-0.6596244
18	0x3f2f4ee7	0.6847977
19	0xc180ef43	-16.116827
20	0xc06ceb46	-3.70186
21	0xc0e6d5a8	-7.213581
22	0xc081276a	-4.0360613
23	0x412a7aa5	10.6549425
24	0x400504ed	2.0784256
25	0xc0855742	-4.1669016
26	0x3f87b6d4	1.060267
27	0x3f90a380	1.1299896
28	0x40d40ad9	6.626324
29	0x3f410f2c	0.75413775
30	0xc0718452	-3.7737012
31	0xbf516854	-0.8179982
32	0xbf4aa725	-0.7916129
33	0xc0899b6c	-4.3002224
34	0xc02713c2	-2.610581
35	0xbf56015f	-0.8359584
36	0x3ea1e459	0.31619528
37	0xbcc0627c	-0.023484461
38	0xbf3ef854	-0.7459767
39	0xc184e47d	-16.611567
40	0xc05fd42a	-3.4973245
41	0x40d1cb44	6.5560627
42	0x40b3b55a	5.6158876
43	0xbfd0d248	-1.6314173
44	0x3b32e745	0.0027298492
45	0x3f6a15da	0.9143959
46	0xc08b5ee5	-4.355334
47	0x3f641188	0.8908925
48	0x3f17c76e	0.5928868
49	0xbf5c61e0	-0.86086845
50	0xbf079f13	-0.52977103
51	0xbf2d5ff5	-0.67724544
52	0x4085a4d4	4.1763706
53	0xbf1ebfa5	-0.62011176
54	0xc0136cea	-2.3035226
55	0x40d40b52	6.626382
56	0x3f40535e	0.7512721
57	0xc085d15d	-4.181807
58	0xc0331e12	-2.7987103
59	0x3de970c0	0.113984585
60	0xc0287147	-2.631914
61	0x40489995	3.134374
62	0x3f14399c	0.57900405
63	0x3ffdee6d	1.9838387
64	0x3ff5fe7c	1.9218287
65	0xc1156634	-9.337452
66	0xc0342304	-2.8146372
67	0xbed7feae	-0.42186493
68	0xbe2667d8	-0.16250551
69	0x40da7317	6.826549
70	0x40ca27a3	6.3173385
71	0xc10e1992	-8.881243
72	0xc19c27d7	-19.519453
73	0x40ea1bd5	7.3158975
74	0xbee1f64a	-0.44133216
75	0xbf2de63d	-0.6792944
76	0xc12c44b2	-10.766771
77	0xbf23dcb1	-0.64008623
78	0x407447e6	3.8168883
79	0x41674fff	14.45703
80	0xbd97d524	-0.074137
81	0x3fe16fba	1.7612221
82	0xc04a08a5	-3.1567776
83	0xbfdbc100	-1.7168274
84	0x3fb89546	1.4420555
85	0xbf54285a	-0.8287407
86	0x3fcc79d3	1.5974678
87	0xbff27e77	-1.8944844
88	0x3f87447a	1.0567772
89	0xbf59e1e7	-0.85110325
90	0xc0865fbb	-4.199186
91	0xbfb62a69	-1.4231693
92	0xbec03551	-0.37540677
93	0x40be6199	5.949414
94	0x405683f6	3.3518043
95	0xbfcd0bf4	-1.6019273
96	0xbf6b59c0	-0.9193382
97	0x3f92444a	1.142709
98	0xc0307770	-2.75729
99	0x3f2ec9e1	0.6827679
100	0xbe756dd0	-0.23967671
101	0x3f248987	0.6427235
102	0x3fa1a77f	1.2629241
103	0x3f8088e6	1.0041778
104	0x3e06b8d0	0.13156438
105	0x3f5a53b4	0.8528397
106	0x40c4b22b	6.146749
107	0xbea93ecb	-0.3305572
108	0xbf43d367	-0.7649445
109	0xc01e0a89	-2.469393
110	0xc033f37b	-2.8117359
111	0xbf4a2d5d	-0.7897547
112	0xc1137812	-9.216814
113	0x403641fb	2.8477771
114	0x3f7ab31b	0.97929543
115	0x40a87f26	5.265521
116	0x403f84b5	2.9924748
117	0x414e5471	12.895616
118	0x4150e348	13.055489
119	0xc14cc337	-12.79766
120	0xc1951031	-18.632906
121	0x4059e6cb	3.4047115
122	0x3fa55ed9	1.291957
123	0x3daacf0a	0.08340271
124	0xc1363920	-11.388947
125	0x3f6c600c	0.92334056
126	0xc059e93c	-3.4048605
127	0x40ba9200	5.8303223
128	0xbfe21269	-1.7661868
129	0xbfacdb21	-1.3504373
130	0xbf59345d	-0.84845525
131	0x400746fc	2.1137075
132	0xbe2c1419	-0.16804542
133	0x3fc1f0b8	1.5151587
134	0xc09d4ca7	-4.915607
135	0xc0b426bd	-5.629729
136	0x3edaa57d	0.42704383
137	0x3f550955	0.83217365
138	0xc0dabaa9	-6.8352857
139	0x4082e840	4.090851
140	0x3fcc63eb	1.5967993
141	0x409d9ecc	4.9256344
142	0xbf3de917	-0.7418379
143	0xbf8ec601	-1.1154176
144	0xbf9c3652	-1.2204077
145	0x3d1cb691	0.038260046
146	0xc0002b56	-2.002645
147	0x3fe06ddb	1.7533525
148	0xbf1b12f4	-0.60575795
149	0xbebe403c	-0.37158382
150	0xbfa65d4e	-1.2997224
151	0xc076506b	-3.8486583
152	0xbefe1edb	-0.49632916
153	0x401f2a4a	2.4869561
154	0x407b1f53	3.9237869
155	0x3ff333f7	1.9000233
156	0xbdb4221a	-0.08795567
157	0xbff95a74	-1.9480729
158	0xc04f23e8	-3.2365665
159	0xbe2e5691	-0.1702521
160	0x408e46d9	4.4461484
161	0xc0634bc1	-3.5514987
162	0x403f6ba5	2.990945
163	0xc019e8e5	-2.4048398
164	0x40012877	2.0180948
165	0xbfe63ecf	-1.7987918
166	0x3f590594	0.84774137
167	0xc11cf736	-9.810354
168	0xbf081617	-0.53158706
169	0xc09f371d	-4.9754777
170	0xc037f590	-2.874363
171	0x3fd5fb4f	1.6717318
172	0x403a8808	2.9145527
173	0xc0106c79	-2.2566206
174	0x3ffd0f24	1.9770246
175	0x3fa6967c	1.3014674
176	0xc0a616e0	-5.1902924
177	0x3fe0a486	1.7550209
178	0x3f3359c6	0.7005886
179	0xc1cc75a4	-25.557442
180	0x3e19b6b1	0.15011097
181	0xbf947bb3	-1.160025
182	0x4125d838	10.365288
183	0x40da9b38	6.8314476
184	0x40b9abd7	5.8022265
185	0x3d97d383	0.074133895
186	0xbfed44e6	-1.8536651
187	0xbf073717	-0.52818435
188	0xc0d5a53e	-6.676421
189	0xc066cb2e	-3.606151
190	0x40aeb451	5.4595113
191	0x40590cbb	3.391402
192	0x3f0b43da	0.5440041
193	0x3fa7b795	1.31029
194	0x408e8641	4.4538884
195	0xbf82b2d7	-1.0210828
196	0x3d1f161c	0.038839445
197	0xbf04e2e6	-0.5190872
198	0x40461ac9	3.0953848
199	0x4168aae9	14.541726
200	0x3f842ca8	1.0326128
201	0xc022a98b	-2.541598
202	0xbf360e59	-0.7111564
203	0x3f4e69b6	0.8063005
204	0x3ec01f2a	0.37523776
205	0xc01afd88	-2.4217243
206	0xbf0412f9	-0.5159145
207	0xbe90418b	-0.28175005
208	0x4011d6f8	2.2787457
209	0xbe15aa68	-0.14615786
210	0xc09ae84e	-4.8408575
211	0x3f9dcff3	1.2329086
212	0xc01f4720	-2.4887161
213	0xbf246611	-0.6421824
214	0xc09bb8a2	-4.866288
215	0xc11542ba	-9.328791
216	0xbe9846c4	-0.2974149
217	0x3e62759b	0.22115175
218	0x3f94c2ca	1.1621945
219	0xbf8cdaa9	-1.100423
220	0xbef14841	-0.47125438
221	0x40378bdd	2.8679116
222	0x3cb654d4	0.022257246
223	0x3fd94efe	1.6977232
224	0xc07d9daf	-3.9627492
225	0xbeb7d515	-0.35904756
226	0x3fe1b28f	1.7632617
227	0xc0c3b362	-6.1156473
228	0x41534813	13.205096
229	0xbeeeeb70	-0.46664
230	0xc06756bd	-3.614669
231	0xc03b2f1f	-2.924751
232	0x3ed7d565	0.42154995
233	0x3f8a6984	1.0813451
234	0xbe4345af	-0.19069551
235	0x40252a96	2.5807242
236	0xc07b400e	-3.9257846
237	0xc0023208	-2.0343037
238	0xbfa3180b	-1.2741712
239	0xc0bc6ee1	-5.888535
240	0xc088a761	-4.270432
241	0xbf0909cf	-0.5353059
242	0x3f00d67c	0.5032728
243	0x409c2693	4.879709
244	0x3d841d19	0.064508624
245	0x4087666c	4.2312527
246	0xc0cdcb8a	-6.431096
247	0x3f981b85	1.1883398
248	0x3fa47ed0	1.28512
249	0xc098e412	-4.7778406
250	0x3eed7413	0.4637762
251	0xc07d14bc	-3.9543905
252	0x40492bb7	3.1432931
253	0x4048aba2	3.1354756
254	0x3f1763c8	0.5913663
255	0xbf98d895	-1.1941096

submod2.bias f4 [20]
0	0x3ec77db5	0.38963094
1	0x403202d0	2.7814217
2	0x3faf7721	1.370823
3	0x3ed50923	0.41608533
4	0xbf4d871e	-0.802843
5	0xc00b6197	-2.1778314
6	0x3f0ac0ad	0.5420025
7	0xbfd767a0	-1.6828499
8	0xbed4d184	-0.41566098
9	0x3dd3c34b	0.103399836
10	0x3fe3927a	1.7779076
11	0x402d1862	2.7046132
12	0xc023d05a	-2.5595918
13	0x3fb40d51	1.4066564
14	0xbf6637b1	-0.8992873
15	0xbf22ce37	-0.6359591
16	0xbf06f6f6	-0.5272058
17	0xbf54c855	-0.8311818
18	0xbf99536b	-1.1978582
19	0x3da4ba41	0.080433376

conv3.weight f4 [32, 16, 3]
0	0x3d8f7fd6	0.07006805
1	0xbdf0f142	-0.11764766
2	0x3e2a1bdd	0.16612191
3	0xbeb13d0b	-0.34616885
4	0xbd63b220	-0.055589795
5	0xbe9957ee	-0.29949898
6	0xbf8b5cca	-1.0887692
7	0x3ef1c03e	0.47216982
8	0xbf5dc954	-0.8663533
9	0x3d7d9f5d	0.06191956
10	0xbdc01236	-0.093784735
11	0x3e97cf1c	0.296502
12	0x3ed41d7a	0.4142874
13	0xbf16f797	-0.5897154
14	0x3ea7e43b	0.32791314
15	0xbf217bc2	-0.63079464
16	0x3d5cae18	0.053876966
17	0xbf4a7a82	-0.7909318
18	0xbe91a74e	-0.28447956
19	0x3f400cfb	0.75019807
20	0xbf06aff6	-0.52612245
21	0x3f537d20	0.826128
22	0xbf850065	-1.0390745
23	0x3f7cb7b3	0.987178
24	0xbe31982a	-0.17343202
25	0xbe989d98	-0.29807734
26	0xbe571664	-0.21004635
27	0x3e16b7a1	0.14718486
28	0x3e315039	0.17315759
29	0xbd065940	-0.03279996
30	0xbe56d396	-0.20979151
31	0x3f65c003	0.8974611
32	0x3e7dc10c	0.24780673
33	0x3e1cdf96	0.15319666
34	0x3fb6fec2	1.4296496
35	0xbf7fa2fd	-0.99858075
36	0xbf001345	-0.500294
37	0x3d125bbe	0.035732023
38	0xbb5135e6	-0.0031922995
39	0x3efc5ebb	0.49291024
40	0xbef7a4be	-0.48367876
41	0x3f1e8d54	0.619344
42	0x3dd052ac	0.101720184
43	0xbf2fcffe	-0.68676746
44	0xbe12d240	-0.14338017
45	0x3e887968	0.26655126
46	0x3e4c215a	0.19934598
47	0x3f1fb4a9	0.6238504
48	0xbec9a233	-0.3938156
49	0x3ebb527d	0.3658637
50	0xbe97c436	-0.29641885
51	0xbe47b268	-0.1950165
52	0xbef19db8	-0.47190642
53	0xbee2f464	-0.4432708
54	0xbe61cb72	-0.22050264
55	0xbe2423df	-0.16029309
56	0x3d9b3378	0.07578176
57	0xbf7ca7f6	-0.9869379
58	0xbf42c84d	-0.76086885
59	0x3ec3b034	0.3822037
60	0xbd9bb4c9	-0.076028414
61	0x3ed47763	0.41497335
62	0x3e5b1a3f	0.21396731
63	0xbeaace4a	-0.3336051
64	0xbec7452c	-0.3891996
65	0xbe8cfc9a	-0.2753647
66	0x3e40cbcf	0.18827747
67	0x3ee7bff0	0.45263624
68	0x3f3bd2f2	0.7336875
69	0x3f55511d	0.83326894
70	0x3fd0af79	1.630355
71	0xbc21aaa0	-0.00986734
72	0x3dc0dc92	0.094170704
73	0xbe305eba	-0.17223635
74	0xbe60a3ad	-0.21937437
75	0x3de1887d	0.11012361
76	0xbe8cb202	-0.2747956
77	0x3de99a12	0.1140634
78	0x3e4d63b8	0.20057571
79	0xbf51eda2	-0.82003224
80	0xbf0de614	-0.55429196
81	0x3fb3c89a	1.4045594
82	0xbf6dfdb7	-0.92965263
83	0x3e8817ae	0.26580566
84	0x3d80d001	0.062896736
85	0xbf0c5742	-0.54820645
86	0xbd0dfd28	-0.034665257
87	0x3f0c094f	0.54701704
88	0x3d1eb385	0.038745422
89	0xbe249234	-0.16071397
90	0x3eb1ef14	0.34752715
91	0x3e078d75	0.13237555
92	0x3e4806b3	0.19533806
93	0xbe469bb9	-0.19395341
94	0x3f581346	0.8440441
95	0x3ecc4cd1	0.39902356
96	0xbeead425	-0.45864978
97	0xbd93011d	-0.07177947
98	0xbe45fee0	-0.19335508
99	0x3eeba1a0	0.46021748
100	0x3f87739d	1.0582157
101	0xbf04d3c5	-0.51885635
102	0xbddc128f	-0.10745727
103	0xbf0291e4	-0.5100386
104	0xbe1c54d1	-0.1526673
105	0xbd1fb778	-0.03899333
106	0xbe24585d	-0.16049333
107	0x3cb70961	0.02234334
108	0x3d31e76b	0.043433588
109	0xbe42411e	-0.18970153
110	0xbe2c03af	-0.1679828
111	0x3e9cccb9	0.3062494
112	0xbdb4b91b	-0.088243686
113	0x3dd23d37	0.10265582
114	0x3e7391d9	0.23786105
115	0x3e6d0c6d	0.23149271
116	0xbdb7bcb7	-0.089715414
117	0x3f11323a	0.56717265
118	0x3eee73c8	0.4657271
119	0xbee5eb68	-0.44906163
120	0x3d943253	0.07236161
121	0x3e251d67	0.16124497
122	0x3d92daa5	0.071706094
123	0xbbb200ad	-0.0054322095
124	0xbde07422	-0.109596506
125	0xbd5dc878	-0.05414626
126	0xbe053689	-0.13009085
127	0x3ef2819a	0.47364503
128	0x3f003e26	0.5009483
129	0xbfc306b0	-1.5236416
130	0x3e02305f	0.12713765
131	0x40179dcf	2.3690069
132	0xbe2f51f6	-0.1712111
133	0xbdd99473	-0.106240176
134	0xbe4c74d7	-0.19966446
135	0xbfa560bc	-1.2920146
136	0x3f78c5cd	0.9717682
137	0x3e10583d	0.1409616
138	0x3fc6f1bd	1.5542523
139	0xbef26d46	-0.47348994
140	0xbecbcdbc	-0.398054
141	0x3e720698	0.23635328
142	0xbe848d77	-0.2588918
143	0xbf0b6d40	-0.5446358
144	0xbe4c6c1c	-0.19963115
145	0x3e079869	0.13241734
146	0x3f2a63cc	0.6655853
147	0xbf533730	-0.82506084
148	0x3f71ca46	0.9444927
149	0x3e9f9999	0.31171873
150	0x3eca3560	0.39493847
151	0x3e3bedbf	0.18352412
152	0x3db39fd5	0.0877072
153	0x3eabb913	0.33539638
154	0xbd0e38dd	-0.034722198
155	0xbf19e244	-0.6011088
156	0xbd57bb26	-0.052668713
157	0x3d7a8e87	0.06117108
158	0x3e0c3318	0.13691366
159	0xbe642a8c	-0.22281855
160	0x3e93069a	0.28715974
161	0x3e91caf0	0.28475142
162	0x3ef42f65	0.4769241
163	0x3e710351	0.23536421
164	0xbe602e15	-0.21892579
165	0x3f277ab5	0.6542161
166	0x3ef13d74	0.47117198
167	0xbf85d75b	-1.0456346
168	0xbcf06fda	-0.02935021
169	0x3b9f0b22	0.004853622
170	0xbd4d6f78	-0.050155133
171	0xbf2b0794	-0.6680844
172	0xbe9f7235	-0.3114182
173	0xbe81b01a	-0.25329667
174	0xbc477af3	-0.0121753095
175	0x3daec43f	0.08533525
176	0xbeb16720	-0.3464899
177	0x3f507faf	0.8144483
178	0xbf3866fd	-0.7203215
179	0xbf5433e0	-0.82891655
180	0x3e0f8a6e	0.1401765
181	0xbd8be92b	-0.06831583
182	0x3d0919d6	0.033471905
183	0x3f56f8a1	0.8397313
184	0x3f168776	0.58800447
185	0x3f00bfc9	0.5029264
186	0xbdedda7a	-0.11613937
187	0x3f013951	0.5047808
188	0x3f54df72	0.8315345
189	0xbf0d6073	-0.55225295
190	0xbe6c7960	-0.23093176
191	0xbdec053d	-0.115244366
192	0x3ea0e7d6	0.31426877
193	0xbeb303b3	-0.3496376
194	0x3f6e1e21	0.93014723
195	0xbf44b22c	-0.7683437
196	0x3eaab490	0.33340883
197	0xbe711d0a	-0.23546234
198	0xbea8a5f1	-0.32939103
199	0xbc19b153	-0.009380656
200	0xbf2d99cf	-0.6781282
201	0xbe992787	-0.2991297
202	0x3eb4ee74	0.35338175
203	0xbebfc832	-0.37457424
204	0x3f206981	0.62660986
205	0xbeb5fe81	-0.35545734
206	0xbb1a341b	-0.0023529592
207	0x3f22dc48	0.6361737
208	0xbf11d163	-0.56960124
209	0x3f3f71de	0.7478312
210	0x3ed9b62f	0.42521808
211	0x3f708329	0.93950135
212	0xbeade2ce	-0.339621
213	0xbd4be7a2	-0.04978145
214	0xbdbafff2	-0.09130849
215	0xbedba594	-0.42899764
216	0xbdf2cf24	-0.11855915
217	0x3e0ac6c5	0.13552387
218	0xbee4da70	-0.44697905
219	0xbe1972a5	-0.1498514
220	0xbebf304c	-0.37341535
221	0xbee62fe2	-0.44958407
222	0xbeada501	-0.3391495
223	0x3e950d8d	0.291119
224	0xbdb22c00	-0.086997986
225	0x3c1ee370	0.00969778
226	0xbf3ff284	-0.74979424
227	0xbe196e7a	-0.1498355
228	0xbe4d5803	-0.20053105
229	0xbea4f692	-0.32219368
230	0xbd7d9cf2	-0.061917253
231	0x3ec14a1f	0.37751862
232	0xbf2fd87f	-0.6868972
233	0x3f2714b1	0.6526595
234	0x3f44a0a0	0.76807594
235	0x3def7e62	0.116940275
236	0x3f2e7049	0.68140084
237	0xbce0993a	-0.027416814
238	0xbe21786f	-0.15768598
239	0xbe48f819	-0.19625892
240	0xbf7f94df	-0.99836534
241	0xbdd459f2	-0.10368718
242	0xbe865137	-0.26233837
243	0xbe2b7ede	-0.16747615
244	0x3dd6818f	0.1047393
245	0x3d7cff40	0.061766863
246	0x3f6c1ee9	0.92234665
247	0x3f31a1c0	0.69387436
248	0x3f0c9de4	0.5492842
249	0xbe7073b8	-0.23481643
250	0xbdcb593f	-0.09929132
251	0xbeef023f	-0.466814
252	0xbe1f380c	-0.15548724
253	0xbe52e1c2	-0.20593932
254	0x3e9462dd	0.28981677
255	0xbf170afc	-0.59001136

conv3.bias f4 [32]
0	0x3d95ba9a	0.07310982
1	0xbef9948d	-0.48746148
2	0xbe4a25c4	-0.19740969
3	0xbee8dd8d	-0.4548153
4	0x3d0fd1e1	0.035112265
5	0xbf60b313	-0.87773246
6	0x3e947d01	0.2900162
7	0x3cfd933f	0.030954001
8	0xbd784825	-0.060615677
9	0xbe62db59	-0.22153987
10	0xbf09a74a	-0.5377089
11	0xbf00e72c	-0.5035274
12	0xbe818f92	-0.25304848
13	0xbeacc72c	-0.33745706
14	0x3a8cdfc0	0.0010747835
15	0x3f42ff78	0.76171064
16	0x3ec9f6ae	0.39446014
17	0xbed9509f	-0.42444322
18	0x3e3d87cf	0.18508838
19	0xbe90c168	-0.28272557
20	0xbf164f58	-0.5871482
21	0xbe4933ec	-0.19648713
22	0x3d3a5f65	0.04550113
23	0xbe26bc80	-0.16282845
24	0xbeb846c9	-0.35991505
25	0x3e1bb11a	0.15204278
26	0x3ecb2a00	0.3968048
27	0xbe98d494	-0.29849684
28	0x3d824b4b	0.06362017
29	0x3e1beff8	0.1522826
30	0xbd6ea29b	-0.05826054
31	0xbf26e0ef	-0.6518697

bn3.weight f4 [32]
0	0x4091b762	4.5536356
1	0x40b91d13	5.784799
2	0x40c14bab	6.040487
3	0x40fca127	7.894672
4	0x40bba63f	5.8640437
5	0x40ce0bc7	6.4389377
6	0x409c4302	4.8831797
7	0x4112ee36	9.183157
8	0x40a16c33	5.044458
9	0x40b163a8	5.543415
10	0x40c5c169	6.1798596
11	0x409b5765	4.8544183
12	0x40f69c27	7.7065616
13	0x41035560	8.2083435
14	0x40f80415	7.7504983
15	0x405c21ae	3.4395556
16	0x40b2fe08	5.5935097
17	0x40f295be	7.580779
18	0x40b7a9f3	5.7394958
19	0x4111005c	9.062588
20	0x40ef5c8c	7.480047
21	0x4111565d	9.083585
22	0x409bc8f4	4.8682804
23	0x40eda2d4	7.4261265
24	0x40f77a49	7.7336774
25	0x40bca1f8	5.8947716
26	0x4112b21f	9.168487
27	0x407967ea	3.8969674
28	0x4122ec4e	10.182692
29	0x40b4e103	5.6524673
30	0x409b86ab	4.860189
31	0x40a3fc11	5.12452

bn3.bias f4 [32]
0	0xc0068af2	-2.1022305
1	0xc0201ee9	-2.5018866
2	0xbf9059f7	-1.1277455
3	0xc0928cfd	-4.5797105
4	0xbf8ed9f2	-1.1160262
5	0xc0e6b660	-7.2097626
6	0xbfa9142b	-1.320928
7	0xc0b79406	-5.7368193
8	0xbf1287f6	-0.5723871
9	0xbecaddac	-0.39622247
10	0xbfb3c345	-1.4043967
11	0xc0493742	-3.1439977
12	0xc09cf769	-4.9052014
13	0xc0a9bce6	-5.304309
14	0xc08ace17	-4.3376575
15	0xbfa8ab44	-1.3177266
16	0xbf8543b7	-1.041129
17	0xc0ac12e4	-5.377306
18	0xbf5f7f9a	-0.8730408
19	0xc0c0d95b	-6.0265326
20	0xc0becdc9	-5.9626203
21	0xc082e7ba	-4.090787
22	0xbfce0c4b	-1.6097502
23	0xbfdf7fe3	-1.7460903
24	0xc06aa7a7	-3.6664827
25	0xbfb1dab0	-1.3894863
26	0xc0c3721a	-6.1076784
27	0xc02ced5f	-2.701988
28	0xc0e17434	-7.045435
29	0xbf2b7b2a	-0.6698481
30	0x3eba58a6	0.36395758
31	0xc03f3cf6	-2.9880958

bn3.running_mean f4 [32]
0	0xbf5492f9	-0.8303676
1	0xc036f01d	-2.8584054
2	0x405d086f	3.4536397
3	0x4065b777	3.5893228
4	0xc09f300d	-4.9746156
5	0x3feb2821	1.8371621
6	0xbfeed99a	-1.8660157
7	0xc12fa891	-10.978654
8	0x411d61f1	9.836411
9	0x40e2745a	7.076703
10	0xc05a9df2	-3.4158902
11	0x41715a61	15.084565
12	0x4014795f	2.319908
13	0xc0a11669	-5.0339856
14	0x3fc734e4	1.5563016
15	0xc031d95c	-2.7788916
16	0x3ff39d19	1.9032317
17	0xc116574f	-9.396316
18	0x4083d5c3	4.119844
19	0x41080889	8.502084
20	0xc0b96a2a	-5.7942095
21	0x3e415240	0.18879032
22	0xc08c19f7	-4.3781695
23	0xbedd06ed	-0.43169346
24	0xc02b0223	-2.6720054
25	0xbeb92616	-0.3616187
26	0xc09e030e	-4.937873
27	0xbe454045	-0.19262798
28	0xc0efc35e	-7.4925985
29	0x416bd4b6	14.739431
30	0xc0198836	-2.3989387
31	0x4115abe0	9.354462

bn3.running_var f4 [32]
0	0x42b8fcec	92.49399
1	0x42d23e2d	105.12144
2	0x42fafa0d	125.48838
3	0x43051610	133.08618
4	0x42fce508	126.44733
5	0x4301772b	129.4655
6	0x43252454	165.1419
7	0x43435cd9	195.36269
8	0x42df0130	111.50232
9	0x42f24d68	121.151184
10	0x42d54cc2	106.64992
11	0x4234696e	45.10296
12	0x43330b40	179.04395
13	0x432d1d46	173.11435
14	0x4322841d	162.51607
15	0x4280f338	64.47504
16	0x43357cb0	181.48706
17	0x42cde340	102.94385
18	0x4310294e	144.16135
19	0x42e798e1	115.79859
20	0x43058df3	133.55449
21	0x42a8c96f	84.393425
22	0x42d3d8c0	105.92334
23	0x42ea6b83	117.209984
24	0x430d1466	141.07968
25	0x4314296e	148.16183
26	0x42fe105a	127.03194
27	0x4278263f	62.03735
28	0x431e41ef	158.25755
29	0x43843c37	264.47043
30	0x43444a2f	196.28978
31	0x4303bada	131.72989

submod3.weight f4 [20, 32, 1]
0	0xbf0c26d1	-0.5474673
1	0xc08c6560	-4.387375
2	0xc05b08b4	-3.4224062
3	0xbfa06b77	-1.2532796
4	0x3fbe7b93	1.4881462
5	0xbf7f6727	-0.99766773
6	0xbfec99fc	-1.8484492
7	0x4088915e	4.267745
8	0x3fa4a975	1.2864214
9	0xbfa25e04	-1.2684941
10	0x402d7ee8	2.7108707
11	0x3f022d6d	0.50850564
12	0xbf1b8a33	-0.6075775
13	0xc12d03e4	-10.81345
14	0xc0603d6d	-3.5037491
15	0x3f05b250	0.5222521
16	0xc050b32b	-3.2609355
17	0x3ed7394f	0.4203591
18	0x3f7d60b7	0.989757
19	0xc00db85d	-2.2143776
20	0x40d0b0ea	6.521596
21	0x40954bdb	4.6655097
22	0xbf9a3d2d	-1.2049919
23	0x3faf5579	1.3697959
24	0xc0b89df7	-5.769283
25	0xbe6a399e	-0.22873542
26	0xc0e4810c	-7.140753
27	0x400c476b	2.191859
28	0x40817bed	4.0463777
29	0xbec0b3f8	-0.37637305
30	0x3f4d7277	0.80252784
31	0xc0850f88	-4.158146
32	0x40896190	4.2931595
33	0xbfe9ddd4	-1.8270822
34	0x3f14141d	0.5784319
35	0x3fcd566a	1.6041996
36	0x40039345	2.0558636
37	0x4050fa9c	3.265296
38	0xbe9d997a	-0.30781156
39	0xc00bbbff	-2.1833494
40	0xbd61a662	-0.055090316
41	0x3ff6250c	1.9230056
42	0xc041359d	-3.0188973
43	0xbf459974	-0.77187276
44	0x409e347d	4.9439073
45	0x3f7c63e3	0.98589915
46	0x402b42c5	2.6759503
47	0xc0036aa1	-2.053383
48	0x3e710c2e	0.23539802
49	0x40032c3b	2.0495746
50	0xc02bc5f1	-2.6839564
51	0x3f9e4cad	1.236715
52	0xc0a1d234	-5.0569096
53	0xc13a4807	-11.642585
54	0x405e11c4	3.4698343
55	0xbd56f50f	-0.0524798
56	0xc05ddf50	-3.466755
57	0xbfe3c39e	-1.7794073
58	0x4030bdb1	2.7615778
59	0xbedcf476	-0.4315526
60	0xc0b882fd	-5.76599
61	0xbf02db45	-0.5111583
62	0x3fbbdf71	1.4677564
63	0xc065c857	-3.5903528
64	0x3feb48a4	1.8381543
65	0xc08a517c	-4.322447
66	0x3f4071f5	0.75173885
67	0xbfd1929e	-1.6372869
68	0xc04d400c	-3.207034
69	0xc0b6de25	-5.7146173
70	0xbfb83856	-1.4392192
71	0xbe8f01f0	-0.27931166
72	0xbf54bc60	-0.8309994
73	0x3fcf795f	1.6208915
74	0x3fb599a3	1.4187511
75	0xc0cbc234	-6.3674564
76	0x403fa350	2.9943428
77	0xc0ead0e8	-7.3380013
78	0x406201ca	3.5313592
79	0x3ff2f264	1.8980222
80	0x4004ce1a	2.0750794
81	0x4069c865	3.652856
82	0xbf314b9d	-0.69256
83	0xc06e22a8	-3.7208652
84	0xbedf22c2	-0.43581206
85	0x3f2693c0	0.650692
86	0xc08b741d	-4.357924
87	0xbf76e8d9	-0.9644905
88	0x40896a5e	4.2942343
89	0x40500f83	3.2509468
90	0xbeea7a16	-0.4579627
91	0xc0ce610c	-6.4493465
92	0x40ed3520	7.412735
93	0xbfa5f151	-1.2964269
94	0xbfe20718	-1.7658415
95	0x3e216fec	0.15765351
96	0xbe957858	-0.29193377
97	0x4011338d	2.2687714
98	0xc02805d0	-2.6253548
99	0x408df10a	4.4356737
100	0x3f8a214e	1.0791414
101	0xc05afe86	-3.4217849
102	0x3f7f3e51	0.9970446
103	0xc0fe72e2	-7.951524
104	0x3fd4f8b9	1.6638404
105	0xbf281653	-0.65659064
106	0xc008401e	-2.1289134
107	0x3edc1bfa	0.42990094
108	0xc0ad2f66	-5.412036
109	0x3f8192ae	1.0122888
110	0xbfdba238	-1.715888
111	0x3edc4e55	0.43028513
112	0x3f847ff3	1.0351547
113	0xbec555b0	-0.38541937
114	0xbce017ba	-0.027355064
115	0x40901bef	4.50341
116	0x3fbd7bac	1.4803367
117	0xbefd40d5	-0.49463525
118	0x3f1be41b	0.60894936
119	0x3e89b730	0.26897573
120	0xbe282eaa	-0.16424051
121	0xbf96dffb	-1.1787103
122	0xc0b52119	-5.6602902
123	0xbf44d5ed	-0.76888925
124	0x3f18e2be	0.5972098
125	0xbe8690c1	-0.26282313
126	0x3eae2e7d	0.34019843
127	0xbff11276	-1.8833759
128	0x409dc190	4.929878
129	0x40d3a745	6.6141686
130	0xc01f9e56	-2.494039
131	0x4001e2d7	2.0294702
132	0x3fcfcccd	1.6234375
133	0xbfccc3fd	-1.5997311
134	0x3ec73b89	0.3891261
135	0x3e9baf31	0.30407098
136	0x3e933f56	0.2875926
137	0xbf527a03	-0.82217425
138	0x400fb96d	2.2456925
139	0xc12e6935	-10.900685
140	0x3fac949e	1.3482854
141	0xc10cbac5	-8.795598
142	0xc10c125c	-8.754482
143	0x3fd4bea2	1.6620677
144	0x3c348063	0.011016938
145	0xbf915313	-1.1353477
146	0x3f9ed57e	1.2408903
147	0xc089baba	-4.304044
148	0xc1073b94	-8.452045
149	0x409482e6	4.640979
150	0xc087c9fd	-4.243407
151	0x3f0b61fd	0.54446393
152	0xbfcd44ab	-1.6036581
153	0x3d4bf6d0	0.049795926
154	0xc12d38ab	-10.826335
155	0xc1619f8c	-14.101452
156	0x4093a0ec	4.613394
157	0x3f9948c9	1.1975337
158	0xbfbd0367	-1.4766663
159	0x40532e0e	3.299686
160	0x4017fa26	2.3746428
161	0xc003e07b	-2.0605762
162	0x3d3204dd	0.04346167
163	0x40b566fb	5.668821
164	0xbf9fff0e	-1.2499712
165	0xc09e7776	-4.9520826
166	0x3fc924b2	1.5714324
167	0x40dd68d7	6.919048
168	0xbf494651	-0.7862292
169	0xc0b76b51	-5.73185
170	0xc055d96e	-3.3413959
171	0x3f7c390a	0.98524535
172	0xc0172cc2	-2.3621068
173	0xbf23c10e	-0.63966453
174	0x3e65fe1b	0.22460215
175	0x3f636160	0.8882046
176	0x40342c4a	2.8152032
177	0xc0a50777	-5.157161
178	0x401da88c	2.4634123
179	0x4082a72e	4.0829077
180	0x3f24afbf	0.6433067
181	0xc0492e87	-3.1434648
182	0xc08799f9	-4.2375455
183	0x40565172	3.348721
184	0x3f80ed36	1.0072391
185	0x3c49fe7c	0.01232874
186	0xc0b1f4ac	-5.561117
187	0x3ed9bca1	0.42526725
188	0x3e6ebbc4	0.23313814
189	0x4010afdd	2.2607338
190	0xbebc988c	-0.36835134
191	0xc0405183	-3.004975
192	0xc0031d0b	-2.0486476
193	0x3fe56915	1.7922693
194	0x3f276e55	0.6540273
195	0xc17f53a8	-15.957924
196	0xbfeb3a0e	-1.8377092
197	0xc0266f28	-2.6005344
198	0xbf5d0c83	-0.86347216
199	0xbe3330e2	-0.17499116
200	0xc0a3d1b8	-5.1193504
201	0x40239913	2.556218
202	0xbee19ecf	-0.44066474
203	0xbe8d06c8	-0.27544236
204	0x3e9c6c54	0.30551398
205	0x405c57dc	3.4428625
206	0x4020105d	2.5009987
207	0x3f8c83d0	1.0977726
208	0x3f8e71a0	1.1128426
209	0xc0096938	-2.147047
210	0xbf1ed336	-0.6204103
211	0xc009f528	-2.1555882
212	0xbe7bf8cb	-0.24606626
213	0x3f863848	1.0485926
214	0x40326e8f	2.787998
215	0xbfe3e794	-1.7805047
216	0x40894237	4.289333
217	0x406ea4b5	3.728803
218	0xbe48d6fe	-0.19613263
219	0x3da814fa	0.08207126
220	0xc2021e24	-32.529434
221	0xbed1c3de	-0.40969747
222	0xbecf43ad	-0.4048132
223	0x4018bb3e	2.3864284
224	0xc022d31d	-2.5441353
225	0x3edd2c2d	0.43197766
226	0xc06bd0e6	-3.6846251
227	0xbfd2e83c	-1.6477122
228	0xc06fd61a	-3.7474427
229	0xc0ab7f3b	-5.359281
230	0xbfb9d66d	-1.4518563
231	0x400408dc	2.0630407
232	0xbf745aa5	-0.9545081
233	0x3fdab1cc	1.7085509
234	0x3ef6b7ba	0.48187047
235	0xc107d4b2	-8.489428
236	0x4079624e	3.896625
237	0xc14dcfff	-12.86328
238	0xc088cef3	-4.2752624
239	0xc096212f	-4.6915507
240	0xbe5959ea	-0.21225706
241	0x409ed88d	4.9639344
242	0x400edefa	2.2323594
243	0x406da467	3.7131593
244	0xc0bd765d	-5.9206986
245	0x40644369	3.5666144
246	0x40e32e68	7.099415
247	0xbea04136	-0.31299752
248	0xbec5c972	-0.38630253
249	0x3fc90118	1.5703459
250	0xbfb70a59	-1.4300033
251	0x3ffe2641	1.9855424
252	0x40ad006c	5.4063015
253	0xc00a7abb	-2.1637409
254	0x3de0332c	0.1094726
255	0x40db597a	6.8546724

submod3.bias f4 [20]
0	0x400ffd04	2.2498178
1	0xbf0b1eac	-0.54343677
2	0xbfa2eac8	-1.27279
3	0x3fcdb34c	1.6070342
4	0x3e74399e	0.23850104
5	0xbe7201fd	-0.23633571
6	0x3f91dbfc	1.1395259
7	0xc0316162	-2.7715688
8	0x3c90d625	0.017680237
9	0x3e7eab65	0.2487007
10	0x3f2099db	0.62734765
11	0x3f3162c0	0.69291306
12	0xbfd87eb6	-1.6913669
13	0x3fa8d38b	1.3189558
14	0x3ecb7c8e	0.39743465
15	0x3f2bfc4f	0.6718187
16	0xbf870dd7	-1.0551099
17	0x3f14c32c	0.5811031
18	0xbf925efc	-1.1435237
19	0xbfd2fd55	-1.6483561

conv4.weight f4 [32, 32, 3]
0	0xbf4f29a0	-0.8092289
1	0x3d00489f	0.031319257
2	0xbe902703	-0.28154764
3	0x3eab65e9	0.3347619
4	0xbcd42760	-0.025897682
5	0x3d912d4c	0.07088718
6	0xbf2d0228	-0.67581415
7	0xbe95d71b	-0.29265675
8	0x3e8106db	0.25200543
9	0xbdb575dc	-0.088603705
10	0x3eb017f4	0.34393275
11	0xbe825f2d	-0.25463238
12	0xbf4d62e4	-0.8022902
13	0xbe8c1983	-0.27363214
14	0x3ec62a6b	0.38704237
15	0x3e0e9572	0.13924196
16	0xbf8e4c21	-1.1116983
17	0x3f213415	0.62970096
18	0x3eedabc9	0.46420124
19	0x3ee4858b	0.44633135
20	0x3ee98886	0.45611972
21	0x3c0edc34	0.008719493
22	0xbe0de2d5	-0.13856061
23	0x3ea4583c	0.32098567
24	0x3dc4f7cb	0.09617575
25	0x3e0a1139	0.13483132
26	0xbe4a0197	-0.19727169
27	0xbcbc3de4	-0.02297873
28	0xbe9432ec	-0.289451
29	0x3e142041	0.14465429
30	0xbe0d3b9b	-0.13792269
31	0x3f29672d	0.6617306
32	0x3d32386e	0.043510847
33	0x3e77f4df	0.24214505
34	0x3dd517f1	0.10404957
35	0xbea30893	-0.3184248
36	0xbf144700	-0.5792084
37	0xbe895611	-0.26823476
38	0x3ecc2d05	0.39878097
39	0x3ddf875d	0.1091449
40	0xbe64d294	-0.22345954
41	0x3f06b06a	0.52612936
42	0x3ef6cf64	0.482051
43	0x3f1928b4	0.59827733
44	0xbc9938ae	-0.018703785
45	0xbd5a3928	-0.053277165
46	0xbe94e2a1	-0.29079154
47	0xbe6dfe0b	-0.23241441
48	0x3f86de12	1.053652
49	0x3e690cdd	0.22758813
50	0xbe3f1343	-0.18659692
51	0xbed7e45f	-0.4216642
52	0x3be1cc3d	0.006890802
53	0x3e94d3c6	0.2906782
54	0x3db60300	0.08887291
55	0xbeaf2b4d	-0.34212723
56	0x3e88a334	0.26687014
57	0xbef1e5b7	-0.4724557
58	0xbf130304	-0.57426476
59	0xbdd050d2	-0.10171665
60	0x3f241de7	0.6410813
61	0x3cbcef47	0.023063315
62	0x3f089fa5	0.533686
63	0x3d39a039	0.045318816
64	0x3e026938	0.1273545
65	0x3e1aa3b1	0.15101506
66	0xbe81b270	-0.2533145
67	0xbf220348	-0.63286257
68	0xbf407c99	-0.7519012
69	0x3ed8b60c	0.4232639
70	0xbf5c6d4a	-0.8610426
71	0xbf15523e	-0.58328617
72	0xbd09493c	-0.033517107
73	0xbe64f811	-0.22360255
74	0x3ebb8b3c	0.36629665
75	0xbe8bbeeb	-0.27294096
76	0x3f3261db	0.69680566
77	0x3f57ddb5	0.84322673
78	0xbd87852e	-0.06617199
79	0x3e2cd24c	0.16877097
80	0xbe320c00	-0.1738739
81	0x3ebceb73	0.36898383
82	0xbf072525	-0.52791053
83	0xbeb57056	-0.35437268
84	0xbe29c80a	-0.16580215
85	0x3efc11f8	0.4923246
86	0xbee1675b	-0.44024166
87	0x3f2458ce	0.64198005
88	0x3fb379ed	1.4021584
89	0xbf898e28	-1.0746508
90	0x3f0b7941	0.54481894
91	0xbf8cc8a0	-1.0998726
92	0xbe89b24f	-0.2689385
93	0x3e7ee5e3	0.24892382
94	0x3e5e2a25	0.21695764
95	0xbe5c16da	-0.21493092
96	0xbea60dd3	-0.32432422
97	0x3d40aa5c	0.047037467
98	0xbdf0a4be	-0.11750172
99	0x3f409f8a	0.7524344
100	0xbe4d93f0	-0.20075965
101	0x3e8ffba0	0.28121662
102	0xbec9887a	-0.39361936
103	0x3f5098b3	0.81483
104	0x3edf27a0	0.4358492
105	0xbe2ae407	-0.16688548
106	0xbf1f63e2	-0.62261784
107	0x3da2ad84	0.07943252
108	0xbd7ee36e	-0.062228613
109	0xbe57f322	-0.21088842
110	0x3e69aa85	0.22818954
111	0xbe00dbb0	-0.12583804
112	0x3f840fd2	1.0317328
113	0x3e554fb2	0.20831183
114	0x3f292cdc	0.66084075
115	0xbe3abb9a	-0.18235627
116	0xbf5bbea1	-0.8583775
117	0x3ee0e491	0.43924382
118	0xbdb606d8	-0.08888024
119	0x3f1961e7	0.5991501
120	0xbf5bedac	-0.85909534
121	0xbe2deb88	-0.1698438
122	0xbecd4749	-0.4009345
123	0xbd8aa894	-0.06770435
124	0xbe384c4c	-0.17997855
125	0xbe7f8c9d	-0.24955983
126	0xbf0a3f43	-0.5400278
127	0xbd08b113	-0.033371996
128	0x3e62d92e	0.2215316
129	0x3ead1c5b	0.33810696
130	0x3de04138	0.109499395
131	0xbd3878b3	-0.045036983
132	0x3de44cd2	0.11147465
133	0x3ea5eaec	0.32405794
134	0x3dddb7ff	0.1082611
135	0x3f787eff	0.9706878
136	0x3f2b7ddb	0.66988915
137	0xbeef9ac0	-0.46797752
138	0x3cdf9b47	0.027295722
139	0x3ef7c8f3	0.483955
140	0x3dc5f539	0.09665913
141	0xbf152850	-0.58264637
142	0xbe4b181b	-0.19833414
143	0xbf201ccd	-0.62543947
144	0x3f4f22c6	0.80912435
145	0x3f40a554	0.7525227
146	0xbec6238a	-0.3869899
147	0x3e166287	0.14686023
148	0xbf06b7f2	-0.5262443
149	0xbe394380	-0.18092155
150	0x3e558ddc	0.20854896
151	0x3e3f75cd	0.18697281
152	0xbfa717b5	-1.305411
153	0x3d950f51	0.07278312
154	0xbead1b23	-0.33809766
155	0xbe6dbede	-0.23217341
156	0x3db70312	0.089361325
157	0xbf1fff1a	-0.6249863
158	0x3eb74083	0.35791406
159	0x3d9b032d	0.07568965
160	0xbe84d269	-0.2594178
161	0xbc0822de	-0.008309094
162	0x3eab04d4	0.3340212
163	0xbe0a6e1e	-0.13518569
164	0x3d4594d5	0.04823764
165	0xbf0503ec	-0.5195911
166	0x3db99a64	0.09062651
167	0x3f320e9b	0.69553536
168	0x3ec38a1d	0.3819131
169	0xbdc1ce71	-0.09463204
170	0xbc587e43	-0.013213697
171	0x3dbc3b8a	0.09191044
172	0x3cf0e52f	0.029406158
173	0xbeee60e0	-0.46558285
174	0x3cef218d	0.029190803
175	0x3e19058a	0.14943519
176	0xbd9551fd	-0.07291029
177	0x3e9721cb	0.2951797
178	0xbeae328b	-0.34022936
179	0xbe5dcdac	-0.21660489
180	0xbf92fda1	-1.1483651
181	0xbf8ea994	-1.1145501
182	0x3e716a02	0.23575595
183	0xbef15ddc	-0.47141922
184	0x3f34e1ab	0.7065684
185	0x3f407566	0.75179136
186	0x3e349e02	0.176384
187	0xbd60044d	-0.0546916
188	0x3f33f12d	0.7028988
189	0x3debe13c	0.115175694
190	0x3e887483	0.2665139
191	0xbdc28928	-0.09498817
192	0xbf28bc93	-0.6591274
193	0xbecbb0e6	-0.397834
194	0xbe11fff1	-0.1425779
195	0xbea03e00	-0.31297302
196	0xbc17cbeb	-0.009264926
197	0xbec4175f	-0.3829908
198	0x3f25cb80	0.6476364
199	0x3ebfe8f8	0.3748243
200	0xbc373e1d	-0.011184243
201	0xbe9a7f8d	-0.3017544
202	0xbe7c0c7b	-0.24614136
203	0x3b9868c2	0.00465116
204	0xbe8fdd90	-0.28098726
205	0xbeb1d704	-0.34734356
206	0xbd4c9e85	-0.049955864
207	0xbc4c8918	-0.012483858
208	0x3ea56c7d	0.32309332
209	0x3f4b7402	0.7947389
210	0x3f36356e	0.7117528
211	0x3f23f627	0.64047474
212	0x3e76daf0	0.24106956
213	0x3ecd4a95	0.40095964
214	0x3df72131	0.12066878
215	0x3aa66b70	0.0012696814
216	0xbf26e6a3	-0.65195674
217	0xbf2aaf7e	-0.6667403
218	0x3e133ff5	0.14379866
219	0xbf82f86d	-1.0232064
220	0x3ec1ae86	0.37828463
221	0x3ed0d0f3	0.40784416
222	0xbf117e83	-0.56833667
223	0xbebd0137	-0.3691499
224	0x3eb25f6b	0.34838423
225	0xbf179cbb	-0.59223527
226	0x3e66aee3	0.22527651
227	0x3e62f548	0.2216388
228	0xbf7a45b6	-0.9776262
229	0xbe3272be	-0.17426583
230	0x3ebdf608	0.3710177
231	0x3e2168a1	0.15762569
232	0xbe52a859	-0.20572032
233	0xbddb337f	-0.107031815
234	0xbbd181a2	-0.0063936273
235	0x3eca2f7a	0.39489347
236	0xbe14f112	-0.14545086
237	0x3da1a241	0.078922756
238	0xbd95c034	-0.073120505
239	0xbea29c00	-0.31759644
240	0x3eaf46e1	0.34233764
241	0xbf6f2777	-0.93419594
242	0x3dba2071	0.09088219
243	0x3ed53370	0.41640806
244	0xbd2b082e	-0.041755848
245	0xbe7adc16	-0.24498019
246	0x3ead2b59	0.33822134
247	0x3e2ff36d	0.17182703
248	0x3d9fb124	0.07797459
249	0x3e8b18c5	0.27167335
250	0xbe448978	-0.19193065
251	0xbed44d00	-0.41464996
252	0x3ed0ca2f	0.40779254
253	0xbc9de3c8	-0.019273654
254	0xbead681f	-0.338685
255	0x3eff50a2	0.49866205
