networks/pretrained_models/ustc-tfc2016/NiN_CNN1D_TrafficClassification_with_auxiliary_best_model.pth (torch, 305178 bytes, 126 tensors)

conv1.weight f4 [16, 1, 2]
00000000: 65c2 3dbf 5f61 3e3f ff8b 6d3f ba9f 763e
00000010: 7def 083e 8a46 a1bf ea53 2c3f 53f2 b33e
00000020: 519f 19be 0b71 a63f e535 99be 5572 2b3f
00000030: f295 b0bf b281 bfbd ce03 7c3e 58b1 e4bf
00000040: f0c8 a03f 5551 39be 6897 bf3e 8c1d 8b3e
00000050: 0091 ae3e b34c 333f 78cf f53e aa98 ba3e
00000060: fa64 a2be 782c bdbe 5acb 1b3e 34d8 a9bf
00000070: 5f4c fa3e c130 19bf 9bd0 043f 5940 06bf
-0.7412475 0.74367326 0.9279174 0.24084368 0.13372608 -1.2599652 0.6731554 0.35145816
-0.1500218 1.3003248 -0.2992393 0.6697133 -1.379576 -0.09350909 0.24610826 -1.7866621
1.2561321 -0.18097432 0.374202 0.2717098 0.34095 0.7003891 0.4800985 0.36444598
-0.31717664 -0.3694799 0.15214291 -1.3269105 0.48886392 -0.5984002 0.51880807 -0.52441937

conv1.bias f4 [16]
00000000: 513e fe3c 6aee 46bf ff12 aebe de7b aebd
00000010: a929 5a3f be3d 31bf 4559 f5be 02cf 1f3e
00000020: dfab 89bf b42c 62bf 1b26 53be 53d7 71bf
00000030: 78de 32bf 8bc0 03bf 2a0c 02bf 2096 123f
0.031035574 -0.7770754 -0.33998868 -0.085197195 0.8521982 -0.69234836 -0.4791967 0.15606311
-1.0755576 -0.8834946 -0.20620005 -0.94469184 -0.6987071 -0.5146567 -0.5079981 0.5726032

bn1.weight f4 [16]
00000000: 0918 9c3f b734 293f e7b8 b23f 5b0a 1a3f
00000010: cc76 0c3f a377 3c3f bbfa f73f 1e34 353f
00000020: 2f52 2f3f dd82 5b3f a5f1 e33e 1706 083f
00000030: 0c1a 3c3f d899 ac3f 6fc4 4e3f 1232 543f
1.2194835 0.6609606 1.3962678 0.6017205 0.5486877 0.7362005 1.9373392 0.7078265
0.6848478 0.85746557 0.44520298 0.5313429 0.73477244 1.3484449 0.80768484 0.828889

bn1.bias f4 [16]
00000000: e8cf e8bc cfec 8b3e 58da d8be 372b 663e
00000010: 7ab3 cabd a100 debd 7241 42be 7541 be3d
00000020: b975 ddbe 25ed 28bf 15aa 31bd f02d 72be
00000030: 749e 4e3e 7fc8 21be fa75 06bd 9cb4 093d
-0.02841945 0.27329108 -0.42354083 0.22477423 -0.09897514 -0.10839964 -0.18970278 0.09289829
-0.43253878 -0.65986854 -0.043375093 -0.23650336 0.20177633 -0.1579914 -0.032827355 0.03361951

bn1.running_mean f4 [16]
00000000: 7e9f fe3c 7db4 23bf f470 f1be 4892 113d
00000010: ec59 7c3f 0170 26bf c8fa 26bf 062a cfbc
00000020: 610b 73bf 829f 4ebf 924b aebd 4d42 58bf
00000030: 8a8e 47bf ed0d 27bf d32c 05bf 5b7b 123f
0.031081911 -0.6394728 -0.4715649 0.035539895 0.9857471 -0.65014654 -0.6522641 -0.025288593
-0.9493924 -0.8071214 -0.08510508 -0.84476167 -0.7795187 -0.65255624 -0.5202152 0.57219476

bn1.running_var f4 [16]
00000000: da73 a63c 34bd a03d 87f7 b03d 020d 6d3d
00000010: 3142 ba3d bfee 823c 5a3e 083e 859c 2a3e
00000020: 30d4 a73d 8e11 ba3c 435b 753d ffdb 1e3d
00000030: 6867 d13c 7b0f c23d 8518 3d3c 0650 243c
0.020318914 0.07848588 0.08640962 0.057873733 0.09094656 0.015982984 0.13305035 0.1666127
0.081947684 0.022713449 0.059901487 0.038784023 0.025562003 0.09475609 0.01154149 0.010028845

conv2.weight f4 [16, 16, 1]
00000000: b09b 30bd f960 4cbe ec44 6c3e de96 753e
00000010: 6f51 a73e 66d4 733e d2b8 ddbe 6bd2 a7bd
00000020: faeb dc3e 6390 74bd f970 f33e 694e ab3e
00000030: b3e8 933e 4572 b53e 6c0c 0bbe b89c 4b3e
00000040: 4199 06be 44e7 7fbe 26b8 363e 6c88 5e3e
00000050: b351 413d 39fb f83b 540d a9bd 3032 483e
00000060: 5a8e 73be ec6c 723e 0a11 493c b80f 8dbd
00000070: 96b0 57be 9a48 39be 0029 6cbe 1c47 d9bd
00000080: ab4a 03c0 5c0a 85be e15a 24bf ceae 3ebd
00000090: 3e30 6dbf 649b 8ebf 27fd 073d 8551 aabd
000000a0: 7bd7 df3d c2aa 3ebe 573d 8f3e 1d9f 5d3e
000000b0: 0c2a fc3d e431 2ebf 172a 5abe cb13 0cbe
000000c0: 1594 10bc f15d 3f3e d051 263e 972d 02be
000000d0: 5d60 fb3d 4bdc 083e a167 7fbf 3e35 c3bd
000000e0: fa4e 44be 1b20 afbe 5cca 1f3e 80ce fabd
000000f0: 17d3 acbe 9472 84be 4183 edbc 6168 5ebe
00000100: 5530 61be 10db 823d b038 2a3d 3db7 493e
00000110: 9e59 e4bd 91c8 19bd a8be 633e fc26 43be
00000120: a405 91be 671e 65bd f701 923d 0be4 2cbe
00000130: c06e acbb 5e54 6dbe 2ed1 77be 779a 133e
00000140: ed5d 0f3e 20d7 963e b3f0 dbbd 6b87 eebe
00000150: c62d b1bf 7c9e c7bf 0413 433f 6bbc 663e
00000160: 1b41 98bd f542 10be fc62 aabe 630d b03c
00000170: 822a d43e ab23 da3d b22b f0bf 808d bcbf
00000180: e7a3 6fbd c299 bebd 7662 87bf 7ed3 a03e
00000190: f19d 43be 265d b63d 5f88 5b3f 1db8 b3be
000001a0: 8126 98bd a9f8 683c 813b 003e 2212 913e
000001b0: 435a 4d3e 213e b4be a4a4 ef3c 56fb eebe
000001c0: ccd7 b03e 21ec 6abf 7065 28be 3477 2dbf
000001d0: e905 07bd 8e3b 723e 9417 3b3f ef46 e0bd
000001e0: c531 cf3d 8382 a7bf 1527 9abd d9c8 1fbe
000001f0: 62d5 ecbd 8b56 da3d f141 8c3e 3d0e f53d
00000200: 3e4e c03e 3c98 d13d 42a3 8cbf 935b 5fbd
00000210: 4d86 a5bd 5366 25bd a6ca bf3e ec25 a8be
00000220: f189 ec3e 4001 e0be 10b5 383e c3e4 0d3e
00000230: a142 513e e756 20bf fd68 f73d a23a 2f3e
00000240: 4280 63bf f472 aa3d e973 df3e b7d8 593e
00000250: fdb9 0c3e a46e a33e 9978 c5bd 3cad aabe
00000260: 1018 b8bd 4d51 4bbd a6f8 173d f425 a4bd
00000270: 21da d33c b87b 97be d1f4 9a3e fce6 debe
00000280: abb8 efbe 73c2 62bd 0442 053f 15f5 f63d
00000290: fadc 1c3e 6456 603d db60 73bf 6eec 303f
000002a0: 032a 843d a4a4 273b a5be c73d 02a3 00be
000002b0: 4944 bdbf 70ea f93e 5c13 d93d 7c38 833e
000002c0: a3b1 463e 6f22 d4bd c971 e73e f6ee e7bd
000002d0: 264b 4c3e 31f2 2f3e 8578 9d3d a7bd 263f
000002e0: f8be 69be 0fad 193e 1d35 913e 784b 123e
000002f0: d864 853e 2621 263f 50ab 083e e809 7d3e
00000300: 3219 0d3f daaf febe 0f47 17bd 95f5 f5be
00000310: 622f 36be eb80 b4bd 51ae 7a3d 9f97 59bd
00000320: f560 8c3e 8752 d5be 097f d6be 1ad7 97be
00000330: 2395 803e 3c3d eabd c0b5 d73e 12b9 4f3e
00000340: 6639 85be 92d8 8c3d 558e 53bf 32eb 233e
00000350: eb3f 0f3e ab59 d93e ed6d 0e3e ba7e 293e
00000360: d9d6 023e b381 d33d 5823 863e b025 1f3e
00000370: 8232 4bbe c949 b63d 3fde fe3e dd53 b3be
00000380: c44b 94bd d086 9cbc 3c61 85bd 3055 843d
00000390: 48c5 2cbe 68d6 9b3d ced6 50be 6013 cfbd
000003a0: 9475 96bd cc20 d5bd 3883 65be f067 a23d
000003b0: 94e9 843d a0a6 323c 1086 ecbd d665 77be
000003c0: 920b 61bc ad54 4cbd 723b d63f 4d22 1dbe
000003d0: 6bc6 7dbe d6d2 1bc0 674d 26be f55d e3be
000003e0: 76e9 7f3e 057e a83e ad5a ad3e 2090 dc3e
000003f0: 6a5d abbf 00b0 7e3e 15d3 1bbd 6cf2 d53d
-0.043117225 -0.19958867 0.23073167 0.23983333 0.32679316 0.23811492 -0.4330507 -0.08194431
0.43148786 -0.05970801 0.4754713 0.3345826 0.28888473 0.35438743 -0.13578957 0.19884002
-0.13144399 -0.24990565 0.17843685 0.21731728 0.047197055 0.0075983074 -0.08254495 0.19550395
-0.23784772 0.23674363 0.012272129 -0.06887764 -0.21063456 -0.18094102 -0.23062515 -0.10609266
-2.0514324 -0.25984466 -0.6420117 -0.046553425 -0.92651737 -1.1141171 0.03320041 -0.0831633
0.109297715 -0.18619826 0.27976486 0.21642728 0.12312707 -0.6804488 -0.21305119 -0.13679425
-0.008824368 0.1868818 0.16242146 -0.12712704 0.12274239 0.13365285 -0.997675 -0.095316395
-0.19170752 -0.34204182 0.15604538 -0.12246418 -0.337548 -0.25868666 -0.02899325 -0.21719505
-0.21991093 0.06389439 0.041557968 0.19698806 -0.111499056 -0.03754479 0.22240698 -0.1905784
-0.28324616 -0.055937197 0.07129281 -0.16883866 -0.005262226 -0.23176715 -0.2420089 0.14414392
0.14000674 0.29461002 -0.10739269 -0.4658769 -1.3842094 -1.559524 0.7620089 0.22532813
-0.07434293 -0.14088042 -0.33278644 0.021490758 0.4143868 0.106513344 -1.8763335 -1.4730682
-0.05850592 -0.09306671 -1.0576923 0.31411356 -0.19103219 0.089044854 0.8575496 -0.35101405
-0.07429219 0.014219441 0.12522699 0.28334147 0.20053963 -0.3520365 0.029253311 -0.4667613
0.3453964 -0.91766554 -0.16444945 -0.67760015 -0.03296462 0.23655531 0.7308285 -0.109510295
0.10116915 -1.3086704 -0.075269856 -0.15603961 -0.11564137 0.10661038 0.2739406 0.11965606
0.37559694 0.102341145 -1.0987322 -0.05453069 -0.080822565 -0.040380787 0.37459296 -0.32841432
0.4619899 -0.43750954 0.1803782 0.13856797 0.20435573 -0.626326 0.12080572 0.1711221
-0.8886758 0.08322707 0.4364312 0.21274076 0.13742824 0.3192035 -0.09642143 -0.33335292
-0.089889646 -0.04963808 0.037102364 -0.080150515 0.025860848 -0.29586577 0.30264905 -0.43535602
-0.46820578 -0.055361222 0.52053857 0.120584644 0.15318671 0.05476989 -0.95069665 0.69110763
0.064533256 0.0025580311 0.097531594 -0.12562183 -1.4786464 0.48811674 0.10599396 0.25629032
0.194037 -0.1035813 0.45204 -0.11324875 0.19950542 0.17182232 0.07689003 0.65133137
-0.22826755 0.15007423 0.28360835 0.14286602 0.260535 0.6489433 0.133466 0.2471081
0.5511657 -0.4974354 -0.036933 -0.48038927 -0.17791513 -0.08813652 0.061201397 -0.053123113
0.27417722 -0.41664526 -0.41893795 -0.29656297 0.25113782 -0.11437461 0.42130852 0.20285442
-0.26020354 0.06877245 -0.82639056 0.16007689 0.13989227 0.42451224 0.13909121 0.16552249
0.1277727 0.103274725 0.2619884 0.1554172 -0.19843486 0.08900792 0.49778935 -0.3502492
-0.07241014 -0.019107252 -0.065126866 0.06461561 -0.16872132 0.07609254 -0.20394441 -0.10111117
-0.07346645 -0.10406646 -0.22413337 0.07929981 0.06489864 0.010903984 -0.11549008 -0.24159941
-0.013735669 -0.04988544 1.6736891 -0.15345116 -0.24782722 -2.4347434 -0.16240464 -0.4440762
0.24991402 0.32908645 0.33858243 0.4307871 -1.3387883 0.24871826 -0.0380431 0.10446629

conv2.bias f4 [16]
00000000: 21ae fd3e bc83 3abe 785a 653f b79a 3c3f
00000010: 7165 76be 1d00 8dbd 004b 0e3f afec bbbe
00000020: 8523 613f 257d 1a3f 6a38 b8be 1c5e cf3e
00000030: f7e1 6b3e 00ae 71bf 4eb0 4abe f71d c1be
0.49546912 -0.18214315 0.8959117 0.73673576 -0.24062134 -0.06884787 0.5558319 -0.36704013
0.87944824 0.60347205 -0.3598054 0.40501487 0.23035417 -0.9440613 -0.19793817 -0.37718174

conv3.weight f4 [16, 16, 1]
00000000: 48c6 c6be f8fd 553e e974 1c3c 6f8e 913e
00000010: d785 6abe fac1 00be 229e a1be 9645 ae3e
00000020: 1eca f1be 6b9d 1abe 42ce a7bf d408 28be
00000030: 7464 403e f492 4d3f a8a3 99bd 2346 bc3f
00000040: 8425 073e dd39 8f3d f85b 35bf 57aa 27be
00000050: 8e2c 55be 8c1b 9bbe 622c e83e 2259 1c3e
00000060: e00f c0be 2fe9 bf3e e36e 15bb 53eb 8cbd
00000070: aded 643e ae68 18bf 74e7 3bbe 00f7 1b3f
00000080: ec59 c2bd 7c82 0e3d f5fd f5be 9b6b 4dbe
00000090: 727f d9bd a412 7ebe c38a bebe 73ff 173f
000000a0: 11ca 02bf 701f 5f3d b14f 59be d7e4 b93e
000000b0: ac80 803e fb14 a4bd 645e 12be 8a4a 7bbe
000000c0: 13a1 143e da2f 8cbc 410c 6e3d 2748 d83e
000000d0: 520d 2ebe e466 b53b 6759 fdbe c530 763f
000000e0: 3650 91be e26d 1abf 1d21 2fbe ec31 94be
000000f0: 917d 9ebe a571 453e 78c1 7c3d 14f6 46be
00000100: 5445 423e 0d44 5f3e 636a a43e e1fe ac3e
00000110: dc34 fbbd e3e1 9a3f 0592 1c3e fcfe e23e
00000120: b5f6 d83d a580 363c 560b 9c3e f511 59be
00000130: 24bb 8cbe b8b9 97be 24cc 253e 179a fcbd
00000140: c8d1 9dbe 8267 48be 732f 0fbf d4c5 9abc
00000150: 6b13 a13d 4185 35bf 4fa9 cfbe c0e6 b3be
00000160: 79eb 70be 47c2 17be e512 a73e 4c94 d23d
00000170: a5e1 053f a9a3 f13e 90b6 a0bd fcd5 b0be
00000180: 84ad a63d 90b2 0b3d 3316 733f c020 11be
00000190: b4ec b9bd 3a88 a7be b74f bb3e 07cf ab3d
000001a0: 8b81 1ebe 95e9 493e e7fb 81be f4fb fd3e
000001b0: 3ce5 28bd 6f88 323f c4fa d03d 907a 8d3d
000001c0: 250e dabc 2405 82be 7feb cfbe 2eca 2cbd
000001d0: 7fa9 0abe 57fd 57be cae4 00bf 28d5 52be
000001e0: d134 ab3e 4088 0ebe 0e56 a0be a4e1 a13e
000001f0: 8591 c0bd ac5c 153e 043b 093e c59c 98bf
00000200: 5aa5 013f dae3 f7bd 4cb0 e23e 84b6 01bf
00000210: 911c 86bd 6324 b8bd cf24 0f3e aec8 36bf
00000220: f527 433e 1c76 a3be b08e ee3e ba2a e4bd
00000230: 779e 75be b0fc b73d 1cec 6f3e ad47 73be
00000240: c50b 55be 781f 74ba 3fb9 47bf 5036 8bbe
00000250: f493 d63d b295 f43e 1b9f cf3e 4847 fcbe
00000260: 9781 ac3d 8450 16be d4ff e23d 466a 39bd
00000270: debe 9cbc d725 b7bd 6c57 39be 0d70 923c
00000280: 4b2c ae3e 3c10 07bd f9cf 1e3f 8970 9d3e
00000290: 26f4 20be 4dcd 223e 342c 1abe 921e 81be
000002a0: f677 f93d b836 9c3e 9f39 93be 1fa7 313e
000002b0: d35a 653f 4c6e c4be ea91 03be c3ff 8e3e
000002c0: 4bf7 a33d 84a8 313e fbd6 acbe cbf4 313d
000002d0: 7dba d83d 14d9 8d3e b0e4 dfbe e8d1 70bf
000002e0: 4f41 ef3e 72df 943d c81a 8c3e 3b9c dfbd
000002f0: 6113 143f 761d 5fbe b6b4 6a3e 24c4 babe
00000300: a104 e93d bd45 d73d 8543 ef3b 468e b03e
00000310: 1ebe 10be faf0 bb3f 8680 debe 36c9 b13e
00000320: 34ad 2cbe 521e 923e a2cd 16bd f557 6a3e
00000330: a8a1 b7be 3100 51be 28d3 f93d 5a23 a5bc
00000340: 50a7 9a3e 969c 4dbe dd44 913f 5e87 16be
00000350: 4dba a3bd cdb4 e8bd d497 cebd 8199 edbd
00000360: 1ee1 b23e 07ed 783e 0a10 923d 5862 533e
00000370: ba57 1c3d cff1 a4bd 8c7f d6bd 167f f7bd
00000380: 2fdd d6bd 08e6 50be da6c 4ebe f06f 79be
00000390: e780 51be 9f6a 9abe 6194 ee3e fb21 1f40
000003a0: f3eb 5f3e d2a9 05bd 8b56 ba3d 9dc6 82bd
000003b0: 8648 453e a019 a7bd 620a 5f3e 5c9e 14bd
000003c0: 8c76 9dbe a35f 563d 20ea ffbe fa4e 0d3f
000003d0: b5bf 003e 691e 093f 0995 3c3e e476 9fbe
000003e0: 5e8a f83d 8bed 6a3e c634 b33e ff55 92be
000003f0: 3a5d a53e 4500 cd3e 003d 6d3b efa8 e83d
-0.38823152 0.20897663 0.009549358 0.2842898 -0.22902618 -0.12573996 -0.31565958 0.34037465
-0.47224516 -0.15099113 -1.310982 -0.16409618 0.1878832 0.8030236 -0.07501918 1.4708904
0.13197905 0.069934584 -0.7084346 -0.16373573 -0.20817778 -0.30294454 0.4534636 0.15268376
-0.37512112 0.37482592 -0.002280169 -0.06880822 0.22356291 -0.5953473 -0.18350011 0.6092377
-0.094898075 0.03479241 -0.48045316 -0.2006058 -0.106200114 -0.24811798 -0.37215242 0.5937416
-0.5108958 0.05447334 -0.21221806 0.36307403 0.2509817 -0.08011814 -0.1429382 -0.24540153
0.1451457 -0.017112661 0.058117155 0.42242548 -0.16997269 0.005535947 -0.4948227 0.96168166
-0.2838151 -0.6032392 -0.17102475 -0.28944337 -0.30955175 0.19281633 0.061707944 -0.19429809
0.18971759 0.21803303 0.32112417 0.33788207 -0.122659415 1.2100185 0.15290077 0.44335163
0.10593931 0.01113907 0.304774 -0.21198256 -0.27486527 -0.2963388 0.16191155 -0.12334078
-0.30824113 -0.19570735 -0.55931777 -0.01889316 0.07865032 -0.70906454 -0.4055886 -0.35136986
-0.23527326 -0.14820205 0.32631603 0.10282192 0.5229743 0.47195175 -0.07847321 -0.34538257
0.08138564 0.034105837 0.9495575 -0.1417265 -0.09078351 -0.3272112 0.36584255 0.08389097
-0.15479104 0.1971801 -0.253875 0.49606287 -0.04123424 0.6973943 0.1020408 0.069081426
-0.026618073 -0.25394547 -0.40609357 -0.042185 -0.1354122 -0.21092735 -0.50349104 -0.20589125
0.33438733 -0.13919163 -0.31315655 0.31617463 -0.09402756 0.14586133 0.13401419 -1.1922842
0.5064293 -0.12104006 0.4427513 -0.5066912 -0.06548417 -0.08991315 0.13978885 -0.7139996
0.19058211 -0.31926048 0.46593237 -0.11140962 -0.23986231 0.08983743 0.23429912 -0.23757811
-0.20805271 -0.00093125505 -0.7801704 -0.27189875 0.104774386 0.47770458 0.40551075 -0.49273133
0.08423155 -0.14679152 0.110839516 -0.045267366 -0.019133981 -0.08942764 -0.18099755 0.017875696
0.34018168 -0.032974467 0.6203609 0.3074992 -0.15718135 0.15898629 -0.15055925 -0.25218636
0.12181084 0.30510497 -0.287549 0.17348908 0.8959171 -0.383654 -0.1284863 0.27929506
0.08006152 0.1734944 -0.33757767 0.043446343 0.10582445 0.2770468 -0.43729162 -0.9407029
0.46729514 0.07269181 0.27364182 -0.109184705 0.5784207 -0.21788582 0.22920498 -0.36477768
0.11377836 0.105113484 0.00730175 0.34483546 -0.14135024 1.4682915 -0.4345743 0.34723824
-0.16862947 0.28538758 -0.0368172 0.22885115 -0.3586552 -0.2041023 0.12198478 -0.020158459
0.30205774 -0.20079264 1.134914 -0.14700076 -0.079945184 -0.1136261 -0.10087553 -0.11601544
0.34937376 0.24309169 0.071319655 0.20642984 0.0381696 -0.08053934 -0.104735464 -0.120847866
-0.10491406 -0.2040025 -0.20158711 -0.24359107 -0.20459329 -0.3015947 0.4659758 2.486449
0.21867351 -0.032632656 0.09098538 -0.06385539 0.19265947 -0.081591845 0.21781304 -0.036283836
-0.30754507 0.0523373 -0.4998331 0.55198634 0.1257313 0.5356203 0.18416227 -0.31145394
0.121357664 0.22942178 0.350012 -0.28581235 0.3229769 0.40039268 0.003619969 0.113603465

conv3.bias f4 [16]
00000000: 28bc 54be 32f0 a4be 3a6d 1b3e 1c26 b23d
00000010: 8849 f63d a36c 613f 8928 573e 0788 123e
00000020: 0cbe 1a3d 4840 6e3d 9cc2 d3be 5b69 383e
00000030: ef44 d93e a045 b0be d9d7 e7bd 0283 5a3e
-0.20774901 -0.32214504 0.15178385 0.08698675 0.12025744 0.8805639 0.21011557 0.14309703
0.0377789 0.058166772 -0.41359413 0.1800894 0.42435405 -0.3442812 -0.113204665 0.21339038

bn2.weight f4 [16]
00000000: e0ce 6440 e58f 9f40 559b 6740 1bb2 ac40
00000010: 9b90 7f40 6896 7e40 9c66 3240 b638 7240
00000020: 1eff 9040 c997 8440 64b5 b340 5508 4b40
00000030: 768f 8540 ecb8 b040 fd9f e940 e0b9 8840
3.5751266 4.9863153 3.6188557 5.3967414 3.993201 3.97793 2.7875128 3.7847114
4.531142 4.1435285 5.6158924 3.1723835 4.1737623 5.5225735 7.30078 4.27269

bn2.bias f4 [16]
00000000: a3f3 7d3f 5b18 9bbe 0a87 c13e 05d7 ad3d
00000010: b7a6 8f3e 955c 88bf e580 d03e eadd 3f3f
00000020: 98b0 2c3f 082d 20bf 8d81 8cbf f6a0 bebd
00000030: de60 333f dd92 ebbe 1774 28c0 cfe0 46ba
0.99199885 -0.3029202 0.3779834 0.08488277 0.2805688 -1.0653254 0.4072334 0.7494799
0.6745696 -0.6256871 -1.0977036 -0.093080446 0.7006968 -0.46010485 -2.6320856 -0.00075865997

bn2.running_mean f4 [16]
00000000: 0442 abbf d0b0 06bf 5c9f d3be f506 76bf
00000010: 8430 723f 4451 64be 39e3 aa3f 130b 6ebb
00000020: 0182 d63e b48e 06bb 7032 4e3f 8fd7 a73e
00000030: 87e3 913f 495c 5c3f f150 5c3e 0245 4f3e
-1.3379521 -0.52613544 -0.4133252 -0.96104366 0.9460528 -0.22296625 1.3350593 -0.0036322519
0.4189606 -0.0020531835 0.8054571 0.32781646 1.1397561 0.86078316 0.21515252 0.20241168

bn2.running_var f4 [16]
00000000: 27e7 da3d 4045 e03c 8807 6e3d d1fa 9e3c
00000010: ff04 1a3d 7124 f23c 8c45 a83d 9c00 973d
00000020: ef69 023e 38e6 df3c d903 023d df68 7e3d
00000030: 5807 e33d 7d36 f83c 8d14 713d ea7f 3a3c
0.1068862 0.027376771 0.05811265 0.019406708 0.03760242 0.029558392 0.0821639 0.07373163
0.12735723 0.027331457 0.03174195 0.06211173 0.11085385 0.03029942 0.05885749 0.011383036

submod1.weight f4 [20, 16, 1]
00000000: 332c 1c3f be03 babf b1f0 e3bf e257 f83d
00000010: 6b19 c93e cf05 053e 564e 33bf d8ed 913f
00000020: 3298 033f 6de2 ee3f 0f83 953f 5142 0f40
00000030: 73e8 8f3c 472b b1bf 4fd3 82c0 99fa 783f
00000040: 7b86 bbbd 50e2 80be de4c 573f 716a 703f
00000050: db51 13bc 3ffc 4d40 5e1e 03be e621 80bf
00000060: 5c8b c33f d9f6 8abf 5dc0 88c1 1fee c2bd
00000070: 9d6f b93e d87f 78bf d14f de3f 8f20 003e
00000080: 8e3d f83d 112d d7c0 7bfd c03f 0e86 9f40
00000090: 8ccb 04bf d82a 3640 f1f0 01bf 407e 5d3f
000000a0: 071e ae3f 8240 44bd 19e0 4bc0 248f 3f40
000000b0: 5004 dabe 517f 36c0 a4f3 3e40 aed0 92c0
000000c0: b764 55ba 4ea8 803e 6aba 54bf 99df 543d
000000d0: cddd fa3d 30a3 acbe 32e6 1b3f 458f 183e
000000e0: 16c6 0cbc a8ee d53e 2e49 b5bf e8f7 9fbf
000000f0: 596f f83d 7bed 9e3e bd70 da3f b8db 273f
00000100: b61a 97bc 6bff 84c0 f393 04bd 2e02 e13f
00000110: d74b 743e 50ab 0740 3224 98be 1ae7 df3f
00000120: d524 43c0 c528 b43e 5eb0 0441 9215 2141
00000130: 06ee 683e 51d7 30c1 32ee 35c0 4f1b 5ebe
00000140: 69ea a8be 5b17 483f 0ed2 d43f b9ca d5be
00000150: 399c b6be b717 183f f840 fbbb 218f 69bf
00000160: 9150 e8be dedb 7e3f 2140 3d3f ef27 573d
00000170: 5b79 7fbf 7765 8f3e 9b4a 363f b5e9 a53e
00000180: 783c a93d aa1d b2be aa30 3ebe 2f11 303f
00000190: 857b 6d3e 3a53 fdbe 7dd2 8cbe ffd7 b63d
000001a0: 5d5a f43e 297b 403e 71c1 873e e4b5 5e3f
000001b0: 140d 8a3d ebad cdbe ea62 2d3f 0e7b bcbf
000001c0: f976 d4be 5e29 0b3f fa83 a93c 26b1 5cc0
000001d0: b1cf f43e 8c78 2840 7835 47bf de6c bd40
000001e0: 193f 6cc1 d045 1d3f 6e86 3741 b7db 9f40
000001f0: 4bd7 8f3e 5c9f 1f3f ab95 b1c0 2fb2 053f
00000200: 4e73 22c0 f638 b43f 20f7 18bf edc9 05bf
00000210: 9694 273f 9dc5 45c0 2820 13c0 b654 8e3f
00000220: 1581 703f 89f1 be3f ef0c 7c3f 1f2c 11bf
00000230: 8513 9c3f 5c5b 503f 001f 543e 3d5d bbbf
00000240: f906 0f3e d1ca 0cbe 383b 3ebf b0da be3e
00000250: 00f2 c13e ec0b 8dbf de79 933e 1876 7c3e
00000260: 963c fabe bd84 8cbe 5d19 e43e 537d 6a3f
00000270: 7190 b23e 8366 dbbe 29d8 e73e 6d92 363f
00000280: 8133 f43d 1424 843f 06c7 913f edeb c43e
00000290: 88ec d6be 26f5 1cbf da3e 64bd 88a5 18bd
000002a0: a4f4 78be 091c 39bf f075 30c0 5d4c a0bf
000002b0: 723b 343d 3079 613f b263 da3f 8b9e 02be
000002c0: 3220 2b3f 02bb 913d 2d9d 883e 6f4c 3abf
000002d0: 4d90 c7bd 2e75 0041 6466 92be 61fc 7dc0
000002e0: 9640 dec0 7153 8abe cf70 e340 578d 6d3f
000002f0: c2d5 75bd 6418 7dbe 61db 05c2 6585 ef3f
00000300: 5489 2b3f 0a93 6b3e 9723 31be 69a5 5c3e
00000310: 91cd 80be 89f0 b13e f1ee 8e3f 2665 28bf
00000320: 9bf4 04bf 9e56 9ebe d98c bc3d 17cd 35bf
00000330: 230c f8be 68f8 333f 5ec9 ac3e 35c0 f83e
00000340: ddc7 b33f e134 ecbf 8421 ecbf 3f17 583f
00000350: aa93 13bf e6ff ae3f 0022 9a3f 7872 05bf
00000360: 2f5d 163f 3181 88c0 af23 1abf c0f7 cd3e
00000370: 3726 bd3f 4365 a93d 6092 6e3f bc34 6e3d
00000380: f378 82be 415e f4c0 13a2 a9be a285 53bd
00000390: 83f5 053f 7625 92c0 a975 e6bf 6ff9 4cc1
000003a0: a6fc b7bf 0024 9d3f 8f9e 1fc1 4814 3ac1
000003b0: b6ac 263e 81d6 ffc0 65d4 1e41 6a04 3441
000003c0: dbfd 2abf e241 4b3f 2c77 83bf 6819 9abe
000003d0: a337 0a3e 09d3 b6c0 7e73 4640 1ba8 2740
000003e0: ab96 963f 6213 fabe cb84 a3be f593 35c0
000003f0: a941 d43c afd5 3240 9cfe cbc0 9e2e c5bf
0.6100494 -1.4532392 -1.7807828 0.12126137 0.39277205 0.12990497 -0.70041406 1.1400709
0.51404107 1.866285 1.1680621 2.2384226 0.017566895 -1.3841332 -4.0882945 0.9725738
-0.091565095 -0.25172663 0.84101665 0.93912417 -0.008991684 3.2185209 -0.12804553 -1.0010345
1.5276904 -1.0856582 -17.093927 -0.09518074 0.36217967 -0.97070074 1.7368108 0.1251242
0.121211156 -6.7242513 1.5077356 4.985114 -0.5187309 2.846365 -0.5075827 0.8652077
1.3602914 -0.047913082 -3.1855528 2.9931116 -0.42581415 -2.8515208 2.9836206 -4.5879736
-0.0008140313 0.25128406 -0.83096945 0.05197105 0.122493364 -0.33718252 0.60898125 0.14898403
-0.008592149 0.41783643 -1.4162958 -1.249753 0.12130613 0.31040558 1.7065655 0.6556964
-0.018445354 -4.156179 -0.032367658 1.757879 0.23857056 2.119831 -0.29715115 1.7492402
-3.049123 0.35187355 8.293058 10.067766 0.22747049 -11.0525675 -2.8426633 -0.21690105
-0.3299134 0.7816064 1.6626604 -0.41756228 -0.35666063 0.59411186 -0.007667657 -0.9123402
-0.45373967 0.9955424 0.7392598 0.052528318 -0.9979455 0.280071 0.7120759 0.32404867
0.082634866 -0.34788257 -0.18573251 0.6877622 0.2319165 -0.4947756 -0.2750434 0.08927917
0.47725192 0.18796982 0.26514772 0.86996293 0.06740776 -0.4017175 0.67729056 -1.4725053
-0.4149702 0.54359996 0.020692814 -3.4483123 0.47814706 2.6323576 -0.7781596 5.9195395
-14.765405 0.6143465 11.47032 4.9955707 0.28093943 0.6235254 -5.54952 0.5222501
-2.5382876 1.4079883 -0.5975208 -0.5226124 0.654611 -3.0901864 -2.2988377 1.1119602
0.93946964 1.4917461 0.98457235 -0.5670795 1.2193457 0.81389403 0.2071495 -1.4637829
0.13967504 -0.13749243 -0.7430911 0.3727622 0.37879944 -1.1019263 0.28803915 0.24654424
-0.48874348 -0.2744502 0.445506 0.9159748 0.34875825 -0.42851648 0.45282105 0.7131718
0.11923886 1.032351 1.1388862 0.38461247 -0.41977334 -0.61311567 -0.055724002 -0.037267238
-0.24312073 -0.72308403 -2.7571983 -1.2523304 0.044002004 0.8807554 1.7061675 -0.12755792
0.66846 0.07115747 0.26682416 -0.7277288 -0.0974432 8.028608 -0.28593743 -3.968529
-6.945384 -0.27016786 7.1075206 0.9279379 -0.06001831 -0.24716336 -33.464237 1.8712584
0.6700642 0.2300531 -0.17298733 0.21547474 -0.25156835 0.34753826 1.1166669 -0.6577934
-0.5193574 -0.3092546 0.09206552 -0.7101607 -0.4844676 0.7030091 0.3374738 0.48584142
1.4045368 -1.8453637 -1.8447728 0.8441047 -0.5764719 1.3671844 1.2041626 -0.5212779
0.58735937 -4.2657704 -0.602107 0.4022808 1.4777287 0.08271267 0.931921 0.05815576
-0.25482902 -7.6365056 -0.33131465 -0.051641114 0.52327746 -4.567073 -1.8004657 -12.810897
-1.4373977 1.2276611 -9.976211 -11.6299515 0.16276821 -7.9949346 9.926854 11.251078
-0.667936 0.79397404 -1.0270743 -0.30097508 0.13497786 -5.713261 3.100799 2.6196353
1.176473 -0.48842913 -0.3193725 -2.8371556 0.025910215 2.7942922 -6.3748302 -1.5404851

submod1.bias f4 [20]
00000000: 9d1b a93e 0309 8d3e 7cd8 cdbe 08b1 183f
00000010: 095f 0abf a033 f2be 3afa 5cbe 739a 5bbe
00000020: 924c 39be 5b25 53be 11a7 973c be80 7e3f
00000030: d732 9f3e 5128 40bf 1782 533f 8095 34bd
00000040: 58c6 cfbe 462b 9c3d 88f5 02be dd12 9abe
0.3302888 0.27545938 -0.40204227 0.5964513 -0.5405126 -0.47305012 -0.21579829 -0.21445636
-0.18095616 -0.20619719 0.01851228 0.99415195 0.31093475 -0.7506152 0.82620376 -0.044087887
-0.40581012 0.07625441 -0.12788975 -0.30092517

conv4.weight f4 [32, 16, 2]
00000000: ac06 803f 8a04 36bf d5be 383d b92e 013e
00000010: b1bd 083f fd61 afbf 5a03 8f3d 93ce 443e
00000020: 0b31 163f fb02 e5be 685a d3be 7c9e 4ebe
00000030: 393f 98be 546d 9f3e 2d59 c1bd ad53 e93e
00000040: f2e7 343f a6c8 b23e f536 8a3e b1a7 50bf
00000050: 2f86 d83d ea6e 0f3f 5d44 66be 11dc 3a3f
00000060: 3416 af3e 29cc 233e 553b 953e fc16 6abe
00000070: f2fc b7bd 9ae6 80bb f6e2 ae3d b2e9 573d
00000080: 2213 13be 753b 383f 2be8 533e 271e a43c
00000090: ae3c 88bd 6479 0d3d 57e4 c43d a101 c7be
000000a0: 46d8 0dbf e6b2 b43d e1d3 45be c635 853d
000000b0: 6ef3 9a3e 6b44 193f a707 5d3e 39bb 10bf
000000c0: b238 f03e 4fed 85bf da8f 77bd 198e e5bc
000000d0: 70c3 37be d6c5 62be f07d 043f 6d43 13be
000000e0: 3cb0 03bf e4eb 033f 7ccd f2bc c125 dc3d
000000f0: 1259 463d e496 0dbe a0b2 6abd 1699 23bd
00000100: 4b5e 5abd 4098 50bf d793 8ebe ce0a 89bd
00000110: 2fcc cabe 6dc8 48bf 5758 983d 4839 f6be
00000120: 1260 afbe 427d 0ebf d28f 393e 405c 473e
00000130: 10d1 35bd d05f 23bf 7366 17be ec55 ab3e
00000140: 3def c73d 3512 8c3f efca e4be 87d3 0dbd
00000150: b9e8 3c3e 13d6 a33e bb5d 19be dacb 04be
00000160: 713b e73d 25b1 4bbf 87e5 23bd 9b75 f73e
00000170: c174 a3bd 78b4 ef3d 8a15 30be 78a0 96be
00000180: b782 ffbe 48db f2be 7f29 593d 52bc dabd
00000190: c78e 5bbf 7cff bfbe 18b7 3dbe eb3d d33d
000001a0: fff7 973f 482a 01bc 1158 1c3e 6623 ac3c
000001b0: ce8f 36bf a7b2 b7bd 0bc9 c4bd 60d9 e2bd
000001c0: 3d1c 363f b5db 833e f34d 653f f63e 623d
000001d0: b1a4 b13e 27e2 7f3d 51db bb3e b1d6 ec3c
000001e0: 993a 6b3f 064f 71be b264 cdbe 2002 b6bd
000001f0: 43ae 4e3e 30de a0bd cc9d f6be 6239 383e
00000200: b223 4abf 10d3 1fbe c404 07be dd88 053e
00000210: 9a58 64be 3885 79bf 122d d1bd fa28 4b3e
00000220: 053b 9a3e 46e0 113f e6e0 2dbe f2a1 10be
00000230: 4a7f f93d 2d08 8dbe c5b4 983e 6cbd 883e
00000240: 55e9 7cbf 6be1 1b3f ea3d 05be b767 8b3e
00000250: 9717 8cbe 5768 383e 10a0 b63c 0707 843e
00000260: e650 c23e f783 9fbe eadb 853e 4481 623d
00000270: f51d a0be 55f0 e3be 90af 8cbe 86b5 2d3e
00000280: bd2a be3e db01 adbe fad9 40bd 1f0d 313e
00000290: 770f d53e 55f6 0bbf e3fd 0ebe b4df e83e
000002a0: 539d 3e3f 8701 debe dd50 65bc 90e2 5fbd
000002b0: 1fc6 8b3d 3af8 043e 91da 7c3e a144 be3e
000002c0: 43cb 30be dc2f c9be 57b0 05bf 02b4 c5bd
000002d0: e650 903e e4a5 0e3c b0a9 6bbe 3bb0 ce3e
000002e0: 4695 3a3f ede2 87bf 86a9 32bf 6430 f3be
000002f0: 3916 123f 5015 6d3e ef40 1cbe ebc7 6f3d
00000300: a6be 34be 8cc6 e6bd e7e1 f8bc 66dd a0bc
00000310: 0a08 bdbe 9382 5dbe c846 3abe 3ca2 813e
00000320: da7c 4cbe a98c 6bbb 89d6 a8bd 24bd f03d
00000330: 5fa5 d43e 28b7 8d3e cace d63e 6d6f 053e
00000340: c553 193f bda9 9b3e ee05 20be 551f 893f
00000350: 9599 153d de29 7abd e335 003f 97bc 923e
00000360: 974a 36bf 96ab c6bf 0a34 e6be 32dc 36bf
00000370: 1d38 b0be 121f 1ebd 3711 b6bd fe77 04bd
00000380: 8dd9 d73c 90d6 60bf 8bc8 533e ec09 363d
00000390: 8b89 663f 3cc9 123d 99d5 2a3e 3da5 a13d
000003a0: 3f73 b5bf 0c2e adbf f96a f03c 41ae af3d
000003b0: 9888 603e 5fcb 91be 5c73 c13d 30b0 dd3e
000003c0: a650 45bd 17ce e33e dc46 24bf 46e2 37bf
000003d0: b056 85bd 835c 84be ef80 7e3d 8ccf e23e
000003e0: 5b9d 7abe d8ca 0bc0 4362 66bd d6d5 913e
000003f0: 5819 b1bc cb87 fabd 83a1 a6bd 8277 6a3e
1.0002036 -0.71100676 0.045103867 0.1261548 0.53414446 -1.3701779 0.06983061 0.19219427
0.58668584 -0.44728836 -0.41279912 -0.20177644 -0.29735735 0.31138098 -0.09440837 0.45571652
0.7066642 0.34918708 0.26995054 -0.81505877 0.105724685 0.56028616 -0.22487016 0.72992045
0.34196627 0.1599585 0.2914683 -0.2286033 -0.08983792 -0.00393374 0.08539383 0.052713104
-0.14362767 0.71965724 0.20694034 0.020033909 -0.06652199 0.034539595 0.09613865 -0.3886843
-0.5540813 0.08823185 -0.19319107 0.06504397 0.30263847 0.5987002 0.2158495 -0.5653568
0.46918255 -1.0463046 -0.060439922 -0.028021859 -0.17945647 -0.22145781 0.51754665 -0.1438119
-0.5144079 0.51531816 -0.029638998 0.107493885 0.048424788 -0.13827091 -0.057299256 -0.039940916
-0.05331258 -0.81482315 -0.27847168 -0.06691514 -0.39608905 -0.78430825 0.074387245 -0.48090577
-0.34252983 -0.5565988 0.1812127 0.19468784 -0.04438883 -0.63818073 -0.14785175 0.3346399
0.09762428 1.0943056 -0.44686076 -0.034625556 0.18448152 0.31999263 -0.14977162 -0.12968388
0.112906344 -0.79567176 -0.040013816 0.48331913 -0.079812534 0.117043436 -0.17195717 -0.29419303
-0.49904415 -0.47432923 0.05301809 -0.106804505 -0.85764736 -0.37499607 -0.18526876 0.10314544
1.1872557 -0.007883616 0.1526797 0.021012973 -0.7131318 -0.08969622 -0.096086584 -0.11076617
0.7113684 0.2575356 0.89572066 0.055235825 0.34695962 0.062471535 0.36690763 0.028910967
0.9188629 -0.23565301 -0.40115887 -0.08887124 0.20183663 -0.07854879 -0.48167264 0.1799064
-0.78960717 -0.15607858 -0.13185412 0.1304049 -0.22299424 -0.974689 -0.102136746 0.1983985
0.30123153 0.5698284 -0.16980323 -0.14124277 0.121824816 -0.275453 0.29825416 0.26707017
-0.98793536 0.60890836 -0.130119 0.27227566 -0.27361748 0.18008552 0.02229312 0.2578661
0.37952346 -0.3115537 0.26144344 0.05529906 -0.31272855 -0.44519296 -0.27477694 0.16963777
0.37141982 -0.33790478 -0.04708288 0.17290162 0.4161336 -0.5467275 -0.13964038 0.45483172
0.7445881 -0.4336054 -0.01399633 -0.054659426 0.06824898 0.12985316 0.24692751 0.37161735
-0.17265038 -0.39294326 -0.522222 -0.096534744 0.2818672 0.008706544 -0.2301395 0.40368828
0.72884023 -1.0616127 -0.6978992 -0.47497857 0.5706516 0.23152661 -0.15259145 0.058540266
-0.17650852 -0.112683386 -0.030381156 -0.019636821 -0.36920196 -0.21631841 -0.18191063 0.25319088
-0.19969502 -0.0035941994 -0.08244044 0.11754826 0.41532418 0.276788 0.41954643 0.13030787
0.5989345 0.30402938 -0.15627262 1.0712687 0.03652342 -0.061075084 0.50082225 0.28659508
-0.71207565 -1.5521114 -0.44961578 -0.7142974 -0.3441781 -0.03860385 -0.08890002 -0.032340996
0.026348853 -0.87827396 0.2068197 0.044443056 0.90053624 0.035836443 0.16683044 0.07892845
-1.4175795 -1.3529677 0.029347884 0.08578158 0.21927106 -0.28475472 0.09445831 0.43298483
-0.048172615 0.44493172 -0.6417062 -0.7182964 -0.06510675 -0.2585183 0.06213468 0.4429897
-0.24474089 -2.1842556 -0.056246053 0.28483456 -0.02161853 -0.12232932 -0.08136275 0.22897151

conv4.bias f4 [32]
00000000: dba4 363e 9747 d8bc 116b c33c 6ae5 743e
00000010: 7442 923d 31ed a0bb 31cd 12be 638e 9dbe
00000020: 8bb5 163c 2c0e c13d 2062 3ebd e59b db3e
00000030: e0b2 f13d 8918 72be 857d 863e 4398 ee3d
00000040: 3180 443d 6a39 90bd a784 0dbe 740f 133e
00000050: f61b 76be c3ff 5e3d 8ee0 273e 35c4 a8bc
00000060: 31bc 84be cc81 38be 0e7d 3ebe fb1c bf3c
00000070: a8f3 693e d7d3 143e cec2 963e 3496 8b3d
0.17836325 -0.026401324 0.023854764 0.2391564 0.07141581 -0.004911088 -0.14336087 -0.30772695
0.009198557 0.09426531 -0.046480298 0.42892376 0.11801696 -0.23642172 0.2626764 0.11650135
0.047973815 -0.07042201 -0.13820134 0.14361364 -0.24034104 0.054443132 0.16394255 -0.020601371
-0.2592483 -0.18018264 -0.18602392 0.023329249 0.22846854 0.14533935 0.294455 0.06815758

bn3.weight f4 [32]
00000000: 4f6e 8a3f df49 ac3f e389 4e3f 4bb0 663f
00000010: 08f1 653f f16a 1a3f 77df 7b3f 8edf 663f
00000020: 6788 b43f 4e30 453f acaf a13f 2752 7a3f
00000030: 0a24 bc3f cf5d 8e3f 38b8 603f cb6c 703f
00000040: 133a 2c3f 2feb 273f 7227 743f af39 863f
00000050: 3356 333f 5280 823f 67fd 5d3f d155 953f
00000060: 8783 8e3f a1b6 0d40 417f 4e3f a8d9 a63f
00000070: 2c94 633f c837 253f e502 9f3f 762a 813f
1.0814914 1.3460044 0.8067915 0.9011275 0.8982091 0.6031943 0.98387855 0.9018487
1.4104127 0.7702683 1.2631736 0.97781605 1.4698498 1.1122378 0.87781096 0.93916005
0.67276114 0.65593237 0.9537269 1.0486354 0.70053405 1.019541 0.86714786 1.1666814
1.1133889 2.2142718 0.80662924 1.3035173 0.8889797 0.6453824 1.2422758 1.0091083

bn3.bias f4 [32]
00000000: 0d92 1fbe a71a 62be 07af 16be 2354 03bf
00000010: cc8a 6c3e c7dd 09bf 094d 9abe 5ecb 993e
00000020: ff89 87be 1112 9cbe 4961 71be 50aa 26be
00000030: 17b7 2cbf fcf6 99be d0f3 19be db73 9abe
00000040: 60cf 1ebf b2b6 eabe 4ac9 fdbd abb1 f0be
00000050: 80f5 8a3d f967 dabe 0ca7 c9be 4700 edbe
00000060: 2e8d a3be 2de2 a0bf b40f 30bf c950 02bf
00000070: c602 b7be b74d 393d c273 f8be 3819 d8be
-0.15583058 -0.2208048 -0.14715205 -0.5130026 0.23099822 -0.5385403 -0.30136898 0.3003797
-0.2647247 -0.30482534 -0.23572268 -0.16275907 -0.6746687 -0.30071247 -0.15034413 -0.30166516
-0.6203518 -0.4584251 -0.123919085 -0.4701055 0.06785107 -0.4265745 -0.3938526 -0.46289274
-0.3194365 -1.2569023 -0.6877396 -0.5090452 -0.35744303 0.04524013 -0.48525816 -0.4220674

bn3.running_mean f4 [32]
00000000: 3763 6c40 7ebe ddbe a863 cec0 c9df 873f
00000010: 352b 05c0 145b 9dbf 27af 95c0 088d 1dc1
00000020: 08dd 1ebf a95d 8040 17ad 5740 761d 9e3f
00000030: 968e 0ac0 d4ba 1a40 e14d 26c0 d8e2 393f
00000040: 6dde eabf c920 ea3f ba38 fdbe cad5 88c0
00000050: 33d0 70c0 d7ab 8140 0731 a740 f530 aa3f
00000060: 307b 8fbe 13cd 9bc0 b9e1 5640 e9af 853f
00000070: 61a5 8a3e 29b5 87bf 4531 15bf c097 9ebf
3.6935556 -0.43309397 -6.449665 1.0615169 -2.0807621 -1.229342 -4.677631 -9.846931
-0.62056017 4.011433 3.3699396 1.2352741 -2.1649528 2.417653 -2.5985034 0.7261176
-1.8349129 1.8291255 -0.4945734 -4.2760973 -3.7627075 4.0522265 5.224735 1.329619
-0.28023672 -4.8687835 3.357527 1.0444309 0.270793 -1.0602161 -0.58278304 -1.239006

bn3.running_var f4 [32]
00000000: 864c 7842 9336 9d41 46ac a542 e86a 6c41
00000010: bbdc a741 d4ca 2e42 8df2 1b42 f279 0f43
00000020: b206 2342 ad31 1542 df9e 9942 c72b 1e42
00000030: 20c3 0842 754e f341 03a3 1b42 2dc0 7c42
00000040: ed3e 5141 12c0 4242 22c7 e541 58b5 f941
00000050: abf9 4742 f5fd 7b42 7f93 2442 52f0 4342
00000060: f24a 2042 0b81 4242 1350 9741 25f7 a542
00000070: 20f2 a641 87fd e941 4b01 1842 db85 a041
62.07473 19.651648 82.83647 14.7761 20.982779 43.698074 38.986866 143.47635
40.75654 37.29851 76.810295 39.54275 34.19055 30.41331 38.90919 63.18767
13.077863 48.68757 28.722233 31.213547 49.993816 62.998005 41.14404 48.984688
40.07319 48.62602 18.914099 82.982704 20.868225 29.248793 38.001263 20.06536

conv5.weight f4 [32, 32, 1]
00000000: 0284 26be 747a 3bbf 7714 473d 87a6 ce3e
00000010: 8b00 b83d 1be2 c93e d1e4 dbbe 1681 08bf
00000020: b701 e23e 7f11 07be 1599 9c3d 4a03 2f3e
00000030: 520c 3d3d 70c2 bfbe c9d2 313c bade 1cbe
00000040: 51c5 0c3d b251 673e c95c af3e 11aa abbe
00000050: 4fa4 c93d 03a4 153e 82c0 89bc 60bc 4bbe
00000060: 8597 30be 4325 963d d3fb 53be 3656 3fbd
00000070: ae1f 133d ee83 b4bb b9a3 573e faad 243e
00000080: d245 073e 022d f63e 34c1 40be 2fde 96bb
00000090: 3d36 543e 1700 4b3e e5a7 34be b3af dabe
000000a0: 155d 7fbe c9d8 a1be 1ecc 4d3e 8cdb a23e
000000b0: 3104 683e 929e cabe c6f7 103f 5a02 9b3d
000000c0: 9a95 9fbe 0f9c b8be e983 8e3e 55fe bc3e
000000d0: 5b14 cabe 2035 373e 21a4 80be 6cd3 f7be
000000e0: 0f30 30be bdfd 963e 2cda 303e 494e 64bf
000000f0: eba0 f13c 5ba6 6d3e 89df 0e3f 4f57 26bf
00000100: d1d5 0abe 5206 ec3d bb22 2cbd dde5 893e
00000110: 1d42 1dbf 7d92 983e 028f 27bf 22a4 22bd
00000120: b2e1 203e 4e45 df3c e22f 02bf 3788 063f
00000130: 3651 9d3e e01d 44be 7558 0ebf ada2 99bd
00000140: 8076 933d e687 a6bd ada3 8a3e bffb b03e
00000150: 7e67 5d3d 03c1 ee3d 5c50 9e3e 0070 8f3c
00000160: f218 f93d 5d0f 3fbf 16a4 cabe 5b47 423e
00000170: 33cb 123d eabb 323e ccaf 8c3e 6d98 1b3f
00000180: 9ac6 953e bd25 64bf 3abd c9be 4cdb 813e
00000190: eaa6 eabe b3f7 1c3e 7017 96bd d6ea c6bd
000001a0: b45b af3e 3e77 79be 187d 823e bb53 babe
000001b0: dafe fa3e 8712 e8be 5927 813d 291b 9fbe
000001c0: 21ea 5e3e e98c b9be a31c 583e 5c6c f33e
000001d0: db85 f1bd d48f b1be 92c4 183e 4a90 783d
000001e0: 57c2 5bbf f244 4f3f e73c b2bd 220f 13bf
000001f0: a421 8dbd 7ee4 3b3e 2a46 603f ee5f 3cbe
00000200: 1b94 01bd 7ebd 94bd 92c9 28be 899c 6fbd
00000210: 4d33 5d3e c334 20bd ed4b c7bd afff 36bd
00000220: 132e 22be 02ec 6c3d 0167 5d3b 25ac c23e
00000230: 725a 22be e74d 6e3c 868c 423e 5783 463e
00000240: 2e3a 9d3d 5568 823e 7d0f f7be 15ed b23d
00000250: 2f97 c83d 6c87 073d 8f43 d7bd 628c 5bbe
00000260: c12f 083f 20e6 6dbf 03bf bebc 86ef 3cbe
00000270: 5754 a43d fe6f 963d 0e0e d73e b15f 98bd
00000280: aa25 91bf 1923 98be 6e54 0ebf cee8 28be
00000290: 4b0c 5ebe 18a3 b0be 589b ea3d ab9f 0ebf
000002a0: 2250 573e ca8f 37bf dc44 b63e 9fa5 7fbe
000002b0: 165c 66bf 43c0 cf3e 29e6 1fbf ab08 39bf
000002c0: a5d1 b33e cf4d 123d 64b1 f6bf 7e5b ba3e
000002d0: ad55 2d3f 80d1 913d 7297 603e 71a0 c03d
000002e0: 0c8a 403f ac6c c03e 759b d83c 885a ddbd
000002f0: 4887 34bf 759c 0dbf 9d7e 263e d4f0 bdbd
00000300: c72c a9bf c685 4fbf b143 23be 14ff a33c
00000310: ac6d 43bf a4d5 7b3c 97af 733e 04b1 1c3e
00000320: c735 d7be 5749 893e e971 ef3c 8f21 b13e
00000330: ff49 f53e 5fb7 1a3f 6ce7 45bd 75e9 17bf
00000340: 15c5 483e 1d22 073e f062 88bf 3371 213e
00000350: 9c4e f3be 8498 38bf 915b e33e 47f5 0a3c
00000360: 3e27 8dbd f4a6 543f 50b5 c13c 4857 a83e
00000370: 41f0 f9be aeda 8c3c a833 133f 3832 5bbe
00000380: 2931 073e fd0c 093d b7ec 4b3e 46c6 a1bd
00000390: cb4f c9bd 4290 613d 3894 253e a553 12be
000003a0: b830 423e c83a 1c3e 2bfd 30bf b7b9 183e
000003b0: 18bd a33e be77 52be 0291 b3be 1f1c c43d
000003c0: 565c e7bd ef20 97be 086c a83e 93b2 65bf
000003d0: 4fbe 283e ea1a ac3c 17ea c3bd 93f0 cf3d
000003e0: 4a7b 6f3d 3e38 5a3e 1197 b0bd 7360 763e
000003f0: f4bf c73c aebb 4bbd 56e3 bfbc d3ce c83d
-0.16261294 -0.73233724 0.0486035 0.40361425 0.089844786 0.39430317 -0.4294801 -0.5332197
0.44141933 -0.13190268 0.076463856 0.17091098 0.046154328 -0.37453032 0.010853478 -0.15319338
0.034367863 0.22589758 0.34250477 -0.33528188 0.098457925 0.14613347 -0.016815428 -0.19896078
-0.172453 0.07331326 -0.20701532 -0.046713077 0.035918884 -0.0055088913 0.21058549 0.16081992
0.13210228 0.48081213 -0.18823701 -0.004604123 0.20723815 0.19824253 -0.17642172 -0.42712173
-0.24937852 -0.31610706 0.20097396 0.31808126 0.22657849 -0.39574105 0.5662807 0.07568808
-0.31168824 -0.36056563 0.27835014 0.3691279 -0.39468655 0.1789136 -0.2512522 -0.4840349
-0.17205833 0.29490462 0.17270726 -0.89181954 0.029495677 0.23207991 0.5580984 -0.6497697
-0.13558127 0.11524643 -0.04202531 0.26933184 -0.61429006 0.29799262 -0.6545259 -0.03970731
0.15711096 0.027254727 -0.50854313 0.525516 0.30726022 -0.19152021 -0.55603725 -0.07501731
0.072003365 -0.08131389 0.27078 0.34567067 0.054053776 0.11657908 0.30920684 0.01750946
0.12162961 -0.7463282 -0.39578313 0.18972532 0.035838317 0.17454496 0.27477872 0.6077946
0.29253083 -0.89120084 -0.3940218 0.25362623 -0.4583047 0.15328865 -0.07328689 -0.0971276
0.3424965 -0.24361894 0.25486064 -0.36392006 0.4902256 -0.45326635 0.06306333 -0.3107541
0.21769 -0.36240318 0.21104674 0.4754361 -0.11793109 -0.34680045 0.14918736 0.06068448
-0.85843414 0.8096458 -0.087030225 -0.57444966 -0.06891182 0.18348882 0.8760706 -0.1839597
-0.031635385 -0.07262705 -0.16483143 -0.058498893 0.21601601 -0.039112817 -0.097312786 -0.044677433
-0.15837888 0.057842262 0.003378332 0.3802196 -0.15854815 0.014544941 0.18998918 0.1938604
0.076771125 0.25470224 -0.48254004 0.08736626 0.09794461 0.033088133 -0.10510933 -0.2144027
0.53197867 -0.9292927 -0.02328444 -0.18450746 0.08023899 0.073455796 0.4200291 -0.07440127
-1.1339619 -0.29714277 -0.5559758 -0.16495058 -0.21684377 -0.3449943 0.11455411 -0.55712384
0.21026662 -0.7170378 0.3559941 -0.24965523 -0.8998426 0.40576372 -0.6246057 -0.7227885
0.35120884 0.035718735 -1.9272885 0.36397928 0.67708856 0.07120037 0.21932772 0.09405602
0.7521064 0.3758291 0.026441315 -0.10808283 -0.7051892 -0.5531686 0.16259237 -0.0927445
-1.321679 -0.810635 -0.15943791 0.020019092 -0.7633922 0.01537076 0.23797451 0.15301901
-0.42033216 0.26813766 0.029229121 0.34595916 0.47908017 0.6043605 -0.048316404 -0.593406
0.19606431 0.13196607 -1.0655193 0.15765838 -0.47520912 -0.7210772 0.44405797 0.00848133
-0.068922505 0.8306725 0.023646027 0.3287909 -0.48816112 0.017194118 0.57500696 -0.21405876
0.13202347 0.033459652 0.19914518 -0.07899146 -0.098296724 0.055069216 0.16169822 -0.1428972
0.18963897 0.15256798 -0.69136304 0.14914595 0.31980205 -0.2055349 -0.3507157 0.09575676
-0.112969086 -0.29517314 0.3289492 -0.8972561 0.16478847 0.021008927 -0.095661335 0.10153308
0.058467187 0.21310517 -0.08622564 0.2406023 0.024383523 -0.049739532 -0.023423832 0.098050736

conv5.bias f4 [32]
00000000: 919b 0fbe 3d86 d5be c410 0bbe 0290 93be
00000010: bd45 f73f 958c 4b3e 36f6 b8bd 70c0 5f3f
00000020: ccc4 0f3f 61e8 bebe 3aab c0be d0ac 26bf
00000030: 957b a3be c95a 4d3e 6db9 b7be d245 3dbd
00000040: a909 183e 74ca 06bf e7b1 bebc 7ac2 e33d
00000050: 41ac 57bd 6ea2 96bc 9700 e5bd 8547 8cbf
00000060: 1feb fbbe 30f4 0cbf 0eca b13d 0152 36bd
00000070: c7c4 8e3e dd98 2abf 07c9 d0bd 02f2 c83b
-0.14024188 -0.41703978 -0.13580614 -0.28820807 1.9318157 0.19877847 -0.09031336 0.8740301
0.56159663 -0.37286666 -0.37630635 -0.6510744 -0.31930223 0.20054163 -0.35883656 -0.046209164
0.14847435 -0.5265267 -0.02327819 0.11121078 -0.05265451 -0.018388 -0.11181753 -1.0959326
-0.4920282 -0.550601 0.08681117 -0.0445118 0.27884504 -0.666395 -0.10194593 0.006132365

conv6.weight f4 [32, 32, 1]
00000000: ecc2 053e c2d6 12bf 4a85 ba3d 5bd5 b9be
00000010: 93d3 033e 3369 a93e ad8d 7b3e dfb8 983d
00000020: 56c6 d03d c0ca 3a3f cff2 433e b36c 003e
00000030: e50d ea3e 5d1f 243e 7d87 3a3f f57d f33d
00000040: f524 353d 4ce5 31be e461 0ebf 9839 83bf
00000050: fb24 e3be 8a07 9dbe bd49 86bd dca8 4fbf
00000060: cd50 71bf eba3 303f a22c db3e 8800 60be
00000070: e17b 67bc 23cf 0d3f a618 393f 32a9 00bf
00000080: 09c6 9bbd b0a4 623e e187 f23d d57f f33e
00000090: e04c 4f3e b395 9f3c 4dbf 88be 6c2b c93b
000000a0: 7c8c 09be 539f 3cbd 8a41 923e 7bca 89bf
000000b0: d28c 133e c8e9 5abe 12d5 f73e 0052 0cbf
000000c0: 94b7 8cbe 60ff cdbe f710 4f3f b3f4 f1b9
000000d0: cf72 663e 71b0 27be f8d1 6c3f ff3a 82bf
000000e0: 92e8 9dbe e10d 09be ab9f 323d 2d3a debe
000000f0: abbd 023f f49f aabe a4fd 29bf cb0a 23bf
00000100: 547a 3fbe 05df 3fbc 0fc2 063c 9392 cdbd
00000110: 41aa ecbd 17f7 13bd 7c6f 89be c51e b3bd
00000120: 8954 9b3d 0a00 04be e597 02bf 4cae 13bf
00000130: 7ba4 2dbf 61a9 0d3f c0f6 aabd e2c1 5a3c
00000140: 2c83 083f f640 8e3e 0e65 f23f 82da 55bc
00000150: b2a7 ed3d c52d 933d 0d65 1b3c 122f 7dbe
00000160: 40a8 d7be dd08 eb3e 4807 0cbf 1d6b 9f3e
00000170: 1615 5e3f 8df2 053f 459d 043f a2e4 ab3f
00000180: e29a 603c 12a5 853e 29a3 25be 437c b33d
00000190: 431f 033e 2a79 c13e 66c9 123d 40ae 0ebc
000001a0: aebf 4c3d 5fd6 633d 072f 2c3f 1e5e dabf
000001b0: 17d6 ae3f 95c6 82be 4993 233d 8ce8 5e3d
000001c0: cfb5 40bd 3e01 163e de01 973e 2647 14bf
000001d0: 7b0f fb3d 62b7 4a3e 9527 1cbd 0272 113f
000001e0: fafb 183e e4a5 e13f 0869 d13e 01d0 07bf
000001f0: 624a 73bf 6b20 db3f 4081 f1be c66d 303e
00000200: 3c81 9abe f095 813e 4497 d5bd 7e90 cb3d
00000210: 2b6f c03c e9a7 933f b35d 8b3e 2bf9 c33d
00000220: 1e8f 90bd a427 123f 8043 2fbf 2158 823f
00000230: 4747 9b3c 0fe6 bcbe 0332 31be a014 513d
00000240: 5108 5a3e 1f5a d33e 9a13 a83e ebd2 c53f
00000250: b0c2 853d 0379 563e 44fb eebc bce3 bbbe
00000260: 1698 2dbf f52d 8dbe 1480 8a3e 8006 81be
00000270: 6585 6b3e b312 973f 74d2 7abd 6aa1 a8bd
00000280: 2965 97bd ca49 8ebe fb98 173e c4d3 39be
00000290: 1aab 63bd caa6 3a3f d60c 7ebe 0158 93bd
000002a0: a4af 9f3d e5cf 88be 313d 8f3f a93e ae3f
000002b0: b611 373f 69b6 763e f2ed bdbd ea41 afbe
000002c0: 7aaf 153e 4873 893e e77d 8abd 3a50 b33f
000002d0: 4690 dcbd 83ec 52be ca39 113e 12e3 89be
000002e0: 4e0b 403f 8834 35bf d9a4 eabd 57f7 febd
000002f0: 1eff dcbd 7be4 843f ce8c f8be 35d7 563f
00000300: e031 613e 27f2 c93d d69f e9be 4cbb eb3d
00000310: fda2 363d 69f7 c93d 68db 843e 2eb3 553d
00000320: bb9f ff3c 8299 cbbd 3beb aa3d 320f b6bf
00000330: e7f1 223e eb2a 8f3d ca2b e9be 0537 8dbe
00000340: b8ac 8ebe ac09 ecbe f66e 39bf a031 e83f
00000350: 755d 883e 3cf2 4a3e 30cd 43bc 9e0a 573d
00000360: 117a a53e 9004 523f d3a0 2d3f eeda 7a3e
00000370: 5440 c93e ebfc 8cbe 6a02 2e3f 2821 c73f
00000380: b95f d63c 0681 d93e 171a c03e c97f ebbd
00000390: 3994 f33c 4077 113f 8052 0e3e 1a76 08bd
000003a0: 457a 243e 272c 643e 38f9 273c 6a28 65bf
000003b0: fd83 f83e dd0f 1c3f b043 51be 6e36 5ebe
000003c0: 09a2 88bd c036 24be ca0a 8bbf b2fd f03c
000003d0: 30c2 cbbd b52d 88be 2bb1 a4bd d878 dfbd
000003e0: a886 9e3f 2b53 51bf 1173 5f3e 36c1 92bf
000003f0: ae4f afbf 19f5 7c3f 0606 32be 2c34 363f
0.13062638 -0.57358944 0.09107454 -0.3629559 0.12873678 0.33088073 0.24565764 0.07457136
0.101940796 0.7296562 0.19135593 0.12541465 0.45713726 0.16027589 0.7286299 0.11889259
0.044224698 -0.17372626 -0.5561812 -1.0251951 -0.4436415 -0.30669814 -0.06557033 -0.81117034
-0.9426392 0.6900012 0.4280749 -0.21875203 -0.014128656 0.5539419 0.72303236 -0.5025817
-0.076061316 0.22133136 0.11842323 0.47558466 0.20244169 0.019480562 -0.2670845 0.0061392095
-0.13432497 -0.04605038 0.28565627 -1.0764917 0.14409187 -0.21378243 0.48404747 -0.5481262
-0.2748381 -0.40233898 0.8088526 -0.00046149417 0.22504734 -0.16375901 0.92507887 -1.0174254
-0.308415 -0.133842 0.043609302 -0.4340376 0.5107066 -0.3332516 -0.6640265 -0.63688344
-0.18699008 -0.011710887 0.008224978 -0.100377224 -0.11555911 -0.036124315 -0.26842868 -0.08746103
0.07584483 -0.1289064 -0.5101302 -0.5768783 -0.678291 0.55336577 -0.08347845 0.013351889
0.5332515 0.27783936 1.893709 -0.013052585 0.11604251 0.07186464 0.009484542 -0.24724987
-0.42120552 0.459052 -0.5469861 0.31136408 0.86750925 0.5232323 0.51802474 1.3429148
0.013708802 0.261025 -0.16175522 0.087639354 0.12804894 0.37787753 0.0358366 -0.008708537
0.049987487 0.055624362 0.6725926 -1.7059972 1.3659085 -0.2554213 0.039935384 0.054420993
-0.047048386 0.14648911 0.29493612 -0.57921064 0.12258812 0.19796517 -0.038123686 0.5681459
0.14939871 1.7628751 0.40900445 -0.53051764 -0.95035374 1.7119268 -0.47168922 0.17229375
-0.30176723 0.25309706 -0.10429242 0.09939669 0.023490509 1.1535617 0.27219924 0.095690094
-0.070585474 0.57091737 -0.6846237 1.0183145 0.018954886 -0.3689427 -0.17304234 0.05104506
0.21292235 0.41279694 0.32827455 1.5454992 0.06531274 0.209446 -0.029172547 -0.36697185
-0.6781019 -0.27574125 0.2705084 -0.25200272 0.23000105 1.1802582 -0.06123586 -0.08233912
-0.07392342 -0.27790672 0.14804451 -0.18147188 -0.055583097 0.7291075 -0.24809584 -0.0719452
0.07797173 -0.2672111 1.1190549 1.3612872 0.715114 0.24093021 -0.092739 -0.34229976
0.1461772 0.26845765 -0.06762295 1.4008858 -0.107697055 -0.20598035 0.14182201 -0.26931053
0.7501725 -0.7078328 -0.114572234 -0.1244952 -0.10790847 1.0382227 -0.48544925 0.8392213
0.21991682 0.0986064 -0.45629758 0.115103334 0.04458903 0.09861643 0.25948644 0.052172832
0.031204095 -0.09941389 0.08345648 -1.4223387 0.15912591 0.06990608 -0.4554122 -0.2758104
-0.2786615 -0.4610113 -0.7243494 1.8140144 0.26633802 0.19818968 -0.011950776 0.05250036
0.32319692 0.8203821 0.67823523 0.24497578 0.3930689 -0.2753671 0.67972434 1.5556993
0.026168691 0.4248125 0.37519905 -0.114989825 0.029733764 0.56822586 0.13898659 -0.033315755
0.16062267 0.22282468 0.0102522895 -0.8951479 0.485382 0.60961705 -0.20435977 -0.21700451
-0.06671531 -0.1603651 -1.0862668 0.029417846 -0.09949148 -0.26597372 -0.080416046 -0.10911721
1.2384844 -0.8176753 0.21821238 -1.1465213 -1.3696191 0.9881149 -0.1738511 0.7117336

conv6.bias f4 [32]
00000000: e86d 12be 39cc f9be 07bd 3abb 9571 6fbe
00000010: 5f3f 0fbe 5e45 8e3e be1a d8bc f6eb 16be
00000020: a164 683d e049 6bbe 89b6 d73d f799 8b3d
00000030: 1b46 ac3e c3ac aabd 6988 31be c467 b63c
00000040: 00b4 6f3e e9a1 043f 4359 abbd 7af9 8bbd
00000050: 9f86 68be 97a9 03be 5540 20be 42e9 9b3d
00000060: d4fd 5dbd 773f 11bf 8d60 38be 7f3b fd3e
00000070: 1fa3 eb3d 90e1 a7be efb4 053d eba0 073e
-0.14299738 -0.48788622 -0.0028494017 -0.23383172 -0.13989018 0.27787298 -0.02637994 -0.1473845
0.056736592 -0.229774 0.10532863 0.06816476 0.33647236 -0.08333733 -0.17337193 0.022266276
0.23408508 0.51809555 -0.08366635 -0.06834693 -0.22707604 -0.12857662 -0.1564954 0.0761285
-0.054197147 -0.56737465 -0.18005581 0.49459454 0.11505722 -0.32789278 0.032643255 0.13244979

bn4.weight f4 [32]
00000000: 5390 e640 4618 ca40 2ef3 1e41 8ba1 1341
00000010: 8e87 1141 1564 3441 b94d f140 4020 a440
00000020: 0c3d c140 6810 5441 f390 bd40 2d80 6b40
00000030: 364b 1241 ddf6 d740 3ca9 cf40 c984 ff40
00000040: 6c7e 0341 a739 a240 ce8a 4541 2bdb 0741
00000050: 8c20 c240 0f30 9140 457e 8b40 61e2 0741
00000060: d498 db40 9257 4141 83a2 c340 d69b db40
00000070: 6051 fb40 9b69 fb40 1cf8 df40 1392 f940
7.2051177 6.315463 9.93437 9.226939 9.095594 11.274434 7.5407376 5.128937
6.038702 13.254005 5.923944 3.6796982 9.143362 6.7488847 6.4894085 7.984959
8.218365 5.0695376 12.346388 8.491008 6.066473 4.5371165 4.3591638 8.492768
6.862406 12.083879 6.113588 6.862773 7.8536835 7.8566413 6.999037 7.7990813

bn4.bias f4 [32]
00000000: f762 c3be 9f91 ddbd 7b27 f3bf bd9c bfbf
00000010: 0bb5 b9bf 61dc e2bf 22d7 dfbf 01bc 9d3f
00000020: 7c81 e6bd 299f 71c0 2e4f e23d 3506 fd3e
00000030: 073e 02c0 c743 de3e 2ca3 8cbf e060 dcbf
00000040: b112 8abf 5479 a23d 9546 4bc0 d0cf e4bf
00000050: ffa3 4ebf e2a5 6b3f d6bb f53f 9195 1fc0
00000060: 03a9 acbe 3484 62c0 1fc4 a63f 3c6f 003f
00000070: 3658 eabf 4057 06c0 9ef4 e3bf cd4d 53bf
-0.38161442 -0.10818791 -1.8996423 -1.4969708 -1.4508375 -1.7723504 -1.7487528 1.2322999
-0.11255166 -3.7753394 0.110502586 0.49418798 -2.0350358 0.43411085 -1.0987296 -1.7217064
-1.0786954 0.07933298 -3.176183 -1.7875919 -0.8071899 0.9204999 1.9197948 -2.4935038
-0.33722696 -3.539319 1.3028601 0.5016973 -1.830817 -2.0990753 -1.7809026 -0.8254059

bn4.running_mean f4 [32]
00000000: 3a61 7f3e 7079 36be dbb8 5dbe 8c7f b73d
00000010: 8731 463c 3197 163e 8bd2 283e 4ecc 18bc
00000020: 6013 313f 39d7 e4bc 7b9b c33e 2b60 6cbf
00000030: 61c0 743f 764b 92be c3fb 7abc f0b3 f8bd
00000040: 95f4 9a3c c701 2a3f d3f1 6c3b bfe3 7d3e
00000050: b14f a63e 26f9 be3d c75e 873e 81c8 073e
00000060: c0dc 543f 6ca9 01bf 982d e6be 9d36 8b3c
00000070: 597e 413b edc9 c9be 0905 493e 5393 19bf
0.24939433 -0.17819762 -0.21652548 0.089598745 0.012096769 0.14706112 0.16486566 -0.009326054
0.6917019 -0.027934657 0.3820456 -0.9233424 0.95606047 -0.28573197 -0.015318814 -0.12143695
0.018915454 0.6640896 0.003615488 0.2479391 0.32482675 0.09324865 0.26439497 0.1326008
0.8314934 -0.5064914 -0.4495666 0.016993815 0.0029524772 -0.3941187 0.19630827 -0.59990424
