networks/quantized_models/itcnetaudio5/CNN1D_TrafficClassification_itcnetaudio5.pt (torch, 63870 bytes, 37 tensors)

conv1.bias f4 [16]
0.4427673 -0.4471101 -0.30921602 0.08962548 0.35572925 -0.5844185 -0.32883558 -0.28153405
0.70414335 -0.008215311 0.6989327 -0.2659195 -0.06299294 -0.2781661 -0.5023949 0.14946972
00000000: 65b2 e23e 9deb e4be 9051 9ebe 908d b73d
00000010: 2522 b63e 739c 15bf 235d a8be 3b25 90be
00000020: bd42 343f 8399 06bc 41ed 323f 9a26 88be
00000030: 7102 81bd c96b 8ebe f49c 00bf 970e 193e

conv1.weight_orig f4 [16, 1, 3]
0.43167743 0.16157956 0.43089044 0.30101454 0.62143254 0.24871233 0.06197496 0.19373722
0.723152 -0.491026 -0.6368712 -0.39141795 -1.2107475 -0.24664319 -0.02548293 -0.19787435
0.59858745 0.45402086 0.51429653 -0.15228541 0.56913334 -0.38100433 -0.82652956 0.20290451
-0.5753118 0.23419863 -0.049056143 0.07709929 0.024823241 -0.8742616 0.035105 -2.2230878
-0.09054118 -3.0131447 -0.00028258364 -0.00085937104 -0.3812558 -1.163118 0.028805206 -0.792871
-0.88791984 0.029492939 -0.03141565 -0.013299937 -1.3510784 0.38434342 -0.6502383 -0.9875182
00000000: d304 dd3e 1d75 253e ac9d dc3e 941e 9a3e
00000010: 3416 1f3f 72ae 7e3e 75d9 7d3d 0d63 463e
00000020: 7d20 393f c367 fbbe fe09 23bf ef67 c8be
00000030: c6f9 9abf 0890 7cbe 94c1 d0bc 939f 4abe
00000040: 073d 193f 6c75 e83e f0a8 033f b5f0 1bbe
00000050: b9b2 113f 0013 c3be 7197 53bf 33c6 4f3e
00000060: a247 13bf c4d1 6f3e 18ef 48bd 3ce6 9d3d
00000070: 1c5a cb3c 9ccf 5fbf 43ca 0f3d 1247 0ec0
00000080: a76d b9bd 5dd7 40c0 bc27 94b9 6a47 61ba
00000090: f633 c3be 0de1 94bf e5f8 eb3c 98f9 4abf
000000a0: b74e 63bf 2d9b f13c b2ad 00bd fbe7 59bc
000000b0: 23f0 acbf a9c8 c43e 0476 26bf fecd 7cbf

conv1.weight_mask f4 [16, 1, 3]
1.0 1.0 1.0 1.0 1.0 1.0 1.0 1.0
1.0 1.0 1.0 1.0 1.0 1.0 1.0 1.0
1.0 1.0 1.0 1.0 1.0 1.0 1.0 1.0
1.0 1.0 1.0 1.0 1.0 1.0 1.0 1.0
1.0 1.0 1.0 1.0 1.0 1.0 1.0 1.0
1.0 1.0 1.0 1.0 1.0 1.0 1.0 1.0
00000000: 0000 803f 0000 803f 0000 803f 0000 803f
00000010: 0000 803f 0000 803f 0000 803f 0000 803f
00000020: 0000 803f 0000 803f 0000 803f 0000 803f
00000030: 0000 803f 0000 803f 0000 803f 0000 803f
00000040: 0000 803f 0000 803f 0000 803f 0000 803f
00000050: 0000 803f 0000 803f 0000 803f 0000 803f
00000060: 0000 803f 0000 803f 0000 803f 0000 803f
00000070: 0000 803f 0000 803f 0000 803f 0000 803f
00000080: 0000 803f 0000 803f 0000 803f 0000 803f
00000090: 0000 803f 0000 803f 0000 803f 0000 803f
000000a0: 0000 803f 0000 803f 0000 803f 0000 803f
000000b0: 0000 803f 0000 803f 0000 803f 0000 803f

conv1._weight_quantizer._amax f4 [16, 1, 1]
0.43086135 0.6210729 0.7228074 0.6358944 1.2099171 0.59853876 0.5682227 0.8262528
0.57185584 0.87177837 2.2229865 3.0131223 1.1625028 0.885661 1.3510078 0.9867966
00000000: dc99 dc3e a2fe 1e3f e809 393f fac9 223f
00000010: 90de 9a3f d639 193f 0b77 113f 4e85 533f
00000020: 2565 123f de2c 5f3f 6945 0e40 ffd6 4040
00000030: e4cc 943f aeba 623f d3ed ac3f b49e 7c3f

bn1.weight f4 [16]
0.26525527 0.21346879 0.2777201 2.1312194 1.7681315 0.26113236 0.08840987 0.7700044
0.4112031 1.3705758 1.5826609 1.9092033 1.7090638 1.8040698 1.8389982 1.6314749
00000000: 8acf 873e 9097 5a3e 5431 8e3e e665 0840
00000010: 2252 e23f 24b3 853e 3c10 b53d 021f 453f
00000020: 3689 d23e 076f af3f a294 ca3f c660 f43f
00000030: 9ac2 da3f c2eb e63f 4b64 eb3f 2bd4 d03f

bn1.bias f4 [16]
-0.573927 0.05395354 -0.46535286 -0.063964315 -0.1331368 -0.44088894 0.08776793 -0.020495469
0.08885314 -0.62569267 -0.33069432 -0.31382877 -0.07560551 -0.34706116 -0.18380977 -1.0623864
00000000: e1ec 12bf 63fe 5c3d bb42 eebe b9ff 82bd
00000010: 0355 08be 32bc e1be acbf b33d 1de6 a7bc
00000020: a3f8 b53d 652d 20bf c450 a9be 2aae a0be
00000030: 10d7 9abd 00b2 b1be a138 3cbe 47fc 87bf

bn1.running_mean f4 [16]
0.52867526 -0.34869912 -0.22713093 -0.037563547 0.23182337 -0.5128929 -0.2508038 -0.3661654
0.6714074 -0.07192707 0.5081413 -0.518663 -0.19090511 -0.4175544 -0.62002265 0.043936312
00000000: 4357 073f b188 b2be 0395 68be 3cdc 19bd
00000010: 1b63 6d3e f34c 03bf 5b69 80be 087a bbbe
00000020: 5be1 2b3f 804e 93bd 8c15 023f 19c7 04bf
00000030: a17c 43be b1c9 d5be ceb9 1ebf 90f6 333d

bn1.running_var f4 [16]
0.040853642 0.054064192 0.040429227 0.08868529 0.09580016 0.03343 0.037763968 0.047154393
0.010786813 0.030855164 0.24709243 0.4394395 0.10025149 0.11363092 0.0930545 0.076466985
00000000: 2656 273d 6a72 5d3d 1e99 253d a2a0 b53d
00000010: e032 c43d e5ed 083d 64ae 1a3d f724 413d
00000020: 2cbb 303c f8c3 fc3c cc05 7d3e 37fe e03e
00000030: a750 cd3d 54b7 e83d 5c93 be3d b99a 9c3d

conv2.bias f4 [16]
0.03910072 -1.5115517 0.9251105 2.2966726 1.7235008 -1.6549625 -0.6535559 2.4626307
2.1023142 -1.0338355 -2.488631 -0.82230455 1.1704528 3.6837754 -0.5149698 -1.2365324
00000000: 1428 203d 877a c1bf 0bd4 6c3f affc 1240
00000010: ad9b dc3f d0d5 d3bf 714f 27bf be9b 1d40
00000020: 518c 0640 b954 84bf bb45 1fc0 8d82 52bf
00000030: 66d1 953f fac2 6b40 10d5 03bf b246 9ebf

conv2.weight_orig f4 [16, 16, 3]
-0.058531094 -0.13110957 -0.2065714 0.14693548 0.022381153 0.12217926 0.0029209165 0.1139447
-0.057579156 -0.058679275 0.40905982 -0.20399755 -0.21851745 0.40153337 -0.34022176 0.021070972
0.05599287 -0.04684888 0.05454376 -0.118032195 0.13913128 -0.13969992 -0.7056036 0.27142054
-0.021275904 -0.024120023 -0.17173083 0.026650783 -0.21918309 -0.3025633 0.3308382 -0.23292671
0.17047995 -0.28794697 0.19527367 0.3288874 -0.14179957 0.088918485 0.81630266 0.012911052
-0.08065867 0.23418623 -0.075884804 -0.5137751 0.3021483 -0.03934741 -0.1278079 -1.4204886
-0.049107734 -0.036240745 0.072910495 -0.035949852 0.24118213 -0.11143479 -0.06970014 -0.087268144
-0.23333752 -0.117982954 0.5149288 -0.7027408 -0.2934837 0.19942518 -0.7209057 -0.07868474
-0.047995124 0.21232991 -0.021453418 0.0760869 -0.12055949 0.13965008 0.29071784 -0.010078855
-0.01846841 -0.015560938 0.03935925 -0.36581537 -0.13361782 0.0012686606 0.39197102 0.17698044
0.23147324 0.0014712258 0.019448329 0.2564614 0.35322472 -0.06524227 0.20259568 0.02858314
0.4759445 -0.121012986 -0.66027004 0.015339668 -0.7473048 -0.29428586 -0.36020574 -0.1863622
-0.0077604647 -0.017376903 -0.03697489 0.003596926 0.12945567 0.058398873 -0.23582403 0.034427214
-0.11112675 0.17658979 -0.2467599 0.28648427 -0.83959997 0.1526883 -0.29545724 0.024306366
-0.13767782 0.01962773 0.025192814 -0.048890784 0.21489069 0.019404788 -0.02512419 0.12840366
-0.030623617 0.076375045 -0.1605941 -0.065073594 -0.016277533 -0.24551746 0.0852718 0.22317006
0.16850245 -0.3016047 0.23478898 -0.31443113 -0.20070882 0.3865533 -0.31056622 -0.011766803
0.40014404 -0.46255374 0.21427864 0.33831605 -0.24327306 -0.3198864 0.022218 0.040897723
0.0061727036 -0.0064408984 -0.0029591837 0.063641936 0.05801139 0.20026368 0.063153856 -0.1371926
0.050399665 0.6556954 0.34044167 -0.24813035 0.35044736 -0.2656433 0.11990797 -0.23803672
0.0065540723 -0.04699587 0.039437488 0.25902492 -0.20185587 -0.004278871 -0.48969877 -0.042913772
0.091660984 -0.3966553 0.1322097 0.23263869 -0.12162788 -0.17961653 -0.4051223 -0.21520641
0.06031394 -0.32202664 -0.42267346 0.60582715 0.22780898 -0.017689358 -0.17504817 0.2684414
-0.097999975 0.1327403 0.6384833 0.012352861 -0.23984124 -0.1698217 0.15943281 -0.079623416
0.059757937 -0.009627776 -0.21751231 0.006629038 0.36738294 -0.21542743 0.12618296 0.16667868
-0.030093776 -0.01757047 0.22347766 -0.34779558 -0.360276 -0.16891305 0.05380615 -0.011818659
0.08928109 0.073466346 -0.14290175 0.099678814 0.20204629 -0.2248132 0.053417567 -0.22077042
0.18067111 0.068900295 0.16770925 -0.23876072 0.35685286 -0.4706212 0.20996304 -0.0034695966
0.75068945 0.23679538 -0.2987045 -0.6831363 0.037784785 0.08386812 -0.4171836 -0.25520828
0.05958363 0.17928106 0.05995117 0.51139545 0.53497434 -0.029832622 -0.37359747 0.13755383
0.020812428 0.11368634 -0.05145025 -0.13145834 -0.014417052 -0.112189665 0.05175919 -0.074260674
0.07701782 0.072925985 -0.5697736 0.14449397 0.002639385 -0.5899519 0.3410925 -0.027121568
00000000: 4dbe 6fbd 9641 06be 7487 53be 4176 163e
00000010: ae58 b73c 1f39 fa3d d96c 3f3b d75b e93d
00000020: 1fd8 6bbd ae59 70bd 4a70 d13e bce4 50be
00000030: 0ac3 5fbe c895 cd3e 8c31 aebe 089d ac3c
00000040: c858 653d 9ce4 3fbd 4769 5f3d ddba f1bd
00000050: 6e78 0e3e 7f0d 0fbe 70a2 34bf a2f7 8a3e
00000060: ce4a aebc 5b97 c5bc 35da 2fbe be52 da3c
00000070: 8871 60be 94e9 9abe a063 a93e 5784 6ebe
00000080: 4c92 2e3e c96d 93be d2f5 473e ee63 a83e
00000090: e833 11be e51a b63d 36f9 503f e188 533c
000000a0: 5f30 a5bd 84ce 6f3e 7e69 9bbd c486 03bf
000000b0: 2fb3 9a3e c02a 21bd 13e0 02be 92d2 b5bf
000000c0: 3125 49bd 2d71 14bd 1952 953d 2740 13bd
000000d0: 73f8 763e ec37 e4bd f2be 8ebd a4b9 b2bd
000000e0: 08f0 6ebe 0ca1 f1bd 60d2 033f d2e6 33bf
000000f0: 7f43 96be 1d36 4c3e 478d 38bf 7725 a1bd
00000100: 8996 44bd 036d 593e 14bf afbc 73d3 9b3d
00000110: e5e7 f6bd 6e00 0f3e f8d8 943e c821 25bc
00000120: 104b 97bc 4ef3 7ebc 2a37 213d 274c bbbe
00000130: 1cd3 08be 3049 a63a 6db0 c83e 5c3a 353e
00000140: 5207 6d3e 25d6 c03a 1a52 9f3c e94e 833e
00000150: dfd9 b43e bd9d 85bd 3e75 4f3e 3027 ea3c
00000160: ffae f33e a8d5 f7bd 7507 29bf 3b53 7b3c
00000170: 5e4f 3fbf a3ac 96be e36c b8be bcd5 3ebe
00000180: 7f4b febb 025a 8ebc fb72 17bd 68ba 6b3b
00000190: 0790 043e a833 6f3d db7b 71be 8d03 0d3d
000001a0: 6c96 e3bd f4d3 343e a1ae 7cbe 11ae 923e
000001b0: 06f0 56bf 525a 1c3e 2c46 97be 251e c73c
000001c0: 6afb 0cbe 55ca a03c 2961 ce3c b441 48bd
000001d0: 4e0c 5c3e caf6 9e3c 3fd1 cdbc 407c 033e
000001e0: 61de fabc 856a 9c3d c872 24be 4e45 85bd
000001f0: 7658 85bc ee68 7bbe fba2 ae3d b186 643e
00000200: e88b 2c3e ee6b 9abe 866c 703e 1efd a0be
00000210: 9d86 4dbe 50ea c53e 8902 9fbe 8dc9 40bc
00000220: aedf cc3e d8d3 ecbe dc6b 5b3e c337 ad3e
00000230: 931c 79be 26c8 a3be 8602 b63c 5f84 273d
00000240: 6444 ca3b 2c0e d3bb ddee 41bb b456 823d
00000250: 5a9d 6d3d ec11 4d3e cf56 813d 387c 0cbe
00000260: e16f 4e3d a7db 273f 5f4e ae3e e215 7ebe
00000270: d66d b33e 6602 88be 4f92 f53d e6bf 73be
00000280: 8bc3 d63b be7e 40bd 3489 213d ea9e 843e
00000290: 4eb3 4ebe c635 8cbb ccb9 fabe 5ac6 2fbd
000002a0: c1b8 bb3d 6716 cbbe fb61 073e d638 6e3e
000002b0: 0a18 f9bd 65ed 37be 316c cfbe 125f 5cbe
000002c0: c00b 773d ade0 a4be a868 d8be 7d17 1b3f
000002d0: c246 693e 46e9 90bc d43f 33be 2771 893e
000002e0: 36b4 c8bd 13ed 073e a473 233f a863 4a3c
000002f0: f198 75be bde5 2dbe 5b42 233e 9a11 a3bd
00000300: bdc4 743d d2bd 1dbc 8cbb 5ebe 6738 d93b
00000310: 9e19 bc3e 0299 5cbe 1b36 013e d1ad 2a3e
00000320: 3987 f6bc f2ef 8fbc 54d7 643e 4312 b2be
00000330: 1976 b8be 8bf7 2cbe d663 5c3d 0ca3 41bc
00000340: 01d9 b63d 8675 963d d654 12be 6824 cc3d
00000350: 39e5 4e3e 6e35 66be 61cc 5a3d a411 62be
00000360: d901 393e 991b 8d3d f9bb 2b3e b17d 74be
00000370: 6bb5 b63e 43f5 f0be 8d00 573e 2c62 63bb
00000380: 2f2d 403f 7d7a 723e ccef 98be 05e2 2ebf
00000390: 38c4 1a3d 0dc3 ab3d 1799 d5be a9aa 82be
000003a0: f70d 743d 7495 373e 5c8f 753d d0ea 023f
000003b0: 14f4 083f 8b63 f4bc 2b48 bfbe e9da 0c3e
000003c0: d37e aa3c 62d4 e83d 7fbd 52bd 049d 06be
000003d0: 8035 6cbc b2c3 e5bd 7201 543d fb15 98bd
000003e0: 85bb 9d3d 385a 953d afdc 11bf 3af6 133e
000003f0: 88f9 2c3b 1607 17bf ada3 ae3e 0d2e debc

conv2.weight_mask f4 [16, 16, 3]
1.0 1.0 1.0 1.0 1.0 1.0 1.0 1.0
1.0 1.0 1.0 1.0 1.0 1.0 1.0 1.0
1.0 1.0 1.0 1.0 1.0 1.0 1.0 1.0
1.0 1.0 1.0 1.0 1.0 1.0 1.0 1.0
1.0 1.0 1.0 1.0 1.0 1.0 1.0 1.0
1.0 1.0 1.0 1.0 1.0 1.0 1.0 1.0
1.0 1.0 1.0 1.0 1.0 1.0 1.0 1.0
1.0 1.0 1.0 1.0 1.0 1.0 1.0 1.0
1.0 1.0 1.0 1.0 1.0 1.0 1.0 1.0
1.0 1.0 1.0 1.0 1.0 1.0 1.0 1.0
1.0 1.0 1.0 1.0 1.0 1.0 1.0 1.0
1.0 1.0 1.0 1.0 1.0 1.0 1.0 1.0
1.0 1.0 1.0 1.0 1.0 1.0 1.0 1.0
1.0 1.0 1.0 1.0 1.0 1.0 1.0 1.0
1.0 1.0 1.0 1.0 1.0 1.0 1.0 1.0
1.0 1.0 1.0 1.0 1.0 1.0 1.0 1.0
1.0 1.0 1.0 1.0 1.0 1.0 1.0 1.0
1.0 1.0 1.0 1.0 1.0 1.0 1.0 1.0
1.0 1.0 1.0 1.0 1.0 1.0 1.0 1.0
1.0 1.0 1.0 1.0 1.0 1.0 1.0 1.0
1.0 1.0 1.0 1.0 1.0 1.0 1.0 1.0
1.0 1.0 1.0 1.0 1.0 1.0 1.0 1.0
1.0 1.0 1.0 1.0 1.0 1.0 1.0 1.0
1.0 1.0 1.0 1.0 1.0 1.0 1.0 1.0
1.0 1.0 1.0 1.0 1.0 1.0 1.0 1.0
1.0 1.0 1.0 1.0 1.0 1.0 1.0 1.0
1.0 1.0 1.0 1.0 1.0 1.0 1.0 1.0
1.0 1.0 1.0 1.0 1.0 1.0 1.0 1.0
1.0 1.0 1.0 1.0 1.0 1.0 1.0 1.0
1.0 1.0 1.0 1.0 1.0 1.0 1.0 1.0
1.0 1.0 1.0 1.0 1.0 1.0 1.0 1.0
1.0 1.0 1.0 1.0 1.0 1.0 1.0 1.0
00000000: 0000 803f 0000 803f 0000 803f 0000 803f
00000010: 0000 803f 0000 803f 0000 803f 0000 803f
00000020: 0000 803f 0000 803f 0000 803f 0000 803f
00000030: 0000 803f 0000 803f 0000 803f 0000 803f
00000040: 0000 803f 0000 803f 0000 803f 0000 803f
00000050: 0000 803f 0000 803f 0000 803f 0000 803f
00000060: 0000 803f 0000 803f 0000 803f 0000 803f
00000070: 0000 803f 0000 803f 0000 803f 0000 803f
00000080: 0000 803f 0000 803f 0000 803f 0000 803f
00000090: 0000 803f 0000 803f 0000 803f 0000 803f
000000a0: 0000 803f 0000 803f 0000 803f 0000 803f
000000b0: 0000 803f 0000 803f 0000 803f 0000 803f
000000c0: 0000 803f 0000 803f 0000 803f 0000 803f
000000d0: 0000 803f 0000 803f 0000 803f 0000 803f
000000e0: 0000 803f 0000 803f 0000 803f 0000 803f
000000f0: 0000 803f 0000 803f 0000 803f 0000 803f
00000100: 0000 803f 0000 803f 0000 803f 0000 803f
00000110: 0000 803f 0000 803f 0000 803f 0000 803f
00000120: 0000 803f 0000 803f 0000 803f 0000 803f
00000130: 0000 803f 0000 803f 0000 803f 0000 803f
00000140: 0000 803f 0000 803f 0000 803f 0000 803f
00000150: 0000 803f 0000 803f 0000 803f 0000 803f
00000160: 0000 803f 0000 803f 0000 803f 0000 803f
00000170: 0000 803f 0000 803f 0000 803f 0000 803f
00000180: 0000 803f 0000 803f 0000 803f 0000 803f
00000190: 0000 803f 0000 803f 0000 803f 0000 803f
000001a0: 0000 803f 0000 803f 0000 803f 0000 803f
000001b0: 0000 803f 0000 803f 0000 803f 0000 803f
000001c0: 0000 803f 0000 803f 0000 803f 0000 803f
000001d0: 0000 803f 0000 803f 0000 803f 0000 803f
000001e0: 0000 803f 0000 803f 0000 803f 0000 803f
000001f0: 0000 803f 0000 803f 0000 803f 0000 803f
00000200: 0000 803f 0000 803f 0000 803f 0000 803f
00000210: 0000 803f 0000 803f 0000 803f 0000 803f
00000220: 0000 803f 0000 803f 0000 803f 0000 803f
00000230: 0000 803f 0000 803f 0000 803f 0000 803f
00000240: 0000 803f 0000 803f 0000 803f 0000 803f
00000250: 0000 803f 0000 803f 0000 803f 0000 803f
00000260: 0000 803f 0000 803f 0000 803f 0000 803f
00000270: 0000 803f 0000 803f 0000 803f 0000 803f
00000280: 0000 803f 0000 803f 0000 803f 0000 803f
00000290: 0000 803f 0000 803f 0000 803f 0000 803f
000002a0: 0000 803f 0000 803f 0000 803f 0000 803f
000002b0: 0000 803f 0000 803f 0000 803f 0000 803f
000002c0: 0000 803f 0000 803f 0000 803f 0000 803f
000002d0: 0000 803f 0000 803f 0000 803f 0000 803f
000002e0: 0000 803f 0000 803f 0000 803f 0000 803f
000002f0: 0000 803f 0000 803f 0000 803f 0000 803f
00000300: 0000 803f 0000 803f 0000 803f 0000 803f
00000310: 0000 803f 0000 803f 0000 803f 0000 803f
00000320: 0000 803f 0000 803f 0000 803f 0000 803f
00000330: 0000 803f 0000 803f 0000 803f 0000 803f
00000340: 0000 803f 0000 803f 0000 803f 0000 803f
00000350: 0000 803f 0000 803f 0000 803f 0000 803f
00000360: 0000 803f 0000 803f 0000 803f 0000 803f
00000370: 0000 803f 0000 803f 0000 803f 0000 803f
00000380: 0000 803f 0000 803f 0000 803f 0000 803f
00000390: 0000 803f 0000 803f 0000 803f 0000 803f
000003a0: 0000 803f 0000 803f 0000 803f 0000 803f
000003b0: 0000 803f 0000 803f 0000 803f 0000 803f
000003c0: 0000 803f 0000 803f 0000 803f 0000 803f
000003d0: 0000 803f 0000 803f 0000 803f 0000 803f
000003e0: 0000 803f 0000 803f 0000 803f 0000 803f
000003f0: 0000 803f 0000 803f 0000 803f 0000 803f

conv2._weight_quantizer._amax f4 [16, 1, 1]
1.4202324 0.74715436 0.836389 0.63737243 0.7405099 0.58704925 0.7596299 0.85894966
0.77623 1.0765224 1.0117756 0.6654556 0.82904613 0.84227306 0.7638529 1.0267259
00000000: 2dca b53f 8245 3f3f 971d 563f d72a 233f
00000010: 0f92 3d3f dc48 163f 1b77 423f 20e4 5b3f
00000020: 02b7 463f 7ccb 893f dd81 813f 4c5b 2a3f
00000030: 5e3c 543f 359f 573f dd8b 433f c16b 833f

bn2.weight f4 [16]
4.5862813 3.7097728 1.9717555 5.0116467 3.5879383 2.7982287 2.4342844 3.4823637
4.140454 2.3556747 4.286682 4.456151 4.774922 7.0892663 1.7676066 2.3731754
00000000: d1c2 9240 eb6c 6d40 7c62 fc3f 695f a040
00000010: c8a0 6540 2e16 3340 51cb 1b40 0cdf 5e40
00000020: 997e 8440 60c3 1640 802c 8940 ca98 8e40
00000030: 29cc 9840 45db e240 ef40 e23f 1be2 1740

bn2.bias f4 [16]
0.70277536 0.03818754 0.16903764 -0.93122876 -2.93684 -0.6245415 -0.19058459 -0.17652841
-1.7008637 1.1525348 -0.76190144 -1.0957212 -0.50235367 -2.8316123 -0.51724046 0.46157435
00000000: 16e9 333f 8a6a 1c3d 3418 2d3e 0265 6ebf
00000010: 30f5 3bc0 f4e1 1fbf 9b28 43be ddc3 34be
00000020: e7b5 d9bf 4386 933f f90b 43bf 9840 8cbf
00000030: 409a 00bf 2339 35c0 df69 04bf 7953 ec3e

bn2.running_mean f4 [16]
0.36244494 -1.9816161 0.66211593 2.8696082 1.7249373 -1.652267 -1.0987003 2.1687596
2.4754345 -1.6361185 -1.9486277 -0.49858278 1.560765 4.4164557 -0.880201 -1.4409833
00000000: 6292 b93e 99a5 fdbf 6e80 293f a9a7 3740
00000010: bfca dc3f 7c7d d3bf 36a2 8cbf f5cc 0a40
00000020: 856d 1e40 556c d1bf a26c f9bf 3e46 ffbe
00000030: 26c7 c73f 9b53 8d40 da54 61bf 2472 b8bf

bn2.running_var f4 [16]
0.052581243 0.039880462 0.02336533 0.07150667 0.029821197 0.021595225 0.030388145 0.05473556
0.043184675 0.1389809 0.06393633 0.061385285 0.072546154 0.08743435 0.028499084 0.010601467
00000000: 6e5f 573d b259 233d a668 bf3c 1772 923d
00000010: 954b f43c 78e8 b03c 8ff0 f83c 6532 603d
00000020: 6ae2 303d 0251 0e3e 0df1 823d 236f 7b3d
00000030: 1493 943d c810 b33d e976 e93c c7b1 2d3c

conv3.bias f4 [32]
-0.2766681 -0.03415499 -0.033962924 -0.23835965 0.07802992 -0.06975487 0.063037135 -0.040390175
-0.05166321 -0.05944291 0.04306957 -0.0072786435 -0.014056656 -0.33778217 -0.029344916 -0.026778515
0.086164825 -0.18507676 0.055303082 0.2064843 0.14958443 -0.26318818 -0.09663879 -0.11378339
-0.26073882 -0.09708647 -0.07728021 -0.08722663 -0.16244754 0.16080515 -0.19972406 -0.059814196
00000000: 71a7 8dbe 1ae6 0bbd b51c 0bbd 8d14 74be
00000010: 27ce 9f3d a4db 8ebd 9d19 813d 2b70 25bd
00000020: cd9c 53bd 697a 73bd b869 303d b081 eebb
00000030: e34d 66bc c9f1 acbe c064 f0bc 9e5e dbbc
00000040: 2f77 b03d c384 3dbe 7c85 623d 9f70 533e
00000050: a92c 193e 9ac0 86be 8fea c5bd 4407 e9bd
00000060: 8f7f 85be 45d5 c6bd 1645 9ebd e0a3 b2bd
00000070: a658 26be 1baa 243e 7784 4cbe bbff 74bd

conv3.weight_orig f4 [32, 16, 3]
-0.76678586 0.5181044 -0.35856697 0.28979555 -0.05561991 0.1793768 -0.010087077 0.07237934
0.2113851 -0.012602429 0.17490067 0.12247973 0.053037304 -0.18034773 0.25823906 -0.15616907
0.19902033 -0.021719564 -0.06659128 -0.34897226 0.11579393 0.19236766 -0.07908087 0.00013799057
0.39081165 0.35144603 0.15527613 -0.012665164 0.17237976 -0.05557205 -0.18163328 -0.15482345
-0.12729032 -0.032780487 -0.19917867 0.18023723 0.011749827 -0.07876886 -0.03497298 -0.052864715
-0.12577431 -0.44268778 0.13617046 -0.23061141 0.22141506 -0.05855918 0.0799464 -0.009019385
0.31740353 0.3727567 -0.54203445 -0.10498624 -0.20692311 -0.06459396 0.16485128 -0.022181166
-0.04587869 0.10417771 -0.2305721 -0.2506286 -0.046751197 0.027882865 0.3137152 0.08906674
-0.022436684 -0.26983494 -0.29330537 0.08211829 0.37136352 -0.01569198 -0.038064707 0.3137994
0.14146483 0.16452122 -0.052465566 0.10307118 0.13887154 -0.22428387 -0.16181792 -0.27088037
0.035900034 -0.02144292 0.22472034 0.38305137 0.1695712 -0.2689302 -0.17290126 0.04658803
0.092710406 -0.15390506 0.48061174 0.18090294 0.07894846 -0.17684053 -0.08657851 -0.08097162
-0.34310877 1.0653212 0.069240876 0.15124644 -0.013681932 -0.19721472 -0.078982845 -0.07981608
0.27217403 -0.24602875 -0.1356856 0.10741634 -0.07812236 0.0681284 -0.015325384 0.014293371
-0.17415652 0.24205266 0.104744084 0.046016578 0.11479072 0.010274519 -0.25064415 0.1413984
0.015929312 -0.13759933 -0.12367607 -0.27779183 -0.43192852 -0.38244417 0.07884418 0.07434873
-0.25094908 0.10993524 -0.13172786 -0.002337468 0.036523722 -0.14408079 0.04374222 -0.09443062
-0.046008725 0.16543233 -0.23921354 -0.1514951 0.52769154 -0.05617276 -0.17068876 0.0737105
0.5034216 0.63108325 -0.1370804 0.097485356 0.00051671785 -0.044976637 -0.14746878 -0.11106862
0.12798975 -0.083109595 -0.0938531 -0.11342585 -0.021536238 0.10170543 0.018388879 -0.2225642
-0.2916595 -0.018717626 0.17831117 -0.30783552 0.43691352 -0.11829595 0.21986403 0.053738076
0.1380861 0.10154246 0.049983554 -0.24490409 0.031500988 -0.21516445 -0.2855527 -0.22665271
-0.18131584 0.41129988 0.15400738 -0.18160485 0.11599059 0.09941399 -0.18424197 0.13674344
0.069703944 0.09418383 0.008618163 0.23584244 0.5359339 -0.2629337 0.14337444 0.0296811
0.4104001 0.49870542 -0.16763873 0.16896202 0.008760192 0.008767587 0.022140035 -0.035490602
0.17395861 0.35586077 -0.07263546 -0.20940539 0.05736883 -0.15535931 0.03299099 0.019828802
0.37476173 -0.07501342 -0.26735836 0.09071583 -0.08401358 -0.01525162 0.051444575 -0.043130435
0.19569713 -0.2564728 0.06262613 -0.3520111 -0.053679977 -0.09012568 -0.11867113 -0.15911096
-0.21666524 0.3589147 -0.21924046 0.46797726 -0.27346224 -0.08601791 -0.1315642 0.007058853
0.1714081 0.2900536 0.022524059 0.1325305 -0.26562768 -0.32185993 0.24085344 0.26633874
0.27615014 0.6594223 -0.0065248967 0.12548059 -0.24267031 -0.03899103 0.23481715 -0.051987458
-0.16309203 -0.012823103 0.09033187 -0.18414925 -0.2838415 -0.07337148 -0.023496533 -0.0641357
00000000: 144c 44bf 7da2 043f 1796 b7be 1560 943e
00000010: b4d1 63bd 8dae 373e 4444 25bc 9f3b 943d
00000020: 5675 583e 6b7a 4ebc 2919 333e a7d6 fa3d
00000030: a53d 593d 13ad 38be e937 843e c9ea 1fbe
00000040: fccb 4b3e 3aed b1bc 0261 88bd 7eac b2be
00000050: 5e25 ed3d 07fc 443e 27f5 a1bd 90b1 1039
00000060: 7718 c83e bcf0 b33e b500 1f3e 8c81 4fbc
00000070: 5284 303e 859f 63bd 13fe 39be 0a8a 1ebe
00000080: 6558 02be d544 06bd 7ef5 4bbe 1c90 383e
00000090: 5982 403c 9151 a1bd d43f 0fbd ac88 58bd
000000a0: fbca 00be f9a7 e2be 4570 0b3e 6625 6cbe
000000b0: a1ba 623e c0db 6fbd f0ba a33d 0bc6 13bc
000000c0: b782 a23e f7d9 be3e c5c2 0abf 0703 d7bd
000000d0: a7e3 53be d749 84bd c6ce 283e 47b5 b5bc
000000e0: 4beb 3bbd 205b d53d 181b 6cbe 6452 80be
000000f0: 2f7e 3fbd 9b6a e43c 479f a03e 9f68 b63d
00000100: 23cd b7bc ce27 8abe 1f2c 96be a22d a83d
00000110: 5c23 be3e 788c 80bc bde9 1bbd 51aa a03e
00000120: 28dc 103e 4078 283e 22e6 56bd fc16 d33d
00000130: 5734 0e3e acaa 65be 99b3 25be d5b0 8abe
00000140: ea0b 133d 10a9 afbc 171d 663e 4f1f c43e
00000150: 13a4 2d3e 38b1 89be 070d 31be 17d3 3e3d
00000160: f4de bd3d 4a99 1dbe be12 f63e 9f3e 393e
00000170: bbaf a13d af15 35be 1350 b1bd 73d4 a5bd
00000180: f4ab afbe 725c 883f 29ce 8d3d 59e0 1a3e
00000190: 2f2a 60bc a8f2 49be c2c1 a1bd 9d76 a3bd
000001a0: 655a 8b3e f6ee 7bbe 2af1 0abe 19fd db3d
000001b0: 9efe 9fbd e786 8b3d 5217 7bbc be2e 6a3c
000001c0: 1656 32be a7dc 773e 1184 d63d e17b 3c3d
000001d0: 6617 eb3d 7556 283c 6e54 80be beca 103e
000001e0: 307e 823c d7e6 0cbe e149 fdbd bb3a 8ebe
000001f0: bc25 ddbe b9cf c3be 0f79 a13d 2644 983d
00000200: 667c 80be ba25 e13d abe3 06be 3530 19bb
00000210: e699 153d ea89 13be 0b2b 333d d764 c1bd
00000220: a573 3cbd 1867 293e 65f4 74be 8821 1bbe
00000230: cb16 073f 6815 66bd 09c9 2ebe 88f5 963d
00000240: 3de0 003f ac8e 213f ce5e 0cbe 67a6 c73d
00000250: 5974 073a 6c39 38bd 0e02 17be f277 e3bd
00000260: bf0f 033e 5d35 aabd 0e36 c0bd d04b e8bd
00000270: c46c b0bc f04a d03d 46a4 963c dfe7 63be
00000280: 6554 95be b555 99bc 3497 363e 9e9c 9dbe
00000290: 21b3 df3e 2645 f2bd 0924 613e 751c 5c3d
000002a0: 7166 0d3e 7ef5 cf3d 8ebb 4c3d 23c8 7abe
000002b0: 2e07 013d 1254 5cbe f733 92be a617 68be
000002c0: dcaa 39be e695 d23e 1cb4 1d3e 9ff6 39be
000002d0: 798c ed3d 9099 cb3d eda9 3cbe 7906 0c3e
000002e0: f1c0 8e3d 74e3 c03d 3233 0d3c ae80 713e
000002f0: f732 093f 3f9f 86be c0d0 123e c725 f33c
00000300: f61f d23e 5156 ff3e 7da9 2bbe 6104 2d3e
00000310: e986 0f3c eda5 0f3c 055f b53c 985e 11bd
00000320: 3522 323e 6233 b63e e6c1 94bd 5e6e 56be
00000330: 94fb 6a3d 8316 1fbe 8f21 073d 0370 a23c
00000340: c5e0 bf3e a3a0 99bd 32e3 88be 39c9 b93d
00000350: 500f acbd eee1 79bc 8cb7 523d 8aa9 30bd
00000360: d464 483e 6750 83be 2142 803d cd3a b4be
00000370: 89df 5bbd d093 b8bd d909 f3bd fced 22be
00000380: 7edd 5dbe abc3 b73e 9280 60be b79a ef3e
00000390: 3e03 8cbe 282a b0bd c4b8 06be f34d e73b
000003a0: 9b85 2f3e e881 943e 6084 b83c 13b6 073e
000003b0: 5a00 88be d3ca a4be 49a2 763e 8d5d 883e
000003c0: 8d63 8d3e e6cf 283f cdce d5bb fc7d 003e
000003d0: 917e 78be 0fb5 1fbd e873 703e cdf0 54bd
000003e0: 9901 27be fe17 52bc eaff b83d 9f91 3cbe
000003f0: ac53 91be c943 96bd cd7b c0bc 9459 83bd

conv3.weight_mask f4 [32, 16, 3]
0.0 0.0 0.0 0.0 0.0 0.0 0.0 0.0
0.0 0.0 0.0 0.0 0.0 0.0 0.0 0.0
0.0 0.0 0.0 0.0 0.0 0.0 0.0 0.0
0.0 0.0 0.0 0.0 0.0 0.0 0.0 0.0
0.0 0.0 0.0 0.0 0.0 0.0 0.0 0.0
0.0 0.0 0.0 0.0 0.0 0.0 0.0 0.0
0.0 0.0 0.0 0.0 0.0 0.0 0.0 0.0
0.0 0.0 0.0 0.0 0.0 0.0 0.0 0.0
0.0 0.0 0.0 0.0 0.0 0.0 0.0 0.0
0.0 0.0 0.0 0.0 0.0 0.0 0.0 0.0
0.0 0.0 0.0 0.0 0.0 0.0 0.0 0.0
0.0 0.0 0.0 0.0 0.0 0.0 0.0 0.0
0.0 0.0 0.0 0.0 0.0 0.0 0.0 0.0
0.0 0.0 0.0 0.0 0.0 0.0 0.0 0.0
0.0 0.0 0.0 0.0 0.0 0.0 0.0 0.0
0.0 0.0 0.0 0.0 0.0 0.0 0.0 0.0
0.0 0.0 0.0 0.0 0.0 0.0 0.0 0.0
0.0 0.0 0.0 0.0 0.0 0.0 0.0 0.0
0.0 0.0 0.0 0.0 0.0 0.0 0.0 0.0
0.0 0.0 0.0 0.0 0.0 0.0 0.0 0.0
0.0 0.0 0.0 0.0 0.0 0.0 0.0 0.0
0.0 0.0 0.0 0.0 0.0 0.0 0.0 0.0
0.0 0.0 0.0 0.0 0.0 0.0 0.0 0.0
0.0 0.0 0.0 0.0 0.0 0.0 0.0 0.0
0.0 0.0 0.0 0.0 0.0 0.0 0.0 0.0
0.0 0.0 0.0 0.0 0.0 0.0 0.0 0.0
0.0 0.0 0.0 0.0 0.0 0.0 0.0 0.0
0.0 0.0 0.0 0.0 0.0 0.0 0.0 0.0
0.0 0.0 0.0 0.0 0.0 0.0 0.0 0.0
0.0 0.0 0.0 0.0 0.0 0.0 0.0 0.0
0.0 0.0 0.0 0.0 0.0 0.0 0.0 0.0
0.0 0.0 0.0 0.0 0.0 0.0 0.0 0.0
00000000: 0000 0000 0000 0000 0000 0000 0000 0000
00000010: 0000 0000 0000 0000 0000 0000 0000 0000
00000020: 0000 0000 0000 0000 0000 0000 0000 0000
00000030: 0000 0000 0000 0000 0000 0000 0000 0000
00000040: 0000 0000 0000 0000 0000 0000 0000 0000
00000050: 0000 0000 0000 0000 0000 0000 0000 0000
00000060: 0000 0000 0000 0000 0000 0000 0000 0000
00000070: 0000 0000 0000 0000 0000 0000 0000 0000
00000080: 0000 0000 0000 0000 0000 0000 0000 0000
00000090: 0000 0000 0000 0000 0000 0000 0000 0000
000000a0: 0000 0000 0000 0000 0000 0000 0000 0000
000000b0: 0000 0000 0000 0000 0000 0000 0000 0000
000000c0: 0000 0000 0000 0000 0000 0000 0000 0000
000000d0: 0000 0000 0000 0000 0000 0000 0000 0000
000000e0: 0000 0000 0000 0000 0000 0000 0000 0000
000000f0: 0000 0000 0000 0000 0000 0000 0000 0000
00000100: 0000 0000 0000 0000 0000 0000 0000 0000
00000110: 0000 0000 0000 0000 0000 0000 0000 0000
00000120: 0000 0000 0000 0000 0000 0000 0000 0000
00000130: 0000 0000 0000 0000 0000 0000 0000 0000
00000140: 0000 0000 0000 0000 0000 0000 0000 0000
00000150: 0000 0000 0000 0000 0000 0000 0000 0000
00000160: 0000 0000 0000 0000 0000 0000 0000 0000
00000170: 0000 0000 0000 0000 0000 0000 0000 0000
00000180: 0000 0000 0000 0000 0000 0000 0000 0000
00000190: 0000 0000 0000 0000 0000 0000 0000 0000
000001a0: 0000 0000 0000 0000 0000 0000 0000 0000
000001b0: 0000 0000 0000 0000 0000 0000 0000 0000
000001c0: 0000 0000 0000 0000 0000 0000 0000 0000
000001d0: 0000 0000 0000 0000 0000 0000 0000 0000
000001e0: 0000 0000 0000 0000 0000 0000 0000 0000
000001f0: 0000 0000 0000 0000 0000 0000 0000 0000
00000200: 0000 0000 0000 0000 0000 0000 0000 0000
00000210: 0000 0000 0000 0000 0000 0000 0000 0000
00000220: 0000 0000 0000 0000 0000 0000 0000 0000
00000230: 0000 0000 0000 0000 0000 0000 0000 0000
00000240: 0000 0000 0000 0000 0000 0000 0000 0000
00000250: 0000 0000 0000 0000 0000 0000 0000 0000
00000260: 0000 0000 0000 0000 0000 0000 0000 0000
00000270: 0000 0000 0000 0000 0000 0000 0000 0000
00000280: 0000 0000 0000 0000 0000 0000 0000 0000
00000290: 0000 0000 0000 0000 0000 0000 0000 0000
000002a0: 0000 0000 0000 0000 0000 0000 0000 0000
000002b0: 0000 0000 0000 0000 0000 0000 0000 0000
000002c0: 0000 0000 0000 0000 0000 0000 0000 0000
000002d0: 0000 0000 0000 0000 0000 0000 0000 0000
000002e0: 0000 0000 0000 0000 0000 0000 0000 0000
000002f0: 0000 0000 0000 0000 0000 0000 0000 0000
00000300: 0000 0000 0000 0000 0000 0000 0000 0000
00000310: 0000 0000 0000 0000 0000 0000 0000 0000
00000320: 0000 0000 0000 0000 0000 0000 0000 0000
00000330: 0000 0000 0000 0000 0000 0000 0000 0000
00000340: 0000 0000 0000 0000 0000 0000 0000 0000
00000350: 0000 0000 0000 0000 0000 0000 0000 0000
00000360: 0000 0000 0000 0000 0000 0000 0000 0000
00000370: 0000 0000 0000 0000 0000 0000 0000 0000
00000380: 0000 0000 0000 0000 0000 0000 0000 0000
00000390: 0000 0000 0000 0000 0000 0000 0000 0000
000003a0: 0000 0000 0000 0000 0000 0000 0000 0000
000003b0: 0000 0000 0000 0000 0000 0000 0000 0000
000003c0: 0000 0000 0000 0000 0000 0000 0000 0000
000003d0: 0000 0000 0000 0000 0000 0000 0000 0000
000003e0: 0000 0000 0000 0000 0000 0000 0000 0000
000003f0: 0000 0000 0000 0000 0000 0000 0000 0000

conv3._weight_quantizer._amax f4 [32, 1, 1]
0.76678586 0.54203445 1.0653212 0.63108325 0.49870542 0.6594223 0.75458837 0.63369274
0.8669567 1.0446391 0.59003127 0.7878872 1.0201106 0.55706686 0.61162204 0.5136102
0.48665854 0.5562335 0.73479354 0.9840229 0.41581395 0.593734 0.8157529 0.6983176
0.6615712 0.9222844 0.72444594 0.9000847 0.90226567 0.44905517 0.8630942 0.55627334
00000000: 144c 443f c5c2 0a3f 725c 883f ac8e 213f
00000010: 5156 ff3e e6cf 283f b42c 413f b039 223f
00000020: e0f0 5d3f bcb6 853f 4a0c 173f fab2 493f
00000030: fc92 823f ef9b 0e3f 4393 1c3f f57b 033f
00000040: 4f2b f93e 5265 0e3f 6e1b 3c3f ede8 7b3f
00000050: 91e5 d43e f4fe 173f 2fd5 503f f1c4 323f
00000060: bb5c 293f d51a 6c3f 4a75 393f f36b 663f
00000070: e2fa 663f 8fea e53e bef3 5c3f ee67 0e3f

bn3.weight f4 [32]
2.8386574 2.106444 3.8332222 4.5869637 2.376948 3.9569843 4.468327 3.2105286
2.0910735 3.566178 2.7963696 2.7247033 3.6285625 4.664414 4.566686 2.9262755
2.4702625 3.985207 2.7884853 3.058585 2.9370794 4.847005 3.826488 2.4237404
5.4922876 4.5746756 3.7557566 2.956553 3.4165392 2.9222918 3.2431145 2.9867826
00000000: 90ac 3540 facf 0640 8353 7540 68c8 9240
00000010: eb1f 1840 3b3f 7d40 89fc 8e40 4d79 4d40
00000020: 26d4 0540 433c 6440 b8f7 3240 8a61 2e40
00000030: 5e3a 6840 e142 9540 4b22 9240 1948 3b40
00000040: c818 1e40 a20d 7f40 8b76 3240 dbbf 4340
00000050: 1cf9 3b40 aa1a 9b40 2ee5 7440 901e 1b40
00000060: d2c0 af40 be63 9240 515e 7040 2a38 3d40
00000070: 94a8 5a40 d406 3b40 308f 4f40 7227 3f40

bn3.bias f4 [32]
-1.3572592e-05 -0.21615332 -0.18588462 -1.1474447 -0.34471366 -1.1659116 -1.4766294 -0.34324953
-0.43930468 -0.36910525 -0.14112796 -0.63173777 0.10816023 -1.5709767 -1.3747618 -0.63688076
0.18369836 -1.2020836 0.051594596 -0.77399135 -0.84879494 -1.4951612 -1.0435302 -0.31706285
-1.8431957 -1.1936455 -0.9786629 -0.27539334 -1.292085 0.26949808 -1.4949005 0.031275604
00000000: d7b5 63b7 4c57 5dbe 8a58 3ebe 78df 92bf
00000010: 4f7e b0be 973c 95bf 3102 bdbf 67be afbe
00000020: 8bec e0be 5dfb bcbe d983 10be 91b9 21bf
00000030: 1c83 dd3d c415 c9bf 32f8 afbf 9e0a 23bf
00000040: 6c1b 3c3e e0dd 99bf db54 533d 4c24 46bf
00000050: a04a 59bf 7161 bfbf 6692 85bf 1056 a2be
00000060: d6ed ebbf 60c9 98bf a789 7abf 5b00 8dbe
00000070: 0b63 a5bf a7fb 893e e658 bfbf d91a 003d

bn3.running_mean f4 [32]
-0.27666792 -0.034154963 -0.03396293 -0.23835956 0.07802994 -0.06975482 0.06303709 -0.04039018
-0.051663205 1.2326319 0.04306958 -0.0072786394 -1.0705259 -0.33778223 -0.029344916 -0.026778504
0.08616464 -0.18507674 0.055303074 0.2064842 0.14958432 -0.2631882 -0.09663873 -0.11378337
-0.26073864 -0.09708643 -0.077280164 -0.08722658 0.4007707 0.16080496 -0.19972397 -0.059814107
00000000: 6ba7 8dbe 13e6 0bbd b71c 0bbd 8714 74be
00000010: 29ce 9f3d 9ddb 8ebd 9719 813d 2c70 25bd
00000020: cc9c 53bd e2c6 9d3f ba69 303d a781 eebb
00000030: fe06 89bf cbf1 acbe c064 f0bc 985e dbbc
00000040: 1677 b03d c284 3dbe 7a85 623d 9870 533e
00000050: a22c 193e 9bc0 86be 87ea c5bd 4107 e9bd
00000060: 897f 85be 40d5 c6bd 1045 9ebd d9a3 b2bd
00000070: d131 cd3e 0eaa 243e 7184 4cbe a3ff 74bd

bn3.running_var f4 [32]
7.9951043e-16 5.135746e-17 1.3880576e-18 7.9951043e-16 6e-45 5.5521686e-17 5.5522302e-18 1.24923504e-17
1.8044594e-17 23.234074 6e-45 2.1688159e-19 13.196851 6e-45 4.5111486e-18 3.470144e-19
5.883387e-17 8.2171937e-16 3.400278e-17 2.2208674e-16 1.9987761e-16 3.2868775e-15 6e-45 8.050627e-16
6e-45 7.217838e-17 5.5521686e-17 4.9969402e-17 16.646494 1.5232613e-16 2.2208674e-16 1.0966718e-17
00000000: 7571 6626 30d8 6c24 55d7 cc21 7571 6626
00000010: 0400 0000 3806 8024 55d7 cc22 7571 6623
00000020: 986e a623 62df b941 0400 0000 3806 8020
00000030: 4d26 5341 0400 0000 986e a622 55d7 cc20
00000040: 63a9 8724 30d8 6c26 66cf 1c24 3806 8025
00000050: 7571 6625 30d8 6c27 0400 0000 240b 6826
00000060: 0400 0000 986e a624 3806 8024 7571 6624
00000070: 052c 8541 bd9e 2f25 3806 8025 dd4c 4a23

conv4.bias f4 [32]
-0.065374784 0.066370316 -0.07528116 0.10364587 -0.116726115 -0.044857547 -0.056487817 -0.12530988
-0.16358615 -0.09343819 -0.063309304 0.05269617 -0.18450224 0.019964287 0.010600035 0.01469189
-0.08855109 -0.13107395 -0.06610171 0.054211278 -0.11645795 -0.09482657 -0.07301911 0.098739356
0.12613246 -0.079009995 -0.14627108 -0.18541737 -0.06355741 -0.19255444 0.0033324838 -0.054740764
00000000: 37e3 85bd 29ed 873d 022d 9abd 4944 d43d
00000010: 1a0e efbd 8cbc 37bd c55f 67bd 3c51 00be
00000020: 2183 27be 865c bfbd 4fa8 81bd f0d7 573d
00000030: 28ee 3cbe 258c a33c c5ab 2d3c 41b6 703c
00000040: 465a b5bd 4038 06be 5560 87bd a50c 5e3d
00000050: 8181 eebd 6f34 c2bd 0b8b 95bd dc37 ca3d
00000060: de28 013e fecf a1bd 16c8 15be 0dde 3dbe
00000070: 632a 82bd fe2c 45be cd65 5a3b da37 60bd

conv4.weight_orig f4 [32, 32, 3]
0.2671201 -0.25508207 0.41167247 -0.22906779 0.1072237 0.046191704 0.18687761 -0.0379767
0.046615418 -0.04252572 0.119548835 -0.22254583 -0.03364017 0.28775975 -0.2416785 0.22302414
-0.0066738026 0.40488604 0.19711353 -0.027593201 0.0934473 0.16307108 -0.11455327 0.2800298
-0.17899339 0.37507048 -0.3395614 -0.30887446 -0.35923204 0.4306535 -0.0832871 0.14608595
-0.47067726 -0.11278201 0.103485174 0.087389 0.05395109 -0.14418283 0.15698557 0.17657466
-0.1603378 0.00738528 -0.3736885 -0.16727605 0.011366018 -0.2267034 0.11485882 -0.017512303
-0.011031884 0.2155479 -0.1887705 0.024385238 0.16833618 -0.20458248 -0.21663947 0.2219872
-0.47193372 -0.088238694 -0.04118473 -0.233728 0.14843546 -0.6475898 0.36586422 -0.0343569
0.2553292 -0.1590219 0.070340514 0.06233579 0.035756633 0.39437526 -0.4725098 0.30047974
0.16052756 -0.17572762 0.24370275 0.009251486 0.08989975 0.073910415 0.15442172 0.025161881
0.02754068 0.14127743 -0.18750928 0.026681848 -0.07286269 -0.13232054 -0.22802743 0.33105487
0.09340845 0.04110835 0.17486612 -0.03038103 0.18740249 -0.14105898 -0.2749522 -0.25495633
0.047991734 -0.11255301 -0.08576428 -0.0494316 -0.1738887 -0.21231616 -0.31121483 0.107702486
-0.15921488 0.021112543 0.12332251 -0.026313482 -0.20935097 0.1702619 -0.11327798 0.009188253
0.24493198 0.078968845 -0.18009675 0.15402852 0.007464478 0.2942975 0.4868274 0.48471102
0.20622283 -0.27409813 -0.17677747 0.12312229 -0.31206864 -0.29927406 0.19141406 0.07143678
0.18115576 -0.20322664 -0.020409886 0.05638298 0.0050170654 -0.14437203 0.059106782 -0.10689653
-0.20864314 -0.23816597 0.29761744 0.024939716 0.22182412 0.28825864 -0.120543934 0.34630758
-0.32785344 0.11950448 -0.11194516 0.05396126 -0.22456941 0.07559881 -0.15567532 0.3206159
0.025344526 -0.05714261 0.16675632 0.24456951 0.12281355 0.020422071 0.1912988 -0.09594325
0.02378132 -0.11169591 -0.011012021 -0.15697592 0.103139095 -0.026314216 0.39138663 0.0058920733
0.04393476 0.07420118 -0.15642826 -0.16107298 0.039336074 -0.30616418 -0.09510135 -0.13537705
-0.13157532 -0.07695733 -0.22505905 0.08818098 0.04625058 0.26106372 0.1949519 0.47538945
-0.39720812 0.294343 -0.2122116 0.074227616 -0.32335418 -0.39275512 0.33826938 -0.24351008
0.24109063 0.19906831 -0.13018255 -0.027559215 0.19886217 0.051021356 -0.056055106 0.17600456
0.06900597 0.12710203 -0.19943866 -0.18534102 0.06362625 -0.004202087 0.29811114 0.027591666
-0.053771246 -0.16089296 -0.30695373 -0.1539982 0.030758621 -0.120023325 -0.6029047 0.45821622
-0.1082184 -0.04568168 -0.08521048 0.14095135 0.026228603 -0.28502944 -0.37717873 -0.5986946
0.29514548 0.063773766 -0.2512877 0.02528837 0.3551674 -0.1153679 -0.1728421 0.2064519
0.04518885 -0.2277282 -0.066020735 0.14523086 -0.09350606 -0.17221431 0.36232302 0.28875658
-0.14870735 0.048316784 -0.038719114 -0.25821328 -0.056711026 0.08170401 -0.017877059 -0.17199172
0.31630436 -0.057567943 -0.16758445 -0.17551501 0.17205074 -0.22289366 -0.04080681 0.08716294
00000000: f7c3 883e 1e9a 82be bcc6 d23e bf90 6abe
00000010: 1998 db3d 8333 3d3d d85c 3f3e 758d 1bbd
00000020: cfef 3e3d 732f 2ebd 05d6 f43d 0ee3 63be
00000030: 46ca 09bd 3f55 933e 927a 77be 7160 643e
00000040: eaaf dabb 394d cf3e 21d8 493e 230b e2bc
00000050: 4c61 bf3d 1bfc 263e e89a eabd 1160 8f3e
00000060: 0b4a 37be 3d09 c03e feda adbe cb24 9ebe
00000070: 43ed b7be 9e7e dc3e 6d92 aabd 8e97 153e
00000080: 9cfc f0be 41fa e6bd 09f0 d33d 01f9 b23d
00000090: d1fb 5c3d aaa4 13be d3c0 203e fdcf 343e
000000a0: 982f 24be 3800 f23b 1954 bfbe 6a4a 2bbe
000000b0: 8938 3a3c f024 68be 1a3b eb3d f675 8fbc
000000c0: 13bf 34bc 97b8 5c3e 0e4d 41be 8dc3 c73c
000000d0: 5260 2c3e 127e 51be bdd6 5dbe 9d50 633e
000000e0: 4ca1 f1be 7db6 b4bd 52b1 28bd 6556 6fbe
000000f0: 77ff 173e 72c8 25bf 8e52 bb3e d2b9 0cbd
00000100: 82ba 823e a3d6 22be b00e 903d d053 7f3d
00000110: 8c75 123d 8eeb c93e ceec f1be 7bd8 993e
00000120: 5661 243e f1f1 33be 378d 793e 8b93 173c
00000130: 5c1d b83d 585e 973d ba20 1e3e 4a20 ce3c
00000140: fe9c e13c 08ab 103e 6f02 40be e493 da3c
00000150: 0939 95bd 097f 07be 0680 69be 0680 a93e
00000160: ee4c bf3d 3b61 283d 1b10 333e a3e1 f8bc
00000170: 70e6 3f3e c471 10be 89c6 8cbe a389 82be
00000180: fb92 443d 3182 e6bd 2fa5 afbd ca78 4abd
00000190: e10f 32be 6869 59be 8d57 9fbe 1f93 dc3d
000001a0: 3a09 23be 36f4 ac3c 8390 fc3d 5f8f d7bc
000001b0: 1a60 56be 2359 2e3e 49fe e7bd 548a 163c
000001c0: 73cf 7a3e 6bba a13d 486b 38be a7b9 1d3e
000001d0: 9498 f43b 29ae 963e 7141 f93e 0b2c f83e
000001e0: 142c 533e 9756 8cbe 2705 35be 8a27 fc3d
000001f0: 76c7 9fbe 733a 99be 0c02 443e 724d 923d
00000200: e580 393e a51a 50be a232 a7bc d7f1 663d
00000210: 3266 a43b 43d6 13be f419 723d 91ec dabd
00000220: 8ca6 55be c8e1 73be 5061 983e 604e cc3c
00000230: dd25 633e a396 933e bddf f6bd 3a4f b13e
00000240: 68dc a7be c4be f43d 8143 e5bd 7b06 5d3d
00000250: 86f5 65be 8dd3 9a3d 5a69 1fbe c427 a43e
00000260: 539f cf3c 5f0e 6abd 2bc2 2a3e 6e70 7a3e
00000270: ac85 fb3d 304c a73c d5e3 433e e57d c4bd
00000280: 0bd1 c23c d3c0 e4bd c46b 34bc 4cbe 20be
00000290: 973a d33d e990 d7bc d463 c83e 4b12 c13b
000002a0: eff4 333d caf6 973d bb2e 20be 51f0 24be
000002b0: dd1e 213d 8dc1 9cbe 7fc4 c2bd 48a0 0abe
000002c0: aebb 06be ce9b 9dbd e175 66be 3b98 b43d
000002d0: 4071 3d3d 25aa 853e 79a1 473e 3f66 f33e
000002e0: dd5e cbbe 20b4 963e ff4d 59be a604 983d
000002f0: ae8e a5be 3317 c9be a531 ad3e b55a 79be
00000300: 76e0 763e 90d8 4b3e 934e 05be ddc3 e1bc
00000310: 86a2 4b3e c5fb 503d 0a9a 65bd 8a3a 343e
00000320: 0153 8d3d 0927 023e a639 4cbe 09ca 3dbe
00000330: 7b4e 823d a9b1 89bb 06a2 983e eb07 e23c
00000340: 3d3f 5cbd 20c1 24be 0a29 9dbe b4b1 1dbe
00000350: 81f9 fb3c cace f5bd f657 1abf 519b ea3e
00000360: 9ca1 ddbd b71c 3bbd d582 aebd 8d55 103e
00000370: 5edd d63c 61ef 91be 921d c1be 0d44 19bf
00000380: 4f1d 973e d29b 823d c8a8 80be 8e29 cf3c
00000390: 80d8 b53e 0146 ecbd 85fd 30be 2068 533e
000003a0: f217 393d 9531 69be e135 87bd 66b7 143e
000003b0: 1b80 bfbd f358 30be 6782 b93e e7d7 933e
000003c0: bd46 18be d2e7 453d ef97 1ebd 8834 84be
000003d0: d249 68bd 6f54 a73d e972 92bc 991e 30be
000003e0: a5f2 a13e 5dcc 6bbd 429b 2bbe 35ba 33be
000003f0: 122e 303e 3c3e 64be 0b25 27bd 7c82 b23d

conv4.weight_mask f4 [32, 32, 3]
1.0 1.0 1.0 1.0 1.0 1.0 1.0 1.0
1.0 1.0 1.0 1.0 1.0 1.0 1.0 1.0
1.0 1.0 1.0 1.0 1.0 1.0 1.0 1.0
1.0 1.0 1.0 1.0 1.0 1.0 1.0 1.0
1.0 1.0 1.0 1.0 1.0 1.0 1.0 1.0
1.0 1.0 1.0 1.0 1.0 1.0 1.0 1.0
1.0 1.0 1.0 1.0 1.0 1.0 1.0 1.0
1.0 1.0 1.0 1.0 1.0 1.0 1.0 1.0
1.0 1.0 1.0 1.0 1.0 1.0 1.0 1.0
1.0 1.0 1.0 1.0 1.0 1.0 1.0 1.0
1.0 1.0 1.0 1.0 1.0 1.0 1.0 1.0
1.0 1.0 1.0 1.0 1.0 1.0 1.0 1.0
1.0 1.0 1.0 1.0 1.0 1.0 1.0 1.0
1.0 1.0 1.0 1.0 1.0 1.0 1.0 1.0
1.0 1.0 1.0 1.0 1.0 1.0 1.0 1.0
1.0 1.0 1.0 1.0 1.0 1.0 1.0 1.0
1.0 1.0 1.0 1.0 1.0 1.0 1.0 1.0
1.0 1.0 1.0 1.0 1.0 1.0 1.0 1.0
1.0 1.0 1.0 1.0 1.0 1.0 1.0 1.0
1.0 1.0 1.0 1.0 1.0 1.0 1.0 1.0
1.0 1.0 1.0 1.0 1.0 1.0 1.0 1.0
1.0 1.0 1.0 1.0 1.0 1.0 1.0 1.0
1.0 1.0 1.0 1.0 1.0 1.0 1.0 1.0
1.0 1.0 1.0 1.0 1.0 1.0 1.0 1.0
1.0 1.0 1.0 1.0 1.0 1.0 1.0 1.0
1.0 1.0 1.0 1.0 1.0 1.0 1.0 1.0
1.0 1.0 1.0 1.0 1.0 1.0 1.0 1.0
1.0 1.0 1.0 1.0 1.0 1.0 1.0 1.0
1.0 1.0 1.0 1.0 1.0 1.0 1.0 1.0
1.0 1.0 1.0 1.0 1.0 1.0 1.0 1.0
1.0 1.0 1.0 1.0 1.0 1.0 1.0 1.0
1.0 1.0 1.0 1.0 1.0 1.0 1.0 1.0
00000000: 0000 803f 0000 803f 0000 803f 0000 803f
00000010: 0000 803f 0000 803f 0000 803f 0000 803f
00000020: 0000 803f 0000 803f 0000 803f 0000 803f
00000030: 0000 803f 0000 803f 0000 803f 0000 803f
00000040: 0000 803f 0000 803f 0000 803f 0000 803f
00000050: 0000 803f 0000 803f 0000 803f 0000 803f
00000060: 0000 803f 0000 803f 0000 803f 0000 803f
00000070: 0000 803f 0000 803f 0000 803f 0000 803f
00000080: 0000 803f 0000 803f 0000 803f 0000 803f
00000090: 0000 803f 0000 803f 0000 803f 0000 803f
000000a0: 0000 803f 0000 803f 0000 803f 0000 803f
000000b0: 0000 803f 0000 803f 0000 803f 0000 803f
000000c0: 0000 803f 0000 803f 0000 803f 0000 803f
000000d0: 0000 803f 0000 803f 0000 803f 0000 803f
000000e0: 0000 803f 0000 803f 0000 803f 0000 803f
000000f0: 0000 803f 0000 803f 0000 803f 0000 803f
00000100: 0000 803f 0000 803f 0000 803f 0000 803f
00000110: 0000 803f 0000 803f 0000 803f 0000 803f
00000120: 0000 803f 0000 803f 0000 803f 0000 803f
00000130: 0000 803f 0000 803f 0000 803f 0000 803f
00000140: 0000 803f 0000 803f 0000 803f 0000 803f
00000150: 0000 803f 0000 803f 0000 803f 0000 803f
00000160: 0000 803f 0000 803f 0000 803f 0000 803f
00000170: 0000 803f 0000 803f 0000 803f 0000 803f
00000180: 0000 803f 0000 803f 0000 803f 0000 803f
00000190: 0000 803f 0000 803f 0000 803f 0000 803f
000001a0: 0000 803f 0000 803f 0000 803f 0000 803f
000001b0: 0000 803f 0000 803f 0000 803f 0000 803f
000001c0: 0000 803f 0000 803f 0000 803f 0000 803f
000001d0: 0000 803f 0000 803f 0000 803f 0000 803f
000001e0: 0000 803f 0000 803f 0000 803f 0000 803f
000001f0: 0000 803f 0000 803f 0000 803f 0000 803f
00000200: 0000 803f 0000 803f 0000 803f 0000 803f
00000210: 0000 803f 0000 803f 0000 803f 0000 803f
00000220: 0000 803f 0000 803f 0000 803f 0000 803f
00000230: 0000 803f 0000 803f 0000 803f 0000 803f
00000240: 0000 803f 0000 803f 0000 803f 0000 803f
00000250: 0000 803f 0000 803f 0000 803f 0000 803f
00000260: 0000 803f 0000 803f 0000 803f 0000 803f
00000270: 0000 803f 0000 803f 0000 803f 0000 803f
00000280: 0000 803f 0000 803f 0000 803f 0000 803f
00000290: 0000 803f 0000 803f 0000 803f 0000 803f
000002a0: 0000 803f 0000 803f 0000 803f 0000 803f
000002b0: 0000 803f 0000 803f 0000 803f 0000 803f
000002c0: 0000 803f 0000 803f 0000 803f 0000 803f
000002d0: 0000 803f 0000 803f 0000 803f 0000 803f
000002e0: 0000 803f 0000 803f 0000 803f 0000 803f
000002f0: 0000 803f 0000 803f 0000 803f 0000 803f
00000300: 0000 803f 0000 803f 0000 803f 0000 803f
00000310: 0000 803f 0000 803f 0000 803f 0000 803f
00000320: 0000 803f 0000 803f 0000 803f 0000 803f
00000330: 0000 803f 0000 803f 0000 803f 0000 803f
00000340: 0000 803f 0000 803f 0000 803f 0000 803f
00000350: 0000 803f 0000 803f 0000 803f 0000 803f
00000360: 0000 803f 0000 803f 0000 803f 0000 803f
00000370: 0000 803f 0000 803f 0000 803f 0000 803f
00000380: 0000 803f 0000 803f 0000 803f 0000 803f
00000390: 0000 803f 0000 803f 0000 803f 0000 803f
000003a0: 0000 803f 0000 803f 0000 803f 0000 803f
000003b0: 0000 803f 0000 803f 0000 803f 0000 803f
000003c0: 0000 803f 0000 803f 0000 803f 0000 803f
000003d0: 0000 803f 0000 803f 0000 803f 0000 803f
000003e0: 0000 803f 0000 803f 0000 803f 0000 803f
000003f0: 0000 803f 0000 803f 0000 803f 0000 803f

conv4._weight_quantizer._amax f4 [32, 1, 1]
0.6475898 0.4868274 0.6029047 0.5162941 0.8399688 0.58798903 0.53712296 0.57455015
0.62192523 0.48972926 0.80262583 0.5058324 0.6178008 0.6521121 0.6535997 0.5734581
0.69218385 0.64126766 0.6048695 0.52402055 0.7618019 0.63093925 0.49477634 0.5226009
0.59557647 0.49021265 0.5862106 0.6583646 0.47372937 0.7624187 0.80588555 0.52366203
00000000: 72c8 253f 7141 f93e f657 1a3f da2b 043f
00000010: 3208 573f 7386 163f e480 093f b815 133f
00000020: 7e36 1f3f cbbd fa3e e378 4d3f 3b7e 013f
00000030: 3128 1e3f d2f0 263f 4f52 273f 26ce 123f
00000040: f632 313f 1e2a 243f bad8 1a3f 3626 063f
00000050: 7305 433f 3c85 213f 5353 fd3e 2cc9 053f
00000060: b377 183f 27fd fa3e e611 163f 958a 283f
00000070: a88c f23e df2d 433f 844e 4e3f b70e 063f

bn4.weight f4 [32]
3.3820796 3.1577632 3.735515 4.1684093 3.3491411 3.012654 3.0675507 3.9945233
3.8226051 4.2118506 2.9848192 3.5875347 3.9006155 3.6653116 3.5164225 3.8677027
4.1940536 3.7787912 3.6021469 3.825069 3.5080762 2.2587059 4.514822 3.5590415
3.8134325 3.6784089 2.7769032 3.0226772 4.0241866 3.2048855 3.505483 3.9568148
00000000: fe73 5840 cb18 4a40 ae12 6f40 9c63 8540
00000010: 5458 5640 53cf 4040 c052 4440 45a6 7f40
00000020: 90a5 7440 7bc7 8640 4707 3f40 2b9a 6540
00000030: afa3 7940 7794 6a40 110d 6140 7188 7740
00000040: b035 8640 b7d7 7140 9389 6640 eecd 7440
00000050: 5284 6040 a38e 1040 6c79 9040 56c7 6340
00000060: 470f 7440 0d6b 6b40 c8b8 3140 8b73 4140
00000070: 23c6 8040 d81c 4d40 d559 6040 743c 7d40

bn4.bias f4 [32]
-0.46441552 0.6615796 -0.036836132 -0.5319013 -0.15958747 -0.5682762 -0.05605109 0.2423854
-0.48812088 -0.3743458 -0.14666073 -0.47093076 -0.37237325 -0.32218894 -0.006119992 -0.6787977
0.17396234 -0.4010504 -0.6827935 -0.5381871 0.02009289 0.4603763 -0.8904794 -0.53988767
-0.6865946 -0.2815224 0.24221945 -0.32918292 -0.78613335 -0.43423882 -0.22301891 -0.64367014
00000000: dfc7 edbe 485d 293f 7ce1 16bd af2a 08bf
00000010: e66a 23be 8d7a 11bf d495 65bd e133 783e
00000020: fbea f9be 41aa bfbe 3b2e 16be d61d f1be
00000030: b5a7 bebe f3f5 a4be 378a c8bb b0c5 2dbf
00000040: 2f23 323e 7a56 cdbe 8ecb 2ebf a1c6 09bf
00000050: d899 a43c 71b6 eb3e 75f6 63bf 1436 0abf
00000060: aac4 2fbf b423 90be 6008 783e aa8a a8be
00000070: 0940 49bf 8d54 debe 125f 64be 91c7 24bf

bn4.running_mean f4 [32]
-0.22075807 -0.13074987 0.24842887 0.32177034 0.378617 -0.3331491 0.07909147 0.6669829
0.007085334 -0.7075329 0.6388188 -0.0029859818 0.20209014 0.7394515 0.59707683 -0.2790491
0.3992595 -0.9768965 0.21487506 0.45624694 -0.06921134 -0.54414344 -0.45049906 0.6356174
0.2815638 0.6617708 -0.61819917 1.231714 -0.70555824 -0.10395728 0.8461816 0.8297552
00000000: 670e 62be 4be3 05be 2364 7e3e 15bf a43e
00000010: 16da c13e 8592 aabe b5fa a13d 64bf 2a3f
00000020: 172c e83b e020 35bf a189 233f 76b0 43bb
00000030: b8f0 4e3e b24c 3d3f 07da 183f 86df 8ebe
00000040: be6b cc3e e415 7abf 3508 5c3e 3399 e93e
00000050: adbe 8dbd fc4c 0bbf d0a7 e6be d2b7 223f
00000060: 2129 903e d069 293f 4d42 1ebf cea8 9d3f
00000070: 779f 34bf 8ee7 d4bd 5b9f 583f d66a 543f

bn4.running_var f4 [32]
2.9308834 0.9252789 0.6795256 1.4727384 1.293982 1.5038311 1.6035069 2.7656531
0.79525256 2.3494997 1.0620325 1.1805304 0.96982485 2.5262291 1.1439523 1.7931263
2.6846154 1.8107493 1.0897256 0.7768565 0.86808044 0.7369481 1.4698441 3.5999057
3.1012757 1.4602956 1.6968518 1.1727983 1.5009718 0.81762034 2.7271688 1.6165313
00000000: 9893 3b40 14df 6c3f 64f5 2d3f b182 bc3f
00000010: 34a1 a53f 8a7d c03f b73f cd3f 7600 3140
00000020: ac95 4b3f 345e 1640 aef0 873f 9f1b 973f
00000030: 7146 783f bdad 2140 076d 923f 2a85 e53f
00000040: bdd0 2b40 a2c6 e73f 217c 8b3f 11e0 463f
00000050: 853a 5e3f a1a8 3c3f da23 bc3f db64 6640
00000060: 4d7b 4640 f7ea ba3f 7132 d93f 411e 963f
00000070: d81f c03f 914f 513f ef89 2e40 7fea ce3f

conv5.bias f4 [5]
-0.41897702 -0.15443893 0.090905644 0.39721304 -0.09783591
00000000: 2884 d6be 3d25 1ebe bd2c ba3d 825f cb3e
00000010: 325e c8bd
