networks/quantized_models/itcnetaudio5/model.onnx (onnx, 35918 bytes, 26 tensors)

conv1.bias f4 [16]
0	0x3ee2b265	0.4427673
1	0xbee4eb9d	-0.4471101
2	0xbe9e5190	-0.30921602
3	0x3db78d69	0.08962519
4	0x3eb62247	0.35573027
5	0xbf159c73	-0.5844185
6	0xbea85d23	-0.32883558
7	0xbe90253c	-0.28153408
8	0x3f3442bd	0.70414335
9	0xbc069934	-0.008215237
10	0x3f32ed41	0.6989327
11	0xbe88269d	-0.2659196
12	0xbd81023d	-0.06299255
13	0xbe8e6bbf	-0.2781658
14	0xbf009cf0	-0.5023947
15	0x3e190e97	0.14946972

conv1.weight f4 [16, 1, 3]
0	0x3edd04d3	0.43167743
1	0x3e424b7d	0.18974109
2	0x3edc9dac	0.43089044
3	0x3ea49a2e	0.3214888
4	0x3f1f1634	0.62143254
5	0x3e5a6369	0.21326984
6	0x3d672a70	0.056436956
7	0x3e3e65df	0.18593548
8	0x3f39207d	0.723152
9	0xbefcdb93	-0.49386272
10	0xbf2309fe	-0.6368712
11	0xbecb1906	-0.3966753
12	0xbf9af9c6	-1.2107475
13	0xbe8016ab	-0.25017294
14	0xbc1f973e	-0.009740649
15	0xbe4d757d	-0.2006435
16	0x3f193d07	0.59858745
17	0x3eea99de	0.45820516
18	0x3f07b933	0.53016967
19	0xbe20c470	-0.15699935
20	0x3f11b2b9	0.56913334
21	0xbebad982	-0.3649407
22	0xbf539771	-0.82652956
23	0x3e495e8d	0.19664975
24	0xbf1347a2	-0.5753118
25	0x3e7352b6	0.2376202
26	0xbd28ef02	-0.04124356
27	0x3d912354	0.070868164
28	0x3d2e9e0e	0.0426312
29	0xbf5fcf9c	-0.8742616
30	0x3cd48e8e	0.025946882
31	0xc00e4712	-2.2230878
32	0xbda3265b	-0.079663
33	0xc040d75d	-3.0131447
34	0x3c53978a	0.012914548
35	0xbc87bb0b	-0.016568681
36	0xbecaf4b9	-0.39639834
37	0xbf94e10d	-1.163118
38	0xbbef5a2a	-0.0073044496
39	0xbf4b0883	-0.7930986
40	0xbf634eb7	-0.88791984
41	0x3cac027b	0.020997277
42	0xbd356ff8	-0.044296235
43	0xbc61f279	-0.01379072
44	0xbfacf023	-1.3510784
45	0x3ec764c7	0.38944075
46	0xbf2781e5	-0.6543258
47	0xbf7ccdfe	-0.9875182

bn1.weight f4 [16]
0	0x3e93823e	0.28810304
1	0x3e57ddcf	0.21080707
2	0x3e8b6232	0.27223355
3	0x40093943	2.14412
4	0x3fe3aaca	1.7786496
5	0x3e87545b	0.26431546
6	0x3dd2893f	0.10280084
7	0x3f43eef2	0.76536477
8	0x3eca094e	0.39460224
9	0x3faf5ef8	1.3700857
10	0x3fcaa25d	1.5830799
11	0x3ff5c93b	1.9202036
12	0x3fd938a6	1.6970413
13	0x3fe6c0cc	1.8027587
14	0x3feb9ddf	1.8407553
15	0x3fd223ac	1.6417136

bn1.bias f4 [16]
0	0xbf133f6f	-0.57518667
1	0x3d4e9ecd	0.050444413
2	0xbef8242e	-0.48465103
3	0xbdb0ddc3	-0.08636048
4	0xbe07a181	-0.13245203
5	0xbedc13d5	-0.4298388
6	0x3db0eaf7	0.08638566
7	0xbb60a19a	-0.003427601
8	0x3dd17f21	0.10229326
9	0xbf26b425	-0.6511863
10	0xbea4b487	-0.3216898
11	0xbe9c7e54	-0.3056513
12	0xbdcc7834	-0.099838644
13	0xbeae0d2a	-0.33994418
14	0xbe51936a	-0.2046639
15	0xbf86bd14	-1.0526452

bn1.running_mean f4 [16]
0	0x3f0ac6fb	0.5420987
1	0xbeacf917	-0.3378379
2	0xbe5f5305	-0.21809013
3	0xbd5fae38	-0.054609507
4	0x3e5f2eaf	0.21795152
5	0xbf00f45c	-0.5037286
6	0xbe756f1d	-0.23968168
7	0xbec04639	-0.37553576
8	0x3f2b0576	0.6680521
9	0xbda3b46a	-0.079933956
10	0x3ef78fe7	0.48351976
11	0xbf0d5274	-0.5520394
12	0xbe573055	-0.21014531
13	0xbededd19	-0.4352806
14	0xbf229a45	-0.63516647
15	0x3cfd43ce	0.03091612

bn1.running_var f4 [16]
0	0x3d40c398	0.047061533
1	0x3d6cc825	0.05780806
2	0x3d318673	0.04334111
3	0x3dc9d8b2	0.098557845
4	0x3dd36547	0.103220515
5	0x3d172675	0.03690191
6	0x3d2f3bbe	0.042781584
7	0x3d4ee6cc	0.050513074
8	0x3c3fb14d	0.011699987
9	0x3d0ae9d4	0.033914402
10	0x3e8b904c	0.27258527
11	0x3ef93adc	0.4867772
12	0x3de93320	0.113867044
13	0x3dffb20a	0.1248513
14	0x3dd23579	0.10264105
15	0x3dabb101	0.0838337

conv2.bias f4 [16]
0	0x3d20281a	0.039100744
1	0xbfc17a87	-1.5115517
2	0x3f6cd40b	0.9251105
3	0x4012fcaf	2.2966726
4	0x3fdc9bad	1.7235008
5	0xbfd3d5d0	-1.6549625
6	0xbf274f71	-0.6535559
7	0x401d9bbe	2.4626307
8	0x40068c51	2.1023142
9	0xbf8454b9	-1.0338355
10	0xc01f45bb	-2.488631
11	0xbf52828d	-0.82230455
12	0x3f95d166	1.1704528
13	0x406bc2fa	3.6837754
14	0xbf03d510	-0.5149698
15	0xbf9e46b2	-1.2365324

conv2.weight f4 [16, 16, 3]
0	0xbda2bfc6	-0.07946734
1	0xbe0c95d4	-0.1372903
2	0xbe4f86eb	-0.20266311
3	0x3e0037e4	0.1252132
4	0x3c9f7af8	0.019467816
5	0x3df8d007	0.12149053
6	0x3b86f904	0.0041190404
7	0x3de52f5e	0.11190675
8	0xbd812215	-0.06305329
9	0xbd8c8a39	-0.068623014
10	0x3ed1932c	0.40932596
11	0xbe586c28	-0.21135008
12	0xbe611a77	-0.21982752
13	0x3ed12df0	0.4085536
14	0xbeb74c70	-0.35800505
15	0x3b620292	0.0034486395
16	0x3d5e8e7e	0.05433511
17	0xbd0f4cb6	-0.034985267
18	0x3d42d44f	0.047565755
19	0xbdf92d85	-0.12166885
20	0x3e0cad38	0.13737953
21	0xbe08468b	-0.1330816
22	0xbf3561e4	-0.70852494
23	0x3e8de39c	0.27712715
24	0xbc41a423	-0.011818918
25	0xbcc55ff0	-0.024093598
26	0xbe287fb8	-0.16454971
27	0x3d33a996	0.0438629
28	0xbe5c027b	-0.21485321
29	0xbe98e729	-0.2986386
30	0x3eb1c663	0.3472167
31	0xbe71d8b2	-0.23617819
32	0x3e290e94	0.16509467
33	0xbe931775	-0.28728834
34	0x3e4bbcaf	0.19896196
35	0x3ea81751	0.3283029
36	0xbe13b5fc	-0.1442489
37	0x3db4b988	0.0882445
38	0x3f5136eb	0.81724423
39	0x3ce1736e	0.027520861
40	0xbda1f594	-0.079081684
41	0x3e734811	0.2375796
42	0xbd9b0a29	-0.07570297
43	0xbf04d5c3	-0.51888674
44	0x3e9ebecf	0.3100495
45	0x3b87021a	0.0041201236
46	0xbe051e3c	-0.12999815
47	0xbfb5d292	-1.4204886
48	0xbd4df6a1	-0.05028403
49	0xbd4a6648	-0.04941395
50	0x3d92d085	0.07168678
51	0xbd40a0d5	-0.04702838
52	0x3e708695	0.23488839
53	0xbdf991b1	-0.121859916
54	0xbd9ebb1b	-0.07750531
55	0xbdb86291	-0.09003175
56	0xbe6fdcb9	-0.23424043
57	0xbddf34b4	-0.10898724
58	0x3f03c317	0.5146956
59	0xbf389bef	-0.72112936
60	0xbe989859	-0.29803732
61	0x3e4fa921	0.20279361
62	0xbf3a6ce1	-0.72822386
63	0xbdaca160	-0.08429217
64	0xbcfb3b0f	-0.03066781
65	0x3e591889	0.21200766
66	0xbcad1c5a	-0.021131683
67	0x3d966e44	0.0734525
68	0xbe07b38a	-0.13252082
69	0x3dfebf1a	0.124387935
70	0x3e91c989	0.28474072
71	0xbc1a2544	-0.009408299
72	0xbcdfb544	-0.027308114
73	0xbc974f93	-0.018470561
74	0x3cdb5968	0.02677603
75	0xbeb5d8df	-0.35517022
76	0xbe0a8305	-0.13526542
77	0xbbffefca	-0.0078105675
78	0x3ec94b01	0.39315036
79	0x3e29d4e3	0.16585116
80	0x3e7626b9	0.24038209
81	0xbb87c618	-0.0041434877
82	0x3c986b2f	0.018605797
83	0x3e7f6fa7	0.24944936
84	0x3eb55133	0.35413513
85	0xbd81f817	-0.063461475
86	0x3e54fa73	0.20798664
87	0x3cbfc8b9	0.023411142
88	0x3ef3ae8f	0.47594115
89	0xbe060dd6	-0.13091215
90	0xbf2c2c1e	-0.6725482
91	0x3c868a3c	0.016423337
92	0xbf3f4f5e	-0.7473048
93	0xbea2d196	-0.31800526
94	0xbeb8b7d8	-0.36077762
95	0xbe475b29	-0.19468369
96	0xbb8b902a	-0.004259129
97	0xbc200562	-0.009766908
98	0xbd3c9721	-0.046042565
99	0x3b4c3a0d	0.003116253
100	0x3deadb1b	0.11467572
101	0x3d5f09f0	0.054452837
102	0xbe77954d	-0.24178047
103	0x3d0fee32	0.03513927
104	0xbdefca37	-0.11708491
105	0x3e3cf49a	0.18452683
106	0xbe75b794	-0.23995811
107	0x3e98fbfd	0.29879752
108	0xbf56f006	-0.83959997
109	0x3e143594	0.14473563
110	0xbe94f45a	-0.29092675
111	0x3d085cbe	0.03329157
112	0xbe0dba92	-0.13840702
113	0x3ca0220b	0.019547483
114	0x3c98959c	0.018626027
115	0xbd5c6493	-0.053806853
116	0x3e54582b	0.20736758
117	0x3cbf0a29	0.023320274
118	0xbce98b79	-0.028508889
119	0x3e0cac42	0.13737586
120	0xbd0e4a21	-0.034738664
121	0x3d8745b6	0.06605093
122	0xbe34ceb8	-0.17656982
123	0xbd80412f	-0.06262433
124	0xbc7fb2d9	-0.015606605
125	0xbe77a8fb	-0.24185555
126	0x3db16fcc	0.08663902
127	0x3e69b4e4	0.2282291
128	0x3e210fec	0.1572873
129	0xbe9a68d2	-0.30158097
130	0x3e760e46	0.24028882
131	0xbe9fa48e	-0.31180233
132	0xbe476194	-0.19470817
133	0x3ec57f17	0.38573524
134	0xbe9b2f14	-0.30309355
135	0xbbb2e8e2	-0.0054598907
136	0x3ecbcb99	0.3980377
137	0xbeeb801a	-0.4599617
138	0x3e61f18d	0.220648
139	0x3eb1712e	0.34656662
140	0xbe807925	-0.25092426
141	0xbeac8ab1	-0.33699563
142	0x3c904d64	0.017615028
143	0x3d1dfb12	0.038569517
144	0x3ca79bfb	0.02046012
145	0xbc0f2efe	-0.008739231
146	0xbbb173d7	-0.0054154205
147	0x3d9ca68d	0.076489545
148	0x3d79e65c	0.061010703
149	0x3e5594ef	0.20857595
150	0x3da6633d	0.08124397
151	0xbe069458	-0.13142526
152	0x3d1f541c	0.038898572
153	0x3f27dba7	0.6556954
154	0x3eb5b152	0.35486847
155	0xbe8a3ec6	-0.27001017
156	0x3eafe883	0.3435708
157	0xbe861d7b	-0.26194367
158	0x3dfe3885	0.12413124
159	0xbe6bf4f5	-0.23042662
160	0x3b7d6532	0.0038665053
161	0xbc943800	-0.01809311
162	0x3d203d71	0.039121095
163	0x3e86848c	0.26273
164	0xbe467310	-0.1937983
165	0x3c29148f	0.010319843
166	0xbef93d40	-0.48679543
167	0xbcfe595e	-0.031048473
168	0x3dd2425a	0.10266562
169	0xbecdb4c7	-0.40176985
170	0x3e266755	0.16250356
171	0x3e735b02	0.23765185
172	0xbe0d9b50	-0.13828778
173	0xbe407823	-0.18795829
174	0xbecd7f64	-0.40136254
175	0xbe65da75	-0.22446616
176	0x3d6db4e1	0.058033828
177	0xbea02368	-0.31277013
178	0xbed9deaf	-0.42552707
179	0x3f1fa264	0.62357163
180	0x3e62a6a1	0.22133876
181	0xbc7eecf3	-0.015559423
182	0xbe37ffa2	-0.1796861
183	0x3e88fc36	0.26754922
184	0xbdc59bbe	-0.09648846
185	0x3e017691	0.12642886
186	0x3f2373a4	0.6384833
187	0x3c9303d9	0.01794617
188	0xbe803260	-0.25038433
189	0xbe1fc080	-0.15600777
190	0x3e29aedb	0.16570608
191	0xbda721ab	-0.081607185
192	0x3d7901ea	0.06079284
193	0xbc930421	-0.017946305
194	0xbe602aef	-0.21891378
195	0x3c1c4a8a	0.009539256
196	0x3ec313bf	0.38101003
197	0xbe578c52	-0.21049622
198	0x3df984b3	0.121835135
199	0x3e233f8d	0.15942211
200	0xbcfaa326	-0.030595373
201	0xbcaf2126	-0.021378111
202	0x3e683184	0.22675139
203	0xbeb2cc55	-0.34921518
204	0xbebd75ff	-0.37004086
205	0xbe29fe1b	-0.1660084
206	0x3d53b4a5	0.051685948
207	0xbc7c5f7d	-0.015403626
208	0x3db2553e	0.08707665
209	0x3d9f6a37	0.07783931
210	0xbe123395	-0.1427749
211	0x3dcd5bc7	0.10027271
212	0x3e54e99e	0.20792243
213	0xbe629303	-0.22126393
214	0x3d491ba8	0.04909864
215	0xbe47db0d	-0.19517155
216	0x3e405392	0.1878188
217	0x3d91c77d	0.071181275
218	0x3e2e4bc5	0.17021091
219	0xbe838db9	-0.25694063
220	0x3eb733d2	0.35781723
221	0xbef9b55a	-0.48771173
222	0x3e568843	0.20950417
223	0xbc2778ba	-0.010221655
224	0x3f402d2f	0.75068945
225	0x3e722c11	0.23649622
226	0xbe996962	-0.29963213
227	0xbf32b2cc	-0.6980407
228	0x3cc4ebc3	0.024038201
229	0x3db23d21	0.08703066
230	0xbed0ca69	-0.40779427
231	0xbe87e9fb	-0.265457
232	0x3d8515ad	0.06498275
233	0x3e3a811f	0.18213318
234	0x3d44286a	0.047890104
235	0x3f044ff9	0.5168453
236	0x3f00a1b3	0.50246733
237	0xbcc9a700	-0.024615765
238	0xbec85406	-0.39126605
239	0x3e053281	0.13007547
240	0x3ca837e3	0.020534461
241	0x3e0b08fe	0.13577649
242	0xbd31c720	-0.04340279
243	0xbe0f10e1	-0.13971283
244	0x3c9dc9bf	0.01926124
245	0xbdf0bd14	-0.11754814
246	0x3da69986	0.08134751
247	0xbd8be4b1	-0.06830729
248	0x3db4cf31	0.08828581
249	0x3dd03d17	0.10167902
250	0xbf12d5e4	-0.5735762
251	0x3e10f1f8	0.14154804
252	0x3baae917	0.0052157748
253	0xbf170716	-0.5899519
254	0x3eac7405	0.33682266
255	0xbc989372	-0.018624995

bn2.weight f4 [16]
0	0x40933d68	4.601246
1	0x406d1448	3.7043629
2	0x3ffc45b4	1.9708772
3	0x40a09a85	5.0188622
4	0x40655080	3.5830383
5	0x4032c0e1	2.7930224
6	0x401c1761	2.438927
7	0x405edc0a	3.48218
8	0x40848340	4.1410217
9	0x4017070c	2.359805
10	0x40894052	4.2891016
11	0x408eaedc	4.458845
12	0x4098bc01	4.7729497
13	0x40e2d06a	7.087941
14	0x3fe2ed2b	1.7728628
15	0x40177faa	2.367167

bn2.bias f4 [16]
0	0x3f328bd1	0.6974459
1	0x3d111e8d	0.035429526
2	0x3e2c971a	0.16854516
3	0xbf6d7bbf	-0.92766947
4	0xc03be3ec	-2.9357862
5	0xbf1f7be8	-0.6229844
6	0xbe453f37	-0.19262396
7	0xbe348d47	-0.17632018
8	0xbfd94fbb	-1.6977457
9	0x3f93df2c	1.1552482
10	0xbf4222ae	-0.75834167
11	0xbf8cf5a9	-1.101247
12	0xbf00d697	-0.5032744
13	0xc03577cb	-2.8354366
14	0xbf040b36	-0.51579607
15	0x3eea95e7	0.4581749

bn2.running_mean f4 [16]
0	0x3eb2993e	0.3488254
1	0xc0034be3	-2.0515068
2	0x3f2433d5	0.6414159
3	0x403870a9	2.8818762
4	0x3fdb130c	1.7115188
5	0xbfd043db	-1.6270708
6	0xbf91c2d4	-1.1387582
7	0x400b52dc	2.1769323
8	0x401d6f6b	2.4599254
9	0xbfda1e51	-1.7040502
10	0xbfeaef34	-1.8354249
11	0xbf086ec9	-0.53294045
12	0x3fd53695	1.6657282
13	0x408d4097	4.4141345
14	0xbf7204b5	-0.9453843
15	0xbfb583af	-1.4180812

bn2.running_var f4 [16]
0	0x3d88b11a	0.066744044
1	0x3d62159a	0.055196382
2	0x3cec8144	0.028870232
3	0x3da96939	0.08272023
4	0x3d0db6fc	0.034598336
5	0x3ccde5dd	0.025134021
6	0x3d21f614	0.03954132
7	0x3d867dc9	0.0656696
8	0x3d5391eb	0.05165283
9	0x3e39e041	0.18151952
10	0x3dd98631	0.10621298
11	0x3d8bef8c	0.06832799
12	0x3deaac08	0.114585936
13	0x3dd7e687	0.105420165
14	0x3d1f61fa	0.038911797
15	0x3c3a8d2b	0.011386196

conv3.bias f4 [32]
0	0xbe8da771	-0.2766681
1	0xbd0be61a	-0.03415499
2	0xbd0b1cb5	-0.033962924
3	0xbe74148d	-0.23835965
4	0x3d9fce27	0.07802992
5	0xbd8edba4	-0.06975487
6	0x3d81199d	0.063037135
7	0xbd25702b	-0.040390175
8	0xbd539ccd	-0.05166321
9	0xbd737a69	-0.05944291
10	0x3d3069b8	0.04306957
11	0xbbee81b0	-0.0072786435
12	0xbc664de3	-0.014056656
13	0xbeacf1c9	-0.33778217
14	0xbcf064c0	-0.029344916
15	0xbcdb5e9e	-0.026778515
16	0x3db07631	0.08616293
17	0xbe3d84c3	-0.18507676
18	0x3d628b42	0.055308588
19	0x3e53709f	0.2064843
20	0x3e192ca9	0.14958443
21	0xbe86c09a	-0.26318818
22	0xbdc5ea8f	-0.09663879
23	0xbde90744	-0.11378339
24	0xbe857f8f	-0.26073882
25	0xbdc6d545	-0.09708647
26	0xbd9e4516	-0.07728021
27	0xbdb2a3e0	-0.08722663
28	0xbe2658a6	-0.16244754
29	0x3e24abcc	0.1608116
30	0xbe4c8477	-0.19972406
31	0xbd750148	-0.059815675

conv3.weight f4 [32, 16, 3]
0	0x80000000	-0.0
1	0x00000000	0.0
2	0x80000000	-0.0
3	0x00000000	0.0
4	0x80000000	-0.0
5	0x00000000	0.0
6	0x80000000	-0.0
7	0x00000000	0.0
8	0x00000000	0.0
9	0x80000000	-0.0
10	0x00000000	0.0
11	0x00000000	0.0
12	0x00000000	0.0
13	0x80000000	-0.0
14	0x00000000	0.0
15	0x80000000	-0.0
16	0x00000000	0.0
17	0x80000000	-0.0
18	0x80000000	-0.0
19	0x80000000	-0.0
20	0x00000000	0.0
21	0x00000000	0.0
22	0x80000000	-0.0
23	0x00000000	0.0
24	0x00000000	0.0
25	0x00000000	0.0
26	0x00000000	0.0
27	0x80000000	-0.0
28	0x00000000	0.0
29	0x80000000	-0.0
30	0x80000000	-0.0
31	0x80000000	-0.0
32	0x80000000	-0.0
33	0x80000000	-0.0
34	0x80000000	-0.0
35	0x00000000	0.0
36	0x00000000	0.0
37	0x80000000	-0.0
38	0x80000000	-0.0
39	0x80000000	-0.0
40	0x80000000	-0.0
41	0x80000000	-0.0
42	0x00000000	0.0
43	0x80000000	-0.0
44	0x00000000	0.0
45	0x80000000	-0.0
46	0x00000000	0.0
47	0x80000000	-0.0
48	0x00000000	0.0
49	0x00000000	0.0
50	0x80000000	-0.0
51	0x80000000	-0.0
52	0x80000000	-0.0
53	0x80000000	-0.0
54	0x00000000	0.0
55	0x80000000	-0.0
56	0x80000000	-0.0
57	0x00000000	0.0
58	0x80000000	-0.0
59	0x80000000	-0.0
60	0x80000000	-0.0
61	0x00000000	0.0
62	0x00000000	0.0
63	0x00000000	0.0
64	0x80000000	-0.0
65	0x80000000	-0.0
66	0x80000000	-0.0
67	0x00000000	0.0
68	0x00000000	0.0
69	0x80000000	-0.0
70	0x80000000	-0.0
71	0x00000000	0.0
72	0x00000000	0.0
73	0x00000000	0.0
74	0x80000000	-0.0
75	0x00000000	0.0
76	0x00000000	0.0
77	0x80000000	-0.0
78	0x80000000	-0.0
79	0x80000000	-0.0
80	0x00000000	0.0
81	0x80000000	-0.0
82	0x00000000	0.0
83	0x00000000	0.0
84	0x00000000	0.0
85	0x80000000	-0.0
86	0x80000000	-0.0
87	0x00000000	0.0
88	0x00000000	0.0
89	0x80000000	-0.0
90	0x00000000	0.0
91	0x00000000	0.0
92	0x00000000	0.0
93	0x80000000	-0.0
94	0x80000000	-0.0
95	0x80000000	-0.0
96	0x80000000	-0.0
97	0x00000000	0.0
98	0x00000000	0.0
99	0x00000000	0.0
100	0x80000000	-0.0
101	0x80000000	-0.0
102	0x80000000	-0.0
103	0x80000000	-0.0
104	0x00000000	0.0
105	0x80000000	-0.0
106	0x80000000	-0.0
107	0x00000000	0.0
108	0x80000000	-0.0
109	0x00000000	0.0
110	0x80000000	-0.0
111	0x00000000	0.0
112	0x80000000	-0.0
113	0x00000000	0.0
114	0x00000000	0.0
115	0x00000000	0.0
116	0x00000000	0.0
117	0x00000000	0.0
118	0x80000000	-0.0
119	0x00000000	0.0
120	0x00000000	0.0
121	0x80000000	-0.0
122	0x80000000	-0.0
123	0x80000000	-0.0
124	0x80000000	-0.0
125	0x80000000	-0.0
126	0x00000000	0.0
127	0x00000000	0.0
128	0x80000000	-0.0
129	0x00000000	0.0
130	0x80000000	-0.0
131	0x80000000	-0.0
132	0x00000000	0.0
133	0x80000000	-0.0
134	0x00000000	0.0
135	0x80000000	-0.0
136	0x80000000	-0.0
137	0x00000000	0.0
138	0x80000000	-0.0
139	0x80000000	-0.0
140	0x00000000	0.0
141	0x80000000	-0.0
142	0x80000000	-0.0
143	0x00000000	0.0
144	0x00000000	0.0
145	0x00000000	0.0
146	0x80000000	-0.0
147	0x00000000	0.0
148	0x00000000	0.0
149	0x80000000	-0.0
150	0x80000000	-0.0
151	0x80000000	-0.0
152	0x00000000	0.0
153	0x80000000	-0.0
154	0x80000000	-0.0
155	0x80000000	-0.0
156	0x80000000	-0.0
157	0x00000000	0.0
158	0x00000000	0.0
159	0x80000000	-0.0
160	0x80000000	-0.0
161	0x80000000	-0.0
162	0x00000000	0.0
163	0x80000000	-0.0
164	0x00000000	0.0
165	0x80000000	-0.0
166	0x00000000	0.0
167	0x00000000	0.0
168	0x00000000	0.0
169	0x00000000	0.0
170	0x00000000	0.0
171	0x80000000	-0.0
172	0x00000000	0.0
173	0x80000000	-0.0
174	0x80000000	-0.0
175	0x80000000	-0.0
176	0x80000000	-0.0
177	0x00000000	0.0
178	0x00000000	0.0
179	0x80000000	-0.0
180	0x00000000	0.0
181	0x00000000	0.0
182	0x80000000	-0.0
183	0x00000000	0.0
184	0x00000000	0.0
185	0x00000000	0.0
186	0x00000000	0.0
187	0x00000000	0.0
188	0x00000000	0.0
189	0x80000000	-0.0
190	0x00000000	0.0
191	0x00000000	0.0
192	0x00000000	0.0
193	0x00000000	0.0
194	0x80000000	-0.0
195	0x00000000	0.0
196	0x00000000	0.0
197	0x00000000	0.0
198	0x00000000	0.0
199	0x80000000	-0.0
200	0x00000000	0.0
201	0x00000000	0.0
202	0x80000000	-0.0
203	0x80000000	-0.0
204	0x00000000	0.0
205	0x80000000	-0.0
206	0x00000000	0.0
207	0x00000000	0.0
208	0x00000000	0.0
209	0x80000000	-0.0
210	0x80000000	-0.0
211	0x00000000	0.0
212	0x80000000	-0.0
213	0x80000000	-0.0
214	0x00000000	0.0
215	0x80000000	-0.0
216	0x00000000	0.0
217	0x80000000	-0.0
218	0x00000000	0.0
219	0x80000000	-0.0
220	0x80000000	-0.0
221	0x80000000	-0.0
222	0x80000000	-0.0
223	0x80000000	-0.0
224	0x80000000	-0.0
225	0x00000000	0.0
226	0x80000000	-0.0
227	0x00000000	0.0
228	0x80000000	-0.0
229	0x80000000	-0.0
230	0x80000000	-0.0
231	0x00000000	0.0
232	0x00000000	0.0
233	0x00000000	0.0
234	0x00000000	0.0
235	0x00000000	0.0
236	0x80000000	-0.0
237	0x80000000	-0.0
238	0x00000000	0.0
239	0x00000000	0.0
240	0x00000000	0.0
241	0x00000000	0.0
242	0x80000000	-0.0
243	0x00000000	0.0
244	0x80000000	-0.0
245	0x80000000	-0.0
246	0x00000000	0.0
247	0x80000000	-0.0
248	0x80000000	-0.0
249	0x80000000	-0.0
250	0x00000000	0.0
251	0x80000000	-0.0
252	0x80000000	-0.0
253	0x80000000	-0.0
254	0x80000000	-0.0
255	0x80000000	-0.0

bn3.weight f4 [32]
0	0x4035ac90	2.8386574
1	0x4006cffa	2.106444
2	0x40755383	3.8332222
3	0x4092c868	4.5869637
4	0x40181feb	2.376948
5	0x407d3f3b	3.9569843
6	0x408efc89	4.468327
7	0x404d794d	3.2105286
8	0x4005d426	2.0910735
9	0x4063c35b	3.5587986
10	0x4032f7b8	2.7963696
11	0x402e618a	2.7247033
12	0x4068b224	3.6358728
13	0x409542e1	4.664414
14	0x4092224b	4.566686
15	0x403b4819	2.9262755
16	0x401e18c8	2.4702625
17	0x407f0da2	3.985207
18	0x4032768b	2.7884853
19	0x4043bfdb	3.058585
20	0x403bf91c	2.9370794
21	0x409b1aaa	4.847005
22	0x4074e52e	3.826488
23	0x401b1e90	2.4237404
24	0x40afc0d2	5.4922876
25	0x409263be	4.5746756
26	0x40705e51	3.7557566
27	0x403d382a	2.956553
28	0x405b7223	3.4288414
29	0x403b06d4	2.9222918
30	0x404f8f30	3.2431145
31	0x403f2772	2.9867826

bn3.bias f4 [32]
0	0xb763b5d7	-1.3572592e-05
1	0xbe5d574c	-0.21615332
2	0xbe3e588a	-0.18588462
3	0xbf92df78	-1.1474447
4	0xbeb07e4f	-0.34471366
5	0xbf953c97	-1.1659116
6	0xbfbd0231	-1.4766294
7	0xbeafbe67	-0.34324953
8	0xbee0ec8b	-0.43930468
9	0xbec732f8	-0.38906074
10	0xbe1083d9	-0.14112796
11	0xbf21b991	-0.63173777
12	0x3dc7a6e2	0.09748627
13	0xbfc915c4	-1.5709767
14	0xbfaff832	-1.3747618
15	0xbf230a9e	-0.63688076
16	0x3e3fb56e	0.18721554
17	0xbf99dde0	-1.2020836
18	0x3d5e9d36	0.054349147
19	0xbf46244c	-0.77399135
20	0xbf594aa0	-0.84879494
21	0xbfbf6171	-1.4951612
22	0xbf859266	-1.0435302
23	0xbea25610	-0.31706285
24	0xbfebedd6	-1.8431957
25	0xbf98c960	-1.1936455
26	0xbf7a89a7	-0.9786629
27	0xbe8d005b	-0.27539334
28	0xbfa4e9c1	-1.2883836
29	0x3e891d94	0.2678038
30	0xbfbf58e6	-1.4949005
31	0x3cf9dd3c	0.030501

bn3.running_mean f4 [32]
0	0xbe8da76b	-0.27666792
1	0xbd0be613	-0.034154963
2	0xbd0b1cb7	-0.03396293
3	0xbe741487	-0.23835956
4	0x3d9fce29	0.07802994
5	0xbd8edb9d	-0.06975482
6	0x3d811997	0.06303709
7	0xbd25702c	-0.04039018
8	0xbd539ccc	-0.051663205
9	0x3f9ee817	1.2414578
10	0x3d3069ba	0.04306958
11	0xbbee81a7	-0.0072786394
12	0xbf88e363	-1.0694393
13	0xbeacf1cb	-0.33778223
14	0xbcf064c0	-0.029344916
15	0xbcdb5e98	-0.026778504
16	0x3db07624	0.086162835
17	0xbe3d84c2	-0.18507674
18	0x3d628b1e	0.055308454
19	0x3e537098	0.2064842
20	0x3e192ca2	0.14958432
21	0xbe86c09b	-0.2631882
22	0xbdc5ea87	-0.09663873
23	0xbde90741	-0.11378337
24	0xbe857f89	-0.26073864
25	0xbdc6d540	-0.09708643
26	0xbd9e4510	-0.077280164
27	0xbdb2a3d9	-0.08722658
28	0x3e7c785a	0.24655285
29	0x3e24abda	0.16081181
30	0xbe4c8471	-0.19972397
31	0xbd750123	-0.059815537

bn3.running_var f4 [32]
0	0x26667175	7.9951043e-16
1	0x246cd830	5.135746e-17
2	0x21ccd755	1.3880576e-18
3	0x26667175	7.9951043e-16
4	0x00000004	6e-45
5	0x24800638	5.5521686e-17
6	0x22ccd755	5.5522302e-18
7	0x23667175	1.24923504e-17
8	0x23a66e98	1.8044594e-17
9	0x41dc2e87	27.522718
10	0x00000004	6e-45
11	0x20800638	2.1688159e-19
12	0x4174b199	15.293359
13	0x00000004	6e-45
14	0x22a66e98	4.5111486e-18
15	0x20ccd755	3.470144e-19
16	0x249e73f7	6.871803e-17
17	0x266cd830	8.2171937e-16
18	0x240a05f9	2.992904e-17
19	0x25800638	2.2208674e-16
20	0x25667175	1.9987761e-16
21	0x276cd830	3.2868775e-15
22	0x00000004	6e-45
23	0x26680b24	8.050627e-16
24	0x00000004	6e-45
25	0x24a66e98	7.217838e-17
26	0x24800638	5.5521686e-17
27	0x24667175	4.9969402e-17
28	0x41a76b26	20.927319
29	0x255a0ea5	1.8913448e-16
30	0x25800638	2.2208674e-16
31	0x23f3edc1	2.6446805e-17

conv4.bias f4 [32]
0	0xbd85e337	-0.065374784
1	0x3d87ed29	0.066370316
2	0xbd9a2d02	-0.07528116
3	0x3dd44449	0.10364587
4	0xbdef0e1a	-0.116726115
5	0xbd37bc8c	-0.044857547
6	0xbd675fc5	-0.056487817
7	0xbe00513c	-0.12530988
8	0xbe278321	-0.16358615
9	0xbdbf5c86	-0.09343819
10	0xbd81a84f	-0.063309304
11	0x3d57d7f0	0.05269617
12	0xbe3cee28	-0.18450224
13	0x3ca38c25	0.019964287
14	0x3c2dabc5	0.010600035
15	0x3c70b641	0.01469189
16	0xbdb55a46	-0.08855109
17	0xbe063840	-0.13107395
18	0xbd876055	-0.06610171
19	0x3d5e0ca5	0.054211278
20	0xbdee8181	-0.11645795
21	0xbdc2346f	-0.09482657
22	0xbd958b0b	-0.07301911
23	0x3dca37dc	0.098739356
24	0x3e0128de	0.12613246
25	0xbda1cffe	-0.079009995
26	0xbe15c816	-0.14627108
27	0xbe3dde0d	-0.18541737
28	0xbd822a63	-0.06355741
29	0xbe452cfe	-0.19255444
30	0x3b5a65cd	0.0033324838
31	0xbd6037da	-0.054740764

conv4.weight f4 [32, 32, 3]
0	0x3e88c3f7	0.2671201
1	0xbe829a1e	-0.25508207
2	0x3ed2c6bc	0.41167247
3	0xbe6a90bf	-0.22906779
4	0x3ddb9819	0.1072237
5	0x3d3d3383	0.046191704
6	0x3e3f5cd8	0.18687761
7	0xbd1b8d75	-0.0379767
8	0x3d3eefcf	0.046615418
9	0xbd2e2f73	-0.04252572
10	0x3df4d605	0.119548835
11	0xbe63e30e	-0.22254583
12	0xbd09ca46	-0.03364017
13	0x3e93553f	0.28775975
14	0xbe777a92	-0.2416785
15	0x3e646071	0.22302414
16	0xbbdaafea	-0.0066738026
17	0x3ecf4d39	0.40488604
18	0x3e49d821	0.19711353
19	0xbce20b23	-0.027593201
20	0x3dbf614c	0.0934473
21	0x3e26fc1b	0.16307108
22	0xbdea9ae8	-0.11455327
23	0x3e8f6011	0.2800298
24	0xbe374a0b	-0.17899339
25	0x3ec0093d	0.37507048
26	0xbeaddafe	-0.3395614
27	0xbe9a978c	-0.30193746
28	0xbeb5fbab	-0.3554357
29	0x3ee4c98f	0.44685027
30	0xbdaa926d	-0.0832871
31	0x3e15978e	0.14608595
32	0xbef0fc9c	-0.47067726
33	0xbde6fa41	-0.11278201
34	0x3dd3f009	0.103485174
35	0x3db2f901	0.087389
36	0x3d8cb521	0.06870485
37	0xbe00f90f	-0.12595008
38	0x3e2a8167	0.16650926
39	0x3e34cffd	0.17657466
40	0xbe242f98	-0.1603378
41	0x3bf20038	0.00738528
42	0xbebf5419	-0.3736885
43	0xbe2b4a6a	-0.16727605
44	0x3c3a3889	0.011366018
45	0xbe6824f0	-0.2267034
46	0x3deb3b1a	0.11485882
47	0xbc8f75f6	-0.017512303
48	0xbc34bf13	-0.011031884
49	0x3e5cb897	0.2155479
50	0xbe414d0e	-0.1887705
51	0x3cc7c38d	0.024385238
52	0x3e2c6052	0.16833618
53	0xbe517e12	-0.20458248
54	0xbe5dd6bd	-0.21663947
55	0x3e63509d	0.2219872
56	0xbef1a14c	-0.47193372
57	0xbdb4b67d	-0.088238694
58	0xbd28b152	-0.04118473
59	0xbe6f5665	-0.233728
60	0x3e17ff77	0.14843546
61	0xbf25c872	-0.6475898
62	0x3ebb528e	0.36586422
63	0xbd0cb9d2	-0.0343569
64	0x3e82ba82	0.2553292
65	0xbe22d6a3	-0.1590219
66	0x3d900eb0	0.070340514
67	0x3d7f53d0	0.06233579
68	0x3d12758c	0.035756633
69	0x3ec9eb8e	0.39437526
70	0xbef1ecce	-0.4725098
71	0x3e99d87b	0.30047974
72	0x3e246156	0.16052756
73	0xbe33f1f1	-0.17572762
74	0x3e798d37	0.24370275
75	0x3c17938b	0.009251486
76	0x3db81d5c	0.08989975
77	0x3d975e58	0.073910415
78	0x3e1e20ba	0.15442172
79	0x3cce204a	0.025161881
80	0x3ce19cfe	0.02754068
81	0x3e10ab08	0.14127743
82	0xbe40026f	-0.18750928
83	0x3cda93e4	0.026681848
84	0xbd8b7d95	-0.06811062
85	0xbe0966a6	-0.13418064
86	0xbe6047a8	-0.21902335
87	0x3ea99ace	0.3312592
88	0x3dbf4a20	0.0934031
89	0x3d28eb35	0.041239936
90	0x3e33101b	0.17486612
91	0xbcf8e1a3	-0.03038103
92	0x3e3fe670	0.18740249
93	0xbe1071c4	-0.14105898
94	0xbe8cc689	-0.2749522
95	0xbe8289a3	-0.25495633
96	0x3d4492fb	0.047991734
97	0xbde68231	-0.11255301
98	0xbdafa52f	-0.08576428
99	0xbd4a78ca	-0.0494316
100	0xbe320fe1	-0.1738887
101	0xbe596968	-0.21231616
102	0xbe9f578d	-0.31121483
103	0x3ddc931f	0.107702486
104	0xbe23093a	-0.15921488
105	0x3cacf436	0.021112543
106	0x3dfc9083	0.12332251
107	0xbcd78f5f	-0.026313482
108	0xbe56601a	-0.20935097
109	0x3e2e5923	0.1702619
110	0xbde7fe49	-0.11327798
111	0x3c168a54	0.009188253
112	0x3e7acf73	0.24493198
113	0x3da1ba6b	0.078968845
114	0xbe386b48	-0.18009675
115	0x3e1db9a7	0.15402852
116	0x3bf49894	0.007464478
117	0x3e96ae29	0.2942975
118	0x3ef94171	0.4868274
119	0x3ef82c0b	0.48471102
120	0x3e532c14	0.20622283
121	0xbe8c5697	-0.27409813
122	0xbe350527	-0.17677747
123	0x3dfbc2df	0.12293028
124	0xbea11770	-0.31463194
125	0xbea16123	-0.31519422
126	0x3e44020c	0.19141406
127	0x3d924d72	0.07143678
128	0x3e3980e5	0.18115576
129	0xbe501aa5	-0.20322664
130	0xbca732a2	-0.020409886
131	0x3d66f1d7	0.05638298
132	0xbb31d326	-0.002713391
133	0xbe138a3b	-0.144082
134	0x3d6ee76f	0.05832618
135	0xbddaec91	-0.10689653
136	0xbe55a68c	-0.20864314
137	0xbe73e1c8	-0.23816597
138	0x3e986150	0.29761744
139	0x3ccc4e60	0.024939716
140	0x3e6325dd	0.22182412
141	0x3e9396a3	0.28825864
142	0xbdf6dfbd	-0.120543934
143	0x3eb14f3a	0.34630758
144	0xbea7dc68	-0.32785344
145	0x3df4bec4	0.11950448
146	0xbde54381	-0.11194516
147	0x3d5d067b	0.05396126
148	0xbe65f586	-0.22456941
149	0x3d9ad38d	0.07559881
150	0xbe1f695a	-0.15567532
151	0x3ea427c4	0.3206159
152	0x3ccf9f53	0.025344526
153	0xbd6a0e5f	-0.05714261
154	0x3e2ac22b	0.16675632
155	0x3e7a706e	0.24456951
156	0x3dfb85ac	0.12281355
157	0x3ca74c30	0.020422071
158	0x3e43e3d5	0.1912988
159	0xbdc47de5	-0.09594325
160	0x3cc2d10b	0.02378132
161	0xbde4c0d3	-0.11169591
162	0xbc346bc4	-0.011012021
163	0xbe20be4c	-0.15697592
164	0x3dd33a97	0.103139095
165	0xbcd790e9	-0.026314216
166	0x3ec863d4	0.39138663
167	0x3bc1124b	0.0058920733
168	0x3d33f4ef	0.04393476
169	0x3d97f6ca	0.07420118
170	0xbe202ebb	-0.15642826
171	0xbe24f051	-0.16107298
172	0x3d211edd	0.039336074
173	0xbe9cc18d	-0.30616418
174	0xbdc2c47f	-0.09510135
175	0xbe0aa048	-0.13537705
176	0xbe06bbae	-0.13157532
177	0xbd9d9bce	-0.07695733
178	0xbe6675e1	-0.22505905
179	0x3db4983b	0.08818098
180	0x3d0d5b47	0.034510877
181	0x3e80ff57	0.2519481
182	0x3e418c6b	0.18901221
183	0x3ef324de	0.47489065
184	0xbecb5cb3	-0.3971916
185	0x3e96b566	0.2943527
186	0xbe594dff	-0.2122116
187	0x3d9804a6	0.074227616
188	0xbea58eae	-0.32335418
189	0xbec91733	-0.39275512
190	0x3ead31a5	0.33826938
191	0xbe795ab5	-0.24351008
192	0x3e76e076	0.24109063
193	0x3e4bd890	0.19906831
194	0xbe054e93	-0.13018255
195	0xbce1c3dd	-0.027559215
196	0x3e4ba286	0.19886217
197	0x3d50fbc5	0.051021356
198	0xbd659a0a	-0.056055106
199	0x3e343a8a	0.17600456
200	0x3d8d5301	0.06900597
201	0x3e022709	0.12710203
202	0xbe4c39a6	-0.19943866
203	0xbe3dca09	-0.18534102
204	0x3d824e7b	0.06362625
205	0xbb89b1a9	-0.004202087
206	0x3e98a206	0.29811114
207	0x3ce207eb	0.027591666
208	0xbd5c3f3d	-0.053771246
209	0xbe24c120	-0.16089296
210	0xbe9d290a	-0.30695373
211	0xbe1db1b4	-0.1539982
212	0x3cfbf981	0.030758621
213	0xbdf5ceca	-0.120023325
214	0xbf1a57f6	-0.6029047
215	0x3eea9b51	0.45821622
216	0xbddda19c	-0.1082184
217	0xbd3b1cb7	-0.04568168
218	0xbdae82d5	-0.08521048
219	0x3e160b72	0.14652804
220	0x3d0f7817	0.035026636
221	0xbe8e4d98	-0.27793574
222	0xbec11d92	-0.37717873
223	0xbf19440d	-0.5986946
224	0x3e971d4f	0.29514548
225	0x3d829bd2	0.063773766
226	0xbe80a8c8	-0.2512877
227	0x3ccf298e	0.02528837
228	0x3eb72980	0.3577385
229	0xbdfa8148	-0.1223169
230	0xbe319e48	-0.17345536
231	0x3e536820	0.2064519
232	0x3d3917f2	0.04518885
233	0xbe693195	-0.2277282
234	0xbd8735e1	-0.066020735
235	0x3e14b766	0.14523086
236	0xbdbf801b	-0.09350606
237	0xbe3058f3	-0.17221431
238	0x3eb98267	0.36232302
239	0x3e93d7e7	0.28875658
240	0xbe1846bd	-0.14870735
241	0x3d45e7d2	0.048316784
242	0xbd1e97ef	-0.038719114
243	0xbe843488	-0.25821328
244	0xbd6849d2	-0.056711026
245	0x3da7546f	0.08170401
246	0xbc9272e9	-0.017877059
247	0xbe301e99	-0.17199172
248	0x3ea1f2a5	0.31630436
249	0xbd6bcc5d	-0.057567943
250	0xbe2b9b42	-0.16758445
251	0xbe33ba35	-0.17551501
252	0x3e302e12	0.17205074
253	0xbe643e3c	-0.22289366
254	0xbd27250b	-0.04080681
255	0x3db2827c	0.08716294

bn4.weight f4 [32]
0	0x40581bde	3.3767009
1	0x404a5b97	3.1618402
2	0x406f97ca	3.7436395
3	0x4085c4ee	4.1802893
4	0x4056ac2c	3.3542585
5	0x40412750	3.0180244
6	0x40446606	3.068727
7	0x40800d49	4.0016217
8	0x40757fa2	3.835915
9	0x4086e01c	4.214857
10	0x403f5e86	2.9901443
11	0x4065faf8	3.593443
12	0x407a32af	3.9093435
13	0x406abd5b	3.6678073
14	0x406160f9	3.5215437
15	0x4077be9f	3.8710096
16	0x4086649d	4.199782
17	0x40721e4f	3.7831
18	0x4067041a	3.6096253
19	0x4074efa7	3.8271272
20	0x406104c6	3.5159163
21	0x4010c18a	2.2618127
22	0x4090ba85	4.5227685
23	0x4063d1d1	3.5596812
24	0x40741854	3.8139849
25	0x406bc0d0	3.6836433
26	0x4031e67f	2.7796934
27	0x4041bba6	3.0270782
28	0x4080d4c6	4.0259733
29	0x404d7768	3.210413
30	0x4060b46f	3.5110128
31	0x407d5a80	3.9586487

bn4.bias f4 [32]
0	0xbef10905	-0.47077194
1	0x3f2b7081	0.6696854
2	0xbd1602bb	-0.036623698
3	0xbf0885e0	-0.5332928
4	0xbe213acd	-0.15745087
5	0xbf10d54a	-0.56575453
6	0xbd2e4118	-0.042542547
7	0x3e74039c	0.23829502
8	0xbefda2f2	-0.4953838
9	0xbec1b699	-0.37834623
10	0xbe093ee5	-0.13402899
11	0xbef22d19	-0.47300032
12	0xbebb718c	-0.36610067
13	0xbea61017	-0.3243415
14	0xbbaa496e	-0.005196742
15	0xbf2f17f9	-0.68395954
16	0x3e2d3921	0.16916324
17	0xbec8caab	-0.39217123
18	0xbf2e2845	-0.68030196
19	0xbf0ae3c4	-0.5425379
20	0x3c7accc1	0.015307606
21	0x3ef027a4	0.46905243
22	0xbf65abf2	-0.8971549
23	0xbf0aa34a	-0.5415541
24	0xbf30e845	-0.69104415
25	0xbe96285e	-0.29327673
26	0x3e8000c7	0.25000593
27	0xbea62a6b	-0.32454237
28	0xbf4bc497	-0.7959685
29	0xbedefe89	-0.4355357
30	0xbe5ee0d1	-0.21765448
31	0xbf269a48	-0.65079165

bn4.running_mean f4 [32]
0	0xbde81bbe	-0.113334164
1	0xbe48a587	-0.19594394
2	0x3e86514c	0.262339
3	0x3eb06e26	0.34459037
4	0x3ed6d04c	0.41955793
5	0xbea2a4b3	-0.3176628
6	0x3deb071a	0.11475964
7	0x3f290473	0.66022414
8	0x3d217ad2	0.03942377
9	0xbf40f994	-0.75380826
10	0x3f2e9e35	0.68210155
11	0x3cc6b903	0.024258142
12	0x3e83c169	0.25733498
13	0x3f483c03	0.7821657
14	0x3f286795	0.65783054
15	0xbe73bc44	-0.23802286
16	0x3eda4c96	0.42636555
17	0xbf97f055	-1.1870219
18	0x3e098d65	0.13432844
19	0x3edec147	0.43506834
20	0xbe0cb976	-0.13742623
21	0xbf0d8450	-0.5528002
22	0xbef06a5c	-0.46956146
23	0x3f26d979	0.65175587
24	0x3e93d58c	0.2887386
25	0x3f281216	0.65652597
26	0xbf2badf6	-0.6706232
27	0x3faac0d2	1.3340094
28	0xbf286122	-0.6577321
29	0xbd6b2999	-0.057412717
30	0x3f53a132	0.8266784
31	0x3f6e61d0	0.93118

bn4.running_var f4 [32]
0	0x4018e2cc	2.3888426
1	0x3f5f08f5	0.8712304
2	0x3f19a03e	0.60010135
3	0x3f824264	1.0176511
4	0x3f955ca2	1.1668894
5	0x3fa3a360	1.2784233
6	0x3f990f60	1.1957817
7	0x401e52a6	2.4737945
8	0x3f206585	0.62654907
9	0x3feb81bc	1.8398967
10	0x3f7a5757	0.9778952
11	0x3f56da50	0.8392687
12	0x3f3241bc	0.6963155
13	0x401de35c	2.467002
14	0x3f7dee1e	0.99191463
15	0x3fbced5a	1.4759934
16	0x4016b3e8	2.3547306
17	0x3fb955fc	1.4479365
18	0x3f7df055	0.9919484
19	0x3f383c85	0.71967345
20	0x3f3e9283	0.7444231
21	0x3f183913	0.5946209
22	0x3f8fee13	1.124453
23	0x4061d260	3.5284653
24	0x402ca0ab	2.6973064
25	0x3f881dcd	1.0634094
26	0x3fbfd469	1.4986697
27	0x3f7a9705	0.9788669
28	0x3f8abf34	1.08396
29	0x3f286ef7	0.6579432
30	0x3ffd8e4f	1.9809054
31	0x3fb1e7e1	1.3898889

conv5.bias f4 [5]
0	0xbed798a2	-0.42108637
1	0xbe1a15e1	-0.15047409
2	0x3db4724b	0.08810862
3	0x3ecf44c1	0.40482143
4	0xbdd60584	-0.10450271

conv5.weight f4 [5, 32, 1]
0	0x3ec02cbc	0.3753413
1	0xbf45ddd5	-0.77291614
2	0xbf9f3a4c	-1.2439666
3	0x3faa995d	1.3328053
4	0xbebe5353	-0.37172946
5	0xbe726080	-0.23669624
6	0x3e88f3ae	0.26748413
7	0xbfb12f43	-1.3842548
8	0xbed74c52	-0.42050415
9	0xbfb54cf9	-1.4164115
10	0xbf90c365	-1.130963
11	0x3ef84ae6	0.48494643
12	0xbf8a3638	-1.0797796
13	0x3fedd143	1.8579487
14	0xbdc7947e	-0.097451195
15	0x3efbd17d	0.49183264
16	0xbfdedce0	-1.7411156
17	0x3fdffd0b	1.7499098
18	0xbf023c67	-0.50873417
19	0x3fe5872f	1.793188
20	0xbfd92a06	-1.696595
21	0xbe557da1	-0.20848705
22	0x3f892453	1.071421
23	0x40045d1f	2.0681837
24	0x3f9443af	1.1583155
25	0x3fee70a9	1.8628131
26	0xbf7ae847	-0.9801068
27	0xbf6ccb76	-0.92497957
28	0x3fa8e962	1.3196223
29	0xbfec9100	-1.848175
30	0xbf770498	-0.96491385
31	0xbfe34717	-1.775607
32	0x3f1b57a9	0.60680634
33	0xbf022132	-0.508319
34	0xbf810320	-1.0079079
35	0xbf1fd077	-0.6242747
36	0x3e7f5e6e	0.24938366
37	0x3de41085	0.11135963
38	0x3f6a1df4	0.91451955
39	0xbf8576e1	-1.0426904
40	0xbfa503c8	-1.2891779
41	0xbf12cd2e	-0.5734433
42	0x3f92021a	1.1406891
43	0x3d53dc49	0.051723752
44	0x3f8b2ac4	1.0872426
45	0xc005b1ef	-2.0889852
46	0x3f9b1760	1.2116508
47	0xbf086bc1	-0.5328942
48	0xbf633ef6	-0.88767946
49	0x3f831d0c	1.0243239
50	0xbeeae07a	-0.45874387
51	0xbf2d6aee	-0.67741287
52	0x3e9c1968	0.30488133
53	0x3f5b2fb4	0.85619664
54	0xbef536ee	-0.4789347
55	0xbfd39012	-1.6528342
56	0xbff0d53a	-1.8815072
57	0x3f64930c	0.89286876
58	0x3f3df1fb	0.7419736
59	0x3f7f46c8	0.9971738
60	0xbfd0bf73	-1.6308426
61	0x3f98528c	1.1900191
62	0x3f06ad79	0.5260845
63	0xbf2a01ff	-0.66409296
64	0x3fab24e6	1.3370636
65	0x3cd625ad	0.026141012
66	0x3f363266	0.7117065
67	0xbffa860d	-1.9572159
68	0xbfc7133e	-1.5552747
69	0xbf9f2709	-1.2433788
70	0xbf61939b	-0.88115853
71	0x3f61d824	0.8822043
72	0x3fb92f47	1.4467553
73	0x3f9b2176	1.2119586
74	0xbf17f270	-0.59354305
75	0x3fd152e6	1.6353424
76	0xbfbd2a4f	-1.4778537
77	0xbed00d56	-0.40635175
78	0xbff60ee2	-1.9223292
79	0x3fc536dc	1.5407367
80	0x3f088c51	0.53339106
81	0xbf9d5e96	-1.229449
82	0xbfb0ea42	-1.382149
83	0xc0036d4b	-2.0535457
84	0x3fc38449	1.5274745
85	0xbe718dcb	-0.23589246
86	0x40042042	2.0644689
87	0xbd0c7a01	-0.03429604
88	0x3f24e6d4	0.64414716
89	0xbf71214a	-0.9419142
90	0xbfb3dfc6	-1.4052665
91	0xbf3d1de6	-0.73873746
92	0xbfcf7b10	-1.6209431
93	0x3f4ea282	0.8071672
94	0xbfda8043	-1.7070392
95	0x3f8ab626	1.0836837
96	0xbfe65f71	-1.7997876
97	0x3f9f2fd3	1.243647
98	0x3fa05f41	1.2529069
99	0x4010d8be	2.263229
100	0xbf835772	-1.0261061
101	0xbfb65adf	-1.4246482
102	0x3e9ada26	0.3024456
103	0x3f1ef812	0.62097275
104	0xbfe46a69	-1.7844974
105	0x3fb5b01a	1.4194367
106	0x3ee7d5ed	0.452804
107	0xbfe14a64	-1.7600827
108	0x3faa81ad	1.3320824
109	0xbd7c537d	-0.061603058
110	0xbf462fd8	-0.77416754
111	0x3f583ca9	0.8446756
112	0x3fa99569	1.3248721
113	0xbfd17b68	-1.6365786
114	0xbf7c0e6f	-0.98459524
115	0xbf545f5e	-0.8295802
116	0xbfc1c418	-1.5137968
117	0xbf2a5d4e	-0.6654862
118	0xc00d8574	-2.2112703
119	0xbf1a5f1d	-0.6030138
120	0x3ff48708	1.9103708
121	0xbf9d030d	-1.2266556
122	0x3e916c27	0.28402826
123	0xbf951e55	-1.1649882
124	0xbf45a675	-0.7720712
125	0xbf14e855	-0.5816701
126	0x3fbdd070	1.4829235
127	0xc0050de8	-2.0789738
128	0xbfa15edb	-1.2607073
129	0xbd2d3766	-0.04228916
130	0x3f1e4421	0.61822706
131	0xbfcd0675	-1.6017596
132	0x3faedfa5	1.3662001
133	0x3fe720df	1.8056906
134	0xbfb9cfc1	-1.4516526
135	0x3f6f787f	0.9354324
136	0x3fcddb4d	1.608255
137	0xbf89b19b	-1.0757326
138	0xbf68325b	-0.90701836
139	0xbf8bc876	-1.0920551
140	0xbf8b0cb3	-1.086325
141	0x3e484088	0.19555867
142	0x3f42ccfa	0.7609402
143	0xc00dcde5	-2.2156918
144	0x3eafe96a	0.34357768
145	0xbf5fd4ce	-0.8743409
146	0x400683b7	2.1017892
147	0x3eb5e44e	0.35525745
148	0x3e9b8039	0.30371264
149	0xbeccd128	-0.40003324
150	0xc00dc5b5	-2.215192
151	0xbf7c6fa7	-0.9860787
152	0xbfd22e73	-1.6420425
153	0xbfb9e81c	-1.4523959
154	0x3eefc63d	0.4683093
155	0x3f7d5ff6	0.9897455
156	0x3fced096	1.6157405
157	0xbf0522e4	-0.52006364
158	0xb9d5e5b8	-0.0004079768
159	0x3fde24c9	1.7354976
