networks/pretrained_models/itcnetaudio5/CNN1D_TrafficClassification_best_model_without_aux.pth (torch, 35378 bytes, 26 tensors)

conv1.weight f4 [16, 1, 3]
00000000: 8f1a bf3e f81b 2dbb dc99 dc3e 22a3 353e
00000010: a2fe 1e3f 886c fc3e 9d4f 133e 6eac 8b3e
00000020: e809 393f f0a2 cbbe fac9 22bf 5ca7 68be
00000030: 90de 9abf f66b 2dbe 91d4 1c3c 6a7c 103d
00000040: d639 193f 6d86 cc3e 5123 b23e 2dc0 76bc
00000050: 0b77 113f b06d 7cbe 4e85 53bf 2211 2e3e
00000060: 2565 12bf 4c2f a13e 0cab 7bbd c784 133d
00000070: d726 173d de2c 5fbf a4f5 333c 6945 0ec0
00000080: c878 26bd ffd6 40c0 4d97 813c 376c 43bc
00000090: ff36 5bbe e4cc 94bf 25c6 3ebc 4a96 54bf
000000a0: aeba 62bf 024b dc3c 40a6 8cbd 2afa 6e3b
000000b0: d3ed acbf d987 ff3d ce71 46be b49e 7cbf
0.3732495 -0.0026414376 0.43086135 0.17738011 0.6210729 0.49301553 0.14385839 0.2727999
0.7228074 -0.3977275 -0.6358944 -0.22720093 -1.2099171 -0.16935715 0.009572164 0.0352749
0.59853876 0.3994631 0.3479257 -0.015060467 0.5682227 -0.24651217 -0.8262528 0.16998723
-0.57185584 0.31481397 -0.06144242 0.0360153 0.036902275 -0.87177837 0.010983858 -2.2229865
-0.04064253 -3.0131223 0.015819216 -0.011927656 -0.21407698 -1.1625028 -0.011643921 -0.8304182
-0.885661 0.026891235 -0.06867647 0.0036465027 -1.3510078 0.12477083 -0.1937935 -0.9867966

conv1.bias f4 [16]
00000000: 65b2 e23e 9deb e4be 9051 9ebe 4297 b73d
00000010: 5923 b63e 739c 15bf 235d a8be 2725 90be
00000020: bd42 343f dd9c 06bc 4bed 323f 8f26 88be
00000030: fcfe 80bd e26b 8ebe 309d 00bf 760e 193e
0.4427673 -0.4471101 -0.30921602 0.08964397 0.35573843 -0.5844185 -0.32883558 -0.28153345
0.70414335 -0.00821611 0.6989333 -0.26591918 -0.062986344 -0.27816683 -0.5023985 0.14946923

bn1.weight f4 [16]
00000000: 7318 a83e 617d 993e 5f53 963e 2e5b e53f
00000010: cb8d ed3f ebaf 7d3e bf85 453e 0744 1c3f
00000020: 0401 163e 359d b83f eb12 d63f a284 dc3f
00000030: c6d1 c33f d75c d63f 4b35 d43f ed9d db3f
0.32831153 0.2997847 0.29360482 1.7918451 1.8558897 0.24774139 0.19289301 0.610413
0.14648825 1.4422976 1.6724523 1.7227976 1.5298393 1.6747082 1.6578764 1.715757

bn1.bias f4 [16]
00000000: 76d2 05bf f97e 7d3b 67ca 98be 381a 2dbe
00000010: f534 d2be 01ef c9be 4b30 d93d cceb 80be
00000020: ca90 dcbc 815c 16bf efb6 b4be 6200 a9be
00000030: ecb0 74be 1d99 d6be 0f81 8ebe e851 51bf
-0.5227426 0.0038680418 -0.2984192 -0.16904533 -0.41056028 -0.39440158 0.10604914 -0.251799
-0.02692451 -0.587349 -0.35295817 -0.33008105 -0.23895615 -0.4191369 -0.2783284 -0.81765604

bn1.running_mean f4 [16]
00000000: 9a43 033f df55 acbe 98a5 57be 1a95 abbc
00000010: 6840 733e 5ee8 febe 1933 81be c4e0 b7be
00000020: ab00 2d3f e100 9dbd d8f1 003f e901 06bf
00000030: 838e 3abe c201 d9be d91c 20bf 2314 763d
0.51275027 -0.33659264 -0.21059263 -0.02094512 0.23755038 -0.49786657 -0.25234297 -0.3591367
0.67579144 -0.07666183 0.50369024 -0.52346665 -0.18218426 -0.42384154 -0.6254402 0.060077798

bn1.running_var f4 [16]
00000000: 405a dd3c 1e99 8a3d ee80 5d3d 1191 833d
00000010: 888b b33d 574a 373d 6ade 0d3d be05 243d
00000020: 2ab0 213c a3dc 093d 373a 803e e2e7 e63e
00000030: 0ee9 b33d 8b0e f93d 43ea c63d 227e 5d3d
0.027020574 0.06767486 0.054078035 0.064241536 0.08766848 0.04474863 0.03463594 0.04004454
0.009868661 0.03365768 0.25044414 0.45098788 0.08784686 0.12160977 0.097126506 0.054075368

conv2.weight f4 [16, 16, 3]
00000000: b075 50bd 09f5 183d 9c1d 46be 6c7b 55bd
00000010: 713f b7bd fa83 433e 044e 173d 9786 4d3d
00000020: 327d cfbc 5627 f53b 9b54 9e3e f4dd 91be
00000030: c08f 83be 9426 433e 6769 0cbe 6a5f 393d
00000040: f214 a93d 8205 0abe 21ef 0a3e 5bd8 80bd
00000050: 3b13 0e3e 78a9 fcbd 8755 20bf ee97 063e
00000060: b975 a7bc ae20 db3c 694c 0fbe 91ab 013e
00000070: 1d4f 06bf 832b a1be b269 6c3e c0f0 b8be
00000080: 1629 1f3e a224 a1be 9532 61bd 980e cf3e
00000090: 034e b73d 9574 e63d c044 223f 4217 1bbe
000000a0: 2eef afbd 093c a13e c5ec 0f3e 1a7b f8be
000000b0: d423 6b3e 40e9 4bbd 606f cf3d 2dca b5bf
000000c0: 8228 41bb f84d e2bc bb84 b03d 6087 673c
000000d0: 6c2e 213e 6391 36bb b828 96bd 4e2a b4bd
000000e0: a3c3 61be ddbe a93d 33ca 873e e86b d8be
000000f0: ed99 9bbe 7b65 133e ec38 19bf 1408 0a3d
00000100: 3fcd d8bd 37a6 0b3e e071 77bd a66a aabd
00000110: dbcd 233c 2ce9 e13c 6862 823e 78d7 a63e
00000120: 0fe2 a9bd 5fb3 693e f89f 6bbc 04df ffbe
00000130: e17a 79be f593 a93e 4064 9b3e 43fd a23e
00000140: d7f0 ae3e 66e1 60bd 879a e03d 8fea 9a3e
00000150: 5da3 7d3e 4069 c2bb 4be2 a23e 099c dabc
00000160: a9d7 da3e 75ee e33d 96be 05bf 0369 08be
00000170: 8245 3fbf 9de0 23bd b963 8abe 5aec 413d
00000180: 35d8 c83c 1bed 1abe a908 813d 0ff2 373d
00000190: 4823 743e 3d96 513b b300 e3bd 0ddf 553d
000001a0: 4621 a6bd a5d9 823e 77b4 45be 516a 623e
000001b0: 971d 56bf 44d5 b03e 9940 5dbe 0cb0 afbc
000001c0: 72d7 efbd 2327 33be cda5 843d 2c9f 9a3c
000001d0: 44cb 953e f741 f33c b7b2 82bd 316e 89bd
000001e0: 697d e0bd 639e 2e3e 699d e4bd 4e5e 83bb
000001f0: 1c22 5e3c 5bbe 64be dd04 f83d c607 773e
00000200: 8325 713e 2fef 93be 8aa7 813e 8cd2 9abe
00000210: 2710 3abe 8e38 fc3e 88a6 7fbe 5d0d 1cbd
00000220: 6e65 f33e 8453 a9be bfd6 783e 317a 4a3e
00000230: 37a2 06be 83b1 9ebd 765f 003d 9cc1 26be
00000240: 2824 91bd 305f 06bd e403 6fbc 7c85 c23d
00000250: d4e3 e53d 62fa e83d 54e9 a2bd 3f4a 45be
00000260: 4e13 323a d25f 0d3f 09cd 15bd dfa6 c5bc
00000270: 421b 703e 1e3d 46be 69f3 233e e19c 2dbe
00000280: 9e63 8dbc 03ec dfbd 3e0a f13d b411 323e
00000290: 07ef 1abd 329a 0dbd f774 3fbe 7138 c1bd
000002a0: 7538 0a3e 7fd9 eabe 0bc3 ba3d 7f8e c03e
000002b0: edf7 30bd ebbe 87bd 02bd 0bbf 71b6 b3be
000002c0: 97e0 f33d 19ca e1be 98b6 d3be 6706 c63e
000002d0: f158 78bc b7ac 693d ad7b 10be 1f91 333e
000002e0: b18d 48bd b17a d63d d72a 233f 5df3 3ebe
000002f0: e2df 9a3d 539b 4c3c 3a35 db3d 2675 adbe
00000300: 81e4 bf3d eb1e 53b8 f97d 37be 7fdc 33bd
00000310: c100 2a3d 3d9d e1bd 65db 1a3d 9c5c 83bc
00000320: c6e0 003e 6a7c a0bd 1574 c33d a775 e0be
00000330: 446e abbe 9128 2ebe e720 0c3e 9e07 da3c
00000340: e9a0 59bc 9611 c33d 9e4e 18be beda a8b9
00000350: fd7f 0a3e 6c3d abbe b564 343e 938f 1fbe
00000360: cc07 f1bb 1d62 31bc ce97 8a3c 900b 483d
00000370: ae2f e63e f18a 97be 7360 bb3d 2b0b 943d
00000380: 0f92 3d3f 9f9f 7c3e 5d1a b2be 8cd8 01bf
00000390: 3264 f63d d480 f5bc bed9 a9be 9eb3 f1bd
000003a0: 18f2 a23b 9d52 6d3e 43e5 7d3d 36c6 ab3e
000003b0: 7cdb 253f 37cf 063a 8800 ccbd 49db e53e
000003c0: 8b94 793d 049c 783d b777 4abd 1399 c6bc
000003d0: a45e 9bba e14d 683c c19d 20bd fae7 57bd
000003e0: 3503 93bc 0d32 8e39 fd2c 11bf 86ea 373c
000003f0: 5790 833d 603e f4be de44 9d3e 32ba 803d
-0.050893486 0.03734306 -0.19347233 -0.052119657 -0.08947647 0.19093314 0.036939636 0.050177183
-0.025328252 0.007481496 0.30923924 -0.2848965 -0.2569561 0.19057685 -0.13712083 0.04525701
0.08255948 -0.13478664 0.13567783 -0.062912665 0.13874523 -0.12337011 -0.62630504 0.13143894
-0.020441877 0.026748981 -0.13993992 0.12663104 -0.5246447 -0.3147851 0.23087195 -0.36121178
0.15543017 -0.3147326 -0.05497988 0.40440822 0.089504264 0.11252705 0.63386154 -0.15145591
-0.08590542 0.31491116 0.14055164 -0.4853142 0.22962886 -0.04978299 0.10128665 -1.4202324
-0.0029473607 -0.027625069 0.08619066 0.014131397 0.15740365 -0.0027857653 -0.07331985 -0.087971315
-0.22047286 0.082883574 0.26521453 -0.42269826 -0.30390874 0.1439418 -0.5985248 0.03369911
-0.105860226 0.13637625 -0.060411334 -0.08321123 0.00999781 0.027577005 0.25465703 0.32586265
-0.082950704 0.22822331 -0.014381401 -0.49974835 -0.24363281 0.33120695 0.30349922 0.31833848
0.3416812 -0.054902457 0.10966974 0.3025708 0.2476935 -0.005932957 0.31813273 -0.026685731
0.4274266 0.111294664 -0.52243936 -0.13321309 -0.74715436 -0.04000913 -0.27029207 0.047344543
0.024517158 -0.15129511 0.0630048 0.04490858 0.23841584 0.0031980418 -0.11084118 0.05221467
-0.08111815 0.25556675 -0.19307123 0.22110869 -0.836389 0.3453771 -0.21606673 -0.02144625
-0.11711015 -0.17495398 0.064769365 0.018874727 0.29256642 0.02969454 -0.063817434 -0.067104705
-0.1096142 0.17052607 -0.11162836 -0.0040090447 0.013557937 -0.2233824 0.121103026 0.24124059
0.23549466 -0.2889342 0.25323135 -0.3023876 -0.18170224 0.49261898 -0.2496587 -0.03809868
0.47538322 -0.3307153 0.24300669 0.19773175 -0.13147818 -0.077487014 0.03134104 -0.16284794
-0.070869744 -0.03280562 -0.01458833 0.094981164 0.112250954 0.11375882 -0.0795466 -0.19266604
0.0006793038 0.55224335 -0.03657249 -0.024127422 0.23447898 -0.19359252 0.16010822 -0.16954376
-0.017259415 -0.109336875 0.11769532 0.17389566 -0.03782561 -0.03457088 -0.18696962 -0.094345935
0.13498099 -0.4586906 0.09119233 0.37608716 -0.04320519 -0.066282116 -0.5458528 -0.3510013
0.119080715 -0.440995 -0.41350245 0.3867676 -0.015157924 0.05704948 -0.14109679 0.17535828
-0.048963252 0.1047262 0.63737243 -0.18647523 0.075622335 0.012488204 0.107035115 -0.3387844
0.093697555 -5.0335115e-05 -0.17919149 -0.043911453 0.041504625 -0.11016319 0.037806887 -0.01603537
0.12585744 -0.0783623 0.09543625 -0.43839762 -0.33482563 -0.17007662 0.13684426 0.02661496
-0.013282993 0.095248386 -0.1487374 -0.00032206433 0.13525386 -0.334453 0.17616542 -0.15582113
-0.007355666 -0.010826615 0.01691809 0.04883915 0.44958252 -0.2959819 0.091492556 0.072286926
0.7405099 0.24670266 -0.3478574 -0.5072105 0.120308295 -0.029968657 -0.33173937 -0.118018374
0.0049727075 0.23176046 0.06198622 0.3354966 0.6478803 0.0005142572 -0.09961039 0.44893864
0.060932677 0.060695663 -0.049430575 -0.024242913 -0.0011853767 0.014178724 -0.039212946 -0.052711464
-0.017945865 0.0002712164 -0.5670927 0.011225348 0.06424015 -0.47703838 0.30716604 0.06285514

conv2.bias f4 [16]
00000000: 7e28 203d 877a c1bf 0bd4 6c3f affc 1240
00000010: a59b dc3f d0d5 d3bf 714f 27bf be9b 1d40
00000020: 518c 0640 b954 84bf bb45 1fc0 8d82 52bf
00000030: 66d1 953f fac2 6b40 10d5 03bf b246 9ebf
0.039101116 -1.5115517 0.9251105 2.2966726 1.7234999 -1.6549625 -0.6535559 2.4626307
2.1023142 -1.0338355 -2.488631 -0.82230455 1.1704528 3.6837754 -0.5149698 -1.2365324

bn2.weight f4 [16]
00000000: 71d4 8b40 a201 7140 31bc 0040 b668 9d40
00000010: c993 6740 b4cb 3340 2b44 2040 7177 6140
00000020: 2aa0 8740 7ffa 1440 c2bf 8640 80f4 8d40
00000030: fa85 9740 1fe1 e340 bee4 e23f fd49 1b40
4.369683 3.7657247 2.0114863 4.919032 3.618395 2.809308 2.5041606 3.5229151
4.2383013 2.327789 4.210908 4.436096 4.7351046 7.1212306 1.7726057 2.426391

bn2.bias f4 [16]
00000000: 31a9 513f 0deb 513d ee6c 2b3e 0ac1 6ebf
00000010: 2de5 3cc0 7ddc 14bf 4f4d 04be 4d0e 25be
00000020: 3eeb d9bf 322a 8b3f 7a5f 50bf 2daf 81bf
00000030: bab0 efbe 7b1f 32c0 6ec2 00bf 7a9e f73e
0.8189879 0.051249553 0.16740772 -0.93263304 -2.9514878 -0.5814894 -0.12920116 -0.16118737
-1.7024915 1.0872252 -0.81395686 -1.0131584 -0.4681452 -2.7831714 -0.50296676 0.48363096

bn2.running_mean f4 [16]
00000000: 89ad 893e 1a34 c9bf 39e2 8e3f 7abd 1e40
00000010: eff4 dd3f 8bc1 ddbf 4082 12bf 6c4c 1a40
00000020: 163d 0740 45dc a0bf dc1e 21c0 908c 3ebf
00000030: 2c06 9d3f 6940 7040 3774 29bf 11ba a6bf
0.2689021 -1.5719025 1.1162788 2.4803147 1.7340373 -1.732469 -0.57229996 2.4109144
2.1131034 -1.2567221 -2.5175085 -0.7443323 1.2267509 3.7539313 -0.66192955 -1.3025533

bn2.running_var f4 [16]
00000000: 0e13 4d3c 04e0 463b 0dd0 b93b 5446 903b
00000010: 1ebc fb3a a8ab 203b a041 463b a3b6 5f3a
00000020: 45c7 4b3b 81fd e53b dff1 c03a 74ec ce3a
00000030: 5da2 453b 3ca7 963b 6968 883b f54d 543b
0.01251675 0.0030345926 0.0056705535 0.004402915 0.0019205844 0.0024516378 0.0030251518 0.000853399
0.0031094116 0.0070187454 0.0014720521 0.0015787021 0.003015659 0.0045975726 0.0041628373 0.0032395099

conv3.weight f4 [32, 16, 3]
00000000: 144c 44bf 7da2 043f 1796 b7be 1560 943e
00000010: b4d1 63bd 8dae 373e 4444 25bc 9f3b 943d
00000020: 5675 583e 6b7a 4ebc 2919 333e a7d6 fa3d
00000030: a53d 593d 13ad 38be e937 843e c9ea 1fbe
00000040: fccb 4b3e 3aed b1bc 0261 88bd 7eac b2be
00000050: 5e25 ed3d 07fc 443e 27f5 a1bd 90b1 1039
00000060: 7718 c83e bcf0 b33e b500 1f3e 8c81 4fbc
00000070: 5284 303e 859f 63bd 13fe 39be 0a8a 1ebe
00000080: 6558 02be d544 06bd 7ef5 4bbe 1c90 383e
00000090: 5982 403c 9151 a1bd d43f 0fbd ac88 58bd
000000a0: fbca 00be f9a7 e2be 4570 0b3e 6625 6cbe
000000b0: a1ba 623e c0db 6fbd f0ba a33d 0bc6 13bc
000000c0: b782 a23e f7d9 be3e c5c2 0abf 0703 d7bd
000000d0: a7e3 53be d749 84bd c6ce 283e 47b5 b5bc
000000e0: 4beb 3bbd 205b d53d 181b 6cbe 6452 80be
000000f0: 2f7e 3fbd 9b6a e43c 479f a03e 9f68 b63d
00000100: 23cd b7bc ce27 8abe 1f2c 96be a22d a83d
00000110: 5c23 be3e 788c 80bc bde9 1bbd 51aa a03e
00000120: 28dc 103e 4078 283e 22e6 56bd fc16 d33d
00000130: 5734 0e3e acaa 65be 99b3 25be d5b0 8abe
00000140: ea0b 133d 10a9 afbc 171d 663e 4f1f c43e
00000150: 13a4 2d3e 38b1 89be 070d 31be 17d3 3e3d
00000160: f4de bd3d 4a99 1dbe be12 f63e 9f3e 393e
00000170: bbaf a13d af15 35be 1350 b1bd 73d4 a5bd
00000180: f4ab afbe 725c 883f 29ce 8d3d 59e0 1a3e
00000190: 2f2a 60bc a8f2 49be c2c1 a1bd 9d76 a3bd
000001a0: 655a 8b3e f6ee 7bbe 2af1 0abe 19fd db3d
000001b0: 9efe 9fbd e786 8b3d 5217 7bbc be2e 6a3c
000001c0: 1656 32be a7dc 773e 1184 d63d e17b 3c3d
000001d0: 6617 eb3d 7556 283c 6e54 80be beca 103e
000001e0: 307e 823c d7e6 0cbe e149 fdbd bb3a 8ebe
000001f0: bc25 ddbe b9cf c3be 0f79 a13d 2644 983d
00000200: 667c 80be ba25 e13d abe3 06be 3530 19bb
00000210: e699 153d ea89 13be 0b2b 333d d764 c1bd
00000220: a573 3cbd 1867 293e 65f4 74be 8821 1bbe
00000230: cb16 073f 6815 66bd 09c9 2ebe 88f5 963d
00000240: 3de0 003f ac8e 213f ce5e 0cbe 67a6 c73d
00000250: 5974 073a 6c39 38bd 0e02 17be f277 e3bd
00000260: bf0f 033e 5d35 aabd 0e36 c0bd d04b e8bd
00000270: c46c b0bc f04a d03d 46a4 963c dfe7 63be
00000280: 6554 95be b555 99bc 3497 363e 9e9c 9dbe
00000290: 21b3 df3e 2645 f2bd 0924 613e 751c 5c3d
000002a0: 7166 0d3e 7ef5 cf3d 8ebb 4c3d 23c8 7abe
000002b0: 2e07 013d 1254 5cbe f733 92be a617 68be
000002c0: dcaa 39be e695 d23e 1cb4 1d3e 9ff6 39be
000002d0: 798c ed3d 9099 cb3d eda9 3cbe 7906 0c3e
000002e0: f1c0 8e3d 74e3 c03d 3233 0d3c ae80 713e
000002f0: f732 093f 3f9f 86be c0d0 123e c725 f33c
00000300: f61f d23e 5156 ff3e 7da9 2bbe 6104 2d3e
00000310: e986 0f3c eda5 0f3c 055f b53c 985e 11bd
00000320: 3522 323e 6233 b63e e6c1 94bd 5e6e 56be
00000330: 94fb 6a3d 8316 1fbe 8f21 073d 0370 a23c
00000340: c5e0 bf3e a3a0 99bd 32e3 88be 39c9 b93d
00000350: 500f acbd eee1 79bc 8cb7 523d 8aa9 30bd
00000360: d464 483e 6750 83be 2142 803d cd3a b4be
00000370: 89df 5bbd d093 b8bd d909 f3bd fced 22be
00000380: 7edd 5dbe abc3 b73e 9280 60be b79a ef3e
00000390: 3e03 8cbe 282a b0bd c4b8 06be f34d e73b
000003a0: 9b85 2f3e e881 943e 6084 b83c 13b6 073e
000003b0: 5a00 88be d3ca a4be 49a2 763e 8d5d 883e
000003c0: 8d63 8d3e e6cf 283f cdce d5bb fc7d 003e
000003d0: 917e 78be 0fb5 1fbd e873 703e cdf0 54bd
000003e0: 9901 27be fe17 52bc eaff b83d 9f91 3cbe
000003f0: ac53 91be c943 96bd cd7b c0bc 9459 83bd
-0.76678586 0.5181044 -0.35856697 0.28979555 -0.05561991 0.1793768 -0.010087077 0.07237934
0.2113851 -0.012602429 0.17490067 0.12247973 0.053037304 -0.18034773 0.25823906 -0.15616907
0.19902033 -0.021719564 -0.06659128 -0.34897226 0.11579393 0.19236766 -0.07908087 0.00013799057
0.39081165 0.35144603 0.15527613 -0.012665164 0.17237976 -0.05557205 -0.18163328 -0.15482345
-0.12729032 -0.032780487 -0.19917867 0.18023723 0.011749827 -0.07876886 -0.03497298 -0.052864715
-0.12577431 -0.44268778 0.13617046 -0.23061141 0.22141506 -0.05855918 0.0799464 -0.009019385
0.31740353 0.3727567 -0.54203445 -0.10498624 -0.20692311 -0.06459396 0.16485128 -0.022181166
-0.04587869 0.10417771 -0.2305721 -0.2506286 -0.046751197 0.027882865 0.3137152 0.08906674
-0.022436684 -0.26983494 -0.29330537 0.08211829 0.37136352 -0.01569198 -0.038064707 0.3137994
0.14146483 0.16452122 -0.052465566 0.10307118 0.13887154 -0.22428387 -0.16181792 -0.27088037
0.035900034 -0.02144292 0.22472034 0.38305137 0.1695712 -0.2689302 -0.17290126 0.04658803
0.092710406 -0.15390506 0.48061174 0.18090294 0.07894846 -0.17684053 -0.08657851 -0.08097162
-0.34310877 1.0653212 0.069240876 0.15124644 -0.013681932 -0.19721472 -0.078982845 -0.07981608
0.27217403 -0.24602875 -0.1356856 0.10741634 -0.07812236 0.0681284 -0.015325384 0.014293371
-0.17415652 0.24205266 0.104744084 0.046016578 0.11479072 0.010274519 -0.25064415 0.1413984
0.015929312 -0.13759933 -0.12367607 -0.27779183 -0.43192852 -0.38244417 0.07884418 0.07434873
-0.25094908 0.10993524 -0.13172786 -0.002337468 0.036523722 -0.14408079 0.04374222 -0.09443062
-0.046008725 0.16543233 -0.23921354 -0.1514951 0.52769154 -0.05617276 -0.17068876 0.0737105
0.5034216 0.63108325 -0.1370804 0.097485356 0.00051671785 -0.044976637 -0.14746878 -0.11106862
0.12798975 -0.083109595 -0.0938531 -0.11342585 -0.021536238 0.10170543 0.018388879 -0.2225642
-0.2916595 -0.018717626 0.17831117 -0.30783552 0.43691352 -0.11829595 0.21986403 0.053738076
0.1380861 0.10154246 0.049983554 -0.24490409 0.031500988 -0.21516445 -0.2855527 -0.22665271
-0.18131584 0.41129988 0.15400738 -0.18160485 0.11599059 0.09941399 -0.18424197 0.13674344
0.069703944 0.09418383 0.008618163 0.23584244 0.5359339 -0.2629337 0.14337444 0.0296811
0.4104001 0.49870542 -0.16763873 0.16896202 0.008760192 0.008767587 0.022140035 -0.035490602
0.17395861 0.35586077 -0.07263546 -0.20940539 0.05736883 -0.15535931 0.03299099 0.019828802
0.37476173 -0.07501342 -0.26735836 0.09071583 -0.08401358 -0.01525162 0.051444575 -0.043130435
0.19569713 -0.2564728 0.06262613 -0.3520111 -0.053679977 -0.09012568 -0.11867113 -0.15911096
-0.21666524 0.3589147 -0.21924046 0.46797726 -0.27346224 -0.08601791 -0.1315642 0.007058853
0.1714081 0.2900536 0.022524059 0.1325305 -0.26562768 -0.32185993 0.24085344 0.26633874
0.27615014 0.6594223 -0.0065248967 0.12548059 -0.24267031 -0.03899103 0.23481715 -0.051987458
-0.16309203 -0.012823103 0.09033187 -0.18414925 -0.2838415 -0.07337148 -0.023496533 -0.0641357

conv3.bias f4 [32]
00000000: c0a6 8dbe 1ae6 0bbd b51c 0bbd 8d14 74be
00000010: 27ce 9f3d a4db 8ebd 9d19 813d 2b70 25bd
00000020: cd9c 53bd 697a 73bd b869 303d b081 eebb
00000030: e34d 66bc c9f1 acbe c064 f0bc 9e5e dbbc
00000040: 0782 b03d c384 3dbe 9585 623d 9f70 533e
00000050: a92c 193e 9ac0 86be 8fea c5bd 4407 e9bd
00000060: 8f7f 85be 45d5 c6bd 1645 9ebd e0a3 b2bd
00000070: a658 26be c1ad 243e 7784 4cbe 8a02 75bd
-0.27666283 -0.03415499 -0.033962924 -0.23835965 0.07802992 -0.06975487 0.063037135 -0.040390175
-0.05166321 -0.05944291 0.04306957 -0.0072786435 -0.014056656 -0.33778217 -0.029344916 -0.026778515
0.08618551 -0.18507676 0.055303175 0.2064843 0.14958443 -0.26318818 -0.09663879 -0.11378339
-0.26073882 -0.09708647 -0.07728021 -0.08722663 -0.16244754 0.16081907 -0.19972406 -0.059816875

bn3.weight f4 [32]
00000000: 90ac 3540 facf 0640 8353 7540 68c8 9240
00000010: eb1f 1840 3b3f 7d40 89fc 8e40 4d79 4d40
00000020: 26d4 0540 b311 6040 b8f7 3240 8a61 2e40
00000030: 66ac 6740 e142 9540 4b22 9240 1948 3b40
00000040: c818 1e40 a20d 7f40 8b76 3240 dbbf 4340
00000050: 1cf9 3b40 aa1a 9b40 2ee5 7440 901e 1b40
00000060: d2c0 af40 be63 9240 515e 7040 2a38 3d40
00000070: 5ee1 5640 d406 3b40 308f 4f40 7227 3f40
2.8386574 2.106444 3.8332222 4.5869637 2.376948 3.9569843 4.468327 3.2105286
2.0910735 3.5010803 2.7963696 2.7247033 3.6198974 4.664414 4.566686 2.9262755
2.4702625 3.985207 2.7884853 3.058585 2.9370794 4.847005 3.826488 2.4237404
5.4922876 4.5746756 3.7557566 2.956553 3.3575053 2.9222918 3.2431145 2.9867826

bn3.bias f4 [32]
00000000: 528d 393c 4c57 5dbe 8a58 3ebe 78df 92bf
00000010: 4f7e b0be 973c 95bf 3102 bdbf 67be afbe
00000020: 8bec e0be 474e dcbd d983 10be 91b9 21bf
00000030: 5096 293f c415 c9bf 32f8 afbf 9e0a 23bf
00000040: 7333 0b3e e0dd 99bf 7c3a 0b3c 4c24 46bf
00000050: a04a 59bf 7161 bfbf 6692 85bf 1056 a2be
00000060: d6ed ebbf 60c9 98bf a789 7abf 5b00 8dbe
00000070: 3603 89bf 42ba 683e e658 bfbf 91d4 ba3c
0.011325197 -0.21615332 -0.18588462 -1.1474447 -0.34471366 -1.1659116 -1.4766294 -0.34324953
-0.43930468 -0.10757118 -0.14112796 -0.63173777 0.66244984 -1.5709767 -1.3747618 -0.63688076
0.13593845 -1.2020836 0.0084978305 -0.77399135 -0.84879494 -1.4951612 -1.0435302 -0.31706285
-1.8431957 -1.1936455 -0.9786629 -0.27539334 -1.0704105 0.22727302 -1.4949005 0.022806438

bn3.running_mean f4 [32]
00000000: b892 4abf 66f9 6b3e fcd6 25bf c4d7 d73f
00000010: 212a a53f 42aa b13f b152 eebf 20f7 c4be
00000020: 772a c4be a654 993f b41d cb3f 98bc 913f
00000030: 6495 a6be 4bec 61bf 44ef 18c0 3170 843f
00000040: 6ad6 703f c3ef 9dbf 0c71 5abf 25ef 42c0
00000050: d459 2bbe bacc 86bf 01bc 5d40 b5bc 0ac0
00000060: fafd 243e ae7e 4c40 f781 cb3f 10d4 a03f
00000070: 9899 333f d622 8ebe 3805 4040 e446 9c3f
-0.79130125 0.23044357 -0.64781165 1.6862721 1.2903482 1.3880084 -1.8618985 -0.3846979
-0.38313648 1.1978958 1.586844 1.1385679 -0.3253585 -0.8825118 -2.3896036 1.0346738
0.9407717 -1.2338794 -0.85328746 -3.0458462 -0.16733485 -1.0531228 3.4645998 -2.1677678
0.1611251 3.195232 1.5899037 1.2564716 0.7015624 -0.27760953 3.0003185 1.2209134

bn3.running_var f4 [32]
00000000: 8073 9041 84c3 1641 af11 bb41 f7cd 1f41
00000010: 6eb0 8041 f962 5441 354c 0041 1357 cf40
00000020: fa99 0741 0116 6941 1d21 a940 e61b 7e41
00000030: adf1 1941 9044 b940 b044 4a41 6cd8 b441
00000040: 4154 4b41 a3b7 0d41 bd6b 3d41 1bd7 e340
00000050: 7291 5641 3dbf 5941 afee 0841 2700 7041
00000060: 6ac8 ac40 9ded 5441 c661 2641 598d 0941
00000070: e0e4 4a41 3641 1741 b33d 2541 5d64 f241
18.056396 9.422733 23.383635 9.987784 16.086147 13.274163 8.018605 6.479379
8.475092 14.567872 5.285292 15.881811 9.621503 5.7896194 12.641769 22.605675
12.70807 8.857333 11.838803 7.120008 13.410509 13.609189 8.558272 15.000037
5.3994646 13.308011 10.39887 8.597009 12.680878 9.453421 10.327563 30.299006

conv4.weight f4 [32, 32, 3]
00000000: f7c3 883e 1e9a 82be bcc6 d23e bf90 6abe
00000010: 1998 db3d 8333 3d3d d85c 3f3e 758d 1bbd
00000020: cfef 3e3d 732f 2ebd 05d6 f43d 0ee3 63be
00000030: 46ca 09bd 3f55 933e 927a 77be 7160 643e
00000040: eaaf dabb 394d cf3e 21d8 493e 230b e2bc
00000050: 4c61 bf3d 1bfc 263e e89a eabd 1160 8f3e
00000060: 0b4a 37be 3d09 c03e feda adbe 4c5a 55be
00000070: 040c b6be 1b41 b73e 6d92 aabd 8e97 153e
00000080: 9cfc f0be 41fa e6bd 09f0 d33d 01f9 b23d
00000090: 947c 29bc 18c7 4dbe 544a 9c3d fdcf 343e
000000a0: 982f 24be 3800 f23b 1954 bfbe 6a4a 2bbe
000000b0: 8938 3a3c f024 68be 1a3b eb3d f675 8fbc
000000c0: 13bf 34bc 97b8 5c3e 0e4d 41be 8dc3 c73c
000000d0: 5260 2c3e 127e 51be bdd6 5dbe 9d50 633e
000000e0: 4ca1 f1be 7db6 b4bd 52b1 28bd 6556 6fbe
000000f0: 77ff 173e 72c8 25bf 8e52 bb3e d2b9 0cbd
00000100: 82ba 823e a3d6 22be b00e 903d d053 7f3d
00000110: 8c75 123d 8eeb c93e ceec f1be 7bd8 993e
00000120: 5661 243e f1f1 33be 378d 793e 8b93 173c
00000130: 5c1d b83d 585e 973d ba20 1e3e 4a20 ce3c
00000140: fe9c e13c 08ab 103e 6f02 40be e493 da3c
00000150: 0787 04be 9ea3 e83d a583 a1be 409a aa3e
00000160: bf5e bf3d af61 263d 1b10 333e a3e1 f8bc
00000170: 70e6 3f3e c471 10be 89c6 8cbe a389 82be
00000180: fb92 443d 3182 e6bd 2fa5 afbd ca78 4abd
00000190: e10f 32be 6869 59be 8d57 9fbe 1f93 dc3d
000001a0: 3a09 23be 36f4 ac3c 8390 fc3d 5f8f d7bc
000001b0: 1a60 56be 2359 2e3e 49fe e7bd 548a 163c
000001c0: 73cf 7a3e 6bba a13d 486b 38be a7b9 1d3e
000001d0: 9498 f43b 29ae 963e 7141 f93e 0b2c f83e
000001e0: 142c 533e 9756 8cbe 2705 35be 9c75 4cbd
000001f0: 56fd 89be f32f 09be 0c02 443e 724d 923d
00000200: e580 393e a51a 50be a232 a7bc d7f1 663d
00000210: 9a2d 113e 6521 bc3d a905 8abd 91ec dabd
00000220: 8ca6 55be c8e1 73be 5061 983e 604e cc3c
00000230: dd25 633e a396 933e bddf f6bd 3a4f b13e
00000240: 68dc a7be c4be f43d 8143 e5bd 7b06 5d3d
00000250: 86f5 65be 8dd3 9a3d 5a69 1fbe c427 a43e
00000260: 539f cf3c 5f0e 6abd 2bc2 2a3e 6e70 7a3e
00000270: ac85 fb3d 304c a73c d5e3 433e e57d c4bd
00000280: 0bd1 c23c d3c0 e4bd c46b 34bc 4cbe 20be
00000290: 973a d33d e990 d7bc d463 c83e 4b12 c13b
000002a0: eff4 333d caf6 973d bb2e 20be 51f0 24be
000002b0: dd1e 213d 8dc1 9cbe 7fc4 c2bd 48a0 0abe
000002c0: aebb 06be ce9b 9dbd e175 66be 3b98 b43d
000002d0: e99f 173e c07e ae3e 041f af3d b130 f43e
000002e0: c368 cbbe 63fd 953e ff4d 59be a604 983d
000002f0: ae8e a5be 3317 c9be a531 ad3e b55a 79be
00000300: 76e0 763e 90d8 4b3e 934e 05be ddc3 e1bc
00000310: 86a2 4b3e c5fb 503d 0a9a 65bd 8a3a 343e
00000320: 0153 8d3d 0927 023e a639 4cbe 09ca 3dbe
00000330: 7b4e 823d a9b1 89bb 06a2 983e eb07 e23c
00000340: 3d3f 5cbd 20c1 24be 0a29 9dbe b4b1 1dbe
00000350: 81f9 fb3c cace f5bd f657 1abf 519b ea3e
00000360: 9ca1 ddbd b71c 3bbd d582 aebd 913a 4f3e
00000370: 2657 16bd 59b8 25be 921d c1be 0d44 19bf
00000380: 4f1d 973e d29b 823d c8a8 80be 8e29 cf3c
00000390: 10e8 843e 24b3 273d bb6b 1dbe 2068 533e
000003a0: f217 393d 9531 69be e135 87bd 66b7 143e
000003b0: 1b80 bfbd f358 30be 6782 b93e e7d7 933e
000003c0: bd46 18be d2e7 453d ef97 1ebd 8834 84be
000003d0: d249 68bd 6f54 a73d e972 92bc 991e 30be
000003e0: a5f2 a13e 5dcc 6bbd 429b 2bbe 35ba 33be
000003f0: 122e 303e 3c3e 64be 0b25 27bd 7c82 b23d
0.2671201 -0.25508207 0.41167247 -0.22906779 0.1072237 0.046191704 0.18687761 -0.0379767
0.046615418 -0.04252572 0.119548835 -0.22254583 -0.03364017 0.28775975 -0.2416785 0.22302414
-0.0066738026 0.40488604 0.19711353 -0.027593201 0.0934473 0.16307108 -0.11455327 0.2800298
-0.17899339 0.37507048 -0.3395614 -0.20835227 -0.35556042 0.3579186 -0.0832871 0.14608595
-0.47067726 -0.11278201 0.103485174 0.087389 -0.010344643 -0.2009548 0.076313645 0.17657466
-0.1603378 0.00738528 -0.3736885 -0.16727605 0.011366018 -0.2267034 0.11485882 -0.017512303
-0.011031884 0.2155479 -0.1887705 0.024385238 0.16833618 -0.20458248 -0.21663947 0.2219872
-0.47193372 -0.088238694 -0.04118473 -0.233728 0.14843546 -0.6475898 0.36586422 -0.0343569
0.2553292 -0.1590219 0.070340514 0.06233579 0.035756633 0.39437526 -0.4725098 0.30047974
0.16052756 -0.17572762 0.24370275 0.009251486 0.08989975 0.073910415 0.15442172 0.025161881
0.02754068 0.14127743 -0.18750928 0.026681848 -0.12942134 0.113593325 -0.3154575 0.33320808
0.09344243 0.040620502 0.17486612 -0.03038103 0.18740249 -0.14105898 -0.2749522 -0.25495633
0.047991734 -0.11255301 -0.08576428 -0.0494316 -0.1738887 -0.21231616 -0.31121483 0.107702486
-0.15921488 0.021112543 0.12332251 -0.026313482 -0.20935097 0.1702619 -0.11327798 0.009188253
0.24493198 0.078968845 -0.18009675 0.15402852 0.007464478 0.2942975 0.4868274 0.48471102
0.20622283 -0.27409813 -0.17677747 -0.04991685 -0.26951092 -0.13397197 0.19141406 0.07143678
0.18115576 -0.20322664 -0.020409886 0.05638298 0.14177552 0.09186057 -0.06739361 -0.10689653
-0.20864314 -0.23816597 0.29761744 0.024939716 0.22182412 0.28825864 -0.120543934 0.34630758
-0.32785344 0.11950448 -0.11194516 0.05396126 -0.22456941 0.07559881 -0.15567532 0.3206159
0.025344526 -0.05714261 0.16675632 0.24456951 0.12281355 0.020422071 0.1912988 -0.09594325
0.02378132 -0.11169591 -0.011012021 -0.15697592 0.103139095 -0.026314216 0.39138663 0.0058920733
0.04393476 0.07420118 -0.15642826 -0.16107298 0.039336074 -0.30616418 -0.09510135 -0.13537705
-0.13157532 -0.07695733 -0.22505905 0.08818098 0.14807095 0.34081078 0.08550838 0.476934
-0.39728364 0.2929488 -0.2122116 0.074227616 -0.32335418 -0.39275512 0.33826938 -0.24351008
0.24109063 0.19906831 -0.13018255 -0.027559215 0.19886217 0.051021356 -0.056055106 0.17600456
0.06900597 0.12710203 -0.19943866 -0.18534102 0.06362625 -0.004202087 0.29811114 0.027591666
-0.053771246 -0.16089296 -0.30695373 -0.1539982 0.030758621 -0.120023325 -0.6029047 0.45821622
-0.1082184 -0.04568168 -0.08521048 0.20237185 -0.036704205 -0.16183604 -0.37717873 -0.5986946
0.29514548 0.063773766 -0.2512877 0.02528837 0.259583 0.040942326 -0.15373127 0.2064519
0.04518885 -0.2277282 -0.066020735 0.14523086 -0.09350606 -0.17221431 0.36232302 0.28875658
-0.14870735 0.048316784 -0.038719114 -0.25821328 -0.056711026 0.08170401 -0.017877059 -0.17199172
0.31630436 -0.057567943 -0.16758445 -0.17551501 0.17205074 -0.22289366 -0.04080681 0.08716294

conv4.bias f4 [32]
00000000: 37e3 85bd 29ed 873d 022d 9abd 4944 d43d
00000010: 1a0e efbd 8cbc 37bd c55f 67bd 3c51 00be
00000020: 2183 27be 865c bfbd 4fa8 81bd f0d7 573d
00000030: 28ee 3cbe 258c a33c c5ab 2d3c 41b6 703c
00000040: 465a b5bd 4038 06be 5560 87bd a50c 5e3d
00000050: 8181 eebd 6f34 c2bd 0b8b 95bd dc37 ca3d
00000060: de28 013e fecf a1bd 16c8 15be 0dde 3dbe
00000070: 632a 82bd fe2c 45be cd65 5a3b da37 60bd
-0.065374784 0.066370316 -0.07528116 0.10364587 -0.116726115 -0.044857547 -0.056487817 -0.12530988
-0.16358615 -0.09343819 -0.063309304 0.05269617 -0.18450224 0.019964287 0.010600035 0.01469189
-0.08855109 -0.13107395 -0.06610171 0.054211278 -0.11645795 -0.09482657 -0.07301911 0.098739356
0.12613246 -0.079009995 -0.14627108 -0.18541737 -0.06355741 -0.19255444 0.0033324838 -0.054740764

bn4.weight f4 [32]
00000000: 2993 5c40 a719 4a40 c9d7 6b40 a61e 7e40
00000010: 538f 4f40 371a 3940 bf07 4240 14b4 7c40
00000020: 2238 6f40 ca3d 8840 e8a4 3a40 b35c 5f40
00000030: 7a5a 7540 00fc 6640 5467 5840 3f12 7440
00000040: f6bd 8540 89f1 6940 1821 5f40 916a 6e40
00000050: 3936 5c40 b32a 1040 a0d1 8b40 e0a6 6040
00000060: 18a2 7340 ba60 6640 6b72 3040 87f4 3f40
00000070: f50d 8040 bb9a 4840 9581 5f40 1fdd 7c40
3.446482 3.1578157 3.6850455 3.9706206 3.2431228 2.892225 3.0317228 3.948491
3.737801 4.2575426 2.916315 3.490033 3.8336473 3.6091309 3.3813066 3.8136137
4.1794386 3.6553671 3.486395 3.7252543 3.4408095 2.2526062 4.369339 3.5101852
3.8067684 3.5996537 2.7569835 2.9992998 4.0017037 3.134444 3.492284 3.9509962

bn4.bias f4 [32]
00000000: 8e60 85be a3c8 0b3f 9c02 c93c 57b1 07bf
00000010: 7b14 4dbe be99 1bbf 62de afbe 6ed6 7f3e
00000020: 599d c6be dfb5 9fbe f47e a9be 9e22 dabe
00000030: 8d1f e5be 6cc7 87be 496e e0bd 48ee 1bbf
00000040: 3e6b 683e 056b f9be 2cd0 33bf 719a 05bf
00000050: 3e97 dbbd 10e4 843e 3366 54bf 1641 f5be
00000060: 33e7 21bf 3f63 a5be 2125 64bd 5684 9bbe
00000070: f60c 3dbf 34dc d4be 7129 21be 1e4b 15bf
-0.26050228 0.5460302 0.024537377 -0.53004974 -0.20027344 -0.60781467 -0.34349352 0.24984142
-0.38791922 -0.31193444 -0.3310467 -0.42604536 -0.44750634 -0.26519334 -0.10958535 -0.60910463
0.2269716 -0.48714462 -0.7023952 -0.52188784 -0.107222065 0.25955248 -0.82968444 -0.4790122
-0.63243407 -0.3230228 -0.05569947 -0.30374402 -0.738479 -0.41574252 -0.15738465 -0.58317745

bn4.running_mean f4 [32]
00000000: e057 67bd 22e5 e73e 533f b63f 6c9a 873f
00000010: c591 bd3f 6b8a e9bc 0a62 0340 72d8 df3e
00000020: 7fd6 713e c48e 8fbe 9949 c73f 73b1 ecbb
00000030: 567c 853f e2da 3d3f ede8 713f a776 bc3e
00000040: d2a9 903f 898c 7ebe ccfa 8d3f 8496 953f
00000050: 7077 953f ce5d 8ebe 3b9c a2bf 07e9 c23e
00000060: 4c01 69bf 31cb 8b3f 7b24 bb3f 2153 0b40
00000070: 801a 1cbf f509 0a40 13df ba3f a9d6 e93e
-0.05648029 0.45292002 1.4238075 1.0594001 1.481011 -0.028508386 2.0528588 0.43719822
0.2361698 -0.2803861 1.5569335 -0.007223302 1.0428569 0.74162114 0.9449604 0.36809275
1.1301825 -0.24858297 1.1092162 1.1686559 1.1677074 -0.27805942 -1.2703928 0.3806841
-0.91017604 1.0921384 1.4620508 2.1769488 -0.60977936 2.1568577 1.4599327 0.45671585

bn4.running_var f4 [32]
00000000: 8bac 6541 6ec0 5141 4ce9 d241 956e 7d41
00000010: 6a64 5a41 1d2f a441 b732 1d42 a9d2 5042
00000020: 5e81 ab41 a23a ce41 3385 9141 5e20 7e41
00000030: 01c4 7041 e05e 7e41 640b 8f41 f1a7 ab41
00000040: c67e 3742 29c5 8a41 1cc5 3141 65f8 9a41
00000050: 6ea3 e941 3d78 6041 7d90 a441 b14a a141
00000060: 7d0d af41 32a5 1641 de41 da41 e811 0b42
00000070: c367 4641 d21a b441 042a 6541 8821 7b41
14.354625 13.10948 26.363914 15.839498 13.649515 20.523005 39.299526 52.205723
21.438168 25.77863 18.190039 15.882902 15.0478525 15.898163 17.880562 21.457003
45.873802 17.34627 11.110622 19.371286 29.2048 14.029355 20.57055 20.16147
21.881586 9.415331 27.282162 34.767487 12.400332 22.513096 14.322758 15.695686

conv5.weight f4 [5, 32, 1]
00000000: a175 d93e cc15 3fbf 226d 90bf ed70 9f3f
00000010: 208c 93be 3b95 5abe c2fa 953e 4f91 afbf
00000020: 70b4 b5be a97d adbf 2fbb 8ebf c9fe 043f
00000030: ad48 8dbf 15bd e93f b521 f4bc 8ea1 f93e
00000040: b2a2 d9bf 9112 dc3f 539f fcbe d592 d63f
00000050: ab38 d7bf 4d96 4dbe f383 8e3f 5a54 0440
00000060: 4439 8f3f e44a ee3f 9cd9 76bf 9ff1 59bf
00000070: dc9b af3f 4ead e9bf ac24 81bf 4f98 eabf
00000080: 28da 2b3f fda4 2ebf 16ad 78bf 3f55 21bf
00000090: 9482 693e bad3 ee3d 192f 953f 9941 73bf
000000a0: c327 a0bf 6ab9 15bf 9afe 993f 52ee e93b
000000b0: 5c91 823f 60aa 05c0 1060 923f 8f18 26bf
000000c0: ef77 55bf 0cd5 643f 8d1e f4be 4023 2cbf
000000d0: 82eb 8c3e 44d2 573f c7ab 0cbf c74e d0bf
000000e0: d790 f4bf 89a5 4a3f b2dc 4d3f 4442 833f
000000f0: 66af ccbf 5b18 903f cd3b ef3e fa71 37bf
00000100: 8d90 b33f 8c73 123e a0d4 433f 094d debf
00000110: 50ec bdbf d2a9 98bf a857 66bf 2a54 593f
00000120: d48f a93f eaad 993f 575b 18bf ab54 c13f
00000130: 349a aebf 55a4 c6be 49b3 dcbf a938 ba3f
00000140: 515b 033f b771 94bf ccba a3bf c878 fbbf
00000150: 0060 c13f c09a 41be 4814 0440 09fa c1bd
00000160: abc3 173f 14db 7fbf 054b b6bf 5e06 58bf
00000170: b35b cbbf f228 393f 1fa9 d1bf 49a3 873f
00000180: 64a4 f2bf 41fa 9a3f 221d a33f c7cc 1040
00000190: 16dc 80bf c3d7 b1bf d883 7d3e c98a 2c3f
000001a0: 7755 debf 2685 c03f 867a d03e 51f3 d3bf
000001b0: e3b8 a83f e741 d2b9 602e 5abf 0933 6d3f
000001c0: 1d76 b23f 437c c8bf 4284 75bf 74e7 52bf
000001d0: 7b45 babf b24f 36bf cfdd 02c0 b125 f4be
000001e0: 2f0e fa3f 89da 9abf 3f61 5f3e 6ecd 90bf
000001f0: 5e69 54bf 2354 03bf 3db0 c03f b09b fabf
00000200: ac18 acbf 00f1 ac3c ac67 c83e 442f cebf
00000210: 3f47 9b3f e67a d83f 73c9 d3bf 3882 4f3f
00000220: b023 ca3f c06b 99bf 9024 70bf dcd8 87bf
00000230: db28 8cbf bba8 a03d 5630 243f cc24 08c0
00000240: 82a3 4c3e 1571 5abf 5fec fc3f 90af be3e
00000250: 257f 8d3e 511e cabe 74c3 0dc0 d0c6 81bf
00000260: 745e c8bf be96 a7bf cf3a f33e 2d8f 753f
00000270: 9150 c73f 8f20 edbe 5cf0 323c e1c1 df3f
0.42472556 -0.74642634 -1.1283305 1.2456337 -0.28817844 -0.2134599 0.29292876 -1.371622
-0.35489225 -1.3553973 -1.1150874 0.5195127 -1.1037804 1.8260828 -0.029801229 0.4875607
-1.7002776 1.7193166 -0.49340305 1.676356 -1.6814169 -0.20076866 1.1134018 2.0676484
1.1189351 1.8616605 -0.96425796 -0.8513431 1.371944 -1.8256013 -1.0089316 -1.8327731
0.67129755 -0.682205 -0.9713911 -0.630207 0.22803718 0.116614774 1.1654998 -0.9502197
-1.2512134 -0.58486044 1.2030823 0.0071390057 1.020061 -2.0885239 1.1435566 -0.64881223
-0.8338613 0.89387584 -0.47679558 -0.6724129 0.27523428 0.84305215 -0.5494961 -1.6274041
-1.9106702 0.79158837 0.8041488 1.0254598 -1.5991027 1.1257433 0.46725312 -0.7165829
1.4028488 0.1430189 0.76496315 -1.7367259 -1.4837742 -1.1926825 -0.899775 0.8489405
1.3247018 1.2006199 -0.59514374 1.5103964 -1.3640809 -0.3879725 -1.7242213 1.4548541
0.5131121 -1.1597203 -1.2791381 -1.9646235 1.5107422 -0.18906689 2.0637379 -0.094715185
0.5928294 -0.9994366 -1.4241644 -0.84384716 -1.5887359 0.723281 -1.6379737 1.0596706
-1.8956418 1.2107621 1.2743266 2.2624986 -1.0067165 -1.389397 0.24757326 0.6739927
-1.7369832 1.5040634 0.40718478 -1.6558629 1.3181423 -0.00040103422 -0.8522701 0.92656
1.3942295 -1.5662922 -0.95904934 -0.8238442 -1.4552454 -0.71215355 -2.0447881 -0.47685006
1.9535578 -1.2097942 0.2181444 -1.1312692 -0.8297328 -0.5130026 1.5053784 -1.9578762
-1.3445029 0.021111012 0.39141595 -1.6108174 1.2131118 1.6912506 -1.6545852 0.81058073
1.5792141 -1.1986008 -0.9380579 -1.0613055 -1.0949968 0.07844683 0.64136255 -2.127246
0.19984248 -0.853288 1.9759635 0.3724332 0.27636066 -0.39476255 -2.2150545 -1.0138798
-1.5653825 -1.3092878 0.47505805 0.95921594 1.5571462 -0.46313903 0.010921564 1.7481042

conv5.bias f4 [5]
00000000: d36c d6be 3ccd 57be 0cd6 5e3e a68e 813e
00000010: 3795 c6bc
-0.418799 -0.21074384 0.2176134 0.25304145 -0.024241073
