networks/pretrained_models/itcnetaudio5/temp_bckup/CNN1D_TrafficClassification_with_auxiliary_best_model.pth (torch, 118554 bytes, 86 tensors)

conv1.weight f4 [16, 1, 3]
000000 8f 1a bf 3e f8 1b 2d bb dc 99 dc 3e 22 a3 35 3e
       0.3732495 -0.0026414376 0.43086135 0.17738011
000010 a2 fe 1e 3f 88 6c fc 3e 9d 4f 13 3e 6e ac 8b 3e
       0.6210729 0.49301553 0.14385839 0.2727999
000020 e8 09 39 3f f0 a2 cb be fa c9 22 bf 5c a7 68 be
       0.7228074 -0.3977275 -0.6358944 -0.22720093
000030 90 de 9a bf f6 6b 2d be 91 d4 1c 3c 6a 7c 10 3d
       -1.2099171 -0.16935715 0.009572164 0.0352749
000040 d6 39 19 3f 6d 86 cc 3e 51 23 b2 3e 2d c0 76 bc
       0.59853876 0.3994631 0.3479257 -0.015060467
000050 0b 77 11 3f b0 6d 7c be 4e 85 53 bf 22 11 2e 3e
       0.5682227 -0.24651217 -0.8262528 0.16998723
000060 25 65 12 bf 4c 2f a1 3e 0c ab 7b bd c7 84 13 3d
       -0.57185584 0.31481397 -0.06144242 0.0360153
000070 d7 26 17 3d de 2c 5f bf a4 f5 33 3c 69 45 0e c0
       0.036902275 -0.87177837 0.010983858 -2.2229865
000080 c8 78 26 bd ff d6 40 c0 4d 97 81 3c 37 6c 43 bc
       -0.04064253 -3.0131223 0.015819216 -0.011927656
000090 ff 36 5b be e4 cc 94 bf 25 c6 3e bc 4a 96 54 bf
       -0.21407698 -1.1625028 -0.011643921 -0.8304182
0000a0 ae ba 62 bf 02 4b dc 3c 40 a6 8c bd 2a fa 6e 3b
       -0.885661 0.026891235 -0.06867647 0.0036465027
0000b0 d3 ed ac bf d9 87 ff 3d ce 71 46 be b4 9e 7c bf
       -1.3510078 0.12477083 -0.1937935 -0.9867966

conv1.bias f4 [16]
000000 65 b2 e2 3e 9d eb e4 be 90 51 9e be 42 97 b7 3d
       0.4427673 -0.4471101 -0.30921602 0.08964397
000010 59 23 b6 3e 73 9c 15 bf 23 5d a8 be 27 25 90 be
       0.35573843 -0.5844185 -0.32883558 -0.28153345
000020 bd 42 34 3f dd 9c 06 bc 4b ed 32 3f 8f 26 88 be
       0.70414335 -0.00821611 0.6989333 -0.26591918
000030 fc fe 80 bd e2 6b 8e be 30 9d 00 bf 76 0e 19 3e
       -0.062986344 -0.27816683 -0.5023985 0.14946923

bn1.weight f4 [16]
000000 73 18 a8 3e 61 7d 99 3e 5f 53 96 3e 2e 5b e5 3f
       0.32831153 0.2997847 0.29360482 1.7918451
000010 cb 8d ed 3f eb af 7d 3e bf 85 45 3e 07 44 1c 3f
       1.8558897 0.24774139 0.19289301 0.610413
000020 04 01 16 3e 35 9d b8 3f eb 12 d6 3f a2 84 dc 3f
       0.14648825 1.4422976 1.6724523 1.7227976
000030 c6 d1 c3 3f d7 5c d6 3f 4b 35 d4 3f ed 9d db 3f
       1.5298393 1.6747082 1.6578764 1.715757

bn1.bias f4 [16]
000000 76 d2 05 bf f9 7e 7d 3b 67 ca 98 be 38 1a 2d be
       -0.5227426 0.0038680418 -0.2984192 -0.16904533
000010 f5 34 d2 be 01 ef c9 be 4b 30 d9 3d cc eb 80 be
       -0.41056028 -0.39440158 0.10604914 -0.251799
000020 ca 90 dc bc 81 5c 16 bf ef b6 b4 be 62 00 a9 be
       -0.02692451 -0.587349 -0.35295817 -0.33008105
000030 ec b0 74 be 1d 99 d6 be 0f 81 8e be e8 51 51 bf
       -0.23895615 -0.4191369 -0.2783284 -0.81765604

bn1.running_mean f4 [16]
000000 9a 43 03 3f df 55 ac be 98 a5 57 be 1a 95 ab bc
       0.51275027 -0.33659264 -0.21059263 -0.02094512
000010 68 40 73 3e 5e e8 fe be 19 33 81 be c4 e0 b7 be
       0.23755038 -0.49786657 -0.25234297 -0.3591367
000020 ab 00 2d 3f e1 00 9d bd d8 f1 00 3f e9 01 06 bf
       0.67579144 -0.07666183 0.50369024 -0.52346665
000030 83 8e 3a be c2 01 d9 be d9 1c 20 bf 23 14 76 3d
       -0.18218426 -0.42384154 -0.6254402 0.060077798

bn1.running_var f4 [16]
000000 40 5a dd 3c 1e 99 8a 3d ee 80 5d 3d 11 91 83 3d
       0.027020574 0.06767486 0.054078035 0.064241536
000010 88 8b b3 3d 57 4a 37 3d 6a de 0d 3d be 05 24 3d
       0.08766848 0.04474863 0.03463594 0.04004454
000020 2a b0 21 3c a3 dc 09 3d 37 3a 80 3e e2 e7 e6 3e
       0.009868661 0.03365768 0.25044414 0.45098788
000030 0e e9 b3 3d 8b 0e f9 3d 43 ea c6 3d 22 7e 5d 3d
       0.08784686 0.12160977 0.097126506 0.054075368

submod1.weight f4 [5, 16, 1]
000000 c1 cc d5 be 82 2d a1 be 82 2a 10 bf da cb 76 3e
       -0.41757777 -0.31480032 -0.5631486 0.241012
000010 b6 f6 ab bd e7 f2 1a bf 06 13 ad be c0 d8 c4 3e
       -0.08396666 -0.6052689 -0.33803576 0.38446617
000020 11 70 cb bd 5d fc 55 3f 33 3b c8 bd 5c 1d 83 3d
       -0.09933484 0.835882 -0.09776916 0.06402084
000030 ac eb 54 3e f1 cb 15 3e 7b 2b fe 3d 8b 3a 04 40
       0.20793027 0.14628579 0.12410637 2.0660732
000040 f4 41 34 3f b5 dc 30 3f d5 e8 fd 3e 00 cc a0 be
       0.70413136 0.6908677 0.495917 -0.3140564
000050 9e 58 f7 be 85 3f 55 3f b8 2a 01 3f a2 ee eb 3e
       -0.48309797 0.8330005 0.5045581 0.460805
000060 d3 fe 27 3f 07 9a 7d 3c ef 31 9c bd 25 d5 c2 be
       0.65623206 0.0154786175 -0.076267116 -0.3805324
000070 cf c6 85 be a5 df b9 be 64 8e 70 be 7c 31 36 bf
       -0.2612824 -0.3630344 -0.23491818 -0.7116926
000080 20 c9 97 bf 5a c3 4f bf 54 eb 60 bf 04 36 c1 3e
       -1.1858253 -0.8115746 -0.8785908 0.37736523
000090 41 3b 13 3e 3d d7 a6 bf 86 e4 77 bf 4d 30 23 bf
       0.14378072 -1.3034436 -0.96833074 -0.63745576
0000a0 bb 5f 0e bf a9 15 ed be 39 bd 11 3e f4 39 79 3e
       -0.55614823 -0.46305588 0.14232339 0.24338514
0000b0 59 16 62 3d 82 cc a5 3e 42 a5 bd 3c d9 dd 90 3f
       0.055197094 0.3238259 0.02315009 1.1317703
0000c0 b3 88 23 bf 4c e1 17 bf d2 89 42 bf ca 60 2b ba
       -0.6388046 -0.5932815 -0.7599155 -0.0006537555
0000d0 00 f4 1c bd 5a 5e 85 be d7 57 33 bf 29 12 bc be
       -0.038318634 -0.26048547 -0.7005591 -0.36732605
0000e0 df 28 aa be 20 d3 da 3d f2 8a 9f 3e ce ee b7 3e
       -0.33234307 0.106848 0.31160694 0.3592438
0000f0 9c 06 38 3e f8 8d cd 3c 92 a0 47 3e be 2a b7 bf
       0.17971271 0.02509211 0.19494846 -1.4309919
000100 df 45 39 3d 25 43 41 bd 74 0c a1 3d e6 cb 1a 3e
       0.04523265 -0.047183175 0.07863703 0.15116844
000110 35 66 89 3e 91 c5 a2 3e 74 fa 18 3e b5 44 27 be
       0.2683579 0.31791356 0.1493929 -0.16334803
000120 ec aa 90 be 02 7e a0 bf b1 99 cc bc 2e 0d 24 be
       -0.28255403 -1.2538455 -0.02497563 -0.16020653
000130 b3 26 ad bd a3 ef 75 bd 38 12 24 bd 49 b2 0c c0
       -0.08454647 -0.06004299 -0.040056437 -2.1983817

submod1.bias f4 [5]
000000 8f d8 ef 3c f7 33 92 3e 5c 88 08 3c 1c f9 34 3d
       0.029278068 0.2855527 0.008333292 0.04418288
000010 7b 04 2f 3d
       0.042728882

conv2.weight f4 [16, 16, 3]
000000 b0 75 50 bd 09 f5 18 3d 9c 1d 46 be 6c 7b 55 bd
       -0.050893486 0.03734306 -0.19347233 -0.052119657
000010 71 3f b7 bd fa 83 43 3e 04 4e 17 3d 97 86 4d 3d
       -0.08947647 0.19093314 0.036939636 0.050177183
000020 32 7d cf bc 56 27 f5 3b 9b 54 9e 3e f4 dd 91 be
       -0.025328252 0.007481496 0.30923924 -0.2848965
000030 c0 8f 83 be 94 26 43 3e 67 69 0c be 6a 5f 39 3d
       -0.2569561 0.19057685 -0.13712083 0.04525701
000040 f2 14 a9 3d 82 05 0a be 21 ef 0a 3e 5b d8 80 bd
       0.08255948 -0.13478664 0.13567783 -0.062912665
000050 3b 13 0e 3e 78 a9 fc bd 87 55 20 bf ee 97 06 3e
       0.13874523 -0.12337011 -0.62630504 0.13143894
000060 b9 75 a7 bc ae 20 db 3c 69 4c 0f be 91 ab 01 3e
       -0.020441877 0.026748981 -0.13993992 0.12663104
000070 1d 4f 06 bf 83 2b a1 be b2 69 6c 3e c0 f0 b8 be
       -0.5246447 -0.3147851 0.23087195 -0.36121178
000080 16 29 1f 3e a2 24 a1 be 95 32 61 bd 98 0e cf 3e
       0.15543017 -0.3147326 -0.05497988 0.40440822
000090 03 4e b7 3d 95 74 e6 3d c0 44 22 3f 42 17 1b be
       0.089504264 0.11252705 0.63386154 -0.15145591
0000a0 2e ef af bd 09 3c a1 3e c5 ec 0f 3e 1a 7b f8 be
       -0.08590542 0.31491116 0.14055164 -0.4853142
0000b0 d4 23 6b 3e 40 e9 4b bd 60 6f cf 3d 2d ca b5 bf
       0.22962886 -0.04978299 0.10128665 -1.4202324
0000c0 82 28 41 bb f8 4d e2 bc bb 84 b0 3d 60 87 67 3c
       -0.0029473607 -0.027625069 0.08619066 0.014131397
0000d0 6c 2e 21 3e 63 91 36 bb b8 28 96 bd 4e 2a b4 bd
       0.15740365 -0.0027857653 -0.07331985 -0.087971315
0000e0 a3 c3 61 be dd be a9 3d 33 ca 87 3e e8 6b d8 be
       -0.22047286 0.082883574 0.26521453 -0.42269826
0000f0 ed 99 9b be 7b 65 13 3e ec 38 19 bf 14 08 0a 3d
       -0.30390874 0.1439418 -0.5985248 0.03369911
000100 3f cd d8 bd 37 a6 0b 3e e0 71 77 bd a6 6a aa bd
       -0.105860226 0.13637625 -0.060411334 -0.08321123
000110 db cd 23 3c 2c e9 e1 3c 68 62 82 3e 78 d7 a6 3e
       0.00999781 0.027577005 0.25465703 0.32586265
000120 0f e2 a9 bd 5f b3 69 3e f8 9f 6b bc 04 df ff be
       -0.082950704 0.22822331 -0.014381401 -0.49974835
000130 e1 7a 79 be f5 93 a9 3e 40 64 9b 3e 43 fd a2 3e
       -0.24363281 0.33120695 0.30349922 0.31833848
000140 d7 f0 ae 3e 66 e1 60 bd 87 9a e0 3d 8f ea 9a 3e
       0.3416812 -0.054902457 0.10966974 0.3025708
000150 5d a3 7d 3e 40 69 c2 bb 4b e2 a2 3e 09 9c da bc
       0.2476935 -0.005932957 0.31813273 -0.026685731
000160 a9 d7 da 3e 75 ee e3 3d 96 be 05 bf 03 69 08 be
       0.4274266 0.111294664 -0.52243936 -0.13321309
000170 82 45 3f bf 9d e0 23 bd b9 63 8a be 5a ec 41 3d
       -0.74715436 -0.04000913 -0.27029207 0.047344543
000180 35 d8 c8 3c 1b ed 1a be a9 08 81 3d 0f f2 37 3d
       0.024517158 -0.15129511 0.0630048 0.04490858
000190 48 23 74 3e 3d 96 51 3b b3 00 e3 bd 0d df 55 3d
       0.23841584 0.0031980418 -0.11084118 0.05221467
0001a0 46 21 a6 bd a5 d9 82 3e 77 b4 45 be 51 6a 62 3e
       -0.08111815 0.25556675 -0.19307123 0.22110869
0001b0 97 1d 56 bf 44 d5 b0 3e 99 40 5d be 0c b0 af bc
       -0.836389 0.3453771 -0.21606673 -0.02144625
0001c0 72 d7 ef bd 23 27 33 be cd a5 84 3d 2c 9f 9a 3c
       -0.11711015 -0.17495398 0.064769365 0.018874727
0001d0 44 cb 95 3e f7 41 f3 3c b7 b2 82 bd 31 6e 89 bd
       0.29256642 0.02969454 -0.063817434 -0.067104705
0001e0 69 7d e0 bd 63 9e 2e 3e 69 9d e4 bd 4e 5e 83 bb
       -0.1096142 0.17052607 -0.11162836 -0.0040090447
0001f0 1c 22 5e 3c 5b be 64 be dd 04 f8 3d c6 07 77 3e
       0.013557937 -0.2233824 0.121103026 0.24124059
000200 83 25 71 3e 2f ef 93 be 8a a7 81 3e 8c d2 9a be
       0.23549466 -0.2889342 0.25323135 -0.3023876
000210 27 10 3a be 8e 38 fc 3e 88 a6 7f be 5d 0d 1c bd
       -0.18170224 0.49261898 -0.2496587 -0.03809868
000220 6e 65 f3 3e 84 53 a9 be bf d6 78 3e 31 7a 4a 3e
       0.47538322 -0.3307153 0.24300669 0.19773175
000230 37 a2 06 be 83 b1 9e bd 76 5f 00 3d 9c c1 26 be
       -0.13147818 -0.077487014 0.03134104 -0.16284794
000240 28 24 91 bd 30 5f 06 bd e4 03 6f bc 7c 85 c2 3d
       -0.070869744 -0.03280562 -0.01458833 0.094981164
000250 d4 e3 e5 3d 62 fa e8 3d 54 e9 a2 bd 3f 4a 45 be
       0.112250954 0.11375882 -0.0795466 -0.19266604
000260 4e 13 32 3a d2 5f 0d 3f 09 cd 15 bd df a6 c5 bc
       0.0006793038 0.55224335 -0.03657249 -0.024127422
000270 42 1b 70 3e 1e 3d 46 be 69 f3 23 3e e1 9c 2d be
       0.23447898 -0.19359252 0.16010822 -0.16954376
000280 9e 63 8d bc 03 ec df bd 3e 0a f1 3d b4 11 32 3e
       -0.017259415 -0.109336875 0.11769532 0.17389566
000290 07 ef 1a bd 32 9a 0d bd f7 74 3f be 71 38 c1 bd
       -0.03782561 -0.03457088 -0.18696962 -0.094345935
0002a0 75 38 0a 3e 7f d9 ea be 0b c3 ba 3d 7f 8e c0 3e
       0.13498099 -0.4586906 0.09119233 0.37608716
0002b0 ed f7 30 bd eb be 87 bd 02 bd 0b bf 71 b6 b3 be
       -0.04320519 -0.066282116 -0.5458528 -0.3510013
0002c0 97 e0 f3 3d 19 ca e1 be 98 b6 d3 be 67 06 c6 3e
       0.119080715 -0.440995 -0.41350245 0.3867676
0002d0 f1 58 78 bc b7 ac 69 3d ad 7b 10 be 1f 91 33 3e
       -0.015157924 0.05704948 -0.14109679 0.17535828
0002e0 b1 8d 48 bd b1 7a d6 3d d7 2a 23 3f 5d f3 3e be
       -0.048963252 0.1047262 0.63737243 -0.18647523
0002f0 e2 df 9a 3d 53 9b 4c 3c 3a 35 db 3d 26 75 ad be
       0.075622335 0.012488204 0.107035115 -0.3387844
000300 81 e4 bf 3d eb 1e 53 b8 f9 7d 37 be 7f dc 33 bd
       0.093697555 -5.0335115e-05 -0.17919149 -0.043911453
000310 c1 00 2a 3d 3d 9d e1 bd 65 db 1a 3d 9c 5c 83 bc
       0.041504625 -0.11016319 0.037806887 -0.01603537
000320 c6 e0 00 3e 6a 7c a0 bd 15 74 c3 3d a7 75 e0 be
       0.12585744 -0.0783623 0.09543625 -0.43839762
000330 44 6e ab be 91 28 2e be e7 20 0c 3e 9e 07 da 3c
       -0.33482563 -0.17007662 0.13684426 0.02661496
000340 e9 a0 59 bc 96 11 c3 3d 9e 4e 18 be be da a8 b9
       -0.013282993 0.095248386 -0.1487374 -0.00032206433
000350 fd 7f 0a 3e 6c 3d ab be b5 64 34 3e 93 8f 1f be
       0.13525386 -0.334453 0.17616542 -0.15582113
000360 cc 07 f1 bb 1d 62 31 bc ce 97 8a 3c 90 0b 48 3d
       -0.007355666 -0.010826615 0.01691809 0.04883915
000370 ae 2f e6 3e f1 8a 97 be 73 60 bb 3d 2b 0b 94 3d
       0.44958252 -0.2959819 0.091492556 0.072286926
000380 0f 92 3d 3f 9f 9f 7c 3e 5d 1a b2 be 8c d8 01 bf
       0.7405099 0.24670266 -0.3478574 -0.5072105
000390 32 64 f6 3d d4 80 f5 bc be d9 a9 be 9e b3 f1 bd
       0.120308295 -0.029968657 -0.33173937 -0.118018374
0003a0 18 f2 a2 3b 9d 52 6d 3e 43 e5 7d 3d 36 c6 ab 3e
       0.0049727075 0.23176046 0.06198622 0.3354966
0003b0 7c db 25 3f 37 cf 06 3a 88 00 cc bd 49 db e5 3e
       0.6478803 0.0005142572 -0.09961039 0.44893864
0003c0 8b 94 79 3d 04 9c 78 3d b7 77 4a bd 13 99 c6 bc
       0.060932677 0.060695663 -0.049430575 -0.024242913
0003d0 a4 5e 9b ba e1 4d 68 3c c1 9d 20 bd fa e7 57 bd
       -0.0011853767 0.014178724 -0.039212946 -0.052711464
0003e0 35 03 93 bc 0d 32 8e 39 fd 2c 11 bf 86 ea 37 3c
       -0.017945865 0.0002712164 -0.5670927 0.011225348
0003f0 57 90 83 3d 60 3e f4 be de 44 9d 3e 32 ba 80 3d
       0.06424015 -0.47703838 0.30716604 0.06285514

conv2.bias f4 [16]
000000 7e 28 20 3d 87 7a c1 bf 0b d4 6c 3f af fc 12 40
       0.039101116 -1.5115517 0.9251105 2.2966726
000010 a5 9b dc 3f d0 d5 d3 bf 71 4f 27 bf be 9b 1d 40
       1.7234999 -1.6549625 -0.6535559 2.4626307
000020 51 8c 06 40 b9 54 84 bf bb 45 1f c0 8d 82 52 bf
       2.1023142 -1.0338355 -2.488631 -0.82230455
000030 66 d1 95 3f fa c2 6b 40 10 d5 03 bf b2 46 9e bf
       1.1704528 3.6837754 -0.5149698 -1.2365324

bn2.weight f4 [16]
000000 71 d4 8b 40 a2 01 71 40 31 bc 00 40 b6 68 9d 40
       4.369683 3.7657247 2.0114863 4.919032
000010 c9 93 67 40 b4 cb 33 40 2b 44 20 40 71 77 61 40
       3.618395 2.809308 2.5041606 3.5229151
000020 2a a0 87 40 7f fa 14 40 c2 bf 86 40 80 f4 8d 40
       4.2383013 2.327789 4.210908 4.436096
000030 fa 85 97 40 1f e1 e3 40 be e4 e2 3f fd 49 1b 40
       4.7351046 7.1212306 1.7726057 2.426391

bn2.bias f4 [16]
000000 31 a9 51 3f 0d eb 51 3d ee 6c 2b 3e 0a c1 6e bf
       0.8189879 0.051249553 0.16740772 -0.93263304
000010 2d e5 3c c0 7d dc 14 bf 4f 4d 04 be 4d 0e 25 be
       -2.9514878 -0.5814894 -0.12920116 -0.16118737
000020 3e eb d9 bf 32 2a 8b 3f 7a 5f 50 bf 2d af 81 bf
       -1.7024915 1.0872252 -0.81395686 -1.0131584
000030 ba b0 ef be 7b 1f 32 c0 6e c2 00 bf 7a 9e f7 3e
       -0.4681452 -2.7831714 -0.50296676 0.48363096

bn2.running_mean f4 [16]
000000 89 ad 89 3e 1a 34 c9 bf 39 e2 8e 3f 7a bd 1e 40
       0.2689021 -1.5719025 1.1162788 2.4803147
000010 ef f4 dd 3f 8b c1 dd bf 40 82 12 bf 6c 4c 1a 40
       1.7340373 -1.732469 -0.57229996 2.4109144
000020 16 3d 07 40 45 dc a0 bf dc 1e 21 c0 90 8c 3e bf
       2.1131034 -1.2567221 -2.5175085 -0.7443323
000030 2c 06 9d 3f 69 40 70 40 37 74 29 bf 11 ba a6 bf
       1.2267509 3.7539313 -0.66192955 -1.3025533

bn2.running_var f4 [16]
000000 0e 13 4d 3c 04 e0 46 3b 0d d0 b9 3b 54 46 90 3b
       0.01251675 0.0030345926 0.0056705535 0.004402915
000010 1e bc fb 3a a8 ab 20 3b a0 41 46 3b a3 b6 5f 3a
       0.0019205844 0.0024516378 0.0030251518 0.000853399
000020 45 c7 4b 3b 81 fd e5 3b df f1 c0 3a 74 ec ce 3a
       0.0031094116 0.0070187454 0.0014720521 0.0015787021
000030 5d a2 45 3b 3c a7 96 3b 69 68 88 3b f5 4d 54 3b
       0.003015659 0.0045975726 0.0041628373 0.0032395099

submod2.weight f4 [5, 16, 1]
000000 37 78 92 be f4 96 e8 be cb 2d e0 3d 0d 2f 1b bf
       -0.28607342 -0.45427668 0.10946234 -0.6061867
000010 cd d5 87 bf cd 9e 22 3f 8c 85 e1 be ab 39 a7 be
       -1.0612122 0.6352356 -0.440472 -0.32661185
000020 5f c4 12 3f 52 9f ca be 23 b3 79 3e 32 98 b7 3f
       0.5733089 -0.39574677 0.24384741 1.4343321
000030 ed 0d 25 bf 7a ce a6 3f 2a 40 08 3f 38 12 15 be
       -0.64474374 1.3031762 0.53222907 -0.14557731
000040 13 83 94 3e 03 8c cb 3e 38 0c b4 3e 0b ad 46 bf
       0.29006252 0.39755258 0.35165572 -0.7760779
000050 b8 39 cc be af 0f 26 bd 52 2c df 3e 28 51 90 be
       -0.39887786 -0.0405423 0.435885 -0.28186917
000060 5f 4d 3e 3f 0d 61 91 3e c2 93 53 bf 78 d6 a4 be
       0.7433681 0.28394356 -0.82647336 -0.32194877
000070 97 42 f8 be e0 b6 c6 bf ef 1a d5 3e 79 88 c6 3e
       -0.48488304 -1.5524559 0.4162211 0.38775995
000080 bc 21 06 bf f3 2d 15 bf 10 7c 93 be fd a6 1e 3f
       -0.52395225 -0.5827324 -0.2880559 0.61973554
000090 6c e0 89 3f 61 c6 93 bd 29 59 cc 3e 88 45 9a bf
       1.0771613 -0.07215572 0.39911774 -1.2052469
0000a0 b8 7e 95 3f cc 6e 32 be 59 6c 3a bf ee 7e 88 bf
       1.1679296 -0.17425078 -0.72821575 -1.0663736
0000b0 7a bf 51 3f 4b 08 8a 3f 46 b6 ab be c1 fb 60 3e
       0.81932795 1.0783781 -0.335375 0.21971036
0000c0 9b 2c 83 bd 1c d9 74 bf 0e 6e 3f 3e 1c 0f 87 3d
       -0.06404992 -0.9564378 0.18694326 0.06594679
0000d0 a9 6f 96 3f 71 76 83 bf fb f3 06 bf 6f 5f 84 3f
       1.1752826 -1.027052 -0.52716035 1.0341624
0000e0 ab 02 97 bf 06 83 87 be 4b ca a4 3f 16 f5 4d bf
       -1.1797689 -0.2646715 1.2874235 -0.80452096
0000f0 03 0d b9 3d ca 71 1f 3e 50 37 1d bf 45 e4 03 bf
       0.09035685 0.15570751 -0.61412525 -0.51520187
000100 52 16 e2 3d 9f 5c 6d 3f 2e 39 62 3e ee 29 87 3f
       0.110394135 0.92719454 0.22092125 1.0559671
000110 68 93 b7 bf 8d 56 03 3f 05 11 0d bf 68 cc a7 3d
       -1.434186 0.5130394 -0.55104095 0.08193284
000120 73 85 96 bf d4 e8 47 3e 3c 58 41 bf 84 3c 24 bf
       -1.1759475 0.1952241 -0.7552526 -0.6415484
000130 8f c1 65 bd 1f 06 eb be a8 7c 3f 3d d4 ec 1e 3f
       -0.056092795 -0.45903108 0.04674974 0.6208012

submod2.bias f4 [5]
000000 54 f6 09 bf c1 f7 e3 3e bb 5a 07 bf 5f ea ad 3e
       -0.5389149 0.4452496 -0.5287282 0.33967873
000010 dd 7f 32 3e
       0.17431588

conv3.weight f4 [32, 16, 3]
000000 14 4c 44 bf 7d a2 04 3f 17 96 b7 be 15 60 94 3e
       -0.76678586 0.5181044 -0.35856697 0.28979555
000010 b4 d1 63 bd 8d ae 37 3e 44 44 25 bc 9f 3b 94 3d
       -0.05561991 0.1793768 -0.010087077 0.07237934
000020 56 75 58 3e 6b 7a 4e bc 29 19 33 3e a7 d6 fa 3d
       0.2113851 -0.012602429 0.17490067 0.12247973
000030 a5 3d 59 3d 13 ad 38 be e9 37 84 3e c9 ea 1f be
       0.053037304 -0.18034773 0.25823906 -0.15616907
000040 fc cb 4b 3e 3a ed b1 bc 02 61 88 bd 7e ac b2 be
       0.19902033 -0.021719564 -0.06659128 -0.34897226
000050 5e 25 ed 3d 07 fc 44 3e 27 f5 a1 bd 90 b1 10 39
       0.11579393 0.19236766 -0.07908087 0.00013799057
000060 77 18 c8 3e bc f0 b3 3e b5 00 1f 3e 8c 81 4f bc
       0.39081165 0.35144603 0.15527613 -0.012665164
000070 52 84 30 3e 85 9f 63 bd 13 fe 39 be 0a 8a 1e be
       0.17237976 -0.05557205 -0.18163328 -0.15482345
000080 65 58 02 be d5 44 06 bd 7e f5 4b be 1c 90 38 3e
       -0.12729032 -0.032780487 -0.19917867 0.18023723
000090 59 82 40 3c 91 51 a1 bd d4 3f 0f bd ac 88 58 bd
       0.011749827 -0.07876886 -0.03497298 -0.052864715
0000a0 fb ca 00 be f9 a7 e2 be 45 70 0b 3e 66 25 6c be
       -0.12577431 -0.44268778 0.13617046 -0.23061141
0000b0 a1 ba 62 3e c0 db 6f bd f0 ba a3 3d 0b c6 13 bc
       0.22141506 -0.05855918 0.0799464 -0.009019385
0000c0 b7 82 a2 3e f7 d9 be 3e c5 c2 0a bf 07 03 d7 bd
       0.31740353 0.3727567 -0.54203445 -0.10498624
0000d0 a7 e3 53 be d7 49 84 bd c6 ce 28 3e 47 b5 b5 bc
       -0.20692311 -0.06459396 0.16485128 -0.022181166
0000e0 4b eb 3b bd 20 5b d5 3d 18 1b 6c be 64 52 80 be
       -0.04587869 0.10417771 -0.2305721 -0.2506286
0000f0 2f 7e 3f bd 9b 6a e4 3c 47 9f a0 3e 9f 68 b6 3d
       -0.046751197 0.027882865 0.3137152 0.08906674
000100 23 cd b7 bc ce 27 8a be 1f 2c 96 be a2 2d a8 3d
       -0.022436684 -0.26983494 -0.29330537 0.08211829
000110 5c 23 be 3e 78 8c 80 bc bd e9 1b bd 51 aa a0 3e
       0.37136352 -0.01569198 -0.038064707 0.3137994
000120 28 dc 10 3e 40 78 28 3e 22 e6 56 bd fc 16 d3 3d
       0.14146483 0.16452122 -0.052465566 0.10307118
000130 57 34 0e 3e ac aa 65 be 99 b3 25 be d5 b0 8a be
       0.13887154 -0.22428387 -0.16181792 -0.27088037
000140 ea 0b 13 3d 10 a9 af bc 17 1d 66 3e 4f 1f c4 3e
       0.035900034 -0.02144292 0.22472034 0.38305137
000150 13 a4 2d 3e 38 b1 89 be 07 0d 31 be 17 d3 3e 3d
       0.1695712 -0.2689302 -0.17290126 0.04658803
000160 f4 de bd 3d 4a 99 1d be be 12 f6 3e 9f 3e 39 3e
       0.092710406 -0.15390506 0.48061174 0.18090294
000170 bb af a1 3d af 15 35 be 13 50 b1 bd 73 d4 a5 bd
       0.07894846 -0.17684053 -0.08657851 -0.08097162
000180 f4 ab af be 72 5c 88 3f 29 ce 8d 3d 59 e0 1a 3e
       -0.34310877 1.0653212 0.069240876 0.15124644
000190 2f 2a 60 bc a8 f2 49 be c2 c1 a1 bd 9d 76 a3 bd
       -0.013681932 -0.19721472 -0.078982845 -0.07981608
0001a0 65 5a 8b 3e f6 ee 7b be 2a f1 0a be 19 fd db 3d
       0.27217403 -0.24602875 -0.1356856 0.10741634
0001b0 9e fe 9f bd e7 86 8b 3d 52 17 7b bc be 2e 6a 3c
       -0.07812236 0.0681284 -0.015325384 0.014293371
0001c0 16 56 32 be a7 dc 77 3e 11 84 d6 3d e1 7b 3c 3d
       -0.17415652 0.24205266 0.104744084 0.046016578
0001d0 66 17 eb 3d 75 56 28 3c 6e 54 80 be be ca 10 3e
       0.11479072 0.010274519 -0.25064415 0.1413984
0001e0 30 7e 82 3c d7 e6 0c be e1 49 fd bd bb 3a 8e be
       0.015929312 -0.13759933 -0.12367607 -0.27779183
0001f0 bc 25 dd be b9 cf c3 be 0f 79 a1 3d 26 44 98 3d
       -0.43192852 -0.38244417 0.07884418 0.07434873
000200 66 7c 80 be ba 25 e1 3d ab e3 06 be 35 30 19 bb
       -0.25094908 0.10993524 -0.13172786 -0.002337468
000210 e6 99 15 3d ea 89 13 be 0b 2b 33 3d d7 64 c1 bd
       0.036523722 -0.14408079 0.04374222 -0.09443062
000220 a5 73 3c bd 18 67 29 3e 65 f4 74 be 88 21 1b be
       -0.046008725 0.16543233 -0.23921354 -0.1514951
000230 cb 16 07 3f 68 15 66 bd 09 c9 2e be 88 f5 96 3d
       0.52769154 -0.05617276 -0.17068876 0.0737105
000240 3d e0 00 3f ac 8e 21 3f ce 5e 0c be 67 a6 c7 3d
       0.5034216 0.63108325 -0.1370804 0.097485356
000250 59 74 07 3a 6c 39 38 bd 0e 02 17 be f2 77 e3 bd
       0.00051671785 -0.044976637 -0.14746878 -0.11106862
000260 bf 0f 03 3e 5d 35 aa bd 0e 36 c0 bd d0 4b e8 bd
       0.12798975 -0.083109595 -0.0938531 -0.11342585
000270 c4 6c b0 bc f0 4a d0 3d 46 a4 96 3c df e7 63 be
       -0.021536238 0.10170543 0.018388879 -0.2225642
000280 65 54 95 be b5 55 99 bc 34 97 36 3e 9e 9c 9d be
       -0.2916595 -0.018717626 0.17831117 -0.30783552
000290 21 b3 df 3e 26 45 f2 bd 09 24 61 3e 75 1c 5c 3d
       0.43691352 -0.11829595 0.21986403 0.053738076
0002a0 71 66 0d 3e 7e f5 cf 3d 8e bb 4c 3d 23 c8 7a be
       0.1380861 0.10154246 0.049983554 -0.24490409
0002b0 2e 07 01 3d 12 54 5c be f7 33 92 be a6 17 68 be
       0.031500988 -0.21516445 -0.2855527 -0.22665271
0002c0 dc aa 39 be e6 95 d2 3e 1c b4 1d 3e 9f f6 39 be
       -0.18131584 0.41129988 0.15400738 -0.18160485
0002d0 79 8c ed 3d 90 99 cb 3d ed a9 3c be 79 06 0c 3e
       0.11599059 0.09941399 -0.18424197 0.13674344
0002e0 f1 c0 8e 3d 74 e3 c0 3d 32 33 0d 3c ae 80 71 3e
       0.069703944 0.09418383 0.008618163 0.23584244
0002f0 f7 32 09 3f 3f 9f 86 be c0 d0 12 3e c7 25 f3 3c
       0.5359339 -0.2629337 0.14337444 0.0296811
000300 f6 1f d2 3e 51 56 ff 3e 7d a9 2b be 61 04 2d 3e
       0.4104001 0.49870542 -0.16763873 0.16896202
000310 e9 86 0f 3c ed a5 0f 3c 05 5f b5 3c 98 5e 11 bd
       0.008760192 0.008767587 0.022140035 -0.035490602
000320 35 22 32 3e 62 33 b6 3e e6 c1 94 bd 5e 6e 56 be
       0.17395861 0.35586077 -0.07263546 -0.20940539
000330 94 fb 6a 3d 83 16 1f be 8f 21 07 3d 03 70 a2 3c
       0.05736883 -0.15535931 0.03299099 0.019828802
000340 c5 e0 bf 3e a3 a0 99 bd 32 e3 88 be 39 c9 b9 3d
       0.37476173 -0.07501342 -0.26735836 0.09071583
000350 50 0f ac bd ee e1 79 bc 8c b7 52 3d 8a a9 30 bd
       -0.08401358 -0.01525162 0.051444575 -0.043130435
000360 d4 64 48 3e 67 50 83 be 21 42 80 3d cd 3a b4 be
       0.19569713 -0.2564728 0.06262613 -0.3520111
000370 89 df 5b bd d0 93 b8 bd d9 09 f3 bd fc ed 22 be
       -0.053679977 -0.09012568 -0.11867113 -0.15911096
000380 7e dd 5d be ab c3 b7 3e 92 80 60 be b7 9a ef 3e
       -0.21666524 0.3589147 -0.21924046 0.46797726
000390 3e 03 8c be 28 2a b0 bd c4 b8 06 be f3 4d e7 3b
       -0.27346224 -0.08601791 -0.1315642 0.007058853
0003a0 9b 85 2f 3e e8 81 94 3e 60 84 b8 3c 13 b6 07 3e
       0.1714081 0.2900536 0.022524059 0.1325305
0003b0 5a 00 88 be d3 ca a4 be 49 a2 76 3e 8d 5d 88 3e
       -0.26562768 -0.32185993 0.24085344 0.26633874
0003c0 8d 63 8d 3e e6 cf 28 3f cd ce d5 bb fc 7d 00 3e
       0.27615014 0.6594223 -0.0065248967 0.12548059
0003d0 91 7e 78 be 0f b5 1f bd e8 73 70 3e cd f0 54 bd
       -0.24267031 -0.03899103 0.23481715 -0.051987458
0003e0 99 01 27 be fe 17 52 bc ea ff b8 3d 9f 91 3c be
       -0.16309203 -0.012823103 0.09033187 -0.18414925
0003f0 ac 53 91 be c9 43 96 bd cd 7b c0 bc 94 59 83 bd
       -0.2838415 -0.07337148 -0.023496533 -0.0641357

conv3.bias f4 [32]
000000 c0 a6 8d be 1a e6 0b bd b5 1c 0b bd 8d 14 74 be
       -0.27666283 -0.03415499 -0.033962924 -0.23835965
000010 27 ce 9f 3d a4 db 8e bd 9d 19 81 3d 2b 70 25 bd
       0.07802992 -0.06975487 0.063037135 -0.040390175
000020 cd 9c 53 bd 69 7a 73 bd b8 69 30 3d b0 81 ee bb
       -0.05166321 -0.05944291 0.04306957 -0.0072786435
000030 e3 4d 66 bc c9 f1 ac be c0 64 f0 bc 9e 5e db bc
       -0.014056656 -0.33778217 -0.029344916 -0.026778515
000040 07 82 b0 3d c3 84 3d be 95 85 62 3d 9f 70 53 3e
       0.08618551 -0.18507676 0.055303175 0.2064843
000050 a9 2c 19 3e 9a c0 86 be 8f ea c5 bd 44 07 e9 bd
       0.14958443 -0.26318818 -0.09663879 -0.11378339
000060 8f 7f 85 be 45 d5 c6 bd 16 45 9e bd e0 a3 b2 bd
       -0.26073882 -0.09708647 -0.07728021 -0.08722663
000070 a6 58 26 be c1 ad 24 3e 77 84 4c be 8a 02 75 bd
       -0.16244754 0.16081907 -0.19972406 -0.059816875

bn3.weight f4 [32]
000000 90 ac 35 40 fa cf 06 40 83 53 75 40 68 c8 92 40
       2.8386574 2.106444 3.8332222 4.5869637
000010 eb 1f 18 40 3b 3f 7d 40 89 fc 8e 40 4d 79 4d 40
       2.376948 3.9569843 4.468327 3.2105286
000020 26 d4 05 40 b3 11 60 40 b8 f7 32 40 8a 61 2e 40
       2.0910735 3.5010803 2.7963696 2.7247033
000030 66 ac 67 40 e1 42 95 40 4b 22 92 40 19 48 3b 40
       3.6198974 4.664414 4.566686 2.9262755
000040 c8 18 1e 40 a2 0d 7f 40 8b 76 32 40 db bf 43 40
       2.4702625 3.985207 2.7884853 3.058585
000050 1c f9 3b 40 aa 1a 9b 40 2e e5 74 40 90 1e 1b 40
       2.9370794 4.847005 3.826488 2.4237404
000060 d2 c0 af 40 be 63 92 40 51 5e 70 40 2a 38 3d 40
       5.4922876 4.5746756 3.7557566 2.956553
000070 5e e1 56 40 d4 06 3b 40 30 8f 4f 40 72 27 3f 40
       3.3575053 2.9222918 3.2431145 2.9867826

bn3.bias f4 [32]
000000 52 8d 39 3c 4c 57 5d be 8a 58 3e be 78 df 92 bf
       0.011325197 -0.21615332 -0.18588462 -1.1474447
000010 4f 7e b0 be 97 3c 95 bf 31 02 bd bf 67 be af be
       -0.34471366 -1.1659116 -1.4766294 -0.34324953
000020 8b ec e0 be 47 4e dc bd d9 83 10 be 91 b9 21 bf
       -0.43930468 -0.10757118 -0.14112796 -0.63173777
000030 50 96 29 3f c4 15 c9 bf 32 f8 af bf 9e 0a 23 bf
       0.66244984 -1.5709767 -1.3747618 -0.63688076
000040 73 33 0b 3e e0 dd 99 bf 7c 3a 0b 3c 4c 24 46 bf
       0.13593845 -1.2020836 0.0084978305 -0.77399135
000050 a0 4a 59 bf 71 61 bf bf 66 92 85 bf 10 56 a2 be
       -0.84879494 -1.4951612 -1.0435302 -0.31706285
000060 d6 ed eb bf 60 c9 98 bf a7 89 7a bf 5b 00 8d be
       -1.8431957 -1.1936455 -0.9786629 -0.27539334
000070 36 03 89 bf 42 ba 68 3e e6 58 bf bf 91 d4 ba 3c
       -1.0704105 0.22727302 -1.4949005 0.022806438

bn3.running_mean f4 [32]
000000 b8 92 4a bf 66 f9 6b 3e fc d6 25 bf c4 d7 d7 3f
       -0.79130125 0.23044357 -0.64781165 1.6862721
000010 21 2a a5 3f 42 aa b1 3f b1 52 ee bf 20 f7 c4 be
       1.2903482 1.3880084 -1.8618985 -0.3846979
000020 77 2a c4 be a6 54 99 3f b4 1d cb 3f 98 bc 91 3f
       -0.38313648 1.1978958 1.586844 1.1385679
000030 64 95 a6 be 4b ec 61 bf 44 ef 18 c0 31 70 84 3f
       -0.3253585 -0.8825118 -2.3896036 1.0346738
000040 6a d6 70 3f c3 ef 9d bf 0c 71 5a bf 25 ef 42 c0
       0.9407717 -1.2338794 -0.85328746 -3.0458462
000050 d4 59 2b be ba cc 86 bf 01 bc 5d 40 b5 bc 0a c0
       -0.16733485 -1.0531228 3.4645998 -2.1677678
000060 fa fd 24 3e ae 7e 4c 40 f7 81 cb 3f 10 d4 a0 3f
       0.1611251 3.195232 1.5899037 1.2564716
000070 98 99 33 3f d6 22 8e be 38 05 40 40 e4 46 9c 3f
       0.7015624 -0.27760953 3.0003185 1.2209134

bn3.running_var f4 [32]
000000 80 73 90 41 84 c3 16 41 af 11 bb 41 f7 cd 1f 41
       18.056396 9.422733 23.383635 9.987784
000010 6e b0 80 41 f9 62 54 41 35 4c 00 41 13 57 cf 40
       16.086147 13.274163 8.018605 6.479379
000020 fa 99 07 41 01 16 69 41 1d 21 a9 40 e6 1b 7e 41
       8.475092 14.567872 5.285292 15.881811
000030 ad f1 19 41 90 44 b9 40 b0 44 4a 41 6c d8 b4 41
       9.621503 5.7896194 12.641769 22.605675
000040 41 54 4b 41 a3 b7 0d 41 bd 6b 3d 41 1b d7 e3 40
       12.70807 8.857333 11.838803 7.120008
000050 72 91 56 41 3d bf 59 41 af ee 08 41 27 00 70 41
       13.410509 13.609189 8.558272 15.000037
000060 6a c8 ac 40 9d ed 54 41 c6 61 26 41 59 8d 09 41
       5.3994646 13.308011 10.39887 8.597009
000070 e0 e4 4a 41 36 41 17 41 b3 3d 25 41 5d 64 f2 41
       12.680878 9.453421 10.327563 30.299006

submod3.weight f4 [5, 32, 1]
000000 4e 87 bb be a3 d9 20 3d 04 f5 50 be fd 5a 2c 3f
       -0.36626667 0.039270055 -0.20405966 0.6732634
000010 39 4b 3d 3f 60 a8 43 3f b1 17 41 be 5d 71 b9 be
       0.73942906 0.76428795 -0.18856694 -0.36219302
000020 07 bc 19 bd 4f 1e 07 3d 8d b2 13 bf 9a 13 35 3f
       -0.037532832 0.03298789 -0.5769432 0.70733035
000030 65 3a 12 bf 3a 3d 5e bf d6 43 68 bf 2a 18 23 3f
       -0.57120353 -0.86812174 -0.9072851 0.63708746
000040 5e 02 b5 3d 69 fa a5 be 11 c2 04 bf f4 7a 16 bf
       0.08838342 -0.3241761 -0.5185862 -0.5878136
000050 58 8b 38 3f 2a be d6 be b5 d4 38 3f 6c d3 38 3c
       0.7208762 -0.4194196 0.72199565 0.011280876
000060 4f 1d b9 3e a4 f5 23 3f e1 ed 7e 3e 9d 2c 4f 3e
       0.36155173 0.6404669 0.24895431 0.20231862
000070 d0 f2 04 bf 64 a4 1b be 18 68 14 3f 2b b3 09 3e
       -0.51933 -0.15199429 0.57971334 0.13447253
000080 63 7e 05 3f b8 19 48 3e 08 47 92 3d 68 9b c2 3e
       0.52145976 0.19541061 0.071424544 0.3800919
000090 76 8d 08 bf 31 88 c3 be 7a 10 d9 3d 89 0c 17 3f
       -0.5334085 -0.38189843 0.10598846 0.590035
0000a0 da 3b 27 3f 05 e5 44 bf 2c 25 20 3f 9d 2c 89 3d
       0.653257 -0.76911956 0.6255672 0.066979624
0000b0 3a 6f 30 3e ed 5b 20 bf c6 0e 07 bf 26 89 d3 be
       0.1722993 -0.6264027 -0.5275692 -0.41315573
0000c0 5d cb 92 3e 14 3f 34 bf db e2 9a 3e 19 4e 34 3f
       0.2867078 -0.7040875 0.30251202 0.7043167
0000d0 33 ac 51 bd 8d dd 21 bf a6 13 35 bf d9 53 c5 bd
       -0.051189613 -0.63228685 -0.70733106 -0.09635133
0000e0 4d c2 94 bf 8c bc 67 be f4 6c 9a 3e 6a 04 50 3e
       -1.1621796 -0.22630519 0.3016125 0.20314184
0000f0 38 3f 4b bf ee 83 aa 3d 6d 2e 19 bf 42 96 2f bf
       -0.7939334 0.08325945 -0.59836465 -0.6858865
000100 69 23 55 be c0 80 9f be 41 c8 db 3d 79 de 02 3f
       -0.20814289 -0.31152916 0.10731555 0.51120716
000110 10 69 83 be a1 49 8f 3d 2e 87 1b 3f 85 c1 31 bf
       -0.25666094 0.069964655 0.6075314 -0.6943591
000120 c3 2c 23 3f e9 1f a9 3e 84 44 83 3e 40 4b b1 3d
       0.63740176 0.33032158 0.2563821 0.08656931
000130 17 6e d2 be 3d ef 44 3f e9 78 7a 3d 46 b6 e7 3e
       -0.41099617 0.7692755 0.061150465 0.4525625
000140 df c6 f8 be 5c 3f 60 3f 59 cf c1 be ed db b0 bd
       -0.48589227 0.8759668 -0.37853506 -0.086356975
000150 01 0f 4b bf bf 87 f0 be d9 7a 57 bf fb 9d 8f 3e
       -0.7931977 -0.46978566 -0.84171826 0.28050217
000160 5a b9 a0 be cd be 89 bf a4 0a f6 3e b6 f6 51 bf
       -0.31391412 -1.0761353 0.48054993 -0.82017076
000170 00 20 29 3f e4 c6 82 be 65 d2 24 3f 1a a6 2b bd
       0.66064453 -0.25542367 0.64383537 -0.041906454
000180 1d a8 aa be 87 0d a8 be a1 4d 4a 3e 92 68 1c bf
       -0.33331385 -0.3282282 0.19756176 -0.6109706
000190 0e 03 4d bf ad 36 80 be 2a 20 61 3e 67 8e ca 3e
       -0.80082786 -0.25041714 0.21984926 0.3956177
0001a0 b0 86 13 bf 69 3c 52 be 6e 14 b7 be eb 94 32 bf
       -0.5762739 -0.20530857 -0.35757774 -0.6975848
0001b0 fe 67 30 bd f2 29 ed be 5c 9e 78 3f d0 44 8e be
       -0.043067925 -0.46321064 0.9711664 -0.27786875
0001c0 86 36 99 be b7 6c 3b be 79 67 86 3e 37 49 41 3d
       -0.2992441 -0.1830319 0.26250818 0.047188964
0001d0 22 53 33 3f e2 4b 86 3f ca 20 2e 3f 87 6f ab 3d
       0.70048726 1.0491908 0.6801878 0.083708815
0001e0 8d 52 37 bf fd 22 75 bd 65 d8 19 bf 8c 4d 26 bf
       -0.7161034 -0.05984782 -0.60095817 -0.6496208
0001f0 b1 ba 0f be be ee 0d 3e 42 ec e1 3d 8a 27 45 3e
       -0.14036061 0.13860604 0.11031391 0.19253364
000200 d3 0a 28 3e aa 93 d8 3b 5f 4e 52 3e 43 34 80 bf
       0.16410379 0.0066094 0.20537709 -1.0015949
000210 49 ed 55 3e 32 bc 11 bf 9d 55 7d bf 0b 49 99 be
       0.20891298 -0.5692779 -0.9895876 -0.2993854
000220 74 76 ff be 4a 40 b1 3e 8e 3f ae be 11 b5 02 bf
       -0.4989506 0.3461936 -0.34032863 -0.51057535
000230 bc 85 93 3e ba 5c 6d 3f dd b4 37 bf 4c 75 b2 be
       0.2881297 0.92719615 -0.7176035 -0.34855115
000240 0e 88 d8 3e 51 45 1a bf 3f a3 13 bd dc 64 f0 be
       0.422913 -0.6026202 -0.036044355 -0.4695195
000250 29 2b 45 bf 02 38 14 bf 47 2d e0 3e 80 93 61 3e
       -0.7701898 -0.5789796 0.43784544 0.22028923
000260 ec 0e 86 3f 30 d6 f3 be b5 2b 5a bf 2e b4 58 3f
       1.0473304 -0.4762435 -0.8522294 0.8464993
000270 e0 40 18 3f 09 cf 1a 3e fc e0 24 bf 80 64 16 3e
       0.5947399 0.1511804 -0.644058 0.14686775

submod3.bias f4 [5]
000000 ec b4 1f be 4a b0 91 3e e9 09 53 be 51 46 3f bd
       -0.1559636 0.2845481 -0.20609249 -0.04669792
000010 ae 4f d7 3e
       0.42052978

conv4.weight f4 [32, 32, 3]
000000 f7 c3 88 3e 1e 9a 82 be bc c6 d2 3e bf 90 6a be
       0.2671201 -0.25508207 0.41167247 -0.22906779
000010 19 98 db 3d 83 33 3d 3d d8 5c 3f 3e 75 8d 1b bd
       0.1072237 0.046191704 0.18687761 -0.0379767
000020 cf ef 3e 3d 73 2f 2e bd 05 d6 f4 3d 0e e3 63 be
       0.046615418 -0.04252572 0.119548835 -0.22254583
000030 46 ca 09 bd 3f 55 93 3e 92 7a 77 be 71 60 64 3e
       -0.03364017 0.28775975 -0.2416785 0.22302414
000040 ea af da bb 39 4d cf 3e 21 d8 49 3e 23 0b e2 bc
       -0.0066738026 0.40488604 0.19711353 -0.027593201
000050 4c 61 bf 3d 1b fc 26 3e e8 9a ea bd 11 60 8f 3e
       0.0934473 0.16307108 -0.11455327 0.2800298
000060 0b 4a 37 be 3d 09 c0 3e fe da ad be 4c 5a 55 be
       -0.17899339 0.37507048 -0.3395614 -0.20835227
000070 04 0c b6 be 1b 41 b7 3e 6d 92 aa bd 8e 97 15 3e
       -0.35556042 0.3579186 -0.0832871 0.14608595
000080 9c fc f0 be 41 fa e6 bd 09 f0 d3 3d 01 f9 b2 3d
       -0.47067726 -0.11278201 0.103485174 0.087389
000090 94 7c 29 bc 18 c7 4d be 54 4a 9c 3d fd cf 34 3e
       -0.010344643 -0.2009548 0.076313645 0.17657466
0000a0 98 2f 24 be 38 00 f2 3b 19 54 bf be 6a 4a 2b be
       -0.1603378 0.00738528 -0.3736885 -0.16727605
0000b0 89 38 3a 3c f0 24 68 be 1a 3b eb 3d f6 75 8f bc
       0.011366018 -0.2267034 0.11485882 -0.017512303
0000c0 13 bf 34 bc 97 b8 5c 3e 0e 4d 41 be 8d c3 c7 3c
       -0.011031884 0.2155479 -0.1887705 0.024385238
0000d0 52 60 2c 3e 12 7e 51 be bd d6 5d be 9d 50 63 3e
       0.16833618 -0.20458248 -0.21663947 0.2219872
0000e0 4c a1 f1 be 7d b6 b4 bd 52 b1 28 bd 65 56 6f be
       -0.47193372 -0.088238694 -0.04118473 -0.233728
0000f0 77 ff 17 3e 72 c8 25 bf 8e 52 bb 3e d2 b9 0c bd
       0.14843546 -0.6475898 0.36586422 -0.0343569
000100 82 ba 82 3e a3 d6 22 be b0 0e 90 3d d0 53 7f 3d
       0.2553292 -0.1590219 0.070340514 0.06233579
000110 8c 75 12 3d 8e eb c9 3e ce ec f1 be 7b d8 99 3e
       0.035756633 0.39437526 -0.4725098 0.30047974
000120 56 61 24 3e f1 f1 33 be 37 8d 79 3e 8b 93 17 3c
       0.16052756 -0.17572762 0.24370275 0.009251486
000130 5c 1d b8 3d 58 5e 97 3d ba 20 1e 3e 4a 20 ce 3c
       0.08989975 0.073910415 0.15442172 0.025161881
000140 fe 9c e1 3c 08 ab 10 3e 6f 02 40 be e4 93 da 3c
       0.02754068 0.14127743 -0.18750928 0.026681848
000150 07 87 04 be 9e a3 e8 3d a5 83 a1 be 40 9a aa 3e
       -0.12942134 0.113593325 -0.3154575 0.33320808
000160 bf 5e bf 3d af 61 26 3d 1b 10 33 3e a3 e1 f8 bc
       0.09344243 0.040620502 0.17486612 -0.03038103
000170 70 e6 3f 3e c4 71 10 be 89 c6 8c be a3 89 82 be
       0.18740249 -0.14105898 -0.2749522 -0.25495633
000180 fb 92 44 3d 31 82 e6 bd 2f a5 af bd ca 78 4a bd
       0.047991734 -0.11255301 -0.08576428 -0.0494316
000190 e1 0f 32 be 68 69 59 be 8d 57 9f be 1f 93 dc 3d
       -0.1738887 -0.21231616 -0.31121483 0.107702486
0001a0 3a 09 23 be 36 f4 ac 3c 83 90 fc 3d 5f 8f d7 bc
       -0.15921488 0.021112543 0.12332251 -0.026313482
0001b0 1a 60 56 be 23 59 2e 3e 49 fe e7 bd 54 8a 16 3c
       -0.20935097 0.1702619 -0.11327798 0.009188253
0001c0 73 cf 7a 3e 6b ba a1 3d 48 6b 38 be a7 b9 1d 3e
       0.24493198 0.078968845 -0.18009675 0.15402852
0001d0 94 98 f4 3b 29 ae 96 3e 71 41 f9 3e 0b 2c f8 3e
       0.007464478 0.2942975 0.4868274 0.48471102
0001e0 14 2c 53 3e 97 56 8c be 27 05 35 be 9c 75 4c bd
       0.20622283 -0.27409813 -0.17677747 -0.04991685
0001f0 56 fd 89 be f3 2f 09 be 0c 02 44 3e 72 4d 92 3d
       -0.26951092 -0.13397197 0.19141406 0.07143678
000200 e5 80 39 3e a5 1a 50 be a2 32 a7 bc d7 f1 66 3d
       0.18115576 -0.20322664 -0.020409886 0.05638298
000210 9a 2d 11 3e 65 21 bc 3d a9 05 8a bd 91 ec da bd
       0.14177552 0.09186057 -0.06739361 -0.10689653
000220 8c a6 55 be c8 e1 73 be 50 61 98 3e 60 4e cc 3c
       -0.20864314 -0.23816597 0.29761744 0.024939716
000230 dd 25 63 3e a3 96 93 3e bd df f6 bd 3a 4f b1 3e
       0.22182412 0.28825864 -0.120543934 0.34630758
000240 68 dc a7 be c4 be f4 3d 81 43 e5 bd 7b 06 5d 3d
       -0.32785344 0.11950448 -0.11194516 0.05396126
000250 86 f5 65 be 8d d3 9a 3d 5a 69 1f be c4 27 a4 3e
       -0.22456941 0.07559881 -0.15567532 0.3206159
000260 53 9f cf 3c 5f 0e 6a bd 2b c2 2a 3e 6e 70 7a 3e
       0.025344526 -0.05714261 0.16675632 0.24456951
000270 ac 85 fb 3d 30 4c a7 3c d5 e3 43 3e e5 7d c4 bd
       0.12281355 0.020422071 0.1912988 -0.09594325
000280 0b d1 c2 3c d3 c0 e4 bd c4 6b 34 bc 4c be 20 be
       0.02378132 -0.11169591 -0.011012021 -0.15697592
000290 97 3a d3 3d e9 90 d7 bc d4 63 c8 3e 4b 12 c1 3b
       0.103139095 -0.026314216 0.39138663 0.0058920733
0002a0 ef f4 33 3d ca f6 97 3d bb 2e 20 be 51 f0 24 be
       0.04393476 0.07420118 -0.15642826 -0.16107298
0002b0 dd 1e 21 3d 8d c1 9c be 7f c4 c2 bd 48 a0 0a be
       0.039336074 -0.30616418 -0.09510135 -0.13537705
0002c0 ae bb 06 be ce 9b 9d bd e1 75 66 be 3b 98 b4 3d
       -0.13157532 -0.07695733 -0.22505905 0.08818098
0002d0 e9 9f 17 3e c0 7e ae 3e 04 1f af 3d b1 30 f4 3e
       0.14807095 0.34081078 0.08550838 0.476934
0002e0 c3 68 cb be 63 fd 95 3e ff 4d 59 be a6 04 98 3d
       -0.39728364 0.2929488 -0.2122116 0.074227616
0002f0 ae 8e a5 be 33 17 c9 be a5 31 ad 3e b5 5a 79 be
       -0.32335418 -0.39275512 0.33826938 -0.24351008
000300 76 e0 76 3e 90 d8 4b 3e 93 4e 05 be dd c3 e1 bc
       0.24109063 0.19906831 -0.13018255 -0.027559215
000310 86 a2 4b 3e c5 fb 50 3d 0a 9a 65 bd 8a 3a 34 3e
       0.19886217 0.051021356 -0.056055106 0.17600456
000320 01 53 8d 3d 09 27 02 3e a6 39 4c be 09 ca 3d be
       0.06900597 0.12710203 -0.19943866 -0.18534102
000330 7b 4e 82 3d a9 b1 89 bb 06 a2 98 3e eb 07 e2 3c
       0.06362625 -0.004202087 0.29811114 0.027591666
000340 3d 3f 5c bd 20 c1 24 be 0a 29 9d be b4 b1 1d be
       -0.053771246 -0.16089296 -0.30695373 -0.1539982
000350 81 f9 fb 3c ca ce f5 bd f6 57 1a bf 51 9b ea 3e
       0.030758621 -0.120023325 -0.6029047 0.45821622
000360 9c a1 dd bd b7 1c 3b bd d5 82 ae bd 91 3a 4f 3e
       -0.1082184 -0.04568168 -0.08521048 0.20237185
000370 26 57 16 bd 59 b8 25 be 92 1d c1 be 0d 44 19 bf
       -0.036704205 -0.16183604 -0.37717873 -0.5986946
000380 4f 1d 97 3e d2 9b 82 3d c8 a8 80 be 8e 29 cf 3c
       0.29514548 0.063773766 -0.2512877 0.02528837
000390 10 e8 84 3e 24 b3 27 3d bb 6b 1d be 20 68 53 3e
       0.259583 0.040942326 -0.15373127 0.2064519
0003a0 f2 17 39 3d 95 31 69 be e1 35 87 bd 66 b7 14 3e
       0.04518885 -0.2277282 -0.066020735 0.14523086
0003b0 1b 80 bf bd f3 58 30 be 67 82 b9 3e e7 d7 93 3e
       -0.09350606 -0.17221431 0.36232302 0.28875658
0003c0 bd 46 18 be d2 e7 45 3d ef 97 1e bd 88 34 84 be
       -0.14870735 0.048316784 -0.038719114 -0.25821328
0003d0 d2 49 68 bd 6f 54 a7 3d e9 72 92 bc 99 1e 30 be
       -0.056711026 0.08170401 -0.017877059 -0.17199172
0003e0 a5 f2 a1 3e 5d cc 6b bd 42 9b 2b be 35 ba 33 be
       0.31630436 -0.057567943 -0.16758445 -0.17551501
0003f0 12 2e 30 3e 3c 3e 64 be 0b 25 27 bd 7c 82 b2 3d
       0.17205074 -0.22289366 -0.04080681 0.08716294

conv4.bias f4 [32]
000000 37 e3 85 bd 29 ed 87 3d 02 2d 9a bd 49 44 d4 3d
       -0.065374784 0.066370316 -0.07528116 0.10364587
000010 1a 0e ef bd 8c bc 37 bd c5 5f 67 bd 3c 51 00 be
       -0.116726115 -0.044857547 -0.056487817 -0.12530988
000020 21 83 27 be 86 5c bf bd 4f a8 81 bd f0 d7 57 3d
       -0.16358615 -0.09343819 -0.063309304 0.05269617
000030 28 ee 3c be 25 8c a3 3c c5 ab 2d 3c 41 b6 70 3c
       -0.18450224 0.019964287 0.010600035 0.01469189
000040 46 5a b5 bd 40 38 06 be 55 60 87 bd a5 0c 5e 3d
       -0.08855109 -0.13107395 -0.06610171 0.054211278
000050 81 81 ee bd 6f 34 c2 bd 0b 8b 95 bd dc 37 ca 3d
       -0.11645795 -0.09482657 -0.07301911 0.098739356
000060 de 28 01 3e fe cf a1 bd 16 c8 15 be 0d de 3d be
       0.12613246 -0.079009995 -0.14627108 -0.18541737
000070 63 2a 82 bd fe 2c 45 be cd 65 5a 3b da 37 60 bd
       -0.06355741 -0.19255444 0.0033324838 -0.054740764

bn4.weight f4 [32]
000000 29 93 5c 40 a7 19 4a 40 c9 d7 6b 40 a6 1e 7e 40
       3.446482 3.1578157 3.6850455 3.9706206
000010 53 8f 4f 40 37 1a 39 40 bf 07 42 40 14 b4 7c 40
       3.2431228 2.892225 3.0317228 3.948491
000020 22 38 6f 40 ca 3d 88 40 e8 a4 3a 40 b3 5c 5f 40
       3.737801 4.2575426 2.916315 3.490033
000030 7a 5a 75 40 00 fc 66 40 54 67 58 40 3f 12 74 40
       3.8336473 3.6091309 3.3813066 3.8136137
000040 f6 bd 85 40 89 f1 69 40 18 21 5f 40 91 6a 6e 40
       4.1794386 3.6553671 3.486395 3.7252543
000050 39 36 5c 40 b3 2a 10 40 a0 d1 8b 40 e0 a6 60 40
       3.4408095 2.2526062 4.369339 3.5101852
000060 18 a2 73 40 ba 60 66 40 6b 72 30 40 87 f4 3f 40
       3.8067684 3.5996537 2.7569835 2.9992998
000070 f5 0d 80 40 bb 9a 48 40 95 81 5f 40 1f dd 7c 40
       4.0017037 3.134444 3.492284 3.9509962

bn4.bias f4 [32]
000000 8e 60 85 be a3 c8 0b 3f 9c 02 c9 3c 57 b1 07 bf
       -0.26050228 0.5460302 0.024537377 -0.53004974
000010 7b 14 4d be be 99 1b bf 62 de af be 6e d6 7f 3e
       -0.20027344 -0.60781467 -0.34349352 0.24984142
000020 59 9d c6 be df b5 9f be f4 7e a9 be 9e 22 da be
       -0.38791922 -0.31193444 -0.3310467 -0.42604536
000030 8d 1f e5 be 6c c7 87 be 49 6e e0 bd 48 ee 1b bf
       -0.44750634 -0.26519334 -0.10958535 -0.60910463
000040 3e 6b 68 3e 05 6b f9 be 2c d0 33 bf 71 9a 05 bf
       0.2269716 -0.48714462 -0.7023952 -0.52188784
000050 3e 97 db bd 10 e4 84 3e 33 66 54 bf 16 41 f5 be
       -0.107222065 0.25955248 -0.82968444 -0.4790122
000060 33 e7 21 bf 3f 63 a5 be 21 25 64 bd 56 84 9b be
       -0.63243407 -0.3230228 -0.05569947 -0.30374402
000070 f6 0c 3d bf 34 dc d4 be 71 29 21 be 1e 4b 15 bf
       -0.738479 -0.41574252 -0.15738465 -0.58317745

bn4.running_mean f4 [32]
000000 e0 57 67 bd 22 e5 e7 3e 53 3f b6 3f 6c 9a 87 3f
       -0.05648029 0.45292002 1.4238075 1.0594001
000010 c5 91 bd 3f 6b 8a e9 bc 0a 62 03 40 72 d8 df 3e
       1.481011 -0.028508386 2.0528588 0.43719822
000020 7f d6 71 3e c4 8e 8f be 99 49 c7 3f 73 b1 ec bb
       0.2361698 -0.2803861 1.5569335 -0.007223302
000030 56 7c 85 3f e2 da 3d 3f ed e8 71 3f a7 76 bc 3e
       1.0428569 0.74162114 0.9449604 0.36809275
000040 d2 a9 90 3f 89 8c 7e be cc fa 8d 3f 84 96 95 3f
       1.1301825 -0.24858297 1.1092162 1.1686559
000050 70 77 95 3f ce 5d 8e be 3b 9c a2 bf 07 e9 c2 3e
       1.1677074 -0.27805942 -1.2703928 0.3806841
000060 4c 01 69 bf 31 cb 8b 3f 7b 24 bb 3f 21 53 0b 40
       -0.91017604 1.0921384 1.4620508 2.1769488
000070 80 1a 1c bf f5 09 0a 40 13 df ba 3f a9 d6 e9 3e
       -0.60977936 2.1568577 1.4599327 0.45671585

bn4.running_var f4 [32]
000000 8b ac 65 41 6e c0 51 41 4c e9 d2 41 95 6e 7d 41
       14.354625 13.10948 26.363914 15.839498
000010 6a 64 5a 41 1d 2f a4 41 b7 32 1d 42 a9 d2 50 42
       13.649515 20.523005 39.299526 52.205723
000020 5e 81 ab 41 a2 3a ce 41 33 85 91 41 5e 20 7e 41
       21.438168 25.77863 18.190039 15.882902
000030 01 c4 70 41 e0 5e 7e 41 64 0b 8f 41 f1 a7 ab 41
       15.0478525 15.898163 17.880562 21.457003
000040 c6 7e 37 42 29 c5 8a 41 1c c5 31 41 65 f8 9a 41
       45.873802 17.34627 11.110622 19.371286
000050 6e a3 e9 41 3d 78 60 41 7d 90 a4 41 b1 4a a1 41
       29.2048 14.029355 20.57055 20.16147
000060 7d 0d af 41 32 a5 16 41 de 41 da 41 e8 11 0b 42
       21.881586 9.415331 27.282162 34.767487
000070 c3 67 46 41 d2 1a b4 41 04 2a 65 41 88 21 7b 41
       12.400332 22.513096 14.322758 15.695686

submod4.weight f4 [5, 32, 1]
000000 5f 80 c2 3e 9f 38 dc be 64 1f 5c bd 43 78 8c 3e
       0.37988564 -0.43011948 -0.053740874 0.27435502
000010 91 7f 5e be d1 5e bb bc 6e f6 ed be d2 33 11 bf
       -0.2172835 -0.02287236 -0.46477073 -0.56719697
000020 47 12 e1 3e 82 f5 ec bd 47 de 2a bf f6 4c ea 3d
       0.43959257 -0.115702644 -0.6674542 0.114404604
000030 21 d4 0f 3e 9a f6 0d 3f 1a bf 05 be 56 7f 7c 3b
       0.14045765 0.5545441 -0.1306118 0.0038528047
000040 96 23 05 bf 82 0b ff 3e 67 c6 fa be f8 d6 d4 3d
       -0.52007425 0.49813467 -0.48979494 0.103925645
000050 6d 00 c7 3e 4d 85 8f 3e f1 c4 41 bd 8b 43 3e 3e
       0.38867512 0.28031388 -0.04730696 0.18580453
000060 05 8f a8 3c 2b 42 ce 3e 38 1a db 3e 82 2c a9 be
       0.02057601 0.40284857 0.4279344 -0.3304177
000070 58 94 18 3f 64 db 01 bf 70 fc b7 be df 26 1d bf
       0.59601355 -0.5072539 -0.35934782 -0.6138744
000080 48 e4 3c 3e a5 63 05 3e 26 9d a5 be af b5 86 be
       0.18446457 0.13026293 -0.32346457 -0.2631049
000090 52 b9 08 3f 9c 45 10 bd 5a 53 20 3e 9b 69 ac be
       0.53407776 -0.035222635 0.15656796 -0.3367432
0000a0 73 d6 ef be d6 51 8c be 10 95 37 3f 67 41 33 bf
       -0.468433 -0.27406186 0.71711826 -0.7002167
0000b0 63 8c 59 be d4 03 ea be c0 85 1a be 6f fb a7 3e
       -0.2124496 -0.45706046 -0.15090084 0.32809016
0000c0 74 22 d5 be 3d 51 cb be b9 01 c4 3d 98 95 1b bf
       -0.41627848 -0.39710417 0.09570641 -0.60775137
0000d0 fb 66 25 3d 9c 87 a7 3e 8e a2 8e be 0f d0 fb be
       0.040381413 0.3272065 -0.27858394 -0.49182174
0000e0 4d ce a8 bd a1 e0 04 3f 20 8d b9 3e e5 48 0b bf
       -0.08242474 0.51905257 0.36240482 -0.54408103
0000f0 c2 7e 0a bf 29 cf 02 3f db ba e6 3e 73 5c 4c be
       -0.5409967 0.5109735 0.45064434 -0.19957142
000100 46 18 46 3d 15 53 79 be 88 3f 83 be 09 b7 09 bf
       0.048362993 -0.243481 -0.25634408 -0.53794914
000110 5d 8a ce be 0f ea 53 3c 28 f2 f5 3e a8 1f c5 3e
       -0.40339938 0.012934222 0.48036313 0.38500714
000120 ac f9 ad be bd 58 e9 3e 13 01 f2 3c 67 34 15 3f
       -0.33979547 0.45575514 0.029541528 0.58283085
000130 97 84 f0 be bf 80 cf be 9f 3a 02 bf 31 19 0f 3f
       -0.46976158 -0.40527913 -0.508707 0.55897814
000140 b1 cc 4f 3e ab 4c 76 ba a6 9c cb be 76 c9 77 be
       0.20292927 -0.00093955797 -0.3976795 -0.24197945
000150 c1 d7 f6 3a ff ac c1 be 72 d3 20 3f ff f2 06 3f
       0.001883261 -0.37827298 0.6282264 0.5271453
000160 f2 19 32 be 2a e1 28 bf 87 71 bd bd 86 80 95 bd
       -0.1739271 -0.65968573 -0.09250169 -0.072999045
000170 1d cb 5b 3e 8a c0 4a bd 71 72 65 be 5b a2 75 3e
       0.214642 -0.049500026 -0.22406937 0.23987715
000180 fe 4d 01 bf 58 b2 24 3f 14 41 aa be 07 14 1f 3f
       -0.5050963 0.6433463 -0.33252776 0.62139934
000190 8e b8 cb be 95 13 40 bc c9 ea 92 be 1e 8d 83 be
       -0.39789242 -0.011723419 -0.28694752 -0.256936
0001a0 0b 92 e8 be 5a 5d d0 3e a4 57 f3 3d 28 fa f9 be
       -0.45423922 0.40696222 0.118819505 -0.48823667
0001b0 5b 81 19 3f 6c db 18 be 82 e7 61 3e c2 ee 7a be
       0.59963006 -0.14927453 0.2206097 -0.24505141
0001c0 8f 19 fc 3e 79 81 d3 be 72 b8 f0 be 29 75 d0 3e
       0.4923825 -0.41309717 -0.4701572 0.40714386
0001d0 62 5a e7 be 1d 97 b7 be 31 21 b4 be 1b 50 ba be
       -0.45186144 -0.35857478 -0.35181573 -0.3638924
0001e0 ab 71 fc 3d af c1 8b 3d 16 fc 87 be 84 57 c8 3e
       0.12326368 0.068240516 -0.26559514 0.3912927
0001f0 6f d3 f6 be 7a 23 b2 3e 8a 9f d4 3e f9 47 07 bf
       -0.48208186 0.3479269 0.4152797 -0.52844197
000200 2e df 80 be 6c b7 be be 8c be 00 3f 5d 66 65 3d
       -0.25170273 -0.37249315 0.5029075 0.056005824
000210 d3 0e 1d 3f 7c 84 26 3e 70 58 fc bd 80 15 d5 3e
       0.61350745 0.16261476 -0.123215556 0.41617966
000220 20 ae 71 3e 2b c4 4a bf 78 5b b2 be d8 26 f2 3d
       0.2360158 -0.7920558 -0.3483541 0.11823815
000230 6f de 07 bf 86 d7 4b be 34 01 2d 3f a6 0c 25 bf
       -0.5307378 -0.19906434 0.6757996 -0.64472425
000240 3c 76 8b be f1 66 10 bf 69 2b 1c 3f 5d 9a ae 3e
       -0.27238643 -0.56407076 0.6100374 0.34102145
000250 3b 1d 71 3e 01 ba ca be f6 a3 1e bf bf 3e 27 be
       0.23546307 -0.39595035 -0.61968935 -0.1633253
000260 53 83 8a 3e 16 2d 0c bf 37 2f 92 be e3 fb 89 3e
       0.27053317 -0.54756296 -0.28551647 0.26949987
000270 8e 1c a0 bc cf 6d 11 bf 2a d9 3a 3e 75 06 c5 3e
       -0.019544866 -0.5680818 0.18246904 0.3848149

submod4.bias f4 [5]
000000 ba 27 30 bd bb 74 72 3d 02 fe 0d 3d 79 32 3e 3e
       -0.043006636 0.059193354 0.03466607 0.18573941
000010 13 b9 81 3e
       0.25336513
