networks/quantized_models/ciciot2022/model.onnx (onnx, 36057 bytes, 26 tensors)

conv1.bias f4 [16]
0	0xc02fba64	-2.7457514
1	0xc0764fbd	-3.8486168
2	0x4087f1bb	4.248258
3	0xc0244fef	-2.5673788
4	0x3f67cd9d	0.90548116
5	0xc013f340	-2.3117218
6	0x4007c4ef	2.1213949
7	0x3e72a8cb	0.23697202
8	0xc06a79f6	-3.663694
9	0xc05b755f	-3.4290388
10	0xc03ed8c6	-2.9819808
11	0xc0bfe895	-5.9971414
12	0x3f1652f1	0.5872031
13	0x3f2103ad	0.62896234
14	0xbf832be9	-1.0247775
15	0x3f47e11c	0.78077865

conv1.weight f4 [16, 1, 3]
0	0x3d4c1dfa	0.049833275
1	0x3ed12470	0.40848112
2	0xc16df9c9	-14.873483
3	0x80000000	-0.0
4	0x80000000	-0.0
5	0x00000000	0.0
6	0x00000000	0.0
7	0x80000000	-0.0
8	0x80000000	-0.0
9	0x80000000	-0.0
10	0x80000000	-0.0
11	0x00000000	0.0
12	0x00000000	0.0
13	0x80000000	-0.0
14	0x00000000	0.0
15	0x00000000	0.0
16	0x00000000	0.0
17	0x80000000	-0.0
18	0x80000000	-0.0
19	0x00000000	0.0
20	0x00000000	0.0
21	0x00000000	0.0
22	0x80000000	-0.0
23	0x80000000	-0.0
24	0x80000000	-0.0
25	0x00000000	0.0
26	0x80000000	-0.0
27	0x00000000	0.0
28	0x00000000	0.0
29	0x80000000	-0.0
30	0x00000000	0.0
31	0x00000000	0.0
32	0x00000000	0.0
33	0x80000000	-0.0
34	0x00000000	0.0
35	0x00000000	0.0
36	0x80000000	-0.0
37	0x00000000	0.0
38	0x80000000	-0.0
39	0xc137629b	-11.461574
40	0xbfd9cf56	-1.7016399
41	0x3cd069ca	0.02544107
42	0x80000000	-0.0
43	0x80000000	-0.0
44	0x80000000	-0.0
45	0xbf36af20	-0.7136097
46	0xc0e2a5f1	-7.0827565
47	0xc0fa591e	-7.8233786

bn1.weight f4 [16]
0	0x40bd5059	5.916058
1	0x40299ea5	2.650308
2	0x40aff999	5.4992185
3	0x405ca2f9	3.447447
4	0x401feb57	2.498739
5	0x40027fc8	2.0390491
6	0x402dd0b9	2.7158644
7	0x401d2e30	2.455944
8	0x400b9d98	2.1814938
9	0x3fc92876	1.5715473
10	0x3ff529c4	1.9153371
11	0x3fef46a0	1.8693428
12	0x3fc4486b	1.53346
13	0x40ce6c1f	6.4506984
14	0x40e99939	7.299954
15	0x40ffdd8f	7.9957957

bn1.bias f4 [16]
0	0xbfcd3332	-1.6031249
1	0xc0306802	-2.7563481
2	0xc00b230a	-2.1740136
3	0xc02e64a6	-2.724893
4	0xc067d08f	-3.6221044
5	0xbf677a3f	-0.9042091
6	0x3db6a2af	0.08917748
7	0xbd9081b9	-0.07055993
8	0xbfe20396	-1.7657344
9	0x3ea5b791	0.32366613
10	0xbf6c8cb5	-0.924022
11	0x3f899eea	1.0751622
12	0x3f51b2c6	0.8191341
13	0xbfcb8f30	-1.5903072
14	0xc0299a2b	-2.6500347
15	0xc04c4fca	-3.19237

bn1.running_mean f4 [16]
0	0xc0b2e038	-5.5898705
1	0xc0764fb4	-3.8486147
2	0x4087f1b5	4.2482553
3	0xc0244ff1	-2.5673792
4	0x3f67cd9d	0.90548116
5	0xc013f33a	-2.3117204
6	0x4007c4f1	2.1213953
7	0x3e72a8cb	0.23697202
8	0xc06a79ee	-3.663692
9	0xc05b7557	-3.4290369
10	0xc03ed8be	-2.981979
11	0xc0bfe88f	-5.9971385
12	0x3f1652e0	0.5872021
13	0xbff9cc91	-1.9515554
14	0xbf832beb	-1.0247778
15	0xc01226aa	-2.2836099

bn1.running_var f4 [16]
0	0x419b0990	19.37967
1	0x00000004	6e-45
2	0x2a666674	2.0463649e-13
3	0x00000004	6e-45
4	0x27800019	3.5527243e-15
5	0x00000004	6e-45
6	0x229aebfd	4.1991646e-18
7	0x25666674	1.9984032e-16
8	0x29666674	5.1159123e-14
9	0x2789a1fc	3.8200762e-15
10	0x2a666674	2.0463649e-13
11	0x2a666674	2.0463649e-13
12	0x24f19993	1.04777254e-16
13	0x41663620	14.388214
14	0x00000004	6e-45
15	0x418e00ae	17.750332

conv2.bias f4 [16]
0	0x3f417e51	0.7558337
1	0xbf3c0186	-0.73439825
2	0xbe49fac1	-0.19724561
3	0xbf1a202f	-0.6020536
4	0xbf11cedf	-0.56956285
5	0xc002b3c5	-2.0422223
6	0x402dc32d	2.7150376
7	0x3f92a3da	1.1456254
8	0x40e51820	7.159195
9	0xc02f114c	-2.7354307
10	0x3f68b8bb	0.90906876
11	0xbd81caf1	-0.06337536
12	0x3f0d33bb	0.5515706
13	0xbf89d1c1	-1.0767137
14	0xc0d5ebf2	-6.685052
15	0xbf86b80e	-1.0524919

conv2.weight f4 [16, 16, 3]
0	0x4050440c	3.2541533
1	0xc0f4df20	-7.652237
2	0x3e324c81	0.17411996
3	0xbe0ce2fe	-0.13758466
4	0xbe5cddb9	-0.21568955
5	0x3f4a5454	0.79034925
6	0xbfaad0b4	-1.3344941
7	0x3f8c67b6	1.096915
8	0x406bbbac	3.6833296
9	0x3f170a97	0.59000534
10	0x3e8fd0c9	0.28088978
11	0xbf62330c	-0.8835914
12	0x3fcbe7e5	1.5930144
13	0x3ece4885	0.40289703
14	0xbd8c5f22	-0.06854083
15	0x3e93ce2b	0.2886823
16	0x3f060b74	0.52361226
17	0x3e13bcce	0.14427492
18	0xc00e64f0	-2.2249107
19	0xbfa1a42e	-1.2628229
20	0x40144e71	2.3172877
21	0xbf83e815	-1.0305201
22	0xbeaac175	-0.3335072
23	0x3cff9ccd	0.031202698
24	0x4024da7e	2.5758357
25	0xbedd68de	-0.4324407
26	0xc0085790	-2.1303444
27	0xbdd26b8e	-0.10274421
28	0xc01fb540	-2.4954376
29	0xbfbbbdf3	-1.4667343
30	0xbf823c69	-1.0174686
31	0xbfbcf0a7	-1.4760941
32	0xbf834c4d	-1.025766
33	0x3eb2700c	0.3485111
34	0x3f91d753	1.1393837
35	0x3f414671	0.7549811
36	0xc05f2992	-3.4869123
37	0x3f82a20d	1.0205704
38	0x401e6b61	2.475304
39	0x3ecaa23e	0.39576906
40	0x3fb59143	1.4184955
41	0xc06a0bf1	-3.6569788
42	0x401415bf	2.3138273
43	0xc0d22c2b	-6.5678916
44	0xc0a37a23	-5.1086593
45	0x409e0f2a	4.939351
46	0xc056648b	-3.3498867
47	0x41338ea0	11.222321
48	0xc0429836	-3.0405402
49	0x40929c3d	4.581572
50	0x40379b30	2.868847
51	0x4008cedc	2.1376257
52	0xbfb8ff7c	-1.4452968
53	0xbf018d75	-0.5060647
54	0xc04c7f1a	-3.1952577
55	0x40325e9f	2.7870252
56	0xc0294f75	-2.6454747
57	0xbf99ca70	-1.2014904
58	0x3db0f0bf	0.08639669
59	0xbf000a18	-0.500154
60	0x3d8b4551	0.068003304
61	0xbd9ba229	-0.07599289
62	0x3e88ee19	0.26744154
63	0xc09d197b	-4.9093604
64	0xbf429adb	-0.7601754
65	0x3fed5570	1.8541698
66	0x3e8ce21e	0.27516264
67	0xc0378fd5	-2.8681538
68	0xbfdd8f18	-1.7309294
69	0x40b3d447	5.619663
70	0xbf99bd5b	-1.2010912
71	0xbf96a808	-1.1770029
72	0xbc565095	-0.013080736
73	0x3fe7da55	1.8113505
74	0x400e9fc3	2.228501
75	0x40f3c405	7.617678
76	0x3fb741f3	1.4317001
77	0xc08a0b67	-4.313892
78	0xc000c42c	-2.0119734
79	0x3f3b15ea	0.73080313
80	0x4062ea56	3.5455527
81	0x3edb2709	0.4280322
82	0x3fd2aa0b	1.6458143
83	0x3f638cfb	0.88886994
84	0x3f909e71	1.1298352
85	0x3f6649e3	0.8995649
86	0xbfb62720	-1.423069
87	0x40bbd40f	5.869636
88	0xbff83231	-1.9390317
89	0x3f81f00b	1.015138
90	0xbf9b32a9	-1.2124835
91	0x3f42df95	0.7612241
92	0xbe0baf04	-0.13640982
93	0xc0af122e	-5.470969
94	0x40e17891	7.0459676
95	0x3d55b317	0.052172747
96	0x3fe4afe7	1.7866181
97	0xc0452596	-3.080419
98	0x3fe7f2c3	1.812096
99	0x3fc87a10	1.566225
100	0x3e3b539b	0.18293612
101	0xbd4675f1	-0.04845232
102	0xbfc2071c	-1.515842
103	0x403da1ff	2.9630125
104	0xbfc1ef14	-1.5151086
105	0xc0363c43	-2.847428
106	0xbf84f585	-1.0387427
107	0xbe08978a	-0.13339058
108	0xbebb841b	-0.36624226
109	0x4009d035	2.153333
110	0x3f78c3e2	0.97173893
111	0xc018ff31	-2.3905756
112	0xbe6f4885	-0.23367508
113	0xc0180678	-2.3753948
114	0x40913f70	4.538994
115	0x40390f80	2.891571
116	0xbe883bd7	-0.26608154
117	0xbf223eab	-0.63376874
118	0xbf2eca4c	-0.6827743
119	0xbef55c50	-0.4792199
120	0x3f6d6709	0.92735344
121	0x3fb26953	1.3938392
122	0x3d4c1b7f	0.04983091
123	0x4085996e	4.174979
124	0x3fecad22	1.8490336
125	0x3ff6426c	1.923902
126	0xc0f654ec	-7.6978664
127	0xbfab0988	-1.3362284
128	0x3f01e2e2	0.5073682
129	0x401ed5cd	2.4817994
130	0x3f5da41a	0.86578524
131	0x3fdfbd62	1.747967
132	0x4098f49d	4.77986
133	0xbf287eae	-0.658183
134	0x3fdee83c	1.7414622
135	0x40616d43	3.5222938
136	0x40555fb1	3.3339655
137	0x3fe6c43b	1.8028635
138	0xc0999252	-4.7991114
139	0xc05d796d	-3.4605362
140	0xc0154c9d	-2.332801
141	0xc072f27b	-3.7960498
142	0x410a8a57	8.658774
143	0xc0026bf0	-2.037838
144	0x3fbc6f3a	1.4721444
145	0x3fecd93a	1.8503792
146	0xbeed5fe3	-0.46362218
147	0xbf3adbc4	-0.72991586
148	0x3fa850a7	1.3149613
149	0x3f72eee3	0.9489576
150	0x40d93318	6.787487
151	0xc0634d79	-3.5516036
152	0xbfc78136	-1.5586307
153	0xc01458fb	-2.317931
154	0xc0587c53	-3.3825881
155	0x3fec5d9d	1.8466069
156	0xc01f14c3	-2.4856422
157	0x3f8bf888	1.0935221
158	0xc0573987	-3.3628862
159	0xbffb4924	-1.9631696
160	0x3f939fa2	1.1533091
161	0x3fe083c8	1.7540216
162	0x407e1dc7	3.9705675
163	0x407b4460	3.9260483
164	0xc094cb37	-4.6498065
165	0x3f3abe86	0.72946966
166	0xc01cb27f	-2.4483945
167	0x3f995370	1.1978588
168	0xbf112676	-0.5669931
169	0x40032f37	2.0497568
170	0x402d0e10	2.7039833
171	0x3faa96e3	1.3327297
172	0x401a6bba	2.412825
173	0x3f0a931d	0.5413073
174	0x40739661	3.8060534
175	0xc05593ec	-3.3371534
176	0xc09dace3	-4.9273543
177	0x3f1bb02e	0.60815704
178	0x3ea398c4	0.31952488
179	0xbfd13009	-1.6342784
180	0xbf333db9	-0.70016056
181	0x402f2f33	2.7372558
182	0xbfa1d2bd	-1.2642437
183	0x40a790e4	5.236437
184	0xc0c41f4c	-6.1288204
185	0x3f91aa1f	1.1380042
186	0x40794ef3	3.8954437
187	0xbf916322	-1.1358378
188	0xbfd0a206	-1.6299446
189	0x40ed17fc	7.409178
190	0xbe808fd6	-0.25109738
191	0x3f4d3ccb	0.8017089
192	0x3e510e4e	0.20415613
193	0xc09b48d3	-4.8526397
194	0x3d7c7d56	0.061642967
195	0x40a21b51	5.0658345
196	0x3f02f682	0.5115739
197	0xc04f2477	-3.2366006
198	0xc0696cf1	-3.6472743
199	0xbfc03a0d	-1.5017716
200	0xbdb4ee99	-0.088345714
201	0xbfe709e6	-1.8049896
202	0x3e775bec	0.24156159
203	0x3e6b8dea	0.23003355
204	0xc025ea79	-2.592436
205	0xc0d562b8	-6.6683006
206	0x3fd16c0f	1.6361102
207	0x3f4ad405	0.79229766
208	0x40050116	2.0781913
209	0x3f327020	0.6970234
210	0xbf991341	-1.1959001
211	0xbeb4bfbf	-0.3530254
212	0x40b69ee2	5.706895
213	0xbedaaf32	-0.42711788
214	0x3feede10	1.8661518
215	0x40094a85	2.1451733
216	0xc063631c	-3.5529242
217	0x401f3929	2.4878638
218	0xc0937db6	-4.6090956
219	0xbfbf51d0	-1.4946842
220	0xc0117135	-2.2725346
221	0xc011659e	-2.2718272
222	0x402db47b	2.7141407
223	0xc033c0b7	-2.8086374
224	0x400282ff	2.0392454
225	0xbfb25f5a	-1.3935349
226	0xbeb9b343	-0.36269578
227	0x4037348e	2.8625827
228	0x3fd9b4e5	1.700833
229	0xc0c58f75	-6.173762
230	0xbe2d033b	-0.16895764
231	0xbf94b827	-1.1618699
232	0x3fdff3b0	1.7496243
233	0x3ff9cc15	1.9515406
234	0x404494fb	3.071593
235	0x408cf89d	4.4053483
236	0xbfbea9a7	-1.4895524
237	0x3ea2fb16	0.31832188
238	0x40f680df	7.7032313
239	0xbe68479f	-0.22683571
240	0xc0497a5d	-3.1480935
241	0x412c3538	10.762993
242	0xbf31b247	-0.69412655
243	0x3e9e2242	0.30885512
244	0x3ef3a82a	0.47589236
245	0xc02907b3	-2.641095
246	0x409f0e9c	4.9705334
247	0x402742e6	2.6134582
248	0x40a989b1	5.298058
249	0xbdb711e3	-0.089389585
250	0x3e8c56b8	0.2740991
251	0x3f3e2183	0.74269885
252	0xbf92c678	-1.1466818
253	0xbf312635	-0.69198924
254	0x4011d9b0	2.2789116
255	0x3f01cc77	0.50702614

bn2.weight f4 [16]
0	0x407ea14f	3.9785955
1	0x404c5a5a	3.1930146
2	0x405f0456	3.4846396
3	0x40d7a883	6.7393203
4	0x414151cc	12.08247
5	0x410865ff	8.524901
6	0x40373cdd	2.8630898
7	0x415a1ebb	13.632503
8	0x40e2ae21	7.083756
9	0x4142d618	12.177269
10	0x40b73232	5.7248774
11	0x40396914	2.8970385
12	0x40846c7e	4.1382437
13	0x410edab3	8.928393
14	0x4108f77b	8.56042
15	0x40f8dd62	7.7770243

bn2.bias f4 [16]
0	0xc04bec1c	-3.186286
1	0xbf319b45	-0.6937755
2	0xc0e74863	-7.2275863
3	0xc03c28ea	-2.9399972
4	0xc08e7fde	-4.453109
5	0xc03df618	-2.9681454
6	0xc00b74ea	-2.1790109
7	0xc13e8eba	-11.909845
8	0xc08493b7	-4.1430316
9	0xc15271c4	-13.152775
10	0xc1967116	-18.805218
11	0xc01ba798	-2.432104
12	0xc06a0c2c	-3.656993
13	0xc0a96d7b	-5.2946143
14	0xc1a907fb	-21.128897
15	0xc19423d7	-18.5175

bn2.running_mean f4 [16]
0	0x41452c8d	12.323377
1	0x41b071f1	22.055635
2	0x42079dbb	33.904034
3	0x419181dc	18.188408
4	0x4098d337	4.775783
5	0x3fc23fb0	1.5175686
6	0xbebab652	-0.36467224
7	0x3e8612e4	0.26186287
8	0x41ec5fae	29.546719
9	0x416ea779	14.915887
10	0x413e4f41	11.894349
11	0x4148c15f	12.54721
12	0x40280aba	2.6256547
13	0xbed8be94	-0.423329
14	0x41ab91dd	21.446222
15	0x410efe4c	8.937084

bn2.running_var f4 [16]
0	0x4302dfa4	130.8736
1	0x4323509f	163.31493
2	0x4368a40e	232.64084
3	0x4334836d	180.51338
4	0x42b12096	88.563644
5	0x41d7111e	26.883358
6	0x40c9ba55	6.3039956
7	0x4126088f	10.3770895
8	0x43b72ea0	366.36426
9	0x42d0908e	104.28233
10	0x41efb174	29.961647
11	0x430ee007	142.8751
12	0x4287bc2b	67.867516
13	0x4290cadf	72.39623
14	0x43a1b080	323.3789
15	0x4297a317	75.818535

conv3.bias f4 [32]
0	0xbe48fb87	-0.196272
1	0xbef1d357	-0.47231552
2	0xbf05a838	-0.52209806
3	0xbe688e2f	-0.22710489
4	0xbe460b92	-0.19340351
5	0xbe0a8b4f	-0.13529705
6	0x3d82e10b	0.0639058
7	0x3ecf6d5c	0.40513122
8	0x3d977486	0.07395272
9	0x3d83d734	0.06437531
10	0x3e994c34	0.2994095
11	0xbdf2454f	-0.11829626
12	0xbe8eade2	-0.27867037
13	0xbdc79bf2	-0.09746541
14	0xbe9ea2c9	-0.3098357
15	0xbe6b3079	-0.2296771
16	0xbf0d77d9	-0.55261
17	0xbf0e807d	-0.5566481
18	0x3d2bda5b	0.041956287
19	0x3d84eda8	0.06490642
20	0xbe95fafb	-0.29293045
21	0xbf307a28	-0.68936396
22	0xbece74f7	-0.40323612
23	0xbe912147	-0.283457
24	0x3e186155	0.14880879
25	0xbecc5cd6	-0.39914578
26	0x3a22ff6b	0.000621787
27	0xbf0929ea	-0.5357958
28	0x3e118803	0.1421204
29	0xbe32cb92	-0.17460468
30	0xbde50c03	-0.11183932
31	0xbdeb1795	-0.11479107

conv3.weight f4 [32, 16, 3]
0	0xbf6a5962	-0.9154264
1	0xc01d973c	-2.4623556
2	0xbf4dc77b	-0.8038251
3	0xbf9a4119	-1.2051116
4	0xc0ac03ef	-5.37548
5	0xc05f04a9	-3.4846594
6	0xc061e153	-3.5293777
7	0x409d16cb	4.9090323
8	0x401a5710	2.4115639
9	0x403aac90	2.9167824
10	0x408ed844	4.4638996
11	0x40347ccd	2.8201172
12	0x4093a488	4.6138344
13	0xc079659e	-3.8968272
14	0x3e064144	0.13110834
15	0x3f3de95d	0.7418421
16	0x3f976016	1.1826198
17	0xc0bfbc93	-5.9917693
18	0x3f113716	0.5672468
19	0x4039514c	2.895587
20	0x4026cb9e	2.6061778
21	0xbf06a503	-0.5259554
22	0xbd5c38c8	-0.05376509
23	0xbb9936fb	-0.0046757436
24	0x3d0ca1de	0.034334056
25	0xc0b337bb	-5.600553
26	0xbfc29eff	-1.5204772
27	0xc06dd813	-3.7163131
28	0x4063d819	3.5600646
29	0x3fe43bce	1.7830751
30	0xc016e4c3	-2.3577125
31	0x40ca4b67	6.3217044
32	0x3f463b25	0.77434
33	0x3f76d379	0.9641643
34	0xbf4ecb1a	-0.8077866
35	0x40341783	2.813935
36	0xbf92e53e	-1.1476209
37	0x401179d4	2.2730608
38	0x3f33a940	0.7018013
39	0x3e5ec970	0.2175653
40	0xc02acb4c	-2.6686583
41	0xbf59b66d	-0.85043985
42	0xbf189e45	-0.596165
43	0x3fdcace7	1.7240266
44	0x3f68c932	0.90932
45	0xbfc48e3e	-1.5355909
46	0x3eda605f	0.4265165
47	0xbf1f2289	-0.6216207
48	0xc0942232	-4.629174
49	0x3ea3c770	0.31988096
50	0x4042da2c	3.0445662
51	0xc0548e46	-3.3211837
52	0x401d49bb	2.4576252
53	0x40402550	3.0022774
54	0xc01817fb	-2.3764637
55	0xc03563ca	-2.8342156
56	0xc006f67c	-2.1087942
57	0x40b175ec	5.5456448
58	0x3fdc7419	1.722293
59	0x3e30e00f	0.17272972
60	0x408579b8	4.1711082
61	0x40bfda4c	5.9953976
62	0xc0d8cee3	-6.7752547
63	0xbf4d6a7f	-0.80240625
64	0x4034b2cc	2.823413
65	0x3e9de910	0.30841875
66	0xc04706ba	-3.1097856
67	0xc066d630	-3.606823
68	0x3f096dc4	0.53683114
69	0xc00ee544	-2.2327433
70	0x3fa0c25d	1.2559315
71	0x3fe19e29	1.7626392
72	0x3f377053	0.7165577
73	0xc0238a41	-2.5553133
74	0xc0555e9f	-3.3339002
75	0x3f78908f	0.9709558
76	0xbf1df4e1	-0.6170178
77	0x3e21e5db	0.15810339
78	0xc091e36c	-4.5590115
79	0xc093c65b	-4.6179633
80	0xc10f1cb2	-8.944506
81	0x3f1cf37c	0.6130903
82	0x3f6e4853	0.9307911
83	0x3fd50664	1.6642575
84	0x3fdbb606	1.7164924
85	0xc09bed5d	-4.872725
86	0xbff90c3c	-1.9456859
87	0xbfbe83ce	-1.4883974
88	0x40003ecc	2.0038328
89	0x3f83c11c	1.0293307
90	0x3f4b8085	0.7949298
91	0xbf41cdcd	-0.7570465
92	0xc010d6c8	-2.2631092
93	0xc065de3f	-3.5916898
94	0x3efc4d9a	0.49277955
95	0xbffa54c0	-1.9557114
96	0x3f0e84eb	0.55671567
97	0x4049324e	3.1436954
98	0xc0a10131	-5.0313954
99	0xbdca94ac	-0.09891638
100	0xc07b4c7e	-3.9265437
101	0xbfc30132	-1.523474
102	0x3fe7e9c6	1.8118217
103	0x3dd3d238	0.103428304
104	0xbe907b34	-0.28218997
105	0xbe3df815	-0.18551667
106	0x3f352325	0.7075675
107	0xc080f846	-4.030307
108	0x40ed1399	7.4086423
109	0xbf9396bf	-1.1530379
110	0x408be7b4	4.372034
111	0xc0679cf9	-3.6189559
112	0xc0a6c841	-5.211945
113	0x408f9efc	4.4881573
114	0x3fe97428	1.8238573
115	0x3fcbab92	1.5911734
116	0xc02472f8	-2.5695171
117	0xbf4cf6b5	-0.80063945
118	0xbf17cc1c	-0.5929582
119	0xc03ea2db	-2.97869
120	0xbfd8fdfd	-1.6952511
121	0x40570a9d	3.3600228
122	0xbfccbc5d	-1.5994984
123	0xc0c584e8	-6.172474
124	0x3f38e203	0.72219867
125	0xc01df66d	-2.4681656
126	0x40a8dec1	5.2771916
127	0x3f90d328	1.131444
128	0xbf81082f	-1.0080622
129	0xc0003d28	-2.0037327
130	0xc001a8b1	-2.025921
131	0x4022dd61	2.544762
132	0x3edcb147	0.43104002
133	0x3fb09393	1.3795036
134	0x40425000	3.0361328
135	0x3fb06080	1.377945
136	0x3fa45b2e	1.2840326
137	0xbf11c708	-0.5694432
138	0x3f74ee18	0.956758
139	0xbedf0452	-0.43557984
140	0x3f72a943	0.9478952
141	0xbe904153	-0.28174838
142	0xbed97f1f	-0.42479798
143	0xbeecbeab	-0.46239218
144	0xbef35b93	-0.47530803
145	0x3e192db6	0.14958844
146	0x40a1f1d5	5.0607705
147	0xc00b8972	-2.180264
148	0xbf7b9d8f	-0.9828729
149	0xbfbea671	-1.4894544
150	0x3f5729d3	0.84048194
151	0x40204ccd	2.5046875
152	0x4008ba3b	2.1363666
153	0xbebf5477	-0.3736913
154	0x3f7bbf51	0.983388
155	0x40005765	2.0053341
156	0x41137769	9.216653
157	0x4041d116	3.0283866
158	0xc09d8e0c	-4.9235897
159	0xbfba2fa2	-1.4545786
160	0xbfd7e11f	-1.6865577
161	0xc071cd12	-3.7781415
162	0x3fcc3d28	1.5956163
163	0xbeea6474	-0.45779765
164	0x3f443f1e	0.7665881
165	0x3f56d1ac	0.83913684
166	0xc009c038	-2.152357
167	0xbf6d4112	-0.92677414
168	0xbf3b53a1	-0.7317448
169	0x402d7784	2.7104197
170	0xc10e7de0	-8.905731
171	0x400c623e	2.1934962
172	0x40241b8c	2.5641813
173	0x3e954117	0.29151222
174	0x409eba6e	4.9602575
175	0x4086c57f	4.2116084
176	0x3fe42704	1.7824407
177	0x3f3b1ee4	0.7309401
178	0x3f3358dc	0.70057464
179	0xbeecafda	-0.46227914
180	0xbf4e64f4	-0.8062279
181	0xbf993faf	-1.197256
182	0xc005483f	-2.0825346
183	0xbea8347c	-0.32852542
184	0xbf65b456	-0.89728296
185	0x3f855132	1.0415404
186	0xbf24c129	-0.6435724
187	0xbf89a655	-1.0753886
188	0xc01ad887	-2.4194658
189	0xbfa308ea	-1.2737095
190	0x3f0892cd	0.53349
191	0x3f4fee60	0.81223106
192	0x3e297b19	0.16550864
193	0x3ed2c552	0.41166168
194	0xbf9fa346	-1.2471702
195	0xc05f973c	-3.4936056
196	0xc07f9323	-3.9933555
197	0xc08ce6b3	-4.4031615
198	0x405892e5	3.3839657
199	0x3f2ad78c	0.6673515
200	0x403fc3b7	2.9963205
201	0x4030f96e	2.765224
202	0x402a147d	2.6575005
203	0x4097da4e	4.7453985
204	0x3f991ab5	1.1961275
205	0x40c87de6	6.2653685
206	0xc02a2cc4	-2.6589823
207	0x3fcc9295	1.5982233
208	0xc10f8f84	-8.972538
209	0xc095ed10	-4.6851883
210	0xbe102048	-0.14074814
211	0x40335777	2.8022134
212	0x3f66831e	0.9004382
213	0x3fb16744	1.3859639
214	0xbef82c10	-0.48471117
215	0x3facd0c2	1.3501208
216	0xbe863e32	-0.26219326
217	0x3f7a90eb	0.9787738
218	0xbfa24790	-1.2678089
219	0xc0aca194	-5.394724
220	0xc017488f	-2.3638036
221	0x400125f0	2.0179405
222	0xbf124cc0	-0.5714836
223	0xbf4dd7b9	-0.8040729
224	0xc06df1da	-3.7178864
225	0x3fb46d4c	1.4095855
226	0x40d0c550	6.524086
227	0x409960cf	4.7930675
228	0xbf78638e	-0.9702691
229	0xbf8e5bac	-1.1121726
230	0xc023f892	-2.5620465
231	0x3f98f0dd	1.1948506
232	0x3ebe39ef	0.37153575
233	0x3e0d8fe4	0.13824421
234	0xbe9cbbe2	-0.30612093
235	0x4004db5e	2.075889
236	0x3fef58f6	1.8699024
237	0x3e763c31	0.24046399
238	0xbfcf13a5	-1.617787
239	0xbe5d4d31	-0.21611477
240	0x4098bbd5	4.7729287
241	0xbe976331	-0.29567865
242	0x3f0894ec	0.53352237
243	0xbf02be32	-0.51071465
244	0xbfc48bc1	-1.535515
245	0x4005e190	2.0918922
246	0xbcadf81f	-0.021236477
247	0x3f12b1eb	0.5730273
248	0xc04eb2d5	-3.229665
249	0x40e5753f	7.1705623
250	0x3f99e385	1.2022558
251	0xbff7864d	-1.933786
252	0x3f9298f5	1.1452929
253	0xc0d0b769	-6.522389
254	0x3fb5e77d	1.421127
255	0xc0430ee6	-3.0477843

bn3.weight f4 [32]
0	0x4166320c	14.387218
1	0x41172ad2	9.447954
2	0x4104bb6e	8.295759
3	0x4107bb69	8.483254
4	0x40f9334a	7.787511
5	0x40cd79b6	6.4211073
6	0x40c4a2d3	6.144876
7	0x40cfac55	6.4897866
8	0x410a62e2	8.649141
9	0x40c26f9e	6.076125
10	0x406e0d5e	3.7195659
11	0x4127549d	10.458158
12	0x41063f01	8.390382
13	0x40c9f5f7	6.311275
14	0x411ed728	9.927528
15	0x40c5e353	6.1839995
16	0x41032123	8.19559
17	0x41073eab	8.4528
18	0x40ff43a1	7.9770055
19	0x40fd6dfb	7.9196754
20	0x40aecde8	5.462635
21	0x4186190c	16.76223
22	0x409ee491	4.965401
23	0x40d4b686	6.6472807
24	0x4103cb5b	8.237147
25	0x40ee6121	7.4493566
26	0x40f1e64d	7.559363
27	0x414eb3b8	12.918877
28	0x40e197b4	7.0497684
29	0x40d919c4	6.784395
30	0x40ef55f8	7.479244
31	0x40f0ba47	7.522739

bn3.bias f4 [32]
0	0xc16401a6	-14.250402
1	0xc0c7c219	-6.2424436
2	0xc0c8942d	-6.268088
3	0xc0cfc46e	-6.492728
4	0xc1754f2d	-15.33183
5	0xbf2b3e4f	-0.6689195
6	0xc11f2c7e	-9.948362
7	0xc0ebe5d6	-7.371806
8	0xc108b007	-8.542975
9	0xc0980868	-4.751026
10	0xbf810216	-1.0078762
11	0xc1554098	-13.32827
12	0xc11910e0	-9.56662
13	0xc0cb1c07	-6.3471713
14	0xc0e87aee	-7.265006
15	0xc0d84bb0	-6.759239
16	0xc09c7f8e	-4.8905706
17	0xc15f631e	-13.961699
18	0xc0bdd3c8	-5.932102
19	0xc1073c94	-8.45229
20	0xc10228ba	-8.134943
21	0xc176bffd	-15.421872
22	0xc12e9404	-10.911137
23	0xc0b7144b	-5.721227
24	0xc08c54f5	-4.3853707
25	0xc09ee852	-4.9658594
26	0x3e34ad8d	0.1764433
27	0xc1627405	-14.153325
28	0xc130f020	-11.058624
29	0xc0ce5cda	-6.4488344
30	0xc0bea96d	-5.958182
31	0xc110fecc	-9.062206

bn3.running_mean f4 [32]
0	0xc1bee174	-23.860085
1	0x41cf1e4e	25.889797
2	0x4065e9ae	3.5923877
3	0xc1cd34c3	-25.650763
4	0xc1c4bfc2	-24.593632
5	0xc194fa8a	-18.622334
6	0xc1c6f6b3	-24.870459
7	0x420579e9	33.369053
8	0x40fb6b4b	7.8568473
9	0x4156cce5	13.425023
10	0xc03a9af7	-2.9157083
11	0x41c9eefe	25.241695
12	0xc13e57cc	-11.896435
13	0x416d0eb5	14.816091
14	0x412bcc43	10.737369
15	0x4082b9ae	4.085166
16	0xc18fe58e	-17.987087
17	0xc1805ba7	-16.044752
18	0x41a6ce2e	20.850674
19	0xc12a48ae	-10.642744
20	0x3f10f1ca	0.5661894
21	0xc10d821c	-8.844265
22	0x41c3ddb8	24.483261
23	0x41b77bde	22.935482
24	0xc09ab90d	-4.835089
25	0x41c02852	24.019688
26	0x40d36733	6.6063476
27	0xc1c89d57	-25.076826
28	0xc14396e8	-12.224342
29	0xc10dd95d	-8.865567
30	0xc21aee31	-38.73261
31	0xc1a1ae23	-20.210028

bn3.running_var f4 [32]
0	0x45299483	2713.282
1	0x44c21197	1552.5497
2	0x458a36de	4422.8584
3	0x45b86ecc	5901.8496
4	0x4613ab36	9450.803
5	0x44cfd5ee	1662.6853
6	0x44610f90	900.24316
7	0x453a5a54	2981.6455
8	0x467d995c	16230.34
9	0x45be1554	6082.666
10	0x4502cf1a	2092.9438
11	0x44a6a542	1333.1643
12	0x442d380d	692.8758
13	0x45255c50	2645.7695
14	0x4424d491	659.32135
15	0x45bb6a1a	5997.2627
16	0x45f514a1	7842.5786
17	0x458587c6	4272.9717
18	0x4491ec9a	1167.3938
19	0x458b2c93	4453.572
20	0x459f17d0	5090.9766
21	0x4619ef89	9851.884
22	0x45e128a7	7205.0815
23	0x44864999	1074.2999
24	0x4528abb5	2698.7317
25	0x45430876	3120.5288
26	0x44608ae5	898.1702
27	0x4620da3e	10294.561
28	0x4422cedf	651.23236
29	0x443fa933	766.64374
30	0x462076fc	10269.746
31	0x45269f9f	2665.9763

conv4.bias f4 [32]
0	0xbe7b794e	-0.24557993
1	0x3e0cc4ca	0.13746944
2	0xbcf595c7	-0.029978646
3	0xbe883561	-0.26603225
4	0xbdcd238c	-0.10016546
5	0xbe808f32	-0.2510925
6	0xbe61a963	-0.22037272
7	0xbedd7349	-0.43252018
8	0x3f0c5f69	0.54833084
9	0xbe6407a4	-0.2226854
10	0xbe8d96f2	-0.27654225
11	0xbde083fb	-0.10962673
12	0xbba5b12e	-0.005056522
13	0xbedc914c	-0.43079603
14	0xbe8f5279	-0.2799261
15	0xbd96df3b	-0.073667966
16	0xbebaf500	-0.36515045
17	0xbdebf341	-0.115210064
18	0xbe7450c5	-0.23858936
19	0xbf3856bc	-0.72007346
20	0xbd5ce7df	-0.053932067
21	0x3e8aa881	0.27081683
22	0xbec8878b	-0.3916591
23	0xbe002609	-0.1251451
24	0xbe924628	-0.2856915
25	0xbe38d5ff	-0.18050383
26	0xbf00b9d1	-0.50283533
27	0xbec88612	-0.39164788
28	0xbf6f22a3	-0.93412226
29	0xbf3bd2c8	-0.733685
30	0x3e6a58b0	0.22885394
31	0xbea27d44	-0.31736195

conv4.weight f4 [32, 32, 3]
0	0x3fdce163	1.7256283
1	0x3fbc8aee	1.4729898
2	0xbf9be096	-1.2177913
3	0xc08f44f4	-4.477167
4	0xbfc278b3	-1.5193084
5	0x3fadcee7	1.3578767
6	0x3fee6e5e	1.8627431
7	0xc016ce72	-2.3563504
8	0x3fd46ed8	1.6596327
9	0x3fdf56df	1.7448386
10	0x40793e3b	3.8944232
11	0xbf34be54	-0.7060292
12	0xbeed8374	-0.46389353
13	0x3f0163ed	0.505431
14	0x408f74f2	4.4830256
15	0xc005422f	-2.0821645
16	0x4026df5f	2.6073835
17	0x3f115228	0.56765985
18	0x3f05a773	0.5220863
19	0x405dd5f4	3.4661837
20	0xc00e8135	-2.2266362
21	0x401b03b1	2.4221003
22	0x3f239745	0.63902694
23	0xc06b5a96	-3.677404
24	0xc0799886	-3.8999343
25	0xbfecbbdb	-1.8494829
26	0x3f708907	0.9395909
27	0xbf5575dc	-0.83382964
28	0xbf9de3c5	-1.2335135
29	0xc01805e5	-2.3753598
30	0xbf368eef	-0.7131185
31	0xc021700f	-2.5224645
32	0x3fefd715	1.8737513
33	0xc093c449	-4.6177106
34	0x404eb811	3.2299845
35	0x40c0313e	6.006011
36	0xc026b90a	-2.605044
37	0x400f8f7e	2.243133
38	0x401a16ed	2.4076493
39	0xc016ea0f	-2.3580358
40	0x3ed8d00f	0.42346236
41	0x3f1c5f9d	0.61083394
42	0x4060c020	3.5117264
43	0xc01f825c	-2.4923315
44	0xbf81457d	-1.0099331
45	0x3ff6e4f3	1.928862
46	0x40a2859b	5.0788093
47	0xbffb0d21	-1.9613382
48	0xc0ad38f7	-5.4132037
49	0x3fbf2506	1.4933174
50	0x3fd156f5	1.6354662
51	0x4042b598	3.0423336
52	0x409cf15d	4.9044633
53	0xc0c07150	-6.013832
54	0xc01715ea	-2.3607125
55	0x3e0cfe8c	0.13768977
56	0xbfbdb555	-1.4820963
57	0xc0449a8a	-3.0719323
58	0xc0d808e9	-6.7510877
59	0xc091237e	-4.5355825
60	0x406c347c	3.6907034
61	0x3f4cf500	0.8006134
62	0x3fd773a4	1.6832166
63	0x4088891f	4.2667384
64	0x4075c9a3	3.840432
65	0xc023df56	-2.5605063
66	0xbfd951fc	-1.6978145
67	0xbf5614e2	-0.83625615
68	0xbeb18256	-0.3466975
69	0x3ff53a2e	1.915838
70	0xc02c8ddb	-2.6961582
71	0xbfc18414	-1.5118432
72	0x3ff53363	1.9156307
73	0x4088792b	4.264791
74	0x3fbfda2a	1.4988453
75	0xbfcb17a8	-1.5866594
76	0xbfe4122e	-1.7818048
77	0x3ec60854	0.3867823
78	0xbdad15d2	-0.084514275
79	0x40af6b7b	5.48187
80	0xc0373cd1	-2.863087
81	0x3fb302f9	1.3985282
82	0xc08d535e	-4.4164267
83	0x3f93edee	1.1556985
84	0xbfc1baa5	-1.5135084
85	0xbff37116	-1.9018886
86	0xc048819f	-3.1329114
87	0xbf5ad5bd	-0.8548239
88	0x3d09e839	0.03366873
89	0xbf008f64	-0.50218797
90	0x40453072	3.0810819
91	0xc081bb5f	-4.0541224
92	0x400bfb85	2.1872265
93	0x4023739d	2.5539315
94	0xc002ae21	-2.041878
95	0x3fb1a86f	1.3879527
96	0x00000000	0.0
97	0x80000000	-0.0
98	0x00000000	0.0
99	0x80000000	-0.0
100	0x80000000	-0.0
101	0x00000000	0.0
102	0x80000000	-0.0
103	0x00000000	0.0
104	0x00000000	0.0
105	0x00000000	0.0
106	0x00000000	0.0
107	0x00000000	0.0
108	0x00000000	0.0
109	0x00000000	0.0
110	0x80000000	-0.0
111	0x00000000	0.0
112	0x80000000	-0.0
113	0x80000000	-0.0
114	0x00000000	0.0
115	0x80000000	-0.0
116	0x80000000	-0.0
117	0x00000000	0.0
118	0x80000000	-0.0
119	0x80000000	-0.0
120	0x00000000	0.0
121	0x00000000	0.0
122	0x80000000	-0.0
123	0x80000000	-0.0
124	0x80000000	-0.0
125	0x80000000	-0.0
126	0x00000000	0.0
127	0x80000000	-0.0
128	0x80000000	-0.0
129	0x00000000	0.0
130	0x00000000	0.0
131	0x00000000	0.0
132	0x00000000	0.0
133	0x80000000	-0.0
134	0x80000000	-0.0
135	0x00000000	0.0
136	0x00000000	0.0
137	0x80000000	-0.0
138	0x00000000	0.0
139	0x00000000	0.0
140	0x80000000	-0.0
141	0x00000000	0.0
142	0x00000000	0.0
143	0x80000000	-0.0
144	0x80000000	-0.0
145	0x00000000	0.0
146	0x80000000	-0.0
147	0x80000000	-0.0
148	0x80000000	-0.0
149	0x00000000	0.0
150	0x80000000	-0.0
151	0x80000000	-0.0
152	0x80000000	-0.0
153	0x80000000	-0.0
154	0x80000000	-0.0
155	0x80000000	-0.0
156	0x00000000	0.0
157	0x00000000	0.0
158	0x00000000	0.0
159	0x80000000	-0.0
160	0x00000000	0.0
161	0x00000000	0.0
162	0x80000000	-0.0
163	0x00000000	0.0
164	0x00000000	0.0
165	0x00000000	0.0
166	0x00000000	0.0
167	0x00000000	0.0
168	0x00000000	0.0
169	0x00000000	0.0
170	0x80000000	-0.0
171	0x00000000	0.0
172	0x80000000	-0.0
173	0x00000000	0.0
174	0x80000000	-0.0
175	0x00000000	0.0
176	0x00000000	0.0
177	0x00000000	0.0
178	0x00000000	0.0
179	0x00000000	0.0
180	0x80000000	-0.0
181	0x80000000	-0.0
182	0x00000000	0.0
183	0x80000000	-0.0
184	0x00000000	0.0
185	0x80000000	-0.0
186	0x00000000	0.0
187	0x00000000	0.0
188	0x00000000	0.0
189	0x80000000	-0.0
190	0x80000000	-0.0
191	0x80000000	-0.0
192	0xbd4ab390	-0.04948765
193	0x4042c0c5	3.0430157
194	0x3e1b1f48	0.15148652
195	0x4041df65	3.02926
196	0x3e79c0a4	0.24389893
197	0x4006f4d2	2.1086926
198	0xc067d63d	-3.622451
199	0x3f68a85c	0.90881896
200	0x401ce4de	2.451469
201	0xc063cd6b	-3.5594127
202	0xbf479a7d	-0.77970105
203	0x3fb25bc1	1.3934251
204	0x3fdb5f43	1.7138447
205	0x4084b019	4.1464963
206	0x3fb3fda0	1.4061775
207	0xc00f8ce0	-2.2429733
208	0xc05769af	-3.3658254
209	0xbf03cf70	-0.514884
210	0x402615fc	2.5950918
211	0x40ce559c	6.4479504
212	0xbfd1e0df	-1.639675
213	0xc09ddf12	-4.9334803
214	0xc0828e53	-4.0798736
215	0xc04f4b67	-3.2389772
216	0x3e997b39	0.29976824
217	0x3f44f7bd	0.7694052
218	0xbf56ea50	-0.8395128
219	0xc06c51c8	-3.6924915
220	0xc0022416	-2.0334525
221	0x3f053d7a	0.5204693
222	0x40545b94	3.3180895
223	0x3fe69f17	1.80173
224	0xc0698ecf	-3.6493413
225	0xc0295917	-2.6460626
226	0x40cbb669	6.366017
227	0x404bf846	3.1870284
228	0xc04537de	-3.0815349
229	0xc0a61fe9	-5.1913953
230	0xbdd24571	-0.10267151
231	0x3fb1fac5	1.3904654
232	0x3d50947b	0.050922852
233	0x3f3677b5	0.7127641
234	0x407cf9d9	3.9527495
235	0xbf514133	-0.8174011
236	0x3ed596b1	0.4171653
237	0xbf53c85b	-0.82727593
238	0xc02ef86c	-2.7339125
239	0xc010e840	-2.2641754
240	0x40a927cf	5.2861094
241	0xbe861c50	-0.26193476
242	0x3f675f9b	0.9038026
243	0x408d85b2	4.42257
244	0x3f362791	0.71154124
245	0xc00a62c0	-2.1622772
246	0xbf4770b1	-0.7790633
247	0xc0a06cf5	-5.0133004
248	0xc02b1e37	-2.6737192
249	0x4065cca1	3.5906146
250	0x40ca7398	6.3266106
251	0x40093aaf	2.1442068
252	0x3efab811	0.48968557
253	0x401be695	2.4359486
254	0xbfbf884a	-1.4963467
255	0xbf49c6c9	-0.7881895

bn4.weight f4 [32]
0	0x4094291a	4.6300173
1	0x40ad942e	5.4243383
2	0x408e25ba	4.4421053
3	0x40892585	4.28583
4	0x40d26ef5	6.5760446
5	0x40bd7f1c	5.9217663
6	0x40938a05	4.610598
7	0x40b750c3	5.7286086
8	0x4095fb35	4.686915
9	0x4131ff5f	11.124846
10	0x4099329f	4.7874293
11	0x40a6c727	5.2118106
12	0x409085c4	4.516329
13	0x406ddea1	3.7167132
14	0x40c44f6e	6.134696
15	0x4083df6f	4.1210246
16	0x40a1192e	5.0343237
17	0x409888da	4.7667055
18	0x40a2f076	5.091853
19	0x40cd79f0	6.421135
20	0x40c97ade	6.2962484
21	0x40dcc9e4	6.899645
22	0x408c0db2	4.376672
23	0x40cec898	6.4619865
24	0x4072f7ef	3.7963827
25	0x407fcfc3	3.9970558
26	0x40abd246	5.369418
27	0x40c5be45	6.1794763
28	0x40b348fd	5.6026597
29	0x40d31ba5	6.5971246
30	0x4092e47f	4.5903926
31	0x409ca612	4.8952723

bn4.bias f4 [32]
0	0xc0803248	-4.006138
1	0xc09c3f79	-4.882748
2	0xc064b833	-3.5737426
3	0xbfd505ee	-1.6642435
4	0xc06d6d37	-3.709791
5	0xc0bd2fa8	-5.9120674
6	0xc03d11e3	-2.9542167
7	0xc0828e28	-4.079853
8	0xc06f8fcf	-3.7431524
9	0xc0c3e7f2	-6.1220636
10	0xc02f64ef	-2.7405355
11	0xc09a15f8	-4.8151817
12	0xc044ea4d	-3.0768006
13	0xc08ade38	-4.3396263
14	0xc0863c14	-4.1948338
15	0xc08698a1	-4.2061315
16	0xc084739a	-4.1391115
17	0xc08e2729	-4.4422803
18	0xc0b054a4	-5.510332
19	0x3f3f8c7e	0.7482375
20	0xc02d9126	-2.7119842
21	0xc0d6f45b	-6.7173285
22	0xc07123dd	-3.767814
23	0xc086abca	-4.2084703
24	0xbfd2f579	-1.6481162
25	0xc062880f	-3.5395544
26	0xc044fc4b	-3.0778987
27	0xc0925414	-4.5727634
28	0xbedf75c1	-0.43644527
29	0xc064d99c	-3.5757818
30	0xc0886470	-4.2622604
31	0xc0102b40	-2.2526398

bn4.running_mean f4 [32]
0	0xc1d44a9e	-26.536434
1	0x3e0cc4cb	0.13746946
2	0xc1f945e3	-31.159124
3	0xbe88355b	-0.26603207
4	0xc0fecc84	-7.9624653
5	0xc015e97d	-2.342376
6	0xbf9e849b	-1.2384218
7	0x421e6365	39.597065
8	0xc14ac3ba	-12.672785
9	0xc21f6ad7	-39.854336
10	0xbe8d96f3	-0.27654228
11	0xbde083fa	-0.109626725
12	0xc157de71	-13.491807
13	0x41af8f4a	21.944965
14	0xbe8f5273	-0.2799259
15	0x4202f437	32.73849
16	0x414a358b	12.638072
17	0xbdebf33a	-0.11521001
18	0xc1cbddc0	-25.483276
19	0xc2121d79	-36.52878
20	0xc23bc9db	-46.947124
21	0xc1f27aea	-30.310017
22	0x426f3c35	59.808796
23	0xc1251b12	-10.319109
24	0x4241c71a	48.444435
25	0xbe38d5f7	-0.18050371
26	0x42196878	38.35202
27	0xbec8860c	-0.3916477
28	0xc10630eb	-8.386943
29	0xbf3bd2c9	-0.7336851
30	0x3e6a58a9	0.22885384
31	0x419c2ff4	19.523415

bn4.running_var f4 [32]
0	0x45d977fe	6958.999
1	0x23ccd152	2.2206375e-17
2	0x45b18c4c	5681.537
3	0x00000004	6e-45
4	0x456186fe	3608.437
5	0x459bb12b	4982.146
6	0x4596b60b	4822.7554
7	0x456256e0	3621.4297
8	0x4560cca4	3596.79
9	0x45e9e79b	7484.9507
10	0x24ccd152	8.88255e-17
11	0x25666914	1.9984922e-16
12	0x45e27169	7246.1763
13	0x45860ae6	4289.3623
14	0x00000004	6e-45
15	0x45caa166	6484.175
16	0x456020da	3586.0532
17	0x248001a4	5.551393e-17
18	0x4586d7f7	4314.9956
19	0x462c145c	11013.09
20	0x46089481	8741.126
21	0x461182d8	9312.711
22	0x4616063b	9601.558
23	0x455cd97c	3533.5928
24	0x4586c0e1	4312.11
25	0x258001a4	2.2205572e-16
26	0x45a23136	5190.1514
27	0x24ccd152	8.88255e-17
28	0x45903cce	4615.6006
29	0x25ccd152	3.55302e-16
30	0x258001a4	2.2205572e-16
31	0x4562521a	3621.1313

conv5.bias f4 [6]
0	0x3f538103	0.8261873
1	0xbfa90431	-1.3204404
2	0x3f238034	0.638675
3	0xbedb6f6e	-0.42858452
4	0xbf3fd932	-0.7494079
5	0x3f4aab72	0.79167855

conv5.weight f4 [6, 32, 1]
0	0xbe5c601f	-0.21521042
1	0xbf156469	-0.5835634
2	0x3ee8c226	0.45460624
3	0x3f78fca2	0.9726049
4	0xbec43d81	-0.38328174
5	0xbf62f7a7	-0.8865914
6	0xbed109da	-0.4082783
7	0x3d5c89df	0.05384242
8	0xbf4dc261	-0.80374724
9	0xbf0b054d	-0.54304963
10	0xbe7fd732	-0.24984434
11	0xbf277636	-0.6541475
12	0x3f713b15	0.9423078
13	0x3d2b64b7	0.041844096
14	0xbea0d7d0	-0.31414652
15	0x3f14bd73	0.58101577
16	0x3f1e78f4	0.6190331
17	0xbf8f648d	-1.1202561
18	0xbf5edb49	-0.8705335
19	0x3df3309d	0.118745066
20	0x3f5ca48a	0.86188567
21	0xbf50791f	-0.81434816
22	0x3ec9c550	0.3940835
23	0x3f2f3155	0.6843465
24	0xbf5ae59e	-0.8550662
25	0x3faa9f90	1.3329945
26	0x3f30ca4a	0.6905867
27	0x3eaa1759	0.33220938
28	0xbf28f490	-0.6599817
29	0xbe945c79	-0.289768
30	0x3f5f14b3	0.8714096
31	0xbee46547	-0.44608518
32	0xbf9196c6	-1.1374137
33	0xbec0633f	-0.3757572
34	0x3fefa39c	1.8721805
35	0x3f24dbbc	0.6439779
36	0xbf8aa493	-1.0831474
37	0xbff7c064	-1.9355588
38	0x3feb56fa	1.8385918
39	0xbddc790c	-0.10765275
40	0xbed36461	-0.4128752
41	0x40323211	2.7843058
42	0x3f3f6fbb	0.7477986
43	0x3fb56220	1.417057
44	0xbf617b7e	-0.8807906
45	0xbfe6638e	-1.7999132
46	0xbef5100c	-0.47863805
47	0x3e0335d4	0.12813503
48	0xbffb8b8f	-1.9651965
49	0x3e132b75	0.14372046
50	0x4013452d	2.3010972
51	0xbe3b69ad	-0.18302031
52	0xbfb1bdc1	-1.3886033
53	0xbf2d43ef	-0.67681783
54	0xbe441068	-0.19146883
55	0x3f8e21a4	1.1104016
56	0x3fcc2147	1.5947655
57	0xbfcdf428	-1.6090136
58	0x3e6d7a7e	0.23191258
59	0xbe9aa023	-0.302003
60	0xbe85f69a	-0.26164705
61	0xbfdfdd5a	-1.7489426
62	0xbda4398b	-0.08018788
63	0x3c4c5e03	0.012473586
64	0x3f4a4331	0.79008776
65	0x400bd8fe	2.1851192
66	0x40018c5e	2.0241923
67	0xc00e3205	-2.221803
68	0x3ec02122	0.37525278
69	0x405e2d46	3.4715133
70	0x3f0b3209	0.5437322
71	0x3efcd1ed	0.4937891
72	0xc03a7c2b	-2.9138286
73	0xbec115cb	-0.3771194
74	0x3ea83b59	0.3285778
75	0xc0447ef9	-3.0702498
76	0xc09f2581	-4.973328
77	0x40b824cf	5.754493
78	0x3eeddeda	0.46459085
79	0xbefa3c50	-0.4887414
80	0x3f9b1a83	1.2117466
81	0x408c05c7	4.3757052
82	0xc05cbab2	-3.448895
83	0x3f4da0cb	0.80323476
84	0x400e17ee	2.2202106
85	0xbf4f10a1	-0.8088475
86	0xc10ce9d3	-8.807086
87	0x3fbe7d97	1.4882077
88	0xc04c397a	-3.191008
89	0x3fbf9ea1	1.4970285
90	0xc0bf247e	-5.9732046
91	0x404159bb	3.0211017
92	0xbd18bcd4	-0.037289456
93	0x408832ad	4.256186
94	0xc11b50fc	-9.707272
95	0xc134fc6f	-11.311629
96	0xbf4052be	-0.75126255
97	0x3fea634a	1.8311551
98	0xc019f250	-2.4054146
99	0xbdc111dc	-0.094272345
100	0x3f128bb3	0.57244414
101	0x3d705448	0.058674127
102	0x3f3e7e94	0.7441189
103	0xbfe69be9	-1.801633
104	0x3e565846	0.20932111
105	0xbe096838	-0.13418663
106	0x3ff742ea	1.9317296
107	0x3f79efa0	0.97631264
108	0x3f730eb1	0.9494429
109	0xbfa93a23	-1.3220867
110	0xbdeed509	-0.11661727
111	0xc01ce2de	-2.4513469
112	0x3fbcb7cd	1.4743592
113	0xbed67fe4	-0.41894448
114	0x40060369	2.0939581
115	0xbebe0c67	-0.37118837
116	0xbfe9d1ad	-1.8267113
117	0x3f2d3799	0.6766296
118	0x3fa730e2	1.3061793
119	0xbf39fa4d	-0.72647554
120	0x3e285625	0.16439112
121	0x3e0dbe53	0.13842134
122	0x3f1e14a9	0.61750275
123	0xbfdc3b84	-1.7205663
124	0x3ed58bcb	0.41708216
125	0x3fa034af	1.2516078
126	0xbfaf5c94	-1.3700128
127	0x3f1f2e42	0.6217996
128	0x4055e6b1	3.3422053
129	0xc000488f	-2.0044286
130	0x3fd64ac3	1.6741565
131	0xbf8e496e	-1.1116159
132	0x401dbe2c	2.4647322
133	0x3f1363d4	0.575742
134	0xbfb34ae3	-1.4007229
135	0x3f98cd59	1.1937667
136	0x3fdf6d15	1.7455164
137	0xbef1a7e2	-0.47198397
138	0xbf5aea5b	-0.8551385
139	0xbf73918c	-0.9514396
140	0xbfdf5212	-1.7446921
141	0xbfa06279	-1.2530051
142	0x3fd878f5	1.6911913
143	0xbf261918	-0.6488204
144	0xc00fcbde	-2.246818
145	0x3feff76c	1.8747382
146	0xbf263047	-0.64917415
147	0xbdbf6f49	-0.09347398
148	0xbf928f48	-1.1449976
149	0x3eeec0c4	0.46631444
150	0x3f0e3db1	0.55562884
151	0xbff9f0b3	-1.952658
152	0x3f943420	1.1578407
153	0xbfc056c5	-1.502648
154	0xbf8e359f	-1.1110114
155	0xbf5482c1	-0.83012015
156	0x3d1b78bf	0.03795695
157	0xbfab2497	-1.3370541
158	0x3ff2692e	1.8938348
159	0xbd36c918	-0.04462537
160	0xbfefc715	-1.873263
161	0x3e8b090a	0.27155334
162	0xbfb311ba	-1.3989785
163	0xbc967c9b	-0.018369963
164	0xbf955e6f	-1.1669444
165	0x3d531a66	0.051538847
166	0xbcfa0250	-0.03051868
167	0xbec9c418	-0.3940742
168	0xbe2993e1	-0.16560318
169	0xbe109ddf	-0.14122723
170	0xbf990242	-1.1953814
171	0xbf34563a	-0.7044407
172	0x3e8c4e8d	0.2740368
173	0x3fb5a388	1.4190531
174	0xbf54812b	-0.83009595
175	0x3f11c4fe	0.5694121
176	0x3f82ba16	1.0213039
177	0xbfa2a8c0	-1.2707748
178	0xbf900b1b	-1.1253389
179	0xbeec61d0	-0.46168375
180	0x3f71d3b0	0.94463634
181	0x3f1caddf	0.61202806
182	0xbf04677f	-0.5172042
183	0xbe1ad9c8	-0.1512214
184	0xbf8f3502	-1.1188052
185	0x3f103271	0.5632697
186	0x3f14757b	0.5799176
187	0x3f3b0d1d	0.73066884
188	0x3ebb3cd1	0.36569837
189	0xbe46abc3	-0.1940146
190	0xbde2550e	-0.11051379
191	0x3f0e3a24	0.55557466
