networks/pretrained_models/iscx2016vpn/CNN1D_TrafficClassification_with_auxiliary_best_model.pth (torch, 135450 bytes, 86 tensors)

conv1.weight f4 [16, 1, 3]
000000 89 e0 c3 bc 20 95 a1 bf 61 2f 70 be 61 a8 66 3d
       -0.023910778 -1.2623634 -0.23455574 0.056312922
000010 ce 26 7f bf 6b ac b8 3d a6 5f 87 be 4e 34 58 3f
       -0.99668586 0.09017261 -0.2644016 0.8445481
000020 52 da 40 bd 3e 45 f8 3d fd 40 42 bf c3 56 71 3e
       -0.047083206 0.12122582 -0.75880414 0.23568253
000030 93 80 0b 3e 98 95 0e 3f 5b d5 d5 be 7b 27 75 3f
       0.13623266 0.5569701 -0.4176434 0.9576337
000040 e5 a4 b6 3e 4d 8d 73 be 8e 88 47 3e 2e 96 a8 bd
       0.3567268 -0.2378437 0.19485685 -0.082317695
000050 90 86 74 bf 8d 55 58 bf 18 ec 52 be 87 b5 3f be
       -0.95517826 -0.8450554 -0.20597875 -0.18721591
000060 6b 3b 11 3e 07 ac 5d 3f be 19 8b 3e b8 43 0c 3f
       0.14182822 0.8659062 0.27168077 0.5479083
000070 fe e2 e5 bd 11 23 ed 3e fb 9e 1e bf 47 46 c1 3e
       -0.11224936 0.46315816 -0.61961335 0.3774893
000080 ad fa f8 bd 2f ac c8 3e fb 60 a9 3e 84 8a 7c 3e
       -0.121571876 0.39193866 0.33081803 0.24662215
000090 fb 05 78 bf b8 67 c7 be e6 fe b8 3e 0e 53 ae 3e
       -0.96884125 -0.3894632 0.36131972 0.3404774
0000a0 3b a9 02 bf d4 cb 75 bc d9 0f e7 be 0b 44 08 3f
       -0.51039475 -0.01500221 -0.45129278 0.53228825
0000b0 2c d3 a0 3e a1 e2 e7 bc 59 31 58 bf d5 f8 33 bf
       0.3141111 -0.028306307 -0.844503 -0.7030156

conv1.bias f4 [16]
000000 97 e6 3b bf c1 9f 08 bf be f9 f7 be 8e 9f 36 bf
       -0.7339873 -0.53368765 -0.48432726 -0.7133721
000010 50 6d 28 3f 6d 33 db be c6 b9 53 be f8 cf 32 3e
       0.657918 -0.42812672 -0.20676336 0.17462146
000020 a8 60 53 bf 03 ae 56 bf 57 8d 8b 3c 01 4e b7 3e
       -0.8256936 -0.8385927 0.01703517 0.358017
000030 6f ea 25 bf f9 99 dc be c0 f9 5b 3f e5 5e c0 bd
       -0.6481084 -0.43086222 0.85927963 -0.093931

bn1.weight f4 [16]
000000 3f c0 01 40 9a 43 d6 3f 61 29 4e 3f fc 05 2f 3f
       2.0273588 1.673938 0.8053189 0.68368506
000010 51 57 cb 3e 60 bd 50 3f 0c 7a d3 3f 6e af e5 3f
       0.39715055 0.81538963 1.6521621 1.7944162
000020 e4 1d 83 3f 9c 0f 20 3f 73 0c 94 3f 58 d2 85 3f
       1.0243497 0.6252382 1.1566299 1.0454817
000030 79 2e c2 3f 21 7d 45 3f da b5 0e 3f ce 5d 13 40
       1.5170432 0.77144057 0.55746233 2.3026004

bn1.bias f4 [16]
000000 ed 22 84 bd 24 17 41 bf 71 92 32 bf cb d0 07 3f
       -0.06451974 -0.75425935 -0.697547 0.5305297
000010 39 20 2d 3e d7 d9 c7 bd c3 c8 5b bf ca 30 da be
       0.16906823 -0.097583465 -0.85853213 -0.42615348
000020 82 70 3b bf 2b 8f 05 3f 7b 96 06 bf e3 10 9f bc
       -0.7321855 0.5217158 -0.52573365 -0.019417232
000030 6c d9 80 bf 7c a6 16 bf 99 bc 47 be a4 df ce be
       -1.0066352 -0.58847785 -0.19505538 -0.40405

bn1.running_mean f4 [16]
000000 98 64 80 bf 55 78 2f bf 99 55 c9 be a7 bc 48 bf
       -1.0030699 -0.6854299 -0.39323118 -0.7841286
000010 f1 26 35 3f bb cb 72 be 26 8a b6 be cf c0 37 bd
       0.70762545 -0.2371053 -0.35652274 -0.04486161
000020 20 dd 19 bf ce f2 2d bf 7a ae 43 bd e9 24 08 3f
       -0.60103035 -0.67948616 -0.047773816 0.5318132
000030 79 69 52 bf 3d 11 ec be 1c 4a 6d 3f b4 72 bd be
       -0.8219219 -0.46106902 0.92691207 -0.37001574

bn1.running_var f4 [16]
000000 e0 eb 36 3e f8 90 90 3d ad a6 21 3d 30 c2 e8 3c
       0.17863417 0.070589006 0.039465595 0.028412908
000010 db 88 9e 3c 1f 8f c8 3d 85 c8 8b 3d 62 e9 df 3d
       0.019352367 0.09792923 0.068253554 0.10933186
000020 42 e7 ee 3d fe ea 79 3d cf 56 c2 3c af 66 7e 3d
       0.11665203 0.06101512 0.023723034 0.062109645
000030 e7 0a be 3d 31 6c 58 3c ae f4 d6 3c 7a 1c 33 3e
       0.09279423 0.013209389 0.02623972 0.17491332

submod1.weight f4 [16, 16, 1]
000000 07 79 cb bd ed 70 1a be cc 2d 92 bd 4d 84 63 3d
       -0.099351935 -0.1508214 -0.07137641 0.055546094
000010 4c 8e c2 3d 05 2a 00 3f a7 2d a2 3d be ce 97 be
       0.09499797 0.50064117 0.07918864 -0.2964992
000020 29 73 78 bd 5f 5e c4 bd 2c 5c cf bf 93 40 19 3e
       -0.0606567 -0.09588312 -1.6200004 0.1496604
000030 fc ec a9 bf f0 23 8c bf 30 fb a7 3d 9a e9 8f bd
       -1.3275447 -1.0948467 0.08202207 -0.07026978
000040 ea f3 ee 3c 4f 2b 27 3e 27 c8 0f 3f a1 6d b7 3d
       0.029169042 0.16325115 0.56164783 0.08956457
000050 bf ae 29 be fb fa 40 3e e0 87 72 bf af 1a e4 3e
       -0.16570567 0.18845741 -0.9473858 0.44551608
000060 de e9 02 3f e5 7a 02 be 78 d3 34 bf f2 d0 59 3e
       0.51138103 -0.12742193 -0.70635176 0.21271113
000070 5c 20 19 c1 70 11 ab bf b0 db 2b 3e 2c 88 8e 3d
       -9.5704 -1.3364697 0.16783023 0.069595665
000080 af d3 81 3d 34 cc 85 3e 44 b4 84 3e 14 21 3e 3e
       0.063392036 0.26132357 0.25918782 0.18567306
000090 bf 29 82 3d 28 63 a8 3d ed 73 21 bf 89 59 5c be
       0.06355619 0.082220376 -0.63067514 -0.2151853
0000a0 12 50 fb 3e cb 7e 80 be 1b 4e 18 bf 25 9a e2 3e
       0.49084526 -0.25096735 -0.5949418 0.44258228
0000b0 5c d3 58 c0 f3 50 88 bf a2 03 85 3d f5 64 ef 3d
       -3.3879004 -1.0649704 0.064948335 0.11689178
0000c0 4b 52 40 3e 8d bf 69 bf 9c bf 19 bf 02 71 dd bd
       0.18781392 -0.9130791 -0.60058 -0.1081257
0000d0 67 2b 7e 3e aa 59 0e bf 13 99 92 3e 29 15 9a 3c
       0.24821244 -0.55605567 0.2863241 0.018808918
0000e0 3c b1 21 bf 5c e9 9f 3e c3 16 b7 3f 60 43 1e bf
       -0.63161063 0.31232727 1.4303821 -0.61821556
0000f0 0c 73 c7 40 50 68 4d bf 0e 0b 91 be bd ff 20 3e
       6.232794 -0.80237293 -0.28328747 0.15722556
000100 31 bb 05 3e 0e 7f 43 bf 0a b0 44 3f 39 26 23 bf
       0.13059689 -0.76365745 0.76831114 -0.637302
000110 f1 06 5f be ee 7b a2 bd 21 ad af 3e bc de 94 3e
       -0.21779992 -0.07933794 0.34311774 0.29076183
000120 73 c7 0b 3f 38 42 42 be 9e ba 31 c0 fd fa d7 bd
       0.5460121 -0.18970573 -2.7770152 -0.10545919
000130 50 b6 5c 40 7a 73 7f 3f c5 e1 1e be 5d c0 ca 3e
       3.4486275 0.9978558 -0.15515812 0.39599887
000140 71 07 a6 be f9 18 0d 3f d0 13 f6 3c 72 c1 90 3e
       -0.32427552 0.5511623 0.030038744 0.28272587
000150 2e f3 fe 3c 23 09 1f 3e 1d 53 4a bf 02 dd 03 bc
       0.031121816 0.15530829 -0.7903307 -0.008048298
000160 e1 d7 66 3e d8 67 0e be c4 0d a6 3c e1 0a 30 3d
       0.22543289 -0.13906801 0.020270236 0.042979125
000170 3f 62 65 c0 0f 01 48 bf 33 dd 10 3f d6 9f 7b 3d
       -3.5841215 -0.78126615 0.56587523 0.06143173
000180 20 a8 11 be 57 08 90 3e 0f ec d0 3e 21 f6 d4 3d
       -0.14224291 0.28131363 0.40805098 0.10398508
000190 6d 4f a7 3d cc b0 be 3e 70 f1 52 3e d3 b4 cf bd
       0.08169446 0.3724426 0.20599914 -0.10141911
0001a0 6f 6c c6 3d b3 f0 88 3d e6 5b 16 bf c1 62 a7 be
       0.09688651 0.06686535 -0.58733976 -0.3269253
0001b0 9b 2e 42 3f 72 72 0a 3d cc 14 ec 3d 3a 0a 07 be
       0.75852364 0.03380055 0.11527404 -0.13187495
0001c0 6a af 6c bd 7d 22 02 3f e6 ab bc c0 f4 e7 3e 3f
       -0.057784475 0.50833875 -5.8959837 0.7457268
0001d0 26 01 bd 40 28 26 c2 c0 d9 ce 7c 3f 5d 59 21 bf
       5.90639 -6.0671577 0.98753124 -0.6302698
0001e0 29 a9 5d c1 e3 49 61 40 71 72 a3 41 5d c5 17 c1
       -13.853799 3.5201347 20.43088 -9.485684
0001f0 0c d2 c8 41 d7 8c 02 41 63 b2 87 c0 f4 a8 3e bf
       25.102562 8.159385 -4.2405257 -0.7447655
000200 e0 b0 b6 3e 27 8c f7 bf 60 dd d4 bd 4f 99 00 bf
       0.3568182 -1.9339646 -0.103937864 -0.5023393
000210 49 5b b8 bd 0c 03 36 3f 9b a4 e5 3f 15 74 76 3e
       -0.09001786 0.710984 1.7940859 0.2406772
000220 f5 4d 18 3e ed e4 0e be cc ec 51 c0 da 44 aa 3e
       0.14873488 -0.13954516 -3.280078 0.33255655
000230 ae 49 0d c0 08 fd 7b 3f 02 99 55 3e 6e 1d c4 3e
       -2.207622 0.9843297 0.20859149 0.38303703
000240 bf 5f 5b be 11 b7 f8 3e 51 7b 8f be 59 2b 1b 3e
       -0.21423243 0.4857717 -0.2802377 0.15153255
000250 d8 79 9b bc d2 dd 41 3f d9 e3 39 3e 28 fa 93 bd
       -0.018978998 0.75729096 0.18153323 -0.07225448
000260 7e 6f 98 3e 75 0f 3e be cf d8 ff bf e5 e2 8a 3e
       0.29772562 -0.18560584 -1.998804 0.27126232
000270 a4 ac 55 c0 bb 2e 03 3f ca 76 2d 3e 76 fe bf bd
       -3.3386621 0.5124318 0.16939846 -0.093747064
000280 1f 3b bc 3e a1 c1 62 bf 21 7b a4 3e 48 11 26 3e
       0.36763856 -0.88576704 0.3212519 0.1621753
000290 a2 2f 81 be 00 16 74 be 3b ba 25 3f a0 42 58 be
       -0.25231653 -0.23836517 0.6473729 -0.21119165
0002a0 46 7e 15 be c6 4c e1 be 59 92 2d 3f bc 04 2b bf
       -0.1459895 -0.44003886 0.67801434 -0.668041
0002b0 b5 c1 cb 40 3e 1d f2 3f 10 6f fd 3d f2 43 e7 3c
       6.367396 1.8915174 0.12374699 0.028230641
0002c0 fd c7 c5 3e f0 5d 33 bf 90 0f 17 40 f2 5a 8d be
       0.3862914 -0.7006521 2.3603249 -0.27608448
0002d0 c9 e5 07 c0 d3 e7 c9 3e f4 0f a6 bf 49 2e 1b 3f
       -2.1234 0.3943468 -1.2973619 0.606175
0002e0 2f c2 46 40 04 1d 72 bf b7 b9 8b c0 a9 4b a3 3f
       3.105602 -0.94575524 -4.3664203 1.2757465
0002f0 37 e5 11 c2 ab b9 91 c0 dd df b6 bf a0 7e cc 3e
       -36.473843 -4.5539145 -1.4287068 0.39940357
000300 d4 f8 75 3e 50 25 14 40 8c fa e0 be 35 a4 a0 bf
       0.24020702 2.3147774 -0.43941152 -1.2550112
000310 97 ae 87 be d5 62 b6 bf 42 43 29 c0 1d 7f fe 3e
       -0.2650039 -1.4248911 -2.64473 0.49706355
000320 f1 25 01 be ca 70 95 3f b7 d7 7f 40 1d ce 22 3f
       -0.1261213 1.1675045 3.9975412 0.63595754
000330 9a 1e 1a 41 a2 f4 9a 3f 66 73 f1 bf b3 db 1c bf
       9.632471 1.2105906 -1.8863342 -0.61272734
000340 08 0d d5 bd 40 c1 ad 3d c8 6d 3f 3e c6 59 7c 3e
       -0.10402876 0.08484125 0.18694222 0.24643621
000350 69 4a 1a be bc 86 89 3e de e5 16 3d c3 1a a6 be
       -0.15067448 0.26860607 0.036840312 -0.32442293
000360 01 b2 94 3e bb 59 72 3d 49 ee 76 be a5 47 61 be
       0.29042056 0.059167605 -0.24114336 -0.21999986
000370 6c 8a bd bf 8b 25 de be 4a c2 f3 3e ce a6 45 3e
       -1.4807868 -0.43388018 0.47609168 0.19301912
000380 12 de 73 bd 2f b2 17 be f6 24 03 bf 8b a7 50 3e
       -0.059537955 -0.14814065 -0.5122827 0.20376413
000390 75 29 ed bd d9 a2 df be b3 e8 d4 be 88 bb a7 3c
       -0.11580173 -0.4367893 -0.41583785 0.020475164
0003a0 e3 89 74 bf 89 29 99 3e d9 f1 75 3f da 91 ce be
       -0.955229 0.299145 0.96072155 -0.4034565
0003b0 7d 7d 76 40 87 a6 e8 be ed 01 89 be f8 b1 3d 3e
       3.8514092 -0.4543955 -0.26759282 0.18524921
0003c0 f0 a2 a0 be 2a ed bb 3e 9a 8d 50 3e 45 5b ce 3e
       -0.3137431 0.3670438 0.20366517 0.40304008
0003d0 53 fc 0f bd 98 b4 a1 3e e2 51 b5 3f 4c a9 12 bf
       -0.035152745 0.31583095 1.4165614 -0.57289577
0003e0 b4 54 6f 3e f3 84 ab 3e 1b 91 de be 30 59 1f be
       0.23372155 0.3349987 -0.43470082 -0.15561366
0003f0 3e 26 26 c0 66 26 18 bf 9a 0b 97 3e 9e df 6a be
       -2.596084 -0.5943359 0.2950104 -0.22936866

submod1.bias f4 [16]
000000 11 78 e7 3e 95 09 94 be 9b 9a a2 be 49 9d 76 3e
       0.4520879 -0.2891356 -0.3175858 0.24083437
000010 1f 6c 3c 3e de ed 62 be 4a ff 53 be fa f7 51 3f
       0.1840062 -0.22161052 -0.20702854 0.8201901
000020 54 03 15 be f4 61 f4 bd 28 f0 70 bc a5 1c e1 3d
       -0.14552051 -0.119327456 -0.014705695 0.10991792
000030 71 24 52 3e a2 3d bc be ed ed 92 3e fe 59 02 bf
       0.20521714 -0.36765772 0.28697148 -0.5091857

conv2.weight f4 [16, 16, 3]
000000 aa a0 42 be 65 fb 3f 3e 4f 4b 5c be 84 4b 09 be
       -0.19006601 0.18748243 -0.21513103 -0.13407713
000010 08 66 63 3d e2 cb 81 be eb 46 c2 3d d0 08 53 be
       0.055517226 -0.25350863 0.09486183 -0.2060883
000020 df e7 f4 bd 8c 79 4c bd 0d 66 80 be 13 58 5f 3e
       -0.119582884 -0.049920604 -0.2507786 0.21810941
000030 e6 f8 b4 be 06 b1 3a 3e 6b 12 8e bd bd c7 00 bb
       -0.35346144 0.18231592 -0.06937107 -0.0019650303
000040 2d a6 b5 bd 2e 8e e5 3e 1f 63 67 3d 13 b6 97 be
       -0.08869586 0.44835037 0.056491014 -0.296311
000050 18 1c f2 bd 0c 4f ae 3e c5 41 14 3f de 8c b6 be
       -0.11821765 0.34044683 0.57912856 -0.35654348
000060 8c f3 40 3e 35 55 52 be fc 35 cd be c0 c4 66 bd
       0.18842906 -0.20540316 -0.4008025 -0.05633998
000070 4b bd dc bd b0 3a 67 be c3 c4 9a 3a 19 b5 40 3e
       -0.10778292 -0.22580981 0.0011807907 0.18819083
000080 4f db 74 be 47 1c e9 bd 0c 95 4d bd 71 d3 e8 3e
       -0.23911785 -0.113823466 -0.05019097 0.45473817
000090 4e 73 26 bf 67 6c 20 bf 1a ac 86 3e f7 2e 06 3e
       -0.6501969 -0.6266541 0.26303178 0.13103853
0000a0 d3 11 80 3d ef 4e 96 3e bb c5 eb bc e7 21 51 3e
       0.062534 0.29357097 -0.028780809 0.20423089
0000b0 d4 a5 86 be 37 fe 48 3e 82 bd fb 3e 12 d3 c9 3d
       -0.26298392 0.19628225 0.4916802 0.098547116
0000c0 f3 66 d8 be a6 fe a5 3e d8 f3 cc be dd 30 2a bd
       -0.42266044 0.32420844 -0.40029788 -0.041550506
0000d0 a5 0c bc 3e 6f 8a 58 3e 34 00 f1 3e 7e 13 4e 3e
       0.36728397 0.21146558 0.47070467 0.20124623
0000e0 a3 2e 6a bd c4 fa 09 3e f2 5d 01 bd 9a df 3b 3e
       -0.057173382 0.13474566 -0.031583734 0.18347016
0000f0 60 d5 ea be 24 60 92 be 45 89 df bc b6 ac 9f 3e
       -0.45865917 -0.28588974 -0.027287135 0.31186455
000100 48 a7 3f bd c3 39 08 be fd d0 de 3d 38 8b 87 be
       -0.04679039 -0.13303284 0.10879705 -0.26473403
000110 77 56 0b 3e e7 31 63 3e 40 c8 cf 3e 81 72 cb bf
       0.13607202 0.22187005 0.40582466 -1.5894319
000120 ea 8c 8e be 7e 7c 30 3d 3c ce 67 bd 13 22 51 3e
       -0.27841884 0.043087475 -0.056593165 0.20423155
000130 3d 34 90 be 58 74 a8 bd 38 ae 14 be 34 d3 c7 3d
       -0.28164855 -0.08225316 -0.14519584 0.09757081
000140 46 29 49 bd 51 7e 9b bd f2 37 94 3e 22 bb 0b be
       -0.049111627 -0.07592452 0.28948933 -0.13645604
000150 86 dc af 3e a3 24 73 3e 14 49 e7 bc f6 04 b2 bd
       0.34347934 0.23744445 -0.028233089 -0.086923525
000160 8b 10 26 3e 92 5b f6 3c 25 80 c1 be f3 46 51 be
       0.16217248 0.030072961 -0.3779308 -0.20437221
000170 d7 9f b2 3d af 35 a4 be 0a 42 90 bf fb 45 90 3d
       0.08721893 -0.32072207 -1.1270154 0.07044598
000180 fe 49 71 be c3 68 94 be 22 20 be 3e 28 fe a2 3c
       -0.23563382 -0.28986177 0.3713389 0.019896582
000190 c1 e4 be 3f f5 d1 5d 3c 3c 48 73 3d 4e c1 5e be
       1.491356 0.013538827 0.05939506 -0.21753427
0001a0 66 3e 6d be 86 71 7e bd 91 c1 57 be 66 fc 55 3c
       -0.23168334 -0.062119983 -0.21069933 0.013060665
0001b0 39 70 9f 3e 95 74 d8 be cb 67 79 3e 95 93 fc 3c
       0.31140307 -0.42276445 0.24356 0.030832091
0001c0 3d 91 78 be ff d3 d7 be c8 d1 53 3d cd 2a 34 3d
       -0.24274154 -0.42153928 0.051713735 0.04398613
0001d0 04 4e 00 3f 32 a0 c5 3e db 97 03 3e 8e 64 1b bd
       0.5011904 0.38598782 0.12850897 -0.037937693
0001e0 81 6e 2f be 9f ae ea 3e a3 dd 7f be 4a e0 bd 3d
       -0.17131998 0.4583635 -0.24986891 0.09271295
0001f0 f7 2b 24 3f a6 d4 9f 3d 70 a1 8a bc e0 c2 1d bf
       0.64129585 0.07804231 -0.016922683 -0.6162548
000200 c5 a7 55 3d 24 88 84 bd 9a 73 88 be 12 9e bb bc
       0.05216195 -0.06471279 -0.26650697 -0.022902522
000210 12 ac c2 3d 38 95 b7 bd 0f 9b 2a 3e 8a c8 23 be
       0.09505476 -0.08964008 0.16660713 -0.15994468
000220 8e 59 55 be 23 f0 e2 bd 93 0b 4f 3d e0 dc 7a bc
       -0.20834944 -0.11080959 0.050548147 -0.01531145
000230 d0 1c e5 3e d2 dd bb 3e b7 65 22 3f 5c 0b fd bd
       0.44748545 0.36692673 0.63436455 -0.12355682
000240 44 14 c0 37 8c 20 05 bf d8 d4 83 3e f6 f6 a3 bd
       2.289762e-05 -0.5200279 0.25748324 -0.080060884
000250 6e 36 3b 3e 7a a1 5d 3f 4c 61 9a be b7 24 cd be
       0.18282482 0.8657452 -0.30152357 -0.40067074
000260 30 ba d6 bc ad ef b8 3d 36 31 ee be 3a cd 89 be
       -0.026211828 0.090300895 -0.4652192 -0.26914388
000270 81 91 01 3e a0 e6 1a be 47 a3 5a be 79 c1 aa bd
       0.12653162 -0.15127039 -0.21351348 -0.08337683
000280 9c b8 c4 bd 64 ce 31 3e 9f 8e b2 3d 0f d5 94 3f
       -0.09605524 0.17363888 0.08718609 1.162752
000290 17 ad d4 3e e4 0a 04 be 3f 4c d6 3e 9a 77 8c 3d
       0.41538307 -0.1289478 0.41855046 0.0685875
0002a0 37 07 5d 3d 77 08 a7 bd 3e 01 a9 be ac 13 43 3e
       0.05396196 -0.081559114 -0.3300876 0.19050473
0002b0 71 1c 3a 3e 21 d7 71 3e 78 14 a0 3c 1b d3 3f 3d
       0.18174912 0.23617221 0.01954101 0.046832185
0002c0 1f 40 8f 3c 23 0a 9c 3d d3 c9 3e be 22 37 34 3e
       0.01748663 0.07619121 -0.18631677 0.17599156
0002d0 e0 7b 98 bd 4a f3 22 3f 7b 76 b6 3d 7e c5 3f be
       -0.07445502 0.6365248 0.08909317 -0.18727681
0002e0 4e a7 6e 3e d8 81 41 3e b7 b5 1c 3e 7d 1b 57 3e
       0.23306009 0.18897188 0.15303694 0.2100658
0002f0 51 28 da be e8 1a a8 be a0 38 45 3f 69 5e 27 3f
       -0.42608884 -0.32833028 0.7703953 0.65378433
000300 0b e7 38 3f ab 39 9d be 37 06 86 3e ee cc 38 be
       0.72227544 -0.3070806 0.26176617 -0.18046924
000310 68 ea fc bc 4b b0 18 3f 18 22 8d be 87 b5 be bd
       -0.030873492 0.59644 -0.27565074 -0.09311967
000320 1f c4 a7 be d2 82 00 3e f8 b5 28 be aa 0e 36 be
       -0.32766816 0.12549904 -0.16475666 -0.17779031
000330 63 26 64 3e a9 07 a3 3e 4e 6b 83 3d 41 ab 4e 3c
       0.22280268 0.31841782 0.06416951 0.012614072
000340 a2 3b 3e be 51 4a 42 be ca 03 5d bf ef 17 19 be
       -0.18577436 -0.18973662 -0.86333907 -0.14950536
000350 0a 14 03 be 9c c7 45 3c b3 6c 0a bf aa 0b 80 3e
       -0.12800613 0.012071516 -0.5407211 0.250089
000360 43 b2 36 3e 3a 28 78 3e 29 13 d2 3e 79 1c 30 be
       0.17841439 0.24234095 0.41030243 -0.17198361
000370 9d d3 8d 3c 1f 51 14 be 3c 89 f3 3d 95 76 8f 3d
       0.01731282 -0.1448407 0.1189141 0.070050396
000380 96 8b 19 3e 55 3f 9a bc d7 1c a1 bd 25 ca c6 3d
       0.14994654 -0.018829027 -0.07866829 0.09706525
000390 58 12 08 3d dd 34 dd 3d 2f 5d 0e be 18 67 6d bd
       0.03322062 0.108010985 -0.13902734 -0.057959646
0003a0 f0 80 3a 3c 0e ab 09 be 78 45 dc 3d 44 17 a7 bd
       0.01138328 -0.13444158 0.107554376 -0.081587344
0003b0 92 2c a2 bd cd a2 09 c0 9f 61 95 3e 1a 19 2b 3d
       -0.07918657 -2.1505616 0.2917604 0.041771986
0003c0 3d 6f 93 be 26 59 22 bd b2 e0 aa bd 58 3f 2e be
       -0.28795806 -0.0396358 -0.083436385 -0.17016351
0003d0 e0 90 a4 bc c4 cd b2 bf b0 54 ab 3e f6 25 25 3e
       -0.020088613 -1.3969045 0.3346305 0.16127762
0003e0 dd 7b 70 3e a5 fd 6b bd 17 8b 2c be 73 a2 92 bc
       0.2348475 -0.05761494 -0.16849934 -0.017899727
0003f0 12 3c b9 be 71 96 c0 be 34 e4 f0 3d 50 03 78 3d
       -0.36178643 -0.37614778 0.11762276 0.060550034

conv2.bias f4 [16]
000000 e3 24 30 3f 10 5a c6 3e 81 ff c0 3e ce f7 ef be
       0.68806285 0.38740587 0.37694934 -0.46868747
000010 0b 6c 56 3e 31 90 6f be 2b 7d 0e bf d3 46 a7 3c
       0.20939653 -0.23394848 -0.5565974 0.020419514
000020 65 84 4e 40 29 e6 41 3c 17 d0 1d 3d 43 1c e8 3e
       3.2268307 0.01183466 0.038528528 0.45334062
000030 fc 85 f3 bd 26 a4 d7 3e 56 f9 b3 3d 5b f9 72 be
       -0.1189079 0.42117423 0.087877914 -0.23727934

bn2.weight f4 [16]
000000 65 54 19 40 b4 be 82 3f 6d ad 28 40 2f c0 38 40
       2.395776 1.0214448 2.635585 2.88673
000010 2e e4 6c 3f 19 63 42 40 2d 13 03 40 3d 8f 94 3f
       0.92535675 3.0372984 2.0480454 1.1606213
000020 85 fd a7 40 34 56 6c 3f 46 30 83 3f 6b 95 87 3f
       5.249697 0.92319036 1.0249107 1.0592474
000030 69 be 56 3f 92 f1 2a 3f 29 7f 1b 40 87 e4 20 40
       0.8388429 0.6677486 2.4296362 2.5139482

bn2.bias f4 [16]
000000 06 b3 2a bf 53 10 90 bd 02 8a 41 bf 7c 1c 5e bf
       -0.6667942 -0.070343636 -0.7560121 -0.86762214
000010 6e b0 db 3e b4 3a 1c bf 2a 45 51 bf dc df eb 3b
       0.42908043 -0.61027074 -0.8174616 0.007198317
000020 41 3c 88 c0 58 75 4d be b1 33 8f 3c a9 56 f1 be
       -4.257355 -0.20064294 0.017480703 -0.4713643
000030 b7 2f 0f bf b3 64 8f bf e7 2f 74 bd 09 17 59 bf
       -0.5593218 -1.1202606 -0.059615996 -0.84800774

bn2.running_mean f4 [16]
000000 ce 7d 76 3f ff 2f bf bf cf 0c 91 3f 07 39 e3 3c
       0.9628571 -1.4936522 1.1332034 0.027737154
000010 ac 70 7f bf 59 c0 89 3e 5d da 18 3f 57 0c aa bf
       -0.997813 0.26904562 0.59708196 -1.3285016
000020 c0 f2 80 40 6b 82 bf be e1 1f 24 3e f4 bc a5 3f
       4.0296326 -0.3740419 0.16027786 1.2948289
000030 c4 21 30 3f e7 1f 63 3f 34 dc b2 bf c1 b6 0f 3e
       0.6880152 0.88720554 -1.3973451 0.14034559

bn2.running_var f4 [16]
000000 f0 e6 21 3f 5e f3 6a 3f da 16 51 3f 49 66 2c 3f
       0.6324301 0.917776 0.81675494 0.67343575
000010 31 41 d6 3e 50 ed 3d 3f ce bc fa 3e ea 2a 9c 3f
       0.41846612 0.74190235 0.48972172 1.2200596
000020 06 34 09 3e 01 d7 71 3f 8f bb 23 3f 35 37 8a 3f
       0.13398752 0.94468695 0.63958067 1.0798098
000030 b8 88 0b 3f 0c 1a ef 3d 64 d1 13 3f 37 c7 1d 3f
       0.5450549 0.1167489 0.5774138 0.616321

submod2.weight f4 [16, 16, 1]
000000 4e 3d 37 40 54 67 45 3f 26 1b f3 bf d5 45 67 bf
       2.8631167 0.7711079 -1.899266 -0.9034093
000010 eb 3f bb 3e 1e ea 94 bf 3f ac 55 40 6a 68 41 bf
       0.36572203 -1.1633947 3.338638 -0.7554995
000020 fa 7d 33 c1 fa c0 0b 3f 1d 4b 13 be 34 74 f6 3d
       -11.218256 0.54591334 -0.14384122 0.12033883
000030 e3 dd cc 3d a8 15 21 c0 71 8c 29 3f e4 13 dc bf
       0.10003259 -2.5169468 0.6622992 -1.719357
000040 fd 17 95 be de 0d c8 3e dc c1 dd 3f 11 72 12 c0
       -0.29119864 0.3907308 1.7324786 -2.288212
000050 b5 86 b2 be fb 55 dc 3f e9 86 06 c0 3d c4 18 3f
       -0.34868398 1.7213739 -2.1019843 0.59674436
000060 bb 9f a3 c1 27 ee 1d 3e 38 12 71 3e f4 41 e6 be
       -20.452993 0.15422879 0.23542106 -0.44972193
000070 a1 b1 2a 3f df be be 3f 9d e6 8d 3e ac 17 d7 bd
       0.6667729 1.4901999 0.27715006 -0.10502562
000080 3b fa 25 40 40 d6 2d bf da 0a 19 bf c4 e6 62 c0
       2.5933979 -0.67905045 -0.59782183 -3.5453348
000090 7c db 33 3e ef 9f 47 3f 70 33 da 3f bf a2 a4 be
       0.17564195 0.77978414 1.7046947 -0.32155415
0000a0 16 c2 e1 c0 78 fb bd 3d 59 e6 d7 3e 03 01 ba 3f
       -7.054942 0.092764795 0.4216793 1.4531559
0000b0 c5 85 65 3e 5b 91 06 bf 67 e9 da 3e 82 9e a1 bf
       0.2241431 -0.52565545 0.42756197 -1.2626498
0000c0 31 54 98 be 5b 8c b7 bf 05 1a b6 3f ac 91 13 bc
       -0.29751733 -1.4339708 1.422669 -0.009006899
0000d0 64 cd c2 3f f4 b7 8c bf b7 74 f2 bf 44 34 cc 3f
       1.521893 -1.0993638 -1.8941869 1.595345
0000e0 4a 2e 10 41 df 1a cb bf 22 90 1b bf 44 cc 2b bf
       9.011301 -1.5867575 -0.60766804 -0.6710856
0000f0 1a 8e 1b c0 a1 6a 1b 3f 4a 6a dc 3e 49 02 47 3f
       -2.4305482 0.6070958 0.43049842 0.7773786
000100 5e 2a 09 c0 7e 6b 41 3f 75 56 ea 3e e3 7e aa 40
       -2.143211 0.75554645 0.45769086 5.327989
000110 4e e3 07 c0 24 61 a9 3f 5d 6c 46 c0 e6 7b e7 3f
       -2.1232486 1.323277 -3.100364 1.8084686
000120 c7 66 98 c1 c2 3f fc bd b5 d3 6c bd b5 2b 42 bf
       -19.050184 -0.12316848 -0.057819087 -0.7584794
000130 5a c5 da 3d 9a 1d 83 40 a4 9a 14 bf 80 e6 11 c0
       0.10682173 4.0973635 -0.5804846 -2.2796936
000140 35 dd cc 3e 16 21 e1 be 43 7f 42 3d a3 d8 75 c0
       0.40012518 -0.43970555 0.047484647 -3.8413475
000150 eb de 32 3e 99 52 25 40 df c2 ec bf e5 b0 e1 be
       0.17467849 2.5831664 -1.849697 -0.44080272
000160 eb 66 8a 40 73 11 90 3e ab 7e c0 3e fb 12 96 3f
       4.325063 0.28138313 0.3759664 1.1724542
000170 2d 2c a5 be b0 b1 4d bf 18 a0 a3 be 40 e0 4a 3f
       -0.32260266 -0.80349255 -0.3195808 0.7924843
000180 8c 3b ca 3f 7e 37 cd be 1c 15 90 3d 9f 4a c7 3e
       1.5799422 -0.400814 0.07035276 0.3892412
000190 ea b6 89 bd 1b 97 19 c0 43 8d 4c be 89 8a 09 bf
       -0.06724341 -2.3998477 -0.19975762 -0.5372701
0001a0 c9 ce 02 40 c8 0b cb 3e 08 3e 16 3f 36 63 05 3e
       2.0438712 0.39657426 0.586884 0.13026127
0001b0 6a ac 6c bc 91 2c 10 3f 87 41 5f bf 0b 6a 0b 40
       -0.014445404 0.56318 -0.8720936 2.1783473
0001c0 16 46 0d bf ee 85 11 3f e6 2c 7a 3f 4f 32 67 bf
       -0.5518507 0.56844985 0.9772476 -0.9031114
0001d0 4f 31 0d 41 e4 9c 3a bf 14 14 9f be a4 8a 65 3f
       8.824538 -0.72895646 -0.31070006 0.89664674
0001e0 63 70 5c 41 27 88 ca c0 f7 b5 25 c1 83 aa f0 c0
       13.777438 -6.32912 -10.356925 -7.5208144
0001f0 de 69 2d c1 64 f2 c9 bf 22 60 9e 3e f9 8e 2f 3f
       -10.8383465 -1.5777097 0.3093272 0.68577534
000200 ba e3 4c bd f4 4b f6 be 30 e9 56 bf a1 80 b1 40
       -0.050021864 -0.48104823 -0.83949566 5.546952
000210 1b 94 ad bf dc c6 55 3e 5f ae 0c c0 e6 a6 b2 3f
       -1.3560823 0.2087664 -2.1981428 1.3957183
000220 48 e9 8d c1 16 b8 43 3e 37 3e 31 3f 1a 2b 93 bf
       -17.738907 0.19113192 0.6923556 -1.1497529
000230 65 ba 72 3e 96 77 7b 40 b1 7d 86 bf 8d c8 ce bf
       0.23703916 3.929174 -1.0507108 -1.6154953
000240 05 01 c8 3f 2a b0 b5 be be 2b 36 c0 ca 0b cf be
       1.5625311 -0.35485965 -2.8464198 -0.40438682
000250 5f c8 b0 3e 91 db f5 3c f4 b1 7c 40 d1 36 17 bf
       0.3452787 0.030011924 3.9483614 -0.5906802
000260 92 e3 d7 c0 7f 46 01 bc d5 61 1c 3f e1 b0 9d 3f
       -6.7465296 -0.007890343 0.6108678 1.2319604
000270 bf 3f 51 be d5 0d fa bf 4f d1 ce be 22 8a d2 be
       -0.20434473 -1.9535471 -0.40394065 -0.41121012
000280 9a 0e 66 bf be 98 39 3d b5 6a bd 3f 07 b0 3e 3e
       -0.8986603 0.045311682 1.4798189 0.18621837
000290 e2 39 22 bf 38 fe 85 bf ad 2a eb 3d e5 be 51 3f
       -0.6336957 -1.0468206 0.11482749 0.81931907
0002a0 00 e8 10 41 a7 52 9e bc 49 f4 32 bf 1c c5 c4 bf
       9.056641 -0.019326521 -0.69904 -1.5372653
0002b0 56 aa 8b 3f 06 e9 9f 3f 4d 60 b2 be cd 02 18 3f
       1.0911357 1.2492988 -0.34839097 0.59379274
0002c0 c6 62 25 3f 8f 76 ed 40 93 fa 8f 3f 89 ad 37 c0
       0.6460384 7.4207225 1.1248344 -2.8699667
0002d0 2f 38 b3 c0 54 e6 bf 3f a0 fe 8b bf 9b 00 6c c0
       -5.6006083 1.4992166 -1.093708 -3.687537
0002e0 a5 c3 40 c2 80 e7 0c 40 a5 63 39 c0 db 6c 9a bf
       -48.19106 2.2016296 -2.8967068 -1.206447
0002f0 ba 0e c1 40 4a e6 4c 41 9b aa 34 3f d2 1d a5 3e
       6.0330477 12.806223 0.70572823 0.32249314
000300 18 55 7d be 19 0f 55 3f 75 ef 65 c0 a1 cd 4a 40
       -0.24739492 0.8322616 -3.5927403 3.1688006
000310 9f 9c d8 3f 08 f9 87 bf 71 cf 4e 40 bb be 1a bf
       1.6922797 -1.0622873 3.2314112 -0.6044728
000320 96 3d f9 40 b2 b4 2c 3e 0d a4 3f bf 5b 9f f0 bf
       7.788768 0.16865805 -0.74859697 -1.8798631
000330 53 44 07 3f db 78 58 c0 da 99 08 3f 98 f3 a8 bf
       0.5283863 -3.3823764 0.5335976 -1.3199339
000340 b0 d1 c6 bf 3c 5a 0b bf 75 e2 8d 3d dc bf b2 bf
       -1.5532742 -0.5443456 0.06927959 -1.3964801
000350 0d 68 f6 be b2 0e 4d 3d 25 33 ac 3e 4f b5 91 be
       -0.4812626 0.050062843 0.3363277 -0.2845864
000360 6c e8 c8 40 83 c9 a8 bc 3c 9b f6 3e 3d 1d 9c 3f
       6.278372 -0.0206039 0.4816531 1.2196423
000370 fd 40 06 bf 17 f2 67 3f 9c 50 09 bf 12 b1 2a 40
       -0.52442914 0.90603775 -0.53638625 2.6670575
000380 27 b0 3d bf de 7c bc 3f d3 be 25 3e 26 26 a0 3e
       -0.7409691 1.4725606 0.16186075 0.31279105
000390 0c 6c 95 3e d8 7e 88 bf 1f d8 3e 3f 60 f7 43 3f
       0.29183996 -1.066371 0.74548525 0.7654934
0003a0 88 0b 10 41 91 a3 81 bf 0e 26 c5 bf f5 ef 94 bf
       9.002815 -1.0128042 -1.5402238 -1.1635729
0003b0 0e de a0 bf ea bc 86 bf ad 58 37 3f 37 b6 90 bc
       -1.2567766 -1.0526402 0.71619684 -0.017665012
0003c0 b8 b1 2c c0 40 4d 03 bf bc 61 9c 3e 93 a5 33 3e
       -2.698347 -0.5128975 0.30543315 0.1754363
0003d0 7b 57 a7 be df 13 68 bf f8 9b a1 3f e4 ab 1e 3e
       -0.3268393 -0.9065532 1.2625723 0.15495259
0003e0 c5 39 c5 40 3b 28 ae 3e e5 e2 c2 3e 2c 78 9d 3e
       6.163302 0.34015068 0.38063732 0.30755746
0003f0 9b 73 4d be 52 bf e6 be 95 c9 59 bf d4 30 28 40
       -0.20063631 -0.4506784 -0.85073215 2.6279802

submod2.bias f4 [16]
000000 89 02 82 3f be 7a b0 3e 81 2b 5c 3e 54 93 48 bf
       1.0157024 0.34468645 0.2150097 -0.78349805
000010 49 ab 45 3e 60 98 c9 be 45 1d 00 3e 9d 91 e7 be
       0.19303621 -0.39374065 0.12511165 -0.45228282
000020 33 1a b3 3e c7 0e e4 3e 51 1e e3 be 96 b8 83 3f
       0.34980926 0.44542524 -0.44359067 1.0290706
000030 e6 43 61 bf 79 7f 0d be 2a 05 03 bf b7 20 73 be
       -0.8799423 -0.13818158 -0.51179755 -0.23742948

conv3.weight f4 [32, 16, 3]
000000 4a 27 4e bf 82 d5 83 3e 06 82 11 3e 04 6c 29 be
       -0.805287 0.2574883 0.14209756 -0.16545111
000010 2b 0e 0f 3d dd fc 00 bf 9e 3b 15 bc 04 d6 7d 3e
       0.03492562 -0.5038584 -0.009108452 0.24788672
000020 62 5d f5 3e 02 cf ea bd 27 99 54 be ea 17 e6 3d
       0.47922808 -0.11465265 -0.20761548 0.1123503
000030 f0 d2 10 be 92 b4 8e 3e 5e 4b 71 3e 74 2b 1d bb
       -0.14142966 0.2787214 0.23563907 -0.00239822
000040 2f 56 08 3f 13 9f 5c 3e 60 e4 d5 be cc a5 12 bf
       0.53256506 0.21545057 -0.417758 -0.57284236
000050 11 49 07 3e 05 0f e6 3d af cd ef bd a8 a2 5e bd
       0.13211466 0.112333335 -0.11709153 -0.05435434
000060 17 47 84 3c e6 92 57 3c 04 c7 4b bd 67 18 e3 be
       0.01614718 0.013157582 -0.049750343 -0.44354555
000070 ba 48 45 be ff c8 d6 be 02 57 54 be d3 2e 66 3e
       -0.19266024 -0.41950223 -0.20736316 0.224788
000080 65 4d 5f 3e 97 22 35 be 6d ea 91 3f a6 2d b3 bd
       0.21806867 -0.17688976 1.1399666 -0.08748941
000090 77 58 34 bf d0 f7 63 3e ab 77 d3 bc 78 9a 92 3e
       -0.70447487 0.22262502 -0.025813898 0.28633475
0000a0 13 1e e2 bc 0a dd 51 bc 1e f5 41 be 96 d5 75 3e
       -0.027602231 -0.0128090475 -0.18941161 0.24007258
0000b0 df 32 8c 3e 96 ea ae 3e 91 e7 1f bc 49 8f 48 be
       0.27382562 0.3416335 -0.0097598 -0.19585909
0000c0 48 45 b5 3e 78 7e 1d 3c b9 71 79 bd c6 61 55 3e
       0.3540442 0.009612672 -0.06089947 0.20838079
0000d0 1e 27 59 be 12 f8 32 3e b9 e8 09 bf 6b 8d d2 3e
       -0.21206328 0.17477444 -0.5387073 0.41123518
0000e0 b3 a3 00 3f 2b e8 02 be 30 ec d9 3d 65 4b df 3d
       0.50249785 -0.12783878 0.10640752 0.10903052
0000f0 17 4c 1a be ec 04 66 be 9f f2 68 be 40 f1 9c 3f
       -0.15068088 -0.22462815 -0.22748803 1.2261124
000100 0c b4 ad be d5 3f 2d bf 6f a4 ad 3e 80 68 94 be
       -0.33926427 -0.67675525 0.33914515 -0.28985977
000110 ee f1 93 bf 99 c1 59 3e b3 21 9a be 91 56 a3 3e
       -1.1558206 0.21265258 -0.30103835 0.31901982
000120 fd e4 18 bd a1 fd ba bd 9c 80 05 bc 21 17 96 be
       -0.037327755 -0.09130407 -0.008148339 -0.2931452
000130 b2 39 8e 3c 58 c7 16 3e 84 05 4b bd aa 8b 2e 3e
       0.017361496 0.14724481 -0.049565807 0.17045465
000140 67 ee ce 3d e3 aa 14 be 36 22 09 be 0f 3a b5 bd
       0.101040654 -0.14518313 -0.13391957 -0.088489644
000150 18 cf 1b 3e 53 4a a3 bd 1e fc e1 3d 4c e2 1b 3e
       0.15215719 -0.079731606 0.11034416 0.15223044
000160 f6 f9 b8 3c 32 61 c3 be 3d 83 ea be 37 c5 6f 3e
       0.022580128 -0.38160092 -0.45803252 0.23415075
000170 5c 9d 54 be ff 52 49 be 28 69 ef 3e 55 4b 47 3e
       -0.20763153 -0.19660567 0.46759915 0.1946233
000180 c2 98 01 bf cc 07 9f 3f 0c b4 56 3f 1a b9 bf be
       -0.50623715 1.2424254 0.8386848 -0.3744591
000190 13 e8 ca 3d 23 ab b9 bd 73 af 95 be aa 3e d2 be
       0.09907546 -0.09065845 -0.2923542 -0.41063434
0001a0 12 c8 f2 be 64 75 fb bd 17 bc d0 3d 8c 81 d2 bd
       -0.47418267 -0.1227825 0.10192125 -0.10278615
0001b0 89 87 3d be 9a 92 99 3e 8c cc 63 ba 7f b0 cc bb
       -0.18508734 0.2999466 -0.00086898427 -0.006246626
0001c0 7b a4 0f 3f 1d 1a 57 3e 9e 78 87 be 3c 51 dc 3e
       0.5611035 0.21006055 -0.2645921 0.43030727
0001d0 bb 95 6d 3e 9c 84 b9 3d 70 02 2f be 7e 38 7f 3d
       0.23201649 0.09058496 -0.17090774 0.062309735
0001e0 a9 b5 10 3c e1 32 86 bc 1a e7 b0 ba 10 9c 75 bd
       0.008832374 -0.016381683 -0.0013496608 -0.059963286
0001f0 f0 33 3c bd ea 68 a7 3d 74 74 15 be b1 72 14 3e
       -0.04594797 0.08174308 -0.14595205 0.14496876
000200 c6 ea 21 3e fd 90 8c bd 8a 44 6c 3e 59 fb 10 bc
       0.15812215 -0.06863592 0.2307302 -0.008848988
000210 1d de 41 be aa 05 5d be bf 88 96 bc 0d cc 2d 3d
       -0.18932386 -0.21584192 -0.018375752 0.042430926
000220 c2 a0 e9 be 08 6b 0e be cd b8 8e 3e 8b fd cb be
       -0.4563046 -0.13908017 0.27875367 -0.39841875
000230 45 da 95 be 33 8c d9 3d 69 6a ce be b3 41 04 be
       -0.2926809 0.10622444 -0.4031556 -0.12915687
000240 71 89 c8 3e 4f bf 0f bf ab 6a 6f be b0 50 57 3e
       0.3916736 -0.5615129 -0.23380534 0.21026874
000250 25 a6 9b 3c 74 d3 bd bd 5f d9 ef 3e d2 4c 47 bf
       0.019000122 -0.09268847 0.46845528 -0.77851593
000260 37 a0 12 be dd 69 53 be 9c 1b ea 3e 64 2f 8e 3d
       -0.1431893 -0.20645852 0.4572419 0.06942633
000270 cc 07 cb 3e bc c0 06 bd 94 55 ed 3e 76 43 e7 be
       0.39654386 -0.03289865 0.46354353 -0.45168656
000280 25 ad 5b 3f ff 54 4c 3f b3 cb 25 3e d7 75 17 bc
       0.8581107 0.79817194 0.16190986 -0.009244404
000290 c2 fa 9d be f0 a7 13 3e fd 18 94 be 8e 44 95 3e
       -0.30855376 0.14419532 -0.28925315 0.29153866
0002a0 c5 eb c7 3d 55 d6 81 bd 61 57 cb 3c fa 32 fb be
       0.09761766 -0.06339709 0.024821939 -0.4906233
0002b0 1c f7 69 3c ae 3f 01 3e ce fd 14 3e 50 0d 30 3d
       0.014280107 0.12621948 0.14549944 0.042981446
0002c0 df e0 26 be 01 0f e7 3d 6e 8f f1 be f9 43 9b bd
       -0.16296719 0.11282159 -0.4717974 -0.07581324
0002d0 82 67 b0 be b2 2c 67 be 9c 0a a0 be 27 e8 81 bd
       -0.3445397 -0.22575644 -0.31258094 -0.06343108
0002e0 70 54 4f be f8 00 a6 bd 27 af 3b 3e 8f 4b a8 be
       -0.20247054 -0.081056535 0.18328534 -0.32870147
0002f0 e5 90 d8 3d bb a8 77 be 1b 36 b3 be 91 1a 24 be
       0.105745114 -0.2418546 -0.35002217 -0.1602576
000300 4a 26 3c be c0 eb 82 3f 84 bc cb bb c2 10 08 bf
       -0.18373981 1.0228195 -0.006217541 -0.5315057
000310 12 5d b8 be d7 56 3a bc 5d 5f 2b be 18 76 42 bf
       -0.36008507 -0.011373243 -0.16735597 -0.75961447
000320 4b 59 66 be 1a 86 3e be 31 e5 c0 3d 1b 04 0a 3e
       -0.22495 -0.18605843 0.09418715 0.13478129
000330 df 08 0b 3e 59 c3 05 be af d7 4a be 68 1c 78 3e
       0.13577603 -0.130628 -0.1980884 0.24229586
000340 40 57 01 bf 68 09 ba 3d 9d ff c3 bd 32 e6 60 3e
       -0.5052376 0.09083825 -0.09570239 0.21962813
000350 ee 07 9d be 8f 3e 99 bd 59 3d 6c be 17 67 87 3d
       -0.30670112 -0.07482635 -0.23070277 0.0661146
000360 02 a5 0d 3d 1b d8 2c bd 9f 0b 3f be 58 81 e7 be
       0.03458119 -0.04219828 -0.18656777 -0.4521587
000370 28 06 5d 3e ff b6 cc 3e 58 45 56 bd 4b 71 57 3e
       0.2158438 0.39983365 -0.052312225 0.21039312
000380 61 69 d3 3b f2 bb d8 bc a8 05 07 3f 0f 50 d8 bd
       0.006451771 -0.026456807 0.52743006 -0.10562145
000390 6b bf bb be fd 47 11 3c 3e 3f 41 3e e9 14 a6 3d
       -0.36669478 0.008867261 0.18871781 0.08109457
0003a0 21 5e 99 be a1 05 16 be 4b b0 a6 3e 13 33 89 be
       -0.29954627 -0.14650585 0.32556376 -0.2679678
0003b0 2f 06 ef be 33 c1 0c 3f 30 51 f9 3e ee f7 8b 3e
       -0.46684405 0.549823 0.48694754 0.27337593
0003c0 eb 16 9e 3c 3e 04 16 3f 8e b6 11 bf d7 50 de 3e
       0.019298038 0.58600223 -0.5691918 0.4342105
0003d0 01 38 08 bf 37 f2 ab be d0 b0 b6 be 0d 6c ea be
       -0.53210455 -0.33583233 -0.35681772 -0.4578556
0003e0 d4 95 29 3e 5c b2 94 3e 97 71 4b 3e 3e a2 2d bf
       0.16561061 0.29042327 0.1986755 -0.67825687
0003f0 54 dc 1d bc 8b de d9 3e 2e a7 4b bd 8d 56 e9 bc
       -0.00963505 0.425526 -0.04971998 -0.028483653

conv3.bias f4 [32]
000000 da 75 3c 3e 22 8d a3 be c6 61 33 bd 09 8a 0c bf
       0.18404332 -0.31943613 -0.043794416 -0.54898125
000010 c4 3f 19 3d a2 eb 85 3e 11 cd 31 3e 18 f8 93 3c
       0.037414327 0.26156336 0.17363383 0.018062636
000020 ad 9c 35 be 5d 29 a8 bf ab b4 30 be d5 ba a7 be
       -0.17735548 -1.3137623 -0.1725642 -0.3275973
000030 3e f2 02 bf a0 10 04 bf 38 2d da be 59 44 d5 3d
       -0.5115088 -0.5158787 -0.42612624 0.10413427
000040 08 8f d6 be 8b 4e 14 be 25 fa 54 3e 4f ef 26 bf
       -0.41906 -0.14483087 0.20798548 -0.65208906
000050 b4 cf 1c 3e d7 d0 9e be be f0 6f bf 0c f3 5d be
       0.15313607 -0.31018707 -0.9372672 -0.21674746
000060 11 31 2b bf 1f 27 10 bd 82 a7 1b be 81 6a 40 3d
       -0.66871744 -0.03519356 -0.15200618 0.04697657
000070 b1 ed 0e bf 14 71 af be 50 d6 3a bd 0b 97 16 bf
       -0.5583144 -0.3426596 -0.04561454 -0.58824223

bn3.weight f4 [32]
000000 bd 15 82 40 d4 96 ce 40 d5 98 9a 40 a5 4f 03 40
       4.0651536 6.4559116 4.8311563 2.051736
000010 4b 85 80 40 20 7a 08 40 58 11 8f 40 7e c5 56 40
       4.016271 2.132454 4.470867 3.355804
000020 c9 99 8d 40 78 b2 d8 40 96 96 ce 40 ff df 89 40
       4.4250226 6.7717857 6.455882 4.3085933
000030 af 85 e1 40 91 99 d3 40 81 87 3b 40 2b 7c 58 40
       7.047569 6.612496 2.9301455 3.3825786
000040 fe 0b 94 40 e2 cd 82 40 35 6b 95 40 9d 25 88 40
       4.626464 4.087632 4.669337 4.2545915
000050 52 0c 12 40 9f 70 88 40 de 3c a7 40 10 2c 7c 40
       2.282002 4.2637477 5.22618 3.9401894
000060 45 7a 53 40 f4 29 80 40 88 dd ad 40 d6 61 81 40
       3.3043377 4.005121 5.4332924 4.043193
000070 10 04 c3 40 90 35 9f 40 f5 44 70 40 bf 11 83 40
       6.094246 4.9752884 3.7542088 4.0959163

bn3.bias f4 [32]
000000 7b 94 92 bf 43 9d 91 c0 15 39 8c bf 70 1c e4 bf
       -1.1451563 -4.550447 -1.095492 -1.7821178
000010 58 7f 80 bf 71 1d 8a bf f8 51 86 c0 63 ea df bf
       -1.0038862 -1.0790235 -4.197506 -1.7493404
000020 84 d4 3c bf b0 80 d9 c0 9b 65 d9 c0 34 75 7a bf
       -0.73761773 -6.796959 -6.793653 -0.9783509
000030 f0 66 90 c0 ce c0 a3 c0 5c 54 20 c0 1b 7a 63 bf
       -4.5125656 -5.1172857 -2.505149 -0.88858193
000040 b1 0d 92 c0 e8 7b 06 bf 96 61 1e bf 99 d6 c0 c0
       -4.5641713 -0.52532816 -0.61867654 -6.026196
000050 b1 ef ef be 85 f2 00 bf 4f b7 8a c0 31 22 82 c0
       -0.46862558 -0.50370055 -4.3348765 -4.0666738
000060 1f 56 93 c0 9e 00 89 bf ba 57 81 c0 2a a5 96 bf
       -4.604263 -1.0703313 -4.041959 -1.1769154
000070 b8 4c 9b c0 ef c2 15 bf 53 c2 9c bf 12 b5 a2 c0
       -4.853115 -0.5850057 -1.2246803 -5.0846033

bn3.running_mean f4 [32]
000000 ab 94 57 3f db b2 e6 be 00 9c a8 3d 31 c1 3b be
       0.84211224 -0.4505833 0.0823288 -0.18335415
000010 13 3d 23 bf cc cc ce be 34 81 c5 be d8 b0 e8 3e
       -0.63765067 -0.40390623 -0.38575137 0.4544742
000020 2d 25 e0 bc 4b 3b a9 bf d7 9c e4 be a0 9f c1 3e
       -0.027361477 -1.322122 -0.4465091 0.37817097
000030 4b 8e 34 bf ee 49 58 bb 07 e5 3a bf fb e6 47 be
       -0.7052962 -0.003300305 -0.7300572 -0.19521706
000040 5e 51 1b bf a8 c3 6b be d6 0e 85 3e bc 67 32 bf
       -0.6067103 -0.23023856 0.2598788 -0.69689536
000050 e1 9f 06 bf 20 94 91 3e f4 fb ad bf cd 5a 9b bd
       -0.52587706 0.28433323 -1.3592515 -0.07585678
000060 f6 9c d0 be d0 c9 b6 3d a1 52 71 be 91 f1 61 3e
       -0.40744752 0.089252114 -0.23566677 0.22064807
000070 7e 93 28 bf 9f d8 e7 3d dc c2 e7 be cb 05 08 bf
       -0.65850055 0.11320614 -0.45265853 -0.5313384

bn3.running_var f4 [32]
000000 64 94 ae 3f ad ed dc 3e 6d b0 b5 3e 5d eb 71 3e
       1.3639035 0.43150082 0.35486165 0.2362494
000010 de 0f 3d 3f eb fc c5 3e 5a 54 74 3e 55 a7 f2 3e
       0.73852336 0.38669524 0.23860303 0.4739329
000020 5d ba 13 3f 59 72 d5 3e 4d d6 83 3e 2b f1 1d 3f
       0.5770624 0.41688803 0.25749436 0.6169612
000030 16 10 9b 3e bb 48 f2 3e e2 44 b3 3e 5a 55 05 3f
       0.3028571 0.47321114 0.3501349 0.5208336
000040 eb f4 a8 3e 1f b3 38 3f 91 ca 86 3f fc 15 9c 3e
       0.32999358 0.7214832 1.0530568 0.30485523
000050 e6 91 e2 3e 53 84 23 3f ef 56 eb 3e d2 50 a2 3e
       0.44251937 0.63873786 0.45964763 0.31702286
000060 46 44 c3 3e 5e 39 40 3f bd e2 06 3f 52 b3 ee 3e
       0.38138026 0.75087535 0.52689725 0.46621186
000070 c9 3b db 3e 36 58 17 3f 0a 32 6e 3f 37 68 f9 3e
       0.4281905 0.59118974 0.93045104 0.48712322

submod3.weight f4 [16, 32, 1]
000000 19 1c 41 bf 48 bc 87 3f d9 1b 3a 40 2f fb f7 3f
       -0.754335 1.0604334 2.9079497 1.937353
000010 af 41 da 3f 45 21 74 3f 64 8e 74 c0 4f 83 bd bf
       1.7051295 0.95363265 -3.8211908 -1.4805697
000020 54 a6 78 be 19 8e 0d c0 2a de 64 40 b2 cf e3 bf
       -0.24282199 -2.211798 3.5760598 -1.7797759
000030 68 c9 43 bf 83 8b 46 40 fb b7 ff be d9 52 aa 3f
       -0.76479197 3.1022651 -0.49945053 1.3306533
000040 02 ab d1 3f 82 2b 90 be 3f 76 38 3f e7 c3 0e c0
       1.6380312 -0.28158194 0.7205543 -2.230707
000050 e1 76 6b 3d 7d 55 d9 3e 62 45 21 40 00 37 12 3b
       0.05748642 0.42448035 2.5198598 0.0022310615
000060 51 76 df be 36 9b c4 bf 72 b3 2e 40 ee 9b 76 be
       -0.43644956 -1.5359867 2.7297025 -0.2408292
000070 bb cf 6a c1 d8 c9 29 bf 92 39 bb be 0c 37 15 c0
       -14.675715 -0.66323614 -0.3656736 -2.3314848
000080 f5 a5 0f bf b9 fa 2b 3d ae e8 56 c0 8e db 9d bf
       -0.56112605 0.041987155 -3.3579516 -1.2332628
000090 dd 85 b9 bf d8 41 6d 3e f9 d3 78 c0 ae be da bd
       -1.4493977 0.23169649 -3.8879378 -0.106809005
0000a0 9e b6 4d bc 92 cb 05 3f df be c6 3e 6e dd d0 bf
       -0.012555746 0.5226375 0.38817498 -1.6317575
0000b0 ef 5c 86 40 4d 94 2f c1 ab 0b 0e 40 40 86 39 be
       4.1988444 -10.973706 2.2194622 -0.18117619
0000c0 e1 b8 02 3f 2d 77 df 3f 00 63 24 40 d8 07 2b 40
       0.5106335 1.7458245 2.5685425 2.6723537
0000d0 b2 ef 59 be 4d 7f 19 3f 5b e6 3f 40 f6 2b 0c 3f
       -0.21282843 0.5995987 2.9984348 0.5475458
0000e0 67 98 93 c0 11 66 06 c0 ed 40 ca 3f 34 bd 13 c0
       -4.612354 -2.0999796 1.5801064 -2.308423
0000f0 28 6b 87 bf eb 82 e1 3f 25 86 d5 3f 08 bd f0 be
       -1.0579576 1.7618078 1.6681563 -0.4701922
000100 34 a4 1a bf e3 84 4a bf 0f 86 66 40 a0 96 af 3f
       -0.60406804 -0.7910902 3.6019323 1.3717842
000110 c1 93 80 bf fd ab eb 3f 9d 54 a0 40 7f eb 1f 40
       -1.0045091 1.8411862 5.010329 2.4987485
000120 ba 35 43 c0 78 8f 57 c0 5c c3 08 c1 8d 91 bd c0
       -3.0501542 -3.3681316 -8.547695 -5.9240174
000130 0c 3e e1 c0 64 a5 ee 3d f6 e6 7b 3f 53 2d 45 be
       -7.038824 0.116526395 0.98399293 -0.19255571
000140 18 a0 54 3f a5 23 99 bf 57 5e fd 3f aa 36 2f c0
       0.83056784 -1.1964003 1.9794415 -2.7377114
000150 d2 81 d0 3f 0c ee 96 40 44 8a 50 c0 2c 86 51 40
       1.6289618 4.7165585 -3.258439 3.2738142
000160 f6 ba cf c0 64 ea 81 40 de 92 9a 3f c6 c8 c3 3f
       -6.4915724 4.059862 1.207607 1.5295646
000170 07 24 4a c0 11 fb 1e c0 0a 12 8e bf dc f1 41 c0
       -3.158449 -2.4840739 -1.1099255 -3.030387
000180 6c 4c 36 3f ab 40 8e be 9e 7b 8d be f6 ec 85 3e
       0.7121036 -0.27783713 -0.27633375 0.2615735
000190 ec bc 9b 3d 6e 9d 20 c0 0d 06 1f bf c2 0e a3 bf
       0.07604393 -2.5096087 -0.6211861 -1.2738879
0001a0 22 76 3c c0 ad ce 8d 40 0a 38 80 c0 49 a4 e4 3f
       -2.9447103 4.431479 -4.0068407 1.7862636
0001b0 f1 1d 00 40 4d 12 ea 3f ea 9c 07 40 ba 0c 9e bf
       2.0018275 1.8286835 2.1189523 -1.2347634
0001c0 d1 0b 07 40 1b d2 23 bf 96 06 12 c0 35 f1 41 c0
       2.1100962 -0.6399247 -2.281652 -3.030347
0001d0 a0 ce 5c 3f d7 00 95 3f 3c 91 6e c0 43 1a fb 3f
       0.86252785 1.1640881 -3.7276144 1.961739
0001e0 aa 2e 14 bf 79 ae 39 3f cb 27 97 c0 7c 12 19 40
       -0.57883704 0.7253185 -4.7236075 2.3917532
0001f0 28 88 56 3f b1 98 c3 3f ed f5 24 bf b9 cb 29 be
       0.8380151 1.5280973 -0.6443775 -0.1658162
000200 cf 9f 89 be d1 12 82 40 c0 a1 df bf 8d ac 3c 3f
       -0.26879737 4.064797 -1.7471237 0.7370079
000210 f7 c7 0c c0 fd 53 e7 3d 75 be 41 c0 52 97 0f c0
       -2.199705 0.11295316 -3.0272496 -2.2436109
000220 93 8b 0e be 0f dc 38 c0 8a 0f 2a 40 9b a0 51 3f
       -0.13920431 -2.8884313 2.6571984 0.8188569
000230 6b f9 28 40 20 93 47 c0 02 31 de 3f bb 6c 81 3f
       2.6402233 -3.1183548 1.7358706 1.0111307
000240 88 52 02 c1 9a dc e1 be e2 30 b2 bf 5e 6a 41 40
       -8.145149 -0.44113618 -1.3921168 3.0221171
000250 b0 29 95 bf e1 33 aa 3f 44 98 96 c0 d8 b3 7d 3f
       -1.1653347 1.3297082 -4.706087 0.99102545
000260 6c 40 7f 40 d0 7c 6a bf ec b8 e0 3f 4c 2c 9d 3e
       3.988307 -0.915967 1.7556434 0.30697858
000270 76 17 f1 3f f7 58 1d 3f 71 fd 21 40 79 9a 69 bf
       1.8835285 0.61463875 2.5310938 -0.9125133
000280 c8 b0 d2 3f 48 c2 67 c1 7a bc 92 c0 cc 4c b6 bf
       1.6460199 -14.484932 -4.5855074 -1.4242187
000290 5b 7a a6 3f d2 4a 91 bd 1d 2a 7e 40 a4 41 31 bf
       1.300609 -0.07094349 3.9713204 -0.69240785
0002a0 2d 83 82 bf 47 f3 f4 c0 45 28 7a 40 be 91 5e 40
       -1.0196282 -7.654697 3.9087079 3.4776454
0002b0 d1 23 24 40 da dd f3 3f 82 c2 d7 3f 72 c9 9f 3e
       2.564686 1.9052079 1.6856234 0.31208378
0002c0 ff 04 24 3f ac d5 4c c0 aa 65 a2 bf f5 15 cd bd
       0.64070123 -3.2005415 -1.2687275 -0.100139536
0002d0 42 db 5e 3e 7b a3 64 3f 4e 1e 54 bd d9 1d 54 be
       0.21763328 0.8931195 -0.051786713 -0.20714511
0002e0 f0 da c6 c0 1c 66 3d 40 ba cb 7d c0 3b df a4 c0
       -6.214226 2.9593573 -3.9655595 -5.15225
0002f0 05 3e 6b 40 a6 5d 0f 40 db 57 1f 40 99 0b 75 c0
       3.6756604 2.2400908 2.4897373 -3.8288329
000300 ca 47 1b bf b4 28 5f 40 10 54 44 bf 92 18 73 3f
       -0.60656416 3.4868593 -0.7669077 0.94959366
000310 3c 2b 3e 40 da 22 aa bf 4d c8 ff 3f d1 22 68 3f
       2.9713888 -1.3291886 1.9983002 0.90678126
000320 2f 73 03 40 21 5b e1 40 0f bb 22 40 6f 0b c1 3f
       2.0539052 7.042374 2.5426672 1.5081614
000330 dd f3 d6 c0 6b 2e 55 40 bb 23 77 bf c2 f5 f7 3f
       -6.7172685 3.3309581 -0.96538895 1.9371874
000340 83 7a 98 3e 24 da 15 c0 4d 49 8d bd 56 f4 00 c1
       0.2978097 -2.3414392 -0.06898747 -8.059652
000350 a0 e8 76 3f c9 e3 33 bf 63 7c 93 3f 81 85 91 3f
       0.9644871 -0.7026945 1.1522335 1.1368867
000360 cc 80 8d bf e1 e4 31 40 a1 bd 8c c0 ea 4d f6 3e
       -1.1054931 2.7795947 -4.398148 0.4810632
000370 c7 ad 86 c0 b5 0b 54 c0 b7 94 32 c0 0c 98 d5 c0
       -4.208713 -3.3132145 -2.7903268 -6.6748104
000380 78 9d 6e 3e 64 ed 48 c0 63 94 30 3d 31 97 81 3f
       0.23302257 -3.1394892 0.043110263 1.0124265
000390 4b f2 7b bf 44 6f bc 3f 23 bd 7c c0 dc 71 38 bf
       -0.98416585 1.4721456 -3.949044 -0.72048736
0003a0 58 a5 e9 bf 21 1b 99 40 c3 c0 ed c0 76 28 2e bf
       -1.8253584 4.7845616 -7.4297805 -0.6803049
0003b0 84 4f 26 40 d5 43 5d 40 3c 50 69 c0 3b 40 d1 bf
       2.5986032 3.4572651 -3.645522 -1.6347727
0003c0 67 a7 58 40 69 54 13 bf 73 24 a9 be 48 32 36 40
       3.3852174 -0.57550675 -0.3303562 2.846819
0003d0 c1 0e 09 c0 f5 32 50 3e 4e 0b 17 bf bc 23 74 3f
       -2.1415255 0.20331939 -0.59001625 0.95367026
0003e0 0c 26 dc 3f de 2c 16 40 0d a4 9f c0 df 50 ea 3f
       1.7199111 2.3464885 -4.9887757 1.830593
0003f0 25 d4 93 3e 5f a5 ca 3f 10 56 00 be 74 a5 9b c0
       0.2887279 1.5831717 -0.1253283 -4.863947

submod3.bias f4 [16]
000000 02 27 ad 3f cd 26 4e 3f 40 06 e7 3f 69 7e 9d 3e
       1.3527529 0.80527955 1.8048782 0.30760506
000010 41 6b d1 bf 99 43 1f 3f e4 54 0f bd 31 33 08 bf
       -1.6360856 0.6221252 -0.034993067 -0.5320311
000020 82 5e 07 bf d6 50 0e bf 71 cf d6 3e 52 52 8e bf
       -0.5287858 -0.55592096 0.4195514 -1.1118872
000030 27 e8 af be 5e f2 79 bf 20 a9 82 bd 1b 97 8b 3c
       -0.34356806 -0.9763545 -0.06379914 0.017039826
