networks/pretrained_models/iscx2016vpn/CNN1D_TrafficClassification_best_model_without_aux.pth (torch, 36850 bytes, 26 tensors)

conv1.weight f4 [16, 1, 3]
0	0xbfbaa120	-1.4580421
1	0xbecb2cec	-0.3968271
2	0xbfad99af	-1.3562526
3	0x3f21413b	0.6299016
4	0x40067486	2.100862
5	0xbe8e3585	-0.27775207
6	0xbf1f8dbc	-0.62325644
7	0x400b0478	2.1721478
8	0xbdfe3f26	-0.12414388
9	0x3f8ab615	1.0836817
10	0xbebab948	-0.36469483
11	0x3f925e7c	1.1435084
12	0x3e639a61	0.2222686
13	0x3ed81a8c	0.42207754
14	0x4000c821	2.012215
15	0x3efee58a	0.497845
16	0xbebbc128	-0.36670804
17	0xc006ca74	-2.1061068
18	0x3e8ceb12	0.27523094
19	0xc022f86a	-2.546412
20	0xbfd888a8	-1.6916704
21	0x3fe83470	1.8141003
22	0x3f456d4c	0.771199
23	0xbe8aaaac	-0.27083337
24	0xc01a014c	-2.4063292
25	0x3edea397	0.43484184
26	0x3d64e085	0.05587818
27	0xbd978177	-0.0739774
28	0xbfbe63a7	-1.4874161
29	0xc006b478	-2.104765
30	0x3f25cf86	0.6476978
31	0xbfaf27f4	-1.3684068
32	0xbf25bed9	-0.64744335
33	0x3e82c197	0.25538322
34	0xc0b2f654	-5.5925694
35	0x3e3a8a61	0.1821685
36	0x3f31373d	0.6922491
37	0xbe2f2f70	-0.1710794
38	0xbfcafceb	-1.5858434
39	0xbfcf23df	-1.6182822
40	0x3f473eca	0.77830184
41	0xbf2751ab	-0.6535899
42	0xbfbbdede	-1.4677389
43	0x3f6bf528	0.92170954
44	0xbc9b3435	-0.018945793
45	0xbe8cd927	-0.27509424
46	0x3f43e86f	0.7652654
47	0xbfbdd20a	-1.4829724

conv1.bias f4 [16]
0	0x3fd194fe	1.6373594
1	0x3fdfd60e	1.7487199
2	0x3defcb76	0.11708729
3	0xbf76030c	-0.960984
4	0xbd905e14	-0.07049194
5	0x3f4f898e	0.81069267
6	0xbb51748f	-0.0031960343
7	0xbf450a10	-0.7696848
8	0xbfe7c091	-1.8105642
9	0xc00a880b	-2.1645534
10	0x3ff19043	1.887215
11	0xbf2c07bf	-0.6719932
12	0xbef08788	-0.46978402
13	0x3f26f1e4	0.65212846
14	0xbf209b67	-0.62737125
15	0x3d2f22da	0.042757846

bn1.weight f4 [16]
0	0x40019503	2.02472
1	0x3f3b1938	0.73085356
2	0x3f2dd29e	0.678995
3	0x3f3e0284	0.7422259
4	0x3f22bead	0.635722
5	0x40043626	2.065805
6	0x4016db11	2.3571208
7	0x3f6b00e9	0.91798264
8	0x400c90d0	2.1963387
9	0x400515bf	2.0794523
10	0x3fa201be	1.2656782
11	0x400afd9f	2.1717298
12	0x3f0440d5	0.51661426
13	0x3fa26fee	1.2690408
14	0x3f4a4371	0.7900916
15	0x3f1dacf3	0.61592025

bn1.bias f4 [16]
0	0xbe7fb0d4	-0.24969798
1	0xbf68341d	-0.9070452
2	0xbeb3199a	-0.3498047
3	0x3e94e2a1	0.29079154
4	0xbee54c0d	-0.44784585
5	0xbf71203f	-0.9418983
6	0xbf964138	-1.1738653
7	0xbeecfd5f	-0.46287057
8	0xbfbaf1fb	-1.4605097
9	0xbdb7b5b6	-0.089702055
10	0xbef800cd	-0.4843811
11	0xbe5057bf	-0.20345972
12	0x3f9138a0	1.1345406
13	0xbf0c5fb7	-0.5483355
14	0xbe00a4a0	-0.125628
15	0x3ef13a7b	0.4711493

bn1.running_mean f4 [16]
0	0x3f8a1576	1.0787799
1	0x400b6b6b	2.1784313
2	0x3ebe8de6	0.37217635
3	0xbf23c929	-0.6397882
4	0x3ec9dc61	0.39425948
5	0x3eeffb93	0.46871623
6	0xbf321a8a	-0.69571745
7	0xbebb5efb	-0.36595902
8	0xc0091ff5	-2.1425755
9	0xc03383b5	-2.8049138
10	0x3fd394ca	1.6529782
11	0xbfc9667e	-1.5734403
12	0xbf27e485	-0.6558307
13	0x3ec742ed	0.38918248
14	0xbf39bd98	-0.7255492
15	0xbdfe6169	-0.12420923

bn1.running_var f4 [16]
0	0x3f31d790	0.6946955
1	0x3ef751ee	0.48304695
2	0x3e8886dc	0.2666539
3	0x3e8ac8fb	0.2710646
4	0x3f04e81b	0.51916665
5	0x3eb8c0c9	0.36084583
6	0x3f93806a	1.1523564
7	0x3ed4d5c8	0.41569352
8	0x3ec41490	0.38296938
9	0x3f723c1d	0.94622976
10	0x3e3a7b79	0.18211164
11	0x401ab948	2.4175587
12	0x3e1dfd2d	0.1542861
13	0x3e6e14bd	0.23250099
14	0x3dd9d9ba	0.10637231
15	0x3e0de9a1	0.13858654

conv2.weight f4 [16, 16, 3]
0	0x3faf432b	1.3692373
1	0x3ed7bb8e	0.4213528
2	0xbef4fef0	-0.47850752
3	0xbf9aa4aa	-1.2081501
4	0xbef33e19	-0.47508314
5	0xbe97c95b	-0.2964581
6	0xbe895903	-0.26825723
7	0x3e201be9	0.15635647
8	0xbe7e008c	-0.24804896
9	0xbf3b30c4	-0.73121285
10	0x3f8edde0	1.1161461
11	0xbe81e3b9	-0.2536905
12	0xbf17c743	-0.59288424
13	0x3f02db6e	0.51116073
14	0x3f9ddca2	1.2332957
15	0xc0017e2e	-2.0233264
16	0xbf03c866	-0.5147766
17	0xbf0f14fe	-0.55891407
18	0xc01d0af7	-2.4537942
19	0x3f9e13ff	1.2349852
20	0x3f32a525	0.6978324
21	0x3dbd5214	0.09244171
22	0xbe70f3be	-0.2353048
23	0xbef797b9	-0.48357943
24	0xbf8053a9	-1.0025531
25	0xbf487f89	-0.78319603
26	0x3f0d93bd	0.55303556
27	0x3fbcb4ac	1.4742637
28	0x40038099	2.054724
29	0x3ea240d2	0.3169008
30	0x3f9bb6b7	1.2165135
31	0x3e582df8	0.21111286
32	0xbee03892	-0.4379316
33	0x3f7713c0	0.9651451
34	0xbe8538a4	-0.26019776
35	0x3b92ca8a	0.004479711
36	0xbf8b20fb	-1.086944
37	0x3f51a2d9	0.8188911
38	0x3f3568be	0.7086295
39	0xbf913da8	-1.1346941
40	0x3ee8882a	0.45416385
41	0x3efeeaff	0.49788663
42	0xc06362c5	-3.5529034
43	0xbe6ca8df	-0.23111294
44	0x3f969323	1.1763653
45	0xbd01a071	-0.03164715
46	0xbfaaab6f	-1.3333567
47	0xbf3c0551	-0.7344561
48	0xbe180933	-0.14847259
49	0x3f62e8e1	0.88636595
50	0xbeb5793a	-0.3544405
51	0x3f8ff3e5	1.1246306
52	0x3e116f08	0.14202511
53	0xbf5ca870	-0.86194515
54	0xbde4face	-0.1118065
55	0xbf9ea33a	-1.2393563
56	0x3f269ae7	0.6508011
57	0xbfb3612b	-1.4014028
58	0x3f7e546d	0.99347574
59	0xbeee09ac	-0.46491754
60	0xbd9e8cbf	-0.07741689
61	0x3de5b64c	0.11216411
62	0x3db28f78	0.08718771
63	0x3f869c4e	1.051645
64	0x3f2b036b	0.6680209
65	0x3dc2faf6	0.09520523
66	0x3cea1f1f	0.028579293
67	0x3fc10685	1.5080115
68	0x4009dd67	2.1541383
69	0xbf735c40	-0.9506264
70	0xbf88fac0	-1.0701523
71	0xbecb81cb	-0.39747462
72	0x3e8d485c	0.27594268
73	0xbda48505	-0.08033184
74	0xc06597fd	-3.5874016
75	0xbf439023	-0.7639181
76	0x3f298d17	0.6623091
77	0xbf3b32b0	-0.7312422
78	0xbf1e93fe	-0.6194457
79	0xbfedd650	-1.8581028
80	0xbfd95554	-1.6979165
81	0xbefd5571	-0.4947925
82	0xbf4cf904	-0.8006747
83	0xbd938f1f	-0.072050326
84	0xbed9f25f	-0.42567727
85	0x3f8a558b	1.0807356
86	0xbe1d1ea5	-0.15343721
87	0x3f92aa5f	1.1458243
88	0x3fb12f90	1.384264
89	0xbf904d6b	-1.1273626
90	0x3e9229ea	0.28547603
91	0x3f5bb274	0.8581917
92	0xbf21bbf3	-0.6317741
93	0xbfb1df66	-1.3896301
94	0xbfab2cc8	-1.3373041
95	0xbd3a8955	-0.045541126
96	0x3f163182	0.5866929
97	0x3f81de6b	1.0146002
98	0x3f864fdc	1.0493121
99	0x3f3eb5fa	0.74496424
100	0x3d180c66	0.0371212
101	0xbf6ed5da	-0.9329506
102	0x3c26ca4b	0.010180066
103	0xc01a5acb	-2.4117916
104	0x3e55502d	0.20831366
105	0xbe55a3d2	-0.20863274
106	0x400b8b56	2.1803794
107	0x3e6b1bfd	0.22959895
108	0xbeec2942	-0.46125227
109	0x3f53abe5	0.82684165
110	0x3eb67468	0.35635686
111	0x3ef62862	0.48077685
112	0xbe95aa5b	-0.29231533
113	0x3e147812	0.14498928
114	0x4029da18	2.6539364
115	0x3db8d24f	0.09024488
116	0xbefd7ac3	-0.49507722
117	0xbeb7fb51	-0.35933927
118	0xbec26878	-0.37970328
119	0xbfec2e70	-1.8451672
120	0x3f1955d1	0.5989657
121	0xbfefd9ff	-1.8738402
122	0xbf2c20ec	-0.67237735
123	0x3f066488	0.5249715
124	0x3fd81549	1.6881496
125	0x3f195ff4	0.5991204
126	0xbed7db95	-0.42159715
127	0x3900afdb	0.00012272543
128	0x3d4a87d3	0.04944594
129	0x3ee8012b	0.4531339
130	0x3c550071	0.0130005935
131	0x3e15d3c2	0.1463156
132	0x3f30c9d1	0.6905795
133	0xbe27f30a	-0.16401306
134	0xbfad35a5	-1.3531996
135	0x3ef18529	0.47171906
136	0xbf0812fb	-0.5315396
137	0x3f5cfd36	0.8632387
138	0x3e147d76	0.14500985
139	0x3efde675	0.49589887
140	0x3f022ca8	0.5084939
141	0xbf381f28	-0.7192254
142	0xbea6b529	-0.3256009
143	0x3e165ac8	0.14683068
144	0xbf102b1d	-0.56315786
145	0xbed16c48	-0.40902925
146	0x3e99ceda	0.30040628
147	0xbef818af	-0.48456332
148	0x3f1b3e13	0.6064159
149	0xbdfb9d44	-0.122858554
150	0xbe1e1a61	-0.1543975
151	0xbfbb655f	-1.4640311
152	0xbe373ea0	-0.17894983
153	0xbd12ee7d	-0.03587197
154	0xbfd6cb00	-1.6780701
155	0x3f82d551	1.0221349
156	0x3e082360	0.13294744
157	0x3f81570e	1.0104692
158	0xbf50a7d7	-0.81506103
159	0xbc3aba6e	-0.011396987
160	0x4028bffc	2.6367178
161	0x3e7d43d3	0.24732904
162	0xbe476d9d	-0.19475408
163	0x3f84ae4c	1.0365691
164	0x3fda920c	1.707582
165	0x3e9c03a3	0.30471525
166	0xbf888dad	-1.0668236
167	0x3f074cf6	0.5285181
168	0xbe974d95	-0.29551378
169	0x3fdd0600	1.7267456
170	0xbeb736a6	-0.3578388
171	0xbdd5f0cd	-0.1044632
172	0x3f03efc1	0.5153771
173	0x3ff43806	1.9079597
174	0xbd391861	-0.045189265
175	0x3f2da850	0.6783495
176	0xbf0961b5	-0.53664714
177	0x3d8a4946	0.06752257
178	0xbeca01f5	-0.39454618
179	0x3f4a1ad2	0.78947175
180	0xbce0f5e7	-0.027461005
181	0x3fe4bfa5	1.7870985
182	0x3a1f93ee	0.0006087412
183	0x3cefab54	0.0292565
184	0x3fa1f647	1.2653283
185	0xbe808d1f	-0.25107667
186	0x3e570490	0.20997834
187	0xbed7a800	-0.4212036
188	0x3d9da42b	0.07697328
189	0x3d934ab6	0.07191984
190	0xbfb937d4	-1.4470162
191	0xbe216430	-0.15760875
192	0x401c89fb	2.4459217
193	0x3faa9da5	1.3329359
194	0xbf342f72	-0.70384896
195	0x3e77cc39	0.24198999
196	0xbf3677e8	-0.7127671
197	0xbf417548	-0.7556958
198	0xbdc14891	-0.09437669
199	0xbd755739	-0.059897635
200	0xbee40801	-0.44537356
201	0xbf606bd8	-0.87664557
202	0xbf410fba	-0.7541462
203	0x3ede3031	0.43396142
204	0x3f5d77d8	0.8651099
205	0xbe997f88	-0.2998011
206	0x3efd19a3	0.49433622
207	0xbec7d1f1	-0.3902736
208	0x3e215b50	0.15757489
209	0xbde27118	-0.11056727
210	0x3dc58006	0.09643559
211	0x400ffd74	2.2498446
212	0x3f70cce4	0.9406264
213	0x3e0a30b0	0.13495135
214	0xbe147b89	-0.1450025
215	0x3f1ae6f9	0.60508686
216	0x3e845106	0.25843066
217	0xbee9dbf4	-0.45675623
218	0xc030d84a	-2.7632012
219	0x3e9d4520	0.307168
220	0x3f91f510	1.1402912
221	0xbf0d8550	-0.55281544
222	0xbec17c94	-0.37790358
223	0x3e86db5c	0.26339233
224	0x3ebdedc2	0.37095457
225	0x3dfc617b	0.123232804
226	0x3ef5f987	0.48041937
227	0xbef69d1e	-0.48166746
228	0x3ef59724	0.47966874
229	0xbebbd32a	-0.36684543
230	0xbea07e4a	-0.3134635
231	0xbf9a00f0	-1.2031536
232	0xbf5529a3	-0.8326666
233	0xbf73e24b	-0.9526717
234	0xc0297e53	-2.6483352
235	0x3f54fb9e	0.8319644
236	0x3f010fc8	0.50414705
237	0x3eb3bb3d	0.3510379
238	0x3f0e2322	0.5552236
239	0x3e74c010	0.23901391
240	0xbdaaeba9	-0.0834573
241	0xbf1865fd	-0.5953062
242	0x3eb3b98b	0.35102496
243	0xbf02e03f	-0.5112342
244	0x3d8bac57	0.068199806
245	0x3f1089af	0.5646009
246	0x3ecb405a	0.39697534
247	0x3ebb550b	0.3658832
248	0xbfb6ea3e	-1.4290235
249	0x3d7c8171	0.061646882
250	0x3d67dc18	0.056606382
251	0xbd197b68	-0.037471205
252	0xbe5ebc24	-0.21751457
253	0xbf128f00	-0.5724945
254	0x3f1af8c2	0.60535824
255	0x3f6e87b0	0.9317579

conv2.bias f4 [16]
0	0xbe9cafa5	-0.30602756
1	0x3ede4975	0.43415418
2	0x3f9ca79b	1.2238649
3	0xbf168382	-0.58794415
4	0xbf8d87d9	-1.1057082
5	0x3c1dbb0d	0.009627116
6	0x3f1b02a6	0.60550916
7	0xbd6cff57	-0.0578607
8	0x3f197a0c	0.59951854
9	0x3ef181f3	0.47169456
10	0x3f478dd6	0.779508
11	0xbefd5bf0	-0.49484205
12	0xbe8c53f8	-0.27407813
13	0xbe6f5d79	-0.233755
14	0x3f824eb1	1.0180265
15	0x3f419fd3	0.756345

bn2.weight f4 [16]
0	0x40329da4	2.7908716
1	0x3fdb99a1	1.7156259
2	0x3fed6c3c	1.8548656
3	0x3fce7f68	1.6132631
4	0x401f87d2	2.4926648
5	0x3f984e11	1.1898824
6	0x3fede922	1.8586771
7	0x3ef48dce	0.47764438
8	0x3f1fb8f5	0.623916
9	0x3f01c808	0.5069585
10	0x3f8b23d9	1.0870315
11	0x3fe88284	1.816483
12	0x3ece0530	0.40238333
13	0x3f6f0107	0.9336094
14	0x40112599	2.2679198
15	0x3e96de87	0.2946665

bn2.bias f4 [16]
0	0xbf8af64e	-1.0856416
1	0xbeb8d7e5	-0.36102214
2	0xbee9b284	-0.4564401
3	0xbee65d54	-0.4499308
4	0xbe753865	-0.23947294
5	0xbf4eb2c1	-0.80741507
6	0xbf15552e	-0.583331
7	0xbf5980a4	-0.84961915
8	0xbe7c9d3b	-0.24669354
9	0xbfd9d8fa	-1.7019341
10	0xbfca9578	-1.5826864
11	0xbf1fea27	-0.62466663
12	0xbea54ba1	-0.32284263
13	0xbf1a1df4	-0.60201955
14	0xbf527528	-0.82210016
15	0xbd99a4b1	-0.075021155

bn2.running_mean f4 [16]
0	0x3fd2dfd7	1.647456
1	0xc06b8693	-3.6800888
2	0x4096d7a3	4.713823
3	0x402aea11	2.6705363
4	0x3fcf6195	1.6201655
5	0x3fa97c2e	1.3241022
6	0x409f895f	4.985519
7	0xbf131851	-0.5745898
8	0xc0814e0b	-4.0407767
9	0x3f90c19c	1.1309085
10	0x409673ee	4.7016516
11	0xc0cc5223	-6.3850265
12	0x3f5e0b2a	0.86735785
13	0xc0458953	-3.0865066
14	0x3ecebc8e	0.4037823
15	0xbf64e141	-0.8940621

bn2.running_var f4 [16]
0	0x41ae1d41	21.764284
1	0x40db3c5e	6.851119
2	0x4187d12e	16.977139
3	0x41499b58	12.600426
4	0x419a91ad	19.32113
5	0x4179fdab	15.624431
6	0x41937e97	18.436811
7	0x3f2f4179	0.6845928
8	0x41188359	9.532067
9	0x3f7840f1	0.9697409
10	0x419161aa	18.172688
11	0x412e0c0f	10.877944
12	0x4009d4b6	2.1536078
13	0x419e31af	19.77426
14	0x4128b818	10.544945
15	0x3fb4b374	1.4117265

conv3.weight f4 [32, 16, 3]
0	0x3eb3a87f	0.3508949
1	0x3f2427a5	0.6412299
2	0xbfc83b04	-1.564301
3	0x3f8472bd	1.0347515
4	0xbfdc7447	-1.7222985
5	0x3fe3d807	1.7800301
6	0x3f98e7cb	1.1945738
7	0xbeaa0c06	-0.33212298
8	0xbf744e7b	-0.9543225
9	0xbf6f3ed1	-0.93455225
10	0xbe037597	-0.12837826
11	0x3faa0abc	1.3284526
12	0x3f717a46	0.943272
13	0xbd80b4cd	-0.06284485
14	0x3f314cf6	0.6925806
15	0xc0015fb6	-2.0214667
16	0xbe465dd1	-0.19371726
17	0xbf8d7d68	-1.1053896
18	0xbf48100b	-0.7814948
19	0x3e3e501e	0.1858525
20	0x3f1a6179	0.6030498
21	0xbfdffad9	-1.7498428
22	0xbebff032	-0.37487942
23	0x3f6f9819	0.9359146
24	0xbfab32a1	-1.3374826
25	0xbe7fffc7	-0.24999915
26	0x3f367c04	0.7128298
27	0xbee69886	-0.4503824
28	0x3e5599f1	0.20859505
29	0xbfa85751	-1.3151647
30	0x3dcc8c63	0.09987714
31	0x3dda68a9	0.106644936
32	0x3de7fcc1	0.11327506
33	0x3fa33e50	1.2753391
34	0x3f514fb4	0.8176224
35	0xbf9afcd2	-1.2108405
36	0xbe8d9c92	-0.27658516
37	0xbfdd0b50	-1.7269077
38	0x3f185afa	0.5951382
39	0xbe3ef7a1	-0.1864915
40	0xbdf8df3a	-0.12151952
41	0x3e0ce2ba	0.13758364
42	0x3f31c838	0.69446135
43	0x3e2b1577	0.16707407
44	0xbf0349b2	-0.51284325
45	0x3df71c4f	0.12065946
46	0xbe9f05f6	-0.31059235
47	0x3e3fa7dd	0.18716379
48	0x3f77762d	0.96664697
49	0xbf7da693	-0.990823
50	0x3f0625bf	0.52401346
51	0x3f6158d3	0.8802616
52	0xc01ca7db	-2.447745
53	0x3eee04e2	0.464881
54	0x3fc3dfc9	1.5302669
55	0xbf7df5ab	-0.99202985
56	0xbfb62e86	-1.4232948
57	0x3ec231b8	0.37928557
58	0xbf88dccf	-1.0692385
59	0xbe6f1de8	-0.23351252
60	0x3ef2a40b	0.4739078
61	0x3f1d423c	0.6142919
62	0x3f4d7ea2	0.8027135
63	0x3e8f61e3	0.2800437
64	0xbf00eaea	-0.5035845
65	0x3e19f5df	0.15035199
66	0x3f54f9c2	0.831936
67	0xc03c0c0f	-2.938236
68	0xbf0bd69c	-0.5462434
69	0xbf86008e	-1.0468919
70	0xbc0aa3e1	-0.008461923
71	0x3d3771d9	0.044786308
72	0x3ec37325	0.38173786
73	0x3dcfb2d2	0.10141529
74	0xbd983457	-0.07431858
75	0xbe867429	-0.26260498
76	0xbef64f1a	-0.48107225
77	0x3e7088c6	0.23489675
78	0xbfa5d27f	-1.2954863
79	0x3e7df222	0.24799398
80	0x3d345c34	0.044033244
81	0x3f7e7e3c	0.9941137
82	0x3eba769f	0.36418626
83	0xbf8e21ca	-1.1104062
84	0xbeb67f92	-0.35644203
85	0x3e940acc	0.28914487
86	0x3ea05289	0.3131297
87	0xbfc01fbe	-1.5009687
88	0x3eb40fad	0.3516821
89	0x3e983813	0.2973028
90	0x3f0ea80b	0.55725163
91	0xbfaaf818	-1.3356962
92	0xbd939522	-0.07206179
93	0x3e83465b	0.25639614
94	0xbfadef20	-1.35886
95	0x3ed7ecb0	0.42172766
96	0xbe7f1b6a	-0.24912801
97	0x3fac159b	1.3444093
98	0x3e8ceb64	0.2752334
99	0xbf069a2f	-0.52579015
100	0x3b4ee525	0.0031569686
101	0xbfc31c60	-1.5243034
102	0x3dbf3476	0.09336178
103	0xbf211a34	-0.6293061
104	0x3e912cde	0.28354543
105	0xbdcead2b	-0.10091623
106	0xbf40af97	-0.7526793
107	0xbfdf99b8	-1.7468786
108	0x3fa2ee2f	1.2728938
109	0x3fe44a41	1.783516
110	0xbf00ef2d	-0.50364953
111	0xbf81d19c	-1.0142093
112	0xbe610ec0	-0.21978283
113	0x3f930fb5	1.1489168
114	0x3e3bc0b5	0.1833523
115	0x3f2fdcba	0.68696177
116	0x3da791ca	0.08182104
117	0xbf93058c	-1.1486068
118	0x3f856a2f	1.042303
119	0x3f26b1f3	0.6511528
120	0xbf502302	-0.8130342
121	0xbeac4782	-0.33648306
122	0x3eba76c6	0.36418742
123	0x3fe2a47a	1.7706444
124	0xbff375d1	-1.902033
125	0xbee98d0c	-0.45615423
126	0x3eda6b3b	0.42659935
127	0xbfc5257a	-1.5402062
128	0x3cfb68b6	0.030689579
129	0x3fba8f64	1.4575009
130	0xbf0e3b47	-0.555592
131	0xbe93f178	-0.28895164
132	0xbf07e759	-0.53087384
133	0xbf01782f	-0.5057401
134	0x3e7b201d	0.24523969
135	0xbde4303f	-0.11142015
136	0xbeeebaf8	-0.4662702
137	0x3e7d2e5b	0.24724714
138	0xbf3270cf	-0.6970338
139	0x3f868651	1.050974
140	0x3f61f4ed	0.8826435
141	0xbf411074	-0.7541573
142	0xbd96a203	-0.0735512
143	0xbf624c9a	-0.88398135
144	0xbef7c241	-0.4839039
145	0xbf852b8e	-1.0403917
146	0x3e7fa390	0.24964738
147	0xc04bc9c4	-3.1841898
148	0x3f497df5	0.7870782
149	0x3f31a02b	0.6938502
150	0xbfae506c	-1.3618293
151	0x3f4268e6	0.7594131
152	0x3fb3bfd3	1.4042915
153	0xbe904f27	-0.28185388
154	0xbf8c7d3a	-1.0975716
155	0xbe552400	-0.20814514
156	0xbf859ca5	-1.0438429
157	0xbf25e2d2	-0.64799225
158	0x3f10884d	0.5645798
159	0xbf3ec338	-0.7451663
160	0xbeeeb6a6	-0.46623725
161	0xbecc9c6a	-0.39963084
162	0xbefcd8ea	-0.49384242
163	0x3f601a33	0.87539977
164	0xbe14710c	-0.14496249
165	0xbdb090e7	-0.08621388
166	0xbf0016db	-0.50034875
167	0xbe4d7db7	-0.20067488
168	0x3f10532f	0.5637693
169	0xbdbc44ed	-0.09192834
170	0xbee2c1f2	-0.44288594
171	0x3f9ffcf6	1.2499073
172	0xbf091f11	-0.5356303
173	0x3e63a07d	0.2222919
174	0xbe0997fe	-0.13436887
175	0x3f0a30bd	0.5398062
176	0x3d907746	0.070539996
177	0x3ec96012	0.39331108
178	0xbcff703f	-0.031181453
179	0x3f832698	1.0246153
180	0x3e146240	0.14490604
181	0x3efac706	0.48979968
182	0xc04387ec	-3.055171
183	0x3eaf56f5	0.3424603
184	0xbec6caf0	-0.38826704
185	0xbf9fc9c4	-1.2483449
186	0x3f6543f7	0.8955683
187	0xbf20ffad	-0.6289013
188	0x3f894ec3	1.0727161
189	0xbe5cd197	-0.21564327
190	0x3f27f87b	0.65613526
191	0xbd480509	-0.048832927
192	0x3f179c13	0.59222525
193	0xbeaabd08	-0.33347344
194	0xbec0c0f0	-0.376472
195	0x3e7f180c	0.24911517
196	0xbe8dfb6a	-0.27730876
197	0xbecc0097	-0.398442
198	0xbfa980e5	-1.324246
199	0xbef7053f	-0.4824619
200	0x40146177	2.3184488
201	0x3f7c37ee	0.9852284
202	0xbeff579b	-0.49871525
203	0x3d11f129	0.03563038
204	0xbf96a2ef	-1.1768473
205	0x3fa83982	1.314255
206	0x3f01b183	0.50661486
207	0x3e5d5eaa	0.21618143
208	0x3f113562	0.5672208
209	0xbfe13d19	-1.759677
210	0x3f8a73b4	1.081656
211	0xbf09938e	-0.53740776
212	0xbf8b4700	-1.0881042
213	0x3f73abe0	0.95184135
214	0xbd0f8fcf	-0.035049256
215	0xbfd60e25	-1.6723067
216	0x3ea9ac23	0.33139142
217	0x3f1e9e41	0.61960226
218	0xbfbf5658	-1.4948225
219	0xbf12068e	-0.5704125
220	0x3eda6cb3	0.42661056
221	0xbf69672e	-0.91173065
222	0xbe71f90e	-0.23630163
223	0xbee11f2b	-0.43969092
224	0xbe1d4199	-0.15357055
225	0xbf896aa8	-1.0735674
226	0xbef2eeb5	-0.47447744
227	0x400494c3	2.0715797
228	0x3e2349b0	0.15946078
229	0x3eb4f668	0.35344243
230	0xbefae451	-0.49002317
231	0x3f19df38	0.6010623
232	0xbf4a57bd	-0.7904013
233	0xbfc3ee6b	-1.5307134
234	0x3fb22c75	1.3919817
235	0xbef8829b	-0.48537144
236	0x3fa232c6	1.2671745
237	0x3e360618	0.17775762
238	0x3ecdaeb8	0.40172362
239	0xbf84c5f7	-1.0372914
240	0x3fda38ac	1.7048545
241	0x3f2f13f7	0.6838984
242	0xbdcc2574	-0.09968081
243	0x3f69b082	0.91284955
244	0xbecf649a	-0.4050644
245	0xbe8cfade	-0.27535146
246	0xc01bc6d7	-2.4340112
247	0xbe60b806	-0.219452
248	0x3dd5dc3b	0.10442396
249	0xbfde9aa0	-1.7390938
250	0x3ee6f8cb	0.4511169
251	0x3f0d0d84	0.5509875
252	0x3e43b9bf	0.19113825
253	0x3f2aec16	0.6676649
254	0x3e9dcaa1	0.30818656
255	0xbf540cff	-0.8283233

conv3.bias f4 [32]
0	0xbf0e69b0	-0.55630016
1	0x3dddf45d	0.10837624
2	0xbf08f419	-0.53497463
3	0xbe2b5b2c	-0.16733998
4	0xbdda74f0	-0.10666835
5	0xbe2230d4	-0.15838939
6	0xbd377dca	-0.044797696
7	0xbf43056c	-0.7618015
8	0xbe6f3178	-0.23358715
9	0x3d0a99c3	0.033838045
10	0x3e928f98	0.28625178
11	0x3ebc467e	0.3677253
12	0x3ce10c9d	0.027471835
13	0x3dcedc7e	0.10100649
14	0x3f0a0712	0.5391704
15	0x3e9f2ef0	0.31090498
16	0xbf78ebd1	-0.9723483
17	0x3e4229f9	0.18961324
18	0xbf09deeb	-0.5385577
19	0xbf428ed1	-0.7599917
20	0xbeb207c4	-0.3477155
21	0xbd48836a	-0.04895345
22	0xbe8e5ab9	-0.2780359
23	0xbf261866	-0.6488098
24	0xbd41d2c9	-0.04732016
25	0x3e401190	0.187567
26	0x3f0385dc	0.5137613
27	0xbe95a768	-0.29229283
28	0x3e9491bd	0.2901744
29	0xbf192978	-0.598289
30	0x3ca5b7c2	0.020229224
31	0xbebab4b5	-0.36465994

bn3.weight f4 [32]
0	0x3fc02fbd	1.5014569
1	0x3f47209b	0.77784127
2	0x3fbd286f	1.4777964
3	0x3f28dce2	0.6596204
4	0x3f9d8e9e	1.2309148
5	0x3fa5bde0	1.294857
6	0x3f33450e	0.70027244
7	0x3ee66861	0.4500151
8	0x3f898af8	1.0745535
9	0x3f712f58	0.94212866
10	0x3f9ddaa7	1.2332352
11	0x3fc2fdf5	1.5233752
12	0x3f8f0ba6	1.117543
13	0x3fd68fa8	1.676259
14	0x3f2619ea	0.6488329
15	0x3efe1200	0.49623108
16	0x3f04bc47	0.5184979
17	0x3f1defc5	0.61693984
18	0x3fc202e7	1.5157136
19	0x3fe839a5	1.8142592
20	0x3f672287	0.9028706
21	0x3f88aa8c	1.0677047
22	0x3fb28967	1.3948182
23	0x3f970215	1.179751
24	0x3fa331c7	1.2749566
25	0x3f853c0a	1.0408947
26	0x3fd3a61c	1.6535068
27	0x3fafdb33	1.3738769
28	0x3f91a2e2	1.1377833
29	0x3fcafe7b	1.5858911
30	0x3f6f6647	0.9351544
31	0x3f89ca3f	1.0764846

bn3.bias f4 [32]
0	0xbfb7b316	-1.4351528
1	0xbfba2b76	-1.4544513
2	0xbfa53ce3	-1.2909206
3	0xbf80c9aa	-1.0061543
4	0xbf4c3ae1	-0.7977734
5	0xbf9148f4	-1.1350389
6	0xbffbd187	-1.9673318
7	0xbf6842e5	-0.9072707
8	0xbf7ce0a2	-0.9878026
9	0xc0116714	-2.2719164
10	0xbf8e7865	-1.1130491
11	0xbf993a74	-1.1970963
12	0xbf0584ae	-0.5215558
13	0xbff5ae9f	-1.9193915
14	0xbfa50297	-1.2891415
15	0xbecb3e38	-0.39695907
16	0xbede5095	-0.43420854
17	0xbffb1c96	-1.9618099
18	0xbf8bbbba	-1.0916665
19	0xbfbda3d6	-1.4815624
20	0xbf34e78d	-0.7066582
21	0xbf104cd6	-0.5636724
22	0xbfafa680	-1.3722687
23	0xbf42ddc7	-0.76119655
24	0xbf3d53e8	-0.73956156
25	0xbf6f0b36	-0.9337648
26	0xbfa93af3	-1.3221115
27	0xbfb0a1d6	-1.3799388
28	0xbf62a02e	-0.88525665
29	0xbfa824c9	-1.3136226
30	0xbf4659bb	-0.7748067
31	0xbfce240d	-1.6104752

bn3.running_mean f4 [32]
0	0x3f804191	1.0020009
1	0xbfa64d78	-1.2992392
2	0x3f1492f4	0.5803673
3	0xc022577b	-2.5365894
4	0x3f20fd52	0.62886536
5	0xbe023ca6	-0.12718448
6	0x3f5581e3	0.83401316
7	0xbf354300	-0.7080536
8	0x4026a894	2.6040392
9	0xbfa5f371	-1.2964917
10	0xbeb9e417	-0.3630683
11	0x3f93c07e	1.1543119
12	0x3fc74238	1.5567083
13	0x3d287e23	0.04113592
14	0x3f6d6cf2	0.9274436
15	0x3f1d4675	0.61435634
16	0xbdbbdc45	-0.091728725
17	0xbd547f02	-0.051878937
18	0xbe8c6ab2	-0.27425152
19	0xc00f1f14	-2.2362719
20	0x3f95b1cb	1.1694883
21	0x40012770	2.018032
22	0x3fc61c27	1.5477341
23	0xbf9ea1b7	-1.2393101
24	0x3edf9688	0.43669534
25	0x3f754de9	0.95822006
26	0x3ffc52da	1.9712784
27	0x3f444b78	0.76677656
28	0x3fa4317b	1.28276
29	0xbf03511c	-0.5129564
30	0x3f2f8f68	0.68578196
31	0x3f1515c7	0.58236355

bn3.running_var f4 [32]
0	0x40f06322	7.512101
1	0x4022085a	2.5317597
2	0x411d25c9	9.821725
3	0x4055ec36	3.3425422
4	0x4109ab07	8.604255
5	0x40dce4b2	6.902917
6	0x3fcd32c9	1.6031123
7	0x40079624	2.1185389
8	0x4116d05b	9.425868
9	0x3ff932e2	1.9468653
10	0x40d7d5e5	6.74486
11	0x40a1952c	5.0494595
12	0x40e3bfda	7.1171694
13	0x411b933e	9.723448
14	0x3fb889e6	1.4417083
15	0x40536a37	3.3033578
16	0x40575339	3.3644545
17	0x3fa3d28d	1.279863
18	0x40d73bdc	6.726057
19	0x40f733a0	7.725052
20	0x40f1d2d9	7.5569882
21	0x410d963f	8.849181
22	0x417f258c	15.946667
23	0x410618e6	8.381079
24	0x4116b396	9.418844
25	0x40c0781a	6.014661
26	0x4154a1d4	13.289509
27	0x4115dcba	9.366388
28	0x41043986	8.264044
29	0x40e2403a	7.07034
30	0x40fe3765	7.944262
31	0x40921b55	4.5658364

conv4.weight f4 [32, 32, 3]
0	0x3f52c6c5	0.8233455
1	0x3e5d1dfe	0.21593472
2	0x3f1be363	0.6089384
3	0xbfd745b0	-1.6818142
4	0xbfe591d0	-1.7935123
5	0xbfa8aa4d	-1.3176972
6	0x3f674ead	0.90354425
7	0x3e1ddce1	0.1541629
8	0xbe40c89f	-0.18826531
9	0x3f6839f5	0.90713435
10	0x3e5bb06f	0.21454023
11	0x3f17bd25	0.59272987
12	0x3f10ef86	0.56615484
13	0xbfcc200e	-1.5947282
14	0xbede2f5f	-0.43395516
15	0xbf1f619a	-0.62258303
16	0x3ed9b37f	0.42519757
17	0x3f047fef	0.5175771
18	0x3d8e4953	0.06947579
19	0x3f282efc	0.6569669
20	0xbf6bfe29	-0.9218469
21	0x3f50b904	0.8153231
22	0x3edd9501	0.43277743
23	0xbeca2b4a	-0.39486152
24	0x3e6ff1db	0.23432104
25	0xbe287ca0	-0.1645379
26	0xbef1da7e	-0.4723701
27	0xbf52849d	-0.822336
28	0xbf276c2e	-0.65399444
29	0x3f9ebd13	1.2401451
30	0x3f1908d8	0.5977912
31	0xba1c25fb	-0.0005956587
32	0x3cc79719	0.024364041
33	0x3fd8bfea	1.6933568
34	0x3fa71891	1.3054372
35	0xbdeb64d4	-0.11493841
36	0xbdbf0f7a	-0.09329124
37	0x3f2bca4f	0.67105573
38	0xbf26d204	-0.6516421
39	0xbf40d4b5	-0.75324565
40	0xbfaf32bf	-1.3687361
41	0x3f78c238	0.97171354
42	0xbdbc3363	-0.09189489
43	0x3ec727a8	0.38897443
44	0xbfc9184d	-1.5710541
45	0xbee38d47	-0.44443724
46	0xbfaa8ae0	-1.3323631
47	0xbe95d552	-0.29264313
48	0xbde4d763	-0.11173894
49	0x3fbc2084	1.4697423
50	0xbf44dc3d	-0.76898557
51	0x3f7bc46e	0.983466
52	0xbef2d49e	-0.4742784
53	0x3f91cb44	1.1390157
54	0xbf488b31	-0.7833739
55	0xbdd76bfd	-0.10518644
56	0xbf9334aa	-1.1500447
57	0x3e48239a	0.19544831
58	0x3fa645c9	1.2990047
59	0xbebc2793	-0.36748943
60	0x3de37f7b	0.11108299
61	0x3e9b7515	0.30362764
62	0x3fa3a586	1.2784889
63	0x3d9ca79c	0.076491565
64	0x3f2631d5	0.6491979
65	0xbfa468e8	-1.2844515
66	0xbe497963	-0.19675212
67	0x3f2a2153	0.664571
68	0xbe011851	-0.12606932
69	0xbf2b5f2d	-0.669421
70	0x3bb06b59	0.0053838906
71	0x3f4857ab	0.7825877
72	0x3df35447	0.11881309
73	0x3e8199e9	0.25312737
74	0xbedb5154	-0.42835486
75	0xbf079883	-0.5296709
76	0x3fb25e21	1.3934976
77	0xbe571afa	-0.21006384
78	0xbf33ac24	-0.7018454
79	0xbf3d39f9	-0.73916584
80	0xbea652dc	-0.32485092
81	0x401468c8	2.3188953
82	0xbf1088c6	-0.564587
83	0x3f1b2bcb	0.606137
84	0xbf72f8fd	-0.94911176
85	0x3f6ad57d	0.9173201
86	0x3f99fa71	1.2029554
87	0x40275a15	2.6148732
88	0xbf681e67	-0.9067139
89	0x3fa6c8f4	1.3030076
90	0xbf7c5c02	-0.9857789
91	0x3e5640a3	0.20923094
92	0x3c51222d	0.012764496
93	0xbfa84a59	-1.3147689
94	0xbfac30de	-1.3452413
95	0x3e1996a3	0.1499887
96	0x3ea56c82	0.32309347
97	0x3fbb173f	1.4616469
98	0xbe9f4487	-0.3110697
99	0xbdb4299f	-0.08797001
100	0x3fd45cf3	1.6590866
101	0x3d9e1867	0.07719498
102	0x3fc7d5a6	1.5612075
103	0xbea590c6	-0.32337016
104	0x3e4e5b1c	0.20151943
105	0xbf7d8ad7	-0.9903998
106	0xbe93f167	-0.28895113
107	0x4008cb72	2.1374173
108	0x3f957df5	1.1679064
109	0x3d54c348	0.051944047
110	0xbd27954e	-0.040913872
111	0x3f103858	0.56335974
112	0xbe97ba8d	-0.29634514
113	0x3f17c7dd	0.5928934
114	0x3f940ee9	1.156705
115	0x3e028db5	0.1274937
116	0x3f16d9cf	0.589261
117	0xbf65dadb	-0.8978707
118	0xbf98ec4e	-1.1947114
119	0x3f85932e	1.0435541
120	0xbf0f7406	-0.5603641
121	0xbe2f3efe	-0.17113873
122	0xbd00134d	-0.031268407
123	0x3ee62a52	0.44954163
124	0xbf0fea53	-0.56216925
125	0xbf503ee6	-0.81345975
126	0x3f6e72a9	0.9314371
127	0xbf0943e3	-0.5361921
128	0xbf885d53	-1.065348
129	0x4003ddbd	2.0604088
130	0xbd299766	-0.04140415
131	0xbf13f85d	-0.5780085
132	0xbfd42785	-1.657456
133	0x3f3e6127	0.7436699
134	0x3f918b44	1.1370625
135	0x3f3d756b	0.7400729
136	0x3f81f5d9	1.0153152
137	0xbf676c1d	-0.9039934
138	0xbf42c467	-0.76080936
139	0x3ef010f1	0.46887925
140	0x3f4c67ba	0.79845774
141	0x3ba013f0	0.0048851892
142	0x3e91bffc	0.28466785
143	0xbf85e622	-1.0460856
144	0x3ead2f45	0.33825126
145	0x3f1a7b08	0.6034398
146	0xbffea1e0	-1.989315
147	0x3ef6cb49	0.4820197
148	0xbe905d3c	-0.28196132
149	0x3e3cee3e	0.18450257
150	0xbf29241d	-0.6607073
151	0xbd7e1bef	-0.06203836
152	0x3f96721d	1.1753575
153	0x3f9ae863	1.2102169
154	0x3e9768fc	0.29572284
155	0xc0190af5	-2.3912938
156	0x3f08d8f0	0.5345602
157	0xbf552d7f	-0.83272547
158	0x3d15cc94	0.036572054
159	0xbfa53fec	-1.2910132
160	0x3e584d7a	0.21123305
161	0xbecf91d3	-0.40540943
162	0xbfb5157e	-1.4147184
163	0xbea5aded	-0.32359257
164	0xbf286f97	-0.6579527
165	0xbf4ff953	-0.81239814
166	0x3fc92307	1.5713814
167	0xbfa093ee	-1.2545145
168	0xbf93e2ca	-1.1553586
169	0xbeeedb6e	-0.46651787
170	0x3f33a494	0.70173
171	0xbd804dae	-0.06264816
172	0x3f4dfe4b	0.80466145
173	0x3f2294b4	0.6350815
174	0x3e5edeec	0.21764725
175	0xbe8f9c43	-0.28048906
176	0x3f2ed19f	0.68288606
177	0x3efca235	0.49342504
178	0xbfd888d7	-1.691676
179	0x3dcf17a9	0.10111935
180	0x3fa11aaf	1.2586268
181	0xbeff2efd	-0.49840537
182	0xbcb87aec	-0.022519551
183	0xbec22a8f	-0.37923095
184	0x3e7208cd	0.2363617
185	0xbf835edb	-1.0263323
186	0xbf301733	-0.687854
187	0xbeebe1ca	-0.460707
188	0x3e731fa2	0.23742536
189	0x3e1cb71c	0.15304226
190	0xbec15b72	-0.3776508
191	0x3fb14494	1.3849053
192	0x3fad2193	1.3525871
193	0xbf0cffcd	-0.5507782
194	0xbf313c5f	-0.69232744
195	0xbef84dd2	-0.48496872
196	0x3f47e633	0.7808563
197	0x3f1cd7c4	0.6126673
198	0xbfae2adf	-1.3606833
199	0x3df47de2	0.11938073
200	0xbee5bb5e	-0.44869512
201	0xbe85e131	-0.2614837
202	0x3df654ad	0.120278694
203	0xbfcac9fb	-1.584289
204	0xbf454a07	-0.7706608
205	0x3f45d856	0.7728323
206	0x3d1133a4	0.03544964
207	0x3e1a9550	0.1509602
208	0xbff5d87a	-1.9206688
209	0x3f9cc3a8	1.224721
210	0x3ed561c5	0.41676155
211	0x3dfb8c71	0.122826464
212	0x401af7f0	2.421383
213	0x3f6eb8c8	0.93250704
214	0x3e64d1cd	0.22345658
215	0x3d6bee30	0.0576002
216	0xbf235a72	-0.63809884
217	0x3f3b6921	0.7320729
218	0xbf9203ee	-1.1407449
219	0x3ee5fa87	0.449177
220	0x3f745d23	0.95454615
221	0xbe5acb49	-0.2136661
222	0xbf0c778e	-0.54869926
223	0xbf227905	-0.6346591
224	0x3fdb8c32	1.7152159
225	0x3fdb4543	1.7130512
226	0x3fa5ee1b	1.2963289
227	0xbf0137e9	-0.5047594
228	0x3f41e7fd	0.7574461
229	0x3e6bb153	0.23016863
230	0xbf5d3d6a	-0.86421835
231	0xbf8819b7	-1.0632848
232	0x3f963577	1.1735066
233	0x3f31628b	0.6929099
234	0xbf9eaeba	-1.2397072
235	0xbebf72b1	-0.3739219
236	0x3f1859bc	0.59511924
237	0xbf214757	-0.6299948
238	0x3d9ce0a7	0.076600365
239	0x3bc09220	0.0058767945
240	0x3f6b9154	0.9201863
241	0xbea8a5bd	-0.32938948
242	0xbf91f577	-1.1403035
243	0x3d2bb3b0	0.04191941
244	0x3e193964	0.14963299
245	0x3f5ae387	0.8550343
246	0x3ea8067a	0.3281744
247	0x3fceb65f	1.6149405
248	0xc005f6d2	-2.0931897
249	0x3f0f6fea	0.5603014
250	0xbeddcb5d	-0.43319216
251	0x3b3cf9f8	0.0028835516
252	0x3ec1dd41	0.37864116
253	0x3df17bd6	0.11791198
254	0xbf3a03ef	-0.7266225
255	0x3f6074d5	0.8767827

conv4.bias f4 [32]
0	0x3ea67108	0.3250811
1	0x3cef3c54	0.029203571
2	0xbedb967a	-0.42888242
3	0x3e0f93ba	0.14021197
4	0xbe3af2c9	-0.18256678
5	0xbe664078	-0.2248553
6	0x3e1f07b6	0.15530285
7	0x3c6e5106	0.014545685
8	0xbed24df2	-0.41075093
9	0xbcd5b8d1	-0.026089104
10	0xbe894321	-0.26809028
11	0xbdcb7a1b	-0.09935399
12	0x3e241947	0.16025268
13	0xbe6dd000	-0.23223877
14	0x3ce0305a	0.027366806
15	0xbd38e1bf	-0.045137163
16	0x3ca1e6e0	0.01976341
17	0xbdcba195	-0.09942929
18	0xbf085a94	-0.5326321
19	0xbb9caf78	-0.0047816597
20	0x3c93874c	0.01800885
21	0x3dcc951d	0.099893786
22	0x3cf76060	0.030197322
23	0x3caf2614	0.021380462
24	0x3e0e8873	0.13919239
25	0xbebf7031	-0.37390283
26	0xbe993be9	-0.2992852
27	0xbe445018	-0.19171178
28	0xbf1286cb	-0.5723693
29	0xbe6b3090	-0.22967744
30	0xbd8458b3	-0.064622305
31	0x3d2b00e8	0.04174891

bn4.weight f4 [32]
0	0x40a25ee2	5.0740824
1	0x40cf482b	6.4775596
2	0x4060cdfe	3.5125728
3	0x40aafd3d	5.343413
4	0x40c08c60	6.0171356
5	0x40b0c12e	5.5235815
6	0x40a69204	5.205324
7	0x40bf58ec	5.9796047
8	0x40b8f80b	5.7802787
9	0x40c13392	6.037545
10	0x408548c3	4.165132
11	0x40aaa10f	5.3321605
12	0x40b78b1a	5.73573
13	0x40c0aa75	6.0208077
14	0x409d8ae3	4.923204
15	0x40c70f9f	6.220657
16	0x40dae1ab	6.8400474
17	0x40bccb19	5.899792
18	0x40c8e91c	6.2784557
19	0x40b38623	5.610124
20	0x408b3f45	4.3514733
21	0x40c080d2	6.015725
22	0x40a4d673	5.151178
23	0x40bb3e23	5.851335
24	0x40905489	4.510319
25	0x40b73eca	5.7264147
26	0x40a9b3bc	5.30319
27	0x40ab4235	5.351832
28	0x40c8b99e	6.2726583
29	0x40aa85f5	5.328852
30	0x40ad20e2	5.410264
31	0x40bbbe1f	5.866958

bn4.bias f4 [32]
0	0xc042f8fc	-3.0464468
1	0xc031424b	-2.7696712
2	0xbd8e7bf9	-0.0695724
3	0xc00a30b1	-2.159222
4	0xbfd3e1d9	-1.6553298
5	0xc04f5a0c	-3.239871
6	0xc04431ea	-3.0655465
7	0xc0a59a1f	-5.1750636
8	0xc04b1e5b	-3.1737278
9	0xbfa1ad51	-1.2631017
10	0xc025b085	-2.588899
11	0xc0692dae	-3.643413
12	0xbfb88ee5	-1.4418608
13	0xc01d6902	-2.4595342
14	0xbffad019	-1.9594756
15	0xc078a402	-3.8850102
16	0xc043a1a0	-3.0567398
17	0xc085349c	-4.162672
18	0xbea49e8f	-0.3215222
19	0xbf72de6d	-0.94870645
20	0xbf263765	-0.64928275
21	0xbfc28e26	-1.519963
22	0xbf352c26	-0.7077049
23	0xc067b2c2	-3.6202855
24	0xbfa00e36	-1.2504337
25	0xc04836a6	-3.1283355
26	0xc08a35e3	-4.319078
27	0xc04d8633	-3.2113159
28	0xc03d5b85	-2.958711
29	0xc0928dda	-4.579816
30	0xc02b0ed7	-2.6727808
31	0xc073b68a	-3.8080163

bn4.running_mean f4 [32]
0	0xbb2145ff	-0.0024608371
1	0xbe74cda9	-0.23906578
2	0xbea9c9e8	-0.33161855
3	0x3e3c20e0	0.18371916
4	0xbd8e5d75	-0.06951419
5	0xbef389dd	-0.4756612
6	0x3e3400af	0.17578386
7	0xbec07f95	-0.37597337
8	0xbf47be61	-0.7802487
9	0xbe5df836	-0.21676716
10	0x3dcef97f	0.10106181
11	0x3dbdb95a	0.09263869
12	0x3d65ad02	0.056073196
13	0xbef10cc9	-0.47080067
14	0x3ea8aebd	0.32945815
15	0xbe66b0b3	-0.22528343
16	0x3d76979a	0.060203172
17	0x3e2fadc3	0.17156129
18	0xbf25cff1	-0.6477042
19	0xbd971218	-0.07376498
20	0xbd81f59b	-0.06345674
21	0xbeb50c90	-0.35361147
22	0xbd3c89d9	-0.0460299
23	0xbd88ff70	-0.06689346
24	0x3ddc140f	0.107460134
25	0xbe843417	-0.2582099
26	0xbe89d773	-0.26922187
27	0xbec0e9f4	-0.37678492
28	0xbf6e0879	-0.9298168
29	0xbe8a4b5d	-0.27010623
30	0xbe77efb2	-0.2421253
31	0x3e6b22c2	0.22962478

bn4.running_var f4 [32]
0	0x3f9c32d6	1.2203014
1	0x3f9c0b3a	1.2190926
2	0x40107519	2.257147
3	0x3fd5b81a	1.6696808
4	0x3fadd318	1.3580046
5	0x3f9aeeca	1.2104123
6	0x3f9c5bce	1.2215517
7	0x3fc71b44	1.5555196
8	0x3f9770f7	1.1831349
9	0x3fc0c6c0	1.5060654
10	0x3fb37d3f	1.4022597
11	0x3f6d7af5	0.9276574
12	0x3f87bcb1	1.0604459
13	0x3ff34010	1.9003925
14	0x3f8bfbab	1.0936178
15	0x3fc9d4af	1.5768031
16	0x3fe541ee	1.7910745
17	0x3f9e44b7	1.236472
18	0x3ff8d433	1.9439758
19	0x3fc095b2	1.5045683
20	0x3fa9b052	1.3256934
21	0x3fbaa264	1.4580808
22	0x3fefbfec	1.8730445
23	0x3fa25adf	1.2683982
24	0x3fbd57c2	1.4792407
25	0x3fac807c	1.347671
26	0x3fdc0f37	1.7192143
27	0x3fc7be0c	1.5604873
28	0x3fd82e45	1.688912
29	0x3f9b8618	1.2150297
30	0x3fd5fb2e	1.6717279
31	0x3fe88787	1.816636

conv5.weight f4 [16, 32, 1]
0	0x3ea789eb	0.3272241
1	0xc004c566	-2.0745482
2	0x3fe503a3	1.7891735
3	0xbef688de	-0.48151296
4	0xc049668a	-3.1468835
5	0xbfd46051	-1.6591893
6	0xbde73203	-0.11288836
7	0x402249c6	2.5357528
8	0x3fafd8ec	1.3738074
9	0xbfd789b2	-1.6838896
10	0x3fb6b427	1.4273728
11	0xc00833c7	-2.1281602
12	0xbfa0e11f	-1.2568702
13	0x3fae9b22	1.3641093
14	0xbf331ae4	-0.69962907
15	0xbc8ae6c9	-0.01695575
16	0x3f7251b0	0.94655895
17	0xbf3d026f	-0.7383184
18	0x3f8594d7	1.0436047
19	0xbf1b34c6	-0.606274
20	0xbfa43d6c	-1.2831244
21	0x3f4c6895	0.7984708
22	0x3e9a6f26	0.30162925
23	0xbe7f8900	-0.24954605
24	0xbfa3d42c	-1.2799125
25	0x3ee29f0f	0.44261977
26	0x3fba6e43	1.4564899
27	0xbfd9a22e	-1.7002618
28	0xbfe5e03f	-1.795906
29	0xbf6f649d	-0.935129
30	0x400c25ed	2.1898148
31	0x3eb3c653	0.35112247
32	0x3fa07207	1.2534798
33	0xbf24a93f	-0.6432075
34	0x3e4435c8	0.19161141
35	0x3e692e5d	0.22771592
36	0xbfa27e0e	-1.2694719
37	0xc028ab37	-2.6354501
38	0x3f75dac4	0.96036935
39	0x3f44f6eb	0.76939267
40	0x3f6a40b3	0.91504973
41	0xbe484b81	-0.19560052
42	0x3f877a5f	1.058422
43	0x401ce0ca	2.45122
44	0x3fa1d6a7	1.2643632
45	0xbe996f08	-0.29967523
46	0xbe32caef	-0.17460226
47	0x3eaca681	0.33720782
48	0x40333ce4	2.8005915
49	0xc06b3909	-3.6753561
50	0xbf810eb6	-1.0082614
51	0xbebe82de	-0.3720922
52	0x3f6b8f13	0.9201519
53	0x3f0bb5a3	0.5457403
54	0x3f8e7708	1.1130075
55	0x3ee86e5b	0.45396695
56	0xbfcc2a06	-1.5950325
57	0xbf6da936	-0.9283632
58	0xbea84f61	-0.3287306
59	0xbfb2bcb7	-1.3963841
60	0xc02e0efc	-2.7196646
61	0x3f5ef9ca	0.870999
62	0xc0721052	-3.782246
63	0xc019ac61	-2.4011462
64	0xc03e822a	-2.9766946
65	0x4036462c	2.848033
66	0xbe23b1b2	-0.15985754
67	0xc085ccf9	-4.181271
68	0xbf51ae84	-0.81906915
69	0x3f4d13f6	0.8010858
70	0x3f471d08	0.77778673
71	0x3f318498	0.69342947
72	0xbfe26e73	-1.7689956
73	0x3e64c2ce	0.22339937
74	0x3f9e0cdb	1.2347673
75	0xc0bc6248	-5.886997
76	0x3fa7babb	1.3103861
77	0x3f1ac5e1	0.6045819
78	0xbd2fc406	-0.042911552
79	0x400a09a8	2.1568394
80	0x4005e9de	2.0923991
81	0xc099d51d	-4.807265
82	0x3fb84563	1.4396175
83	0xbfa72efa	-1.3061211
84	0x401210e4	2.282281
85	0xc0ac987b	-5.3936133
86	0x3fa6ba0b	1.3025526
87	0xc085159a	-4.158887
88	0xc015788f	-2.3354833
89	0x40171f31	2.3612788
90	0xc0728414	-3.7893114
91	0x3fe07beb	1.7537817
92	0xbfac9505	-1.3482977
93	0x3fce3bf5	1.6112047
94	0x3e5d52bd	0.21613593
95	0xc0990038	-4.7812767
96	0xbf909d96	-1.1298091
97	0x401cea4e	2.4518008
98	0xbd3e2334	-0.04642029
99	0x3f5dfd6c	0.86714816
100	0xbf884a3b	-1.0647653
101	0x3f646991	0.8922358
102	0x400b5503	2.1770637
103	0xbfec0d32	-1.8441527
104	0x40233dd2	2.5506482
105	0x3f247de9	0.64254624
106	0x3e3bea86	0.18351182
107	0x3f1a11e7	0.60183567
108	0x3fdb195f	1.7117118
109	0xc07b8959	-3.930258
110	0x3e5ce681	0.21572305
111	0xbfe9ac63	-1.8255733
112	0xc01796f1	-2.3685877
113	0x3e0e325c	0.13886398
114	0xc055ff93	-3.343724
115	0xbf95847b	-1.1681055
116	0xbf9cbada	-1.2244523
117	0xbe9a800b	-0.30175814
118	0x3ef78adc	0.4834813
119	0xbe0b7cde	-0.13621852
120	0x3f97e278	1.1865988
121	0x3f3a3617	0.72738785
122	0xbfb63874	-1.4235978
123	0xc09a16b0	-4.8152695
124	0x3f8cf38a	1.1011822
125	0xc04c5810	-3.192875
126	0xbfc5fc13	-1.5467552
127	0x4043d4b7	3.059858
128	0x3f01d0e0	0.5070934
129	0xc01f7f3c	-2.4921408
130	0xbff8d555	-1.9440104
131	0x3fd70bea	1.6800511
132	0xbf155623	-0.5833456
133	0xbfb0d1bf	-1.381401
134	0x4023673d	2.5531762
135	0x4039dc76	2.9040809
136	0xbfaec4dd	-1.3653828
137	0xbe0df9ac	-0.13864774
138	0x3fecaa92	1.8489554
139	0xbef2d423	-0.47427472
140	0x3e91aad8	0.28450656
141	0x3e47d115	0.19513352
142	0x3e8c62fb	0.27419266
143	0xc0437474	-3.0539827
144	0xbff39306	-1.9029243
145	0xbeb2ec7b	-0.34946045
146	0x3ed59f4e	0.41723102
147	0xbfec5c4d	-1.8465668
148	0x3d0a7b03	0.03380872
149	0xbe3c7225	-0.18402918
150	0x3ea1f66b	0.31633314
151	0x3f24d317	0.643846
152	0x3eadb59a	0.33927613
153	0xbca151c1	-0.019692304
154	0xbf8eaee5	-1.1147124
155	0x3f748bdf	0.95525926
156	0x4042891f	3.0396192
157	0xbf882505	-1.0636297
158	0xbfe16eb9	-1.7611915
159	0xbf8c9d2a	-1.0985463
160	0xc052ec6c	-3.29568
161	0xbe59a593	-0.21254568
162	0xc00b2b64	-2.1745234
163	0xc0a8cee8	-5.275257
164	0xc04fc0df	-3.246147
165	0xbf3bfd99	-0.73433834
166	0xc0043f87	-2.0663774
167	0xbfd30b25	-1.6487776
168	0xbe1b4f88	-0.15167058
169	0x403ce56f	2.9515035
170	0xbf10dc7b	-0.56586426
171	0x40044712	2.0668378
172	0xbef220ed	-0.47290745
173	0x400fd72d	2.2475083
174	0xc0499720	-3.149849
175	0x3fc8a1f1	1.567442
176	0x3e17d35c	0.14826721
177	0x4059986c	3.399928
178	0x3b23484a	0.0024914914
179	0x3fb2736a	1.3941472
180	0x3f90097f	1.1252898
181	0xc01b0ef8	-2.4227886
182	0xbe24a2db	-0.1607775
183	0xc01d61c4	-2.4590921
184	0xbef0dcec	-0.4704355
185	0x404290d9	3.0400908
186	0xbfc21346	-1.5162132
187	0xbdd5a463	-0.10431745
188	0xc020e9db	-2.5142734
189	0x40632890	3.5493507
190	0xbf76a7a8	-0.96349573
191	0x3f978ae8	1.1839266
192	0x3f68080f	0.90637296
193	0xbf283c1e	-0.6571673
194	0x3d9e20e1	0.07721115
195	0x3fe33371	1.7750074
196	0x3ea0be33	0.3139511
197	0x40189fa4	2.3847437
198	0x3f08de34	0.53464055
199	0xc0658649	-3.586321
200	0x3f9b28b3	1.2121795
201	0xbfd9bb1e	-1.7010229
202	0x3f4670b8	0.77515745
203	0xbf22ab06	-0.6354221
204	0xc0843b21	-4.132218
205	0x3f6408d0	0.89075947
206	0xbfbdb543	-1.4820942
207	0x3f2f1940	0.68397903
208	0x3f984f02	1.1899111
209	0x3e522f0f	0.20525764
210	0x3febece9	1.8431674
211	0x3ec34a9a	0.38142854
212	0x3fed32c0	1.8531113
213	0xc0633749	-3.5502493
214	0xc08efcb8	-4.4683495
215	0x3f8ab037	1.0835027
216	0xbf7d3a01	-0.9891663
217	0xbe55a677	-0.20864283
218	0xbfecdada	-1.8504288
219	0xbf2d41ac	-0.6767833
220	0x3f024236	0.5088228
221	0xc003cd88	-2.0594196
222	0x3f8c0c5b	1.094127
223	0x3fe22970	1.7668896
224	0x3fd2e958	1.6477461
225	0x401fae41	2.4950106
226	0x3ecae465	0.39627376
227	0x3f8fbb43	1.1229023
228	0xbfe0d957	-1.7566327
229	0x40088e00	2.133667
230	0xc06c00db	-3.6875522
231	0xbf30ffbf	-0.6914024
232	0x3c37c7ff	0.011217116
233	0x3fcb19b1	1.5867215
234	0xc06c6454	-3.6936235
235	0x3f44a66f	0.7681646
236	0x3f8aa7cd	1.0832459
237	0x3f61014b	0.878926
238	0x3ff04680	1.8771515
239	0xc06b49cf	-3.67638
240	0xbfff32a5	-1.993733
241	0xbedfd701	-0.43718722
242	0xc02e7d72	-2.7264066
243	0xbf4684b0	-0.77546215
244	0xc01c997a	-2.4468675
245	0xbf364e4c	-0.7121322
246	0x3dd4c44e	0.10389005
247	0x3f9c4482	1.2208407
248	0xbe24e3a4	-0.16102463
249	0xbe7aadef	-0.24480413
250	0xbe008de9	-0.12554134
251	0xbfa482af	-1.2852381
252	0xbfa87085	-1.3159338
253	0xc000b76a	-2.0111947
254	0xbed03f3a	-0.40673238
255	0x3e90c3fe	0.2827453

conv5.bias f4 [16]
0	0x3f504962	0.81361973
1	0x3ef2a137	0.47388622
2	0xbf098e41	-0.5373269
3	0x3e8523e9	0.2600396
4	0x3b939207	0.004503492
5	0xc02320c1	-2.5488741
6	0xbfec4d84	-1.8461156
7	0x3ea723ef	0.32644603
8	0x3ecb1b86	0.39669436
9	0xbf886156	-1.0654705
10	0x3f213db5	0.6298478
11	0xbfaac62b	-1.3341726
12	0xbf553454	-0.8328297
13	0x3f1e62b0	0.61869335
14	0x3f35b367	0.7097687
15	0xbfb3418c	-1.4004378
