networks/pretrained_models/iscx2016vpn/NiN_CNN1D_TrafficClassification_best_model_without_aux.pth (torch, 90986 bytes, 44 tensors)

conv1.weight f4 [16, 1, 2]
0	0xbf399aa2	-0.72501576
1	0x3e7cba53	0.24680452
2	0x3f2a687e	0.6656569
3	0xbf12e2e3	-0.5737745
4	0x3e8e65fe	0.2781219
5	0xbf383a8e	-0.7196435
6	0xbbb62367	-0.0055584195
7	0xbf211946	-0.6292919
8	0xbf6156ac	-0.88022876
9	0xbe1261bb	-0.14295094
10	0x3f4fa83f	0.811161
11	0xbd2a19a5	-0.041528363
12	0xbd59da67	-0.0531868
13	0xc018b23a	-2.385878
14	0xbe647a19	-0.22312202
15	0x3efcfe29	0.4941266
16	0xbf1f8ef9	-0.62327534
17	0x3f28c327	0.6592278
18	0xbf4f40e2	-0.8095838
19	0x3dd3a470	0.10334098
20	0x3eaf2840	0.34210396
21	0xbecaaace	-0.3958344
22	0xbf1f17a0	-0.62145424
23	0xbee96ee1	-0.45592406
24	0xbd8418a3	-0.064500116
25	0x3f508b30	0.81462383
26	0xbed5c006	-0.41748065
27	0xbf1956c1	-0.59898
28	0xbe442f08	-0.19158566
29	0x3f188f5d	0.59593755
30	0x3e643a52	0.22287872
31	0x3ebd821d	0.3701333

conv1.bias f4 [16]
0	0x3ef15c26	0.47140616
1	0xbe05bf11	-0.13061167
2	0x3be778e1	0.0070639704
3	0xbf0c287c	-0.54749274
4	0x3edcfb4c	0.43160474
5	0xbeb05934	-0.34443057
6	0xbf1abf6c	-0.60448337
7	0x3f21b30a	0.63163817
8	0xbcdfbe43	-0.027312404
9	0x3f38a82a	0.721316
10	0xbef20198	-0.4726684
11	0xbef59184	-0.47962582
12	0xbf3b5b21	-0.73185927
13	0xbe284e92	-0.16436222
14	0x3f51e13b	0.819843
15	0xbecef7f8	-0.4042356

bn1.weight f4 [16]
0	0x3f8e1771	1.1100904
1	0x3f82c19b	1.0215334
2	0x3f8b23ed	1.0870339
3	0x3f5f5444	0.87237954
4	0x3f890b52	1.070658
5	0x3f840ca2	1.0316355
6	0x3f872a6f	1.0559825
7	0x3f56d430	0.8391752
8	0x3f8aa6a9	1.0832111
9	0x3f8be397	1.092883
10	0x3f5ad184	0.85475945
11	0x3f5b2688	0.8560567
12	0x3f5ecbd0	0.87029743
13	0x3f62ac53	0.88544196
14	0x3f5fc44e	0.8740891
15	0x3f71b581	0.9441758

bn1.bias f4 [16]
0	0xbeecdb3b	-0.4626101
1	0xbd31dbb9	-0.043422434
2	0xbe47ba3f	-0.19504641
3	0xbed86b0c	-0.4226917
4	0xbca8dc30	-0.020612806
5	0xbdf1119b	-0.11770936
6	0xbdf307f4	-0.11866751
7	0x3cd3f8c8	0.025875464
8	0x3d60c50f	0.05487543
9	0xbe455f8a	-0.19274727
10	0xbe41e3bc	-0.1893453
11	0x3d446989	0.04795221
12	0xbe375d93	-0.1790679
13	0x3dc562a2	0.09637953
14	0xbe16535c	-0.14680237
15	0x3dbb5a4b	0.091480814

bn1.running_mean f4 [16]
0	0x3ec5b2f0	0.3861308
1	0xbdea40ac	-0.114381164
2	0xbd935e75	-0.071957506
3	0xbf293855	-0.6610158
4	0x3e7ee7d1	0.24893118
5	0xbe540bdc	-0.20707649
6	0xbf853036	-1.0405338
7	0x3f2e1fc1	0.680172
8	0xbca97682	-0.020686392
9	0x3f18665a	0.59531176
10	0xbef6f99c	-0.48237312
11	0xbf2c0b6e	-0.6720494
12	0xbf1903f8	-0.5977168
13	0xbeb1245b	-0.3459805
14	0x3f646778	0.8922038
15	0xbe98b731	-0.29827264

bn1.running_var f4 [16]
0	0x3cfcf92e	0.030880537
1	0x3cc4d67c	0.024028055
2	0x3ceeea3d	0.029164428
3	0x3d0ee903	0.034890186
4	0x3dab5415	0.08365647
5	0x3d5c207b	0.053741913
6	0x3f02aab2	0.5104171
7	0x3c56c476	0.013108363
8	0x3cce156d	0.025156701
9	0x3d47365b	0.04863582
10	0x3c0b5362	0.008503767
11	0x3dabe482	0.08393194
12	0x3d55d2e0	0.05220306
13	0x3d9936c9	0.074811526
14	0x3cad9522	0.021189276
15	0x3cd1e244	0.025620587

conv2.weight f4 [16, 16, 1]
0	0x3cad1f57	0.021133108
1	0x3e0d97a0	0.13827372
2	0xbefcfac7	-0.49410078
3	0xbed3cc8a	-0.41366988
4	0x3dc4f8ab	0.09617742
5	0x3e5c8126	0.21533641
6	0xbe5747c3	-0.21023469
7	0x3e0b28b6	0.13589749
8	0x3e590ef1	0.21197106
9	0x3db2894a	0.08717592
10	0xbcf5342d	-0.029932106
11	0x3e062023	0.13098197
12	0xbe9b66c2	-0.30351835
13	0x3e8d57e5	0.2760612
14	0xbe25feca	-0.16210476
15	0xbe21611b	-0.15759699
16	0xbe023fd5	-0.12719662
17	0x3e39f640	0.18160343
18	0x3e2a92f6	0.16657624
19	0x3e56a6bb	0.2096204
20	0xbd963538	-0.073343694
21	0x3e8b0ef3	0.27159843
22	0xbd722c93	-0.05912454
23	0xbef3338c	-0.47500265
24	0xbe63ca7e	-0.22245213
25	0xbe2444ad	-0.16041823
26	0xbd4b8216	-0.049684606
27	0xbe6e1d81	-0.23253442
28	0xbe0a0b27	-0.13480817
29	0x3e740b07	0.23832332
30	0xbcb027a7	-0.021503283
31	0x3c1d9f7e	0.009620545
32	0xbee72822	-0.45147806
33	0xbf2ea7d8	-0.6822486
34	0x3d1ac08a	0.037781276
35	0xbdd57b07	-0.10423856
36	0x3da11e3f	0.07867097
37	0xbe6c43a7	-0.23072682
38	0x3e4bb4e7	0.19893228
39	0xbdd52663	-0.10407712
40	0xbf8cac45	-1.0990072
41	0x3e8b724e	0.27235645
42	0xbf778a47	-0.9669537
43	0x3e631f1f	0.2217984
44	0x3e18357e	0.14864156
45	0x3e251e3a	0.16124812
46	0xbee9e0ab	-0.4567922
47	0x3d1fba7e	0.038996212
48	0xbf21011f	-0.62892336
49	0xbedf3fd8	-0.43603396
50	0xbd9f6d52	-0.07784523
51	0xbec8336d	-0.39101735
52	0xbd49dc0f	-0.04928213
53	0x3eea3d5d	0.4574994
54	0x3d9658ff	0.073411934
55	0xbf8968f9	-1.073516
56	0x3ea35eb5	0.31908193
57	0xbeb246f2	-0.34819752
58	0xbf4dc8e0	-0.80384636
59	0x3ddacd41	0.1068368
60	0xbe103e59	-0.14086284
61	0x3dfa83f7	0.122322015
62	0xbf9913b0	-1.1959133
63	0x3d0bf1ec	0.03416626
64	0x3d8ecdfe	0.06972884
65	0x3e2e3d0f	0.1701548
66	0x3e682a35	0.2267235
67	0x3e16b5c3	0.14717774
68	0x3efcc759	0.4937084
69	0xbe69fbbe	-0.22849938
70	0xbd3e3ae2	-0.046442874
71	0xbe1a1594	-0.15047294
72	0x3e8cb53d	0.27482024
73	0x3c6e2e9b	0.014537479
74	0x3e3e2869	0.18570103
75	0x3e735533	0.2376297
76	0x3e121e9f	0.14269494
77	0x3d0cb952	0.034356423
78	0xbd9fb7ba	-0.07798715
79	0xbe899d4d	-0.26877823
80	0x3f1c12dc	0.6096628
81	0x3e07c2f4	0.13257962
82	0x3ec659b6	0.3874032
83	0x3da18e2c	0.07888445
84	0x3e183a16	0.14865908
85	0xbd11c4b2	-0.035587974
86	0x3ec0280c	0.37530553
87	0x3d8d4c2b	0.068992935
88	0xbe6beea7	-0.23040257
89	0x3e277c42	0.16355994
90	0x3dac7fb0	0.08422792
91	0x3e21623c	0.1576013
92	0x3e50df14	0.20397598
93	0x3e431307	0.19050227
94	0x3e121042	0.14264014
95	0x3dc6f9ed	0.09715638
96	0x3e258c2a	0.1616675
97	0xbcffa089	-0.031204479
98	0x3e36d355	0.17854054
99	0xbe75c87c	-0.2400226
100	0x3d6e3918	0.058159918
101	0x3d392d3c	0.045209154
102	0xbe7e9f20	-0.24865389
103	0xbdcfa764	-0.10139349
104	0x3a3e5400	0.0007260442
105	0x3c9ce220	0.019150794
106	0xbe3cb6fd	-0.1842918
107	0xbe047334	-0.12934572
108	0xbe633dba	-0.22191516
109	0x3d2d3c60	0.042293906
110	0x3e207662	0.1567016
111	0x3d3a0890	0.045418322
112	0xbed4c2a9	-0.41554764
113	0xbdbf659d	-0.09345553
114	0x3dddc1a3	0.10827949
115	0xb9ded82f	-0.0004250421
116	0xbdbde13c	-0.09271476
117	0x3e9ff387	0.31240484
118	0x3d8129cb	0.063067995
119	0x3b3417a7	0.0027479918
120	0x3d1a842c	0.037723705
121	0x3d9102fe	0.07080649
122	0xbd0f4b8d	-0.03498416
123	0x3e4ad096	0.19806132
124	0x3e83ecad	0.25766507
125	0x3e9e3b25	0.309045
126	0x3bd07b46	0.0063623516
127	0x3e4ff57e	0.20308492
128	0x3ebb0d69	0.3653367
129	0x3e7d46f4	0.24734098
130	0xbe60cf6f	-0.2195413
131	0xbf1bffcc	-0.6093719
132	0x3ea01818	0.31268382
133	0x3ec14a03	0.3775178
134	0xbbc13ca8	-0.0058971234
135	0xbe49898b	-0.19681375
136	0x3e409f7e	0.18810841
137	0x3e9ff50b	0.3124164
138	0xbd4c417a	-0.04986713
139	0xbe160dd0	-0.14653707
140	0x3e5623c6	0.20912084
141	0xbd6983e2	-0.05701054
142	0x3e6e4ad4	0.23270732
143	0x3bd29f00	0.0064276457
144	0xbf1ddfcc	-0.6166961
145	0x3e5ba1ce	0.21448442
146	0xbc138486	-0.009003764
147	0x3e2f2496	0.171038
148	0x3cb42e96	0.02199487
149	0x3dd23867	0.10264664
150	0x3e7c23ce	0.24623033
151	0xbe048261	-0.1294036
152	0xbf9a1fb1	-1.2040921
153	0xbec44ffb	-0.3834227
154	0x3e3676ab	0.17818706
155	0x3e982a6e	0.2971987
156	0xbe50c7d7	-0.20388733
157	0x3d6a68aa	0.05722872
158	0x3d98e008	0.074646056
159	0x3e707fe2	0.23486283
160	0xbc415580	-0.01180017
161	0x3e7dd0df	0.24786709
162	0x3e92041a	0.28518754
163	0x3ee74c83	0.4517556
164	0xbd873d60	-0.06603503
165	0x3d191d22	0.0373813
166	0x3f28cc37	0.6593661
167	0xbbf5e6ef	-0.007504336
168	0x3cc18500	0.02362299
169	0x3d963b9c	0.07335588
170	0xbd26fae8	-0.040766627
171	0xbf0e03b5	-0.55474406
172	0xbf864ca6	-1.0492141
173	0xbf15dbd2	-0.58538544
174	0xbd38de61	-0.045133952
175	0xbf0700ad	-0.52735406
176	0xbc952240	-0.018204808
177	0x3d429638	0.04750654
178	0xbe47f966	-0.19528732
179	0xbe72b4d4	-0.23701793
180	0x3e7dd0b0	0.24786639
181	0xbe7b44b4	-0.24537927
182	0xbe06b184	-0.13153654
183	0xb9621000	-0.00021559
184	0xbe3e68e4	-0.185947
185	0xbe17e374	-0.1483286
186	0xbd82ace0	-0.063806295
187	0xbe1adac6	-0.15122518
188	0xbe2cbe98	-0.16869581
189	0xbe080142	-0.1328173
190	0xbdde8d84	-0.10866836
191	0xbe6704a8	-0.2256037
192	0xbe56561e	-0.20931289
193	0x3deabeb4	0.11462155
194	0xbe61d957	-0.22055565
195	0xbef60e5c	-0.4805783
196	0xbe50335b	-0.2033209
197	0x3e9c2781	0.3049889
198	0x3d81e2d0	0.06342089
199	0xbea8a0f5	-0.329353
200	0xbfbbaae7	-1.466153
201	0x3e242a1b	0.16031687
202	0xbe3e2e46	-0.1857234
203	0xbe09037f	-0.1338024
204	0xbd5258d5	-0.051354248
205	0xbdf729bd	-0.12068508
206	0xbe0b5938	-0.13608253
207	0x3e52f9bd	0.2060308
208	0xbdf1b4ae	-0.1180204
209	0x3dbb09a2	0.09132697
210	0x3d4705a6	0.04858937
211	0xbd966b65	-0.07344703
212	0x3dca8928	0.09889442
213	0xbd53b23f	-0.05168366
214	0xbdf40db1	-0.11916674
215	0xbef426b7	-0.47685787
216	0x3e934cca	0.28769523
217	0xbc8164b8	-0.015795097
218	0x3de6a22c	0.112614006
219	0x3e0581dc	0.13037819
220	0xbf149baa	-0.58050025
221	0xbe226ee5	-0.15862615
222	0xbf12cb24	-0.5734122
223	0xbe76c65e	-0.24099109
224	0x3e177cac	0.14793652
225	0xbfceb98f	-1.6150378
226	0xbe60dbca	-0.21958843
227	0xb7b1bbfa	-2.1187578e-05
228	0xbeaa4b54	-0.33260596
229	0xbea78698	-0.32719874
230	0x3b8e1d80	0.004337013
231	0x3e2c2528	0.16811049
232	0x3c7f48da	0.015581334
233	0xbed52161	-0.4162703
234	0xbf3d4a39	-0.7394138
235	0xbe4de499	-0.20106734
236	0x3d84c4f4	0.06482878
237	0xbe01a085	-0.1265889
238	0x3e82bb23	0.255334
239	0x3d6d3c4b	0.057918828
240	0xbd007501	-0.031361584
241	0xbe8d9c43	-0.2765828
242	0x3dcb6047	0.09930473
243	0xbd87ca58	-0.06630391
244	0xbe734bc8	-0.23759377
245	0x3e4584e9	0.19288982
246	0xbe382556	-0.17982993
247	0x3e5728e4	0.21011692
248	0x3e1bd9a7	0.15219747
249	0xbdb88f8d	-0.09011755
250	0xbf30c924	-0.69056916
251	0xbc83e0a0	-0.01609832
252	0x3e1f3a45	0.15549572
253	0xbefac4b7	-0.48978207
254	0xbe3c30dc	-0.18378013
255	0x3e0fb182	0.14032558

conv2.bias f4 [16]
0	0x3dfc1046	0.123077914
1	0xbeb49b8d	-0.35274926
2	0xbc904612	-0.017611537
3	0x3ebfcad9	0.37459448
4	0x3e3b3a2e	0.18283913
5	0x3e635f25	0.22204264
6	0xbe60e048	-0.21960557
7	0x3d53283a	0.051552035
8	0x3e1fb46b	0.15596168
9	0xbe891244	-0.26771748
10	0xbe622af5	-0.220867
11	0xbd3a1fc8	-0.045440465
12	0x3ddba57a	0.107249215
13	0x3edccaff	0.43123624
14	0x3c06e024	0.00823215
15	0xbf202024	-0.6254904

conv3.weight f4 [16, 16, 1]
0	0x3e0d8109	0.13818754
1	0xbeff79c0	-0.49897575
2	0xbdd054db	-0.10172435
3	0xbe95a2f1	-0.29225877
4	0x3e8dbded	0.27683964
5	0x3ecc24a0	0.39871693
6	0x3e82b8ab	0.25531515
7	0xbda2329b	-0.079198085
8	0xbd83ca6d	-0.06435094
9	0x3e917dc8	0.28416276
10	0xbe8b56d1	-0.27214673
11	0xbd075820	-0.033043027
12	0xbe67ee78	-0.22649562
13	0xbe1930fb	-0.14960091
14	0xbe960407	-0.29299948
15	0xbd0e3ade	-0.03472411
16	0x3ee4530e	0.44594616
17	0xbe367db7	-0.17821394
18	0xbeb1c4f9	-0.3472059
19	0xbe8af177	-0.27137348
20	0x3ea5bc73	0.32370338
21	0x3e064c3b	0.13115017
22	0x3e4fb5e3	0.20284228
23	0xbd943bd2	-0.07237972
24	0x3e215ec4	0.15758806
25	0xbe84b8db	-0.25922284
26	0x3e318266	0.173349
27	0x3dbd2294	0.09235111
28	0xbe1ff0ab	-0.15619151
29	0x3e90bdc1	0.2826977
30	0xbe90ffe1	-0.2832022
31	0x3cf061ba	0.029343475
32	0xbd32a803	-0.04361726
33	0x3df0c86b	0.11756977
34	0xbe0180e3	-0.12646823
35	0x3f43e25a	0.7651726
36	0x3db45587	0.088053755
37	0x3e0fa3e5	0.14027365
38	0x3cf05e9c	0.029341988
39	0xbdc411f1	-0.095737346
40	0x3e9668a1	0.293767
41	0xbe0abb3c	-0.13547987
42	0xbd975841	-0.0738988
43	0x3e50d6a8	0.20394385
44	0x3dd4229b	0.10358163
45	0x3e1ed88f	0.15512298
46	0x3eb9b757	0.3627269
47	0x3ebc351c	0.3675927
48	0xbd8c6d23	-0.06856754
49	0x3e8b9d0b	0.27268252
50	0xbdab28da	-0.08357401
51	0x3f15d2fc	0.5852506
52	0xbe5f2687	-0.21792041
53	0x3e3d672d	0.1849639
54	0xbca757db	-0.020427635
55	0x3cc46f05	0.02397872
56	0x3ea9cf76	0.33166093
57	0x3d41cf42	0.047316797
58	0xbeb29b5e	-0.3488416
59	0x3d0d82a8	0.03454843
60	0xbe85cc6d	-0.26132527
61	0x3ed769b9	0.42072847
62	0xbddf9afa	-0.10918231
63	0x3e27a7a3	0.16372542
64	0xbdbabe2a	-0.09118302
65	0x3e9f28dd	0.31085864
66	0xbebca699	-0.36845854
67	0x3e04cc52	0.12968567
68	0x3d859895	0.06523243
69	0xbe290d65	-0.16509016
70	0x3dcc3131	0.0997032
71	0x3d4aae7f	0.04948282
72	0xbe85a83a	-0.2610491
73	0xbe15715c	-0.14594024
74	0xbf76ad15	-0.9635785
75	0x3ded923c	0.116001576
76	0x3c7fbd55	0.015609105
77	0xbda9f6ed	-0.082990505
78	0x3e0dc8dc	0.13846153
79	0x3e0d08bb	0.13772862
80	0xbebd93d2	-0.3702684
81	0xbde343cb	-0.11096915
82	0x3ebc3421	0.3675852
83	0xbe4d6289	-0.2005712
84	0x3d8076ba	0.06272645
85	0x3f051889	0.5199056
86	0xbbe888e7	-0.007096398
87	0x3db6d6d3	0.08927693
88	0xbe83aaad	-0.25716153
89	0xbde517f6	-0.11186211
90	0x3edefd10	0.43552446
91	0x3e5f6610	0.21816278
92	0xbe2da847	-0.16958724
93	0xbd3f1a3d	-0.046655882
94	0x3d9b6b23	0.07588794
95	0xbf123277	-0.57108253
96	0xbeba913c	-0.3643893
97	0xbea2077f	-0.31646344
98	0x3eae58b7	0.3405206
99	0xbe9ccc5e	-0.3062467
100	0xbbe37f36	-0.006942655
101	0x3d1821e8	0.03714171
102	0xbd86d877	-0.06584256
103	0xbde652c8	-0.11246258
104	0xbe926c2a	-0.28598148
105	0xbd075ca0	-0.03304732
106	0xbe235b54	-0.15952808
107	0xbd505218	-0.05085954
108	0x3b9d76a8	0.0048054047
109	0x3e35d758	0.17757928
110	0xbe89a370	-0.26882505
111	0xbd7bf9f2	-0.061517663
112	0x3ea8016a	0.3281358
113	0x3d299703	0.04140378
114	0x3eb2c187	0.34913275
115	0xbd3d954c	-0.04628496
116	0xbdf7cc25	-0.12099484
117	0xbe7918b4	-0.2432583
118	0xbe55457c	-0.20827287
119	0xbe47dc08	-0.19517529
120	0xbe589559	-0.21150722
121	0x3daaf8da	0.08348246
122	0x3e56de94	0.20983344
123	0x3e2679ba	0.16257372
124	0x3ea51507	0.32242605
125	0xbe07e165	-0.13269575
126	0xbee4d944	-0.4469701
127	0x3f109e3b	0.5649144
128	0xbe35ce7b	-0.17754547
129	0xbe5529b6	-0.20816693
130	0x3e1f8ca6	0.15580997
131	0xbf3c8c66	-0.7365173
132	0xbee851d5	-0.45374933
133	0xbd18c436	-0.037296496
134	0xbd121223	-0.035661828
135	0xbe5f22ad	-0.21790572
136	0x3d8a73ae	0.067603454
137	0xbe42de67	-0.19030152
138	0x3d12c9c1	0.03583694
139	0xbd5613e8	-0.052265078
140	0xbe5218ef	-0.20517324
141	0xbd657578	-0.05602023
142	0xbe9eeb67	-0.31038973
143	0x3e0a5aee	0.1351125
144	0x3df4b216	0.1194803
145	0x3ebcc9cd	0.36872712
146	0x3e39d788	0.18148625
147	0x3e885e50	0.26634455
148	0x3defff12	0.11718573
149	0xbeb417fc	-0.3517455
150	0xbdc04148	-0.093874514
151	0x3e9f7a1e	0.31147856
152	0xbd836c97	-0.06417196
153	0x3eb12c00	0.34603882
154	0xbf29262e	-0.6607388
155	0xbe38496c	-0.17996758
156	0xbdf6aedf	-0.12045073
157	0xbcddd221	-0.027077736
158	0x3eac3fe0	0.33642483
159	0x3d8cf4e0	0.06882644
160	0xbeaa9cbf	-0.33322713
161	0x3e2b3b10	0.1672175
162	0xbe0d2282	-0.13782695
163	0x3e320642	0.173852
164	0xbdeb1e80	-0.11480427
165	0x3d9a744f	0.07541715
166	0xbca4de3e	-0.020125505
167	0x3e852c1a	0.2601021
168	0xbe09a0ff	-0.13440321
169	0x3dac1a2b	0.08403429
170	0x3ec089b2	0.37605053
171	0x3d8ebd2c	0.069696754
172	0xbecaf94f	-0.39643332
173	0xbcc59bf8	-0.024122223
174	0xbe8132a5	-0.2523395
175	0x3ea21c5a	0.31662256
176	0x3dd0531b	0.10172101
177	0xbe544e69	-0.20733036
178	0xbcb5f810	-0.022213012
179	0x3f05f86c	0.52332187
180	0xbe6d43c4	-0.23170382
181	0xbc7eab60	-0.015543789
182	0xbe464cb3	-0.19365196
183	0x3edfb01c	0.43689048
184	0x3e8485e5	0.25883403
185	0x3e96e462	0.29471117
186	0x3e5afb06	0.2138482
187	0xbdc8a210	-0.09796536
188	0x3e369b3f	0.17832659
189	0xbdca1ea2	-0.09869124
190	0xbe042d1c	-0.12907833
191	0xbdedb459	-0.11606664
192	0x3ed2f54b	0.4120277
193	0x3d48efdc	0.049056873
194	0xbeada94f	-0.33918235
195	0xbeaf60fd	-0.34253684
196	0xbd878b49	-0.066183634
197	0xbc3feb68	-0.01171384
198	0x3e26a17f	0.16272543
199	0x3e396e38	0.18108451
200	0xbe20e02a	-0.15710512
201	0xbe190b77	-0.1494578
202	0xbded0c84	-0.11574653
203	0x3d89f964	0.067370206
204	0xbeecb7e9	-0.46234062
205	0x3e1ebda0	0.15502024
206	0xbef82a2a	-0.4846967
207	0x3d423eec	0.04742329
208	0x3db21188	0.0869475
209	0xbd6bc810	-0.05756384
210	0x3dcd9be5	0.100395
211	0x3f2800b7	0.6562609
212	0xbdbef2a7	-0.09323626
213	0x3e47a028	0.19494689
214	0x3dff33d2	0.12461056
215	0x3e9ce739	0.3064516
216	0x3ea89a02	0.3293
217	0x3d28889c	0.041145906
218	0xbe8692de	-0.26283926
219	0xbe0233de	-0.12715098
220	0x3e82cddc	0.25547683
221	0xbc80719c	-0.015679173
222	0xbdb62037	-0.08892863
223	0x3e979e9d	0.296132
224	0xbdf71e95	-0.1206638
225	0x3ebfdfe2	0.37475497
226	0xbe75a0bb	-0.23987095
227	0x3f44e8ed	0.76917917
228	0x3d468293	0.04846437
229	0x3e008bd0	0.12553334
230	0x3e1ed88a	0.1551229
231	0x3da2a58b	0.07941731
232	0x3e151d60	0.14561987
233	0x3e9f3554	0.31095374
234	0x3d6a9217	0.05726823
235	0x3e4c9530	0.19978786
236	0xbd5e09b2	-0.054208465
237	0x3e8b48ad	0.27203885
238	0x3dbfc5e1	0.09363914
239	0xbdadfb78	-0.084952295
240	0x3e7db906	0.24777612
241	0x3d3f7737	0.04674455
242	0x3e1b908e	0.15191862
243	0xbe7a774b	-0.24459569
244	0x3e9f89f3	0.31159934
245	0xbdf9e717	-0.1220228
246	0xbe5ae0ef	-0.21374868
247	0xbe006adf	-0.12540768
248	0x3e6fe5ce	0.23427507
249	0xbea25348	-0.31704164
250	0xbe03b96e	-0.12863705
251	0x3e3bc55e	0.18337008
252	0x3d5a55ee	0.053304605
253	0xbf229801	-0.6351319
254	0xbe8ef2ae	-0.27919525
255	0xbcc91433	-0.024545765

conv3.bias f4 [16]
0	0x3e97402d	0.2954115
1	0xbec96402	-0.39334112
2	0x3e87fdb0	0.26560736
3	0x3d93c595	0.0721542
4	0xbd5637b4	-0.052299216
5	0xbde33e43	-0.1109586
6	0x3e01f616	0.1269153
7	0xbd6998bb	-0.05703042
8	0xbdee8385	-0.11646179
9	0x3e37c0bc	0.17944616
10	0x3c83461a	0.016024638
11	0x3c0aba2d	0.008467239
12	0xbe69a604	-0.22817236
13	0x3d1369aa	0.03598944
14	0xbe6af296	-0.22944102
15	0x3d2acf82	0.0417018

bn2.weight f4 [16]
0	0x3fc4a2f1	1.5362226
1	0x3f8e31e3	1.1108974
2	0x3f81166d	1.0084969
3	0x3f70bdbe	0.94039524
4	0x3fac6828	1.3469286
5	0x3fb8cc83	1.4437412
6	0x3fa25d23	1.2684673
7	0x3f926b95	1.1439081
8	0x3f8673aa	1.0504048
9	0x3f868846	1.0510337
10	0x3f61d1aa	0.88210547
11	0x3f5db3af	0.866023
12	0x3fae3e8b	1.3612837
13	0x3f7e158b	0.9925162
14	0x3f800708	1.0002146
15	0x3f5ea9a7	0.8697762

bn2.bias f4 [16]
0	0xbef3f2fd	-0.47646323
1	0xbf0e8233	-0.5566742
2	0xbf24f930	-0.6444273
3	0xbf67a34d	-0.9048355
4	0xbdcbac87	-0.09945016
5	0xbf11be67	-0.56931156
6	0x3e7f0292	0.24903324
7	0xbe849f67	-0.25902864
8	0xbea037e4	-0.3129264
9	0xbe9c5444	-0.3053304
10	0xbd623f5d	-0.05523621
11	0xbd2a93b6	-0.041644774
12	0xbf04a5fa	-0.5181576
13	0xbf31950b	-0.69368047
14	0xbedb327e	-0.4281196
15	0xbedd86a0	-0.43266773

bn2.running_mean f4 [16]
0	0x3f0f6e4f	0.5602769
1	0xbddb2e14	-0.10702148
2	0x3f42c514	0.7608197
3	0x3f000861	0.50012785
4	0xbed29fb0	-0.41137457
5	0x3e7d0a22	0.24710897
6	0xbdad417e	-0.08459757
7	0xbedc19db	-0.42988476
8	0xbf333f3f	-0.7001838
9	0x3e700b15	0.23441727
10	0xbca3d84d	-0.020000601
11	0x3eaf7bd8	0.34274173
12	0xbedb0148	-0.42774415
13	0x3f3233fd	0.6961058
14	0x3e6838db	0.22677939
15	0xbd3cfcea	-0.046139635

bn2.running_var f4 [16]
0	0x3d132a17	0.035928812
1	0x3c9d831d	0.019227559
2	0x3d0375ee	0.03209489
3	0x3c8f7010	0.01750949
4	0x3ce1abb8	0.027547702
5	0x3dadf2cc	0.084935755
6	0x3dc44197	0.09582823
7	0x3d29ff78	0.0415034
8	0x3cbc5169	0.022988038
9	0x3c8a3a0a	0.016873378
10	0x3c8bdb76	0.01707242
11	0x3dd921c7	0.10602146
12	0x3cc8f4c6	0.02453078
13	0x3d91488c	0.07093915
14	0x3d27f983	0.041009437
15	0x3c67ca9d	0.014147428

conv4.weight f4 [32, 16, 2]
0	0x3f2a8d18	0.6662154
1	0x3db4ada5	0.088221826
2	0x3cb804a8	0.022463158
3	0x3c91ea3e	0.01781189
4	0xbd44499e	-0.04792177
5	0xbdcb1c19	-0.099174686
6	0x3e1f65b9	0.15566148
7	0x3cc5c474	0.024141528
8	0xbe0aaad3	-0.13541727
9	0xbe5b92cd	-0.21442719
10	0x3e9c67c4	0.30547917
11	0x3e423b9d	0.18968053
12	0x3d0614ae	0.032734565
13	0x3d5a2bb6	0.053264342
14	0xbe8e8327	-0.27834436
15	0x3e15eeca	0.14641872
16	0xbef990d4	-0.48743308
17	0x3e929608	0.2863009
18	0xbe158a44	-0.14603525
19	0xbcef2740	-0.02919352
20	0xbee11990	-0.43964815
21	0x3e0104e8	0.12599528
22	0xbf3e91b5	-0.7444108
23	0xbc93d64a	-0.018046517
24	0xbd6da785	-0.058021087
25	0x3e538daf	0.20659517
26	0xbe3921c6	-0.1807929
27	0xbcb3cd81	-0.021948578
28	0xbe97fade	-0.29683584
29	0x3dcd1244	0.100132495
30	0xbd1808b4	-0.037117675
31	0x3d4f09a2	0.050546296
32	0xbea69568	-0.32535863
33	0xbf35d7c7	-0.71032375
34	0x3df6e692	0.120556965
35	0xbe38a546	-0.18031797
36	0xbe0ed7e8	-0.13949549
37	0x3e432147	0.19055663
38	0x3d87a35e	0.06622957
39	0x3c43f438	0.011960082
40	0x3eced514	0.4039694
41	0x3ea0cea0	0.31407642
42	0xbf635179	-0.8879619
43	0x3d7012c9	0.058611665
44	0xbdb712e0	-0.08939147
45	0x3daed597	0.08536833
46	0xbe895678	-0.26823783
47	0x3e48049a	0.19533005
48	0x3d16cfb4	0.036819175
49	0x3ddb431e	0.10706161
50	0xbc8547f1	-0.016269656
51	0x3e2270f6	0.15863404
52	0x3debb339	0.115087934
53	0xbdad309d	-0.08456538
54	0xbd14b358	-0.036303848
55	0xbca065b0	-0.019579738
56	0x3ec0864e	0.37602466
57	0xbe2dd2eb	-0.1697499
58	0xbe4e300b	-0.20135514
59	0xbdc19725	-0.09452657
60	0x3e1d3212	0.15351132
61	0x3d897550	0.06711829
62	0xbe10d550	-0.14143872
63	0x3da39427	0.07987242
64	0x3ea54b4f	0.32284018
65	0xbebd6f11	-0.369988
66	0x3dedfdb2	0.11620654
67	0xbdd2edc1	-0.10299254
68	0xbeabeef4	-0.33580744
69	0x3db4dac4	0.08830789
70	0xbe08578d	-0.13314648
71	0xbcac9135	-0.021065334
72	0xbece871d	-0.40337458
73	0xbe3d402b	-0.1848151
74	0xbe4e526d	-0.2014863
75	0xbef0d0d8	-0.47034335
76	0xbf00e189	-0.5034414
77	0xbf3c19eb	-0.7347705
78	0xbe827653	-0.254809
79	0xbe37cce4	-0.17949253
80	0x3d9a772e	0.07542263
81	0x3e24e9fa	0.1610488
82	0xbe8d6f6b	-0.27624068
83	0x3dbbf240	0.09177065
84	0x3d5c6b4e	0.05381327
85	0xbe1f5055	-0.15557988
86	0x3d8595c5	0.06522707
87	0x3e063a1a	0.13108101
88	0x3cf787c2	0.030216102
89	0xbd60af72	-0.054854818
90	0xbd7744df	-0.060368415
91	0x3e0c3d3a	0.13695231
92	0x3d406e25	0.046980042
93	0x3e2086ad	0.15676375
94	0x3e352fff	0.1769409
95	0x3dd8091e	0.10548614
96	0xbc097815	-0.008390446
97	0xbef4266a	-0.47685558
98	0x3dda73e7	0.10666638
99	0xbb962a94	-0.0045827124
100	0xbd8623b6	-0.0654978
101	0x3ec37e9e	0.3818254
102	0xbe81de04	-0.25364697
103	0x3e688b84	0.22709471
104	0x3e3de983	0.18546109
105	0x3e0c8b34	0.13724977
106	0x3e381de2	0.1798015
107	0xbe5c5da4	-0.21520096
108	0xbd28cebb	-0.04121278
109	0xbea17566	-0.3153488
110	0x3e0b4288	0.13599598
111	0xbe5e70f0	-0.2172277
112	0x3d0e64b0	0.03476399
113	0xbd4da072	-0.05020184
114	0x3df07e96	0.11742894
115	0x3c81302b	0.015770039
116	0xbe22ed13	-0.15910749
117	0x3e0244f3	0.12721615
118	0xbdf5bf62	-0.11999394
119	0x3d8c2950	0.06843817
120	0x3e6d5bf8	0.23179615
121	0xbdde793c	-0.10862967
122	0xbed5a350	-0.4172616
123	0x3e80af0c	0.2513355
124	0xbd9fd089	-0.07803447
125	0x3ebbfb07	0.36714956
126	0x3ba28270	0.004959397
127	0x3b530bff	0.0032203195
128	0xbeb14d5f	-0.34629342
129	0xbc540490	-0.012940541
130	0x3dedf4ba	0.116189435
131	0x3eae30d4	0.34021628
132	0x3dabe1fe	0.08392714
133	0xbd8496f4	-0.064741045
134	0x3dad7590	0.08469689
135	0x3e6b6907	0.22989284
136	0xbe8a5e2e	-0.27024978
137	0xbf0565be	-0.5210837
138	0xbea71c82	-0.32638937
139	0x3df7ab63	0.12093236
140	0xbea7cf1d	-0.32775202
141	0xbe086c3f	-0.13322543
142	0xbd9c18d3	-0.07621922
143	0xbec1fdff	-0.37889096
144	0xbe902ae7	-0.28157732
145	0xbe8da630	-0.27665854
146	0xbd6427ea	-0.055702128
147	0xbd143660	-0.03618467
148	0xbd461596	-0.04836043
149	0x3de08c07	0.10964208
150	0x3cac5682	0.021037344
151	0x3dad46c0	0.0846076
152	0xbe5f6182	-0.2181454
153	0xbe8a4b26	-0.2701046
154	0xbd7acbde	-0.06122958
155	0x3e279dda	0.1636881
156	0xbb42c4d6	-0.0029719374
157	0x3ec8e3c1	0.39236262
158	0x3e455d00	0.19273758
159	0x3e0ad3df	0.13557385
160	0xbe79f3da	-0.24409428
161	0xbdc4f7d6	-0.096175835
162	0xbdb86b87	-0.09004884
163	0x3a8fda4d	0.0010975093
164	0xbe74c976	-0.23904976
165	0x3ec85365	0.39126125
166	0x3e979fb0	0.2961402
167	0x3f196f50	0.59935474
168	0x3d5c04a7	0.053715374
169	0x3d9bce1a	0.0760767
170	0xbed06774	-0.40703928
171	0xbd0a667b	-0.03378914
172	0xbe0dc955	-0.13846333
173	0x3e242bcd	0.16032334
174	0x3d621ccf	0.055203255
175	0xbb41ce3b	-0.0029572386
176	0x3e73bf91	0.23803546
177	0x3cf3665e	0.029711898
178	0x3d351f1b	0.044219118
179	0x3e38beb1	0.18041493
180	0x3e1db611	0.15401484
181	0xbce2a932	-0.02766857
182	0x3e0133ab	0.12617366
183	0x3dd8594a	0.105639055
184	0xbcb3dcc5	-0.021955857
185	0xbdf77069	-0.120819874
186	0x3d903682	0.070416465
187	0x3ea6f655	0.3260981
188	0x3cf3c8f8	0.029758915
189	0x3d8955ce	0.06705819
190	0xbe353a9b	-0.17698137
191	0x3e460a3f	0.19339846
192	0xbe4ccb37	-0.19999395
193	0xbe20be55	-0.15697606
194	0x3d387789	0.045035873
195	0x3e340324	0.17579323
196	0x3e7cae49	0.2467586
197	0xbd5db25c	-0.054125175
198	0xbe11d5fa	-0.14241782
199	0xbe4a60b3	-0.1976345
200	0x3e2381bf	0.15967463
201	0x3eebc582	0.46049124
202	0x3db9f0e1	0.09079147
203	0xbdd70524	-0.10499027
204	0xbe8e44a1	-0.27786735
205	0x3dbd1e70	0.09234321
206	0xbe28d3f9	-0.16487111
207	0xbddc4803	-0.10755923
208	0x3edf8be8	0.43661427
209	0x3f007b16	0.50187814
210	0xbe242957	-0.16031395
211	0xbebecb80	-0.37264633
212	0xbd5cfd1f	-0.053952333
213	0x3b819550	0.003954567
214	0xbd1cd7a9	-0.038291607
215	0xbc36b2af	-0.011151
216	0x3e01647d	0.1263599
217	0x3e9e300f	0.3089604
218	0x3aa13ab0	0.0012300815
219	0xbd1555c2	-0.03645874
220	0xbe163d0e	-0.14671728
221	0xbe4733ba	-0.19453326
222	0x3d9ee663	0.077587865
223	0x3e1a81e8	0.15088618
224	0x3cbdb276	0.023156386
225	0xbf05a05c	-0.52197814
226	0xbf366cd0	-0.71259785
227	0xbcbab5cd	-0.022791767
228	0x3e348a48	0.17630875
229	0x3df448a2	0.11927916
230	0xbd39c157	-0.0453504
231	0x3d4e6e4e	0.050398163
232	0x3da7e0c0	0.081971645
233	0x3d765218	0.060136884
234	0x3e18061a	0.14846078
235	0xbeab4656	-0.334521
236	0x3df25b8f	0.1183387
237	0xbe16e533	-0.1473587
238	0xbe978df0	-0.29600477
239	0x3e174f38	0.14776313
240	0xbc74f5ef	-0.014951213
241	0x3eab05b0	0.33402777
242	0x3d186dea	0.037214197
243	0x3cb18982	0.021672014
244	0xbd48d750	-0.049033463
245	0x3e360307	0.17774592
246	0x3cf8d82f	0.030376522
247	0x3c9f1bd5	0.019422451
248	0xbf0f4092	-0.559579
249	0x3d8d4962	0.06898762
250	0x3e843a0c	0.25825536
251	0xbe933c41	-0.28756908
252	0x3bf9d456	0.0076241894
253	0x3e36b080	0.17840767
254	0xbeddad77	-0.43296406
255	0xbdbedfb7	-0.09320014

conv4.bias f4 [32]
0	0xbccf22ff	-0.025285242
1	0x3e1118ae	0.14169571
2	0x3e228248	0.15870011
3	0x3e8c7afe	0.27437586
4	0xbe61baa0	-0.22043848
5	0x3de7c476	0.11316769
6	0xbe836740	-0.2566471
7	0xbd92c2a2	-0.071660295
8	0xbe6ff872	-0.23434618
9	0xbdf3dec7	-0.11907726
10	0xbd03bb19	-0.032160852
11	0xbd9c90f1	-0.07644833
12	0xbe203c86	-0.15648088
13	0xbe44a22b	-0.19202487
14	0x3db0dce7	0.08635884
15	0x3ca8c5b4	0.020602085
16	0xbe753156	-0.23944601
17	0x3d8e3b10	0.06944859
18	0x3dc15eeb	0.09441932
19	0xbdc82068	-0.09771806
20	0xbdd2cdc0	-0.1029315
21	0xbe298903	-0.16556172
22	0xbc82ed4e	-0.015982296
23	0x3e032a5e	0.1280913
24	0x3db45d3b	0.08806845
25	0x3e0f0a1a	0.13968697
26	0x3d2cefc6	0.042220853
27	0x3d9edd3c	0.07757041
28	0x3e5b55fd	0.2141952
29	0x3d3914a6	0.045185708
30	0xbdc00d7f	-0.09377574
31	0x3d948820	0.07252526

bn3.weight f4 [32]
0	0x3fac0f60	1.3442192
1	0x3f70a25d	0.93997747
2	0x3f6ad2f2	0.91728127
3	0x3f76a516	0.9634565
4	0x3f6d7852	0.9276172
5	0x3f88a8b1	1.067648
6	0x3f700570	0.93758297
7	0x3f6732b9	0.9031177
8	0x3f762796	0.96154153
9	0x3f846a29	1.0344898
10	0x3f8663fa	1.049926
11	0x3f9bffc0	1.2187424
12	0x3f822e04	1.0170293
13	0x3f6303c2	0.8867761
14	0x3f76c868	0.96399546
15	0x3f8ae386	1.0850685
16	0x3f5b894b	0.8575637
17	0x3fa0fe13	1.2577537
18	0x3f79fd72	0.9765235
19	0x3f697b0f	0.912034
20	0x3f94b0c4	1.1616445
21	0x3f80f9c3	1.0076221
22	0x3f929977	1.1453084
23	0x3fbcff17	1.4765347
24	0x3f6e50b1	0.93091875
25	0x3f7d5801	0.9896241
26	0x3f8b51c6	1.088433
27	0x3f7bc7b4	0.983516
28	0x3f85b13d	1.0444714
29	0x3f63d565	0.8899749
30	0x3fa98795	1.3244501
31	0x3f969505	1.1764227

bn3.bias f4 [32]
0	0x3df81bc2	0.121146694
1	0xbdb55569	-0.08854181
2	0xbe1dc84a	-0.15408435
3	0xbe8a10e6	-0.26966017
4	0xbeb85d90	-0.36008883
5	0x3d0a2343	0.033725034
6	0xbeaf47f9	-0.34234598
7	0xbe127801	-0.1430359
8	0xbe8f0438	-0.27932906
9	0xbe965115	-0.29358736
10	0x390d5e85	0.00013482019
11	0x3e71ef38	0.23626411
12	0x3e2ea5bb	0.17055409
13	0xbe5b2a12	-0.21402767
14	0xbe9f3eb9	-0.3110254
15	0xbed6a20d	-0.4192051
16	0x3b3d0f28	0.0028848145
17	0xbce799ce	-0.028271582
18	0xbc8504f8	-0.01623772
19	0xbf0520de	-0.52003276
20	0x3d05285d	0.032509197
21	0xbeaf2fae	-0.34216064
22	0x3dc86746	0.09785323
23	0xbe25cd38	-0.16191566
24	0x3cfa5ae4	0.030560918
25	0xbd035e9b	-0.032072645
26	0x3dfd77d8	0.12376374
27	0xbdc59cba	-0.09649034
28	0xbd3a8fb4	-0.045547202
29	0xbce95187	-0.028481258
30	0x3db4c523	0.08826663
31	0xbcdfeef3	-0.02733562

bn3.running_mean f4 [32]
0	0xbe1aa79b	-0.15102999
1	0xbe56e343	-0.20985131
2	0xbf87dd6d	-1.0614449
3	0x3bfd8a04	0.0077374
4	0xbf78a6bd	-0.9712942
5	0x3ed62f88	0.41833138
6	0xbeaff34a	-0.34365302
7	0xbe6c399f	-0.23068856
8	0xbe6815ea	-0.2266461
9	0xbe0d2d3a	-0.13786784
10	0xbe9eca75	-0.31013837
11	0xbf093ec1	-0.5361138
12	0xbb47c906	-0.003048481
13	0xbec8a84e	-0.39190906
14	0xbf2f1b53	-0.6840107
15	0xbf24d31f	-0.64384645
16	0xbf37f387	-0.7185597
17	0xbe99ba65	-0.3002502
18	0x3f050b99	0.5197082
19	0x3ec71c38	0.38888717
20	0xbf1fd3d6	-0.6243261
21	0xbf13ab77	-0.5768351
22	0x3dac2940	0.08406305
23	0xbdf0179b	-0.117232524
24	0x3f3153d9	0.69268566
25	0x3ef19489	0.47183636
26	0x3ea47326	0.321191
27	0x3f822d8d	1.0170151
28	0xbef803c2	-0.48440367
29	0xbf2204b9	-0.63288456
30	0xbebd72d3	-0.37001666
31	0x3d524607	0.051336315

bn3.running_var f4 [32]
0	0x3fce15bc	1.6100383
1	0x3f36a22f	0.7134122
2	0x3f2e2198	0.6802001
3	0x3f4dff81	0.80467993
4	0x3f2b56b5	0.6692918
5	0x3f9604db	1.1720232
6	0x3f578ad3	0.84196204
7	0x3edc7c53	0.43063602
8	0x3ef5b0da	0.4798649
9	0x3f29d4a7	0.66340107
10	0x3fe59775	1.7936846
11	0x3f98f4a7	1.1949662
12	0x3fa0b2b3	1.2554535
13	0x3ed430ad	0.41443387
14	0x3fa60d06	1.2972724
15	0x3fad6bc0	1.3548508
16	0x3f594368	0.8486848
17	0x3fa3d83c	1.2800364
18	0x3f0fa5da	0.56112444
19	0x3ec6cc30	0.38827658
20	0x3fbcc156	1.4746501
21	0x3f41ec88	0.75751543
22	0x3f65b215	0.89724857
23	0x3fca1b05	1.5789496
24	0x3f458b5a	0.7716576
25	0x3f941f99	1.1572143
26	0x3f46e813	0.7769787
27	0x3f245444	0.6419108
28	0x3ef9229c	0.48659217
29	0x3f118c17	0.56854385
30	0x3f39e080	0.72608185
31	0x3fbd444c	1.4786468

conv5.weight f4 [32, 32, 1]
0	0x3d957974	0.07298556
1	0x3d96efe4	0.07369974
2	0xbccfe71d	-0.025378758
3	0xbebeba6e	-0.3725161
4	0xbed091dd	-0.40736285
5	0x3d5c1acf	0.053736504
6	0x3d4595dc	0.04823862
7	0xbe934474	-0.28763163
8	0xbe58f8c9	-0.21188654
9	0xbee25e1f	-0.44212434
10	0xbf0a867e	-0.5411147
11	0x3e1b7f18	0.15185201
12	0xbd92d854	-0.071701676
13	0x3c870368	0.016481116
14	0x3ebc040a	0.36721832
15	0x3e158df8	0.14604938
16	0xbf02a4c7	-0.5103268
17	0x3e803c5a	0.25046045
18	0xbecdba09	-0.40180996
19	0x3dc77327	0.097387604
20	0x3e8f1a6c	0.27949846
21	0xbe1cc4ad	-0.15309401
22	0xbc22fcd0	-0.0099479705
23	0xbc0945ab	-0.008378427
24	0xbe874d5e	-0.26426214
25	0x3b8fc431	0.0043874015
26	0x3db5fa65	0.088856496
27	0xbcf9ac78	-0.030477747
28	0x3ec0240d	0.37527505
29	0x3e6ff52e	0.23433372
30	0x3e3ee9dc	0.18643898
31	0x3e8a58cb	0.2702087
32	0xbd8b3964	-0.06798056
33	0xbeb93567	-0.36173555
34	0xbe083687	-0.1330205
35	0x3dce44f7	0.10071748
36	0x3c5add5c	0.01335844
37	0xbe986628	-0.2976544
38	0x3cb2df10	0.02183488
39	0xbeab9a7a	-0.33516294
40	0xbd2f2a77	-0.042765107
41	0x3e54f73a	0.20797434
42	0x3e7ad5d2	0.24495628
43	0x3e98fda9	0.29881027
44	0x3e87fb39	0.26558855
45	0x3e390d58	0.18071496
46	0xbd47c40b	-0.048770946
47	0xbd644cd6	-0.05573734
48	0x3d9923d2	0.07477535
49	0x3e59a6ae	0.2125499
50	0x3cf11f73	0.029433941
51	0x3e56cbe6	0.20976219
52	0x3dc900e4	0.09814623
53	0x3e8ccf4b	0.27501902
54	0xbe41ac85	-0.18913467
55	0xbf51e4f0	-0.81989956
56	0xbd3d986a	-0.04628793
57	0x3d9756b1	0.07389582
58	0xbe8d624c	-0.27614057
59	0xbf49c7a7	-0.7882027
60	0xbe983b65	-0.29732814
61	0xbe0b47ae	-0.13601562
62	0xbec3d9b2	-0.38252026
63	0xbe5fa7f7	-0.21841417
64	0xbdb90951	-0.0903498
65	0xbe11cacb	-0.14237516
66	0xbf27d29c	-0.6555574
67	0xbc8f3f6b	-0.017486295
68	0x3e2c988f	0.16855071
69	0xbe93d20e	-0.28871197
70	0x3de5da06	0.11223225
71	0xbe7d9e2d	-0.2476737
72	0xbde1689c	-0.11006281
73	0xbdef8dd1	-0.11696971
74	0x3cdd1f6a	0.026992518
75	0xbe9e3d32	-0.30906063
76	0xbe13e696	-0.1444343
77	0x3e2850eb	0.16437118
78	0x3c851afc	0.016248219
79	0x3e6c173b	0.23055737
80	0xbd854c9f	-0.06508755
81	0x3e8e95d9	0.278487
82	0xbf2e8bd1	-0.6818209
83	0x3cc954eb	0.024576625
84	0xbed436de	-0.4144811
85	0xbe01e7eb	-0.12686126
86	0xbd1a5a46	-0.037683748
87	0xbdeb7c3a	-0.11498304
88	0x3eb6e2ba	0.35719854
89	0x3daeaa25	0.08528546
90	0x3e948599	0.29008177
91	0x3d0873f5	0.03331371
92	0xbe88d9f9	-0.267288
93	0xbe17c1bc	-0.14819998
94	0xbec3d766	-0.38250273
95	0x3c611cc2	0.013739767
96	0xbe8eec6f	-0.2791476
97	0x3d5fd01b	0.054641824
98	0x3ec372fd	0.38173667
99	0xbaa09fd8	-0.0012254668
100	0xbbd119e9	-0.0063812626
101	0x3e4d6573	0.20058231
102	0x3ea77c1b	0.32711872
103	0xbd2a5582	-0.041585453
104	0x3d910aa3	0.07082107
105	0xbd83b489	-0.06430919
106	0x3d5f2920	0.05448258
107	0xbe96a327	-0.2942135
108	0x3cf1a5eb	0.029498061
109	0x3d73d8d9	0.059532974
110	0x3d8654eb	0.065591656
111	0x3e8f6448	0.28006196
112	0x3da7625e	0.08173059
113	0xbe6c316c	-0.23065728
114	0x3df10c7b	0.117699586
115	0xbe4570a7	-0.19281255
116	0xbe11b9c9	-0.14231028
117	0xbd91474b	-0.07093676
118	0xbdf8e07e	-0.121521935
119	0x3ce68500	0.028139591
120	0xbd6c1d4b	-0.057645123
121	0x3e70d7ba	0.23519793
122	0xbea93ca7	-0.33054087
123	0x3df10fd3	0.11770596
124	0xbde8cbfc	-0.11367032
125	0x3d0b8c1b	0.03406916
126	0x3bec60c9	0.007213686
127	0xbe25cd49	-0.16191591
128	0xbebb44de	-0.3657598
129	0xbe31dde5	-0.17369802
130	0x3d9e8da6	0.07741861
131	0xbc58f273	-0.013241398
132	0x3e06a1e8	0.131477
133	0x3d742e47	0.059614446
134	0x3e3a1790	0.18173051
135	0xbe6e0999	-0.23245849
136	0x3e522661	0.20522453
137	0x3cb415dc	0.02198308
138	0xbead7f0f	-0.33886
139	0x3e6a56e1	0.22884704
140	0x3c7dc29a	0.015488291
141	0x3d1a142a	0.037616886
142	0xbd24f956	-0.040276848
143	0x3c1a24ff	0.009408235
144	0x3e2dc9cd	0.16971512
145	0xbe9b57b7	-0.3034036
146	0x3e44c4cd	0.19215699
147	0x3d9b2826	0.07576017
148	0xbda86a03	-0.08223345
149	0xbde1acc0	-0.110192776
150	0xbe157e48	-0.14598954
151	0x3e9572fb	0.29189286
152	0x3e3b8850	0.18313718
153	0x3e24f67f	0.16109656
154	0xbe108f8e	-0.14117262
155	0x3e02dc27	0.12779294
156	0xbde2b04a	-0.11068781
157	0x3e476c97	0.19475017
158	0x3e9431bd	0.28944197
159	0xbe898e51	-0.2686639
160	0x3e066b1f	0.13126801
161	0xbe5736cf	-0.21017002
162	0xbda131b8	-0.07870811
163	0x3d894180	0.06701946
164	0xbe2ad245	-0.16681774
165	0x3e95e25e	0.29274267
166	0x3b25a399	0.0025274514
167	0xbc613899	-0.013746404
168	0x3d9d875c	0.076918334
169	0x3d803e48	0.06261879
170	0xbdb1c014	-0.08679214
171	0x3de967c5	0.113967456
172	0x3b0e6551	0.002172787
173	0xbcbf6d4b	-0.023367545
174	0x3e4dec75	0.20109732
175	0xbc5eb204	-0.013592247
176	0x3e698c9d	0.22807546
177	0x3e99bda3	0.30027494
178	0x3d1dbcc3	0.038510095
179	0x3e16e8d9	0.14737262
180	0x3e00fc40	0.12596226
181	0xbdf4ad56	-0.11947124
182	0xbe9356d7	-0.2877719
183	0xbda28470	-0.07935417
184	0x3df50eac	0.11965689
185	0x3eab65ae	0.33476013
186	0x3dd8e4ff	0.105905525
187	0xbdeb55e2	-0.1149099
188	0x3e357e92	0.17724064
189	0xbe55ed0c	-0.20891207
190	0x3cb684bc	0.02228009
191	0xbdd546ef	-0.1041392
192	0xbf2bfd13	-0.67183036
193	0x3eb75aa1	0.35811332
194	0xbeef2dfd	-0.46714774
195	0xbd0c54f1	-0.034260694
196	0x3da5d36c	0.08096966
197	0x3dbd2879	0.09236235
198	0x3ddec5b9	0.10877556
199	0xbcd27485	-0.025690326
200	0xbe928c5d	-0.28622714
201	0xbe0c3e0e	-0.13695547
202	0xbe60cbcc	-0.21952742
203	0x3dc6518d	0.09683523
204	0x3d64ac30	0.055828273
205	0xbb7b2e5c	-0.0038327193
206	0x3e60732f	0.21918939
207	0xbdc739ae	-0.097277984
208	0x3e14ef17	0.1454433
209	0x3eb27f04	0.3486253
210	0xbe784f55	-0.24249013
211	0xbe6c8557	-0.2309774
212	0x3e4b56eb	0.19857375
213	0xbe871497	-0.26382896
214	0xbef65f93	-0.48119792
215	0x3d6ccc09	0.05781177
216	0x3d830c94	0.063988835
217	0x3d18917f	0.03724813
218	0xbef57ca1	-0.47946647
219	0xbe0b411e	-0.13599059
220	0x3d922fab	0.07137998
221	0x3e37f18c	0.17963237
222	0xbd9a04e1	-0.07520462
223	0xbd257270	-0.04039234
224	0x3da6e68c	0.08149442
225	0xbee6543d	-0.44986144
226	0x3e20ddfa	0.15709677
227	0x3d94d072	0.0726632
228	0xbe034c21	-0.1282201
229	0x3c7d27d1	0.0154513875
230	0xbe8e358a	-0.27775222
231	0xbe674252	-0.22583893
232	0xbea7c4c1	-0.327673
233	0x3d2e0df2	0.042493768
234	0x3e0f1e66	0.1397644
235	0x3e0aa493	0.13539343
236	0xbd983890	-0.074326634
237	0xbdfa5b13	-0.12224402
238	0x3d449615	0.047994692
239	0x3e6ff6df	0.23434018
240	0xbf190c6a	-0.5978457
241	0xbe0ec919	-0.139439
242	0x3eb9ec99	0.36313322
243	0xbe5e28a9	-0.21695198
244	0xbd6b4889	-0.05744222
245	0xb9be597d	-0.00036306298
246	0xbe641cdb	-0.22276632
247	0x3ec2aaf8	0.38021064
248	0xbdbfc068	-0.093628705
249	0x3c736bd0	0.0148572475
250	0x3e156d51	0.14592482
251	0xbca6fb84	-0.020383604
252	0xbeed25a4	-0.4631778
253	0x3d7e0e30	0.06202525
254	0xbdb0327b	-0.086033784
255	0x3e6c2125	0.23059519

conv5.bias f4 [32]
0	0x3dade547	0.08490997
1	0x3da3e679	0.080029435
2	0x3d9aa280	0.07550526
3	0x3b5ac23a	0.0033379928
4	0xbb51c03d	-0.0032005452
5	0xbf01f754	-0.5076802
6	0x3e189884	0.1490193
7	0xbec3886c	-0.3819002
8	0xbdcb215a	-0.09918471
9	0x3ee154b5	0.4400994
10	0x3ecb89f3	0.39753684
11	0xbe6fe1e2	-0.23426011
12	0x3e27b1e3	0.16376452
13	0xbba7b006	-0.005117419
14	0xbd2b9ee6	-0.041899584
15	0x3ea99078	0.33118033
16	0xbdbe6ea3	-0.09298446
17	0xbdaef59e	-0.085429415
18	0xbe217a63	-0.15769343
19	0xbe216049	-0.15759386
20	0x3e0d8e07	0.1382371
21	0xbd7f3d7b	-0.06231449
22	0xbe12190e	-0.1426737
23	0x3e0c62c4	0.13709551
24	0x3f223eb4	0.6337693
25	0xbd2a1d30	-0.04153174
26	0x3e487c9a	0.19578782
27	0x3ea6864e	0.3252434
28	0xbe27742c	-0.1635291
29	0x3e634aed	0.2219655
30	0xbba9ae0a	-0.005178218
31	0x3d90944b	0.07059535

conv6.weight f4 [32, 32, 1]
0	0x3dc8a703	0.0979748
1	0xbe411f91	-0.18859698
2	0xbe9cee7b	-0.30650696
3	0xbdc8fb20	-0.09813523
4	0xbdad2347	-0.08453994
5	0x3e7e0a38	0.24808586
6	0x3e53267e	0.20620152
7	0xbf0b5b69	-0.54436356
8	0xbe2e1329	-0.16999497
9	0xbdce621b	-0.10077306
10	0x3e07170b	0.13192384
11	0xbe3fa984	-0.18717009
12	0x3d02c8ad	0.03192966
13	0xbcb23a5a	-0.02175634
14	0xbcb35f45	-0.021896014
15	0x3da66811	0.08125318
16	0x3eb7d44c	0.35904157
17	0x3defdb87	0.117117934
18	0xbef98680	-0.48735428
19	0x3ea31164	0.31849205
20	0x3cbbad33	0.022909736
21	0xbe3bc72e	-0.183377
22	0x3e549d69	0.20763172
23	0xbecb8ffb	-0.39758286
24	0x3e76feb5	0.241206
25	0x3e5d445e	0.21608111
26	0xbd1e8d5b	-0.038709026
27	0x3e29152b	0.16511981
28	0xbe71e21c	-0.2362141
29	0x3bd81942	0.006594808
30	0xbec1815a	-0.37794
31	0xbed6887b	-0.41901
32	0xbdd18fd2	-0.1023251
33	0xbe15ab24	-0.14616066
34	0x3b525efa	0.0032100067
35	0xbe88bfad	-0.26708737
36	0xbdd4d860	-0.10392833
37	0xbd97119e	-0.07376407
38	0x3e0c0e68	0.1367737
39	0xbd6c7f64	-0.057738677
40	0x3d7e1135	0.06202813
41	0x3bc2d2b5	0.0059455284
42	0x3d943eea	0.072385624
43	0xbec92a61	-0.39290145
44	0x3e264bc3	0.16239838
45	0xbe560e09	-0.20903791
46	0x3d2a5557	0.041585293
47	0x3e108480	0.14113045
48	0xbe5478fb	-0.20749275
49	0xbf066cdf	-0.52509874
50	0x3e347dfa	0.17626181
51	0x3e9fb4ea	0.31192714
52	0x3e86c39d	0.26321116
53	0x3f023b10	0.5087137
54	0xbda45662	-0.08024289
55	0x3dd0522c	0.10171923
56	0xbe10b2c2	-0.1413069
57	0x3e40b93a	0.18820658
58	0xbea0ecbb	-0.3143061
59	0xbe847be0	-0.2587576
60	0xbe1bf5ea	-0.15230528
61	0xbd4be329	-0.049777184
62	0xbd199a78	-0.03750083
63	0xbd977c3a	-0.07396741
64	0x3ce14971	0.02750084
65	0x3ebc9f8a	0.3684047
66	0xbe709e0f	-0.23497795
67	0xbd713792	-0.058890887
68	0x3d1c5a6e	0.038172178
69	0xbe2e8399	-0.17042388
70	0x3d9bfb6e	0.07616316
71	0xbe718e8b	-0.23589532
72	0x3c2b0b94	0.010439772
73	0xbe34f572	-0.17671755
74	0xbe949eb1	-0.29027322
75	0xbe5f322f	-0.21796487
76	0x3d668578	0.05627963
77	0x3d3f8e93	0.04676683
78	0x3e2a55f2	0.16634348
79	0x3de9a56a	0.11408503
80	0xbe4227f7	-0.18960558
81	0xbdc662db	-0.09686824
82	0xbd9963c5	-0.07489733
83	0x3e2b24fa	0.16713324
84	0xbe5f86b9	-0.21828736
85	0x3d976c20	0.0739367
86	0x3eb49731	0.352716
87	0xbdc1224c	-0.0943037
88	0x3e6a387c	0.2287311
89	0xbd859e92	-0.065243855
90	0x3cc2935e	0.02375191
91	0xbf31b4d8	-0.6941657
92	0x3ef24eaa	0.4732564
93	0xbeaa71b7	-0.33289883
94	0x3c92299d	0.017842108
95	0xbe0e1c42	-0.13877967
96	0xbd9dea2b	-0.077106796
97	0x3ddd73e4	0.1081312
98	0x3e5c5973	0.21518497
99	0x3dbf8443	0.09351399
100	0x3cfc00cd	0.0307621
101	0xbdaf85db	-0.08570453
102	0xbdaab687	-0.083355956
103	0x3e7a19a8	0.2442385
104	0xbea82aa6	-0.32845038
105	0x3d949450	0.07254851
106	0xbe87837d	-0.26467505
107	0x3d658a54	0.056040123
108	0xbe89cc73	-0.26913795
109	0xbf095bc5	-0.53655654
110	0xbe81b394	-0.2533232
111	0xbe256627	-0.1615225
112	0xbc965074	-0.01834891
113	0x3d53e466	0.05173149
114	0x3e86a9ab	0.2630132
115	0xbdd68de2	-0.10476281
116	0xbf0d8e61	-0.5529538
117	0xbed768e4	-0.42072213
118	0x3d98a18b	0.07452687
119	0xbe8b5b70	-0.272182
120	0x3c911d13	0.017714059
121	0xbe28ff90	-0.1650374
122	0x3ebc94d5	0.368323
123	0x3ddf92db	0.10916682
124	0xbe9da8de	-0.30792898
125	0x3e017fb8	0.12646377
126	0xbe1a2e26	-0.15056667
127	0xbd25b7ed	-0.04045861
128	0xbd685d9b	-0.056729894
129	0xbe93ec33	-0.28891143
130	0xbd88b83c	-0.06675765
131	0xbe1b2af6	-0.15153107
132	0x3e1a37f4	0.15060407
133	0x3d543802	0.051811226
134	0x3e584850	0.21121335
135	0xbdcf9fe5	-0.10137919
136	0x3e62faae	0.22165939
137	0x3dacffb6	0.084472105
138	0x3cf712a3	0.030160254
139	0xbe0b95aa	-0.13631311
140	0x3d5a5a91	0.053309027
141	0x3e13ef05	0.14446647
142	0xbe562413	-0.20912199
143	0xbe51ef32	-0.20501402
144	0xbe487aad	-0.19578047
145	0x3f38223f	0.71927255
146	0x3d09ef8f	0.033675727
147	0xbe76a829	-0.24087586
148	0xbee32523	-0.4436427
149	0x3e4a9a63	0.19785456
150	0x3e728856	0.2368482
151	0xbeb2a1ef	-0.3488917
152	0x3d2eeb41	0.042704824
153	0xbe29d44c	-0.16584891
154	0x3e9a0b51	0.3008676
155	0xbdb1e56c	-0.08686337
156	0x3ec1adf8	0.3782804
157	0xbd49d424	-0.04927458
158	0x3e59d218	0.2127155
159	0x3e2d735f	0.16938542
160	0x3e1b67cc	0.15176314
161	0x3e8ff274	0.28114665
162	0x3dd04381	0.10169125
163	0x3c0501db	0.008118118
164	0xbe86da73	-0.2633854
165	0x3e92e516	0.28690404
166	0x3e956ebd	0.2918605
167	0xbd901101	-0.07034493
168	0xbec37b6b	-0.38180098
169	0xbdb0b8de	-0.086290106
170	0x3b4e7ece	0.0031508687
171	0xbe0c2fe9	-0.13690151
172	0xbe2a6630	-0.16640544
173	0xbe5da9cf	-0.21646808
174	0x3d671aeb	0.056422155
175	0x3e0720fe	0.1319618
176	0xbc73fbd1	-0.014891581
177	0xbce7c48d	-0.028291965
178	0x3e63da04	0.22251135
179	0xbed28262	-0.411151
180	0x3e31e91f	0.17374085
181	0x3e39bd20	0.18138552
182	0x3e0d7008	0.13812268
183	0x3dbda30e	0.09259616
184	0xbe1ab8c5	-0.15109546
185	0x3ea6bd64	0.3256637
186	0xbd3efc32	-0.04662723
187	0x3965e11b	0.00021923
188	0xbe814f78	-0.25255942
189	0x3ec41a91	0.3830152
190	0xbead13de	-0.3380422
191	0xbd4690fd	-0.048478115
192	0xbce21ca0	-0.02760154
193	0xbe9cef98	-0.30651546
194	0xbe047553	-0.1293538
195	0x3d8a5564	0.06754568
196	0x3e918bee	0.2842707
197	0x3dade61d	0.08491156
198	0x3e41bf2b	0.18920581
199	0xbd1f0545	-0.038823385
200	0xbf26d507	-0.65168804
201	0x3c1608bf	0.009157359
202	0xbdc8b833	-0.09800758
203	0xbe8df41d	-0.27725306
204	0xbe9f279a	-0.310849
205	0x3e02c88d	0.12771817
206	0xbde3af4c	-0.111174196
207	0x3dbca067	0.09210282
208	0xbd9d673b	-0.07685705
209	0xbecb624b	-0.3972343
210	0xbe344d81	-0.1760769
211	0xbe9953a7	-0.29946634
212	0xbe85be03	-0.2612153
213	0x3e8b7d12	0.2724386
214	0xbe7f9e7b	-0.24962799
215	0x3d88934c	0.0666872
216	0x3dcf1983	0.10112288
217	0x3dbbb4b8	0.09165329
218	0xbdc60273	-0.09668436
219	0x3c297f29	0.010345259
220	0x3d8c480a	0.06849678
221	0x3e7b909c	0.24566883
222	0xbf02cd31	-0.5109435
223	0x3e886657	0.2664058
224	0x3e64f7a0	0.22360086
225	0x3e004161	0.1252494
226	0xbc426f2c	-0.011867326
227	0x3d3872da	0.045031406
228	0xbda3fd26	-0.080072686
229	0x3d753122	0.05986131
230	0x3d341926	0.043969296
231	0xbf130eaf	-0.5744428
232	0x3e7e0700	0.24807358
233	0xbe0cfa1a	-0.13767281
234	0x3d9e98a6	0.07743959
235	0xbd46573a	-0.04842303
236	0xbe968fcb	-0.2940658
237	0xbe6bf1e2	-0.2304149
238	0x3f0e56ba	0.55601084
239	0xbe045ad5	-0.12925275
240	0x3d8a0388	0.06738955
241	0x3e17685f	0.14785908
242	0xbe0f59be	-0.13999078
243	0x3e1f8081	0.15576364
244	0x3e3a6e6c	0.18206185
245	0x3eb52ac6	0.35384196
246	0xbe697c91	-0.22801425
247	0xbe07fbd2	-0.13279656
248	0xbca09b7e	-0.019605394
249	0x3d30d406	0.04317095
250	0x3e9b19fc	0.30293262
251	0x3d03ae41	0.032148603
252	0xbe89dec2	-0.26927763
253	0xbe567446	-0.20942792
254	0x3c7e34bb	0.015515502
255	0xbe16700b	-0.14691179

conv6.bias f4 [32]
0	0xbe00b09d	-0.12567373
1	0x3b8a4ad0	0.004220344
2	0x3dee3c1c	0.11632559
3	0x3e51ced0	0.20489049
4	0x3e9a9df3	0.3019863
5	0x3e48e611	0.19619013
6	0x3e7a7f33	0.24462585
7	0x3e7f36a3	0.24923186
8	0xbbb76106	-0.005596283
9	0xbe30fcbf	-0.17283915
10	0xbd8bef2b	-0.06832727
11	0xbd6616ea	-0.056174196
12	0x3e037605	0.1283799
13	0xbe439f94	-0.19103843
14	0x3cdf766b	0.027278146
15	0x3e38da34	0.18051988
16	0x3dab8dae	0.08376633
17	0x3c85d858	0.016338512
18	0x3b82f5f2	0.003996604
19	0xbe0731aa	-0.13202539
20	0x3d1ea1d7	0.03872856
21	0xbe19bf01	-0.15014268
22	0x3e5fbf16	0.21850237
23	0xbe543be4	-0.20725971
24	0xbd91c6bb	-0.07117983
25	0x3e017811	0.12643458
26	0xbb1d004c	-0.0023956476
27	0xbe0808a0	-0.1328454
28	0x3d4c7277	0.04991385
29	0x3e1f5e4f	0.1556332
30	0x3d910a0d	0.07081995
31	0xbdc95e57	-0.09832447

bn4.weight f4 [32]
0	0x3fb4ea29	1.413396
1	0x3fd0a3d8	1.6300001
2	0x3fa70cd5	1.3050791
3	0x3fc4982a	1.5358937
4	0x3f9d97b9	1.2311927
5	0x3fb3a7f6	1.4035633
6	0x3fac4d21	1.3461038
7	0x3fa0b891	1.2556325
8	0x3fe852a5	1.8150221
9	0x3fc9af4b	1.575662
10	0x3fdf8cd9	1.7464858
11	0x3fe043b5	1.7520663
12	0x3f96c0c6	1.177758
13	0x3fc2c661	1.521679
14	0x3fb65484	1.4244542
15	0x3fa9fa5b	1.3279527
16	0x3fc24da0	1.5179939
17	0x3fb667b6	1.42504
18	0x3fd7c957	1.6858319
19	0x3faa556f	1.3307322
20	0x3fa153ff	1.2603759
21	0x3fd3b2ee	1.653898
22	0x3ff5fe75	1.9218279
23	0x3fe6f248	1.8042688
24	0x3fa559fb	1.2918085
25	0x3fb093ff	1.3795165
26	0x3fb976b2	1.4489348
27	0x3faaa044	1.3330159
28	0x3fbdf01a	1.4838898
29	0x3fabef78	1.3432455
30	0x3fb5b47d	1.4195706
31	0x3fbd1cdb	1.4774431

bn4.bias f4 [32]
0	0xbf04ad5a	-0.51827013
1	0xbe0af4ee	-0.13569996
2	0xbf7330ba	-0.94996226
3	0x3ea05463	0.31314382
4	0xbf05d987	-0.52285045
5	0xbd5fd492	-0.054646082
6	0xbd4f70bb	-0.050644618
7	0xbf41baa6	-0.7567543
8	0x3af7bb5c	0.0018900442
9	0xbedee42d	-0.4353346
10	0xbee8dc9b	-0.4548081
11	0xbe732ca5	-0.237475
12	0xbf1a8769	-0.6036287
13	0xbe2c849d	-0.16847463
14	0xbec8f4ea	-0.39249355
15	0xbe4bf57c	-0.19917864
16	0xbed2c3d3	-0.41165027
17	0xbe8750dd	-0.2642888
18	0xbe99c715	-0.300347
19	0xbeaef9c7	-0.3417494
20	0xbe8140eb	-0.2524484
21	0xbeaac103	-0.3335038
22	0x3ea2643c	0.31717098
23	0xbf5bec6e	-0.8590764
24	0xbe8a64c2	-0.27029997
25	0xbe98fc88	-0.29880166
26	0xbdb4ca5a	-0.08827658
27	0xbdfa819c	-0.12231752
28	0xbf0b6dcb	-0.54464406
29	0xbe491f2a	-0.19640794
30	0x3dc33a5b	0.09532615
31	0xbebc81d0	-0.3681779

bn4.running_mean f4 [32]
0	0xbd825a2e	-0.06364857
1	0xbea234ef	-0.3168101
2	0xbeddea12	-0.43342644
3	0xbd2d8fe1	-0.04237354
4	0x3ee3d68c	0.44499624
5	0x3ec3dace	0.38252872
6	0x3e940042	0.28906447
7	0x3e8efa76	0.27925462
8	0xbecf2656	-0.40458935
9	0xbbbf28f7	-0.005833741
10	0xbe9ef0a4	-0.3104297
11	0xbf3c7d90	-0.73629093
12	0xbe2b86d0	-0.16750646
13	0xbdefa64d	-0.11701641
14	0x3f41fe68	0.7577882
15	0x3f190f2a	0.59788764
16	0xbd4242c5	-0.047426958
17	0xbf574017	-0.8408217
18	0x3d2b2654	0.0417846
19	0xbe0ff4be	-0.14058205
20	0x3c515ba5	0.012778197
21	0xbf33c58f	-0.70223325
22	0xbb74fe14	-0.0037382888
23	0xbeb386f4	-0.350639
24	0x3e4eb935	0.20187838
25	0xbea9ad26	-0.33139914
26	0xbeb74643	-0.35795793
27	0xbe39bb17	-0.18137775
28	0xbd297302	-0.041369446
29	0xbcb177b2	-0.02166352
30	0x3e871146	0.26380366
31	0xbddb6709	-0.10713012

bn4.running_var f4 [32]
0	0x3d9cb641	0.0765195
1	0x3d13aca6	0.036053322
2	0x3d1c34ff	0.03813648
3	0x3d9787f7	0.0739898
4	0x3d43c6c1	0.04779697
5	0x3d495b69	0.04915944
6	0x3d5652f5	0.052325208
7	0x3d283d97	0.04107436
8	0x3d58effa	0.052963234
9	0x3d376a04	0.04477884
10	0x3e124698	0.14284742
11	0x3d7c883f	0.061653372
12	0x3d078513	0.033085894
13	0x3d83bf91	0.06433023
14	0x3d517494	0.05113657
15	0x3d1c9221	0.038225297
16	0x3d997a56	0.07494037
17	0x3d91cc82	0.07119085
18	0x3ce45e12	0.027876887
19	0x3cf48d0c	0.029852413
20	0x3d7ed8e0	0.062218547
21	0x3df8816a	0.12134059
22	0x3db8f598	0.09031218
23	0x3c91df19	0.017806577
24	0x3e141d3f	0.14464281
25	0x3d625314	0.05525501
26	0x3d370b8f	0.044688758
27	0x3dcbccbc	0.09951159
28	0x3caf12a3	0.021371191
29	0x3d866c60	0.0656364
30	0x3db4bafc	0.08824727
31	0x3d31d517	0.04341611
