networks/pretrained_models/iscx2016vpn/NiN_Prune30_Percent_Check_Size.pth (torch, 53274 bytes, 44 tensors)

conv1.weight f4 [11, 1, 2]
00000000: 20e3 2a3e d258 fe3e 2fd7 a8bd 529f a8be
00000010: 962a d83e cc6e acbe 09a9 b2bd 99dd 2bbd
00000020: b28d 7fbe 34e1 91be c901 0cbf 6256 dabe
00000030: 1ace 14bf a8f5 67be 1406 95be f386 39ba
00000040: c776 733e d40b 3c3b 5ab1 f0be 0dd0 4dbe
00000050: 26e5 67bc 631d c8be
0.16688204 0.4967714 -0.08244168 -0.32934052 0.4221999 -0.3367828 -0.08723647 -0.04195938
-0.24956396 -0.2849213 -0.54690224 -0.4264403 -0.58126986 -0.22652304 -0.291062 -0.0007077299
0.23775779 0.0028693574 -0.47010309 -0.20098896 -0.014153754 -0.3908492

conv1.bias f4 [11]
00000000: b107 1b3f 9acd 6e3e a4f7 db3e 4c49 e3bd
00000010: a475 79bd 605a adbd 5c8e 103f 7efd 1c3f
00000020: d641 073f 6bf4 29bf ede5 0ebf
0.6055861 0.23320618 0.42962372 -0.11097965 -0.060903206 -0.08464503 0.56467223 0.613243
0.5283483 -0.6638858 -0.5581959

bn1.weight f4 [11]
00000000: 0000 803f 0000 803f 0000 803f 0000 803f
00000010: 0000 803f 0000 803f 0000 803f 0000 803f
00000020: 0000 803f 0000 803f 0000 803f
1.0 1.0 1.0 1.0 1.0 1.0 1.0 1.0
1.0 1.0 1.0

bn1.bias f4 [11]
00000000: 0000 0000 0000 0000 0000 0000 0000 0000
00000010: 0000 0000 0000 0000 0000 0000 0000 0000
00000020: 0000 0000 0000 0000 0000 0000
0.0 0.0 0.0 0.0 0.0 0.0 0.0 0.0
0.0 0.0 0.0

bn1.running_mean f4 [11]
00000000: 3f29 c13d 3352 193b 0910 3f3d de02 90bc
00000010: 7e87 07bd 706d 6bbd 1614 833c 4ddd 3f3d
00000020: abac 843d 87db ccbd 7fce 9cbd
0.09431695 0.0023394942 0.04664615 -0.017579492 -0.0330882 -0.057477415 0.016000789 0.04684191
0.06478246 -0.10002809 -0.076565735

bn1.running_var f4 [11]
00000000: 6000 673f b2a6 663f a4ff 663f ae6b 663f
00000010: fcb7 663f 8f77 673f cf40 673f ae94 663f
00000020: 4f85 663f 5df9 663f 67ba 663f
0.9023495 0.90098107 0.90233827 0.90008056 0.9012449 0.90416807 0.90333265 0.9007062
0.9004716 0.9022425 0.9012818

conv2.weight f4 [11, 11, 1]
00000000: eecb 11be 77a4 85be b9bd 203e 0073 c4bd
00000010: a1cb 29be 97a2 863c 9c36 483e c9c4 9e3c
00000020: 667f 5c3e 084b 453d e952 46be 9198 583e
00000030: 4828 1dbd dd84 23be 7bfc 3b3e 482f 43be
00000040: db73 21bd 7d4b 59bc 5d75 3ebe 6328 4fbe
00000050: e6ae 163e ad84 83be dadc ce3b e6f3 71be
00000060: 4374 fd3c 7abd febd d213 553e b228 603d
00000070: d2e2 68bd d5f2 233d 2b6a 64be c422 80be
00000080: 9974 2fbe 766e 1abe 51b4 4a3e 513e f73c
00000090: f27e 523e 7f8c 3a3d 28e6 35be 51bd 1abe
000000a0: 7a91 97bd 9a19 583c de10 3fbd 1307 863e
000000b0: 0592 7ebc 442c 933e 3719 18be 69d6 7cbe
000000c0: 0aca 503e b2ec 00be c95f 6ebe 8132 8bbe
000000d0: 6be2 99bd 1de7 c1bd 6b19 e3ba 6045 90be
000000e0: de8b 743e 8b0e 853e 7ceb b7bd f14e dd3d
000000f0: bc4f 40be a695 29be bb70 1f3e 0d00 673e
00000100: d63c 163e 683e 963e 60e0 03bc b257 ea3d
00000110: 6053 f13b 6d5d 83bd c5de 96be 4315 08bd
00000120: bea1 56be ed18 d8bd ce8d 513e 3a55 243e
00000130: 80e9 923e d7f8 22be f286 dcbd 69d7 82be
00000140: d61f 5bbe c0aa c83d 0533 7bbe f6aa 533e
00000150: f882 853d 0729 f93b e93f 723e 7e90 1fbd
00000160: 01ca 4ebe 6983 38bd cb4c 8cbe 7c1f 853e
00000170: 3272 823e 7f79 afbc f4e7 6c3e 0f35 8ebe
00000180: 269e 5e3e 7895 02be 8109 253e f938 2fbe
00000190: 0fd6 ca3d 49d9 213e 45e3 2e3c d033 d6bd
000001a0: 29b5 943e aa5b 8c3e b60f 8d3e db28 903d
000001b0: 7524 873e 1f5b cdbd 3a8c 073d 9f98 f7bb
000001c0: 1d62 823e 1dec 8a3e 4498 62be baa4 88be
000001d0: 278b 6c3e 0259 c13c 63b2 e73d 7f59 15be
000001e0: ae65 853e
-0.14237949 -0.2610204 0.15697373 -0.09592247 -0.16581585 0.01643495 0.19552082 0.019380944
0.21532974 0.04816726 -0.19367565 0.2115195 -0.038368493 -0.15968652 0.18358032 -0.19061005
-0.03941713 -0.013262627 -0.18599458 -0.2023025 0.14715156 -0.2568716 0.0063129487 -0.23628196
0.030939227 -0.124384835 0.20808342 0.05472631 -0.056856938 0.040026505 -0.22306125 -0.25026524
-0.17134322 -0.150812 0.19795348 0.030181082 0.20556238 0.045544144 -0.17763579 -0.15111281
-0.07400794 0.013189698 -0.046646945 0.26177272 -0.015537743 0.2874471 -0.14853369 -0.24691166
0.20389572 -0.12590292 -0.23278727 -0.2718697 -0.07513889 -0.094679095 -0.0017326301 -0.2817793
0.2388148 0.25987658 -0.08980462 0.108060725 -0.18780416 -0.16560993 0.15570347 0.22558613
0.14671645 0.29344487 -0.008049101 0.11442508 0.0073646754 -0.06414304 -0.29466835 -0.0332234
-0.20960137 -0.10551629 0.2046425 0.16048136 0.2869377 -0.15915237 -0.10767926 -0.2555497
-0.21398863 0.09798193 -0.24531181 0.20670685 0.06519121 0.007603768 0.23657192 -0.038956158
-0.20194246 -0.045047197 -0.27402338 0.26000583 0.2547775 -0.021420239 0.23135358 -0.27774855
0.21740016 -0.1275233 0.16116907 -0.17111577 0.0990411 0.15805544 0.0106743025 -0.10459101
0.29044464 0.27413684 0.2755105 0.070390426 0.26395002 -0.100271456 0.033092715 -0.0075560356
0.2546548 0.27133265 -0.22128397 -0.26688176 0.23099957 0.023602013 0.113133214 -0.14584921
0.26054138

conv2.bias f4 [11]
00000000: 118b 163d 34c5 093e 7482 7dbe cbf2 86be
00000010: 0cf8 be3d f753 623d 8b29 2c3e b43f 94bd
00000020: 57c3 643d 8d7c 48be 1836 973e
0.036753718 0.13454133 -0.24756795 -0.2635711 0.09324655 0.055255856 0.16812722 -0.07238713
0.055850353 -0.19578762 0.29533458

conv3.weight f4 [11, 11, 1]
00000000: df4c 883e b152 993d d2e8 393e 83c4 c9b9
00000010: 9bcc e13d 12a0 7a3e da42 05be 6706 82bd
00000020: a5f6 84be 5be9 cabc 8827 8dbe c0fd 0abe
00000030: a3f4 6d3d 8941 97be 0380 02be 95ff c63c
00000040: ced5 d93d 717a 0abe cb98 84be 7294 39be
00000050: 76f8 92be 20a1 543d 1fc2 70be fe3e a03d
00000060: 6774 57be c888 89be ac3c 97be 4206 783e
00000070: 1bc4 4ebe b94b c1bd 8587 723e f99e 8c3e
00000080: 7822 f93c c43b 97be 34f0 0cbd 3ab1 703e
00000090: 9ebe 04be d991 863e 905d bfb9 fb3f 5c3d
000000a0: e238 a7bc 7497 5c3d f84f 903e a822 903b
000000b0: 0ec7 7c3e d65e 663e d279 873e a6ab 533e
000000c0: e125 863d ef42 00be e7df 493e 98c9 6b3e
000000d0: 6519 653e 7144 f63d 9b93 883e aa4a 403d
000000e0: 14b2 aa3d 02a8 f23c 788b 05be d71c 35be
000000f0: dcb8 aa3d 4900 f93d 9706 a8bc 744a 2f3e
00000100: 297b e1bd 4c1b cd3b b0b8 23be 02f7 cebc
00000110: 68ec 37be e83e dcbd 7a88 92bd ff5a ffbd
00000120: a503 b9bd a2db 81be 2099 d83d e94a 15be
00000130: ed38 973d aa15 7dbe 5d1c 2dbe f0dd 413e
00000140: 7e05 9cbd 96f3 623e 0e3a a03d a31b 92be
00000150: eb74 4bbd f63a 943e 365b 07be b115 97be
00000160: 124b 453e 9633 babc e3b6 eebd 2930 443e
00000170: 3408 4a3c 3898 b1bd 3998 d03d b234 25bd
00000180: 6f0d e3bd b7d7 103d 075b dfbd 55d2 14be
00000190: 55f4 463e c453 bf3d b4a9 1d3d 0f01 fa3d
000001a0: 137e 6bbe 7c8e 3fbe a21e 613e 84bd d9bd
000001b0: 6e73 21be b576 5ebe d13e 43bd 273a 6dbd
000001c0: 589c 4ebe bd93 94be 8503 4f3e 2588 06be
000001d0: 904a 1f3e 7cef 44bd 0c1f 313e a466 12be
000001e0: 59de e6bd
0.26621148 0.07486475 0.1815522 -0.0003848412 0.110253535 0.24475124 -0.13013783 -0.063488774
-0.25969425 -0.024769476 -0.27569222 -0.1357336 0.058094632 -0.29542187 -0.12744145 0.024291793
0.10636483 -0.1352327 -0.25897822 -0.18123034 -0.28705186 0.051911473 -0.23511551 0.07824515
-0.21040498 -0.26862168 -0.29538476 0.24221137 -0.20191996 -0.09438271 0.23684509 0.27465037
0.030411944 -0.29537785 -0.034408763 0.23505107 -0.1296334 0.26283148 -0.00036500068 0.053771954
-0.020412866 0.053855374 0.2818601 0.0043986626 0.24685308 0.22497115 0.2646013 0.20670947
0.065501936 -0.12525533 0.19714318 0.2302612 0.22372968 0.12024773 0.26675114 0.046946205
0.08334747 0.029621128 -0.13041484 -0.17686783 0.083360404 0.121582575 -0.020510955 0.17118245
-0.11009819 0.0062593576 -0.15988421 -0.025264267 -0.17961276 -0.10754186 -0.07154937 -0.12468528
-0.09033898 -0.2536288 0.10576081 -0.14579357 0.073839046 -0.24715295 -0.16905351 0.18932319
-0.07618235 0.22163233 0.07823573 -0.2853671 -0.04967205 0.28951234 -0.13218388 -0.29508737
0.19266918 -0.022729676 -0.116559766 0.19158997 0.012331057 -0.086716115 0.10185284 -0.040333457
-0.11086547 0.03536197 -0.10906034 -0.1453336 0.19429143 0.09342149 0.03849192 0.12207233
-0.22997312 -0.18706697 0.21984342 -0.1063185 -0.15766689 -0.2172497 -0.04766733 -0.057916787
-0.20176828 -0.29018965 0.20216186 -0.13137873 0.15555787 -0.048079953 0.17297 -0.14296967
-0.11272878

conv3.bias f4 [11]
00000000: e5df 623e fa29 0b3d 2b5c 913e f09d 903d
00000010: 5996 fabd 3a7d 92be 6383 2e3c 87ab 90be
00000020: 9ead b639 3d93 723e c812 663e
0.22155721 0.03397558 0.2839063 0.07061374 -0.12235708 -0.28611165 0.010651442 -0.28255865
0.000348431 0.2368898 0.22468102

bn2.weight f4 [11]
00000000: 0000 803f 0000 803f 0000 803f 0000 803f
00000010: 0000 803f 0000 803f 0000 803f 0000 803f
00000020: 0000 803f 0000 803f 0000 803f
1.0 1.0 1.0 1.0 1.0 1.0 1.0 1.0
1.0 1.0 1.0

bn2.bias f4 [11]
00000000: 0000 0000 0000 0000 0000 0000 0000 0000
00000010: 0000 0000 0000 0000 0000 0000 0000 0000
00000020: 0000 0000 0000 0000 0000 0000
0.0 0.0 0.0 0.0 0.0 0.0 0.0 0.0
0.0 0.0 0.0

bn2.running_mean f4 [11]
00000000: db46 3d3c a490 00bc 0698 353d 5423 883c
00000010: 73f8 823c ce3a bbbc 1325 05bc 852a 51bd
00000020: 7329 9cbb 3374 fabb fe9a 373c
0.011552538 -0.007846985 0.044334434 0.016618408 0.01598761 -0.022855189 -0.008126515 -0.05106594
-0.0047656833 -0.0076432466 0.011206387

bn2.running_var f4 [11]
00000000: a375 663f ac16 673f 63ef 673f f1ff 663f
00000010: 9896 663f 507e 663f 1592 663f f4f3 663f
00000020: 6371 663f df9b 673f 209b 663f
0.9002325 0.9026897 0.9059965 0.90234286 0.9007354 0.9003649 0.90066653 0.9021599
0.90016764 0.90472215 0.9008045

conv4.weight f4 [22, 11, 2]
00000000: 57ab d8bd cc42 0cbe c46c 0dbe 2b2e 98bd
00000010: ffd4 3cbe 1732 e6bd b81e 24be a0ea 9c3d
00000020: 3cb7 653d ea24 d6bd 7cdc 1d3e b6f9 1cbe
00000030: 7986 9a3d b170 20be 3e88 513e d987 233e
00000040: c5f9 943d 9fb8 0d3e 9a3d 8abd 4678 153e
00000050: 893d 733b cff8 b43d 3c78 e9bd b369 583c
00000060: fe1b 44be 28fb 84bd 098f d6bd 4e85 533d
00000070: 9c0b 47bc f971 813d 0911 fb3d 74f7 2dbe
00000080: 3941 debd 1fe1 073e d28a e1bd 8abd 503e
00000090: 955f 493e d407 ffbd 5000 c73b 76be 1f3e
000000a0: 31b6 253e b997 b4bb dfdd 4dbe a1f1 92bd
000000b0: 6a42 0c3b f57a a83d df0f d3bd 5dc7 a53c
000000c0: 0438 cc3b df79 ae3d ca09 443e 6ab7 3cbe
000000d0: 0026 cdbd f868 43be 63ea 9e3d f124 a53d
000000e0: 5a30 3b3e 8896 9a3c af5e edbc bbff ab3d
000000f0: 6ea5 bd3d 63a3 df3d a4e9 593e c4f2 9abd
00000100: 732b dc3d 2f72 29be 35d6 2ebe 4910 073e
00000110: 1a3e 133d 6ff9 f63d 945d 853d 5250 2bbd
00000120: fd8c dcbd 3a59 d3bc 998e 0dbe 0b38 10be
00000130: c580 863c 8fe0 2abe bd8c 343e 1c57 fa3d
00000140: 3af8 37be 9bdb 163b f9c1 9c3c 338e 0fbe
00000150: ab00 9e3d f0be 9fbc 4833 1d3e db6b d33d
00000160: 9f65 903d c536 11be 206a b23d b5d2 e23d
00000170: 9e46 c8bd 5798 a93d efe8 bd3d 2069 ea3c
00000180: 263a 3cbe 9dc1 75bc f4c1 ea3d e374 c1bd
00000190: dfac b6bd 1e1c 17be 4a57 3d3c 69e3 263e
000001a0: 7764 4cbd f06d c93d 31ed 83bd 33c8 55be
000001b0: e7df 1d3d a6fc 7a3d df0b 033e 1120 273e
000001c0: 4afd 963a 8595 3dbe a9c0 843d 8463 56bd
000001d0: 304c 15be 8b0c 213e fd4c 28bc d06b bfbc
000001e0: 91d5 0a3e fab7 1abd 3ba9 8fbd f557 bd3d
000001f0: b987 4bbd c460 8abd 7227 083e 7d83 bdbd
00000200: 00f2 e83c d2b3 d03d 6e17 923d 3d5e 8e3c
00000210: 8641 02bd 5ad3 2b3e 47e8 6cbd b8fc dc3d
00000220: 6da7 f13d bd8e 2d3d 23a5 e339 97d5 a13c
00000230: 36bd ccbd d671 b0bd a90b 1e3d 693e 39be
00000240: 42ba 383e f2f5 013d c0d9 69bd 06a0 43be
00000250: f838 34be 5fae 373e e757 3c3e a1f4 273e
00000260: 5789 41bd 4d72 2e3e cdc9 523e 4ef6 a5bd
00000270: 4c6e d83d 23ff a03d 4303 09be b76e 3ebd
00000280: 24f0 1b3e eaa5 93bd af81 903d b880 d03d
00000290: 064a 4f3e 8814 3bbe e327 46bd 0849 003e
000002a0: 575a 57be a633 203e 5e84 35be fbb5 e3bb
000002b0: 8331 183e 82e1 493e c83d 59be ceca 59be
000002c0: a030 d4bd 2caa 21be 9be4 323d e392 da3d
000002d0: bd0c d1bd 3ef9 293e 21c2 10be 85ea c03d
000002e0: f602 00be a6f0 093d 7ece 593e 7347 b03c
000002f0: 5be6 fcbd e438 1cbe fabd 173e 9a75 0e3e
00000300: 377c f33a da5c 173e f0ce bf3d e851 3bbd
00000310: 37ea 9ebc c121 383e c0d0 1b3e 5286 58be
00000320: 5c6e 4abe 7dbe 023c 7f02 82bc 41a8 13be
00000330: 8baf f53c 0a93 f1bd 9992 19be 75d6 a2bd
00000340: f5f5 113d 10b4 21bd 32ba 34be 195e efbc
00000350: 831c a9bd 02cc 54be f013 3e3e 58ce 923d
00000360: 97c4 52be dce5 0d3d 15fc c0bd ae45 233c
00000370: 63f9 06be 3a94 2dbd ac92 c53b 35fb 58bc
00000380: a5f6 aa3d 1a5f 14be c450 d63d ee6c 4e3e
00000390: ec1c 123e 26a7 0bbd b916 a0bc 0010 9abb
000003a0: f5ed acbd 8ce7 23be f9f8 0d3e 1546 c8bc
000003b0: 1436 383e 3004 793d 68d3 e73a 3b78 f13d
000003c0: 11e5 7e3b e36d 423e e99e ce3d 7443 b3bb
000003d0: 5b51 febd 1798 f2bc 4355 fd3d 334d dbbd
000003e0: 90c9 173d 27a6 f63d 018b f23d 9661 c8bb
000003f0: d6d9 ab3d da96 9dbc 7378 233e 3d0c 163d
-0.105795555 -0.13697356 -0.13811022 -0.07430681 -0.18440627 -0.11240023 -0.16027343 0.07661939
0.05608295 -0.104562595 0.1541614 -0.15329632 0.0754518 -0.15667988 0.20462129 0.1596979
0.07274202 0.13839959 -0.06750031 0.14596662 0.0037115535 0.08836519 -0.11399886 0.013208794
-0.19151303 -0.06493217 -0.104765005 0.0516408 -0.012148764 0.06320567 0.122591086 -0.16988927
-0.10852284 0.1326947 -0.11012806 0.20384803 0.19665368 -0.12452665 0.0060730353 0.15599999
0.16182782 -0.005511251 -0.20104168 -0.07174993 0.002140189 0.08226577 -0.103057615 0.020236665
0.0062322635 0.08519339 0.19144359 -0.18429342 -0.100170135 -0.19083011 0.077595495 0.08063687
0.18280163 0.018870607 -0.028975813 0.08398386 0.09260069 0.109198354 0.21280533 -0.07565835
0.10750475 -0.16547464 -0.17073901 0.13189806 0.035947897 0.120592944 0.06511989 -0.041824646
-0.10769079 -0.025799382 -0.13823928 -0.14083879 0.016418824 -0.16687225 0.17631812 0.12223646
-0.17965785 0.0023019079 0.019135462 -0.14019088 0.07714971 -0.019500226 0.15351593 0.10323306
0.07050633 -0.14181049 0.08711648 0.110753454 -0.09779094 0.0828101 0.09272944 0.02861458
-0.18381557 -0.014999774 0.11462775 -0.094461225 -0.08919691 -0.1475682 0.011556456 0.16297688
-0.0499005 0.09835422 -0.06441725 -0.20877151 0.038543608 0.0612761 0.12797497 0.16320826
0.0011519578 -0.18514068 0.064820595 -0.052341 -0.14579844 0.15727441 -0.010272262 -0.023366839
0.13558032 -0.03777311 -0.070147 0.09245292 -0.049689982 -0.06756738 0.13296297 -0.09253595
0.028435707 0.10190548 0.07133375 0.01737892 -0.03180077 0.16779843 -0.057838704 0.1079039
0.11799512 0.042372454 0.0004341985 0.019755168 -0.099970266 -0.086154625 0.03858534 -0.18090214
0.18039802 0.031728692 -0.05709243 -0.19104013 -0.17599857 0.17937611 0.18392907 0.16401912
-0.047250118 0.1703579 0.20584793 -0.081036195 0.105679125 0.078611635 -0.1338015 -0.046492305
0.15228325 -0.0720938 0.07055985 0.10180801 0.20243081 -0.18269551 -0.048377883 0.12527859
-0.21030556 0.15644702 -0.17726275 -0.006949184 0.14862637 0.1971493 -0.21214974 -0.2126877
-0.10360837 -0.15787572 0.043675046 0.10672548 -0.10207508 0.16598985 -0.14136554 0.09419731
-0.1250113 0.033676766 0.21270177 0.021518445 -0.12348624 -0.15256077 0.14818564 0.13912049
0.0018576448 0.14781514 0.09365642 -0.04573241 -0.019398792 0.17981626 0.1521635 -0.21144989
-0.19768661 0.007979986 -0.01587033 -0.14419653 0.029990932 -0.117956236 -0.14997329 -0.07951061
0.035634954 -0.03947836 -0.17649153 -0.029219674 -0.08257391 -0.20780948 0.18562293 0.07168263
-0.20582806 0.03464304 -0.09423081 0.009965343 -0.13181071 -0.042377688 0.0060294475 -0.013243486
0.08347825 -0.14489403 0.104646236 0.20158741 0.14268845 -0.034094952 -0.019542085 -0.0047016144
-0.08443824 -0.16006297 0.13864507 -0.02444748 0.17989379 0.06079501 0.0017686905 0.1179051
0.0038893858 0.18987231 0.100889035 -0.0054706875 -0.12417861 -0.029613538 0.12369778 -0.10708084
0.03705746 0.1204341 0.11842919 -0.006115149 0.08391158 -0.01923697 0.15963916 0.036632765

conv4.bias f4 [22]
00000000: fe7d 2abe ce2c 0bbe 32b7 803d 73a1 283e
00000010: 6ea0 1abe 5226 2cbd a5b1 95bd fc1f 593a
00000020: 170e 93bd 1318 dc3d 1f51 003e b986 1c3e
00000030: 187c 593e 631a d83d 9f67 933c b1a5 543e
00000040: eade ad3d fc15 2cbc 25df 4cbe c657 38be
00000050: 244b 393e c31e 983c
-0.16649625 -0.1359131 0.06284942 0.16467838 -0.15100262 -0.042028733 -0.07309274 0.0008282659
-0.07180422 0.10746779 0.12530945 0.15285768 0.21238744 0.10551908 0.017993746 0.20766331
0.08489783 -0.010503288 -0.20006998 -0.18002233 0.1809507 0.018569356

bn3.weight f4 [22]
00000000: 0000 803f 0000 803f 0000 803f 0000 803f
00000010: 0000 803f 0000 803f 0000 803f 0000 803f
00000020: 0000 803f 0000 803f 0000 803f 0000 803f
00000030: 0000 803f 0000 803f 0000 803f 0000 803f
00000040: 0000 803f 0000 803f 0000 803f 0000 803f
00000050: 0000 803f 0000 803f
1.0 1.0 1.0 1.0 1.0 1.0 1.0 1.0
1.0 1.0 1.0 1.0 1.0 1.0 1.0 1.0
1.0 1.0 1.0 1.0 1.0 1.0

bn3.bias f4 [22]
00000000: 0000 0000 0000 0000 0000 0000 0000 0000
00000010: 0000 0000 0000 0000 0000 0000 0000 0000
00000020: 0000 0000 0000 0000 0000 0000 0000 0000
00000030: 0000 0000 0000 0000 0000 0000 0000 0000
00000040: 0000 0000 0000 0000 0000 0000 0000 0000
00000050: 0000 0000 0000 0000
0.0 0.0 0.0 0.0 0.0 0.0 0.0 0.0
0.0 0.0 0.0 0.0 0.0 0.0 0.0 0.0
0.0 0.0 0.0 0.0 0.0 0.0

bn3.running_mean f4 [22]
00000000: 1346 c1bc a528 a7bc 5d37 d73c 4ba9 533c
00000010: 380d a8bc 3743 333c 45d8 573c a2cc fb3b
00000020: faf4 2d3c b699 1dbd 5d32 113d 27cc 283d
00000030: 449a 163d 5235 e63b 0838 e1bc 177c 353d
00000040: fccd 463d 3b31 823c fb9e f4ba d061 2bbc
00000050: 620b 02bc 782b a5bc
-0.023592984 -0.020405123 0.026271516 0.012918781 -0.020514116 0.010941318 0.013174121 0.0076843062
0.010617489 -0.03847667 0.03544842 0.04121032 0.036768213 0.0070253992 -0.027492538 0.044307794
0.048536286 0.015892616 -0.0018663103 -0.010460332 -0.007937284 -0.02016233

bn3.running_var f4 [22]
00000000: 77e0 683f 65df 673f f30e 683f 4885 6a3f
00000010: 7d6c 683f a4c9 673f 45c1 693f 0a88 6a3f
00000020: d640 693f 039b 6a3f 9f5d 683f 9937 673f
00000030: 2f3a 693f 5e4e 693f ea31 6a3f 313d 693f
00000040: 4fd3 693f 501c 683f 814a 683f f82f 683f
00000050: ec65 683f 1630 6a3f
0.90967506 0.9057525 0.9064781 0.9160962 0.9079054 0.90542054 0.9131053 0.9161383
0.91114557 0.9164278 0.90767854 0.9031921 0.91104406 0.91135204 0.9148241 0.91108996
0.91338056 0.906682 0.90738684 0.90698195 0.9078052 0.91479623

conv5.weight f4 [22, 22, 1]
00000000: 5d8a 883c 7992 7b3d 4f71 b43d 9a94 29be
00000010: 4ce2 1c3d ef2d 07be 2e39 423e 78ed 223d
00000020: 9ea0 293e 8d37 5fbc 682f 98bd ab84 d7bd
00000030: e1ef 04be 48da 463e 4b56 283e 9a51 2d3d
00000040: ab35 07bd 5a7c fa3d 4313 ca3d bb41 463e
00000050: 82a2 43be 9472 543e 1835 a6bd c360 efbd
00000060: 39f7 183e 7498 66bd 98f5 f33d bd76 503e
00000070: 0142 493e 6f33 3dbe 4ccc 88bc bb89 903d
00000080: 1f26 1bbe 26e8 37be ec7c f2bd 3d4a b63d
00000090: 721d aabb f281 cf3a 7214 80bd 67bb e0bd
000000a0: e31e acbc 5711 e83d 5dcc 8abd 6e15 083e
000000b0: c8a5 2cbe cf92 05be 9c8a 0e3d df78 4fbe
000000c0: 5d97 823d 08da 813d aaec d03d f1be a4bd
000000d0: ead3 ca3c bb03 0abd ec9e 0ebe 5f83 163e
000000e0: 50f2 29be f0b5 4dbe a0e5 39bd 10c0 07bd
000000f0: 0c1c 89bd 8b4e 1b3e 53a2 343e c4bf 00be
00000100: 6a1b a53c 7e73 823d d964 93bd f019 fe3c
00000110: e58e 4e3e a165 043e 3102 933c 65b6 0cbb
00000120: cddd 593e cdec 38be 1996 103c 2701 053e
00000130: 2a67 0c3e 8f0b 1bbe 459a 57be c526 c8bd
00000140: b848 3ebe 547b 45be d0ef 413e 2f27 b7bd
00000150: 0a48 e93d 9d76 59be edec 38bd 3d65 52be
00000160: b974 cdbd e95b 86bd 7668 13be bca5 07be
00000170: 8beb a93d e43a 053e 3f08 08be 94bc 90b9
00000180: ab5e ddbc a110 50be 4395 dabd 564f 2e3d
00000190: 545c 1dbe ef39 acbd 2ced 2e3e 9e87 b7bd
000001a0: d2e9 cabd 794b 8abd 14e0 11bd f4f9 543d
000001b0: 990b 033e 63a7 0abd 0dec 57be 21ca 153e
000001c0: f56c 4d3e d9e9 093e bf27 5ebd 2c7d 3a3e
000001d0: c0ab 113e 9d7c 00be 93da 06be f9ff f33c
000001e0: 6b00 82bd 65a2 8dbd 0038 ca3d 8fd3 e03d
000001f0: b62c 52be 63e3 5bbb 2512 4a3e b9c3 553c
00000200: db9a 683d 4218 cb3d 6e20 07bd 72d7 c63d
00000210: abf6 313e 97c8 213e c80f 1c3e 9754 18be
00000220: ef50 0abd 1100 493e 6011 c13d 0f0f f7bd
00000230: 7c9c 3b3e b73f efbd f125 563e 1378 3b3e
00000240: 45fe 2fbe 8e7a 083e bd19 4c3e 9c6a febd
00000250: 47a5 50be 861d a63d 0f2c 3fbe c7ec 253e
00000260: 4995 80bd 1775 29be 898e 1c3d c64f beba
00000270: 6a36 06bd 7ecb 45be 26da 3d3e 9deb 75bc
00000280: eef9 3cbe e4d0 15bc 7525 8abd ba46 58be
00000290: b79c 15be 3ff0 21be 2d65 9ebc fcac 9b3d
000002a0: d998 19bd 28e0 33bc 4338 343d d99a 57be
000002b0: 7c8b 50be 5345 ddbd dbc0 e5bc 8f04 e43d
000002c0: 8e0b 683d 08f7 bdbd 0ea9 65bd c83f 21be
000002d0: 804e d33d 4a98 2bbe f575 d53c 03ab aebd
000002e0: ca3c f5bb 1297 3e3e b14b 123e 64aa fa3d
000002f0: f7e0 23be bf53 623c ab7d c13c e8a1 13bd
00000300: 92e0 223d c0d7 013d 1adc e0bd 0ff5 893d
00000310: 8e41 0d3e 32a7 1d3e 6601 c13d c5e7 24be
00000320: 939f ca3d f3b0 3e3e 7443 33bc f240 11be
00000330: 6ccd 56be d6e4 023e 4d71 1c3e 5460 41be
00000340: 246a a63c ec11 3fbe 9e74 093e e803 3a3e
00000350: 09af 4dbe 2db7 31be eeda e2bd 1662 42bd
00000360: 1f94 50be 5d27 2e3c fdbf d53c 2e03 5fbd
00000370: aa62 493e 1cd9 ea3c 2e14 7d3c f971 12be
00000380: 35bf a53a 221f a2bd 815d 67bd 9879 c2bd
00000390: 6845 43be 1544 6abb 5061 e3bd 6aa0 15be
000003a0: 1c1c 16be f466 063e 46d4 5b3d 8d15 22bb
000003b0: c215 59be 26bf 1d3e 6714 e7bd 76a3 c43b
000003c0: 86db 4b3e 1215 33be a620 533e 4c33 cdbd
000003d0: c9bf 9cbc 8194 cfbd fb9c 2ebe 4b22 063e
000003e0: 6146 4d3e 2c90 56be 5bcd b53d 80d8 07bd
000003f0: adf4 773d dc8a 4e3e 381b 5fbd bf7e e3bd
0.01666754 0.061418984 0.088106744 -0.16560593 0.03830175 -0.13201116 0.18967125 0.03977725
0.16565177 -0.013624084 -0.07430917 -0.10523351 -0.12982132 0.19419205 0.16439168 0.04231415
-0.033010166 0.122307494 0.09866955 0.19361012 -0.1910496 0.20746833 -0.081155956 -0.11688378
0.14938058 -0.056297734 0.11912078 0.20357795 0.19654085 -0.18476652 -0.016698979 0.0705752
-0.15151261 -0.17959651 -0.11840233 0.089008786 -0.0051914984 0.0015831573 -0.062539 -0.10973244
-0.021010822 0.11331432 -0.067772605 0.13289425 -0.16860116 -0.13044284 0.034800157 -0.20260952
0.063765265 0.06340414 0.1020139 -0.08044232 0.024759252 -0.033694964 -0.13927811 0.14698552
-0.16596341 -0.20088935 -0.045385003 -0.03314215 -0.06694803 0.1516668 0.17640047 -0.12573153
0.020154674 0.06369685 -0.071969695 0.031018227 0.20171697 0.12929393 0.01794538 -0.002147102
0.21276017 -0.18059082 0.008824849 0.12988721 0.13711229 -0.15141128 -0.21054943 -0.0977302
-0.18582428 -0.19285327 0.18939137 -0.089430206 0.113906935 -0.21236654 -0.045147825 -0.20546432
-0.10032029 -0.06560499 -0.14395317 -0.13246816 0.082968794 0.13010746 -0.13284396 -0.00027606322
-0.02702268 -0.20318843 -0.10673001 0.04255613 -0.15367252 -0.084094875 0.17082661 -0.08961414
-0.09907879 -0.067526765 -0.03561409 0.051996186 0.12797393 -0.03385104 -0.2108614 0.14627887
0.20061095 0.13468112 -0.054237124 0.18211812 0.14225674 -0.12547536 -0.13169317 0.029785143
-0.06347736 -0.0691574 0.098739624 0.109778516 -0.20524868 -0.003355228 0.19733484 0.013047152
0.056788307 0.09916736 -0.03298991 0.09709062 0.17379253 0.15799175 0.15240395 -0.14876018
-0.03376859 0.19628932 0.09427142 -0.12063419 0.18321413 -0.116820745 0.20912911 0.18307523
-0.1718684 0.13328001 0.19931693 -0.12422678 -0.20375548 0.081111 -0.18669151 0.16203605
-0.06278474 -0.16548572 0.03822187 -0.0014519624 -0.032766737 -0.19315907 0.18540248 -0.015009788
-0.18454716 -0.009144042 -0.067454256 -0.2112073 -0.14610563 -0.15814303 -0.019335354 0.076013535
-0.037499283 -0.010978736 0.043998968 -0.21055163 -0.20365709 -0.10804238 -0.028046062 0.11133682
0.056651644 -0.09275633 -0.056069426 -0.15746987 0.10317707 -0.16757312 0.026057223 -0.08528712
-0.0074840533 0.18612316 0.14286686 0.12239531 -0.16003786 0.013813912 0.023619493 -0.036043078
0.03976495 0.031699896 -0.10979481 0.06736194 0.13794538 0.15395811 0.09424095 -0.16104038
0.098937176 0.18622188 -0.010941375 -0.14184931 -0.209768 0.12782606 0.15277596 -0.18884403
0.020314284 -0.1865918 0.13423392 0.18165553 -0.20086302 -0.17355032 -0.11076914 -0.047456823
-0.20369004 0.010629502 0.026092524 -0.05444639 0.19666544 0.028667979 0.015446706 -0.1430129
0.0012645485 -0.07916094 -0.056485657 -0.094958484 -0.19069445 -0.0035746146 -0.11102545 -0.14611974
-0.1465916 0.13125211 0.053669237 -0.0024732084 -0.21199706 0.15404949 -0.11283188 0.0060009314
0.1990796 -0.17488506 0.20617923 -0.1001955 -0.019134419 -0.10135747 -0.17052071 0.13099019
0.20046379 -0.20953435 0.08877059 -0.033165455 0.060536075 0.20170158 -0.054469317 -0.11108159

conv5.bias f4 [22]
00000000: 3bcb 4e3e bdde 12be faa7 26be bf4c da3d
00000010: 90ef 573e 3688 90bd 7952 253d 995b b3bc
00000020: 0226 c93d 0f9b 0c3e 4780 1cbd 6d93 193e
00000030: da1e 803c e61a bb3c 20df ad3d df70 b93c
00000040: ed75 36be c5d8 d13d 0e45 093e e984 a53d
00000050: a9b3 c0bb 49ff d63d
0.20194714 -0.1434278 -0.16275015 0.106591694 0.2108748 -0.0705723 0.040361855 -0.021894263
0.098217025 0.13731025 -0.038208272 0.14997645 0.015639711 0.022839975 0.08489823 0.022636829
-0.17818423 0.10246424 0.13405249 0.08081991 -0.005880792 0.104979105

conv6.weight f4 [22, 22, 1]
00000000: 6127 f93d 5949 59bc b9ca 953d da23 0dbe
00000010: f1cb b1bd 2099 1c3e 6f16 efbd 97a2 463e
00000020: 15d8 9fbd 5676 58be 728a 08bd a547 163b
00000030: 038a d9bd 5d4b 463e 1fb3 0bbe 2a37 11be
00000040: 801f 0c3e 0095 13be 3453 1ebe 9dd6 28be
00000050: fb17 52be 56f4 babd c41d 513d a6e2 b23d
00000060: a5fb d4bd 1020 9f3d 5258 a0bd c6c7 4ebe
00000070: 2b40 983d 5c5d 57bd 1a37 063e 4834 a73d
00000080: 11b6 c7bc cad9 14bc a3a6 6f3b 6ce3 e8bd
00000090: fa62 353e 2e0c b03d 7448 82bd 627d 06be
000000a0: a985 df3d cc98 3fbd 0db2 313d 94ff 2b3e
000000b0: dd3d 3a3e f332 a73d 62fd 063e 0c6f 57be
000000c0: 2178 e6bd b67f 55bd 0ad4 bbbd 6afe e3bd
000000d0: 309f 253e 302a 0cbe f015 fcbb 0cfd f8bd
000000e0: cb3e a43d 9898 4e3d b08b 0bbe df57 58be
000000f0: 0bcd 3bbe e211 f7bc 6ba1 3cbe 5ca6 b93d
00000100: 5d7e 423e 052a 233d bd2a 2c3e f4de 8b3c
00000110: 649b 27bd 4672 0abc 54eb a63d 2d74 153e
00000120: 050f 8fbd 17ab aa3d 33a3 543e 49c1 fdbd
00000130: 774e 493e 84a6 d8bd 18f6 143d aed7 b03c
00000140: c328 c0bc aedf 7ebd 3f5f 37be 5b64 a1bd
00000150: 01e5 48be eb44 b13d eb3d cd3d 6756 8d3d
00000160: 569c dab9 4dfb e9bd 4526 50be ee60 1abe
00000170: c254 e23c bb6c cdbb 2df1 b53d 74d1 e1bd
00000180: 8db9 f33d 3412 3abe 43b3 e43d 3922 24be
00000190: abdb 80bd ad60 00be fb27 52be 812a 19be
000001a0: d66b 10be ba85 21be 471e 213e 44d3 213e
000001b0: fa69 3cbe 7571 ebbd 9c4d 2ebe dde9 423e
000001c0: b1e0 eabd e87b bebb b735 d43d 9b7a 07be
000001d0: 71cd 3c3e 102f 52bd 6db3 44be 8440 0d3e
000001e0: 8c89 c93d 9dd8 0e3e 572c 4a3e f345 ed3b
000001f0: be7b 09be e946 ecbc b74a 27be f2c8 b63d
00000200: 23c7 93bd dbd1 2c3e f3fa 01be 3e4e 213e
00000210: a008 d5bd bb23 373e 46e5 8d3d b593 273e
00000220: 6cbc c93d afef 47bd b112 603d 30f3 d73d
00000230: ebd3 bd3d 0852 20be 89a6 46be e420 3bbe
00000240: 8f41 d1bd f4d8 86bd 06f9 d7bd 0bc3 22bd
00000250: f044 4bbd 173c b63d aeae 45be 35a2 0ebe
00000260: 6797 57bd b8d3 243e cdd1 adbd 7a51 153d
00000270: fb0d 23be 5cfc 44be 6e75 603c df1e efbd
00000280: aab9 00be 409e 2a3e 6cc3 aa3c a374 4dbe
00000290: ac67 343e b6a1 cdbd 37c3 b2bc c33b c0bd
000002a0: 56e6 2f3c bbca 3d3e b267 123e 7712 463e
000002b0: 61b1 063d f48d 163e 0be6 493e db24 12be
000002c0: 04f4 dcbd e56c 0dbc 4d3f 5abe a864 4e3e
000002d0: 737c 483c 2220 c83b cf89 53be b848 3cbe
000002e0: 546a 27be c033 6fbd 1edc 523e 61a4 c0bd
000002f0: e1e5 07be 7566 20bc 3622 80ba cad5 45be
00000300: acbc 533e e01d 51bd 1d71 babd 94d8 59be
00000310: 402f f5bd 7a3f 283e 427a c03d 37c0 8e3d
00000320: 3e5f ec3d 03f7 4f3e d393 00be 6a5e 2e3e
00000330: 9e68 29be 9114 48bd 163c e83b 5d82 11be
00000340: fa91 9d3d 0183 0b3e 0e82 10bd df15 593e
00000350: 6352 bfbc 6a68 383e 94cf f33d 2f4e 2b3e
00000360: cab5 453e 60ff e5bd 5a08 4dbe 1279 23be
00000370: 4740 4f3e 4b75 47be 477e 1abe 567d 153e
00000380: 06dd 433d 6e50 0b3c 1a19 883c bfd8 1cbe
00000390: 0831 983d 0033 91bd 2e7b 323d 4a52 84bc
000003a0: 7e7b efbd a404 4dbe bd12 a43d fce6 95bd
000003b0: df3d 333e 0dcb e6bd b92a 793d b1ee 38be
000003c0: eace 17be 58c2 3ebe e728 513e 84e6 033d
000003d0: 5c8e 28be 4fa2 85bd cd42 10be 5a3c 00bd
000003e0: 5a10 c0bc 2895 103e 6af8 963d ef08 3fbe
000003f0: 5a4e 1dbe 0dc4 023e 366a ba3b 3b1a b73d
0.12165714 -0.013262116 0.07314057 -0.13783208 -0.08681477 0.15292788 -0.11674201 0.1939796
-0.07804886 -0.21138892 -0.033335157 0.0022930887 -0.10622027 0.19364686 -0.13642548 -0.141812
0.13683891 -0.14412308 -0.15461427 -0.16488118 -0.2051696 -0.09128635 0.051053777 0.08734636
-0.1039956 0.07769787 -0.07829346 -0.20193395 0.07434114 -0.05257927 0.13106957 0.08164269
-0.024378808 -0.009085128 0.003656783 -0.11371502 0.17713538 0.08596073 -0.063614756 -0.13133767
0.109141655 -0.046776578 0.043382693 0.16796714 0.18187661 0.08164015 0.13182595 -0.21038455
-0.112533815 -0.052123748 -0.091713026 -0.1113251 0.16174006 -0.13687968 -0.007693045 -0.1215764
0.08019789 0.050438493 -0.13627505 -0.2112727 -0.18339936 -0.030159894 -0.18420951 0.09064934
0.18993516 0.039834995 0.16813178 0.017074086 -0.040919676 -0.0084500965 0.08150354 0.14595099
-0.069852866 0.08333414 0.2076538 -0.12390382 0.19658838 -0.10578635 0.036367506 0.02158722
-0.023456937 -0.062225036 -0.17907427 -0.078804694 -0.19618608 0.08655723 0.100215755 0.069012456
-0.0004169668 -0.11424885 -0.20327099 -0.15076038 0.027628306 -0.006269065 0.08883891 -0.11026278
0.119006254 -0.18171006 0.11167004 -0.1602868 -0.06291898 -0.12536879 -0.20523064 -0.1495762
-0.14103636 -0.15773669 0.15734206 0.15803248 -0.18399802 -0.114962496 -0.17021793 0.19034524
-0.11468638 -0.0058131106 0.10361808 -0.13230364 0.18437745 -0.051314414 -0.1920907 0.13794142
0.09840688 0.13949819 0.19743477 0.0072410046 -0.1342611 -0.028842406 -0.16337095 0.08925046
-0.07215717 0.16876929 -0.12693386 0.15752503 -0.10402036 0.17884724 0.06928496 0.1636494
0.09850392 -0.048812564 0.054705326 0.10544431 0.09268936 -0.15656292 -0.19399466 -0.18274266
-0.102175824 -0.06584349 -0.10545544 -0.03973679 -0.04962629 0.0889818 -0.19304916 -0.13929065
-0.052634623 0.1609639 -0.08487282 0.036454655 -0.15923302 -0.19236892 0.013699872 -0.1167581
-0.12570825 0.1666193 0.020845138 -0.20064025 0.17617673 -0.100406095 -0.021821601 -0.09386399
0.010736069 0.18534367 0.14297369 0.19342981 0.032884005 0.14702588 0.1971666 -0.14271872
-0.1078873 -0.0086319195 -0.2131321 0.20155585 0.012236702 0.006107346 -0.20658039 -0.18387115
-0.16349155 -0.058398962 0.2059178 -0.09406353 -0.13271286 -0.009790053 -0.0009775821 -0.19319835
0.20677441 -0.05105388 -0.09103606 -0.21274024 -0.11971903 0.16430464 0.09398319 0.06970256
0.115416035 0.20309071 -0.1255639 0.17028204 -0.16543815 -0.04884774 0.007087241 -0.14209886
0.076938584 0.13624193 -0.03528028 0.2119975 -0.023354715 0.18008581 0.11904827 0.16729043
0.19307628 -0.112303495 -0.20022717 -0.15964153 0.20239364 -0.19478337 -0.15087233 0.14598593
0.047818206 0.008503063 0.016613532 -0.15317057 0.07431227 -0.070898056 0.043574505 -0.01615252
-0.11693476 -0.20021302 0.080113865 -0.073194474 0.1750407 -0.112691976 0.06083176 -0.18059804
-0.14825025 -0.18628824 0.2042576 0.03220226 -0.16460556 -0.065250985 -0.14087982 -0.031307556
-0.023445297 0.14119399 0.073716 -0.18655752 -0.1536192 0.127701 0.005688931 0.0894055

conv6.bias f4 [22]
00000000: 4c52 4d3e 1cb9 bc3d 7fed 073e e79a 9c3b
00000010: 04c2 3c3e 0d1f b1bd 98f9 073e 5f41 103e
00000020: 3403 d83d 5cb1 4cbe f95f c6bd 017b 1d3e
00000030: 907e b2bd dc69 7cbd 274d c33d 5896 debd
00000040: 2407 4f3b 2306 38be 6599 cb3c 42b5 583e
00000050: 07aa 25be e9d9 1abe
0.20050925 0.09214994 0.13274191 0.004779208 0.18433386 -0.086485006 0.13278806 0.14087437
0.10547486 -0.19989532 -0.09686274 0.15378954 -0.08715546 -0.061624393 0.095362 -0.108685195
0.003158995 -0.17971091 0.024853418 0.21162894 -0.16178142 -0.15122189

bn4.weight f4 [22]
00000000: 0000 803f 0000 803f 0000 803f 0000 803f
00000010: 0000 803f 0000 803f 0000 803f 0000 803f
00000020: 0000 803f 0000 803f 0000 803f 0000 803f
00000030: 0000 803f 0000 803f 0000 803f 0000 803f
00000040: 0000 803f 0000 803f 0000 803f 0000 803f
00000050: 0000 803f 0000 803f
1.0 1.0 1.0 1.0 1.0 1.0 1.0 1.0
1.0 1.0 1.0 1.0 1.0 1.0 1.0 1.0
1.0 1.0 1.0 1.0 1.0 1.0

bn4.bias f4 [22]
00000000: 0000 0000 0000 0000 0000 0000 0000 0000
00000010: 0000 0000 0000 0000 0000 0000 0000 0000
00000020: 0000 0000 0000 0000 0000 0000 0000 0000
00000030: 0000 0000 0000 0000 0000 0000 0000 0000
00000040: 0000 0000 0000 0000 0000 0000 0000 0000
00000050: 0000 0000 0000 0000
0.0 0.0 0.0 0.0 0.0 0.0 0.0 0.0
0.0 0.0 0.0 0.0 0.0 0.0 0.0 0.0
0.0 0.0 0.0 0.0 0.0 0.0

bn4.running_mean f4 [22]
00000000: ebe5 4c3c d442 033c 52e9 f23b 13b7 823b
00000010: 9a09 60bb 772d 14bc 23e5 7cbb 4861 573c
00000020: c7c2 8ebc 9f43 013c 0fee 4fbc 29dc b03c
00000030: 7f20 04bc 993b 443b 1e98 a23b 7252 b2bc
00000040: 3350 c83b ba01 e8bc f745 94bc 9891 223d
00000050: 3a53 97bc 9b4f 69bb
0.012505989 0.008011539 0.007413068 0.0039891093 -0.003418541 -0.009044043 -0.0038588725 0.013145752
-0.017426861 0.007889657 -0.012691035 0.021589356 -0.008064388 0.002994275 0.0049619814 -0.021767829
0.006113076 -0.028321136 -0.018099768 0.03968963 -0.018472303 -0.0035600427

bn4.running_var f4 [22]
00000000: d111 673f bc8d 663f 15c8 663f 6cb4 663f
00000010: aff4 663f 4dde 663f ecab 663f f6e6 663f
00000020: fdd6 663f f774 673f 8b88 663f 2729 673f
00000030: bf9f 663f 68a0 663f 5ace 663f 309e 663f
00000040: a49d 663f bfed 663f 5c01 673f 11ac 663f
00000050: 7d9c 663f cd95 663f
0.9026156 0.9006002 0.9014905 0.9011905 0.9021711 0.90182954 0.9010608 0.9019617
0.90171796 0.9041285 0.900521 0.9029717 0.90087503 0.9008851 0.9015862 0.90085125
0.9008429 0.9020652 0.9023645 0.901063 0.9008253 0.9007233

conv7.weight f4 [44, 22, 2]
00000000: b111 9c3d 60ea e33d c7d3 87bd 30d9 c5bd
00000010: ad18 1d3d 0ec4 83bd a5c9 1d3d c07e 2cbb
00000020: de34 8a3d 9473 b8bc 8207 093d 838b 88bd
00000030: e226 193e 57e3 c9bc 1a01 30bc 6ac6 d1bd
00000040: f163 acbd 5d30 cc3d 3a01 533d 588a c6bd
00000050: c02f 073e ada5 7f3d 621a d73d 0f91 9f3c
00000060: 6651 b13d a893 943d c34f b2bb 683e c53b
00000070: 7a94 f8bd 0a59 9c3d 05dd 953c f32d aebc
00000080: 9d4f 083e 0d7d 783d 1bfd 053e bf47 0cbe
00000090: 44d8 9cbb d378 9f3d e7b5 e33c 3847 c63d
000000a0: aee7 cc3d c79c e03c e352 81bc 1a75 d33d
000000b0: ec9e d5b7 7703 8ebd a6d8 bb3a a58b 983d
000000c0: dd5a c53c 2c54 293d 0c6b 4ebd 2555 0fbe
000000d0: 86a2 1dbd 0cc7 a8bd 2259 af3d 04b3 f43c
000000e0: a22b d5bd c1db df3d 8412 9e3d f36a b3bd
000000f0: 525c c83d 6e58 e6bd 9e5f 17be 2b50 08be
00000100: c463 eb3d ab38 113e 545a e3bd f17d 4abb
00000110: 3004 a33d ceb4 733d 95a4 e23b 0f59 093e
00000120: 2e51 093e b87d 55bd 5b3e 0e3d a027 15bc
00000130: c90e 4438 39a9 ab3d b60e 9fbd d4e2 63ba
00000140: 197f 813c 940f 3bbd ee01 5fbd b140 ab3d
00000150: f09e 113d 4b09 133e 17e4 fbbd aa41 803d
00000160: 54d4 afbd d5e1 fcbd 3ce9 06be 2c79 cdbd
00000170: 3d34 e03d 007b fdbd 3f66 06be ad04 c0bd
00000180: b68d 233d f078 9e3d 1b49 cc3c f0e0 d23d
00000190: e53e f43d c458 9c3d 33ef a13d 0880 17be
000001a0: f8d1 a3bd 4cef ef3d 01e8 163e 8021 143e
000001b0: 242e 933c 677b 7cbd 18b2 03be 997d 483c
000001c0: 68ab d4bd 32bf 09be e38b b33d 5074 b33d
000001d0: 0962 42bd a039 dfbd 4e0e 02be 4650 153e
000001e0: 3e70 b7bd b346 a8bc 5e55 233c bd13 893d
000001f0: eccc 55bd f122 9abd da0f 5cbd 15b4 9fbd
00000200: f671 f23d f735 e63d c776 5cbc e921 e0bd
00000210: a0df abbc 03a7 a83d a5bd 87bd 31d0 21bc
00000220: 55a3 02be a1c8 9ebc 2072 eb3d 936b e53d
00000230: 576d 37bd c608 813d eaa3 a5bc f355 d6bd
00000240: a705 6d3b af18 a03d be36 c8bc df32 c8bd
00000250: 2b9e 80bc e5af 353c cf23 e1bd a0f5 543d
00000260: d271 3ebd 1bb0 a93d 1711 bebd 37f7 913d
00000270: 07c9 ad3d 2845 0d3c c1b1 88bd 26d6 e5bd
00000280: 8267 f53c 9534 ccbd efe5 023e 8dcd 033e
00000290: 6739 efbc da92 bdbc 3942 8bbd 7bb9 8cbd
000002a0: 11f2 d73c 8550 6c3d 504c f93d 7db9 24bd
000002b0: 78c3 f5bb 8cf4 8b3d 2774 83bd 0e76 c1bd
000002c0: 198a 0cbe cc3b 79bd d671 0f3e e22c 07be
000002d0: ba90 d23c e0cb 16bd 82b2 d33d 5705 cbbd
000002e0: ff79 213d ebd6 c63d 82ee bfbd fe41 183e
000002f0: 0dc9 eebd f180 25bd fa93 8a3d dd54 1cbd
00000300: 7620 86bd 388e be3d 6384 71bd d7c2 923d
00000310: 7551 0b3d 147c cb3d 5cfa ce3d 3413 00be
00000320: 10ae 623d 6a51 123e f87c 17be 9d6e 8dbd
00000330: 84e3 d0bd 3bbe af3d 6aca 14be 6ef1 053e
00000340: 28c3 c03a cade 9ebd e1d2 133d 6dd3 853d
00000350: 62f7 44bd 292e 12be 8261 f2bd b9d2 073d
00000360: 3fc3 b4bc 0add fe3d 9cd7 99bd c268 eb3d
00000370: 246b 0abd 845d b93c 05af f43d b735 fcbc
00000380: 3d1a 8e3d b5b6 0c3e 3fce 10be d9c0 9fbc
00000390: 5406 a1bc 8476 f9ba 480e 3ebb 85f3 183e
000003a0: c6be 3abd c021 51bd c8cf dd3d 5236 023e
000003b0: 782d 8ebc 9723 01bc 2b82 693c 30a5 203d
000003c0: 3018 8a3d ea3c b9bc 8601 7fbd 7bd2 41bd
000003d0: 5cb5 64bc bdc6 1b3d d0ec 0bbe dca8 32bb
000003e0: 71f9 10be 1d65 8cbd c8a7 133e 8605 04be
000003f0: ca3d 18be f7b9 80bd 1795 b63d c3fb 213c
0.07620562 0.11128688 -0.0663219 -0.09660566 0.03835361 -0.06433879 0.03852238 -0.0026320666
0.06748365 -0.02251605 0.033454426 -0.06667235 0.14956239 -0.024644537 -0.01074245 -0.102429226
-0.084175 0.09970162 0.05151484 -0.09694356 0.13201809 0.06241386 0.10503079 0.019478349
0.08658104 0.07254726 -0.0054416372 0.0060194023 -0.12137695 0.0763417 0.018293867 -0.021262145
0.1331162 0.060666133 0.13084833 -0.13699244 -0.004786523 0.07786717 0.027796699 0.09681553
0.10005127 0.027418507 -0.015786594 0.1032507 -2.5465582e-05 -0.069342546 0.0014331534 0.0744851
0.024091179 0.04134004 -0.050395057 -0.13997324 -0.038485073 -0.0824109 0.085619226 0.029870518
-0.10408713 0.109305866 0.07718375 -0.08760633 0.09783234 -0.112473354 -0.14782569 -0.13311832
0.11493638 0.14181773 -0.11101213 -0.003089782 0.07959783 0.0594986 0.0069165924 0.1341288
0.13409874 -0.052121848 0.034727436 -0.009103686 4.674381e-05 0.08381886 -0.07766478 -0.0008693163
0.015807675 -0.045669153 -0.0544452 0.08361948 0.035551965 0.14359014 -0.12299364 0.062625244
-0.0858542 -0.123477615 -0.1317491 -0.10032877 0.10947464 -0.12376976 -0.13124941 -0.09375892
0.039930068 0.07737911 0.024937203 0.1029681 0.11926059 0.07634118 0.07906952 -0.14794934
-0.07999033 0.11715564 0.1473694 0.14465904 0.017966338 -0.061641123 -0.12860906 0.012236976
-0.10384256 -0.13451841 0.08766916 0.08762419 -0.047456775 -0.10899663 -0.1270077 0.14581403
-0.089569554 -0.020541525 0.009969084 0.06693218 -0.05219738 -0.07526196 -0.053726055 -0.0779802
0.118381426 0.11240762 -0.013456053 -0.10943968 -0.020980656 0.0823498 -0.06627969 -0.009876297
-0.12757619 -0.019382777 0.11496377 0.11202159 -0.04478201 0.063005015 -0.020219762 -0.10465612
0.00361667 0.07817208 -0.024440166 -0.09775328 -0.01570042 0.0110893 -0.10993158 0.05199206
-0.046495266 0.082855426 -0.092806034 0.071272306 0.084856085 0.008622445 -0.06674529 -0.11222486
0.029956583 -0.09970967 0.12783025 0.1287138 -0.029202176 -0.023141313 -0.0679974 -0.06871315
0.026360543 0.057693977 0.121727586 -0.040215958 -0.0075001083 0.06833753 -0.06418639 -0.09446345
-0.13724555 -0.060848042 0.14008269 -0.13200715 0.025703777 -0.036815524 0.10336782 -0.09913128
0.039422985 0.09708961 -0.09371664 0.14868924 -0.11659441 -0.04040617 0.067665055 -0.03816687
-0.0654916 0.0930447 -0.058964144 0.07166069 0.03401323 0.099357754 0.10106346 -0.12507325
0.05534178 0.1428887 -0.14793766 -0.069058634 -0.10199645 0.085812055 -0.1453034 0.1308038
0.0014706599 -0.077573374 0.03608978 0.06534467 -0.048087485 -0.14275421 -0.118350044 0.033159945
-0.022065757 0.124445036 -0.07511827 0.1149459 -0.033793584 0.0226276 0.11947445 -0.030787332
0.06938598 0.13741572 -0.14141177 -0.019501137 -0.019656338 -0.0019032513 -0.0029000212 0.14936645
-0.045592092 -0.051057577 0.10830647 0.12716034 -0.017355666 -0.00788202 0.014252226 0.039220035
0.06742895 -0.022612054 -0.062257312 -0.04731987 -0.013959255 0.03803133 -0.13664556 -0.0027261293
-0.14157654 -0.06855223 0.14419472 -0.12892732 -0.1486732 -0.0628547 0.089151554 0.009886685

conv7.bias f4 [44]
00000000: 5edf b63b 9b1c 85bd 0e49 d83c 3c6b 13bd
00000010: f49a f63d f735 b338 d4b9 54bd 10bc 143e
00000020: ea29 ff3d 5fc2 d7bd 2d97 413d 28c5 debd
00000030: 564e 15be 8128 cc3d ec70 12be 2515 d6bd
00000040: bade d3bb bc8b 013e 3c75 04be 82d7 dd3d
00000050: e46c 383d 918a cabd 5f4d 123e 12eb a4bd
00000060: 5a02 cabd bcdf 88bd fa56 ba3d c774 fbbd
00000070: 2c09 4f3c 95b6 933d e240 123e 182b b4bb
00000080: d92f 663d 1899 823d 2cd7 dfbc 6cbc 0cbe
00000090: b207 e4bd fac2 dc3d cf20 4838 12ff 063e
000000a0: 06c5 16be 8e47 f83d 7dab e6bd 5464 233d
0.0055808267 -0.06499597 0.026402023 -0.03599094 0.12041274 8.545437e-05 -0.051935032 0.14524865
0.12459166 -0.1053512 0.047263313 -0.10877448 -0.14580664 0.09968663 -0.14300889 -0.10453252
-0.00646576 0.1265096 -0.12935346 0.108321205 0.04502572 -0.09889711 0.14287327 -0.080526486
-0.0986373 -0.06683299 0.09098621 -0.12278133 0.012636464 0.07212559 0.14282563 -0.0054983012
0.056197975 0.063768566 -0.027324282 -0.13743752 -0.1113428 0.10779376 4.771427e-05 0.13183239
-0.14723596 0.12123023 -0.112631775 0.039890602

bn5.weight f4 [44]
00000000: 0000 803f 0000 803f 0000 803f 0000 803f
00000010: 0000 803f 0000 803f 0000 803f 0000 803f
00000020: 0000 803f 0000 803f 0000 803f 0000 803f
00000030: 0000 803f 0000 803f 0000 803f 0000 803f
00000040: 0000 803f 0000 803f 0000 803f 0000 803f
00000050: 0000 803f 0000 803f 0000 803f 0000 803f
00000060: 0000 803f 0000 803f 0000 803f 0000 803f
00000070: 0000 803f 0000 803f 0000 803f 0000 803f
00000080: 0000 803f 0000 803f 0000 803f 0000 803f
00000090: 0000 803f 0000 803f 0000 803f 0000 803f
000000a0: 0000 803f 0000 803f 0000 803f 0000 803f
1.0 1.0 1.0 1.0 1.0 1.0 1.0 1.0
1.0 1.0 1.0 1.0 1.0 1.0 1.0 1.0
1.0 1.0 1.0 1.0 1.0 1.0 1.0 1.0
1.0 1.0 1.0 1.0 1.0 1.0 1.0 1.0
1.0 1.0 1.0 1.0 1.0 1.0 1.0 1.0
1.0 1.0 1.0 1.0

bn5.bias f4 [44]
00000000: 0000 0000 0000 0000 0000 0000 0000 0000
00000010: 0000 0000 0000 0000 0000 0000 0000 0000
00000020: 0000 0000 0000 0000 0000 0000 0000 0000
00000030: 0000 0000 0000 0000 0000 0000 0000 0000
00000040: 0000 0000 0000 0000 0000 0000 0000 0000
00000050: 0000 0000 0000 0000 0000 0000 0000 0000
00000060: 0000 0000 0000 0000 0000 0000 0000 0000
00000070: 0000 0000 0000 0000 0000 0000 0000 0000
00000080: 0000 0000 0000 0000 0000 0000 0000 0000
00000090: 0000 0000 0000 0000 0000 0000 0000 0000
000000a0: 0000 0000 0000 0000 0000 0000 0000 0000
0.0 0.0 0.0 0.0 0.0 0.0 0.0 0.0
0.0 0.0 0.0 0.0 0.0 0.0 0.0 0.0
0.0 0.0 0.0 0.0 0.0 0.0 0.0 0.0
0.0 0.0 0.0 0.0 0.0 0.0 0.0 0.0
0.0 0.0 0.0 0.0 0.0 0.0 0.0 0.0
0.0 0.0 0.0 0.0

bn5.running_mean f4 [44]
00000000: 27eb 283d 371e 6a3b 6c5d 87bc aff1 02bc
00000010: 4ff6 ef3b 6812 aeba 92d7 06bc ef9a 8e3c
00000020: 95b0 623c 876e b4bc 49e2 3cbc 9c75 89bc
00000030: 5ee0 42bb b2e9 663c 3265 69bc 1c25 423b
00000040: 0284 c13c a3bc 113d f724 3cba 3720 363c
00000050: 1def 583d 5f43 17bd e848 da3c f5a4 9fbc
00000060: bf17 e9bb 9740 203c 7dde 2cbc b7d5 acbc
00000070: 3d77 f53c eaa5 1e3c 7ae0 e7bb ef5f fabc
00000080: e7f9 61bc cfe5 893c 2997 cbbb 0f73 9abc
00000090: bd85 acbd 8023 8b3c cda4 f23b 5703 013d
000000a0: 8b4e 6abc d789 b13b 124a 7dbc 9f56 1c3b
0.041239884 0.0035723576 -0.01652404 -0.007992192 0.0073230634 -0.0013280632 -0.008230107 0.017407862
0.013836046 -0.02202536 -0.01152856 -0.016779713 -0.0029735784 0.014093803 -0.014245318 0.002962417
0.023622517 0.03558029 -0.0007177139 0.011116079 0.05296241 -0.036929484 0.026646093 -0.019487837
-0.0071134265 0.009781024 -0.010551092 -0.021098 0.029964084 0.009683112 -0.0070763202 -0.030563323
-0.0137924915 0.016833214 -0.006213088 -0.018853692 -0.08423946 0.016984701 0.0074048997 0.031497326
-0.014300953 0.005418043 -0.015459554 0.002385534

bn5.running_var f4 [44]
00000000: a48b 683f fcdc 673f b674 693f 3f75 683f
00000010: 17b0 693f 8567 693f fd49 6a3f 51e8 673f
00000020: f3bf 683f 0196 6a3f a7bd 683f c0a2 693f
00000030: 296d 6c3f 476b 6a3f 9da9 6a3f 25e9 683f
00000040: 486e 683f d802 693f 799b 6a3f 22f5 683f
00000050: 61e1 683f 9bb6 683f 2974 683f 8dae 683f
00000060: 2533 6a3f 5c64 683f 4f1f 693f 2370 693f
00000070: 07e6 683f d67e 693f 952f 6c3f 450d 6a3f
00000080: 59d5 673f 061d 6c3f b8ff 683f 8428 6a3f
00000090: 4521 6a3f 2ad6 683f 3432 693f 21b1 6a3f
000000a0: 96ad 683f 0cf3 693f ef8e 693f db0b 693f
0.90838075 0.9057157 0.9119371 0.90803903 0.91284317 0.91173583 0.9151915 0.9058886
0.9091789 0.9163514 0.90914387 0.9126396 0.92354065 0.9156994 0.9166506 0.9098075
0.90793276 0.91019964 0.9164348 0.90999043 0.909689 0.90903634 0.90802246 0.90891343
0.9148429 0.90778136 0.910634 0.9118673 0.90975994 0.9120916 0.92260104 0.914265
0.9055992 0.92231786 0.91015196 0.9146807 0.91457015 0.9095179 0.9109223 0.9167653
0.9088987 0.91386485 0.91233724 0.91033715

conv8.weight f4 [44, 44, 1]
00000000: df70 d7bd 9cae 34bd ed10 83bd b59d 9d3d
00000010: df07 74bc 63d4 b9bc 2af4 f63d a5eb 9b3d
00000020: e06b bebd af18 003e d796 133c 3b18 083e
00000030: 15e9 b3bd fd9c 153e 5c55 82bd 115e 96bd
00000040: dbbf 783d 6737 063c fdd2 713d 7e45 963d
00000050: a088 adbd fee7 503d 0adb c8bd 20de 9f3d
00000060: 5ecf b63d 28ec 34bd 9e99 aa3b ef66 2e3d
00000070: 1538 163e 44b1 4f3c 386c 88bd b4ae 62bd
00000080: 76e9 83bc 9ec4 1f3d 0c6b 9e3c d026 0b3c
00000090: d3e7 c8bd ce00 b23d 1c96 9f3c e620 3d3d
000000a0: e59d 133e 7201 90bd 43c5 17be cf56 4dbd
000000b0: 6005 41bd f8f8 01be bc02 8c3d 94f3 d93b
000000c0: bdaf 16bc 3cd5 bf3d e7a2 8abb 1a51 14be
000000d0: b3a0 dd3d 5435 dbbc 0155 163d cb16 0bbd
000000e0: 9971 913d 0893 c7bd 7167 d93d ff59 a93d
000000f0: a28e d53d 6d5e cb3d c4ce 713d 3a59 8abd
00000100: ca0a ce3d 1aaa 0cbc bdea 903d 3254 063e
00000110: 795e 68bd 8545 113e 182e 943d 499d be3d
00000120: 1214 c33d c714 0a3d 3008 a1bd a5c2 853b
00000130: 452b 023e 70a4 19bd 1ebd 8b3d 5d8e 09be
00000140: b8bc 813c beaf 5bbd bceb 003b 7226 f03d
00000150: c4d2 eabc 1e92 0f3e babb d6bd d60e aabd
00000160: 915d adbc 85a0 f0bd fe0e 8abd 0182 83bc
00000170: 00e7 d33d 8c6c 533d e7eb 5fbd a235 cebd
00000180: d00c 11be b812 973d 127c edbc e512 133e
00000190: 92ff 9abd b7d0 3cbc 0f99 883d 1d6a 77bc
000001a0: 2817 ca3d 9914 053e bd76 013e 1516 50bd
000001b0: a676 1b3d 05a2 623c fb66 3cbd 0d4f 043e
000001c0: dec1 45bb 7e3b 783d 57d3 04be 08c4 cd3d
000001d0: bc1f f7bd 4a84 c3bd 0a45 023c 4477 0fbe
000001e0: 2c2d ce3d 6c91 51bd 6e61 053e b0fc 12be
000001f0: f5c9 d23d 16d9 64bc 87e2 f23d 1790 97bd
00000200: 6ad6 cdbd af4b 183e 8638 023e ca43 0cbe
00000210: 91aa f03c 3168 6e3d 4c9b bf3d d44d e0bd
00000220: 4018 973d 1d39 f53c dadd 7fbd 0f36 6b3d
00000230: c220 cb3c d85f db3d 4ad0 d3bd a0d0 b4bd
00000240: 292c 5ebd cbaa 1b3d 7897 77bd 452e 0d3e
00000250: 66c7 193e 4733 c8bd 084b 173e 1bb3 a63d
00000260: 74ac 263c 19d8 26bb dd75 4ebd f26c a4bc
00000270: 505a f8bd 8c36 10be 207d f23d 6ba0 b2bc
00000280: 7ec6 233d 7d96 e8bd 1230 c73d de06 603d
00000290: 08e5 cb3d 24aa 873d 8cee 82bd e2b9 36bd
000002a0: 2371 3c3c 57bd e9ba b28e e83c 544d d6bd
000002b0: 0ae4 9fbd 8c1f 353d e398 12be d0e9 7cbd
000002c0: b6da e63d f602 ad3b fa2b 033e 326a 263c
000002d0: 70d3 993d a7fb b73c 3d6f fcbd e962 883d
000002e0: def0 c6bd a33c 1abe 1994 973d fa3f e43d
000002f0: 0047 02bd dc6c bc3d 6d21 6cbd 43d3 88bd
00000300: d994 4fbc 8160 d8bd a2f8 0f3e dd39 15bc
00000310: bf0a 0f3e 5b1b 153e c86c 0dbe 8580 d2bc
00000320: d80b 863d 586c c33c 3143 8bbd 09b6 20bd
00000330: 571e b13d bb8f 08be f357 703d 6ef7 f8bb
00000340: ba0e 4c3c 19c6 373d 506e 64bd 5950 a83c
00000350: 7abf 5abd d08d 2f3d b00a 07bb f903 e73d
00000360: e2ff c53d 588f c9bd 3235 593d de17 57bd
00000370: 5ec3 18be 180f 483c b63e 96bd a9e7 de3d
00000380: 856e 0d3e 5a49 b03c d803 773d 531d a4bd
00000390: dc1f d33d c958 2f3c 6595 0bbe cc14 d73b
000003a0: e9c3 06bc 8bfe 143e 3d05 343d 4481 45bc
000003b0: b00b 16be f3fb 6e3d 5144 193e 7e55 7ebd
000003c0: db31 b7bd 0e5a 3dbd a426 69bd 550d 0a3d
000003d0: 25eb 113e 8d14 023d 938d 84bd 07e7 05be
000003e0: f022 ba3d 08d2 43bd 5050 f2bd ea00 c9bd
000003f0: adab acbc 6891 40bb 2179 bd3d 02f5 cebc
-0.10519575 -0.044111833 -0.06399713 0.07696096 -0.014894455 -0.022684282 0.12058289 0.07613305
-0.09297919 0.12509416 0.009008131 0.13290493 -0.08784691 0.14610668 -0.06363937 -0.073421605
0.060729843 0.00819192 0.059039105 0.07337473 -0.08473325 0.051002495 -0.098074034 0.07806039
0.08926271 -0.04417053 0.005206301 0.042578634 0.14669831 0.012676541 -0.06661266 -0.05534239
-0.016102534 0.039005868 0.019338153 0.00849314 -0.09809842 0.0869156 0.019480757 0.046173953
0.144157 -0.07031526 -0.14821343 -0.050131615 -0.047124267 -0.1269263 0.06836459 0.006651351
-0.009197173 0.09366843 -0.0042308453 -0.14484063 0.108216666 -0.026758827 0.03670216 -0.033957284
0.07101745 -0.09744841 0.10615433 0.082691185 0.10427596 0.0993012 0.059035078 -0.067553
0.100606516 -0.008585477 0.07076023 0.13118055 -0.05673072 0.14186676 0.07235354 0.093073435
0.095253125 0.03371122 -0.0786289 0.0040820413 0.12711819 -0.037510335 0.068231806 -0.13433214
0.015837058 -0.053634398 0.0019671759 0.11726083 -0.028664954 0.14020583 -0.10485025 -0.08303611
-0.02116278 -0.11749367 -0.06741141 -0.016053202 0.10346794 0.05161719 -0.054668333 -0.100688234
-0.14165044 0.07376617 -0.028989825 0.14362676 -0.075682774 -0.011524371 0.066698186 -0.015100983
0.09867698 0.12996139 0.12642951 -0.05080231 0.03795495 0.013832574 -0.045996647 0.1292078
-0.0030175368 0.06060361 -0.12971245 0.100471556 -0.120666 -0.095467165 0.0079510305 -0.1401034
0.100672096 -0.051164076 0.13025448 -0.14354205 0.102924265 -0.013967773 0.11859613 -0.0740053
-0.10050662 0.14872621 0.12716874 -0.13697734 0.029378207 0.058204833 0.093557924 -0.109523445
0.07377672 0.02993446 -0.062467434 0.0574246 0.024795894 0.1071164 -0.10342462 -0.088288546
-0.054241333 0.038004678 -0.060447186 0.13787182 0.1501747 -0.097754054 0.14774716 0.081396304
0.010172952 -0.0025458394 -0.050405372 -0.02007148 -0.12126601 -0.14083308 0.11840272 -0.021805009
0.03998422 -0.11356828 0.097259656 0.05469405 0.099557936 0.066242486 -0.063931555 -0.044610865
0.011501583 -0.0017832917 0.028388355 -0.10463968 -0.07807167 0.04421954 -0.14316134 -0.06174642
0.112721846 0.005279894 0.12809744 0.010157155 0.07511032 0.022458864 -0.123259045 0.066594906
-0.097139105 -0.15062194 0.07401294 0.11145015 -0.031805992 0.09200451 -0.057649065 -0.0668092
-0.012669765 -0.10565282 0.1405969 -0.009108034 0.13968943 0.14561217 -0.13811028 -0.025696049
0.06545228 0.023855373 -0.06799925 -0.039236102 0.08648365 -0.13336079 0.058677625 -0.0075978553
0.012454683 0.044866655 -0.055769265 0.020546125 -0.053405263 0.042859852 -0.0020605735 0.112800546
0.096679464 -0.09841794 0.053029247 -0.052512996 -0.14918277 0.01221063 -0.0733618 0.108840294
0.13811691 0.021519352 0.0603064 -0.08013406 0.10308811 0.01070232 -0.13631208 0.0065637585
-0.00822542 0.14550225 0.043950308 -0.012054745 -0.14652896 0.058345746 0.14967467 -0.06209325
-0.08945056 -0.04622846 -0.056921616 0.03370412 0.14249857 0.03175788 -0.06472316 -0.13076411
0.09088695 -0.047807723 -0.11831725 -0.098146275 -0.021077955 -0.0029383544 0.09251619 -0.025263313
