networks/pretrained_models/ciciot2022/temp_bckp/CNN1D_TrafficClassification_best_model_without_aux.pth (torch, 35570 bytes, 26 tensors)

conv1.weight f4 [16, 1, 3]
000000 91 6e 15 3e 47 72 16 3f 73 f9 6d c1 17 73 1c bf
       0.14592959 0.58768123 -14.873401 -0.61113113
000010 90 5a 14 c0 3d 7b 97 40 99 66 aa 3f 4c c0 51 c0
       -2.3180275 4.7337937 1.331256 -3.2773619
000020 22 d1 a8 c0 3f fb ee bf 27 86 f6 bf 6e 09 51 40
       -5.275529 -1.8670424 -1.925969 3.2662005
000030 ad 40 c5 40 4b b1 f2 bf d8 25 4e 3e d0 57 2f 40
       6.164145 -1.8960356 0.20131624 2.7397346
000040 44 e2 7a 40 cf f1 67 bf 1d 59 cb c0 24 7c 1b 3f
       3.9200602 -0.90603346 -6.354628 0.607363
000050 1e 18 43 3f 3b 86 7e 40 16 1d 5f bf 7f 97 fa bf
       0.76208675 3.9769428 -0.87153757 -1.9577483
000060 49 f2 06 c0 9e 56 aa 40 7d 37 4d b9 ee ef a4 3f
       -2.108538 5.3230734 -0.00019570994 1.2885721
000070 4b 0f 8a 3f 2a b3 bb c0 24 e1 00 40 da c2 15 40
       1.0785917 -5.8656206 2.0137415 2.3400178
000080 e2 27 52 40 bb ed b7 bf b5 b5 0a 40 b3 89 93 40
       3.2836843 -1.4369425 2.1673405 4.610559
000090 8a d0 1c bf 80 1e 8e 40 a7 3f be bf 68 62 37 c1
       -0.61255705 4.441223 -1.4863175 -11.461525
0000a0 79 c0 d4 bf 9b c0 c3 3e 19 b2 45 c0 ee d8 ab bf
       -1.6621238 0.38232884 -3.0889952 -1.3425577
0000b0 91 db 46 c0 de a4 ef be 1c 9e e3 c0 56 58 fa c0
       -3.1071513 -0.4680547 -7.1130505 -7.823283

conv1.bias f4 [16]
000000 64 ba 2f c0 bd 4f 76 c0 bb f1 87 40 ef 4f 24 c0
       -2.7457514 -3.8486168 4.248258 -2.5673788
000010 9d cd 67 3f 40 f3 13 c0 6a c4 07 40 cb a8 72 3e
       0.90548116 -2.3117218 2.1213632 0.23697202
000020 f6 79 6a c0 26 75 5b c0 c6 d8 3e c0 91 e8 bf c0
       -3.663694 -3.4290252 -2.9819808 -5.9971395
000030 07 52 16 3f ad 03 21 3f e9 2b 83 bf 1c e1 47 3f
       0.58718914 0.62896234 -1.0247775 0.78077865

bn1.weight f4 [16]
000000 3e bb b7 40 a5 9e 29 40 99 f9 af 40 f9 a2 5c 40
       5.7416067 2.650308 5.4992185 3.447447
000010 57 eb 1f 40 c8 7f 02 40 b9 d0 2d 40 30 2e 1d 40
       2.498739 2.0390491 2.7158644 2.455944
000020 98 9d 0b 40 76 28 c9 3f c4 29 f5 3f a0 46 ef 3f
       2.1814938 1.5715473 1.9153371 1.8693428
000030 6b 48 c4 3f 00 1f d1 40 39 99 e9 40 15 df 00 41
       1.53346 6.535034 7.299954 8.054463

bn1.bias f4 [16]
000000 65 f1 f8 bf 02 68 30 c0 0a 23 0b c0 a6 64 2e c0
       -1.9448668 -2.7563481 -2.1740136 -2.724893
000010 8f d0 67 c0 3f 7a 67 bf 18 23 84 3d b9 81 90 bd
       -3.6221044 -0.9042091 0.06452006 -0.07055993
000020 96 03 e2 bf 89 b8 9f 3e b5 8c 6c bf 20 ef 86 3f
       -1.7657344 0.31195477 -0.924022 1.0541725
000030 e1 84 63 3f a1 6c b5 bf 2b 9a 29 c0 57 25 44 c0
       0.8887463 -1.4173776 -2.6500347 -3.064779

bn1.running_mean f4 [16]
000000 d5 e8 af c0 2b d5 5f c0 6f 21 36 40 a0 c7 2a c0
       -5.497172 -3.4973857 2.8457906 -2.6684341
000010 fd 1f e3 3f be 9c 98 bf 86 9d 93 3f ad 1e ec 3e
       1.7744137 -1.1922834 1.1532447 0.46117154
000020 8e 80 42 c0 e5 86 83 c0 8e cc bf bf 5e a6 9e c0
       -3.0390964 -4.1102166 -1.49843 -4.9578085
000030 06 73 85 3f b1 b9 ec bf 55 8e 1f c0 15 bd 0d c0
       1.0425727 -1.8494169 -2.4930623 -2.2146657

bn1.running_var f4 [16]
000000 12 2d 95 41 99 b6 8c 3f d1 15 8a 40 96 71 19 3f
       18.647007 1.0993224 4.315163 0.59938943
000010 0b 65 1f 40 31 4d 2b 40 fa 34 31 40 cc 35 3e 3f
       2.4905422 2.6765864 2.7688584 0.7430084
000020 80 70 d3 3f f2 f6 f4 3f 3e 28 80 40 93 5a 23 40
       1.6518707 1.9137862 4.0049124 2.5524032
000030 6e 63 84 3f 59 e0 5a 41 4f ec 7b 40 76 26 8a 41
       1.0342844 13.679772 3.9362981 17.26878

conv2.weight f4 [16, 16, 3]
000000 2d a0 50 40 b8 9d f4 c0 34 d1 2f 3e fe e2 0c be
       3.2597764 -7.644253 0.17169648 -0.13758466
000010 b9 dd 5c be 54 54 4a 3f b4 d0 aa bf b6 67 8c 3f
       -0.21568955 0.79034925 -1.3344941 1.096915
000020 ac bb 6b 40 97 0a 17 3f c9 d0 8f 3e 0c 33 62 bf
       3.6833296 0.59000534 0.28088978 -0.8835914
000030 e5 e7 cb 3f 85 48 ce 3e 22 5f 8c bd 2b ce 93 3e
       1.5930144 0.40289703 -0.06854083 0.2886823
000040 74 0b 06 3f ce bc 13 3e f0 64 0e c0 2e a4 a1 bf
       0.52361226 0.14427492 -2.2249107 -1.2628229
000050 71 4e 14 40 15 e8 83 bf 75 c1 aa be cd 9c ff 3c
       2.3172877 -1.0305201 -0.3335072 0.031202698
000060 7e da 24 40 de 68 dd be 90 57 08 c0 58 6b d2 bd
       2.5758357 -0.4324407 -2.1303444 -0.102743804
000070 40 b5 1f c0 f3 bd bb bf 69 3c 82 bf a7 f0 bc bf
       -2.4954376 -1.4667343 -1.0174686 -1.4760941
000080 4d 4c 83 bf 31 70 b2 3e 53 d7 91 3f 75 46 41 3f
       -1.025766 0.3485122 1.1393837 0.75498134
000090 92 29 5f c0 0d a2 82 3f 61 6b 1e 40 be c0 cb 3e
       -3.4869123 1.0205704 2.475304 0.39795488
0000a0 55 ed b7 3f de 7c 69 c0 bf 15 14 40 2b 2c d2 c0
       1.4369303 -3.6482463 2.3138273 -6.5678916
0000b0 23 7a a3 c0 c7 51 9e 40 95 68 55 c0 44 a4 33 41
       -5.1086593 4.9474826 -3.3345082 11.227604
0000c0 a4 14 42 c0 52 8c 92 40 62 c6 37 40 dc ce 08 40
       -3.0325098 4.579629 2.8714833 2.1376257
0000d0 7c ff b8 bf 75 8d 01 bf 1a 7f 4c c0 9f 5e 32 40
       -1.4452968 -0.5060647 -3.1952577 2.7870252
0000e0 75 4f 29 c0 70 ca 99 bf bf f0 b0 3d 18 0a 00 bf
       -2.6454747 -1.2014904 0.08639669 -0.500154
0000f0 51 45 8b 3d 29 a2 9b bd 19 ee 88 3e 7b 19 9d c0
       0.068003304 -0.07599289 0.26744154 -4.9093604
000100 db 9a 42 bf 70 55 ed 3f 34 dc 8c 3e d5 8f 37 c0
       -0.7601754 1.8541698 0.27511752 -2.8681538
000110 18 8f dd bf 47 d4 b3 40 5b bd 99 bf 08 a8 96 bf
       -1.7309294 5.619663 -1.2010912 -1.1770029
000120 95 50 56 bc 55 da e7 3f c3 9f 0e 40 03 c4 f3 40
       -0.013080736 1.8113505 2.228501 7.617677
000130 f3 41 b7 3f 67 0b 8a c0 2c c4 00 c0 ea 15 3b 3f
       1.4317001 -4.313892 -2.0119734 0.73080313
000140 56 ea 62 40 c0 da da 3e 0b aa d2 3f 49 90 63 3f
       3.5455527 0.42745018 1.6458143 0.88892037
000150 ca 8f 90 3f e3 49 66 3f 94 26 b6 bf 33 51 bc 40
       1.1293881 0.8995649 -1.4230523 5.884912
000160 a5 b4 f6 bf db 84 83 3f a9 32 9b bf 95 df 42 3f
       -1.9273878 1.0274919 -1.2124835 0.7612241
000170 04 af 0b be 01 4a ae c0 04 d5 e1 40 c8 e8 a2 3d
       -0.13640982 -5.4465337 7.057253 0.07954556
000180 e7 af e4 3f 96 25 45 c0 c3 f2 e7 3f 10 7a c8 3f
       1.7866181 -3.080419 1.812096 1.566225
000190 9b 53 3b 3e f1 75 46 bd 1c 07 c2 bf ff a1 3d 40
       0.18293612 -0.04845232 -1.515842 2.9630125
0001a0 14 ef c1 bf 43 3c 36 c0 85 f5 84 bf 8a 97 08 be
       -1.5151086 -2.847428 -1.0387427 -0.13339058
0001b0 1b 84 bb be 35 d0 09 40 e2 c3 78 3f 31 ff 18 c0
       -0.36624226 2.153333 0.97173893 -2.3905756
0001c0 85 48 6f be 78 06 18 c0 70 3f 91 40 80 0f 39 40
       -0.23367508 -2.3753948 4.538994 2.891571
0001d0 d7 3b 88 be ab 3e 22 bf 4c ca 2e bf 50 5c f5 be
       -0.26608154 -0.63376874 -0.6827743 -0.4792199
0001e0 09 67 6d 3f 53 69 b2 3f 7f 1b 4c 3d 6e 99 85 40
       0.92735344 1.3938392 0.04983091 4.174979
0001f0 22 ad ec 3f 6c 42 f6 3f ec 54 f6 c0 88 09 ab bf
       1.8490336 1.923902 -7.6978664 -1.3362284
000200 e2 e2 01 3f cd d5 1e 40 1a a4 5d 3f 62 bd df 3f
       0.5073682 2.4817994 0.86578524 1.747967
000210 9d f4 98 40 ae 7e 28 bf 3c e8 de 3f 43 6d 61 40
       4.77986 -0.658183 1.7414622 3.5222938
000220 b1 5f 55 40 3b c4 e6 3f 52 92 99 c0 6d 79 5d c0
       3.3339655 1.8028635 -4.7991114 -3.4605362
000230 9d 4c 15 c0 7b f2 72 c0 57 8a 0a 41 f0 6b 02 c0
       -2.332801 -3.7960498 8.658774 -2.037838
000240 e7 1e bb 3f 9b af e5 3f 0d 1b 04 bf c4 db 3a bf
       1.4618806 1.7944216 -0.51603776 -0.72991586
000250 a7 50 a8 3f e3 ee 72 3f 18 33 d9 40 79 4d 63 c0
       1.3149613 0.9489576 6.787487 -3.5516036
000260 36 81 c7 bf fb 58 14 c0 53 7c 58 c0 9d 5d ec 3f
       -1.5586307 -2.317931 -3.3825881 1.8466069
000270 c3 14 1f c0 88 f8 8b 3f 87 39 57 c0 24 49 fb bf
       -2.4856422 1.0935221 -3.3628862 -1.9631696
000280 a2 9f 93 3f c8 83 e0 3f c7 1d 7e 40 60 44 7b 40
       1.1533091 1.7540216 3.9705675 3.9260483
000290 37 cb 94 c0 86 be 3a 3f 7f b2 1c c0 70 53 99 3f
       -4.6498065 0.72946966 -2.4483945 1.1978588
0002a0 76 26 11 bf 37 2f 03 40 10 0e 2d 40 92 96 aa 3f
       -0.5669931 2.0497568 2.7039833 1.33272
0002b0 ba 6b 1a 40 72 94 0a 3f 61 96 73 40 ec 93 55 c0
       2.412825 0.5413276 3.8060534 -3.3371534
0002c0 e3 ac 9d c0 e4 a8 1b 3f c5 98 a3 3e 30 2d d1 bf
       -4.9273543 0.6080458 0.3195249 -1.6341915
0002d0 7c 43 33 bf 33 2f 2f 40 9a d0 a1 bf e3 25 a7 40
       -0.7002485 2.7372558 -1.2641785 5.223375
0002e0 2f cb c6 c0 13 00 87 3f f3 4e 79 40 22 63 91 bf
       -6.2123027 1.0546898 3.8954437 -1.1358378
0002f0 06 a2 d0 bf 4e 15 ed 40 2d 56 ac be 93 e2 37 3f
       -1.6299446 7.4088507 -0.33659497 0.718301
000300 f6 08 66 3e 86 b9 9a c0 68 74 4c 3e 51 1b a2 40
       0.22464356 -4.835147 0.1996628 5.0658345
000310 82 f6 02 3f 77 24 4f c0 f1 6c 69 c0 0d 3a c0 bf
       0.5115739 -3.2366006 -3.6472743 -1.5017716
000320 99 ee b4 bd e6 09 e7 bf ec 5b 77 3e ea 8d 6b 3e
       -0.088345714 -1.8049896 0.24156159 0.23003355
000330 79 ea 25 c0 b8 62 d5 c0 0f 6c d1 3f 05 d4 4a 3f
       -2.592436 -6.6683006 1.6361102 0.79229766
000340 16 01 05 40 20 70 32 3f ba d9 98 bf bf bf b4 be
       2.0781913 0.6970234 -1.1941445 -0.3530254
000350 e2 9e b6 40 32 af da be 10 de ee 3f 85 4a 09 40
       5.706895 -0.42711788 1.8661518 2.1451733
000360 1c 63 63 c0 29 39 1f 40 b6 7d 93 c0 c9 6b be bf
       -3.5529242 2.4878638 -4.6090956 -1.4876643
000370 35 71 11 c0 55 66 11 c0 7b b4 2d 40 b7 c0 33 c0
       -2.2725346 -2.2718709 2.7141407 -2.8086374
000380 ff 82 02 40 94 73 af bf 5c b3 b9 be 63 2e 37 40
       2.0392454 -1.3707147 -0.36269653 2.8622062
000390 c9 01 dc 3f 75 8f c5 c0 70 4d 2d be 52 d7 89 bf
       1.7188045 -6.173762 -0.16924071 -1.0768836
0003a0 3e 18 e6 3f 86 1f f5 3f fb 94 44 40 9d f8 8c 40
       1.7976148 1.9150245 3.071593 4.4053483
0003b0 a7 a9 be bf b0 28 a2 3e 5d 80 f6 40 4f 7b 95 be
       -1.4895524 0.31671667 7.7031693 -0.2919564
0003c0 37 9b 48 c0 16 39 2d 41 5e 72 12 bf 42 22 9e 3e
       -3.1344736 10.826437 -0.5720576 0.30885512
0003d0 2a a8 f3 3e b3 07 29 c0 9c 0e 9f 40 e6 42 27 40
       0.47589236 -2.641095 4.9705334 2.6134582
0003e0 b1 89 a9 40 e3 11 b7 bd b8 56 8c 3e 83 21 3e 3f
       5.298058 -0.089389585 0.2740991 0.74269885
0003f0 78 c6 92 bf 35 26 31 bf b0 d9 11 40 77 cc 01 3f
       -1.1466818 -0.69198924 2.2789116 0.50702614

conv2.bias f4 [16]
000000 51 7e 41 3f 86 01 3c bf c1 fa 49 be 2f 20 1a bf
       0.7558337 -0.73439825 -0.19724561 -0.6020536
000010 df ce 11 bf c5 b3 02 c0 2d c3 2d 40 da a3 92 3f
       -0.56956285 -2.0422223 2.7150376 1.1456254
000020 20 18 e5 40 4c 11 2f c0 bb b8 68 3f f1 ca 81 bd
       7.159195 -2.7354307 0.90906876 -0.06337536
000030 bb 33 0d 3f c1 d1 89 bf f2 eb d5 c0 0e b8 86 bf
       0.5515706 -1.0767137 -6.685052 -1.0524919

bn2.weight f4 [16]
000000 e6 d5 7c 40 f9 5e 51 40 56 04 5f 40 70 6c d9 40
       3.9505553 3.2714217 3.4846396 6.794487
000010 62 34 3f 41 53 63 08 41 90 c3 3a 40 fd f3 59 41
       11.950289 8.524249 2.9181862 13.622067
000020 02 ae e4 40 83 c9 42 41 92 b9 b9 40 a1 37 38 40
       7.146241 12.174197 5.8039026 2.8783953
000030 85 f8 83 40 28 d3 0e 41 7b f7 08 41 47 ee f8 40
       4.124087 8.926552 8.56042 7.7790866

bn2.bias f4 [16]
000000 68 e0 4c c0 dc 1d 1a bf 63 48 e7 c0 76 d6 39 c0
       -3.2011967 -0.6020181 -7.2275863 -2.9037147
000010 10 ef 92 c0 cf 4e 3f c0 53 70 0d c0 56 c3 3e c1
       -4.5916824 -2.989185 -2.2099807 -11.922689
000020 50 84 84 c0 01 7c 52 c1 ef 48 96 c1 5a da 1c c0
       -4.1411514 -13.155274 -18.785612 -2.4508271
000030 24 4d 69 c0 df c2 a9 c0 fb 07 a9 c1 c1 22 94 c1
       -3.6453333 -5.305038 -21.128897 -18.51697

bn2.running_mean f4 [16]
000000 ca 9c 47 c0 6c b2 c3 41 60 92 e3 41 fd 76 c1 41
       -3.1189446 24.46212 28.446472 24.1831
000010 a5 58 3f 41 57 a9 00 c0 31 5f b8 3f cf f6 1e c1
       11.959142 -2.0103357 1.440405 -9.935256
000020 41 9f f4 41 7f be b4 41 6f 68 8a 40 2c 5e c0 40
       30.57776 22.593016 4.3252482 6.0114956
000030 66 67 10 3e 76 f6 9e 41 bb d2 af be 54 6b db 40
       0.14101943 19.870342 -0.34340462 6.8568516

bn2.running_var f4 [16]
000000 a0 07 15 42 b5 5d 5a 43 91 6b c1 42 c4 12 0b 44
       37.257446 218.36604 96.71009 556.2932
000010 15 e2 fc 43 18 9f 9e 43 e9 46 fa 42 09 f0 57 42
       505.76627 317.24292 125.1385 53.98441
000020 4f 35 a1 43 88 c0 15 43 e4 4b 66 42 68 d9 b7 42
       322.41647 149.75208 57.574112 91.92462
000030 0c f9 b5 42 7b 85 c5 42 dd b0 f1 41 d9 c9 21 42
       90.98642 98.760704 30.211359 40.447117

conv3.weight f4 [32, 16, 3]
000000 5d 68 6a bf 03 90 1d c0 65 2f 4e bf ac a8 9b bf
       -0.91565496 -2.4619148 -0.8054107 -1.216085
000010 f7 75 ac c0 73 b6 5f c0 53 e1 61 c0 cb 16 9d 40
       -5.3894 -3.4955108 -3.5293777 4.9090323
000020 10 57 1a 40 47 d5 3a 40 c8 20 8e 40 e5 46 33 40
       2.4115639 2.9192674 4.4415016 2.801202
000030 4a a5 92 40 a0 8d 7b c0 de ed b9 3d 21 f5 5e 3f
       4.582677 -3.930519 0.09078573 0.8709279
000040 4d cc ac 3f b3 8a bd c0 1a 4d 16 3f 70 dc 3c 40
       1.3499848 -5.923181 0.587114 2.9509544
000050 8e 10 27 40 bc b2 d2 be 61 0f 68 3d b5 56 29 3d
       2.6103854 -0.41151989 0.05665529 0.041342456
000060 aa 8b e3 3c 4c 54 b3 c0 33 b6 c2 bf 60 d4 6d c0
       0.027776558 -5.60404 -1.5211853 -3.7160873
000070 19 d8 63 40 4c 3d e4 3f 5d e3 16 c0 34 4b ca 40
       3.5600646 1.7831206 -2.3576272 6.32168
000080 d7 28 46 3f 54 ee 76 3f 4a e1 4e bf 17 1a 34 40
       0.77406067 0.9645741 -0.80812514 2.8140924
000090 45 ba 8f bf 70 d5 14 40 ab c2 3b 3f a9 db 8c 3e
       -1.122872 2.3255272 0.73343915 0.27511337
0000a0 61 a4 28 c0 d3 5c 48 bf 45 9e 18 bf e7 ac dc 3f
       -2.635033 -0.7826664 -0.596165 1.7240266
0000b0 32 c9 68 3f 4c 95 c4 bf e6 47 da 3e 70 1f 1f bf
       0.90932 -1.5358062 0.4263298 -0.62157345
0000c0 c3 22 94 c0 85 df a1 3e d1 6d 42 40 68 66 55 c0
       -4.6292434 0.31615844 3.0379527 -3.3343754
0000d0 38 dc 1c 40 fa 6b 3f 40 fb 17 18 c0 ca 63 35 c0
       2.450941 2.9909654 -2.3764637 -2.8342156
0000e0 7c f6 06 c0 d8 c9 b0 40 61 29 d6 3f 1c 09 2f 3e
       -2.1087942 5.524639 1.6731378 0.17093319
0000f0 e5 f1 83 40 6c 4a bf 40 a4 df d8 c0 37 87 51 bf
       4.123278 5.9778347 -6.7773 -0.81846946
000100 b6 59 3c 40 32 83 ca 3e 88 aa 47 c0 d5 85 67 c0
       2.9429755 0.3955322 -3.1197834 -3.6175435
000110 a8 b7 05 3f ad db 0f c0 fe 83 95 3f 97 a4 e1 3f
       0.5223336 -2.247783 1.1680906 1.7628354
000120 b8 d8 2d 3f c6 cc 23 c0 01 7f 57 c0 5e 8e 78 3f
       0.6790881 -2.5593734 -3.3671267 0.97092235
000130 56 0c 1e bf 46 9f 21 3e e0 e4 91 c0 81 d4 93 c0
       -0.61737573 0.15783414 -4.559189 -4.6196904
000140 8e 21 0f c1 3d 4b 1c 3f 83 ed 6d 3f 61 f0 d4 3f
       -8.945692 0.61052305 0.9294054 1.6635858
000150 08 00 d9 3f 47 57 9b c0 99 ee fd bf a1 35 b6 bf
       1.6953135 -4.854404 -1.9838439 -1.4235116
000160 fd 4a 03 40 3e 92 8c 3f 85 80 4b 3f cd cd 41 bf
       2.051452 1.098213 0.7949298 -0.7570465
000170 c8 d6 10 c0 6d dd 65 c0 e8 2f fc 3e 01 75 fa bf
       -2.2631092 -3.5916398 0.492553 -1.9566957
000180 1b 86 0e 3f 9a 38 49 40 d6 01 a1 c0 40 48 da bd
       0.5567338 3.1440797 -5.031474 -0.10658312
000190 d0 c8 7b c0 ff e5 c3 bf c6 e9 e7 3f 38 d2 d3 3d
       -3.9341316 -1.5304564 1.8118217 0.103428304
0001a0 34 7b 90 be e7 82 46 be 08 a1 32 3f 55 51 81 c0
       -0.28218997 -0.19385873 0.69776964 -4.041178
0001b0 70 13 ed 40 b0 6f 96 bf a3 2e 8b 40 44 8d 65 c0
       7.4086227 -1.1752834 4.349443 -3.5867472
0001c0 37 d3 a5 c0 db 9d 92 40 41 32 ea 3f 18 91 cc 3f
       -5.182033 4.5817695 1.8296586 1.5981779
0001d0 38 01 24 c0 24 67 45 bf 2b 6e 10 bf 9a 03 3c c0
       -2.5625744 -0.77110505 -0.564181 -2.9377198
0001e0 83 e9 d9 bf 6d 9e 56 40 ba a1 cd bf e8 84 c5 c0
       -1.7024387 3.3534195 -1.606498 -6.172474
0001f0 30 ea 38 3f 6d f6 1d c0 9b dd a8 40 97 d1 90 3f
       0.7223234 -2.4681656 5.2770514 1.1313962
000200 25 08 81 bf ee 3d 00 c0 52 aa 01 c0 18 db 22 40
       -1.008061 -2.00378 -2.0260205 2.5446224
000210 c7 2a e1 3e 86 65 b2 3f 17 37 43 40 62 59 b5 3f
       0.4397795 1.3937232 3.0502374 1.4167902
000220 5d 48 a9 3f 81 1b 08 bf 18 ee 74 3f 52 04 df be
       1.3225209 -0.5316697 0.956758 -0.43557984
000230 43 a9 72 3f 4a 3b 90 be d1 71 d9 be 58 bd ec be
       0.9478952 -0.28170234 -0.42469648 -0.46238208
000240 09 ba f3 be 10 27 19 3e 50 eb a1 40 e1 91 0b c0
       -0.4760287 0.14956307 5.0599747 -2.1807787
000250 33 c7 7b bf 23 ae be bf d3 29 57 3f cd 4c 20 40
       -0.9835083 -1.4896892 0.84048194 2.5046875
000260 3b ba 08 40 30 7c bf be 83 f6 7b 3f c8 26 00 40
       2.1363666 -0.37399435 0.9842302 2.002367
000270 65 77 13 41 8c c5 41 40 7b 8f 9d c0 70 05 bb bf
       9.216649 3.0276823 -4.9237647 -1.4611034
000280 8d 06 d8 bf 06 15 72 c0 c3 de cb 3f 81 61 ea be
       -1.6876999 -3.7825332 1.5927356 -0.45777515
000290 b4 d9 43 3f e0 e8 54 3f c6 c9 09 c0 b9 ee 6d bf
       0.76504064 0.8316784 -2.1529403 -0.92942387
0002a0 5b 0b 3c bf 3b 53 2d 40 bb 7d 0e c1 3e 62 0c 40
       -0.7345483 2.708205 -8.905696 2.1934962
0002b0 79 18 24 40 a5 31 95 3e 0d ba 9e 40 6c c5 86 40
       2.5639937 0.29139438 4.9602113 4.2115993
0002c0 04 27 e4 3f 55 34 3b 3f 08 4d 33 3f 96 c7 ec be
       1.7824407 0.7312673 0.70039415 -0.46246022
0002d0 4e bc 4e bf 38 81 99 bf e2 48 05 c0 73 63 a8 be
       -0.8075608 -1.199256 -2.0825734 -0.32888374
0002e0 b7 3e 65 bf f8 4b 85 3f 29 c1 24 bf 55 a6 89 bf
       -0.8954882 1.0413809 -0.6435724 -1.0753886
0002f0 87 d8 1a c0 2a 12 a3 bf c8 8d 08 3f 3e d9 4f 3f
       -2.4194658 -1.2739918 0.5334134 0.8119086
000300 76 77 29 3e c1 c3 d2 3e 41 a3 9f bf 3c 97 5f c0
       0.16549477 0.41164973 -1.2471696 -3.4936056
000310 2a 93 7f c0 b3 e6 8c c0 e5 92 58 40 8c d7 2a 3f
       -3.9933572 -4.4031615 3.3839657 0.6673515
000320 b7 c3 3f 40 ca f8 30 40 01 14 2a 40 4e da 97 40
       2.9963205 2.7651849 2.657471 4.7453985
000330 70 1b 99 3f e6 7d c8 40 bd 2c 2a c0 1c 8d cc 3f
       1.1961498 6.2653685 -2.6589806 1.5980563
000340 80 8f 0f c1 30 ed 95 c0 8b 21 10 be 70 55 33 40
       -8.972534 -4.6852036 -0.14075296 2.8020897
000350 ed 7c 66 3f 66 5e b1 3f 6f 30 f8 be 38 d2 ac 3f
       0.9003437 1.3856933 -0.48474452 1.3501654
000360 05 3c 86 be 82 8e 7a 3f 20 49 a2 bf 94 a1 ac c0
       -0.26217666 0.978737 -1.2678566 -5.394724
000370 8f 48 17 c0 f0 25 01 40 7e 4d 12 bf 4a d8 4d bf
       -2.3638036 2.0179405 -0.57149494 -0.80408156
000380 da f1 6d c0 4c 6d b4 3f 50 c5 d0 40 cf 60 99 40
       -3.7178864 1.4095855 6.524086 4.7930675
000390 1f 67 78 bf 48 5c 8e bf bf f8 23 c0 a1 f1 98 3f
       -0.9703235 -1.1121912 -2.5620573 1.1948739
0003a0 42 3c be 3e 44 93 0d 3e e2 bb 9c be 5e db 04 40
       0.37155348 0.13825709 -0.30612093 2.075889
0003b0 f6 58 ef 3f cf 3b 76 3e a5 13 cf bf dd 4b 5d be
       1.8699024 0.24046253 -1.617787 -0.21610971
0003c0 22 c0 98 40 c4 f4 96 be 59 33 08 3f 14 f5 fb be
       4.7734537 -0.29483616 0.5320335 -0.49210417
0003d0 68 fa c1 bf 05 2e 07 40 1f f8 ad bc eb b1 12 3f
       -1.5154543 2.1121838 -0.021236477 0.5730273
0003e0 d5 b2 4e c0 e8 17 e6 40 d2 3c 9d 3f e7 47 f4 bf
       -3.229665 7.1904182 1.2284186 -1.9084443
0003f0 5c e3 99 3f 63 e6 ce c0 9b 58 bd 3f e9 71 4a c0
       1.202251 -6.4656234 1.4792665 -3.1632025

conv3.bias f4 [32]
000000 87 fb 48 be 57 d3 f1 be 38 a8 05 bf 2f 8e 68 be
       -0.196272 -0.47231552 -0.52209806 -0.22710489
000010 92 0b 46 be 4f 8b 0a be 0b e1 82 3d 5c 6d cf 3e
       -0.19340351 -0.13529705 0.0639058 0.40513122
000020 86 74 97 3d 34 d7 83 3d 34 4c 99 3e 4f 45 f2 bd
       0.07395272 0.06437531 0.2994095 -0.11829626
000030 e2 ad 8e be f2 9b c7 bd c9 a2 9e be 79 30 6b be
       -0.27867037 -0.09746541 -0.3098357 -0.2296771
000040 d9 77 0d bf 7d 80 0e bf 5b da 2b 3d a8 ed 84 3d
       -0.55261 -0.5566481 0.041956287 0.06490642
000050 fb fa 95 be 28 7a 30 bf f7 74 ce be 47 21 91 be
       -0.29293045 -0.68936396 -0.40323612 -0.283457
000060 55 61 18 3e d6 5c cc be 6b ff 22 3a ea 29 09 bf
       0.14880879 -0.39914578 0.000621787 -0.5357958
000070 03 88 11 3e 92 cb 32 be 03 0c e5 bd 95 17 eb bd
       0.1421204 -0.17460468 -0.11183932 -0.11479107

bn3.weight f4 [32]
000000 a2 dc 66 41 81 56 16 41 c2 7d 05 41 79 ba 07 41
       14.428865 9.396119 8.343203 8.483026
000010 50 32 f9 40 16 27 cc 40 dd 2b c5 40 45 76 cb 40
       7.7873917 6.379771 6.1616044 6.358187
000020 94 6e 0a 41 59 7b be 40 52 ab 6c 40 5a 15 2b 41
       8.651997 5.952557 3.6979566 10.692713
000030 4e 20 06 41 85 d6 c8 40 b3 19 21 41 85 6f c5 40
       8.382887 6.2761865 10.068774 6.169863
000040 64 ac 02 41 47 50 07 41 2a f0 fc 40 56 9f fc 40
       8.167088 8.457099 7.904317 7.89445
000050 7f 4a ae 40 70 2d 86 41 cd 89 9e 40 fa f8 d0 40
       5.4465938 16.772186 4.9543214 6.5303926
000060 1e a5 03 41 cb cd ea 40 31 56 f2 40 3d b7 4e 41
       8.227812 7.337621 7.5730214 12.919736
000070 95 97 e2 40 24 4b d8 40 a9 4b ef 40 f1 38 f1 40
       7.0810037 6.7591724 7.477986 7.538201

bn3.bias f4 [32]
000000 8d 84 63 c1 3d 8c c8 c0 cd 89 c7 c0 b1 c1 cf c0
       -14.219861 -6.267119 -6.2355714 -6.492394
000010 3c 4f 75 c1 e4 c3 21 bf 85 0e 1f c1 c8 d2 ed c0
       -15.331844 -0.6318953 -9.941045 -7.43198
000020 ce a6 08 c1 4b 50 9a c0 5b dd 84 bf 37 ee 53 c1
       -8.540724 -4.8223014 -1.0380052 -13.245658
000030 69 2d 19 c1 32 cc cb c0 54 7f e6 c0 fe 8c d8 c0
       -9.573586 -6.368676 -7.203043 -6.767211
000040 01 e2 9d c0 a9 5a 5f c1 56 30 bf c0 60 83 07 c1
       -4.9338384 -13.959634 -5.9746504 -8.469574
000050 9d 45 02 c1 3a a1 76 c1 42 a4 2e c1 b2 ab b8 c0
       -8.141995 -15.414362 -10.915102 -5.770959
000060 07 90 8c c0 b2 06 a0 c0 9b ec 25 3e 2f 71 62 c1
       -4.3925815 -5.0008173 0.16203539 -14.152633
000070 d5 d5 30 c1 09 d8 ce c0 41 b5 be c0 52 23 11 c1
       -11.052205 -6.4638715 -5.9596257 -9.071123

bn3.running_mean f4 [32]
000000 a4 bf 8b c1 cf 54 2e 41 45 ce e8 40 3c 0c 04 c0
       -17.468575 10.895705 7.2751794 -2.0632467
000010 8d b1 9c c0 5c c0 10 c1 79 98 c1 c1 0d 50 c0 40
       -4.8966737 -9.046963 -24.19945 6.009772
000020 55 a1 eb 41 da 6a 1a c1 ce 31 8a c0 38 f5 0c c0
       29.453775 -9.651087 -4.3185797 -2.202467
000030 92 48 9a c1 a4 7b 32 41 2a 1f b7 bf ec fd c8 40
       -19.285435 11.155186 -1.4306386 6.2809963
000040 e7 5e 1f c1 62 a9 d4 c0 fe 44 2a 40 80 82 83 c1
       -9.9606695 -6.6456766 2.660461 -16.43872
000050 84 77 30 41 d9 de 47 40 98 82 e6 41 ca fb 09 41
       11.029179 3.1229765 28.813766 8.623972
000060 20 ab 3b c1 0a fc 45 3e c8 f0 af c1 9a ef f3 c0
       -11.729279 0.19334427 -21.992569 -7.622998
000070 c4 01 13 c1 71 e9 ac c0 3c 60 ba c1 55 08 f6 c1
       -9.187931 -5.4034963 -23.29699 -30.754068

bn3.running_var f4 [32]
000000 c8 65 b5 44 3e 9a ee 44 fa 13 a5 44 81 0e 85 44
       1451.1807 1908.8201 1320.6243 1064.4532
000010 96 aa 50 44 49 3c bb 44 e7 72 a3 44 47 00 3b 44
       834.6654 1497.8839 1307.5907 748.00433
000020 a6 89 46 44 6b ba 89 44 0d e3 52 44 41 45 94 44
       794.15076 1101.8256 843.54767 1186.1642
000030 4e 24 67 44 72 df 89 44 37 22 cd 44 95 28 74 44
       924.56726 1102.9827 1641.0692 976.6341
000040 73 f4 03 45 94 ae 99 44 3b 95 bc 44 73 2f c1 44
       2111.278 1229.4556 1508.6635 1545.4828
000050 2e 9f 84 44 f2 92 a7 44 6a 43 54 44 2c 25 54 44
       1060.9744 1340.592 849.05334 848.5808
000060 73 d9 a9 44 44 d9 9b 44 9f 7d 5a 45 4f 30 91 44
       1358.7953 1246.7896 3495.8513 1161.5096
000070 e5 68 2d 44 37 dd 8c 44 e6 68 cb 44 5d c4 92 44
       693.639 1126.913 1627.2781 1174.1364

conv4.weight f4 [32, 32, 3]
000000 ba 86 dd 3f 75 aa bc 3f f5 7e 9b bf 73 16 8f c0
       1.730674 1.4739519 -1.2148119 -4.4714904
000010 9a 33 c1 bf 56 5d af 3f fb a0 ee 3f 1d a8 16 c0
       -1.5093873 1.3700359 1.8642877 -2.3540108
000020 95 9c d4 3f 39 48 df 3f 19 2e 79 40 f4 c3 34 bf
       1.6610285 1.7443916 3.8934386 -0.706115
000030 77 82 ed be e2 63 01 3f f2 74 8f 40 cc 33 05 c0
       -0.463886 0.50543034 4.4830256 -2.0812864
000040 33 5d 27 40 9b a6 11 3f 08 15 06 3f 84 0a 5e 40
       2.6150634 0.56894845 0.5237584 3.4693918
000050 eb 5e 0e c0 09 95 1b 40 0d f7 27 3f 05 d2 6a c0
       -2.2245433 2.4309714 0.65611345 -3.6690686
000060 63 9d 79 c0 63 c3 ec bf 83 89 70 3f bc ce 53 bf
       -3.9002311 -1.8497127 0.93959826 -0.82737327
000070 ed 2c 9c bf 26 2c 17 c0 bc 90 35 bf 13 e7 20 c0
       -1.220121 -2.3620696 -0.7092397 -2.5141037
000080 1b 7c f0 3f 85 93 93 c0 ef fe 4f 40 2b 39 c1 40
       1.8787874 -4.6117578 3.249935 6.0382285
000090 1b b1 26 c0 48 b2 0f 40 12 8b 1a 40 88 a9 16 c0
       -2.6045597 2.2452564 2.4147382 -2.3540974
0000a0 a9 b1 de 3e 97 06 1f 3f 75 89 5f 40 18 19 1f c0
       0.4349492 0.6211943 3.4927647 -2.4859066
0000b0 8c a5 7f bf ec e1 f6 3f b3 84 a2 40 a7 19 fb bf
       -0.9986198 1.9287696 5.0786986 -1.9617203
0000c0 b8 44 ad c0 91 95 be 3f 02 39 d1 3f d9 b5 42 40
       -5.4146385 1.4889394 1.6345522 3.042349
0000d0 42 f1 9c 40 81 71 c0 c0 d3 30 16 c0 42 c1 23 3e
       4.9044504 -6.0138555 -2.34673 0.15991691
0000e0 33 7a bb bf 72 3e 44 c0 0a 08 d8 c0 0f cc 90 c0
       -1.4646667 -3.0663114 -6.7509813 -4.5249095
0000f0 f5 3d 6c 40 88 18 4d 3f 60 9d d7 3f 85 80 88 40
       3.6912816 0.80115557 1.6844902 4.2656884
000100 82 97 75 40 a4 dd 23 c0 c3 52 d9 bf 52 09 56 bf
       3.8373723 -2.5604029 -1.6978382 -0.8360797
000110 fc 6e b1 be 57 e4 f4 3f 1a 6c 2b c0 b3 39 c0 bf
       -0.34654987 1.9132184 -2.678473 -1.5017608
000120 f1 cc f5 3f cb d3 88 40 72 ad c0 3f c4 9b c9 bf
       1.9203168 4.2758536 1.5052931 -1.5750661
000130 dc f6 e0 bf 36 d8 cf 3e 1a 19 a8 bd e7 27 b0 40
       -1.7575336 0.40594643 -0.08207913 5.504871
000140 6d 02 37 c0 b1 03 b3 3f 56 53 8d c0 34 ee 93 3f
       -2.859523 1.3985502 -4.416423 1.1557069
000150 3f 8e c1 bf 68 25 f3 bf d8 72 48 c0 fd e7 5a bf
       -1.5121535 -1.899579 -3.1320095 -0.85510236
000160 bb eb 30 3d bf 62 fe be df 28 45 40 65 cc 81 c0
       0.04319356 -0.49684712 3.0806196 -4.0562005
000170 b4 fc 0b 40 11 ca 23 40 4b 80 02 c0 3a a3 b2 3f
       2.1872988 2.5592082 -2.0390804 1.3956063
000180 4d 29 be 40 b2 3d 87 bf c6 6e 2a 3f 3d da 7f c0
       5.9425416 -1.0565703 0.66575277 -3.9976952
000190 06 5a 4a bf 28 ad 36 3e 72 87 bf bf 8b eb e6 3f
       -0.79043615 0.17839491 -1.496321 1.8040632
0001a0 0b b0 b0 40 e6 9e 70 3f 66 6e 97 3e 1e 71 f9 3d
       5.5214896 0.9399246 0.29576415 0.121797785
0001b0 2f 93 00 40 da 0e 03 40 ef df d9 bf 29 54 be 3e
       2.0089834 2.0477815 -1.7021464 0.37173584
0001c0 7d a7 07 bf cd 91 2f c0 71 a6 0c 40 95 f0 a4 bf
       -0.5298994 -2.743274 2.1976588 -1.288592
0001d0 0d 5d 7d c0 9d 6b c8 3f a0 85 06 c0 11 5e cf bd
       -3.9588044 1.5657841 -2.1019058 -0.101253636
0001e0 fb 50 83 3f 09 a5 25 3f de c9 d4 bf c1 56 e6 bf
       1.0259088 0.6470495 -1.6624105 -1.7995225
0001f0 36 2a 24 c0 d7 cb 17 bf 26 4a bb 40 15 6b 41 bf
       -2.5650764 -0.5929541 5.8528013 -0.7555402
000200 46 be 8d c0 98 51 c4 3f c2 4f 0a 40 b8 ca f1 3e
       -4.4294767 1.53374 2.161118 0.47224975
000210 1a c1 cd 3f 20 f7 cd bf 00 26 89 bf b5 ad e2 40
       1.6074555 -1.6091042 -1.0714722 7.0837045
000220 60 ec 26 3f 5e db 9e bf 63 8b 86 40 26 60 56 40
       0.6520443 -1.2410696 4.204515 3.3496184
000230 c1 0e 9d bf c7 80 a8 3f 68 a6 86 40 1b d6 f6 bd
       -1.2270128 1.31643 4.2078133 -0.12052556
000240 ee 56 be be 33 ec 7a 40 ee 88 38 c0 5d 26 8a be
       -0.37175697 3.9206665 -2.8833575 -0.26982394
000250 33 5f 80 c0 d5 4d 30 3f 55 ce 15 c0 46 b6 3b c0
       -4.011621 0.6886876 -2.3407185 -2.933
000260 42 22 1f bf aa 2e e9 bf 9a b0 75 bf f2 9b d0 bf
       -0.6216165 -1.8217366 -0.959726 -1.6297591
000270 75 b9 da 3f 25 6b 1c 40 d2 91 df 3f 4c 2a ed c0
       1.7087847 2.4440396 1.7466376 -7.411413
000280 90 72 df 3f 32 0f 9c 3f 3e 6e 4b c0 8d 47 f6 3c
       1.7456837 1.2192137 -3.1786036 0.030063415
000290 25 76 35 40 7b ef 91 3e ad b3 c6 3f 65 41 0c 3e
       2.835336 0.28503022 1.5523583 0.13696821
0002a0 25 f5 43 40 92 aa b0 40 cd 47 a0 c0 13 ce 6d 3f
       3.0618374 5.5208216 -5.0087647 0.9289257
0002b0 eb c2 0c be ce 4b d8 3d 1d 8b 2a c0 75 60 16 40
       -0.1374623 0.105613336 -2.6647408 2.3496373
0002c0 33 51 4e 3f 58 0a 7f 40 75 24 8f 3f 0a ea a5 3f
       0.8059265 3.9850063 1.1183001 1.2962048
0002d0 b7 0e 76 c0 d9 c6 84 bf 2a 8f 15 40 e2 f0 74 c0
       -3.8446481 -1.0373183 2.336863 -3.8272023
0002e0 ae 0a 78 3f 0b 2a b5 bf f9 8f 2b 40 a5 e2 19 40
       0.96891296 -1.4153455 2.6806624 2.4044583
0002f0 f7 3e 04 40 22 ad 4c bf 87 95 a8 bf fd de 09 c0
       2.066343 -0.7995168 -1.3170632 -2.1542351
000300 aa e1 36 bd de 14 43 40 da f6 1f 3e 01 f3 42 40
       -0.044648804 3.0481486 0.1562151 3.0460818
000310 07 95 81 3e b7 e9 07 40 f2 8d 67 c0 9d 53 69 3f
       0.2530901 2.1236398 -3.6180387 0.9114321
000320 ba 3b 1d 40 21 f0 63 c0 2f f4 47 bf b1 59 b2 3f
       2.4567704 -3.5615313 -0.7810697 1.3933622
000330 43 5f db 3f 19 b0 84 40 a2 fd b3 3f 7d 48 0f c0
       1.7138447 4.1464963 1.4061778 -2.2387993
000340 1b 5c 57 c0 0c 63 02 bf c3 3d 26 40 d1 69 ce 40
       -3.3649967 -0.50932384 2.5975196 6.450417
000350 00 a9 d1 bf 08 47 9d c0 99 13 82 c0 ac 3a 4e c0
       -1.63797 -4.914921 -4.0648923 -3.222331
000360 41 37 99 3e 1e e5 44 3f 62 f3 56 bf e8 09 6b c0
       0.29924968 0.76912105 -0.8396512 -3.6724796
000370 8b eb 00 c0 89 ab 09 3f 11 42 55 40 7f bc e7 3f
       -2.0143764 0.53777367 3.3321574 1.81044
000380 bd d2 68 c0 fe e2 27 c0 87 75 cc 40 ed f4 4d 40
       -3.6378624 -2.6232295 6.3893466 3.218074
000390 ac d8 44 c0 2d c0 a5 c0 d8 00 b4 bd 2c d0 b3 3f
       -3.0757246 -5.179709 -0.087892234 1.4047904
0003a0 22 f6 6b 3d b0 6a 39 3f b4 75 7e 40 fd d9 4e bf
       0.057607777 0.7242842 3.975934 -0.80801374
0003b0 f7 36 d4 3e 85 d3 53 bf a7 04 2f c0 e5 e5 10 c0
       0.41448185 -0.8274463 -2.734659 -2.2640316
0003c0 43 16 a9 40 02 14 88 be e5 12 67 3f b1 85 8d 40
       5.2839675 -0.26577765 0.90263206 4.4225698
0003d0 68 0b 36 3f b3 62 0a c0 6e f4 3f bf 02 9f 9f c0
       0.71111155 -2.1622741 -0.74982345 -4.98816
0003e0 81 94 29 c0 d4 4e 66 40 c4 6a cb 40 79 3d 0a 40
       -2.649689 3.5985613 6.356783 2.160002
0003f0 9f 58 fb 3e 4b e7 1b 40 9f 52 bf bf 07 31 4a bf
       0.4909105 2.435992 -1.4947089 -0.7898106

conv4.bias f4 [32]
000000 4e 79 7b be ca c4 0c 3e c7 95 f5 bc 61 35 88 be
       -0.24557993 0.13746944 -0.029978646 -0.26603225
000010 8c 23 cd bd 32 8f 80 be 63 a9 61 be 49 73 dd be
       -0.10016546 -0.2510925 -0.22037272 -0.43252018
000020 69 5f 0c 3f a4 07 64 be f2 96 8d be fb 83 e0 bd
       0.54833084 -0.2226854 -0.27654225 -0.10962673
000030 2e b1 a5 bb 4c 91 dc be 79 52 8f be 3b df 96 bd
       -0.005056522 -0.43079603 -0.2799261 -0.073667966
000040 00 f5 ba be 41 f3 eb bd c5 50 74 be bc 56 38 bf
       -0.36515045 -0.115210064 -0.23858936 -0.72007346
000050 df e7 5c bd 81 a8 8a 3e 8b 87 c8 be 09 26 00 be
       -0.053932067 0.27081683 -0.3916591 -0.1251451
000060 28 46 92 be ff d5 38 be d1 b9 00 bf 12 86 c8 be
       -0.2856915 -0.18050383 -0.50283533 -0.39164788
000070 a3 22 6f bf c8 d2 3b bf b0 58 6a 3e 44 7d a2 be
       -0.93412226 -0.733685 0.22885394 -0.31736195

bn4.weight f4 [32]
000000 fb e2 95 40 2e 94 ad 40 31 e9 92 40 85 25 89 40
       4.6839576 5.4243383 4.5909657 4.28583
000010 88 37 d6 40 14 ec bc 40 9d f8 93 40 18 b7 bd 40
       6.6942787 5.903818 4.6240983 5.9286003
000020 4a d3 98 40 6d 65 34 41 9f 32 99 40 27 c7 a6 40
       4.775792 11.274762 4.7874293 5.2118106
000030 a7 bb 8f 40 f3 30 73 40 6e 4f c4 40 75 31 88 40
       4.491657 3.7998626 6.134696 4.256037
000040 9f f2 9e 40 da 88 98 40 19 c4 a3 40 b0 2d cd 40
       4.967117 4.7667055 5.1176877 6.411827
000050 30 23 c9 40 6f bd dd 40 c4 1c 8c 40 a0 f7 ce 40
       6.2855453 6.929374 4.3785114 6.4677277
000060 90 0d 7a 40 c3 cf 7f 40 aa 46 ac 40 45 be c5 40
       3.9070778 3.9970558 5.383626 6.1794763
000070 aa e2 b3 40 a5 1b d3 40 7f e4 92 40 ca c0 9e 40
       5.621419 6.5971246 4.5903926 4.961034

bn4.bias f4 [32]
000000 8d fd 7d c0 79 3f 9c c0 ed 75 5f c0 ee 05 d5 bf
       -3.9686005 -4.882748 -3.4915726 -1.6642435
000010 93 c9 69 c0 b0 34 bd c0 95 02 3f c0 87 87 7e c0
       -3.652928 -5.9126816 -2.9845326 -3.977022
000020 a3 88 6c c0 04 08 c2 c0 ef 64 2f c0 f8 15 9a c0
       -3.6958396 -6.0634785 -2.7405355 -4.8151817
000030 cc f1 46 c0 e7 1d 8a c0 14 3c 86 c0 d0 a1 84 c0
       -3.108508 -4.31615 -4.1948338 -4.1447525
000040 f1 33 86 c0 29 27 8e c0 15 87 b0 c0 2e af 2e 3f
       -4.1938405 -4.4422803 -5.5164895 0.68236053
000050 bc 98 30 c0 09 a2 d6 c0 2a 2e 71 c0 83 0a 87 c0
       -2.7593222 -6.7072797 -3.7684426 -4.220033
000060 df 5e cf bf 0f 88 62 c0 83 58 46 c0 14 54 92 c0
       -1.6200827 -3.5395544 -3.0991523 -4.5727634
000070 21 8e d7 be 9c d9 64 c0 70 64 88 c0 93 b2 0d c0
       -0.42100623 -3.5757818 -4.2622604 -2.2140243

bn4.running_mean f4 [32]
000000 5e 33 eb 40 db 79 07 40 f9 35 3f c1 cf ed 8d 41
       7.3500204 2.1168125 -11.950677 17.741117
000010 28 48 19 c0 47 ef 4c 41 3c 75 9a 41 c9 0f 08 42
       -2.395029 12.808417 19.307243 34.015415
000020 56 60 3c c1 b4 23 39 c1 23 78 08 c0 13 d5 8f c0
       -11.7735195 -11.571217 -2.1323326 -4.49476
000030 23 e8 82 41 30 09 a5 41 25 69 e2 41 92 5a 0c 42
       16.363348 20.629486 28.30134 35.088448
000040 31 c3 9e 40 ed 95 96 41 e0 52 ae c1 7e d3 33 c1
       4.961327 18.823206 -21.790466 -11.239134
000050 0b 09 b0 c0 c9 23 00 c1 6b 06 df 41 5c af 5d 3f
       -5.501104 -8.008737 27.878134 0.865957
000060 ea 17 17 42 1a f4 fd 3e 0d 11 09 42 12 b5 01 41
       37.773354 0.49600297 34.26665 8.106707
000070 14 2f b9 c0 37 0d 2a c1 aa c9 a7 c1 e2 eb 59 41
       -5.786997 -10.628226 -20.973469 13.620089

bn4.running_var f4 [32]
000000 99 29 d9 45 38 58 a6 45 cf ad ae 45 dc 03 82 45
       6949.1997 5323.0273 5589.726 4160.4824
000010 14 cc b4 45 c5 85 6a 45 84 e7 8e 45 91 a0 b8 45
       5785.51 3752.3606 4572.9395 5908.071
000020 f2 fa 76 45 a4 30 06 46 74 c9 93 45 e2 33 ad 45
       3951.684 8588.16 4729.1816 5542.4854
000030 d4 ad ab 45 bc 79 bf 45 e6 95 80 45 ce 50 9b 45
       5493.7285 6127.217 4114.7373 4970.1006
000040 11 2a c1 45 51 5b 7f 45 19 db b8 45 10 4b 9a 45
       6181.2583 4085.7073 5915.387 4937.383
000050 e4 43 d3 45 78 88 99 45 0d cc e3 45 f7 04 ad 45
       6760.4863 4913.0586 7289.5063 5536.6206
000060 90 66 f4 45 0e 3f 98 45 e9 c2 9f 45 61 55 63 45
       7820.8203 4871.882 5112.364 3637.3362
000070 b4 64 b2 45 b9 fc 8e 45 ac 4d 93 45 5e 43 e8 45
       5708.588 4575.5903 4713.709 7432.421

conv5.weight f4 [6, 32, 1]
000000 26 35 68 be 69 64 15 bf 78 df ee 3e a2 fc 78 3f
       -0.22676525 -0.5835634 0.46654868 0.9726049
000010 a5 5b f3 be 04 61 6e bf ac d8 0b bf a7 d1 34 bd
       -0.47530857 -0.93116784 -0.5462749 -0.044145253
000020 4c 0b 53 bf 29 70 41 bf 32 d7 7f be 36 76 27 bf
       -0.8243911 -0.7556177 -0.24984434 -0.6541475
000030 4b f6 71 3f a4 ac b3 3b d0 d7 a0 be de 99 0f 3f
       0.9451644 0.005483227 -0.31414652 0.5609416
000040 2f e7 10 3f 8d 64 8f bf 17 fb 65 bf 2e aa 68 3d
       0.5660276 -1.1202561 -0.8983626 0.05680292
000050 67 ed 56 3f 28 e8 5c bf c8 8a a9 3e 38 a9 43 3f
       0.83956 -0.8629174 0.33113694 0.7643008
000060 34 6e 73 bf 90 9f aa 3f 82 84 3b 3f 59 17 aa 3e
       -0.9509003 1.3329945 0.73249066 0.33220938
000070 a5 05 4f bf 79 5c 94 be b3 14 5f 3f 98 c2 06 bf
       -0.8086799 -0.289768 0.8714096 -0.52640676
000080 ce ee 90 bf 3f 63 c0 be 51 f3 f3 3f bc db 24 3f
       -1.1322877 -0.3757572 1.9058629 0.6439779
000090 96 55 8c bf 7b 11 f4 bf fb 30 f8 3f 99 57 36 bd
       -1.0963619 -1.9067835 1.9389948 -0.044517133
0000a0 7f bd c8 be eb 22 32 40 bb 6f 3f 3f 20 62 b5 3f
       -0.39207074 2.7833812 0.7477986 1.417057
0000b0 9e 5c 66 bf dd 75 e7 bf 0c 10 f5 be a8 9f e6 3d
       -0.8998507 -1.8082844 -0.47863805 0.11260921
0000c0 29 82 fd bf 75 2b 13 3e e7 a4 17 40 e0 91 04 be
       -1.9805347 0.14372046 2.3694398 -0.12946272
0000d0 14 fd b7 bf 4b b8 2d bf cb aa 29 be a0 fd 8c 3f
       -1.4374108 -0.67859334 -0.16569059 1.10149
0000e0 97 51 d2 3f 28 f4 cd bf 8f 36 2e 3e 23 a0 9a be
       1.6431149 -1.6090136 0.17013 -0.302003
0000f0 29 d5 27 be 5a dd df bf 8b 39 a4 bd d4 72 88 bb
       -0.16389908 -1.7489426 -0.08018788 -0.004164079
000100 6b e5 46 3f fe d8 0b 40 f7 8d 00 40 05 32 0e c0
       0.77693814 2.1851192 2.0086648 -2.221803
000110 01 ca b5 3e 63 a0 5b 40 4e 58 05 3f 8a 01 eb 3e
       0.3550568 3.4316642 0.5208787 0.45899612
000120 d1 c5 3b c0 4a 2b e2 be 59 3b a8 3e f9 7e 44 c0
       -2.9339488 -0.44173652 0.3285778 -3.0702498
000130 f6 3a 9f c0 fe f9 b7 40 da de ed 3e 6c c3 fd be
       -4.9759474 5.7492666 0.46459085 -0.49563158
000140 b6 b4 93 3f c7 05 8c 40 12 78 5d c0 23 44 08 3f
       1.1539524 4.3757052 -3.4604535 0.5322897
000150 a1 44 0c 40 20 c5 5a bf 32 1e 0d c1 cd fb ba 3f
       2.1916888 -0.8545704 -8.819872 1.4608094
000160 99 40 4e c0 a1 9e bf 3f d4 8d c0 c0 bb 59 41 40
       -3.2226927 1.4970285 -6.017313 3.0211017
000170 48 36 86 bd ad 32 88 40 fc 50 1b c1 9d 47 35 c1
       -0.06553322 4.256186 -9.707272 -11.329984
000180 a2 70 47 bf 4a 63 ea 3f a6 79 21 c0 dc 11 c1 bd
       -0.7790624 1.8311551 -2.5230498 -0.094272345
000190 04 1e de 3e bc 96 1e bd 45 3a 33 3f 13 31 04 c0
       0.43382275 -0.03871797 0.7001079 -2.0654953
0001a0 6b 72 62 3d f5 42 98 be ea 42 f7 3f a0 ef 79 3f
       0.0552849 -0.29738584 1.9317296 0.97631264
0001b0 3f ed 6a 3f 56 cf b2 bf 09 d5 ee bd cb 1e 24 c0
       0.9176826 -1.3969524 -0.11661727 -2.5643795
0001c0 bc 08 b4 3f e4 7f d6 be bb f9 03 40 f8 25 26 bf
       1.4065166 -0.41894448 2.0621173 -0.64901686
0001d0 04 39 f3 bf f4 01 16 3f 58 a0 9b 3f 91 4f 63 bf
       -1.9001775 0.5859673 1.2158308 -0.88793284
0001e0 7c 4b 0e 3d 53 be 0d 3e 89 70 df 3e 84 3b dc bf
       0.034739956 0.13842134 0.43640545 -1.7205663
0001f0 79 a6 4a 3e af 34 a0 3f 94 5c af bf 79 a4 dd 3e
       0.19790067 1.2516078 -1.3700128 0.43289545
000200 17 26 58 40 8f 48 00 c0 51 a3 dd 3f 6e 49 8e bf
       3.3773248 -2.0044286 1.7315465 -1.1116159
000210 3b 2b 2d 40 b2 5a 25 3f e0 c3 ad bf 92 b8 b5 3f
       2.7057636 0.64591515 -1.3575401 1.4196951
000220 04 f1 ed 3f 8e 44 e8 be 5b ea 5a bf 8c 91 73 bf
       1.8589177 -0.45364803 -0.8551385 -0.9514396
000230 45 6a dd bf 0c 9d 9d bf f5 78 d8 3f f3 89 19 bf
       -1.7298056 -1.2313552 1.6911913 -0.5997612
000240 8e d9 0c c0 6c f7 ef 3f 88 27 20 bf 4d 01 4a 3e
       -2.2007785 1.8747382 -0.6256032 0.19727059
000250 f4 be 87 bf 29 95 07 3f 87 f6 26 3f a6 1b f7 bf
       -1.0605149 0.52961975 0.6521992 -1.9305313
000260 cc 93 a7 3f c5 56 c0 bf fe 4d 7d bf c1 82 54 bf
       1.3091979 -1.502648 -0.9894713 -0.83012015
000270 42 25 80 3e 97 24 ab bf 2e 69 f2 3f 3b f4 08 3e
       0.25028425 -1.3370541 1.8938348 0.13374417
000280 c9 ab ef bf 0a 09 8b 3e e5 35 af bf 9b 7c 96 bc
       -1.87243 0.27155334 -1.3688322 -0.018369963
000290 af 6b 92 bf bc a2 09 3e 43 f5 fb 3c dc af 92 be
       -1.1439112 0.13440984 0.030756598 -0.28649795
0002a0 2b 0e d7 bd d9 15 04 be 42 02 99 bf 3a 56 34 bf
       -0.10500749 -0.12898959 -1.1953814 -0.7044407
0002b0 60 93 9e 3e 4f d8 c2 3f 2b 81 54 bf e8 05 2d 3f
       0.30971813 1.5222262 -0.83009595 0.6758714
0002c0 ca a9 95 3f c0 a8 a2 bf c5 b0 92 bf dd f4 47 be
       1.169244 -1.2707748 -1.1460196 -0.19527002
0002d0 6e 42 84 3f bf 46 3c 3f d1 68 f2 be 0f 79 63 bd
       1.0332773 0.7354545 -0.47345594 -0.055535372
0002e0 09 da 87 bf 71 32 10 3f 14 16 34 3f 1d 0d 3b 3f
       -1.0613414 0.5632697 0.7034619 0.73066884
0002f0 2c 4b e7 3e c3 ab 46 be 0e 55 e2 bd 74 72 2e 3f
       0.4517454 -0.1940146 -0.11051379 0.6814339

conv5.bias f4 [6]
000000 92 32 47 3f 45 a6 a6 bf a7 1e 0c 3f ce 3e f8 be
       0.7781154 -1.3019491 0.5473427 -0.48485416
000010 b8 6a 27 bf e9 98 5f 3f
       -0.65397215 0.873427
