RL/rl_actor_prune_quant_env.pth (torch, 51096 bytes, 4 tensors)

linear1.weight f4 [200, 55]
0.013837037 0.019468207 -0.116250135 -0.089358695 0.017615177 0.09686535 -0.029240422 0.13279106
-0.120679006 -0.13327256 -0.067750454 -0.033761878 -0.020683335 -0.11951819 0.0055301115 -0.1307508
-0.0698146 0.058238268 -0.099492244 0.009449848 -0.115202114 0.038640972 -0.007152044 0.035127252
-0.049677067 -0.06556046 0.008511373 -0.10347655 -0.104033805 -0.01643083 -0.08368877 -0.035896223
0.041303415 -0.105601214 -0.0910963 -0.06512115 -0.020269843 -0.062317543 -0.016501283 -0.07576957
0.04795819 -0.017810782 -0.02508393 -0.09209339 0.05516312 -0.06864191 0.024303336 -0.12659806
0.08491827 0.020858126 -0.032513753 0.0619701 0.0157534 0.08918779 -0.12134816 -0.09805386
0.07794908 -0.10498014 0.08935643 0.044071186 -0.1276877 -0.12735622 0.04910073 -0.12681001
0.03402935 0.0560969 0.07281871 0.0736306 -0.08621355 0.10713711 -0.08335691 0.062996015
0.11953018 0.020530324 -0.10459791 0.018163249 0.09469961 0.096647374 -0.08326084 -0.07109937
0.05903727 0.018414995 -0.11728666 0.06216674 -0.120938614 -0.12794997 0.09116496 -0.062048417
0.06562906 -0.07979182 -0.04825709 -0.00016289571 -0.047413196 -0.060054716 0.03651658 0.015623133
0.054106496 0.059905637 0.019874733 -0.052020177 0.021325024 0.012533402 -0.051919557 0.12284016
-0.120091826 -0.0394369 -0.13547035 -0.047658276 -0.015742904 -0.14258963 0.104325235 0.050926343
0.02368051 -0.0059624747 0.074540384 0.0056164297 -0.12037153 0.14056541 0.024219943 -0.056938343
0.050939795 -0.08167872 0.026482131 -0.05871557 -0.053603925 -0.07808933 0.007024383 -0.054895796
0.033760794 0.0059722117 -0.078077294 0.10156509 0.030313302 -0.022469316 0.07008068 0.055925164
-0.066741996 0.10320846 -0.033721797 -0.010653465 0.01908806 -0.114243194 0.12912486 0.051109552
0.118801124 -0.02685107 -0.09843784 0.05561989 -0.081027366 0.01730208 0.09294 0.10572766
-0.06285028 0.009516744 -0.06973361 0.09701018 0.08812404 -0.024717888 0.07580164 0.12191032
-0.041840825 -0.11724533 0.10101687 0.010237257 0.0585879 0.04859923 0.045175314 -0.09302624
-0.016514288 0.06901203 -0.023615474 -0.06457202 -0.033065204 -0.08457759 0.08520319 -0.05023864
-0.078249045 0.002944194 -0.023251083 0.04513698 -0.12736721 0.10582648 0.004084972 0.04198133
0.07411803 0.08879757 0.06535137 -0.03333153 0.05364079 0.06149551 0.10344262 0.08446871
0.07736802 0.044686794 -0.05704289 0.13029629 0.098220766 -0.09085754 -0.0707525 0.07174908
0.13664736 0.049780663 0.07371213 -0.090945266 -0.016701724 -0.09226127 0.056010284 -0.08790273
0.1196087 0.0180497 -0.09324119 0.02955747 0.03346772 0.1267404 -0.069947615 0.0910718
-0.060950022 -0.063674755 -0.06065449 -0.079072796 0.029495167 -0.0846772 -0.03966361 0.011884844
0.052148413 0.047942534 0.14942743 0.038235325 -0.11886265 -0.02772638 0.006704217 0.018999126
0.09064492 -0.09835949 -0.033045422 0.038373828 -0.02065514 0.0416804 -0.032866858 0.053476248
-0.025660804 0.024484107 -0.00016416897 0.12597899 0.09855556 -0.050247505 -0.08043167 0.11887987
-0.07059702 -0.023853144 -0.067469396 0.090079 0.031407822 0.076006696 -0.0059433146 0.122722134
00000000: bdb4 623c ca7b 9f3c 8d14 eebd b101 b7bd
00000010: b44d 903c 5761 c63d 9c89 efbc 61fa 073e
00000020: 8e26 f7bd 9a78 08be c0c0 8abd e549 0abd
00000030: 1970 a9bc f4c5 f4bd f035 b53b 8ae3 05be
00000040: f5fa 8ebd 408b 6e3d 97c2 cbbd 89d3 1a3c
00000050: 16ef ebbd ff45 1e3d b25b eabb 98e1 0f3d
00000060: 2e7a 4bbd 9044 86bd 4973 0b3c 83eb d3bd
00000070: ad0f d5bd f399 86bc 0565 abbd eb07 13bd
00000080: c52d 293d 7345 d8bd b290 babd 3d5e 85bd
00000090: f10c a6bc ae40 7fbd b32d 87bc 142d 9bbd
000000a0: cf6f 443d ebe7 91bc d07c cdbc 769b bcbd
000000b0: b9f2 613d 2194 8cbd ca17 c73c eca2 01be
000000c0: a1e9 ad3d a9de aa3c 242d 05bd 5cd4 7d3d
000000d0: 460d 813c 17a8 b63d 6285 f8bd 76d0 c8bd
000000e0: c4a3 9f3d d4ff d6bd 8100 b73d fd83 343d
000000f0: 90c0 02be ab69 02be d91d 493d 7cda 01be
00000100: 5c62 0b3d ddc5 653d fa21 953d a4cb 963d
00000110: bb90 b0bd b36a db3d 07b7 aabd 0e04 813d
00000120: 3dcc f43d 362f a83c 6e37 d6bd 18cb 943c
00000130: def1 c13d 0fef c53d a984 aabd 8c9c 91bd
00000140: 10d1 713d 0bdb 963c fd33 f0bd 8da2 7e3d
00000150: aaae f7bd 5105 03be b2b4 ba3d 7b26 7ebd
00000160: 8768 863d e569 a3bd 3aa9 45bd fcce 2ab9
00000170: 5734 42bd effb 75bd 6992 153d 2bf8 7f3c
00000180: c69e 5d3d 9d5f 753d 56d0 a23c 1c13 55bd
00000190: d1b1 ae3c e658 4d3c 9aa9 54bd 9f93 fb3d
000001a0: b4f2 f5bd 9688 21bd bdb8 0abe 5335 43bd
000001b0: 43f7 80bc 0403 12be 78a8 d53d 2498 503d
000001c0: a1fd c13c dd60 c3bb a1a8 983d 070a b83b
000001d0: 5985 f6bd 61f0 0f3e e768 c63c 2e38 69bd
000001e0: 3fa6 503d 2c47 a7bd 0ef1 d83c bd7f 70bd
000001f0: ca8f 5bbd 4ced 9fbd cc2c e63b 6ada 60bd
00000200: c248 0a3d 8bb2 c33b fde6 9fbd 5c01 d03d
00000210: 9a53 f83c 9211 b8bc 7686 8f3d c911 653d
00000220: 07b0 88bd f55e d33d de1f 0abd df8b 2ebc
00000230: 905e 9c3c 56f8 e9bd 4f39 043e 4058 513d
00000240: 014e f33d c6f6 dbbc c799 c9bd afd1 633d
00000250: adf1 a5bd 17bd 8d3c 5457 be3d be87 d83d
00000260: a6b7 80bd 1eec 1b3c 7fd0 8ebd 46ad c63d
00000270: 607a b43d 2b7d cabc e43d 9b3d 1eac f93d
00000280: 4961 2bbd 521e f0bd efe1 ce3d 2bba 273c
00000290: def9 6f3d fc0f 473d c009 393d 8b84 bebd
000002a0: f948 87bc 2e56 8d3d 3d75 c1bc 563e 84bd
000002b0: 616f 07bd 0437 adbd 037f ae3d 08c7 4dbd
000002c0: 0941 a0bd 61f3 403b 0e79 bebc 8ee1 383d
000002d0: 8d6c 02be 8ebb d83d 3bdb 853b 9df4 2b3d
000002e0: 32cb 973d 80db b53d f0d6 853d a486 08bd
000002f0: 72b6 5b3d b7e2 7b3d b9d9 d33d eefd ac3d
00000300: 2073 9e3d 8009 373d cea5 69bd 646c 053e
00000310: f827 c93d 8513 babd b0e6 90bd 2ff1 923d
00000320: 49ed 0b3e cfe6 4b3d 63f6 963d 8341 babd
00000330: 0ed2 88bc 7af3 bcbd 0a6b 653d 5906 b4bd
00000340: 68f5 f43d f7dc 933c 3df5 bebd 8222 f23c
00000350: 7315 093d 3cc8 013e b240 8fbd da83 ba3d
00000360: bba6 79bd e967 82bd d870 78bd ebf0 a1bd
00000370: d99f f13c 3d6b adbd 4f76 22bd a6b8 423c
00000380: 9399 553d 645f 443d 8103 193e a59c 1c3d
00000390: 436e f3bd 6f22 e3bc 0caf db3b 0ea4 9b3c
000003a0: 0ba4 b93d b370 c9bd a35a 07bd e02d 1d3d
000003b0: f834 a9bc 11b9 2a3d 669f 06bd e909 5b3d
000003c0: 9b36 d2bc e592 c83c c624 2cb9 a300 013e
000003d0: 7fd7 c93d 54d0 4dbd 5cb9 a4bd 4a77 f33d
000003e0: 2c95 90bd ab67 c3bc 652d 8abd 577b b83d
000003f0: 7da5 003d 66a9 9b3d 23c0 c2bb be55 fb3d

linear1.bias f4 [200]
0.122059196 0.11797762 0.018204208 -0.111831054 0.0004225 0.09947859 -0.114036776 0.11183269
0.057397287 -0.12378309 -0.122191206 0.03649843 0.07226632 -0.10757032 -0.035680756 0.011020597
-0.055313773 -0.026078183 0.035616487 0.051961903 0.07927866 0.095082 0.015620435 -0.10000374
-0.041449532 0.08065738 0.120707504 -0.11462301 -0.09093263 0.0917094 -0.0027887253 -0.10604012
-0.06413672 -0.05033486 0.11127167 0.050357997 -0.03320844 -0.07194374 -0.10613954 -0.08347799
0.037506275 0.058483027 -0.059176117 -0.037483573 -0.042251002 -0.122849435 0.10082039 -0.08374157
-0.11499967 -0.113885924 -0.06430076 0.044075683 -0.08534322 0.045089174 0.08232671 0.010432621
0.069482975 -0.0850956 0.022350825 0.032960344 0.03717249 0.089580104 0.08034251 0.03316427
-0.054247007 -0.085165314 -0.05192342 0.12098498 0.015773188 -0.13658857 -0.018268239 -0.01788728
0.1126283 -0.10325895 -0.0009777402 0.05364777 -0.08192035 -0.024843292 0.06360888 0.025285143
-0.028484799 -0.020263439 0.10892175 0.12626721 0.051750645 -0.07865189 0.10687223 -0.0014857561
-0.08911856 0.0031687806 -0.096688606 0.104311645 0.10813178 0.10978352 0.09278538 0.039244846
-0.06967254 0.06627931 -0.07615272 0.08656224 0.0076165134 -0.09038879 -0.025010498 -0.0011815645
0.13670401 0.07370892 -0.073956944 -0.12492866 -0.06987334 0.09537209 0.032051735 -0.083336316
-0.11638382 -0.04354748 0.03329506 -0.055409808 -0.017892808 -0.0051695197 -0.11271058 -0.11217838
0.0026820584 0.13411057 0.06413044 -0.10561069 0.13184439 0.036427148 0.0073617483 0.08448486
-0.007618063 -0.0332104 -0.12025031 -0.01186283 -0.06975589 0.13294856 0.119839296 0.00044486715
-0.014239206 -0.044751845 -0.052145544 -0.028885843 0.08661033 -0.009037593 0.10737494 -0.03336959
-0.11128196 0.045591716 -0.033341657 0.05428796 -0.0050300197 0.10206376 0.0269096 -0.00060544995
0.085583426 0.109569095 -0.03598863 -0.04397237 0.053692523 0.0670345 0.11321879 0.12801772
0.080538765 -0.045430653 0.022614023 0.07610991 -0.094507895 0.040876277 -0.0045814137 0.1096906
0.11218979 -0.007536316 0.10903095 -0.062791236 0.13540351 -0.0017643906 -0.04414804 -0.013195275
0.107193 -0.07592626 0.14294927 0.0275738 0.10789598 -0.002639534 0.08603145 -0.08736867
0.023201136 0.056151602 -0.046676435 0.11104369 -0.10494108 -0.025595495 0.05023884 -0.015246043
0.1270095 0.124262676 -0.10674378 0.1133236 -0.07037851 -0.07652789 -0.09059788 -0.09719107
00000000: 2cfa f93d 409e f13d fe20 953c ae07 e5bd
00000010: fd82 dd39 6ebb cb3d 1d8c e9bd 8a08 e53d
00000020: 6b19 6b3d fd81 fdbd 623f fabd 617f 153d
00000030: 5d00 943d d44d dcbd fc25 12bd bc8f 343c
00000040: b290 62bd eaa1 d5bc 98e2 113d 01d6 543d
00000050: da5c a23d 5aba c23d daec 7f3c c3ce ccbd
00000060: fcc6 29bd b22f a53d 7f35 f73d 78bf eabd
00000070: e33a babd 23d2 bb3d 0cc3 36bb 902b d9bd
00000080: 1d5a 83bd ed2b 4ebd 67e2 e33d 3044 4e3d
00000090: 9305 08bd 3d57 93bd b05f d9bd 82f6 aabd
000000a0: 2ea0 193d e68b 6f3d a862 72bd 6088 19bd
000000b0: 630f 2dbd 7c98 fbbd ec7a ce3d b380 abbd
000000c0: f284 ebbd 063d e9bd 1eb0 83bd b488 343d
000000d0: 6dc8 aebd 6daf 383d e89a a83d 96ed 2a3c
000000e0: 174d 8e3d 9a46 aebd 1419 b73c 6d01 073d
000000f0: 2e42 183d c675 b73d 9d8a a43d 42d7 073d
00000100: 1c32 5ebd 276b aebd a7ad 54bd f9c6 f73d
00000110: c636 813c e0dd 0bbe 46a7 95bc 5888 92bc
00000120: aba9 e63d 6e79 d3bd 8427 80ba c4bd 5b3d
00000130: dbc5 a7bd 2984 cbbc 5f45 823d ca22 cf3c
00000140: f458 e9bc 83ff a5bc 5e12 df3d 314c 013e
00000150: 7cf8 533d 3e14 a1bd d4df da3d b4bd c2ba
00000160: cb83 b6bd 51ab 4f3b ad04 c6bd 58a1 d53d
00000170: 3274 dd3d 2fd6 e03d 4306 be3d 34bf 203d
00000180: 7ab0 8ebd 72bd 873d f5f5 9bbd 8b47 b13d
00000190: f293 f93b c21d b9bd d1e2 ccbc bade 9aba
000001a0: 23fc 0b3e b4f4 963d bd76 97bd 99da ffbd
000001b0: c119 8fbd 7152 c33d ae48 033d 3bac aabd
000001c0: a45a eebd d85e 32bd 6760 083d 65f5 62bd
000001d0: f093 92bc 1365 a9bb ced4 e6bd c7bd e5bd
000001e0: 79c5 2f3b 4854 093e d256 833d 6b4a d8bd
000001f0: 3702 073e a234 153d d23a f13b 6606 ad3d
00000200: f2a0 f9bb a107 08bd cb45 f6bd 515c 42bc
00000210: 2ddc 8ebd ab23 083e 4e6e f53d 0f3d e939
00000220: 8f4b 69bc b64d 37bd 9196 55bd 01a2 ecbc
00000230: c260 b13d 6a12 14bc 64e7 db3d 8dae 08bd
00000240: cce7 e3bd 61be 3a3d 4391 08bd 0d5d 5e3d
00000250: ddd2 a4bb ce06 d13d 8571 dc3c 0fb7 1eba
00000260: 5d46 af3d c365 e03d d068 13bd 5f1c 34bd
00000270: b1ec 5b3d 6249 893d 41df e73d 1417 033e
00000280: 82f1 a43d 7e15 3abd 0b41 b93c 83df 9b3d
00000290: 5b8d c1bd e26d 273d af1f 96bb 77a5 e03d
000002a0: c3c3 e53d 33f3 f6bb 9e4b df3d b198 80bd
000002b0: 38a7 0a3e 2043 e7ba 93d4 34bd ff30 58bc
000002c0: 0188 db3d 3a7f 9bbd 4b61 123e 73e2 e13c
000002d0: 91f8 dc3d 08fc 2cbb 4231 b03d 58ee b2bd
000002e0: 4f10 be3c 39ff 653d ca2f 3fbd e06a e33d
000002f0: 59eb d6bd a5ad d1bc 3ec7 4d3d 8aca 79bc
00000300: c70e 023e 6e7d fe3d 7c9c dabd 3416 e83d
00000310: 9c22 90bd a8ba 9cbd 628b b9bd 1d0c c7bd

linear2.weight f4 [5, 200]
0.025853014 -0.009134053 0.07042944 0.055823214 0.006881838 0.02326555 -0.05967587 0.033263605
0.011174828 -0.0025022838 0.001981301 0.051956657 0.01563362 -0.06957506 -0.039969463 0.00938841
0.026709776 -0.07573093 0.04278881 0.049057644 0.0566033 0.004208048 -0.07445207 0.052349545
0.015033124 0.005902157 0.04373057 0.048145387 0.04142755 -0.023875924 -0.015205644 -0.027401842
-0.0118422955 0.032357868 -0.038277775 -0.03919234 -0.017859494 -0.0027531036 0.01114432 -0.016133869
-0.008959408 0.03850815 -0.040481582 -0.024604317 -0.072655596 0.002233762 -0.030619944 -0.040137958
-0.039652456 -0.021321105 0.031677123 0.03153871 0.05667224 -0.005219213 -0.010278394 0.035992183
0.0007753419 -0.05443078 -0.032776095 0.042894207 0.043015998 0.0377883 0.035588212 0.012176986
-0.0054532597 -0.07050941 0.033654816 -0.013744752 -0.053198684 -0.069982134 -0.026971903 -0.021687403
-0.040602807 0.014963442 0.04851508 0.056561865 -0.034779143 -0.05838368 0.06408477 0.060538646
-0.043332037 0.011824467 -0.007198686 0.044648577 -0.013534954 -0.033506047 -0.05662753 -0.06939136
0.039050434 -0.006249595 0.042311452 -0.06093108 -0.07544958 -0.0029670864 0.057819862 0.027196368
0.044396218 -0.026530037 -0.047005683 0.007753596 -0.053923875 0.02587176 0.05573068 0.024823256
0.012079149 0.06439938 -0.07607953 -0.07884422 0.04007862 0.05071386 -0.05200102 -0.029751884
-0.06943312 -0.0062287943 -0.022448609 0.03671452 0.0629137 -0.033306558 0.06211738 -0.037592363
-0.033738494 -0.007906689 -0.022568889 -0.009502293 -0.061159305 -0.054362122 0.053324006 -0.02474695
0.04864107 -0.03603044 -0.039174262 0.022168877 -0.019150212 0.049237777 -0.056133807 -0.042562757
-0.06703942 0.033681072 -0.021142818 0.051063355 -0.02180196 -0.008046761 0.028802559 -0.019225575
0.030178297 -0.050599072 0.010195374 -0.030384516 -0.027804554 0.021392986 -0.058993872 0.018212505
-0.02484204 -0.024929775 0.04040425 -0.014256577 0.041316096 -0.019174853 0.0061526163 -0.030181909
-0.043847226 -0.03278903 0.057455484 0.05970249 0.06918861 0.025420299 0.070220314 0.018105868
0.0412609 0.0068910336 -0.01903415 -0.04032756 -0.04094826 -0.041052487 -0.05074644 0.0024752668
-0.03909778 0.007522935 0.005073861 0.033861004 0.013664015 -0.034120303 0.05526359 0.045533676
-0.061585523 -0.051382683 -0.011703455 0.055944003 -0.058316287 0.010933107 0.03930099 0.02558229
0.05029751 0.037470784 0.031742528 0.031535648 -0.004086331 0.045956694 -0.021787165 -0.0577572
0.0040254034 0.010271565 -0.010363125 0.036117278 -0.028670289 -0.03169301 -0.010390033 -0.052906737
0.0490814 0.066582054 -0.020825459 -0.019820917 0.056449447 0.010632724 -0.0626361 0.038335606
-0.049784157 0.012497611 0.047359318 -0.0087711625 -0.04084719 0.010405024 -0.061074443 0.06383102
-0.03342811 -0.012721041 -0.05316113 0.040388674 -0.05167929 0.058407445 0.07366213 0.033432283
-0.038204215 0.007865605 0.026457671 0.049796525 0.023692457 -0.014424497 -0.0016043779 0.083848566
0.03949389 -0.03905258 -0.00094580837 0.06587412 0.056290843 0.014543643 0.050590504 0.053010255
0.026785407 -0.018450933 -0.023859015 0.032823704 -0.060123127 0.05480042 0.010050944 -0.06538584
00000000: b3c9 d33c ffa6 15bc 4f3d 903d e2a6 643d
00000010: 0b81 e13b 6597 be3c af6e 74bd 6b3f 083d
00000020: a016 373c 5bfd 23bb b7d8 013b 81d0 543d
00000030: 1412 803c 5e7d 8ebd 05b7 23bd d8d1 193c
00000040: 76ce da3c d118 9bbd 5243 2f3d abf0 483d
00000050: ddd8 673d aae3 893b 547a 98bd 7a6c 563d
00000060: 7e4d 763c e266 c13b d31e 333d 1934 453d
00000070: efaf 293d 7197 c3bc 1821 79bc d479 e0bc
00000080: 3006 42bc af89 043d 28c9 1cbd 2688 20bd
00000090: 134e 92bc 6a6d 34bb aa96 363c 2d2b 84bc
000000a0: 7bca 12bc b9ba 1d3d 04d0 25bd fe8e c9bc
000000b0: 75cc 94bd 4f64 123b add6 fabc b367 24bd
000000c0: 9d6a 22bd 99a9 aebc dfbf 013d bc2e 013d
000000d0: 2721 683d ef05 abbb b666 28bc 8a6c 133d
000000e0: 5040 4b3a cff2 5ebd 3a40 06bd d6b1 2f3d
000000f0: 8b31 303d e8c7 1a3d f2c4 113d fb81 473c
00000100: 42b1 b2bb 3d67 90bd a2d9 093d ab31 61bc
00000110: dde6 59bd cb52 8fbd 2ef4 dcbc c8a9 b1bc
00000120: 214f 26bd 3a29 753c c0b7 463d 6aad 673d
00000130: 9374 0ebd ba23 6fbd e03e 833d 5ff7 773d
00000140: ef7c 31bd 69bb 413c f4e2 ebbb 6de1 363d
00000150: b6c1 5dbc a33d 09bd 45f2 67bd 0f1d 8ebd
00000160: 59f3 1f3d 67c9 ccbb c64e 2d3d de92 79bd
00000170: 4f85 9abd 7373 42bb 85d4 6c3d ebca de3c
00000180: cfd8 353d 8555 d9bc 0889 40bd e111 fe3b
00000190: 48df 5cbd 03f1 d33c da45 643d 245a cb3c
000001a0: 9fe7 453c d2e3 833d 96cf 9bbd 1479 a1bd
000001b0: 7b29 243d 56b9 4f3d 06ff 54bd 39ba f3bc
000001c0: f432 8ebd ea1a ccbb 25e6 b7bc f761 163d
000001d0: e6d8 803d 756c 08bd cb6e 7e3d 73fa 19bd
000001e0: 6031 0abd 0f8b 01bc 64e2 b8bc 81af 1bbc
000001f0: 2e82 7abd d1aa 5ebd 466a 5a3d 1eba cabc
00000200: dc3b 473d a894 13bd 3175 20bd 819b b53c
00000210: e8e0 9cbc 8dad 493d 90ec 65bd 4956 2ebd
00000220: f74b 89bd 2af5 093d b433 adbc cf27 513d
00000230: 069a b2bc 90d6 03bc 58f3 eb3c f47e 9dbc
00000240: 7a38 f73c f940 4fbd 7f0a 273c f3e8 f8bc
00000250: 60c6 e3bc 5840 af3c 8fa3 71bd 6432 953c
00000260: 8981 cbbc 8739 ccbc ed7e 253d 6b94 69bc
00000270: 113b 293d 9514 9dbc e39b c93b 0d40 f7bc
00000280: 2699 33bd ca4d 06bd 7156 6b3d 998a 743d
00000290: c2b2 8d3d 3b3e d03c abcf 8f3d c252 943c
000002a0: 3101 293d 2ece e13b 81ed 9bbc 832e 25bd
000002b0: 5db9 27bd a726 28bd 80db 4fbd 1638 223b
000002c0: fe24 20bd f482 f63b a242 a63b d6b1 0a3d
000002d0: 08df 5f3c bbc1 0bbd 135c 623d 8581 3a3d
000002e0: 1a41 7cbd a676 52bd d9bf 3fbc 8a25 653d
000002f0: 0fdd 6ebd c620 333c 13fa 203d f391 d13c
00000300: c304 4e3d f77a 193d 7404 023d 862b 013d
00000310: a1e6 85bb 163d 3c3d ff7a b2bc d092 6cbd
00000320: 88e7 833b 114a 283c 19ca 29bc b6ef 133d
00000330: f4dd eabc 88d0 01bd f53a 2abc bcb4 58bd
00000340: 9409 493d 2c5c 883d 279a aabc 7a5f a2bc
00000350: 8937 673d e034 2e3c 5b47 80bd cc05 1d3d
00000360: 79ea 4bbd c8c2 4c3c d8fb 413d ecb4 0fbc
00000370: 624f 27bd d579 2a3c 3229 7abd d6b9 823d
00000380: eaeb 08bd ea6b 50bc 7cbf 59bd 986e 253d
00000390: aaad 53bd a53c 6f3d 2cdc 963d 4af0 083d
000003a0: 067c 1cbd bdde 003c c2bd d83c 71f7 4b3d
000003b0: af16 c23c ba54 6cbc fd49 d2ba ccb8 ab3d
000003c0: 58c4 213d 99f5 1fbd 20f0 77ba 03e9 863d
000003d0: 3a91 663d 7648 6e3c fd37 4f3d 4821 593d
000003e0: 126d db3c 6926 97bc fb73 c3bc 2672 063d
000003f0: ab43 76bd 6876 603d b7ac 243c 03e9 85bd

linear2.bias f4 [5]
-0.07899181 0.01011371 -0.07548566 0.044778313 -0.028496852
00000000: 75c6 a1bd f9b3 253c 3a98 9abd 7769 373d
00000010: 3b72 e9bc
