RL/rl_critic_prune_quant_env.pth (torch, 1924 bytes, 1 tensors)

linear1.weight f4 [1, 55]
0	0x3c70833c	0.014679726
1	0xbe02bee8	-0.12768137
2	0xbc1d066c	-0.009584051
3	0x3dd96dfd	0.10616682
4	0x3d99f24e	0.07516919
5	0x3d1091ea	0.035295404
6	0x3dbcdc71	0.09221733
7	0x3c0b40d9	0.008499348
8	0x3cbfbf2d	0.02340659
9	0xbd67cc5d	-0.05659138
10	0x3ca7e5ff	0.020495413
11	0x3dc963e8	0.09833509
12	0x3dece2ea	0.11566718
13	0xbdc4c57b	-0.09607979
14	0xbca381ef	-0.019959418
15	0x3d25b431	0.040455047
16	0x3d89bb54	0.06725183
17	0x3db415b6	0.087932035
18	0xbdd3bae5	-0.10338382
19	0xbd826dca	-0.06368597
20	0x3df964dd	0.12177441
21	0x3de90083	0.11377051
22	0xbd94dd8c	-0.07268819
23	0x3da53974	0.08067599
24	0x3db4b0ee	0.08822809
25	0xbdc867e7	-0.09785443
26	0x3cea5a1d	0.028607422
27	0x3c64df00	0.013969183
28	0xbc248d46	-0.010043448
29	0x3dd9d913	0.10637107
30	0xbd1e3b88	-0.038630992
31	0xbdc8691b	-0.09785672
32	0xbdf03aae	-0.11729942
33	0x3d9b2f35	0.075773634
34	0xbd4c33b7	-0.049854007
35	0xbcddad51	-0.027060183
36	0x3d792836	0.060829364
37	0x3d383784	0.04497482
38	0x3db016f9	0.08598132
39	0x3d93c868	0.07215959
40	0xbe097449	-0.13423266
41	0xbdceb4f6	-0.10093109
42	0x3ccacf82	0.02475715
43	0x3d931609	0.07181937
44	0x3d1acf44	0.03779532
45	0xbd452119	-0.048127268
46	0xbe171a1f	-0.14756058
47	0xbc5505bb	-0.0130018545
48	0x3cebd06d	0.028785909
49	0x3dca33b3	0.09873142
50	0x3ddbffc1	0.107421406
51	0xbc49129e	-0.012272505
52	0xbbb56727	-0.0055359784
53	0xbd4e5d38	-0.05038187
54	0x3d6ec88e	0.058296733
