RL/rl_critic_prune_quant_env.pth (torch, 1924 bytes, 1 tensors)

linear1.weight f4 [1, 55]
000000 7c da 31 bd 79 41 6f 3d 2c c9 7f 3d 9f 74 85 3d
       -0.043421254 0.05841205 0.06244771 0.06516384
000010 1d f4 8b 3c 12 14 8b 3d 66 79 27 be 80 4a 61 bd
       0.017084176 0.067909375 -0.16354904 -0.05500269
000020 30 b0 f2 bd 06 58 04 3d 52 36 69 bd d8 71 b9 3d
       -0.11850011 0.03231051 -0.05693657 0.09054917
000030 1a 51 10 3d e7 46 bc 3d 0f 75 08 bd 29 9c c4 3c
       0.035233594 0.09193211 -0.03331476 0.024000244
000040 2e da 29 3c 5e 02 42 3c 8d f4 22 be 51 6f 5b bd
       0.0103669595 0.011841385 -0.15913601 -0.053572956
000050 fc a0 5b 3d 94 2b 15 3d f7 06 07 be 85 07 a5 3d
       0.053620324 0.036418512 -0.1318625 0.08058075
000060 91 7a 9b 3d 1c 7a 1e bd 4d 5d 39 bd 95 dc 20 bd
       0.07591737 -0.03869067 -0.045254994 -0.039272863
000070 e0 6c d1 3d 49 4f 4a 3d a7 fc dc 3d 96 dc a9 3c
       0.102258444 0.04939202 0.10790377 0.020735066
000080 5d 49 00 be a0 03 ff 3c 4e 75 70 3d 29 d6 63 3d
       -0.12527986 0.031129658 0.05870562 0.05562416
000090 40 38 bf 3d b6 27 8b bd cf d5 5a 3d 12 38 80 bd
       0.09336901 -0.06794684 0.05342656 -0.062606946
0000a0 1f b9 a5 bd f7 3e 2c bb 90 f4 a9 bd 56 b5 2e 3d
       -0.0809195 -0.0026282647 -0.082986 0.042653404
0000b0 76 a5 c0 3d 53 fa f9 bd 36 c0 68 3d 56 db 0d bd
       0.09406559 -0.12205949 0.05682393 -0.034633003
0000c0 74 a6 b1 3d 21 09 a1 bd 77 08 25 bc 11 56 6f 3c
       0.086743265 -0.07863069 -0.010072819 0.014607922
0000d0 57 56 d2 3c 0f 46 29 3c 8c 45 67 3d
       0.025675936 0.010331645 0.05646281
