RL/rl_critic_prune_quant_env.pth (torch, 1924 bytes, 1 tensors)

linear1.weight f4 [1, 55]
0.10309041 -0.03128254 0.045039088 0.030505123 -0.0962312 0.107968666 0.029127883 0.06862716
0.10804872 0.024733014 0.045035325 0.0065669524 0.011578847 -0.08788442 -0.05301511 -0.08603654
0.12242787 0.11252285 0.08196447 0.08407588 -0.106723115 0.116450146 -0.11096821 -0.024300363
-0.057681017 -0.049488693 0.100212544 0.10573947 -0.079940505 0.040104363 -0.06367618 -0.12528095
0.08777063 -0.008929127 0.054768454 0.06431485 -0.029300652 0.04196052 0.0899757 0.01176945
0.01536158 -0.057683982 -0.084007345 -0.04624674 -0.041170053 -0.09418538 -0.05428578 0.13264543
-0.081287995 0.08541014 -0.052783046 -0.10446702 0.028766219 -0.016240256 -0.10653717
00000000: 1121 d33d 1f22 00bd e87a 383d e1e5 f93c
00000010: dd14 c5bd ad1e dd3d 999d ee3c 658c 8c3d
00000020: a648 dd3d e49c ca3c f676 383d 972f d73b
00000030: 34b5 3d3c bffc b3bd 5f26 59bd ed33 b0bd
00000040: 77bb fa3d 6172 e63d fddc a73d fa2f ac3d
00000050: a691 dabd 6a7d ee3d 4d43 e3bd 8e11 c7bc
00000060: ee42 6cbd a8b4 4abd 3c3c cd3d ef8d d83d
00000070: d9b7 a3bd 7944 243d a868 82bd a649 00be
00000080: 17c1 b33d 794b 12bc e354 603d 81b7 833d
00000090: ec07 f0bc cbde 2b3d 2e45 b83d a7d4 403c
000000a0: 23af 7b3c 0a46 6cbd 0b0c acbd 396d 3dbd
000000b0: eea1 28bd 44e4 c0bd c45a 5ebd 34d4 073e
000000c0: 527a a6bd 83eb ae3d 0933 58bd cef2 d5bd
000000d0: 22a7 eb3c 490a 85bc 2930 dabd
