RL/rl_prune_quant_env.pth (torch, 51894 bytes, 5 tensors)

actor.linear1.weight f4 [200, 55]
000000 c0 09 83 3d 16 a0 a2 bd 0c 4a cd bd cc dc c7 bd
       0.06398344 -0.0794069 -0.10023889 -0.097589105
000010 1d 1c bb 3d 24 c1 20 3d 03 7d fb bc 6b 4b 0a bd
       0.091362216 0.039246693 -0.030699259 -0.03376333
000020 91 0c 95 bd 61 11 4a bd 41 41 c7 bd 35 a3 2c bb
       -0.072777875 -0.04933298 -0.09729243 -0.0026342396
000030 b5 9f af bd 07 27 4a bd 7a 13 14 3d 4a 61 fc 3d
       -0.085753836 -0.049353626 0.036151387 0.12323244
000040 90 d4 97 bd 89 f7 c9 3d b9 75 93 bc a1 b4 08 be
       -0.0741359 0.09861667 -0.01800047 -0.13350154
000050 a3 e9 81 bc a9 91 09 3d a5 95 e2 bd e9 ba 00 be
       -0.015858477 0.033586178 -0.11063699 -0.125713
000060 28 89 bf bc 95 f7 33 bc 82 ae 40 3d c1 c6 00 3d
       -0.02338083 -0.010984321 0.047041424 0.031439546
000070 ff 80 3a bd 7a 8d f1 3d 49 fe 05 3d ad a0 e1 bd
       -0.045533177 0.11794563 0.03271321 -0.110169746
000080 c0 cf 02 3e 76 81 fb bd 73 0b 19 3d c4 22 da bd
       0.12774563 -0.12280552 0.037364434 -0.10651162
000090 d9 68 04 be de 29 35 bd 37 86 80 3d f7 2f 78 3b
       -0.12930621 -0.04422938 0.062755994 0.0037870386
0000a0 1b 55 91 bd aa 65 05 3d 3f b4 84 3d 95 c3 59 3d
       -0.07096311 0.032567658 0.06479692 0.053165037
0000b0 00 42 89 3d 69 d3 d0 3d d8 07 9b bd 24 1f d8 bd
       0.067020416 0.10196573 -0.075698555 -0.105528146
0000c0 24 66 db 3c e9 6e d7 3d 88 39 07 3c 1b e0 d0 3d
       0.026782103 0.10519201 0.008253463 0.10198995
0000d0 f2 89 cd bc ca c2 01 be 2f 2d 0b 3e cf d9 ad 3d
       -0.025090192 -0.12671962 0.13591455 0.08488809
0000e0 a1 56 0a be 6d 21 4d 3c 7c d0 cb 3d b6 ef dd 3d
       -0.13509609 0.012520176 0.099518746 0.10836737
0000f0 15 40 e0 bd 98 04 2f bd e5 3d b2 bd 12 6f 66 bc
       -0.10949723 -0.04272899 -0.08703212 -0.014064567
000100 05 58 d6 bd 64 e6 ca 3d eb 56 95 bd 65 f0 3c 3d
       -0.10466007 0.09907225 -0.07291969 0.046127696
000110 da d4 4c bd ba f3 08 be dc 24 19 3b fc c3 e6 3d
       -0.05000768 -0.13374224 0.0023367917 0.1126785
000120 bc ff f7 bd c8 a3 c7 bd 3d 92 c8 3d 39 4e c1 bd
       -0.12109324 -0.09748036 0.09793518 -0.09438748
000130 5b e9 89 bd 85 80 d9 3c 0a 8a b4 3d 7f a3 a7 3d
       -0.06733962 0.02655054 0.08815391 0.08185481
000140 5a f2 e2 3d f4 d6 d9 3c ae e4 cc 3d 93 28 87 3c
       0.11081381 0.026591755 0.10004555 0.01649884
000150 ca b8 cf 3d 71 40 f6 bc b5 0b 15 3d 31 03 6c bd
       0.101426676 -0.030060025 0.036388118 -0.05762023
000160 88 b2 27 3d 51 ae 49 3d 73 ff 05 be 30 25 8e bd
       0.040941745 0.049238507 -0.13085727 -0.06940687
000170 79 53 d1 bc 71 95 bf bd 84 07 9c 3d f2 58 b8 bd
       -0.025552498 -0.093546756 0.07618621 -0.0900134
000180 fd 2b b8 3d ba c3 9f 3c d5 d8 55 3d b1 29 2c bd
       0.08992765 0.01950251 0.05220874 -0.042031948
000190 d5 7b 9b 3d de ed 39 bc 79 6e eb bd 72 cf 09 3d
       0.075919785 -0.011348216 -0.1149568 0.0336451
0001a0 88 54 02 be df aa a2 3d 79 ae 8c 3d cf a8 54 3c
       -0.12727559 0.07942747 0.068692155 0.0129797
0001b0 7c 02 6c 3c 94 81 77 bd 1d 50 cc 3d f0 52 03 be
       0.014404889 -0.06042631 0.09976218 -0.12824607
0001c0 ea ce 9d 3d 72 a1 59 bc d6 fe 8e bd 67 84 67 3d
       0.07705481 -0.0132831205 -0.069822 0.056522753
0001d0 b0 23 fe bd dd 61 0d 3d c2 04 87 bd 3e e2 a7 bd
       -0.124091506 0.034517158 -0.06592704 -0.08197449
0001e0 5d ad bc 3c ea 53 9c bd 25 32 e4 3d d9 1f 91 bc
       0.023031885 -0.07633193 0.11142377 -0.017715381
0001f0 53 d9 af bd e4 f9 e0 3c 65 c1 dc 3d a1 b4 9e bb
       -0.08586373 0.027462907 0.107790746 -0.00484331
000200 d3 e1 d8 bd 23 64 cd bc 12 28 dc bc 31 d1 f2 bd
       -0.105899476 -0.025072163 -0.026874576 -0.11856306
000210 12 70 d8 3d 6c df b9 bd f2 61 d8 bd 23 06 ed 3d
       0.10568251 -0.090758175 -0.105655566 0.11573436
000220 ec 71 08 be 18 0e d6 bd aa c4 a5 bd 67 88 3e 3d
       -0.13324708 -0.10451907 -0.08094151 0.046516802
000230 ab e7 d2 3d b1 b0 a0 bd af 2d df bc 6d 32 a2 bd
       0.102980934 -0.07846201 -0.027243463 -0.07919774
000240 4d c7 07 3d ea 3b 69 3d d3 82 86 bc 53 af f7 bd
       0.033149052 0.056941904 -0.016419804 -0.12093987
000250 13 de bc 3d 09 26 be 3b 98 e9 09 be 10 36 ad bd
       0.09222045 0.005802874 -0.13468015 -0.08457577
000260 1d bf 9d 3d 4a e8 aa 3d fc 33 08 3e fa d5 7a bd
       0.077024676 0.08345087 0.1330108 -0.06123922
000270 d1 db 81 3c af f6 39 bd c4 c4 2d 3d 4b 03 0f 3d
       0.015851887 -0.04540127 0.04242398 0.03491525
000280 9e 4d b5 bd e2 c8 ff bd 69 6f 80 3d 35 c8 35 bd
       -0.08852695 -0.12489487 0.0627125 -0.044380385
000290 e9 68 2a 3c 3c 18 8b bc 76 fc e8 3d 0b b8 fd bd
       0.010400989 -0.01697933 0.11376278 -0.12388619
0002a0 9b a1 cc bd 9f 5e a5 3d 08 c0 15 3d e0 39 0a 3e
       -0.09991761 0.08074688 0.03656009 0.1349864
0002b0 e9 4e 06 3d 83 c9 07 be aa a4 bc bd 0e 51 61 bd
       0.0327901 -0.13260464 -0.09211095 -0.05500894
0002c0 66 31 95 bd 59 43 01 b8 70 f4 8e 3d 90 9c f3 3c
       -0.07284813 -3.081872e-05 0.069802165 0.02973774
0002d0 cb bb b1 3d 95 91 03 be 58 2e 2e bd 14 69 d3 bd
       0.08678397 -0.12848504 -0.042524666 -0.103227764
0002e0 2f f8 8f bd fc c4 11 3d be 8c 82 bd 7a 3f 95 bd
       -0.07029759 0.03558825 -0.06374501 -0.07287498
0002f0 f9 d5 a1 3b 6f 3c be 3b 87 e2 f2 3d 05 60 b1 bc
       0.0049388376 0.005805544 0.11859613 -0.021652231
000300 d0 06 d2 3d aa c3 ea 3d 2d 73 8e bd 30 70 a9 bd
       0.10255206 0.11463101 -0.06955562 -0.08273351
000310 b2 e7 68 bc 18 98 59 3d 51 4c 69 bd 5f 9d 72 3d
       -0.014215397 0.053123564 -0.056957547 0.059232112
000320 79 61 c6 3d 75 b2 a7 bd 56 ce e5 bd ba ac 5e 3d
       0.0968656 -0.08188335 -0.11220996 0.054363944
000330 73 77 21 3d ed c0 94 bc 63 f1 81 3d 26 fa ad bd
       0.039420556 -0.0181584 0.06344869 -0.08494978
000340 b1 3a 14 bd f1 29 a4 3d 34 32 36 3c 9b 5d 7f 3d
       -0.036188785 0.08015812 0.011120368 0.06234513
000350 ed 89 a1 3d 6b 69 01 3e cc 94 8c bd 81 1c 86 bd
       0.078876354 0.1263787 -0.06864318 -0.065484054
000360 80 4f 02 bd 28 fd 14 3e e8 b2 4f 3d 80 ce 6c bd
       -0.0318141 0.14549696 0.050707728 -0.05781412
000370 91 5a 37 3d 4a 49 ef 3b 75 5a 83 bd c1 40 b6 3d
       0.044764105 0.007302438 -0.06413738 0.088990696
000380 71 ae a4 3d 97 b2 16 bc bd d7 f5 3c 17 d7 02 3e
       0.080410846 -0.009197853 0.030010099 0.12777363
000390 d0 79 c9 3d b6 16 69 bc 33 b4 d9 3c bc 7f 9c bd
       0.09837687 -0.014226606 0.026575183 -0.07641551
0003a0 c2 7b 9e bd 57 02 fd bd 0f 61 0f 3c 66 b0 ff 3c
       -0.07738449 -0.12353962 0.008751168 0.031212043
0003b0 c0 d3 c8 3d 64 22 04 3e c0 4a d9 bd e0 0c 9d bd
       0.09806013 0.12903744 -0.106099606 -0.07668471
0003c0 3f 6c ef bd d6 f5 ca bd d6 18 2f 3d 57 8f ea bd
       -0.11690568 -0.09910171 0.042748295 -0.11453121
0003d0 78 60 a1 bd ff b4 00 be cf 91 8e bd d9 d1 6d 3d
       -0.07879728 -0.12569045 -0.069614045 0.058061454
0003e0 e1 69 f0 3c 1d 07 3f bd 44 9c af bd 2f 70 f4 bd
       0.029347362 -0.046637643 -0.08574727 -0.1193546
0003f0 2a 11 b2 3d 58 7b a2 3d 4f 0a 8c 3d 0d f6 e4 bc
       0.0869468 0.07933682 0.06837904 -0.027949357

actor.linear1.bias f4 [200]
000000 30 6f ec 3d c2 61 81 3d 97 4e 06 be ed a5 c5 bd
       0.11544645 0.06317474 -0.13115917 -0.096507885
000010 05 6f d8 bd ee 2b 23 bb 52 11 b1 bc 29 8a eb bd
       -0.1056805 -0.002489801 -0.021614704 -0.11500961
000020 ff 4b 49 bb 68 e0 de bb a1 39 f9 bd 80 ba 4e bd
       -0.0030715463 -0.0068016537 -0.12169195 -0.05047083
000030 b8 f1 f3 3c ce 49 d6 3d 11 5b ab bd fe 74 fe bc
       0.029778346 0.10463296 -0.08366979 -0.031061646
000040 15 39 0a be 1a af 04 be 0f f7 36 bd f4 52 ba 3d
       -0.13498338 -0.12957421 -0.044669207 0.09097853
000050 3b 46 37 bd 9e 41 fb bd 8e 60 e7 bd 3e 2b b4 3d
       -0.04474471 -0.12268375 -0.11297713 0.0879731
000060 21 6c de bd fa ca 59 bd 57 e4 28 3d d8 ec 0d bd
       -0.10860468 -0.05317209 0.041233387 -0.0346497
000070 1d 11 98 bd c2 bc cc bd d1 0b cd 3d ab cd 7f bd
       -0.07425139 -0.0999694 0.100120194 -0.062452
000080 16 a2 2f 3d da d3 4a 3d 4f 70 4e bd 93 cb 09 3e
       0.042879187 0.049518444 -0.050400075 0.13456564
000090 ae 9d 25 3d 01 a5 9e bd 71 2b 74 bd 3e 4c bd 3c
       0.04043358 -0.07746316 -0.05961174 0.023107644
0000a0 64 09 e6 bd 71 04 1f 3d c6 7c 59 3d be e3 bb bb
       -0.1123226 0.038822595 0.05309751 -0.005733936
0000b0 54 60 05 3d e8 de 9d 3d ad 98 a8 bd 86 43 da ba
       0.03256257 0.077085316 -0.082322456 -0.0016652204
0000c0 02 dc 83 bd 03 04 c1 3d 2f 36 61 bd ae 41 ae 3d
       -0.064384475 0.09424593 -0.054983314 0.08508621
0000d0 73 37 db 3d 7d 25 a9 bd b8 74 dd 3d 65 5d 68 3d
       0.107039355 -0.082591034 0.10813278 0.056729693
0000e0 5b 0b f3 3c 5f e2 0e 3d d9 19 93 3d 18 cf 4e bd
       0.0296685 0.034883853 0.071826644 -0.05049047
0000f0 b1 b0 9b bd e9 0a f0 bd 5f 3d c2 3d cc 52 34 3a
       -0.076020606 -0.11720831 0.09484362 0.0006878793
000100 4c 0a 88 3d 3e 5d b9 bd 74 8f 2d bd 1b 8f ff 3d
       0.06642589 -0.09050988 -0.042373136 0.12478467
000110 96 74 b0 bd b4 81 97 3d b6 ab 27 3c b3 b2 c9 bd
       -0.08615987 0.07397786 0.01023381 -0.09848537
000120 c2 dd 41 bd cb c9 13 3d fb 89 07 3d ad 9d 93 bd
       -0.047330625 0.036081117 0.033090573 -0.07207809
000130 d9 b8 32 bd 49 41 a3 3d 8e c7 c1 bc 0c b0 d7 3d
       -0.043633316 0.079714365 -0.023654725 0.10531625
000140 63 66 6b bd 0a f5 a9 bd 1e 4d de 3d 3f 40 04 3e
       -0.05747069 -0.082986906 0.10854553 0.12915133
000150 4d cd 8d 3d c5 a6 db bc a6 a0 24 bc 10 01 95 bc
       0.06923924 -0.02681292 -0.010048067 -0.018188983
000160 0f f9 c8 3d 0b 4b 7f bd b4 12 cb 3d 71 78 59 bd
       0.09813129 -0.062327426 0.09915677 -0.053093378
000170 b4 93 5e bd 31 49 f7 3d 3d 04 d0 3d b5 35 d8 3d
       -0.05434008 0.12074507 0.101570584 0.10557119
000180 75 a5 19 bd ce 13 2e 3d a5 8d 0e bd 58 cb 21 bd
       -0.037511308 0.042499356 -0.03480305 -0.039500564
000190 d3 78 0b 3e bf 38 c4 bc d9 2b 2f bd 5d 10 76 bd
       0.1362031 -0.02395284 -0.042766426 -0.0600742
0001a0 27 70 88 3d fc 10 e5 bd 1d 6f 06 3e 34 9a 03 3e
       0.06662016 -0.1118488 0.13128324 0.12851793
0001b0 09 54 9e 3d e1 2e 18 3e 1a 57 07 be c7 f7 a5 bd
       0.07730872 0.14861633 -0.1321682 -0.081039004
0001c0 c3 43 87 bd 4c 81 0a bd 49 0b e4 bc 16 ef ff 3d
       -0.066047214 -0.033814713 -0.027837412 0.12496774
0001d0 be 16 cc 3c 7d c1 d6 bc 5e 88 17 3e 93 58 14 ba
       0.024913188 -0.02621531 0.14798114 -0.00056589505
0001e0 ae 0a 0b bd 5c f6 08 3e 02 e8 0b 3e 9b 73 41 bc
       -0.03394573 0.13375229 0.13662723 -0.011807348
0001f0 ec b5 d9 bd 8e 17 24 bd 04 5f 07 be 2e 1d d2 3d
       -0.10630402 -0.040061526 -0.1321984 0.10259472
000200 b7 9e cb bd 20 ec 0e 3d f9 7d 97 bd 6f ef 85 3d
       -0.09942382 0.034893155 -0.07397074 0.06539809
000210 52 3a 04 be 4c 37 30 3d 25 6a c2 3c 67 cd 01 bd
       -0.12912872 0.043021485 0.023732254 -0.031690028
000220 50 b1 9e bd 37 2b 21 3d cd 35 df 3d 44 94 e9 3d
       -0.077486634 0.039347854 0.108989336 0.114052325
000230 3a a4 08 3e c5 da ca 3d ad 52 b9 bd 75 f4 9d 3d
       0.13343897 0.09905008 -0.09048972 0.07712642
000240 3a 52 b0 3d 97 4d 15 be 0e d5 48 bc 02 83 e9 bd
       0.086094335 -0.1458038 -0.012257827 -0.11401941
000250 ad d3 e1 ba 38 e7 0a bd 73 e5 05 3d 98 bf 9e 3d
       -0.0017229222 -0.033911914 0.032689523 0.07751387
000260 bc b8 d2 bd 27 f7 aa bd 55 a4 4b bc 07 ea ee 3d
       -0.102891415 -0.08347922 -0.0124293165 0.11665731
000270 fe 64 0c bd 33 af 1b 3d 1a e6 ab bd 96 1f 7b bd
       -0.034276 0.03800888 -0.08393498 -0.06130942
000280 b6 72 18 3e ab 76 bc bd 2b 4a fb 3d f6 15 c9 3c
       0.14887509 -0.092023216 0.12270006 0.024546605
000290 0c 7d 6d bb ff 01 5c bd 2f 92 a5 3d 4c e5 fb bd
       -0.0036237864 -0.05371284 0.08084523 -0.12299594
0002a0 cf f0 1a 3d 04 e7 fe bd 95 cd df 3d 38 4d d1 3c
       0.03782731 -0.124464065 0.109278835 0.025549516
0002b0 d7 05 ea bd e5 7d a1 bc dc ef d6 bd 9d 15 be bb
       -0.11426895 -0.019713352 -0.10494968 -0.0058009163
0002c0 7d eb d5 bd f0 5b ba bd b5 5e 1f 3a af 86 94 bd
       -0.104453065 -0.09099567 0.0006079481 -0.07252251
0002d0 c6 67 08 be 21 84 f2 bc f5 58 b7 bd 31 f6 03 be
       -0.13320836 -0.02960402 -0.08952514 -0.12886883
0002e0 ab 8a f9 bd 19 b7 c9 ba b6 cf ec bd 16 f8 8b 3d
       -0.12184652 -0.001538965 -0.11563055 0.06834428
0002f0 db 1f c7 3d 47 ed a7 3d a1 df e9 3c 24 71 af bd
       0.09722873 0.08199554 0.028549017 -0.08566502
000300 27 55 11 3e 5e 18 c6 bd c6 53 a4 3d 87 6c 5f bd
       0.1419264 -0.096726164 0.08023791 -0.05454686
000310 7f 87 70 bd dd 08 8c 3d 49 7f f7 bd 5a 2e 5f 3d
       -0.05872297 0.06837628 -0.120848246 0.054487564

actor.linear2.weight f4 [5, 200]
000000 16 4a 3e 3d c0 42 56 3d 6f f9 22 3d e6 2a 88 bd
       0.046457373 0.05230975 0.03978866 -0.06648807
000010 19 2e 1c bc 7e 1a 66 3c 0c 8f 14 3c 6f c4 a0 bd
       -0.009532475 0.014044402 0.009067308 -0.07849967
000020 57 b9 b1 3c f9 8e 43 bd c4 10 b8 bc 06 7e 0a bd
       0.021694822 -0.04774377 -0.022468932 -0.03381159
000030 00 a8 34 bd d1 9f 86 3d 6a fa 38 3c 57 61 aa bc
       -0.04410553 0.06573451 0.011290172 -0.020798368
000040 7a 88 c8 bc 3e 67 5b 3d 98 b7 36 bd 1b 96 e9 3c
       -0.02447914 0.053565256 -0.044608682 0.028513959
000050 04 3e 7b 3d e8 19 4b 3d 88 e5 13 39 15 bd 9a bd
       0.06133844 0.049585253 0.0001410452 -0.07555596
000060 64 67 92 bd aa ea 8f bd e4 f9 2d bc 2b b5 7e bd
       -0.071486264 -0.070271805 -0.010618661 -0.062184494
000070 f9 3f 06 bc 0b 14 86 3c 2f 1f 41 3d 9c 0f 34 ba
       -0.008193963 0.01636698 0.04714888 -0.0006868781
000080 32 3c 41 bc 48 23 ee 3c 38 bb b7 3c b3 91 96 3c
       -0.011794137 0.029069558 0.02242814 0.018380022
000090 8b 6f bc 3c 3f 16 31 3d 87 90 49 bd 68 5c 0c bd
       0.023002407 0.043234106 -0.049210098 -0.034267813
0000a0 99 13 6d bd 92 ca a2 bd 05 ee d1 ba 75 5a c0 bc
       -0.057880018 -0.079487935 -0.001601637 -0.023480633
0000b0 b7 c2 8c bd c1 c9 84 bd a6 54 b8 3c 51 ae e9 3c
       -0.068730764 -0.06483794 0.022501301 0.028525503
0000c0 25 93 31 bd 52 26 34 3d 11 2e 4e bd 1e 85 f9 3c
       -0.04335322 0.043981858 -0.0503369 0.030458983
0000d0 32 e7 52 bd 0f 02 16 bd bc 7e 91 bd eb c1 3f 3d
       -0.051490016 -0.036623057 -0.07104251 0.046815794
0000e0 51 1e 32 bd 87 ca 73 3d 38 a6 65 3d 99 66 10 bd
       -0.043485943 0.059519317 0.05606672 -0.035254095
0000f0 a1 15 75 bd 06 d6 52 bd fd 4f 27 3d 6a eb 93 bd
       -0.05983508 -0.05147364 0.040847767 -0.07222636
000100 99 f2 85 bc 55 11 22 3d 84 35 5b 3c e2 53 03 bd
       -0.016351031 0.03956731 0.013379458 -0.03206242
000110 32 13 b2 3c 1d a1 68 bd ca ae a2 bd 71 9b 7f bb
       0.021737669 -0.056794275 -0.079434946 -0.0039002562
000120 65 13 3c 3d ac 34 86 bb dd 99 d3 bc 1f 82 17 3d
       0.045916934 -0.0040956344 -0.025830204 0.036989328
000130 7f 61 08 bd ae 9e 3e 3d 54 23 22 3d ba 47 ff bc
       -0.033296105 0.046538047 0.039584473 -0.031162132
000140 8b d4 4e bd 88 20 73 bc e1 bf 9c bd 48 0d 1d bc
       -0.050495666 -0.014839299 -0.076537855 -0.009585686
000150 b3 06 50 3b 84 29 08 3d 8e 6f 50 3d 75 7b 98 bc
       0.0031742274 0.033242717 0.050887637 -0.018613556
000160 5f 77 ef bc f8 71 0a bd e6 34 98 bd 59 43 34 bc
       -0.029231725 -0.033800095 -0.074319646 -0.011002385
000170 f9 ba 32 bd 03 37 82 3d 36 2d af bc 8c fb 41 3c
       -0.043635342 0.06358149 -0.021383863 0.011839759
000180 88 48 98 bc 1e 15 3f 3d 03 7a 4d 3d 76 52 6d bc
       -0.018589273 0.046651 0.050165188 -0.014484992
000190 72 e3 80 bd 98 b9 5f bd 27 84 57 bb d3 2a 68 bb
       -0.06293382 -0.054620355 -0.0032885165 -0.0035425916
0001a0 23 52 f1 bb 81 8c 82 3c da df 44 bd 1b a2 6a bd
       -0.007364528 0.015936138 -0.048065044 -0.057283502
0001b0 21 c7 70 bd 8f 71 16 bd ee c2 49 3d 6b a5 22 bc
       -0.058783654 -0.03672939 0.049258165 -0.009927134
0001c0 45 d2 de bc dc c6 4a bd b4 dd 69 3d 0c d4 87 bd
       -0.027199874 -0.049506053 0.0570962 -0.066322416
0001d0 db e4 8b bc 51 c6 e3 ba c8 76 02 bd 85 27 80 bc
       -0.0170769 -0.0017377828 -0.03185156 -0.015643844
0001e0 68 71 a4 bc 3a 00 89 bc d2 71 ae bd e2 8a 82 3d
       -0.020073608 -0.01672374 -0.08517803 0.06374146
0001f0 59 be 6d bd 1e 1b ac bc 20 5f 19 bd c1 66 69 bd
       -0.058042858 -0.021009024 -0.037444234 -0.05698276
000200 2c a1 47 3d 02 e6 75 3d 05 f6 7b 3d b3 90 29 bc
       0.04873769 0.060033806 0.06151392 -0.01034944
000210 42 21 65 3d a5 50 13 bd 33 1a 84 3c e9 04 62 3d
       0.05593992 -0.03596558 0.016125774 0.055180464
000220 fb 49 98 3c bd f7 c3 3c cf e9 9b bd 3a 66 9b bb
       0.018589964 0.023921842 -0.07612955 -0.004742411
000230 e9 32 14 bd 43 6e 1f 3c ca 9e 1e bd 27 1f a0 bd
       -0.036181364 0.009730878 -0.03872565 -0.07818442
000240 9d 8a 53 bb 97 48 bb 3c 13 84 10 bd 91 ce 28 3d
       -0.0032278665 0.022861762 -0.035282206 0.041212622
000250 2b a0 b9 ba c6 1c 19 bd ee 2b 0c 3d 3b 01 cc bc
       -0.0014162114 -0.037380956 0.034221582 -0.02490293
000260 81 bd cc 3c 6f 86 10 bd b6 8b 68 3d ef 72 99 bd
       0.024992706 -0.035284456 0.056773864 -0.07492625
000270 dd e3 a2 bd ec 23 22 3d eb 41 7a bb de 9a 18 3d
       -0.07953618 0.03958504 -0.0038186263 0.037257068
000280 17 2d a6 bd 64 f7 4f 3d 4d 44 2c 3d cf ae 4a 3c
       -0.08114069 0.05077304 0.042057324 0.012370779
000290 25 e6 ac 3c 7a 7b 2a 3d 3b 14 98 3c bb 18 90 3d
       0.021105835 0.041621663 0.018564334 0.07035967
0002a0 94 02 cf 3c ee b4 2f 3d df 2d d4 bc 7a 1e 81 3c
       0.025269784 0.042897157 -0.02590078 0.015761603
0002b0 26 a7 cb 3c 28 c9 18 bd 2a 20 66 3d cb d6 a1 bd
       0.024859976 -0.037301213 0.056183018 -0.07902297
0002c0 6e fc 6c bd 1e f9 5b 3c 13 63 3d bd df b7 8c bd
       -0.057857923 0.013426093 -0.046237063 -0.06871008
0002d0 6e a3 a1 bc 83 2e 76 3d 0f 49 c9 3c 02 6f 86 3d
       -0.01973125 0.06010295 0.02457097 0.06564142
0002e0 ed 02 02 bd 0f 06 85 bd d0 c7 56 3c c4 8f 0f bb
       -0.03174107 -0.06495296 0.013109162 -0.002190576
0002f0 e9 84 ad bc f9 ad 02 3c 82 9f 5b 3d 3e 20 34 bc
       -0.02118154 0.007976049 0.053618915 -0.010994015
000300 12 03 a8 bd a7 e9 2f bd 00 d3 85 bd 8b 2b 40 bd
       -0.082037106 -0.042947438 -0.06534386 -0.046916526
000310 49 5c c3 3c 49 93 af bd 6f 6e 4e 3d 3b 7e 93 bd
       0.023847716 -0.08573014 0.050398286 -0.07201811
000320 bb 48 55 3d d4 ab 14 3c 14 63 61 bd 33 e9 77 3d
       0.052071314 0.00907417 -0.05502613 0.06052513
000330 1a 0b 66 3d 2e 60 3e 3d 4e 60 79 bd b5 33 c7 3c
       0.05616293 0.046478443 -0.06088286 0.024316648
000340 de 4f 46 3d 4d 6e 6f bd 9e c6 3a bd 13 e3 7c 3a
       0.04841601 -0.0584548 -0.045599572 0.0009646874
000350 b0 03 8b 3c 96 c5 35 3d c7 3b 0b 3d 43 25 4c bd
       0.016969532 0.044377886 0.033992555 -0.049840223
000360 8e 3a 39 bd f1 10 22 bd e2 2f 37 bd fb 23 db bc
       -0.045221858 -0.039566938 -0.0447234 -0.026750555
000370 4a 29 f3 3b eb 75 6b bd a4 10 16 bd 53 08 d3 bc
       0.0074206935 -0.057485502 -0.036636963 -0.025760805
000380 70 b9 76 3d 67 b8 f1 3b df 8c c0 3c e7 1f 7d 3c
       0.06023544 0.007376719 0.023504673 0.015449501
000390 fd 1d 88 3d 06 18 98 bc 1b e1 7c 3d 50 e8 43 3d
       0.06646345 -0.018566143 0.061738115 0.047828972
0003a0 c0 71 21 bd 52 68 26 b9 4f fc 86 3d fb 5d 3c bd
       -0.03941512 -0.00015869856 0.06591093 -0.045988064
0003b0 d9 db fd bc 86 e0 18 bd 29 af cd bb ac ee 01 bd
       -0.03098862 -0.037323497 -0.0062769842 -0.031721756
0003c0 00 d7 5d 3b 8c 53 56 3b 10 ee 04 bc a1 25 8a 3d
       0.0033850074 0.0032703606 -0.008113399 0.067454584
0003d0 08 0d cc 3b cd 03 89 3b 18 7b 6e bd 96 64 b9 bb
       0.0062271394 0.0041813613 -0.05822286 -0.0056577427
0003e0 fe 80 8e bd b2 36 a3 bc 8b 02 ae bc 63 6a 5e bd
       -0.06958197 -0.019923542 -0.021241447 -0.054300677
0003f0 a5 0e 17 3c 66 e7 ec bc cb 02 c2 bc 45 9d 18 bd
       0.0092198 -0.028918933 -0.023682972 -0.03725936

actor.linear2.bias f4 [5]
000000 76 94 17 bd 82 8b 2a bb 2a c2 1d 3d ee c5 1b bd
       -0.037006818 -0.0026023095 0.038515247 -0.038030557
000010 ea 58 37 3d
       0.04476253

critic.linear1.weight f4 [1, 55]
000000 7c da 31 bd 79 41 6f 3d 2c c9 7f 3d 9f 74 85 3d
       -0.043421254 0.05841205 0.06244771 0.06516384
000010 1d f4 8b 3c 12 14 8b 3d 66 79 27 be 80 4a 61 bd
       0.017084176 0.067909375 -0.16354904 -0.05500269
000020 30 b0 f2 bd 06 58 04 3d 52 36 69 bd d8 71 b9 3d
       -0.11850011 0.03231051 -0.05693657 0.09054917
000030 1a 51 10 3d e7 46 bc 3d 0f 75 08 bd 29 9c c4 3c
       0.035233594 0.09193211 -0.03331476 0.024000244
000040 2e da 29 3c 5e 02 42 3c 8d f4 22 be 51 6f 5b bd
       0.0103669595 0.011841385 -0.15913601 -0.053572956
000050 fc a0 5b 3d 94 2b 15 3d f7 06 07 be 85 07 a5 3d
       0.053620324 0.036418512 -0.1318625 0.08058075
000060 91 7a 9b 3d 1c 7a 1e bd 4d 5d 39 bd 95 dc 20 bd
       0.07591737 -0.03869067 -0.045254994 -0.039272863
000070 e0 6c d1 3d 49 4f 4a 3d a7 fc dc 3d 96 dc a9 3c
       0.102258444 0.04939202 0.10790377 0.020735066
000080 5d 49 00 be a0 03 ff 3c 4e 75 70 3d 29 d6 63 3d
       -0.12527986 0.031129658 0.05870562 0.05562416
000090 40 38 bf 3d b6 27 8b bd cf d5 5a 3d 12 38 80 bd
       0.09336901 -0.06794684 0.05342656 -0.062606946
0000a0 1f b9 a5 bd f7 3e 2c bb 90 f4 a9 bd 56 b5 2e 3d
       -0.0809195 -0.0026282647 -0.082986 0.042653404
0000b0 76 a5 c0 3d 53 fa f9 bd 36 c0 68 3d 56 db 0d bd
       0.09406559 -0.12205949 0.05682393 -0.034633003
0000c0 74 a6 b1 3d 21 09 a1 bd 77 08 25 bc 11 56 6f 3c
       0.086743265 -0.07863069 -0.010072819 0.014607922
0000d0 57 56 d2 3c 0f 46 29 3c 8c 45 67 3d
       0.025675936 0.010331645 0.05646281
