RL/rl_prune_quant_env.pth (torch, 51894 bytes, 5 tensors)

actor.linear1.weight f4 [200, 55]
000000 51 27 dd bd 44 cb 8b bd 54 bc 17 3d ad 3e c1 3d
       -0.10798515 -0.06825879 0.037044838 0.094357826
000010 a0 d9 9f 3d fd 5e d1 bc 66 b8 c7 3d ad a1 f5 bc
       0.078051805 -0.02555799 0.09751968 -0.02998432
000020 e2 e7 a5 bd 40 5f 7a 3d 3c 5f 05 3e be 05 70 3d
       -0.08100869 0.061125994 0.1302461 0.058599226
000030 49 18 cd bd e6 ed df 3d 72 b0 ab 3d c8 7f ed 3d
       -0.10014398 0.109340474 0.08383264 0.11596638
000040 61 57 f1 bd 4a 9f d4 bd 44 72 50 3d b3 60 25 3d
       -0.11784244 -0.103819445 0.050890222 0.040375423
000050 d8 1f 8f bd fe c7 89 3d 73 10 82 3d b4 d9 ef bd
       -0.069884956 0.067275986 0.06350794 -0.117114455
000060 c5 54 f9 3c 4a b0 fa bd 2e ea f3 bd e2 6f cf 3d
       0.03043593 -0.12240656 -0.119099006 0.10128762
000070 ce 93 c9 bd 09 33 e2 bd 6c 66 f9 bd 1d 3d 82 3d
       -0.09842645 -0.110448904 -0.121777385 0.06359313
000080 31 59 d9 3d f6 6b 9f 3d 10 5d 35 3d 90 51 f3 bb
       0.10612715 0.07784264 0.044278204 -0.0074254945
000090 2e 4a 38 3d b5 70 ef bd 26 43 4b 3d b3 0c 8b 3d
       0.04499262 -0.11691419 0.049624585 0.067895316
0000a0 c5 2f 43 3d 56 d2 0e 3e 3c 16 05 3e e4 94 04 3e
       0.04765298 0.13947424 0.12996763 0.12947422
0000b0 2d 03 ab bd 94 4c ce bc e6 39 f2 3d cd 6e a6 bc
       -0.08350215 -0.025183 0.118274495 -0.020316506
0000c0 94 56 89 bb 1a 3d 0d 3d fa c3 82 3c c5 b9 36 3d
       -0.004191229 0.0344821 0.01596259 0.044610757
0000d0 1a 8a a1 bc 39 a7 d2 3c ba 2d 04 3c ba 26 b2 3d
       -0.019719172 0.025714504 0.008067543 0.08698793
0000e0 7b fd 60 bd 52 07 08 3e 7e d2 bc 3d 70 5d a9 3d
       -0.054929238 0.13284042 0.09219836 0.08269775
0000f0 87 24 f2 3d 5e 97 99 bc 5d a7 ad bd 1b fd b9 bc
       0.11823373 -0.018748935 -0.08479188 -0.022703698
000100 f5 29 7f bd 73 ec c8 3d b9 3b a7 bd 81 c2 bb 3d
       -0.062295873 0.09810724 -0.08165688 0.09167958
000110 d4 b8 3e bd 6d b9 bb 3d a7 45 dc 3d c0 84 45 bd
       -0.046562985 0.091662265 0.10755473 -0.048222303
000120 be 35 08 be 15 67 0b 3d ca c5 0e 3c 6e 25 36 3d
       -0.13301751 0.034033854 0.008714149 0.04446929
000130 8d e3 ad bd 92 d3 14 bd 91 a3 cf bd 44 25 70 bd
       -0.084906675 -0.03633458 -0.1013862 -0.05862929
000140 63 27 43 3d 55 9a cf 3c cd 21 9c 3a 2d d7 a3 bd
       0.047644984 0.025342146 0.0011911929 -0.08000026
000150 d3 b5 06 be ab 44 b8 bd f7 c9 b1 bd b7 94 2d 3d
       -0.13155298 -0.089974724 -0.086811 0.042378154
000160 1b ce 04 3e 0c e6 c9 bb 58 37 64 bd bd a2 02 3d
       0.12969248 -0.006161457 -0.055716842 0.03189348
000170 0e e4 4f bc 9d 3a a0 bd fa ee 5c 3d 47 aa 49 bd
       -0.01268865 -0.078236796 0.053938843 -0.049234655
000180 f0 8d 9c bd 96 18 56 3d 80 76 84 3b 40 11 ac bd
       -0.0764426 0.05226954 0.0040424466 -0.08401728
000190 a6 58 cc 3d 78 97 64 bb 62 cc 3b b9 80 e0 8d 3d
       0.09977846 -0.0034880321 -0.00017909848 0.069275856
0001a0 66 fc da bd f3 bb 73 3d e0 68 91 bd 1c 1c ae 3d
       -0.106926724 0.059505414 -0.071000814 0.08501455
0001b0 d3 84 94 3d 54 d3 bc 3d 50 af c2 bc f8 e8 b8 bd
       0.07251897 0.09219995 -0.023765236 -0.0902881
0001c0 55 37 36 bd 55 bc b9 bd 0c f4 3a 3d 5c 38 46 bd
       -0.044486362 -0.090691246 0.045642897 -0.048393592
0001d0 87 0f 12 3d 99 b8 55 bc 4c bd 08 be 20 73 cf 3c
       0.03565934 -0.0130445 -0.13353461 0.02532345
0001e0 86 49 ea 3d 52 1c 08 be ed 1e a3 bc c6 d7 46 bc
       0.11439805 -0.13292053 -0.019912207 -0.012136405
0001f0 58 eb f3 3d bc 30 0c 3c 86 04 47 3d 86 2c ad 3d
       0.11910123 0.008556541 0.0485883 0.08455758
000200 39 b3 c9 3d 40 00 b3 bd 05 39 db bd 05 60 b6 3d
       0.09848637 -0.08740282 -0.10704235 0.08905033
000210 e2 b5 95 bd 21 c2 a9 bd 5e b7 25 bd 8d b3 b1 bd
       -0.07310082 -0.0828898 -0.040458076 -0.08676825
000220 86 82 d3 bd 67 40 88 bc e4 5c c2 3b ad 7b 51 3c
       -0.1032763 -0.016632272 0.0059314836 0.012785834
000230 7e 8c a3 bd aa 59 66 bd bf 8b a5 bd c7 b1 0f bd
       -0.07985781 -0.056237854 -0.08083295 -0.03508165
000240 77 80 b2 bd e1 33 02 3e e7 dd 80 3d dc de c5 bd
       -0.08715909 0.12715103 0.062923245 -0.09661648
000250 f2 7a ba 3c d6 95 be bd 8c 24 97 bd 18 92 f1 bd
       0.022763703 -0.09305923 -0.07380018 -0.11795443
000260 33 f6 c3 bd 18 a7 11 bc 4c 51 f6 bd 20 23 dc 3d
       -0.09568443 -0.008889936 -0.12027225 0.10748887
000270 05 21 81 bd 61 c2 14 bd 94 c0 59 bd b8 9f b0 3c
       -0.06305126 -0.036318187 -0.053162172 0.021560535
000280 af 19 aa 3d fe 2c bf 3d 80 ec 27 bd 18 50 06 3e
       0.0830568 0.093347535 -0.04099703 0.13116491
000290 39 a9 94 3d fe dc b7 3d 0f 88 11 ba 79 ca ee bc
       0.07258839 0.08977698 -0.00055515853 -0.02914928
0002a0 42 73 aa bc 48 46 d5 3d 37 a4 ae bc d3 7c 97 3d
       -0.020806912 0.10413796 -0.021318538 0.07396855
0002b0 d0 93 8a bb 86 e9 33 bd eb 2a 0a 3d ff 32 b8 bc
       -0.0042290464 -0.043923877 0.033732336 -0.022485254
0002c0 4e 28 06 3d 63 9a a2 3d 2c d6 bb bd ec db f8 bd
       0.03275328 0.07939603 -0.091717094 -0.12151322
0002d0 b9 bd 15 bd 3f 59 70 3d 3d 76 85 3d 7e 94 dc 3c
       -0.036557887 0.05867886 0.06516693 0.026926275
0002e0 02 02 2f bd 1e 78 d3 bc 46 36 5b 3d f4 bd 99 3d
       -0.042726524 -0.025814112 0.053518556 0.07506934
0002f0 8b 65 8c 3d 9d 29 aa 3d ff 91 07 3e 7d 66 df 3d
       0.06855305 0.08308718 0.13239287 0.1090822
000300 33 e2 2a 3d 38 f4 c6 3d c9 80 fc 3d d6 99 40 3d
       0.041719627 0.0971455 0.12329251 0.04702171
000310 3c e8 04 bd 2b 96 3c bd a2 68 e7 3d 59 34 56 bd
       -0.03244804 -0.04604165 0.11299254 -0.052296016
000320 80 5c cc bd 8d 57 ff 3c 63 20 f0 bc 4b 46 cf 3d
       -0.099785805 0.031169677 -0.029312318 0.10120829
000330 e6 4b f4 bd 84 f8 b8 bc a6 ac a6 bd 59 8f 83 bc
       -0.11928539 -0.022579439 -0.08138399 -0.016059564
000340 9a ff bc 3d db 4a 92 3b 7c 92 9a 3c a2 23 ee 3d
       0.0922844 0.00446449 0.018868677 0.1162789
000350 61 58 bc bc 19 7f 9e 3c 23 18 20 3c 80 d7 81 3d
       -0.022991361 0.019347714 0.00977138 0.063399315
000360 f4 38 f8 3d d0 2e 34 3d 54 92 89 bd bc 90 8f 3d
       0.12120238 0.043989956 -0.06717363 0.07010028
000370 ea fa 5e 3d e0 2d 91 3c cb 23 d9 3d ba 94 ab bc
       0.05443851 0.01772207 0.1060253 -0.020944942
000380 1c 4e 80 3d 42 fd 66 3d f1 af 80 3a dc d7 81 3d
       0.06264898 0.05639387 0.000981806 0.0634
000390 32 58 d1 bd 01 e0 f0 bd 93 6c d0 3d 16 f3 ca bd
       -0.102219 -0.11761475 0.10176959 -0.09909646
0003a0 fe 93 66 3c 30 ab 0f bd 09 6d 8d bd ae 40 e7 3d
       0.01407337 -0.035075366 -0.069055624 0.112916335
0003b0 c0 f3 01 be f6 77 04 3e 7d e5 f3 3d 6e a3 35 3d
       -0.1269064 0.12936386 0.11909006 0.04434531
0003c0 f0 4a 62 3d bc 5a cb bd 33 a6 16 3e 64 6a 40 bc
       0.055247247 -0.099294156 0.14711837 -0.0117441155
0003d0 0a a5 44 bd af d3 d5 bd 00 a6 e1 3d a0 06 88 3d
       -0.048008956 -0.10440766 0.1101799 0.066418886
0003e0 a5 98 d3 bd 67 33 ce 3d 63 c2 58 bd 94 69 eb bd
       -0.10331849 0.10068398 -0.052919757 -0.11494747
0003f0 80 b4 15 bd 04 1b e0 bd c0 cb 3c bc 43 0b 5f 3d
       -0.03654909 -0.10942653 -0.011523187 0.0544541

actor.linear1.bias f4 [200]
000000 6c 46 03 3e 0c 61 ab bc df 22 13 3d b4 a5 97 3d
       0.12819833 -0.020920299 0.035921928 0.07404652
000010 23 8d c5 bc b5 8e f4 3d a8 36 2e 3c 00 75 51 3b
       -0.02411515 0.11941282 0.010633148 0.0031960607
000020 70 54 8c bd 6b 6b 87 3d c4 a3 92 3d ef e7 35 bd
       -0.06852043 0.06612285 0.07160142 -0.044410642
000030 4b f4 8e 3d 57 d1 dc 3d c5 58 3d 3d 42 31 bc 3d
       0.06980189 0.10782116 0.046227235 0.09189083
000040 95 25 b6 3c e9 14 4e bd 4e 0d b2 bd a8 35 8c bd
       0.022234717 -0.05031291 -0.08693944 -0.068461716
000050 76 8b b4 3d ef 4e cc 3d fd 44 88 bb 77 0b 8b 3d
       0.088156626 0.09975993 -0.0041586147 0.06789296
000060 56 b0 fc bb 41 c1 04 bd b0 1f 4c 3d 4c 99 4e bc
       -0.0077114506 -0.032410864 0.049834907 -0.012609791
000070 c8 6c 31 3d d8 5b 5d 3c 72 41 86 3d a2 26 df bd
       0.043316633 0.013510667 0.065554515 -0.108960405
000080 a6 b4 06 3e f9 e6 08 3c d8 ff 9d bd c8 08 45 bd
       0.1315485 0.008355849 -0.07714814 -0.048104078
000090 e8 c2 8d 3d 51 5e 71 bd d8 71 b6 bd 51 8d 9f bd
       0.06921941 -0.058927838 -0.08908433 -0.07790626
0000a0 00 4f 9a 3d 96 54 54 bd 1c c2 1f 3c 1f 15 92 3d
       0.07534599 -0.05183848 0.009750869 0.07132935
0000b0 ca 8f 59 3c 98 7c 4d 3d 25 38 0a bd f2 21 f1 3d
       0.013278911 0.05016765 -0.03374495 0.11774053
0000c0 53 9b d7 3c bd 01 d8 3d 80 f1 08 3d 9f 65 e1 bd
       0.026319182 0.105472066 0.033433437 -0.11005711
0000d0 bc 84 ef 3d 7b 9a f2 bb f3 1b 05 3e a6 4e 86 3d
       0.11695239 -0.0074036694 0.12998943 0.0655797
0000e0 7b fa 21 3c 62 66 c1 ba bb 43 63 bc f4 c0 e1 3d
       0.009886379 -0.0014755244 -0.013871129 0.11023131
0000f0 26 ed 54 3b 77 d7 ef bd d5 16 d6 bd d8 e0 b7 bd
       0.0032489984 -0.117110185 -0.104535736 -0.089784324
000100 fa f9 e2 3c 4a 0e db bc f4 3e 04 3e 9c c5 6c bd
       0.027707089 -0.026740212 0.1291464 -0.057805642
000110 07 43 d2 bd 2b 30 ab bc a3 37 84 3d b8 8c b7 bd
       -0.10266691 -0.020896992 0.06455924 -0.08962387
000120 2b 0b 73 bd 5a a0 31 3d 39 fd ed bd 6d 78 da bd
       -0.059336822 0.043365814 -0.11620564 -0.10667501
000130 7e c9 92 3d 42 ee 23 bd e6 11 a9 3d 81 3a 80 3c
       0.07167338 -0.040022142 0.08255367 0.015652897
000140 bf b1 c0 3d 19 c2 43 bd 83 db 14 bd cb ee db 3d
       0.094089024 -0.047792528 -0.036342155 0.107389055
000150 8d 09 31 bb aa 4e d7 bd 75 47 e9 3c f2 88 b3 3c
       -0.002701375 -0.10513051 0.028476456 0.021915887
000160 4f 86 03 bc 9f bf 76 bd 8a a2 bc 3c 46 29 69 3d
       -0.008027627 -0.060241338 0.023026723 0.056924127
000170 df 9d 3c bd 09 ff fd bc 70 b4 89 3d 23 86 06 3e
       -0.046048995 -0.0310054 0.06723869 0.13137107
000180 2a ba 92 bd 02 a4 88 3d 60 70 e5 bd c1 ac 4e bd
       -0.07164414 0.06671907 -0.112030745 -0.05045772
000190 a8 ef a4 3d 4d ca 04 3d 7a 63 c5 bc 15 d2 a2 bd
       0.08053523 0.03241949 -0.024095286 -0.07950226
0001a0 15 39 f9 bc 5b 84 c4 3d b1 04 aa bd 11 26 da bd
       -0.030422727 0.09595557 -0.08301676 -0.10651792
0001b0 f0 c6 98 bd 50 7d ee bd 02 82 52 bd 9c 01 4c bd
       -0.07459819 -0.11644995 -0.051393516 -0.049806222
0001c0 89 ea 43 bd 30 36 61 bd 5a 13 05 3e 4f a9 a1 3d
       -0.047831092 -0.054983318 0.12995663 0.07893621
0001d0 df 66 8e 3d c7 f0 b2 3b 04 87 50 3d 8d cd fa 3d
       0.06953215 0.005460832 0.05091001 0.12246237
0001e0 64 7a d5 3d 68 74 33 3c 02 f1 cf bd c0 1e ee bd
       0.10423735 0.010953046 -0.101533905 -0.11626959
0001f0 81 36 03 be 1a d3 63 3d e4 e8 00 3e 5f 99 b8 bd
       -0.1281376 0.055621244 0.1258884 -0.09013628
000200 4d 49 47 bc fb 88 dc 3d 58 09 3b 3d f2 32 c1 3b
       -0.012163472 0.107683145 0.045663208 0.0058959657
000210 81 c7 a4 bd f0 dd 04 bc b2 89 85 3d 4a 39 76 bd
       -0.08045865 -0.008109555 0.06520404 -0.06011323
000220 1d 22 b3 3d 01 5a 51 3d ba f6 b2 bd 51 bf cb bd
       0.08746741 0.051111225 -0.087384656 -0.099486
000230 9a 4f da bd fe 9a f1 bd 34 b9 61 3d 96 24 36 3d
       -0.10659714 -0.117971405 0.055108264 0.044468485
000240 70 cb eb bd 3b 32 0d 3d 22 cd cf bd ff 46 62 bd
       -0.11513412 0.03447173 -0.10146548 -0.05524349
000250 40 bc eb 3d df b1 9d bc fd 7c 17 3e 39 bf 87 3c
       0.11510515 -0.019249855 0.14793773 0.016570674
000260 46 06 1d 3d c8 8a bb bd 41 08 ee ba f9 47 f5 3c
       0.03833606 -0.0915733 -0.0018160419 0.029941546
000270 03 0a a1 3d d9 ce ce 3d 74 3b 72 bd 0c c5 1d bd
       0.07863238 0.10098047 -0.05913873 -0.038517997
000280 f1 fd 12 3d 60 4a fe 3d f1 dd 0a 3e 8f 04 67 bd
       0.03588671 0.1241653 0.13561226 -0.05640083
000290 3e d2 f3 bd f2 80 0d bd a2 35 90 bd 51 e3 ec bd
       -0.11905335 -0.0345468 -0.0704148 -0.11566795
0002a0 ff ba de bc 9d c3 8d bd bf 6f c5 bd 3a 70 c2 bd
       -0.027188776 -0.06922076 -0.096404545 -0.09494062
0002b0 9a a8 bd bd 33 5a b6 bd b0 40 c6 bc 4c 37 9f 3d
       -0.09260674 -0.08903923 -0.024200767 0.07774219
0002c0 11 cd 9c bd 64 bd dd bd 83 99 04 be 13 a6 b1 bb
       -0.07656301 -0.10827139 -0.12949185 -0.005421409
0002d0 10 1b 19 3c 00 2b 85 bc 5d 15 49 bd 00 07 e1 3d
       0.009344831 -0.016255856 -0.04909264 0.10987663
0002e0 fc d0 4b 3d e8 67 93 3c 66 80 3e 3d e4 16 45 3d
       0.04975985 0.017993882 0.04650917 0.048117533
0002f0 e6 a3 f5 3d b0 87 e8 bd 85 9e ff bd b5 96 00 3e
       0.11994152 -0.11354005 -0.12481407 0.1255749
000300 e8 3c 8f bd e7 35 ce bd ce fa 8c 3d 62 60 16 3d
       -0.06994039 -0.10068875 0.06883775 0.03671301
000310 63 6a 54 bd 09 1d eb 3d 6b 5b 79 bd 87 0e 8d bc
       -0.05185927 0.114801474 -0.0608782 -0.017218841

actor.linear2.weight f4 [5, 200]
000000 f3 72 32 bd d1 d8 8b bc ed 96 55 3d 9a 75 1f bc
       -0.043566655 -0.01707116 0.052145887 -0.009732628
000010 d5 19 6d bc dd 09 c6 3c f7 5d 10 3c 51 62 86 3d
       -0.014471491 0.024174625 0.008811465 0.06561721
000020 64 0b 92 bd 7d ae f2 bc 6e 87 7a 3d d6 10 77 3d
       -0.07131079 -0.029624218 0.061164312 0.06031879
000030 fa b6 67 bd 24 c4 7d 3d f5 9b 32 3d 18 bb 08 bc
       -0.056570984 0.061954632 0.043605763 -0.008345388
000040 b7 fa 55 bd 7b d0 41 bc 79 9b 36 3c bf fe 25 3d
       -0.052241053 -0.011829491 0.011145466 0.040526148
000050 6b ad 28 3d ed 3a e4 3c 5e 79 6d bb c8 16 6f 3c
       0.04118101 0.02786013 -0.003623567 0.014592834
000060 b8 43 74 3d 88 02 9e bc c6 08 0e bc 1a 9d c0 3c
       0.059634894 -0.019288316 -0.008669084 0.023512412
000070 99 45 94 bc eb b8 0d 3d 39 f6 3a 3d 59 b4 62 bd
       -0.018099593 0.03460018 0.045644972 -0.055347774
000080 db 1c 3c 3d 97 cb 87 bd c2 e8 99 bd 88 7c 5e bd
       0.045925956 -0.066306286 -0.07515098 -0.05431798
000090 16 ad 67 bd 48 ad 04 3d 47 f3 84 3c db e2 1f bd
       -0.056561552 0.032391816 0.016229285 -0.039034706
0000a0 56 0a b0 bc 17 aa 88 bb 53 d4 d0 bb 39 5d cb bc
       -0.021489304 -0.004170667 -0.0063729673 -0.024824725
0000b0 f8 dc 21 bd 11 b0 aa 3c c3 e8 35 bd 2c 4a cc bc
       -0.039517373 0.020835908 -0.044411432 -0.024937712
0000c0 37 bf c8 3c 63 09 23 bd ca e2 36 bd a1 44 c7 3c
       0.02450524 -0.039803874 -0.044649877 0.024324717
0000d0 e6 69 74 bc 9a c1 e9 3a d4 df 67 bd 27 5e 3d bc
       -0.014917826 0.0017834187 -0.056609944 -0.011558092
0000e0 91 5e 3a 3c 7a 31 55 bd 4a 19 92 bd e8 a5 13 bc
       0.011375085 -0.052049138 -0.0713373 -0.009011723
0000f0 37 bf 50 bd ab bc 82 bd 40 2f 89 bd 38 84 8c 3b
       -0.050963607 -0.06383642 -0.06698465 0.0042882226
000100 47 e6 44 bd 8b 7c bc bc 58 6b 62 bd 9f 84 98 bd
       -0.048071172 -0.023008605 -0.055278152 -0.074471705
000110 0c 88 fb bc 77 9f 2e bd b5 97 75 3d 08 ea 7f bd
       -0.03070452 -0.042632546 0.059959132 -0.06247905
000120 95 16 07 bd 50 18 26 bd 01 0c 44 3d 89 14 7c bd
       -0.03298052 -0.04055053 0.04786301 -0.06154302
000130 07 a4 33 bd 38 48 33 bd 09 6f 74 3d f8 ef 6c bd
       -0.0438576 -0.043770045 0.059676204 -0.05784604
000140 74 98 89 bd 1b 26 4d bd 9f bf 5e bd 50 19 d6 bc
       -0.06718531 -0.05008517 -0.054381963 -0.026135117
000150 22 d6 44 3d 78 b5 8c bc d2 09 b0 ba 3a 85 23 bd
       0.048055775 -0.017176375 -0.0013430661 -0.039921977
000160 e1 d7 98 3c ac 42 01 bd a3 c4 8c bd 28 3c 85 3a
       0.018657627 -0.031557724 -0.06873443 0.0010165023
000170 f8 2d ba 3b 9e 21 e4 3c bd 98 d4 3c 27 c9 e0 3c
       0.0056817494 0.027848061 0.025951738 0.027439667
000180 80 28 9a 3c 66 29 da 3c f7 88 37 3d d1 e9 6d bd
       0.01881814 0.026631068 0.044808354 -0.058084313
000190 96 eb 29 3d c9 2f 4b 3d 05 eb a3 bc 65 a6 8c 3d
       0.041484438 0.04960612 -0.020009527 0.06867675
0001a0 e5 ce 88 bc 2c 1d 47 bb 74 65 61 3d 73 bf 3d 3d
       -0.016700218 -0.0030382378 0.055028394 0.04632516
0001b0 18 3e 4d 3d 98 45 93 3c 07 38 e6 bc 01 33 2f bd
       0.050108045 0.01797752 -0.028102888 -0.04277325
0001c0 85 b3 be bc 79 3a eb 3c 7a 16 30 bd 53 35 4f 3d
       -0.023278961 0.028714405 -0.042990185 0.050587963
0001d0 7f ec 8d 3c a0 34 5a bc 41 c4 95 bd 9c 6d 83 bd
       0.017324684 -0.013318211 -0.07312823 -0.06417391
0001e0 7c 6b 10 3d cf f2 88 3d f8 e8 50 bd cc a9 ef 3c
       0.035258755 0.06686937 -0.051003426 0.02925577
0001f0 0e b5 3f 3d ae f0 1c bd 35 5c cc bb ca b6 89 bd
       0.046803527 -0.038315468 -0.006236578 -0.06724317
000200 2e df 61 3d e2 9a 4f 3d 16 ab b6 3c ad ab 3d b9
       0.05514448 0.050684817 0.022298377 -0.00018088399
000210 51 19 60 3d d9 88 8b 3c 38 b1 1f 3d 86 3a b8 3c
       0.054711644 0.017033027 0.03898737 0.022488844
000220 26 e4 75 3c c4 97 20 3d 65 b7 66 bd 66 b5 7e 3d
       0.015008008 0.039207235 -0.056327242 0.062184714
000230 4c 5f 88 3d 92 6b 10 bc 70 e4 6c 3d a6 9d 98 bc
       0.066588014 -0.008814709 0.057835042 -0.01862986
000240 94 45 31 bd da 84 52 ba 48 26 34 bd df cb f3 bc
       -0.043279245 -0.00080306607 -0.04398182 -0.0297603
000250 bd e9 7f 3d ea e9 3f bd bb 6f 39 3d ce 4c 3a bd
       0.06247877 -0.046853937 0.04527257 -0.045483403
000260 57 7e 67 3d 0d ab 42 3c 4a 49 49 3d 12 41 84 3c
       0.05651697 0.011881602 0.04914216 0.01614431
000270 5c 53 82 bc bf c0 33 3d e9 0a 83 bb 90 ec ff bc
       -0.01590889 0.04388499 -0.0039991033 -0.031240731
000280 d7 8c 8f bd c4 93 17 bc 61 06 ca 3c f1 8a 32 bd
       -0.07009285 -0.009251539 0.024661245 -0.043589536
000290 35 36 70 3d 28 fc 95 3c da 11 72 3d 14 3e 7d 3d
       0.058645446 0.018308714 0.059099056 0.06182678
0002a0 f2 8f 8b bc 94 92 2e 3d 6d 52 15 3d 40 74 33 3b
       -0.017036412 0.042620257 0.03645556 0.0027382523
0002b0 1b 67 4d bd 88 c6 05 bd fc 1e b3 3c 98 4d bc 3c
       -0.050147157 -0.032660037 0.02186536 0.022986218
0002c0 a5 22 34 3c 3e d5 8e 3c af 85 5e 3d e8 29 90 bb
       0.010994588 0.017435666 0.05432671 -0.004399527
0002d0 bd 8d f5 3a f8 c8 3c bc d1 de 8b bd 14 cb 76 3d
       0.0018734258 -0.011522524 -0.06829608 0.060252264
0002e0 ca ab 06 3d cd 49 34 bd 7f b9 29 bd fb 72 5a 3d
       0.032878675 -0.044015694 -0.04143667 0.05333231
0002f0 aa 1c 1a 3d 55 a7 55 bd 01 49 dc 3c a3 2d 7a 3d
       0.037624992 -0.052161533 0.02689028 0.06107868
000300 5a 0f a3 bc 59 c1 13 3d 95 47 9d bc 0b db 7f 3c
       -0.019904781 0.036073063 -0.019199172 0.015616189
000310 fd 70 58 3d f5 ec 14 3d 70 26 f6 3c 47 34 38 bb
       0.05284213 0.036358792 0.030047625 -0.0028107332
000320 ea e1 29 3d dc 3a 62 bd ac f5 13 bd ac bf a3 bd
       0.041475214 -0.055231914 -0.036122963 -0.07995543
000330 28 e6 0b 3d 6c 51 e4 bc 71 38 93 3c e6 1f 18 bd
       0.03415504 -0.027870856 0.01797125 -0.037139796
000340 f8 78 47 bb f2 c8 a5 bb dc 67 a4 bc 12 ee 3b 3d
       -0.0030437093 -0.005059355 -0.020069055 0.04588134
000350 ae d9 3b 3d 52 84 73 bc 73 c2 8e bd cb 06 3e 3d
       0.045861892 -0.014863091 -0.06970682 0.046393197
000360 88 ed 69 3d 37 37 0f 3d 24 bb 54 bd 7a f7 6c 3d
       0.057111293 0.034964766 -0.051936284 0.0578532
000370 c7 07 4f 3d 50 8e 6e bd d6 1d c6 3c 69 1d 92 bc
       0.050544526 -0.05824119 0.024184149 -0.01783629
000380 0e 5f b9 bc 50 cd 0e bd f0 b7 dc 3c c2 97 21 3d
       -0.022628333 -0.03486377 0.026943177 0.03945137
000390 68 b6 30 bd 82 27 92 bd 6d d4 92 3b a9 1b 64 bd
       -0.043142706 -0.07136442 0.0044808895 -0.05569044
0003a0 08 bf 3d bd 1d 0d 7f bd 4d 12 70 bc 98 6d 53 bd
       -0.04632476 -0.062268365 -0.014652801 -0.05161819
0003b0 58 5a 0b bd 1c 4d a4 bd 14 45 56 bd 60 e4 a3 bd
       -0.034021705 -0.0802252 -0.05231197 -0.080025434
0003c0 c8 c6 50 bd 26 84 fc 3c 35 2a 85 3c a2 8a 87 3d
       -0.050970823 0.030824732 0.016255477 0.06618239
0003d0 48 25 b1 bc 11 a1 3d 3c 68 09 cf 3c 24 5e 84 bd
       -0.021624222 0.011574046 0.02527304 -0.064632684
0003e0 ab 8c 32 bd b3 e6 3e 3d 8e ee 34 bd c3 6a b1 3c
       -0.043591183 0.04660673 -0.044172816 0.021657353
0003f0 ed 2e 85 bd 7c b2 40 bd 6b 41 2d bd f1 fb 70 3d
       -0.06503091 -0.047045216 -0.042298716 0.05883402

actor.linear2.bias f4 [5]
000000 c9 b4 af 3b 7f c2 47 bd b0 0e 8c 3c a5 6d 60 bd
       0.0053621274 -0.04876947 0.017096847 -0.054792065
000010 84 63 03 bd
       -0.032077327

critic.linear1.weight f4 [1, 55]
000000 11 21 d3 3d 1f 22 00 bd e8 7a 38 3d e1 e5 f9 3c
       0.10309041 -0.03128254 0.045039088 0.030505123
000010 dd 14 c5 bd ad 1e dd 3d 99 9d ee 3c 65 8c 8c 3d
       -0.0962312 0.107968666 0.029127883 0.06862716
000020 a6 48 dd 3d e4 9c ca 3c f6 76 38 3d 97 2f d7 3b
       0.10804872 0.024733014 0.045035325 0.0065669524
000030 34 b5 3d 3c bf fc b3 bd 5f 26 59 bd ed 33 b0 bd
       0.011578847 -0.08788442 -0.05301511 -0.08603654
000040 77 bb fa 3d 61 72 e6 3d fd dc a7 3d fa 2f ac 3d
       0.12242787 0.11252285 0.08196447 0.08407588
000050 a6 91 da bd 6a 7d ee 3d 4d 43 e3 bd 8e 11 c7 bc
       -0.106723115 0.116450146 -0.11096821 -0.024300363
000060 ee 42 6c bd a8 b4 4a bd 3c 3c cd 3d ef 8d d8 3d
       -0.057681017 -0.049488693 0.100212544 0.10573947
000070 d9 b7 a3 bd 79 44 24 3d a8 68 82 bd a6 49 00 be
       -0.079940505 0.040104363 -0.06367618 -0.12528095
000080 17 c1 b3 3d 79 4b 12 bc e3 54 60 3d 81 b7 83 3d
       0.08777063 -0.008929127 0.054768454 0.06431485
000090 ec 07 f0 bc cb de 2b 3d 2e 45 b8 3d a7 d4 40 3c
       -0.029300652 0.04196052 0.0899757 0.01176945
0000a0 23 af 7b 3c 0a 46 6c bd 0b 0c ac bd 39 6d 3d bd
       0.01536158 -0.057683982 -0.084007345 -0.04624674
0000b0 ee a1 28 bd 44 e4 c0 bd c4 5a 5e bd 34 d4 07 3e
       -0.041170053 -0.09418538 -0.05428578 0.13264543
0000c0 52 7a a6 bd 83 eb ae 3d 09 33 58 bd ce f2 d5 bd
       -0.081287995 0.08541014 -0.052783046 -0.10446702
0000d0 22 a7 eb 3c 49 0a 85 bc 29 30 da bd
       0.028766219 -0.016240256 -0.10653717
