RL/rl_prune_quant_env.pth (torch, 51894 bytes, 5 tensors)

actor.linear1.weight f4 [200, 55]
000000 77 a6 8a 3c ad d5 82 3c 7c 72 87 3d 56 27 f6 3c
       0.01692508 0.01597103 0.06613633 0.030048054
000010 72 0e 2d bd 4b b8 90 bc fa 1f 75 bd ec 69 8a bb
       -0.042250104 -0.017666003 -0.05984495 -0.0042240527
000020 21 55 e1 bd 35 e0 ca bc cb 16 b3 bd 44 4c 7e bd
       -0.11002565 -0.024765113 -0.08744582 -0.06208445
000030 24 86 00 3e d9 b1 b9 bd 0b 24 00 3e 6b 3c d8 bd
       0.1255117 -0.09067125 0.1251375 -0.10558399
000040 99 bf d8 3d 88 45 f7 3d 2a cb a1 3c c1 6f c2 bd
       0.10583419 0.12073809 0.019750196 -0.094939716
000050 fd d4 b4 bb 13 6c f5 3d 71 43 1a 3d 2e 86 d3 3c
       -0.0055185542 0.11983504 0.037661973 0.025820818
000060 cb 31 fe bd ac 18 8b bd 8d 92 b7 3d f6 69 61 bd
       -0.12411841 -0.06791815 0.08963499 -0.055032693
000070 e8 45 e8 bd 61 c6 5e bd 40 92 13 3d fb b0 95 bb
       -0.113414586 -0.054388408 0.036028147 -0.004568217
000080 8c 08 6d 3d fe 6c ac 3d 67 17 3c 3d 4e 83 04 be
       0.05786948 0.08419226 0.045920756 -0.12940714
000090 df 83 ec 3d 96 67 16 3d f0 22 f7 bd bd 8a 77 bb
       0.1154859 0.03671988 -0.12067211 -0.0037771903
0000a0 cf 1c ea bd 60 7b b7 3d ee c9 bc 3d 7a 35 82 3d
       -0.11431276 0.08959079 0.092182025 0.06357856
0000b0 99 6c 20 3d e4 04 7a bc 1d af e7 bc 95 aa 34 3d
       0.039166067 -0.015259955 -0.028281743 0.044107992
0000c0 95 28 fa 3d 99 b7 01 3e 90 0f 1f bd c1 aa d7 bd
       0.12214772 0.12667693 -0.0388332 -0.105306156
0000d0 10 00 09 3d 55 a7 c2 3d d8 ad dd 3d 1a 99 eb 3d
       0.033447325 0.09504572 0.10824174 0.11503811
0000e0 fe 5e 97 3d 0c 91 e4 bd f5 0c f7 3d 4b d0 b9 ba
       0.07391165 -0.11160478 0.12063018 -0.0014176456
0000f0 99 34 81 bd d8 9b 90 3d 3c c6 5e 3d a3 37 5b 3d
       -0.0630886 0.07060975 0.05438827 0.053519856
000100 81 f9 38 3d 75 c7 56 bd 8c f1 df bd 6b 6e 8e bd
       0.04515982 -0.05243631 -0.10934743 -0.06954654
000110 1a 37 95 3b bc 3e 03 3e c0 3e c3 bd 92 b5 b5 bd
       0.0045536878 0.128169 -0.09533453 -0.088725224
000120 f1 59 b4 bc 74 e9 94 3d ac 8e f2 bd 17 83 dc 3d
       -0.022015544 0.0727109 -0.11843619 0.10767191
000130 93 86 62 3d 2f 66 e7 bc 66 3c 9e bd 7c 00 81 bd
       0.05530412 -0.028246967 -0.07726364 -0.062989205
000140 61 2b 92 3d c5 85 57 bb ea fb 50 bc ae c8 e5 3c
       0.0713718 -0.003288613 -0.0127553735 0.028049793
000150 dc 18 de bd 3f 70 9c bd 0e 77 c0 3d 80 f0 33 3d
       -0.10844585 -0.07638597 0.09397708 0.04393053
000160 89 d0 d8 3d 21 e3 e6 3d f0 2a aa bd ad 00 25 3d
       0.1058665 0.1127379 -0.08308971 0.040283848
000170 ae e0 00 be d9 d2 e5 3d 88 67 75 ba 09 a9 92 bd
       -0.12585708 0.112218566 -0.00093614357 -0.07161147
000180 ee ba 03 be 69 d7 86 bd cf 58 c4 bd e1 64 11 bc
       -0.12864277 -0.06584055 -0.095872514 -0.008874149
000190 92 c4 1e bd 7e 11 45 3c 56 fa bb 3d f2 95 e1 bd
       -0.038761683 0.012028096 0.09178607 -0.11014928
0001a0 af db 06 3d de 9b b4 3d 55 ee 3a 3d 3a 6c c8 ba
       0.03292435 0.08818792 0.045637447 -0.0015291043
0001b0 23 0b 76 3d 57 a2 74 bd 0f b7 43 3d 81 dd c7 3d
       0.060069215 -0.05972513 0.047782 0.097590454
0001c0 a9 f5 18 bd 40 25 b8 bd ed 6b d3 3d 1d 44 05 be
       -0.037343655 -0.0899148 0.103233196 -0.13014264
0001d0 d7 e8 8b 3d be bc 92 bd e2 be 8d bc 04 34 08 be
       0.0683152 -0.07164906 -0.017302934 -0.13301092
0001e0 a1 e2 7e 3d ee ea 4c 3c 68 3e 54 bb bf d4 89 3c
       0.06222785 0.0125071835 -0.003238583 0.016825078
0001f0 d8 d8 6a 3d 66 5e 8b 3d 13 7b f0 bd 97 02 aa 3d
       0.057335705 0.068051144 -0.117422245 0.08301275
000200 63 a9 95 bd da 4e 02 3d fd 10 f4 3d 82 1c af 3d
       -0.073076986 0.03181348 0.11917303 0.08550359
000210 5c 89 ed 3d 6a e5 24 3d 5d e4 fc bd 3a 6c 05 be
       0.11598465 0.04025785 -0.12348244 -0.13029566
000220 b1 91 d3 3b f4 73 57 3c 86 6e d6 bd 3f a4 02 be
       0.0064565768 0.013150204 -0.104702994 -0.12757967
000230 f7 98 cf bd 76 98 57 bd 39 20 d6 bb 83 f4 c8 3c
       -0.101365976 -0.052635632 -0.006534603 0.024530655
000240 cd d7 a0 bd 0b 10 4f 3d 84 44 3d bc 0f 72 8b 3c
       -0.07853661 0.05055241 -0.01155198 0.01702216
000250 e6 c4 30 bc 89 88 a2 3d 8c 12 85 bc 6a 5c d4 3d
       -0.010789132 0.07936198 -0.016244195 0.10369189
000260 28 94 a0 3d 72 48 3a bc ea 0a fe 3d cf 56 97 3d
       0.078407586 -0.011369811 0.124044254 0.07389604
000270 90 86 2b 3c 02 4f 11 3d 8f 2b e7 bd 69 a0 dd bc
       0.010469094 0.03547574 -0.11287605 -0.027054029
000280 96 ab be bd 42 ef 78 3c c6 b9 1b bd db 71 a9 3d
       -0.09310071 0.015193762 -0.038018964 0.08273669
000290 73 9c 10 3c 64 f8 f3 bc 4b 4a 21 bd b3 58 84 bd
       0.008826363 -0.029781528 -0.039377492 -0.064622305
0002a0 d4 58 f2 bd dd 53 48 bc 22 79 ba 3d 5b 62 02 3b
       -0.11833349 -0.012227026 0.091051355 0.001989505
0002b0 54 67 bb bc 73 9c 02 be 9d de a0 3d 51 b2 4c 3d
       -0.02287642 -0.12754993 0.0785496 0.049974743
0002c0 f6 35 41 3d fb 37 57 3d 2c 7c 21 bc 18 38 e0 bd
       0.0471706 0.05254362 -0.009856265 -0.10948199
0002d0 33 be a2 bd 0f ba f7 3d a1 f6 f2 3d 44 52 8f bd
       -0.07946434 0.12096035 0.11863447 -0.06998113
0002e0 df 01 b5 3d 93 01 c8 bd ce 0f da bd 0c 7a 98 3d
       0.088382475 -0.09765925 -0.10647546 0.074451536
0002f0 43 42 99 bd b0 b1 99 3d 12 fc b6 3d 92 27 e8 bd
       -0.074833415 0.07504594 0.08934797 -0.113356724
000300 85 61 08 be f4 76 96 bc e8 06 82 3d 09 0b ee 3d
       -0.13318451 -0.018367268 0.063489735 0.116231985
000310 7d 28 4a bd d9 48 10 3c f0 f0 bc bd b8 8d f5 3d
       -0.04935502 0.008806431 -0.09225643 0.11989921
000320 22 01 95 3d 6e c7 40 bb 80 fd 53 bd 2e 17 7f bd
       0.07275607 -0.0029415744 -0.05175543 -0.062277965
000330 b6 b9 d6 3b 8c 87 62 bd d9 1b cd bd a3 82 f9 3c
       0.0065529 -0.05530505 -0.10015077 0.0304578
000340 2c 40 cf 3d 2c 8a f7 bd 2b 6e c4 bd 70 86 94 3d
       0.10119662 -0.12086901 -0.09591325 0.072522044
000350 38 e7 ce 3d dc 9f 84 bc fa 33 eb bc e0 4a bb 3d
       0.10102695 -0.016189508 -0.028711308 0.09145141
000360 80 f5 5c 3d 6c 7a ba 3d ab a9 7a 3d 52 f3 a0 3d
       0.053945065 0.09105381 0.061196964 0.0785891
000370 aa 49 c4 bd fd 06 7e 3d 16 0c a8 bc 70 aa 38 3d
       -0.09584363 0.062018383 -0.020513576 0.045084417
000380 a2 23 e0 3d f2 2e c3 3d 55 06 d5 3d 74 ea 00 be
       0.109442964 0.095304385 0.10401598 -0.12589437
000390 01 60 20 bc 06 06 e4 bd 7b 69 c2 3d 48 4f 96 3d
       -0.009788514 -0.111339614 0.09492775 0.073393404
0003a0 25 e1 fb bc f3 06 bf 3d 6b 26 a2 bd 86 eb 89 bd
       -0.030747006 0.09327497 -0.07917484 -0.06734376
0003b0 59 c7 ee bd 09 b6 b5 bd 36 9b 49 bc ba da 23 bd
       -0.11659116 -0.08872611 -0.012305072 -0.040003516
0003c0 8c 25 c6 3c 6a dd 05 3e f1 5d e8 bd 15 c9 e1 bd
       0.024187826 0.13072744 -0.11346043 -0.110246815
0003d0 8d f0 e6 3d 08 8b 36 3d 25 49 5e bd f1 07 12 3d
       0.1127635 0.044566184 -0.054268975 0.035652105
0003e0 e1 f6 08 be e0 f3 9c 3d fd 13 eb 3d 01 e3 f5 3c
       -0.13375427 0.07663703 0.11478422 0.03001547
0003f0 97 13 96 bd d5 87 bf bd 85 0e 37 3d 75 e6 53 bc
       -0.07327955 -0.0935208 0.04469158 -0.012933363

actor.linear1.bias f4 [200]
000000 2c 41 f6 bd 74 77 04 3d 36 e1 a5 bd 3a b3 09 be
       -0.12024149 0.032340482 -0.08099596 -0.13447276
000010 b9 42 39 bb 19 31 dc 3c 03 a6 62 3c ca 23 27 3d
       -0.002826853 0.02687888 0.013833526 0.040805615
000020 d0 cd 8a 3d 43 fc c5 bd 46 54 b3 b9 73 c5 d4 bd
       0.06777537 -0.09667256 -0.0003420433 -0.10389223
000030 8d 7e 82 3d 38 4c ff 3d 27 61 ac bd 6f fc 00 bd
       0.06371794 0.124657094 -0.08416968 -0.03149074
000040 e5 74 90 bd 01 79 bf bd 78 6a e7 bc 95 ec 21 3b
       -0.07053546 -0.093492515 -0.02824901 0.0024707664
000050 01 cc b4 3d ee 3c 86 bd 5e 0b 41 3a cb 27 51 3d
       0.08827973 -0.0655459 0.00073640596 0.05106334
000060 9b 99 fe 3c 14 e6 6c bd 6d 85 6b 3d 66 59 4b bd
       0.031079104 -0.057836607 0.05750029 -0.049645804
000070 4e 2f 47 bc 90 18 96 3d 5e 79 00 be 67 25 b1 3c
       -0.012157274 0.07328904 -0.12546298 0.02162428
000080 96 a3 97 bd 1e a4 db bd 31 c1 c3 bc 8f 2d bc bd
       -0.074042484 -0.10724662 -0.023895832 -0.09188377
000090 6e a1 c7 bd dd fc 96 bd 71 d3 02 3e 36 c4 d7 3d
       -0.09747587 -0.073724486 0.12775971 0.10535471
0000a0 cd 50 3b bc cc 47 d3 3d 85 f8 00 3e 1f 7e 19 3c
       -0.011432839 0.103164285 0.12594803 0.0093684485
0000b0 09 c1 d1 bc 61 78 b0 bc 94 ab 4f 3d d6 bf 82 bc
       -0.025604742 -0.021541776 0.05070074 -0.015960615
0000c0 8d 86 0e bd 91 d8 95 3d 31 6c 9c 3c e5 df 91 bd
       -0.034796286 0.073166974 0.019094558 -0.071227826
0000d0 b6 11 19 bd c6 f1 c6 3d 92 a2 0b be 12 bd c8 bd
       -0.037370406 0.097140834 -0.13636234 -0.09801687
0000e0 24 9a 2b bd 32 71 a3 3d b3 f9 58 3d b1 68 48 3d
       -0.041895047 0.07980575 0.052972507 0.048927967
0000f0 16 af 86 3d 04 54 3e bd aa 8d 75 bd c8 4e e0 bc
       0.06576364 -0.046466842 -0.059949555 -0.027381316
000100 0d 50 d5 3d 5b 49 0d 3c 7a f7 e6 bd 9c 39 50 bd
       0.10415659 0.008623446 -0.11277671 -0.05083619
000110 31 82 b4 3d 44 91 0b 3c ff 30 83 3c 07 5c 70 3c
       0.088138945 0.008518521 0.016014574 0.0146703785
000120 78 4e 41 3d fe bf 39 bd 53 50 f2 3d 56 35 01 3e
       0.047193974 -0.045349114 0.11831727 0.12618002
000130 58 1e 6b bd ab 00 40 bc 15 d1 e2 3c 9b 8f f3 bc
       -0.057401985 -0.011718909 0.027687589 -0.029731562
000140 52 6f 07 3e e4 ed 20 bd f0 a7 e5 bd 6e d7 b8 3c
       0.13226059 -0.03928937 -0.11213672 0.022563662
000150 59 30 ff 3c 5d ac 1a 3d 51 a8 c1 3d 1c 9c c9 3d
       0.031150984 0.037762035 0.09455932 0.098442286
000160 9b d5 8d bd c6 6d d3 3d f3 8e 14 bd 8a 03 01 bd
       -0.06925508 0.10323672 -0.03626914 -0.031497516
000170 b4 2b bb bd a7 12 1a bd 18 0b 65 bd 0b 25 42 bd
       -0.09139195 -0.037615445 -0.055918783 -0.04739861
000180 80 01 f4 bd 8c 51 89 3d 3b 8b aa 3d 51 42 97 3d
       -0.119143486 0.06705007 0.08327337 0.07385696
000190 ad 5c 06 be 5c 21 ce bd bd 4e 24 3d a6 1c ba 3d
       -0.1312129 -0.100649565 0.040114153 0.090874955
0001a0 3a fd 91 3d a8 9b 8d bc e9 36 02 be 63 00 9c 3d
       0.07128377 -0.017286137 -0.12716259 0.07617261
0001b0 1f 2a b6 3d 42 05 30 bc 73 d8 f4 bd 60 cd d2 bd
       0.08894753 -0.010743441 -0.11955347 -0.102930784
0001c0 58 30 22 bd ab db ba 3d ab 48 04 3e c6 b6 8d 3d
       -0.039596885 0.091239296 0.12918346 0.06919627
0001d0 5e 69 f4 bd bd 7a 80 3d c2 dd 04 bc 90 5e 3d 3c
       -0.1193416 0.062734105 -0.008109512 0.01155819
0001e0 1a 65 c6 bd cc b8 cb bd 76 ba 51 3d de 68 cf 3d
       -0.09687252 -0.099473566 0.051203214 0.10127424
0001f0 e5 99 dc 3d a2 fc a6 3d e5 39 e0 bd a7 a0 0c 3c
       0.107715406 0.08153655 -0.109485425 0.008583224
000200 b6 04 09 3e 35 22 93 3d e6 94 60 bd 49 39 04 3e
       0.13380703 0.07184259 -0.0548295 0.12912478
000210 20 6f d1 bd b1 14 c9 3d e8 06 82 bb 2e bc 21 bd
       -0.102262735 0.098184 -0.0039681084 -0.039486103
000220 39 12 52 bd 62 fa f6 3c e5 25 1a bd de d8 cf 3c
       -0.05128691 0.030148689 -0.037633795 0.025371965
000230 0b 0d 06 3e ed 18 16 bd 0b 69 92 3c e9 7b 8c bc
       0.13090913 -0.036644865 0.017872354 -0.017148929
000240 f9 0c 26 3c 22 15 66 bc 45 71 bf 3c 20 8e 4c bd
       0.010134929 -0.014043124 0.02336944 -0.04994023
000250 3b b8 e7 bd 3a ed a5 bd c2 75 e8 bd 48 ce 4d bb
       -0.11314436 -0.08101888 -0.113505855 -0.003140347
000260 56 c3 e2 bc 8c f6 99 bd 53 94 88 bd 78 59 06 3e
       -0.027681034 -0.07517728 -0.066689156 0.13120067
000270 67 e7 18 3c f3 c7 c0 bd f4 41 03 3e 20 15 d5 3d
       0.009332514 -0.09413137 0.12818128 0.1040442
000280 ff ed b9 bd b2 53 14 3b 01 29 99 3d b8 58 9a 3d
       -0.09078597 0.0022632894 0.07478524 0.07536453
000290 b3 64 ae 3d b3 33 3a bd 33 1f a0 bd 82 9a b3 bc
       0.085153006 -0.04545946 -0.07818451 -0.021924261
0002a0 21 8e bd 3d a0 17 24 bd c8 93 c3 bd a2 e0 20 3c
       0.092556246 -0.040061593 -0.095496714 0.009819182
0002b0 8e b8 b6 bd 75 79 75 bd c3 a9 9f 3c 7d a3 ab 3d
       -0.0892192 -0.059930284 0.019490128 0.08380792
0002c0 c5 c3 bb bd 06 af 33 bd 56 1d 1d bc bc ea eb 3b
       -0.091681994 -0.043868087 -0.009589514 0.0071996134
0002d0 ee 7a 67 3c 3f d1 80 bd 15 68 05 bd 49 81 b2 bc
       0.01412843 -0.062899105 -0.032569963 -0.021790164
0002e0 ed c0 04 be 79 93 39 bd 59 f8 59 3d 16 9a 41 bc
       -0.1296422 -0.045306657 0.05321536 -0.011816522
0002f0 fe 77 b2 3d a1 36 72 3d 75 4f 2d bd 15 37 bf bc
       0.08714293 0.05913413 -0.042312104 -0.023341695
000300 3c ba fb 3d f1 bc a6 3b ea 0d f9 bd 8b 85 c5 bd
       0.12291381 0.0050884415 -0.12160857 -0.09644612
000310 76 f0 f1 3d df 9c 35 bd 4e fa 3f 3d d6 b8 2b bd
       0.118134424 -0.044339057 0.04686957 -0.04192432

actor.linear2.weight f4 [5, 200]
000000 d4 a5 34 3d 2a c7 ba bc 14 27 dd 3b d8 50 22 3d
       0.04410346 -0.022800047 0.0067490432 0.03962788
000010 d0 ef 65 3c 94 0b 61 3d 59 25 33 3d c0 bd 3e 3d
       0.014034227 0.054942682 0.04373679 0.04656768
000020 f3 99 a6 3c 2b 65 80 3d f9 67 96 3c fd 2a e9 3b
       0.02033708 0.06269296 0.018360125 0.0071157203
000030 17 11 c8 bb c2 67 3c 3d aa 02 48 bc 9b 34 10 3c
       -0.006105553 0.04599739 -0.012207666 0.008801605
000040 2d f4 f3 bc 1d a9 25 3c 80 9a 87 3d e4 a4 01 3d
       -0.029779518 0.0101111205 0.066212654 0.031651393
000050 1c f2 a9 3c 25 d1 5f bd 96 32 71 bd bd f3 38 3d
       0.02074533 -0.054642815 -0.058886133 0.045154322
000060 2d 0a 99 3c bd ec 59 bd 57 0e 38 bd bc 37 4c 3d
       0.01868161 -0.053204287 -0.04493555 0.04985784
000070 1a 6a 86 3d 5b bb 64 bd 34 2a 51 bd 7c f9 f3 3b
       0.06563206 -0.05584274 -0.05106564 0.0074455123
000080 ee 94 bd 3c 61 a2 ca 3c 01 4e 95 3a d4 02 41 bd
       0.023142304 0.024735631 0.0011391045 -0.047121838
000090 96 40 82 3d ac ea 0e 3d b4 02 93 3d 17 a5 58 bc
       0.06359975 0.03489177 0.0717825 -0.013222954
0000a0 22 b9 3e bd 38 6f 98 3a a7 53 c4 3c b5 c1 8d bd
       -0.046563275 0.0011629825 0.02396567 -0.06921712
0000b0 74 5c 79 3d 96 4e 58 3d a1 d2 a7 bc 68 cc 8e bc
       0.060879186 0.05280932 -0.020486178 -0.017431453
0000c0 0c ec 04 bd 79 88 84 3b ac 08 19 3d c0 26 12 3b
       -0.032451674 0.004044589 0.037361786 0.0022300929
0000d0 c0 b1 54 3d fa eb e5 bc 18 89 d3 bc 44 9f d9 bc
       0.051927328 -0.028066624 -0.025822207 -0.026565202
0000e0 53 72 28 3d 8e cf 84 bd 10 c8 36 3d 5b ff 85 bd
       0.041124653 -0.064849004 0.04462439 -0.06542846
0000f0 92 de 62 3d 4d d3 88 bd 6f a4 7b 3d d6 db 67 3d
       0.05538804 -0.066809274 0.061436113 0.056606136
000100 c5 c2 3a bd bb f5 66 bc fb 49 e3 bb 34 b2 8c 3d
       -0.045595903 -0.014096673 -0.0069363094 0.06869927
000110 52 a5 83 3c 55 bf 56 3b 83 39 47 3d 83 e8 25 3c
       0.016070042 0.0032767851 0.04863883 0.010126236
000120 11 08 73 bc 0b f2 5b 3c 07 a1 54 bc 5e 30 1f bc
       -0.014833466 0.013424407 -0.012977845 -0.0097161215
000130 0a 37 1d bd 9f d2 50 3c aa 28 e8 bb 12 b3 81 bc
       -0.038382567 0.0127455285 -0.0070849257 -0.015832458
000140 2f b5 17 bd 20 52 90 bd 3f f6 f0 bc 50 bb 3e 3d
       -0.037038025 -0.07046914 -0.029414294 0.046565354
000150 0a 07 92 3c 8d c1 82 3d 66 30 53 bb cc 0c b2 bc
       0.017825622 0.06384573 -0.0032224893 -0.021734618
000160 63 57 35 3d c4 8c 22 bd 48 0c 22 3d 42 fb 4c bc
       0.04427279 -0.039685026 0.039562494 -0.012511076
000170 15 6f 82 3c 4a 51 29 bd 1a 54 86 3d ca 7b f6 3c
       0.015922109 -0.04133729 0.0655901 0.030088324
000180 c3 09 f3 bc d9 b6 83 3d 9b 3a 65 3c 34 78 08 3d
       -0.02966774 0.0643136 0.013991023 0.03331776
000190 e6 4b f8 3c 07 69 75 bc bd f5 b7 3c ff 2c 06 bd
       0.030309629 -0.014978654 0.022456044 -0.032757755
0001a0 9a db e4 3c 73 45 8d bd a8 17 48 3d 56 8a 8d 3d
       0.027936745 -0.06898012 0.048850685 0.06911151
0001b0 a0 e7 7a 3d d7 7e 4d 3d f9 f6 59 bb 62 66 a0 3c
       0.06125605 0.050169792 -0.003325878 0.01958007
0001c0 16 ea e5 bb 2d 27 21 bd 61 7f 0f 3b 2b 4b 45 3d
       -0.0070164306 -0.039344 0.0021895992 0.04816739
0001d0 8f 52 8d 3d fe 0a 54 3d ed 54 d9 3c 42 34 4b bc
       0.069005124 0.051768295 0.026529754 -0.012402596
0001e0 4b 43 95 3c d3 ae 4e bc db 9a f0 3c 08 28 83 3d
       0.018220564 -0.0126149235 0.029370716 0.0640412
0001f0 16 05 81 3c 07 c3 21 bd 7b 82 0c 3d 42 6c 5b 3d
       0.015749495 -0.039492633 0.034304123 0.05357004
000200 8b 44 8f 3d ed e5 19 bd 6c 54 8c bd 78 7c 15 bd
       0.069954954 -0.03757279 -0.0685204 -0.036495656
000210 b5 4f 98 3b 17 60 57 bd 18 85 47 3d 5f 45 89 3c
       0.0046481737 -0.052581873 0.048710912 0.016756712
000220 70 ac 83 3d 45 41 48 bd 60 e9 27 3d ae 7e 59 3d
       0.06429374 -0.04889037 0.040994048 0.053099327
000230 d7 ef 10 3d a5 1d 98 bc 6f 51 2a bc 4f bc 0f 3d
       0.03538498 -0.018568823 -0.010395392 0.035091694
000240 f5 eb bd 3b 0f 45 ab 3c bb 69 66 bd b8 d0 15 3d
       0.0057959505 0.020906953 -0.056253176 0.036576003
000250 5c 51 01 3d 3e 68 81 3c 5f 19 52 ba b6 49 f0 bc
       0.03157173 0.015796777 -0.0008014645 -0.029332023
000260 c8 fd 61 b9 0a 58 dc ba da 31 e3 bc ef de 27 bb
       -0.00021552213 -0.0016810906 -0.027733732 -0.0025615057
000270 4f e8 66 bd 8d 41 80 3c f5 fc 7d 3d d6 3e 25 3d
       -0.05637389 0.015656257 0.062008817 0.04034313
000280 cb 57 d0 3c fb 20 2f bd f0 71 d1 bc ee 26 f7 3b
       0.025432488 -0.042756062 -0.025567025 0.0075424826
000290 9c fe 0c bd 1c 56 89 3d 03 c5 6b 3c 9b 95 8d 3c
       -0.034422502 0.06705877 0.014390233 0.017283252
0002a0 20 1b 95 3c 6c ca 88 3d d2 dc 7c 3d d2 51 1b bc
       0.01820141 0.06679234 0.06173403 -0.009479957
0002b0 ab f4 f9 ba ee ba a4 bb f8 05 22 bd af 10 92 3d
       -0.0019070109 -0.0050271666 -0.039556473 0.071320884
0002c0 4f b6 86 3d f8 6a 28 3b fd c6 b9 3b 28 7b 8f 3d
       0.06577741 0.0025698524 0.005669473 0.07005912
0002d0 c7 04 1b 3a 82 79 2d bd d3 05 a4 3c ec 59 6e 3c
       0.00059134926 -0.042352207 0.020022308 0.014547806
0002e0 fa fe 48 3d 94 05 35 3d 4e 08 e3 bc b2 ec 05 bd
       0.04907129 0.044194773 -0.02771392 -0.032696433
0002f0 48 d8 32 3d fb b6 85 bd e4 c4 89 3d ba 12 1c 3c
       0.043663293 -0.065290414 0.06727007 0.009525949
000300 b5 fd 6d 3c 19 51 22 bc 7b ee 80 bd b0 15 19 3d
       0.0145258205 -0.0099070305 -0.062954865 0.0373742
000310 b6 f2 04 3d 51 e5 ea ba c1 9b d5 3a 39 6e 43 bd
       0.03245803 -0.0017921125 0.0016297029 -0.04771254
000320 86 0f 7f bd 12 06 0d 3c e1 95 04 bd c8 a2 45 3d
       -0.062270664 0.008607404 -0.0323695 0.048250943
000330 97 a6 e9 3b 2e 55 77 bd 09 ff 37 bd 26 6e a8 ba
       0.0071304548 -0.060383968 -0.044920955 -0.001285021
000340 57 a6 8e bd d1 7a 7a 3d a9 af a3 3b bc ac 87 3d
       -0.069653206 0.061152283 0.0049953056 0.06624743
000350 19 3c 0c bc 6d 41 38 bd b7 c3 33 3d f0 7e 41 bb
       -0.00855925 -0.04498427 0.04388782 -0.0029525124
000360 b6 60 31 3c ec 01 d5 3c f3 a0 29 3c 46 45 50 ba
       0.01082628 0.026001893 0.010353315 -0.0007944893
000370 46 d0 35 bd a7 cb f3 3b 72 6e 8e 3c 4c d0 6f 3d
       -0.04438808 0.0074400487 0.017386649 0.058548257
000380 ae c9 8a 3d f3 43 5f 3d 1b 5c af 3b db 43 50 bd
       0.067767486 0.05450816 0.005351556 -0.050845962
000390 e7 74 73 3d 01 20 8b 3d 78 4f 43 3d bb 99 cb 3c
       0.05943766 0.06793214 0.04768321 0.024853578
0003a0 c2 89 0b bc 53 bf 63 3d 5b f5 78 3d 41 e9 5e 3c
       -0.008516731 0.055602383 0.060780864 0.013605417
0003b0 ee cb 68 bd 6d f6 17 3d eb 1d 7f bd ad c4 cf bc
       -0.056835108 0.037100244 -0.06228439 -0.025362337
0003c0 0a dc 26 3c d5 20 33 bd 07 6f 69 bd b6 2f 8d bd
       0.010184297 -0.043732483 -0.05699065 -0.06893866
0003d0 c4 b2 61 3d 58 1f f5 bc c9 c5 66 bd fb 89 8b bd
       0.055102125 -0.029922172 -0.056340966 -0.06813427
0003e0 f7 da 41 bd 10 5c 51 3d c5 02 3c 3d 76 91 6e 3d
       -0.04732796 0.05111319 0.04590108 0.05824419
0003f0 38 28 ba bc d3 22 1a bd 99 ea 01 3d f2 a7 43 bc
       -0.022724256 -0.037630867 0.03171787 -0.011941897

actor.linear2.bias f4 [5]
000000 fa 49 09 bc ab 7a 3a bd 26 99 51 bc 43 da 0a 3d
       -0.008379454 -0.04552714 -0.012792861 0.033899557
000010 1f e1 f3 bc
       -0.029770432

critic.linear1.weight f4 [1, 55]
000000 45 26 fc bd 3c 46 c4 bd f4 72 c5 bd 3b a6 4c 3d
       -0.12311987 -0.09583709 -0.09641066 0.049963217
000010 8b ae 02 bd 9f 5c 65 3d 4c 35 bb bd 3d 2f f7 3d
       -0.03190474 0.055996533 -0.09141025 0.12069557
000020 cc 14 06 be bd 58 73 3d 45 98 85 3a 27 9c 8e bd
       -0.13093871 0.0594108 0.0010192475 -0.069633774
000030 6b 0d aa bd 51 26 a2 3c 4b e8 9b bc 3c 28 eb bd
       -0.083033405 0.019793661 -0.019031664 -0.114822835
000040 85 75 eb bd 70 9a 17 bd 46 f8 2c 3c 27 cf 04 3e
       -0.114970244 -0.037012517 0.01055724 0.12969647
000050 8a 53 93 3d 41 38 f1 bb 3d a9 f0 bd 03 c6 a6 bd
       0.07193668 -0.0073614423 -0.1175103 -0.081432365
000060 2c 76 de bd 22 aa 2b bd a7 4e 14 3b a1 fb f9 bd
       -0.10862383 -0.0419103 0.0022629888 -0.122061975
000070 26 d8 81 3d 56 be 09 3e b5 96 88 bd a4 51 ae bd
       0.06340055 0.13451514 -0.0666937 -0.085116655
000080 b6 04 d9 3d 9d 06 e7 bc d8 dd 77 3c 62 b1 96 bd
       0.10596602 -0.028201396 0.015128575 -0.07358052
000090 69 6a ce bd 43 56 0e bd 46 ed cf bd 01 2f 06 3e
       -0.1007889 -0.034750234 -0.10152678 0.13103868
0000a0 8a c5 b1 bd 6a ce 05 3e 72 57 84 bd 3d 60 e2 3d
       -0.08680256 0.13067022 -0.06461991 0.11053512
0000b0 40 ea a5 bd 2e a5 95 bd b0 e5 98 3d 7e a9 a8 bd
       -0.0810132 -0.07306896 0.074656844 -0.08235453
0000c0 92 4b c0 3d 72 7f 2f 3d 8b 91 4d bc 6b 6f 24 bd
       0.09389414 0.04284615 -0.012546907 -0.04014532
0000d0 50 8d 06 3e ad af d2 3d d2 ad de 3d
       0.13139844 0.10287414 0.10872997
