networks/quantized_models/ustc-tfc2016/CNN1D_TrafficClassification_ustctfc2016.pt (torch, 67788 bytes, 37 tensors)

conv1.bias f4 [16]
00000000: b118 b5bd 561d 3abf 44b9 903d c1ad 193f
00000010: b208 1cbd 8ea7 ee3d 11d3 5cbe c119 123d
00000020: 8d15 9abf fc3f ae3f 9116 1040 b7f6 4c3d
00000030: d81a 253f 29f7 afbf 34be 2f3e 38a2 3540
-0.088426 -0.72701013 0.070665866 0.6003075 -0.03809423 0.11653052 -0.2156489 0.035669092
-1.2037827 1.3613276 2.2513773 0.050039973 0.64494085 -1.3747302 0.171624 2.838026

conv1.weight_orig f4 [16, 1, 3]
00000000: f2ab 44bf 9c63 c4be 0578 f3be eb27 cfbc
00000010: 9ca7 e3bf 9ea1 e3bf e8c5 12bf ec41 8abe
00000020: 2b80 c03d 6291 84bf 8c02 b73e 5c7b 77ba
00000030: 2fdd 4c3f b051 4c3f 9a33 6cb9 4072 0e3f
00000040: a5fb d3bd b5b1 48bf 14b7 5b3e c2c0 ec3c
00000050: 330d 42c0 7499 b2bf 318a b0be 518d a33d
00000060: 0d04 8dc0 d25b 063e ab05 5b3d e278 1cbf
00000070: 64ac 213f ae53 203f b150 3b3f 0f76 f03e
00000080: 72c8 28bd 552f dabd 8147 a5bf 6de2 803e
00000090: 158e b73d 23a4 e83c 52bd 5b3f fcf0 e1bd
000000a0: af06 b63e b61e a13f 4804 0b3e 55dd 4bbf
000000b0: 4f98 4cbf 0504 053e 23a1 50be 1a3a 763f
-0.7682487 -0.38357246 -0.47552505 -0.025287589 -1.7785525 -1.7783697 -0.5733323 -0.2700342
0.09399446 -1.0356867 0.3574413 -0.0009440684 0.80025 0.79812145 -0.00022525937 0.5564308
-0.10350732 -0.7839616 0.21456558 0.028900508 -3.0320556 -1.395308 -0.34480432 0.07985938
-4.4067445 0.13120964 0.053472202 -0.6112195 0.6315367 0.62627685 0.7317 0.46965072
-0.041206785 -0.10653559 -1.2912446 0.2517275 0.08962647 0.028398579 0.85835755 -0.11032292
0.35551974 1.2587497 0.13575852 -0.796346 -0.79919904 0.12989815 -0.20373969 0.96182406

conv1.weight_mask f4 [16, 1, 3]
00000000: 0000 803f 0000 803f 0000 803f 0000 803f
00000010: 0000 803f 0000 803f 0000 803f 0000 803f
00000020: 0000 803f 0000 803f 0000 803f 0000 803f
00000030: 0000 803f 0000 803f 0000 803f 0000 803f
00000040: 0000 803f 0000 803f 0000 803f 0000 803f
00000050: 0000 803f 0000 803f 0000 803f 0000 803f
00000060: 0000 803f 0000 803f 0000 803f 0000 803f
00000070: 0000 803f 0000 803f 0000 803f 0000 803f
00000080: 0000 803f 0000 803f 0000 803f 0000 803f
00000090: 0000 803f 0000 803f 0000 803f 0000 803f
000000a0: 0000 803f 0000 803f 0000 803f 0000 803f
000000b0: 0000 803f 0000 803f 0000 803f 0000 803f
1.0 1.0 1.0 1.0 1.0 1.0 1.0 1.0
1.0 1.0 1.0 1.0 1.0 1.0 1.0 1.0
1.0 1.0 1.0 1.0 1.0 1.0 1.0 1.0
1.0 1.0 1.0 1.0 1.0 1.0 1.0 1.0
1.0 1.0 1.0 1.0 1.0 1.0 1.0 1.0
1.0 1.0 1.0 1.0 1.0 1.0 1.0 1.0

conv1._weight_quantizer._amax f4 [16, 1, 1]
00000000: c9a2 443f dc9e e33f eb7f 113f 3953 843f
00000010: 9d35 4c3f 9900 453f 4a08 4240 fd71 b23f
00000020: 12ec 8c40 30e9 1b3f 5ce6 393f 5804 a53f
00000030: 04a1 5b3f b6d9 a03f c452 4b3f 502c 763f
0.7681089 1.7782855 0.5683581 1.0337898 0.7976931 0.76954037 3.031756 1.3941036
4.403817 0.6090269 0.72617126 1.2891951 0.85792565 1.256644 0.79423165 0.96161366

bn1.weight f4 [16]
00000000: b407 c040 67fb e940 1a5c b03f ba37 7e40
00000010: eebd c23f 27e3 8e3f 448c 3c40 126a 8040
00000020: 0b98 7040 c0fb 6d3f 8f2d ef3f 973b 8340
00000030: eacb 9e3f 5f74 d83f 17e8 ba40 1c4f 923f
6.0009403 7.311939 1.3778107 3.9721513 1.5214212 1.1163071 2.9460611 4.012948
3.75928 0.92962265 1.8685778 4.101024 1.240598 1.6910514 5.8408313 1.1430392

bn1.bias f4 [16]
00000000: 4b90 eebe 27c8 0a3f cb45 ed3f 2d8d e0bf
00000010: 9849 953f d527 a23f fe03 a3be f46c a13f
00000020: 43b8 55bf 1945 cabe f513 b2bf 897e 02bf
00000030: 0911 1540 bbce 03c0 e80e 05c0 6076 91bf
-0.46594462 0.5421166 1.8536924 -1.7543083 1.1663084 1.2668406 -0.31838983 1.2611375
-0.83484286 -0.39505842 -1.391234 -0.5097433 2.3291647 -2.0594928 -2.0790348 -1.136425

bn1.running_mean f4 [16]
00000000: aaf7 84be c65d 8dbf 8ebb f5bb c98c 073f
00000010: 114a 053e 4eb7 a93d 5d53 02bf 8985 0fbe
00000020: 1ca1 d2bf fe74 b63f 92d5 1740 96e0 8fbd
00000030: e973 3f3f 4bae 9bbf b4a2 993c 3c9a 3b40
-0.25970203 -1.1044242 -0.007499165 0.52949196 0.13016535 0.08286916 -0.5090845 -0.14015783
-1.6455417 1.4254453 2.3724103 -0.07025258 0.7478624 -1.2162565 0.01875434 2.9312887

bn1.running_var f4 [16]
00000000: c833 fd3d 2e20 213f cdca ef3c 339a 1d3d
00000010: c15a 003e d80b a23c f99e f13e 22fd 173e
00000020: e97a 853f 048f 0b3d 520c 883d 6b6f a83d
00000030: ad56 523d 6f39 f83d fb00 dc3d faf6 453d
0.12363392 0.6293973 0.029271508 0.038477134 0.1253462 0.019781038 0.471916 0.14842656
1.0428134 0.034071937 0.06642975 0.08224376 0.05135219 0.121203296 0.107423745 0.04833124

conv2.bias f4 [16]
00000000: 219f 6f40 3e6f 99c0 2f70 f13f 5f44 7f3f
00000010: a9b0 b4c0 e31a 3cc0 327d 5340 b353 713f
00000020: dcce 8ec0 8e58 5940 91e9 9b3f c1da 69be
00000030: 7c6b 87c0 503f 7b3f 42cb 783e b9a4 e7be
3.7440875 -4.7948294 1.8862361 0.997137 -5.646565 -2.939141 3.3045163 0.9426834
-4.4627514 3.39603 1.2180654 -0.22837354 -4.2318707 0.9814348 0.24296287 -0.4524286

conv2.weight_orig f4 [16, 16, 3]
00000000: 701e 9f3f a434 b5bf add9 15bf f73e 823e
00000010: 9a70 893f 8208 acbe 84b5 543f 307f da3e
00000020: 07c2 8c3d d25a 5a3e 4781 97be 56cd 003e
00000030: cfa2 6fbe bd00 d3bc 259a e53e 50ed 423d
00000040: 7232 913e 4f5e f5bd 86a1 33bf 0209 6cbe
00000050: ee09 a83e a3b9 05bf 2fdc cfbd 51fb 733e
00000060: f2b2 0abf a56a 0fbe 8e19 613e 2591 283e
00000070: 7116 d93d 4a9c 573c 7025 753e 01af 47be
00000080: 011a 823d c8eb 4f3f 2e19 d93e 963b 8ebd
00000090: 72b2 b23e 37ac 933e 2973 cbbe 7e4e 9cbe
000000a0: 5c9e 3abe 5413 cc3d cc41 233d eba5 123c
000000b0: 8b48 0e3d 4a22 b5be e2ec a2be e235 4b3e
000000c0: 2c72 463f e06a a3be 83f5 89bc 1f0b f5be
000000d0: 1121 a53e 83b7 15be 009c c1bf 7844 ea3e
000000e0: ee76 4e3e 3678 873e 5ac0 173e ed8f a93c
000000f0: d631 91bf 146b 4e3e bc53 eebb 511e 8dbe
00000100: ff2a 70be 4d34 c63c 47ee 8fbf c3d5 93be
00000110: a5f0 cabe 0c13 1bc0 6d3e 223e 4620 9c3e
00000120: 8ca8 05bf 0efa e13e 7808 763e 2d97 84be
00000130: a03a 893d c237 b33e ddbc a93f a9b7 8dbe
00000140: ed2e 70be 2fb0 7a3f f176 a2be d81a f23c
00000150: 66dc bcbf d552 86bd 94c9 38be b25a 793f
00000160: 09b9 443e 9943 25be be60 ddbf da1c bf3d
00000170: 4848 3abe 3c98 1c3f 75f8 9b3d 63d3 f63d
00000180: fa84 0e40 7af2 5c3e 03e9 533e 4fa0 903f
00000190: e9e2 59be 46a3 15be 7ab2 71be f8e7 993e
000001a0: 117c aa3b 0c29 173f 7350 0ec0 cbc8 0abc
000001b0: c5a0 ba3d 58b3 883e 9d4a 723f c662 e0be
000001c0: 81b5 a93d a260 2f3e 4c7a a4bf 04ec 4fbf
000001d0: 7cfa 7abd 6735 9cbe b309 4f3e 5a5b bd3e
000001e0: 2f1d 90bd df80 6abf 8142 273f a702 47bf
000001f0: 3df1 4bbe 6538 483e f03c 9ebd 7e62 d13e
00000200: a69e 26bf 93f7 aa3e e34d 613e cb72 82be
00000210: 306c 8b3f a620 1bbf c0a2 c93e f2e1 82be
00000220: 6845 053e f29d cabe ee2a 9b3e 510f e93d
00000230: 22a6 6e3e b34f bfbf 9ceb a73e 0016 b73d
00000240: 4a0e f2be 5ffe e2bd 2cde 323f b77d 8a3f
00000250: d766 c0be d498 913f e8e2 49be 176e ac3d
00000260: 9c31 a3bd 29d2 243d 5813 2c3f 95c0 dfbe
00000270: 25ed ef3e 9610 ca3d e676 a53e 697a 64bd
00000280: f0f3 f83c a7d6 3b3d b6d5 073f 7301 84bf
00000290: 4e49 0bbf 954f 603e 95c9 f0bb 4057 86bd
000002a0: 8d38 75bf dd4c c8be 6e6e 6cbf e1d0 5f3c
000002b0: b77d 2d3e 89cc 803d 83f0 adbe 1dcd 3abc
000002c0: 8eaa dabe 5bac 14bf 44e4 adbd e8aa 3c3f
000002d0: c078 fabc 78b9 e23d d255 f93e a845 f3bb
000002e0: 6788 83be 6036 bdbd 50c7 ce3a 4596 f83b
000002f0: 0ea8 9d3c 19f0 df3d 57df 8d3d a99d 98be
00000300: 91fa d03f 6d45 dfbf 09d0 09bf 2b5b c93f
00000310: 102c 27bf d993 7bbe 7bdf 67be 2c5b 0fbf
00000320: 512f 7bbb b16c d23d 421b 263f a659 10bf
00000330: 9372 83be a6ea 2d3d 2df0 7bbd 0a49 7cbe
00000340: 62a5 b7be f58a 133e c025 86bf 2bae 843f
00000350: 5272 82bf 0064 94bc 9afe 22bf 620d e0be
00000360: 6746 b2be 561e 47bf 7714 b83e da2a 843f
00000370: 2138 2bbd 0934 98be d53f c6be 997f 59bf
00000380: eace ca3e 3fde 8e3e 4bb4 903f 9a72 8b3f
00000390: 3b0d e63e 5f6d 863f d81b 4b3f e2be c33e
000003a0: 2e21 0cbf 9e43 bcbe c765 4ebf c4c4 02bf
000003b0: 29f1 7e3f c4dd 20bf 0def bcbe 5d0d b0be
000003c0: 456a 8abf 4b86 873e 9e15 90be 4cea 703e
000003d0: 5272 f9bd 702a 123d 3a55 ecbd f8f4 fdbd
000003e0: ffae 453e 3cc1 1340 70fa b8bd f1f6 abbd
000003f0: 8285 783f b13a 80bf 7cdc 50be e2d9 8a3e
1.2431164 -1.415669 -0.5853527 0.25438663 1.0737488 -0.3360024 0.8308947 0.4267516
0.06872945 0.21323708 -0.29590818 0.1257833 -0.2340195 -0.025757188 0.44844165 0.0475896
0.283588 -0.119808786 -0.7016834 -0.23050311 0.32820076 -0.52236384 -0.101494186 0.23826338
-0.541793 -0.14005525 0.21982405 0.16461618 0.105999835 0.013159821 0.23940063 -0.19500352
0.06352616 0.8121915 0.42402023 -0.06944959 0.34901768 0.28842327 -0.39736298 -0.30528635
-0.18224472 0.09964624 0.03985767 0.008950691 0.03473715 -0.35377723 -0.31821352 0.19844773
0.7751796 -0.31917477 -0.016840702 -0.47860047 0.3225179 -0.14620785 -1.5125732 0.45755363
0.20162556 0.264589 0.1481947 0.020698512 -1.1343334 0.20158035 -0.0072731655 -0.27562192
-0.23453902 0.02419486 -1.1244591 -0.28874025 -0.39636722 -2.4230375 0.15844126 0.30493373
-0.5221031 0.4413609 0.24026668 -0.25896588 0.06700635 0.35003477 1.3260761 -0.27679184
-0.23455401 0.97925085 -0.3173137 0.029553816 -1.475476 -0.06558768 -0.18045646 0.97404015
0.1921121 -0.16139068 -1.7295148 0.09331675 -0.18191636 0.6116979 0.07615749 0.120520376
2.2268662 0.21576872 0.20694356 1.1298922 -0.21277966 -0.14613065 -0.2360324 0.3005979
0.005202778 0.5904701 -2.2236602 -0.008470724 0.091126956 0.26699328 0.946451 -0.43825358
0.08286572 0.17126706 -1.2849822 -0.81219506 -0.061274037 -0.30509493 0.20218544 0.36983758
-0.07036816 -0.9160289 0.6533585 -0.7773842 -0.19916244 0.19552763 -0.07726467 0.40895456
-0.6508583 0.3339201 0.22002368 -0.25478205 1.0892391 -0.6059669 0.3938198 -0.25563008
0.13014758 -0.39573628 0.3030619 0.113798745 0.23305562 -1.4946197 0.32796943 0.08939743
-0.47276527 -0.11083674 0.6987026 1.0819615 -0.3757846 1.1374764 -0.19715464 0.084194355
-0.079684466 0.040239487 0.67217016 -0.43701616 0.46860614 0.09866445 0.32317275 -0.055780802
0.030389756 0.045859005 0.5306047 -1.0312942 -0.5440873 0.21905358 -0.007348249 -0.0655961
-0.95789415 -0.39121142 -0.92356 0.01366064 0.16942488 0.06289012 -0.33972558 -0.011401442
-0.42708248 -0.58075494 -0.08490804 0.7369828 -0.030575156 0.110705316 0.48698288 -0.007424075
-0.25690004 -0.09238887 0.0015775952 0.007586273 0.019245174 0.10934467 0.06927364 -0.29807785
1.6326467 -1.7443062 -0.5383306 1.5730947 -0.6530161 -0.24568118 -0.22643845 -0.5599849
-0.0038327763 0.102746375 0.6488534 -0.5638679 -0.2567335 0.042460106 -0.061508346 -0.24637237
-0.35868365 0.14408477 -1.048027 1.0365652 -1.0191138 -0.01811409 -0.6366974 -0.4376021
-0.34819338 -0.77780664 0.35953113 1.0325577 -0.041801576 -0.297272 -0.38720575 -0.84960324
0.39610988 0.27903935 1.1305021 1.0894349 0.4493197 1.0502127 0.7933936 0.3823157
-0.5473813 -0.36770338 -0.8062405 -0.5108149 0.9958673 -0.6283839 -0.3690113 -0.34385195
-1.0813681 0.26469645 -0.28141493 0.23526877 -0.12180008 0.035685003 -0.11539693 -0.1240024
0.19305037 2.308669 -0.09032142 -0.0839671 0.97078717 -1.0017911 -0.20396608 0.27119356

conv2.weight_mask f4 [16, 16, 3]
00000000: 0000 0000 0000 0000 0000 0000 0000 0000
00000010: 0000 0000 0000 0000 0000 0000 0000 0000
00000020: 0000 0000 0000 0000 0000 0000 0000 0000
00000030: 0000 0000 0000 0000 0000 0000 0000 0000
00000040: 0000 0000 0000 0000 0000 0000 0000 0000
00000050: 0000 0000 0000 0000 0000 0000 0000 0000
00000060: 0000 0000 0000 0000 0000 0000 0000 0000
00000070: 0000 0000 0000 0000 0000 0000 0000 0000
00000080: 0000 0000 0000 0000 0000 0000 0000 0000
00000090: 0000 0000 0000 0000 0000 0000 0000 0000
000000a0: 0000 0000 0000 0000 0000 0000 0000 0000
000000b0: 0000 0000 0000 0000 0000 0000 0000 0000
000000c0: 0000 803f 0000 803f 0000 803f 0000 803f
000000d0: 0000 803f 0000 803f 0000 803f 0000 803f
000000e0: 0000 803f 0000 803f 0000 803f 0000 803f
000000f0: 0000 803f 0000 803f 0000 803f 0000 803f
00000100: 0000 803f 0000 803f 0000 803f 0000 803f
00000110: 0000 803f 0000 803f 0000 803f 0000 803f
00000120: 0000 803f 0000 803f 0000 803f 0000 803f
00000130: 0000 803f 0000 803f 0000 803f 0000 803f
00000140: 0000 803f 0000 803f 0000 803f 0000 803f
00000150: 0000 803f 0000 803f 0000 803f 0000 803f
00000160: 0000 803f 0000 803f 0000 803f 0000 803f
00000170: 0000 803f 0000 803f 0000 803f 0000 803f
00000180: 0000 803f 0000 803f 0000 803f 0000 803f
00000190: 0000 803f 0000 803f 0000 803f 0000 803f
000001a0: 0000 803f 0000 803f 0000 803f 0000 803f
000001b0: 0000 803f 0000 803f 0000 803f 0000 803f
000001c0: 0000 803f 0000 803f 0000 803f 0000 803f
000001d0: 0000 803f 0000 803f 0000 803f 0000 803f
000001e0: 0000 803f 0000 803f 0000 803f 0000 803f
000001f0: 0000 803f 0000 803f 0000 803f 0000 803f
00000200: 0000 803f 0000 803f 0000 803f 0000 803f
00000210: 0000 803f 0000 803f 0000 803f 0000 803f
00000220: 0000 803f 0000 803f 0000 803f 0000 803f
00000230: 0000 803f 0000 803f 0000 803f 0000 803f
00000240: 0000 0000 0000 0000 0000 0000 0000 0000
00000250: 0000 0000 0000 0000 0000 0000 0000 0000
00000260: 0000 0000 0000 0000 0000 0000 0000 0000
00000270: 0000 0000 0000 0000 0000 0000 0000 0000
00000280: 0000 0000 0000 0000 0000 0000 0000 0000
00000290: 0000 0000 0000 0000 0000 0000 0000 0000
000002a0: 0000 0000 0000 0000 0000 0000 0000 0000
000002b0: 0000 0000 0000 0000 0000 0000 0000 0000
000002c0: 0000 0000 0000 0000 0000 0000 0000 0000
000002d0: 0000 0000 0000 0000 0000 0000 0000 0000
000002e0: 0000 0000 0000 0000 0000 0000 0000 0000
000002f0: 0000 0000 0000 0000 0000 0000 0000 0000
00000300: 0000 803f 0000 803f 0000 803f 0000 803f
00000310: 0000 803f 0000 803f 0000 803f 0000 803f
00000320: 0000 803f 0000 803f 0000 803f 0000 803f
00000330: 0000 803f 0000 803f 0000 803f 0000 803f
00000340: 0000 803f 0000 803f 0000 803f 0000 803f
00000350: 0000 803f 0000 803f 0000 803f 0000 803f
00000360: 0000 803f 0000 803f 0000 803f 0000 803f
00000370: 0000 803f 0000 803f 0000 803f 0000 803f
00000380: 0000 803f 0000 803f 0000 803f 0000 803f
00000390: 0000 803f 0000 803f 0000 803f 0000 803f
000003a0: 0000 803f 0000 803f 0000 803f 0000 803f
000003b0: 0000 803f 0000 803f 0000 803f 0000 803f
000003c0: 0000 803f 0000 803f 0000 803f 0000 803f
000003d0: 0000 803f 0000 803f 0000 803f 0000 803f
000003e0: 0000 803f 0000 803f 0000 803f 0000 803f
000003f0: 0000 803f 0000 803f 0000 803f 0000 803f
0.0 0.0 0.0 0.0 0.0 0.0 0.0 0.0
0.0 0.0 0.0 0.0 0.0 0.0 0.0 0.0
0.0 0.0 0.0 0.0 0.0 0.0 0.0 0.0
0.0 0.0 0.0 0.0 0.0 0.0 0.0 0.0
0.0 0.0 0.0 0.0 0.0 0.0 0.0 0.0
0.0 0.0 0.0 0.0 0.0 0.0 0.0 0.0
1.0 1.0 1.0 1.0 1.0 1.0 1.0 1.0
1.0 1.0 1.0 1.0 1.0 1.0 1.0 1.0
1.0 1.0 1.0 1.0 1.0 1.0 1.0 1.0
1.0 1.0 1.0 1.0 1.0 1.0 1.0 1.0
1.0 1.0 1.0 1.0 1.0 1.0 1.0 1.0
1.0 1.0 1.0 1.0 1.0 1.0 1.0 1.0
1.0 1.0 1.0 1.0 1.0 1.0 1.0 1.0
1.0 1.0 1.0 1.0 1.0 1.0 1.0 1.0
1.0 1.0 1.0 1.0 1.0 1.0 1.0 1.0
1.0 1.0 1.0 1.0 1.0 1.0 1.0 1.0
1.0 1.0 1.0 1.0 1.0 1.0 1.0 1.0
1.0 1.0 1.0 1.0 1.0 1.0 1.0 1.0
0.0 0.0 0.0 0.0 0.0 0.0 0.0 0.0
0.0 0.0 0.0 0.0 0.0 0.0 0.0 0.0
0.0 0.0 0.0 0.0 0.0 0.0 0.0 0.0
0.0 0.0 0.0 0.0 0.0 0.0 0.0 0.0
0.0 0.0 0.0 0.0 0.0 0.0 0.0 0.0
0.0 0.0 0.0 0.0 0.0 0.0 0.0 0.0
1.0 1.0 1.0 1.0 1.0 1.0 1.0 1.0
1.0 1.0 1.0 1.0 1.0 1.0 1.0 1.0
1.0 1.0 1.0 1.0 1.0 1.0 1.0 1.0
1.0 1.0 1.0 1.0 1.0 1.0 1.0 1.0
1.0 1.0 1.0 1.0 1.0 1.0 1.0 1.0
1.0 1.0 1.0 1.0 1.0 1.0 1.0 1.0
1.0 1.0 1.0 1.0 1.0 1.0 1.0 1.0
1.0 1.0 1.0 1.0 1.0 1.0 1.0 1.0

conv2._weight_quantizer._amax f4 [16, 1, 1]
00000000: a434 b53f 970c 1b40 0642 0e40 d498 913f
00000010: a727 df3f 9b75 3040 9195 0740 e0fb d43f
00000020: e7e8 c43f 9dab c63f 2557 ab3f d10a 8f3f
00000030: 1d45 0f40 5213 e93f 3710 9a3f e493 5540
1.415669 2.4226434 2.2227798 1.1374764 1.7433976 2.757178 2.1185038 1.6639366
1.5383576 1.5521122 1.3385969 1.1175176 2.2385933 1.8209021 1.2036198 3.3371515

bn2.weight f4 [16]
00000000: 9c4a 9440 94b8 b340 2ab1 1c41 b4aa 8a40
00000010: a870 9240 bdc7 6f40 8b2a 0f41 a403 2741
00000020: 6cca 8640 4093 8440 9dc8 3341 c36f 1241
00000030: 8461 9c40 0de9 1441 b497 2141 282a 0641
4.6341076 5.6162815 9.793253 4.333338 4.576252 3.746566 8.947886 10.438389
4.2122097 4.142975 11.236478 9.152286 4.886904 9.306897 10.099537 8.385292

bn2.bias f4 [16]
00000000: f97f 86bf 5653 393f d152 2bc0 1ad8 fdc0
00000010: f35b 09be 30fe 0440 4683 c5c0 966b 06c1
00000020: 1626 99bf b209 e2bf 391b c3bf 5d12 f9be
00000030: a0f6 9d3f 869b 743a 0057 88bf 6c7f 3440
-1.0507804 0.72392786 -2.6769297 -7.9326296 -0.13413982 2.0780144 -6.1722746 -8.401266
-1.1964748 -1.7659209 -1.5242683 -0.48646823 1.2340889 0.0009331036 -1.065155 2.8202772

bn2.running_mean f4 [16]
00000000: 219f 6f40 d929 90c1 9deb 2d41 6044 7f3f
00000010: b1ed 86c0 29b5 19c1 878e 2241 14a0 4240
00000020: f201 0741 cf75 2c41 92e9 9b3f c2da 69be
00000030: 1c49 4dbf 26d6 2b41 42cb 783e 7255 46c1
3.7440875 -18.020433 10.870023 0.99713707 -4.216515 -9.606729 10.159797 3.0410204
8.437975 10.778762 1.2180655 -0.22837356 -0.8018968 10.739782 0.24296287 -12.395861

bn2.running_var f4 [16]
00000000: 5102 8029 f38c ed40 0065 7741 096a 6627
00000010: e9a9 d540 dc6d 7541 4d08 5341 5981 4c41
00000020: bb1c 3740 e82c 8a3f 4bd4 cc26 4bd4 cc23
00000030: d3de d040 acbe 0542 4bd4 cc23 3b77 9942
5.684744e-14 7.4234557 15.462158 3.1976394e-15 6.676991 15.339321 13.189527 12.781579
2.8611286 1.0794954 1.4212886e-15 2.2207634e-17 6.5272 33.436203 2.2207634e-17 76.73287

conv3.bias f4 [32]
00000000: 9aba 953d 8d94 f9be c425 4abe 8ddd e8be
00000010: e1d1 0f3d 13b3 60bf 017d 943e 3f93 fd3c
00000020: 2548 78bd 59db 62be 4aa7 09bf 2ce7 00bf
00000030: 928f 81be 2cc7 acbe c0df 8c3a 78ff 423f
00000040: aef6 c93e 9f50 d9be cf87 3d3e 68c1 90be
00000050: 584f 16bf ec33 49be 655f 3a3d 80bc 26be
00000060: c946 b8be 1ab1 1b3e 002a cb3e 94d4 98be
00000070: 4b4b 823d f8ef 1b3e 9ba2 6ebd efe0 26bf
0.07310982 -0.48746148 -0.19740969 -0.4548153 0.035112265 -0.87773246 0.2900162 0.030954001
-0.060615677 -0.22153987 -0.5377089 -0.5035274 -0.25304848 -0.33745706 0.0010747835 0.76171064
0.39446014 -0.42444322 0.18508838 -0.28272557 -0.5871482 -0.19648713 0.04550113 -0.16282845
-0.35991505 0.15204278 0.3968048 -0.29849684 0.06362017 0.1522826 -0.05826054 -0.6518697

conv3.weight_orig f4 [32, 16, 3]
00000000: d67f 8f3d 42f1 f0bd dd1b 2a3e 0b3d b1be
00000010: 20b2 63bd ee57 99be ca5c 8bbf 3ec0 f13e
00000020: 54c9 5dbf 5d9f 7d3d 3612 c0bd 1ccf 973e
00000030: 7a1d d43e 97f7 16bf 3be4 a73e c27b 21bf
00000040: 18ae 5c3d 827a 4abf 4ea7 91be fb0c 403f
00000050: f6af 06bf 207d 533f 6500 85bf b3b7 7c3f
00000060: 2a98 31be 989d 98be 6416 57be a1b7 163e
00000070: 3950 313e 4059 06bd 96d3 56be 03c0 653f
00000080: 0cc1 7d3e 96df 1c3e c2fe b63f fda2 7fbf
00000090: 4513 00bf be5b 123d e635 51bb bb5e fc3e
000000a0: bea4 f7be 548d 1e3f ac52 d03d fecf 2fbf
000000b0: 40d2 12be 6879 883e 5a21 4c3e a9b4 1f3f
000000c0: 33a2 c9be 7d52 bb3e 36c4 97be 68b2 47be
000000d0: b89d f1be 64f4 e2be 72cb 61be df23 24be
000000e0: 7833 9b3d f6a7 7cbf 4dc8 42bf 34b0 c33e
000000f0: c9b4 9bbd 6377 d43e 3f1a 5b3e 4ace aabe
00000100: 2c45 c7be 9afc 8cbe cfcb 403e f0bf e73e
00000110: f2d2 3b3f 1d51 553f 79af d03f a0aa 21bc
00000120: 92dc c03d ba5e 30be ada3 60be 7d88 e13d
00000130: 02b2 8cbe 129a e93d b863 4d3e a2ed 51bf
00000140: 14e6 0dbf 9ac8 b33f b7fd 6dbf ae17 883e
00000150: 01d0 803d 4257 0cbf 28fd 0dbd 4f09 0c3f
00000160: 85b3 1e3d 3492 24be 14ef b13e 758d 073e
00000170: b306 483e b99b 46be 4613 583f d14c cc3e
00000180: 25d4 eabe 1d01 93bd e0fe 45be e757 323e
00000190: dd4d bf3f e70d 05c0 4a06 ed3e 67cc 3e3f
000001a0: 5b70 1a3f 78b7 1fbd 5d58 24be 6109 b73c
000001b0: 7029 2e3f 2767 9abe bddf 09bf f295 c43d
000001c0: f91d 3f3e fe9c 313e d1d8 873f a35a 1d3f
000001d0: c59c 58bf 4ea2 d03f 8ded a0be fa8f 74be
000001e0: e852 7dbe 7d08 99bd 04c0 5abe 51fd b23e
000001f0: 420f 403e b9c9 24be 8936 05be 9a81 f23e
00000200: 263e 003f b006 c3bf 5f30 023e cf9d 1740
00000210: daf2 61be 11db f43e 61ec eabd 9c7c cabf
00000220: c1b8 8f3f f53e b63e bdf1 c63f 466d f2be
00000230: bccd cbbe 2189 73bd 6f3b 8dbe 3ba5 5fbf
00000240: 1c6c 4cbe 6998 073e cc63 2a3f 3037 53bf
00000250: 46ca 713f 9999 9f3e 6035 ca3e bfed 3b3e
00000260: d59f b33d 13b9 ab3e dd38 0ebd 44e2 19bf
00000270: 26bb 57bd 878e 7a3d 1833 0c3e 8c2a 64be
00000280: 9a06 933e f0ca 913e 652f f43e 5103 713e
00000290: 152e 60be b57a 273f 743d f13e 5bd7 85bf
000002a0: da6f f0bc 220b 9f3b 786f 4dbd 9407 2bbf
000002b0: 3572 9fbe 1ab0 81be f37a 47bc 3fc4 ae3d
000002c0: 2067 b1be af7f 503f fd66 38bf e033 54bf
000002d0: 6e8a 0f3e 2be9 8bbd d619 093d a1f8 563f
000002e0: 7687 163f c9bf 003f 7ada edbd 5139 013f
000002f0: 72df 543f 7360 0dbf 6079 6cbe 3d05 ecbd
00000300: d6e7 a03e b303 b3be 211e 6e3f 2cb2 44bf
00000310: 90b4 aa3e 0a1d 71be f1a5 a8be 53b1 19bc
00000320: cf99 2dbf 8727 99be 74ee b43e 32c8 bfbe
00000330: 8169 203f 81fe b5be 1b34 1abb 48dc 223f
00000340: 63d1 11bf de71 3f3f 2fb6 d93e 2983 703f
00000350: cee2 adbe a2e7 4bbd f2ff babd 94a5 dbbe
00000360: 24cf f2bd c5c6 0a3e 70da e4be a572 19be
00000370: 4c30 bfbe e22f e6be 01a5 adbe 8d0d 953e
00000380: 002c b2bd 70e3 1e3c 84f2 3fbf 7a6e 19be
00000390: 0358 4dbe 92f6 a4be f29c 7dbd 1f4a c13e
000003a0: 7fd8 2fbf b114 273f a0a0 443f 627e ef3d
000003b0: 4970 2e3f 3a99 e0bc 6f78 21be 19f8 48be
000003c0: df94 7fbf f259 d4bd 3751 86be 29a6 88bf
000003d0: 8792 4f3e a241 a0bc 8713 4a3f f79c 693f
000003e0: f179 253f b873 70be 3f59 cbbd 3f02 efbe
000003f0: 7125 e5bf 9064 07bf 703c e13e f169 34bf
0.07006805 -0.11764766 0.16612191 -0.34616885 -0.055589795 -0.29949898 -1.0887692 0.47216982
-0.8663533 0.06191956 -0.093784735 0.296502 0.4142874 -0.5897154 0.32791314 -0.63079464
0.053876966 -0.7909318 -0.28447956 0.75019807 -0.52612245 0.826128 -1.0390745 0.987178
-0.17343202 -0.29807734 -0.21004635 0.14718486 0.17315759 -0.03279996 -0.20979151 0.8974611
0.24780673 0.15319666 1.4296496 -0.99858075 -0.500294 0.035732023 -0.0031922995 0.49291024
-0.48367876 0.619344 0.101720184 -0.68676746 -0.14338017 0.26655126 0.19934598 0.6238504
-0.3938156 0.3658637 -0.29641885 -0.1950165 -0.47190642 -0.4432708 -0.22050264 -0.16029309
0.07578176 -0.9869379 -0.76086885 0.3822037 -0.076028414 0.41497335 0.21396731 -0.3336051
-0.3891996 -0.2753647 0.18827747 0.45263624 0.7336875 0.83326894 1.630355 -0.00986734
0.094170704 -0.17223635 -0.21937437 0.11012361 -0.2747956 0.1140634 0.20057571 -0.82003224
-0.55429196 1.4045594 -0.92965263 0.26580566 0.062896736 -0.54820645 -0.034665257 0.54701704
0.038745422 -0.16071397 0.34752715 0.13237555 0.19533806 -0.19395341 0.8440441 0.39902356
-0.45864978 -0.07177947 -0.19335508 0.17416345 1.4945637 -2.0789735 0.4629386 0.74530643
0.6032769 -0.03899333 -0.16049333 0.02234334 0.6803198 -0.30156824 -0.5385702 0.09598912
0.18663777 0.17345044 1.0613042 0.61466426 -0.8461421 1.6299531 -0.31431237 -0.23883048
-0.24738657 -0.07472322 -0.2136231 0.3495889 0.1875582 -0.16092576 -0.13009085 0.47364503
0.5009483 -1.5236416 0.12713765 2.3690069 -0.22065297 0.47823384 -0.11470867 -1.5819278
1.1228257 0.35594907 1.5542523 -0.47348994 -0.398054 -0.05945695 -0.27584407 -0.87361497
-0.19963115 0.13241734 0.6655853 -0.82506084 0.9444927 0.31171873 0.39493847 0.18352412
0.0877072 0.33539638 -0.034722198 -0.6011088 -0.052668713 0.06117108 0.13691366 -0.22281855
0.28715974 0.28475142 0.4769241 0.23536421 -0.21892579 0.6542161 0.47117198 -1.0456346
-0.02935021 0.004853622 -0.050155133 -0.6680844 -0.3114182 -0.25329667 -0.0121753095 0.08533525
-0.3464899 0.8144483 -0.7203215 -0.82891655 0.1401765 -0.06831583 0.033471905 0.8397313
0.58800447 0.5029264 -0.11613937 0.5047808 0.8315345 -0.55225295 -0.23093176 -0.115244366
0.31426877 -0.3496376 0.93014723 -0.7683437 0.33340883 -0.23546234 -0.32939103 -0.009380656
-0.6781282 -0.2991297 0.35338175 -0.37457424 0.62660986 -0.35545734 -0.0023529592 0.6361737
-0.56960124 0.7478312 0.42521808 0.93950135 -0.339621 -0.04978145 -0.09130849 -0.42899764
-0.11855915 0.13552387 -0.44697905 -0.1498514 -0.37341535 -0.44958407 -0.3391495 0.291119
-0.086997986 0.00969778 -0.74979424 -0.1498355 -0.20053105 -0.32219368 -0.061917253 0.37751862
-0.6868972 0.6526595 0.76807594 0.116940275 0.68140084 -0.027416814 -0.15768598 -0.19625892
-0.99836534 -0.10368718 -0.26233837 -1.0675708 0.2027074 -0.019562546 0.78936046 0.91255134
0.6463919 -0.23481643 -0.09929132 -0.466814 -1.7902051 -0.5288782 0.43991423 -0.70474154

conv3.weight_mask f4 [32, 16, 3]
00000000: 0000 0000 0000 0000 0000 0000 0000 0000
00000010: 0000 0000 0000 0000 0000 0000 0000 0000
00000020: 0000 0000 0000 0000 0000 0000 0000 0000
00000030: 0000 0000 0000 0000 0000 0000 0000 0000
00000040: 0000 0000 0000 0000 0000 0000 0000 0000
00000050: 0000 0000 0000 0000 0000 0000 0000 0000
00000060: 0000 0000 0000 0000 0000 0000 0000 0000
00000070: 0000 0000 0000 0000 0000 0000 0000 0000
00000080: 0000 0000 0000 0000 0000 0000 0000 0000
00000090: 0000 0000 0000 0000 0000 0000 0000 0000
000000a0: 0000 0000 0000 0000 0000 0000 0000 0000
000000b0: 0000 0000 0000 0000 0000 0000 0000 0000
000000c0: 0000 0000 0000 0000 0000 0000 0000 0000
000000d0: 0000 0000 0000 0000 0000 0000 0000 0000
000000e0: 0000 0000 0000 0000 0000 0000 0000 0000
000000f0: 0000 0000 0000 0000 0000 0000 0000 0000
00000100: 0000 0000 0000 0000 0000 0000 0000 0000
00000110: 0000 0000 0000 0000 0000 0000 0000 0000
00000120: 0000 0000 0000 0000 0000 0000 0000 0000
00000130: 0000 0000 0000 0000 0000 0000 0000 0000
00000140: 0000 0000 0000 0000 0000 0000 0000 0000
00000150: 0000 0000 0000 0000 0000 0000 0000 0000
00000160: 0000 0000 0000 0000 0000 0000 0000 0000
00000170: 0000 0000 0000 0000 0000 0000 0000 0000
00000180: 0000 803f 0000 803f 0000 803f 0000 803f
00000190: 0000 803f 0000 803f 0000 803f 0000 803f
000001a0: 0000 803f 0000 803f 0000 803f 0000 803f
000001b0: 0000 803f 0000 803f 0000 803f 0000 803f
000001c0: 0000 803f 0000 803f 0000 803f 0000 803f
000001d0: 0000 803f 0000 803f 0000 803f 0000 803f
000001e0: 0000 803f 0000 803f 0000 803f 0000 803f
000001f0: 0000 803f 0000 803f 0000 803f 0000 803f
00000200: 0000 803f 0000 803f 0000 803f 0000 803f
00000210: 0000 803f 0000 803f 0000 803f 0000 803f
00000220: 0000 803f 0000 803f 0000 803f 0000 803f
00000230: 0000 803f 0000 803f 0000 803f 0000 803f
00000240: 0000 0000 0000 0000 0000 0000 0000 0000
00000250: 0000 0000 0000 0000 0000 0000 0000 0000
00000260: 0000 0000 0000 0000 0000 0000 0000 0000
00000270: 0000 0000 0000 0000 0000 0000 0000 0000
00000280: 0000 0000 0000 0000 0000 0000 0000 0000
00000290: 0000 0000 0000 0000 0000 0000 0000 0000
000002a0: 0000 0000 0000 0000 0000 0000 0000 0000
000002b0: 0000 0000 0000 0000 0000 0000 0000 0000
000002c0: 0000 0000 0000 0000 0000 0000 0000 0000
000002d0: 0000 0000 0000 0000 0000 0000 0000 0000
000002e0: 0000 0000 0000 0000 0000 0000 0000 0000
000002f0: 0000 0000 0000 0000 0000 0000 0000 0000
00000300: 0000 0000 0000 0000 0000 0000 0000 0000
00000310: 0000 0000 0000 0000 0000 0000 0000 0000
00000320: 0000 0000 0000 0000 0000 0000 0000 0000
00000330: 0000 0000 0000 0000 0000 0000 0000 0000
00000340: 0000 0000 0000 0000 0000 0000 0000 0000
00000350: 0000 0000 0000 0000 0000 0000 0000 0000
00000360: 0000 0000 0000 0000 0000 0000 0000 0000
00000370: 0000 0000 0000 0000 0000 0000 0000 0000
00000380: 0000 0000 0000 0000 0000 0000 0000 0000
00000390: 0000 0000 0000 0000 0000 0000 0000 0000
000003a0: 0000 0000 0000 0000 0000 0000 0000 0000
000003b0: 0000 0000 0000 0000 0000 0000 0000 0000
000003c0: 0000 803f 0000 803f 0000 803f 0000 803f
000003d0: 0000 803f 0000 803f 0000 803f 0000 803f
000003e0: 0000 803f 0000 803f 0000 803f 0000 803f
000003f0: 0000 803f 0000 803f 0000 803f 0000 803f
0.0 0.0 0.0 0.0 0.0 0.0 0.0 0.0
0.0 0.0 0.0 0.0 0.0 0.0 0.0 0.0
0.0 0.0 0.0 0.0 0.0 0.0 0.0 0.0
0.0 0.0 0.0 0.0 0.0 0.0 0.0 0.0
0.0 0.0 0.0 0.0 0.0 0.0 0.0 0.0
0.0 0.0 0.0 0.0 0.0 0.0 0.0 0.0
0.0 0.0 0.0 0.0 0.0 0.0 0.0 0.0
0.0 0.0 0.0 0.0 0.0 0.0 0.0 0.0
0.0 0.0 0.0 0.0 0.0 0.0 0.0 0.0
0.0 0.0 0.0 0.0 0.0 0.0 0.0 0.0
0.0 0.0 0.0 0.0 0.0 0.0 0.0 0.0
0.0 0.0 0.0 0.0 0.0 0.0 0.0 0.0
1.0 1.0 1.0 1.0 1.0 1.0 1.0 1.0
1.0 1.0 1.0 1.0 1.0 1.0 1.0 1.0
1.0 1.0 1.0 1.0 1.0 1.0 1.0 1.0
1.0 1.0 1.0 1.0 1.0 1.0 1.0 1.0
1.0 1.0 1.0 1.0 1.0 1.0 1.0 1.0
1.0 1.0 1.0 1.0 1.0 1.0 1.0 1.0
0.0 0.0 0.0 0.0 0.0 0.0 0.0 0.0
0.0 0.0 0.0 0.0 0.0 0.0 0.0 0.0
0.0 0.0 0.0 0.0 0.0 0.0 0.0 0.0
0.0 0.0 0.0 0.0 0.0 0.0 0.0 0.0
0.0 0.0 0.0 0.0 0.0 0.0 0.0 0.0
0.0 0.0 0.0 0.0 0.0 0.0 0.0 0.0
0.0 0.0 0.0 0.0 0.0 0.0 0.0 0.0
0.0 0.0 0.0 0.0 0.0 0.0 0.0 0.0
0.0 0.0 0.0 0.0 0.0 0.0 0.0 0.0
0.0 0.0 0.0 0.0 0.0 0.0 0.0 0.0
0.0 0.0 0.0 0.0 0.0 0.0 0.0 0.0
0.0 0.0 0.0 0.0 0.0 0.0 0.0 0.0
1.0 1.0 1.0 1.0 1.0 1.0 1.0 1.0
1.0 1.0 1.0 1.0 1.0 1.0 1.0 1.0

conv3._weight_quantizer._amax f4 [32, 1, 1]
00000000: c2fe b63f 79af d03f cf9d 1740 5bd7 853f
00000010: 2983 703f e3fb ef3f 9b2e a13f 406d e83f
00000020: 1b46 0c40 5166 f33f f9fb 0340 7c95 0140
00000030: c2f5 ef3f 40ca b33f 2212 df3f a228 ad3f
00000040: fdce c73f 3b80 e93f dd5c b43f 04f2 4040
00000050: 40da c83f fab7 e83f 4b6a c03f 0104 f33f
00000060: d10d ef3f 1ace c23f 2dee fb3f 186a 8e3f
00000070: c84d ec3f 31b2 4440 b561 d13f 30e7 923f
1.4296496 1.630355 2.3690069 1.0456346 0.93950135 1.8748745 1.2592348 1.815834
2.191779 1.90156 2.0622542 2.0247488 1.8746874 1.4046097 1.7427409 1.3528025
1.5610043 1.8242258 1.409084 3.0147715 1.5691605 1.8181145 1.5032438 1.8985597
1.8676091 1.5219147 1.968206 1.1126127 1.8461237 3.073376 1.6357943 1.1476803

bn3.weight f4 [32]
00000000: 62b7 9140 131d b940 57df 9540 27a1 fc40
00000010: 3fa6 bb40 45ab f040 0243 9c40 36ee 1241
00000020: 336c a140 ace2 ae40 0797 c640 6557 9b40
00000030: 0c67 ef40 6055 0341 1504 f840 ae21 5c40
00000040: 08fe b240 4304 f740 f3a9 b740 7180 1041
00000050: 2f7b e340 91fb 0a41 f4c8 9b40 d4a2 ed40
00000060: fb0c dc40 f8a1 bc40 4d55 1741 ea67 7940
00000070: 4eec 2241 ee91 c240 c6bc ab40 11fc a340
4.5536356 5.784799 4.683513 7.894672 5.8640437 7.520907 4.8831797 9.183157
5.044458 5.46517 6.205936 4.8544183 7.481329 8.2083435 7.7504983 3.4395556
5.5935097 7.71927 5.7394958 9.031358 7.108787 8.686418 4.8682804 7.4261265
6.8765845 5.8947716 9.458325 3.8969674 10.182692 6.0803137 5.3667936 5.12452

bn3.bias f4 [32]
00000000: f28a 06c0 e91e 20c0 6396 01c0 fd8c 92c0
00000010: f2d9 8ebf 65f3 e3c0 2b14 a9bf 0694 b7c0
00000020: f687 12bf 1b5f 5bbf 48e1 fcbf 4237 49c0
00000030: 910f 9dc0 e6bc a9c0 17ce 8ac0 44ab a8bf
00000040: b743 85bf 554f cac0 9a7f 5fbf 202f c7c0
00000050: 9824 b7c0 d5b5 8fc0 4b0c cebf e37f dfbf
00000060: 6836 9ac0 b0da b1bf 54c2 e3c0 5fed 2cc0
00000070: 3474 e1c0 cbcf b0bf d15d d7be f63c 3fc0
-2.1022305 -2.5018866 -2.0248039 -4.5797105 -1.1160262 -7.1234612 -1.320928 -5.7368193
-0.5723871 -0.85691994 -1.975625 -3.1439977 -4.90815 -5.304309 -4.3376575 -1.3177266
-1.041129 -6.322184 -0.8730408 -6.2245026 -5.723217 -4.4909463 -1.6097502 -1.7460903
-4.8191414 -1.3894863 -7.1174717 -2.701988 -7.045435 -1.3813413 -0.42063764 -2.9880958

bn3.running_mean f4 [32]
00000000: 94ba 953d 8c94 f9be 174e 2cc0 87dd e8be
00000010: dad1 0f3d dc4a c2c0 fb7c 943e 3793 fd3c
00000020: 1e48 78bd f45b b4c0 eca4 8cc0 26e7 00bf
00000030: 951e 78c0 2ec7 acbe c2df 8c3a 70ff 423f
00000040: aef6 c93e ed9d 89c0 d187 3d3e f54e 3dc0
00000050: 443d 07c0 5390 a4c0 5f5f 3a3d 82bc 26be
00000060: b842 31c0 14b1 1b3e 3e00 75c0 8ed4 98be
00000070: 444b 823d 5195 01c1 d79f a1c0 e9e0 26bf
0.073109776 -0.48746145 -2.6922662 -0.45481512 0.03511224 -6.071638 0.29001603 0.030953987
-0.06061565 -5.6362247 -4.395132 -0.50352705 -3.8768666 -0.33745712 0.0010747837 0.76171017
0.39446014 -4.300528 0.18508841 -2.9579442 -2.1131144 -5.1426177 0.04550111 -0.16282848
-2.7696972 0.15204269 -3.8281398 -0.29849666 0.06362012 -8.098954 -5.0507617 -0.65186936

bn3.running_var f4 [32]
00000000: 7571 6625 f906 8027 9520 8243 90d8 6c27
00000010: 0400 0000 c5ba 5743 7571 6626 90d8 6c23
00000020: 9b71 a623 3b17 0743 3f31 ab43 0400 0000
00000030: 9e1a 0744 0400 0000 0400 0000 0400 0000
00000040: 7571 6626 7b49 5643 0400 0000 7ba8 f943
00000050: 55d3 b742 16db 8b43 0400 0000 0400 0000
00000060: 9ed5 2c43 7571 6626 8091 3443 7571 6627
00000070: f906 8024 fc5e d643 ea04 2843 5fe3 cc25
1.9987761e-16 3.5534697e-15 260.25455 3.2868978e-15 6e-45 215.72957 7.9951043e-16 1.28394445e-17
1.804587e-17 135.09074 342.38474 6e-45 540.4159 6e-45 6e-45 6e-45
7.9951043e-16 214.28703 6e-45 499.31625 91.91276 279.7116 6e-45 6e-45
172.83444 7.9951043e-16 180.56836 3.1980417e-15 5.5522963e-17 428.74207 168.0192 3.5542432e-16

conv4.bias f4 [32]
00000000: 5fc7 f2bd 0db1 173b 862a fabc b14c d7be
00000010: 193e 463d 7163 8bbe f485 73be 81ee 14be
00000020: cca4 98bd c626 78be 0b9a 4dbe eafc a1be
00000030: 40b9 503c 6f6c 88be 5c35 70be a0bf 803e
00000040: 33fa 9cbe 338f 21be b9fe d0bd b0cc be3d
00000050: 7b52 1cbe 25e4 8cbe 9952 66be 2f3f 8ebe
00000060: 9e60 88be 79ad fbbd 0b68 a2bd 32d8 04be
00000070: 1757 cd3e bc51 1cbc 1cfe 26bf 504a a0bd
-0.11854433 0.0023146302 -0.030537855 -0.42050698 0.048399065 -0.27224305 -0.23781568 -0.14544107
-0.074533075 -0.24233541 -0.20078294 -0.3163827 0.01273948 -0.26645228 -0.23457855 0.25146198
-0.30659637 -0.15777282 -0.102048345 0.09316385 -0.15265839 -0.2751781 -0.22492446 -0.2778258
-0.26636213 -0.12288947 -0.07930001 -0.12973097 0.40105507 -0.009540971 -0.6523149 -0.07826674

conv4.weight_orig f4 [32, 32, 3]
00000000: a029 4fbf 9f48 003d 0327 90be e965 ab3e
00000010: 6027 d4bc 4c2d 913d 47c3 d6be cbaa 95bb
00000020: 4d79 00be dc75 b5bd f417 b03e 2d5f 82be
00000030: e462 4dbf 8319 8cbe 6b2a c63e b224 9b3e
00000040: 2682 b3bf 923d 5d3f c9ab ed3e 8b85 e43e
00000050: 8688 e93e 34dc 0e3c d5e2 0dbe 3c58 a43e
00000060: cbf7 c43d 3911 0a3e 9701 4abe 0b1c 70bd
00000070: 08bc c3be a9de 163e a211 26bf 2fe2 a83e
00000080: 102a 04bc dff4 773e f117 d53d 9308 a3be
00000090: 16fc a33d dba1 a73e c218 8e3e 5d87 df3d
000000a0: 94d2 64be 6ab0 063f 64cf f63e b428 193f
000000b0: ae38 99bc 2839 5abd a1e2 94be 0bfe 6dbe
000000c0: 12de 863f dd0c 693e 4313 3fbe 730c b33e
000000d0: 8bbc 9c3c ffef a2be 0003 b63d 4d2b afbe
000000e0: 34a3 883e 51b6 a8bc af46 babe a18e 00be
000000f0: 2770 ecbd d2e4 0abf cc61 cc3e 7f17 7fbd
00000100: aa03 87be cb73 963e 70b2 81be 4803 22bf
00000110: 997c 40bf 0cb6 d83e 4a6d 5cbf 3e52 15bf
00000120: d361 a7bd 8e35 d4be 3697 b4be ebbe 8bbe
00000130: db61 323f b5dd 573f 8256 8ebd 0570 c9bd
00000140: a9b8 d8bd 73eb bc3e 2525 07bf 5670 b5be
00000150: 0ac8 29be f811 fc3e 5b67 e1be b985 3c3f
00000160: fcdb b33f dec3 b3bf 69ed ea3e 207b 2bbf
00000170: 9e24 c33a e3e5 7e3e 252a 5e3e da16 5cbe
00000180: d30d a6be 5caa 403d bea4 f0bd 8a9f 403f
00000190: f093 4dbe a0fb 8f3e 7308 2bbf 4134 93bd
000001a0: 3faf a23f 07e4 2abe e263 1fbf 84ad a23d
000001b0: 6ee3 7ebd 22f3 57be 85aa 693e d91b a43e
000001c0: afca 663f 810a 3c3e dc2c 293f 9abb 3abe
000001d0: a1be 5bbf 91e4 e03e d806 b6bd e761 193f
000001e0: aced 5bbf 88eb 2dbe 4947 cdbe f655 da3e
000001f0: e8b5 c6be 2ae5 88be 5667 15bf 2182 5c3d
00000200: 9b15 d33d 5b1c ad3e 3841 e03d b378 38bd
00000210: 8db8 c4be 302f 1cbc 1136 8bbf ff7e 783f
00000220: db7d 2b3f c09a efbe 479b df3c f3c8 f73e
00000230: 39f5 c53d 5028 15bf 1b18 4bbe cd1c 20bf
00000240: c622 4f3f 54a5 403f 8a23 c6be 9ffe 343f
00000250: 1042 fbbe 59a5 a63d dc8d 553e cd75 3f3e
00000260: b517 a7bf 2d6a 113f 7807 f3be d103 1abf
00000270: aad0 573f f955 173f 3b88 70bf 2159 bdbe
00000280: d38e f03d bbb1 09be d404 ab3e 1e6e 0abe
00000290: d594 453d ec03 05bf 649a b93d 9b0e 323f
000002a0: 37ec 543e 6d7f 4f3f ffd5 c83e 8a3b bc3d
000002b0: 2fe5 f03c e060 eebe 9fe1 803e f86d 8d3d
000002c0: c1ca 0abe cb21 973e 8b32 aebe accd 5dbe
000002d0: a1fd 92bf 94a9 8ebf 026a 713e 13b3 e6bd
000002e0: 16f6 0e3f 1268 053f 3796 be3e 5bbc c6bd
000002f0: 54e3 803f 3ce1 eb3d 8374 883e 2889 c2bd
00000300: 93bc 28bf e6b0 cbbe f1ff 11be 003e a0be
00000310: ebcb 17bc 5f17 c4be 8f66 fd3e 011a 063e
00000320: 6faf a23e 8d7f 9abe 7b0c 7cbe c268 983b
00000330: 90dd 8fbe 04d7 b1be 859e 4cbd 4919 9cbf
00000340: f4c9 fcbd 65e3 c43f 6e35 363f 27f6 233f
00000350: f0da 763e 954a cd3e 3121 f73d 706b a63a
00000360: a3e6 26bf 7eaf 2abf f53f 133e 7c12 e93e
00000370: bd77 a63e 2c10 e73e 0d93 99be f062 af3e
00000380: b4ba 6b3e bb9c 17bf e3ae 663e 48f5 623e
00000390: bed8 70bf 1f16 a13e 8e95 03be a168 213e
000003a0: 59a8 52be 7f33 dbbd a281 d1bb 7a2f ca3e
000003b0: 12f1 14be 41a2 a13d 34c0 95bd 009c a2be
000003c0: e146 af3e 7727 6fbf 7120 ba3d 8bff d03f
000003d0: 5230 33bf 527e b3be 592b ad3e 6df3 2f3e
000003e0: 24b1 9f3d 958a 0e3e b068 803e 2424 c8be
000003f0: 58c6 9a3e 5a54 823e db9f b1be 995d 103e
-0.8092289 0.031319257 -0.28154764 0.3347619 -0.025897682 0.07088718 -0.4194586 -0.0045674792
-0.12546273 -0.088603705 0.34393275 -0.25463238 -0.8022902 -0.27363214 0.38704237 0.30301434
-1.4024093 0.86422074 0.46420124 0.44633135 0.45611972 0.008719493 -0.13856061 0.32098567
0.09617575 0.13483132 -0.19727169 -0.058620494 -0.38229394 0.14733376 -0.64870656 0.32985064
-0.008066669 0.24214505 0.10404957 -0.3184248 0.08007066 0.32740673 0.27753264 0.1091449
-0.22345954 0.52612936 0.482051 0.59827733 -0.018703785 -0.053277165 -0.29079154 -0.23241441
1.053652 0.22758813 -0.18659692 0.34970436 0.019132873 -0.31823727 0.08887291 -0.34212723
0.26687014 -0.020594748 -0.36382052 -0.12554409 -0.11544829 -0.542554 0.39918363 -0.062278267
-0.26369983 0.29385218 -0.2533145 -0.63286257 -0.7519012 0.4232639 -0.8610426 -0.58328617
-0.08172955 -0.4144711 -0.35271615 -0.27294096 0.69680566 0.84322673 -0.06950094 -0.09835819
-0.10582096 0.36898383 -0.52791053 -0.35437268 -0.16580215 0.4923246 -0.44024166 0.73641545
1.4051509 -1.4044149 0.45884255 -0.6698475 0.0014888232 0.24892382 0.21695764 -0.21493092
-0.32432422 0.047037467 -0.11750172 0.7524344 -0.20075965 0.28121662 -0.6680977 -0.07187701
1.2709731 -0.16688548 -0.62261784 0.07943252 -0.062228613 -0.21088842 0.22818954 0.32052496
0.9015302 0.18363382 0.66084075 -0.18235627 -0.8583775 0.43924382 -0.08888024 0.5991501
-0.85909534 -0.1698438 -0.4009345 0.42643708 -0.38810658 -0.26737338 -0.58360803 0.053835038
0.10306855 0.33810696 0.109499395 -0.045036983 -0.3842205 -0.009532735 -1.0875875 0.9706878
0.66988915 -0.46797752 0.027295722 0.483955 0.09665913 -0.58264637 -0.19833414 -0.62543947
0.80912435 0.7525227 -0.3869899 0.7070102 -0.4907384 0.08137006 0.20854896 0.18697281
-1.305411 0.56802636 -0.47466636 -0.60162073 0.8430277 0.5911556 -0.9395787 -0.36982062
0.117459916 -0.13446705 0.3340212 -0.13518569 0.04823764 -0.5195911 0.09062651 0.69553536
0.20793234 0.8105381 0.39225766 0.09191044 0.029406158 -0.46558285 0.25172135 0.069057405
-0.13553907 0.2951797 -0.34022936 -0.21660489 -1.1483651 -1.1145501 0.23575595 -0.112646244
0.5584425 0.52111924 0.3722398 -0.09703895 1.0069375 0.115175694 0.2665139 -0.09498817
-0.6591274 -0.397834 -0.1425779 -0.31297302 -0.009264926 -0.3829908 0.49492308 0.13095857
0.3177447 -0.3017544 -0.24614136 0.00465116 -0.28098726 -0.34734356 -0.049955864 -1.2195216
-0.12343207 1.5381895 0.7117528 0.64047474 0.24106956 0.40095964 0.12066878 0.0012696814
-0.65195674 -0.6667403 0.14379866 0.45521915 0.32513228 0.45129526 -0.29995003 0.3425517
0.2302044 -0.59223527 0.22527651 0.2216388 -0.9408072 0.3146219 -0.1285002 0.15762569
-0.20572032 -0.107031815 -0.0063936273 0.39489347 -0.14545086 0.078922756 -0.073120505 -0.31759644
0.34233764 -0.93419594 0.09088219 1.6327986 -0.69995606 -0.35057312 0.33822134 0.17182703
0.07797459 0.13920052 0.2507987 -0.39090073 0.3022945 0.2545498 -0.34692273 0.14098205

conv4.weight_mask f4 [32, 32, 3]
00000000: 0000 803f 0000 803f 0000 803f 0000 803f
00000010: 0000 803f 0000 803f 0000 803f 0000 803f
00000020: 0000 803f 0000 803f 0000 803f 0000 803f
00000030: 0000 803f 0000 803f 0000 803f 0000 803f
00000040: 0000 803f 0000 803f 0000 803f 0000 803f
00000050: 0000 803f 0000 803f 0000 803f 0000 803f
00000060: 0000 803f 0000 803f 0000 803f 0000 803f
00000070: 0000 803f 0000 803f 0000 803f 0000 803f
00000080: 0000 803f 0000 803f 0000 803f 0000 803f
00000090: 0000 803f 0000 803f 0000 803f 0000 803f
000000a0: 0000 803f 0000 803f 0000 803f 0000 803f
000000b0: 0000 803f 0000 803f 0000 803f 0000 803f
000000c0: 0000 803f 0000 803f 0000 803f 0000 803f
000000d0: 0000 803f 0000 803f 0000 803f 0000 803f
000000e0: 0000 803f 0000 803f 0000 803f 0000 803f
000000f0: 0000 803f 0000 803f 0000 803f 0000 803f
00000100: 0000 803f 0000 803f 0000 803f 0000 803f
00000110: 0000 803f 0000 803f 0000 803f 0000 803f
00000120: 0000 803f 0000 803f 0000 803f 0000 803f
00000130: 0000 803f 0000 803f 0000 803f 0000 803f
00000140: 0000 803f 0000 803f 0000 803f 0000 803f
00000150: 0000 803f 0000 803f 0000 803f 0000 803f
00000160: 0000 803f 0000 803f 0000 803f 0000 803f
00000170: 0000 803f 0000 803f 0000 803f 0000 803f
00000180: 0000 803f 0000 803f 0000 803f 0000 803f
00000190: 0000 803f 0000 803f 0000 803f 0000 803f
000001a0: 0000 803f 0000 803f 0000 803f 0000 803f
000001b0: 0000 803f 0000 803f 0000 803f 0000 803f
000001c0: 0000 803f 0000 803f 0000 803f 0000 803f
000001d0: 0000 803f 0000 803f 0000 803f 0000 803f
000001e0: 0000 803f 0000 803f 0000 803f 0000 803f
000001f0: 0000 803f 0000 803f 0000 803f 0000 803f
00000200: 0000 803f 0000 803f 0000 803f 0000 803f
00000210: 0000 803f 0000 803f 0000 803f 0000 803f
00000220: 0000 803f 0000 803f 0000 803f 0000 803f
00000230: 0000 803f 0000 803f 0000 803f 0000 803f
00000240: 0000 803f 0000 803f 0000 803f 0000 803f
00000250: 0000 803f 0000 803f 0000 803f 0000 803f
00000260: 0000 803f 0000 803f 0000 803f 0000 803f
00000270: 0000 803f 0000 803f 0000 803f 0000 803f
00000280: 0000 803f 0000 803f 0000 803f 0000 803f
00000290: 0000 803f 0000 803f 0000 803f 0000 803f
000002a0: 0000 803f 0000 803f 0000 803f 0000 803f
000002b0: 0000 803f 0000 803f 0000 803f 0000 803f
000002c0: 0000 803f 0000 803f 0000 803f 0000 803f
000002d0: 0000 803f 0000 803f 0000 803f 0000 803f
000002e0: 0000 803f 0000 803f 0000 803f 0000 803f
000002f0: 0000 803f 0000 803f 0000 803f 0000 803f
00000300: 0000 803f 0000 803f 0000 803f 0000 803f
00000310: 0000 803f 0000 803f 0000 803f 0000 803f
00000320: 0000 803f 0000 803f 0000 803f 0000 803f
00000330: 0000 803f 0000 803f 0000 803f 0000 803f
00000340: 0000 803f 0000 803f 0000 803f 0000 803f
00000350: 0000 803f 0000 803f 0000 803f 0000 803f
00000360: 0000 803f 0000 803f 0000 803f 0000 803f
00000370: 0000 803f 0000 803f 0000 803f 0000 803f
00000380: 0000 803f 0000 803f 0000 803f 0000 803f
00000390: 0000 803f 0000 803f 0000 803f 0000 803f
000003a0: 0000 803f 0000 803f 0000 803f 0000 803f
000003b0: 0000 803f 0000 803f 0000 803f 0000 803f
000003c0: 0000 803f 0000 803f 0000 803f 0000 803f
000003d0: 0000 803f 0000 803f 0000 803f 0000 803f
000003e0: 0000 803f 0000 803f 0000 803f 0000 803f
000003f0: 0000 803f 0000 803f 0000 803f 0000 803f
1.0 1.0 1.0 1.0 1.0 1.0 1.0 1.0
1.0 1.0 1.0 1.0 1.0 1.0 1.0 1.0
1.0 1.0 1.0 1.0 1.0 1.0 1.0 1.0
1.0 1.0 1.0 1.0 1.0 1.0 1.0 1.0
1.0 1.0 1.0 1.0 1.0 1.0 1.0 1.0
1.0 1.0 1.0 1.0 1.0 1.0 1.0 1.0
1.0 1.0 1.0 1.0 1.0 1.0 1.0 1.0
1.0 1.0 1.0 1.0 1.0 1.0 1.0 1.0
1.0 1.0 1.0 1.0 1.0 1.0 1.0 1.0
1.0 1.0 1.0 1.0 1.0 1.0 1.0 1.0
1.0 1.0 1.0 1.0 1.0 1.0 1.0 1.0
1.0 1.0 1.0 1.0 1.0 1.0 1.0 1.0
1.0 1.0 1.0 1.0 1.0 1.0 1.0 1.0
1.0 1.0 1.0 1.0 1.0 1.0 1.0 1.0
1.0 1.0 1.0 1.0 1.0 1.0 1.0 1.0
1.0 1.0 1.0 1.0 1.0 1.0 1.0 1.0
1.0 1.0 1.0 1.0 1.0 1.0 1.0 1.0
1.0 1.0 1.0 1.0 1.0 1.0 1.0 1.0
1.0 1.0 1.0 1.0 1.0 1.0 1.0 1.0
1.0 1.0 1.0 1.0 1.0 1.0 1.0 1.0
1.0 1.0 1.0 1.0 1.0 1.0 1.0 1.0
1.0 1.0 1.0 1.0 1.0 1.0 1.0 1.0
1.0 1.0 1.0 1.0 1.0 1.0 1.0 1.0
1.0 1.0 1.0 1.0 1.0 1.0 1.0 1.0
1.0 1.0 1.0 1.0 1.0 1.0 1.0 1.0
1.0 1.0 1.0 1.0 1.0 1.0 1.0 1.0
1.0 1.0 1.0 1.0 1.0 1.0 1.0 1.0
1.0 1.0 1.0 1.0 1.0 1.0 1.0 1.0
1.0 1.0 1.0 1.0 1.0 1.0 1.0 1.0
1.0 1.0 1.0 1.0 1.0 1.0 1.0 1.0
1.0 1.0 1.0 1.0 1.0 1.0 1.0 1.0
1.0 1.0 1.0 1.0 1.0 1.0 1.0 1.0

conv4._weight_quantizer._amax f4 [32, 1, 1]
00000000: ed79 b33f b517 a73f 1bea d03f 556c 9b3f
00000010: 579d 973f 2b6a 9c3f cb80 ce3f b800 0440
00000020: 62b8 9d3f 7236 9c3f 99c2 c63f 25c3 953f
00000030: 2a49 8c3f de61 c93f dc30 ef3f b03a e73f
00000040: 4345 f73f b740 cb3f ab69 0340 267c 8c3f
00000050: 2dcd ea3f 3f86 c13f 7c39 b53f f4b1 9a3f
00000060: 28aa e83f 481c aa3f 2b55 8a3f 504a b53f
00000070: a955 d33f cfd9 ab3f 3d1d 1040 f59b ba3f
1.4021584 1.305411 1.6321443 1.2142435 1.1844891 1.22199 1.6133054 2.0625439
1.2321894 1.2204115 1.5528136 1.1700178 1.0959828 1.5732992 1.8686786 1.8064785
1.9318012 1.5879124 2.0533245 1.0975387 1.8343865 1.5119094 1.4158168 1.2085557
1.8176928 1.3289881 1.0807241 1.4163303 1.6510516 1.3425845 2.2517846 1.4578844

bn4.weight f4 [32]
00000000: 39bf f240 c291 0041 afec d640 ad33 d040
00000010: e0d5 f040 fbc9 c640 c599 f540 a565 d940
00000020: cf73 cf40 b962 d840 54d6 eb40 2929 1741
00000030: a22e e840 b000 0c41 e1e8 ef40 0a52 cf40
00000040: 1edf 0a41 4918 c840 80c9 0441 4890 0441
00000050: 2c9a ca40 697e c540 78c1 db40 6ad9 cc40
00000060: ba90 e040 f4c9 e340 4616 eb40 f1e6 f340
00000070: 3538 f540 f81e fb40 c2c6 0441 9980 0841
7.5858426 8.035585 6.716392 6.506308 7.526108 6.212156 7.6750207 6.793658
6.482887 6.762051 7.369913 9.447549 7.2556925 8.750168 7.4971776 6.4787645
8.679472 6.2529645 8.299194 8.285225 6.33132 6.171681 6.867367 6.40154
7.017667 7.1184025 7.346469 7.621941 7.663111 7.8475304 8.298525 8.531396

bn4.bias f4 [32]
00000000: a079 0fbf 33c4 0ac0 9220 fabf 1f8f 93be
00000010: 79ed 31c0 a538 04c0 20b0 24c0 a11d 91be
00000020: 0281 c7bf 9f71 acbf 9d77 21be aea2 f5bf
00000030: 7b2d 0a3f 3d88 35bf ebfd dfbd 0276 9fbf
00000040: 2135 ad3e 746a d8bf 8ad0 27c0 a780 443d
00000050: 3d60 c7bf 47ea 0fc0 d1b2 eebf adcb c43f
00000060: 19a7 efbd f1cb 9f3f ae2c efbf 98d7 b13e
00000070: a1f3 3b3f 4240 193e 066a 5fc0 5fc9 c2be
-0.5604496 -2.168225 -1.954119 -0.2882013 -2.7801192 -2.0659573 -2.5732498 -0.28342918
-1.5586245 -1.3472174 -0.15768285 -1.9190271 0.5397565 -0.7091101 -0.10937103 -1.2457888
0.33829597 -1.6907487 -2.6221032 0.047974255 -1.5576245 -2.2486742 -1.864832 1.5374657
-0.11701793 1.2484113 -1.868551 0.34734797 0.73418623 0.14965919 -3.4908462 -0.3804426

bn4.running_mean f4 [32]
00000000: 7264 44bf a94c 2740 d6ad 0840 c281 683f
00000010: 4c2e 613f f5ae 0d3f f418 bebe ac58 ba3f
00000020: 9777 ee3f 5d94 b2be 75c0 0e3e 2c04 39bf
00000030: 6a22 8f3c 61ee 6a3f f082 79bf c270 003f
00000040: eaf9 8bbe 1f74 d93e 4009 ae3f 86ff 90bd
00000050: 084d babd c0c2 c9bf 7782 4fbe 4855 93bd
00000060: 25cb abbf 6f0c 133e 6b64 1040 5434 a9be
00000070: 9514 213f a3a3 6dbe 085f 17c0 9414 343f
-0.7671577 2.614054 2.13561 0.90822995 0.8796127 0.5534509 -0.37128413 1.455831
1.8630246 -0.34878817 0.13940604 -0.7227199 0.017472465 0.9176999 -0.9746542 0.50172055
-0.27339107 0.42471406 1.3596573 -0.07079987 -0.09096724 -1.5762558 -0.20264612 -0.071940005
-1.342137 0.14360212 2.256129 -0.33047736 0.6292203 -0.23206954 -2.3651752 0.703439

bn4.running_var f4 [32]
00000000: 543b bb41 ef7a 2f42 c063 0842 8f82 9341
00000010: 6079 a141 9057 0c42 c11f 2842 e3bc 3342
00000020: 85a2 3842 6467 7141 f82e 2042 dfd4 f241
00000030: 3c77 2542 12e9 8d42 4bad 1a42 61fd 2142
00000040: 036b f641 6056 1342 2a70 2942 7e32 3542
00000050: 7be8 0c42 2872 0a42 4111 0542 e170 ae41
00000060: 8c88 1542 5cf9 f141 795b f941 5ae1 d441
00000070: 0a77 9a41 8238 ea41 524d 0142 050f 2442
23.403969 43.870052 34.097412 18.43875 20.184265 35.08551 42.03101 44.93446
46.15871 15.087742 40.045868 30.353941 41.36644 70.955215 38.66923 40.49744
30.802252 36.83435 42.359535 45.29931 35.22703 34.61148 33.26685 21.805117
37.383347 30.246758 31.169664 26.610035 19.308125 29.277592 32.32551 41.014668

conv5.bias f4 [20]
00000000: 2408 313f 6213 c43d fef3 96bf 3b5d 713f
00000010: 0518 123d 95e0 173d 8ce4 163e da08 c8bf
00000020: b970 9fbf 6364 f03e 8ed3 e53f e6a2 963e
00000030: fdfe f5bf c35c 43bf afa2 07bf eb07 11bf
00000040: fab9 43bf c6ac ad3f ba99 433d 9016 efbe
0.69153047 0.095740095 -1.179321 0.94282883 0.035667438 0.037079412 0.14735621 -1.5627701
-1.2456275 0.4695159 1.7955186 0.29421157 -1.9218441 -0.7631342 -0.5298261 -0.56652707
-0.7645565 1.3568351 0.047754027 -0.466969
