networks/quantized_models/ustc-tfc2016/model.onnx (onnx, 37974 bytes, 26 tensors)

conv1.bias f4 [16]
0	0xbdb51560	-0.088419676
1	0xbf3a1d54	-0.72701
2	0x3d90b8d4	0.07066503
3	0x3f19adbd	0.6003073
4	0xbd1c0c15	-0.03809746
5	0x3deea761	0.11653019
6	0xbe5cd328	-0.21564925
7	0x3d121765	0.035666842
8	0xbf9a158d	-1.2037827
9	0x3fae3ffc	1.3613276
10	0x40101697	2.2513788
11	0x3d4cf972	0.050042577
12	0x3f251ad8	0.64494085
13	0xbfaff729	-1.3747302
14	0x3e2fbd59	0.17162074
15	0x4035a239	2.8380263

conv1.weight f4 [16, 1, 3]
0	0xbf44abf2	-0.7682487
1	0xbec21d3a	-0.37912923
2	0xbf000554	-0.5000813
3	0xbcde133d	-0.027108783
4	0xbfe3a79c	-1.7785525
5	0xbfe3a19e	-1.7783697
6	0xbf12c5e8	-0.5733323
7	0xbe945c04	-0.28976452
8	0x3df7041f	0.12061333
9	0xbf849162	-1.0356867
10	0x3ec26262	0.37965685
11	0x3d1493fa	0.036273934
12	0x3f4cdd2f	0.80025
13	0x3f4c51b0	0.79812145
14	0x3c28389e	0.010267405
15	0x3f36e52e	0.7144345
16	0x3ca699b1	0.020336958
17	0xbf48b1b5	-0.7839616
18	0x3e524315	0.20533402
19	0x3d740bbf	0.059581514
20	0xc0420d33	-3.0320556
21	0xbfb29974	-1.395308
22	0xbec4896a	-0.3838609
23	0x3d8f65b3	0.070018195
24	0xc08d040d	-4.4067445
25	0x3e2efa25	0.1708761
26	0x3d92edb9	0.07174248
27	0xbf1c78e2	-0.6112195
28	0x3f21ac64	0.6315367
29	0x3f2053ae	0.62627685
30	0x3f3b50b1	0.7317
31	0x3eeeab78	0.46615195
32	0xbd863341	-0.06552745
33	0xbdb1b1d9	-0.086765
34	0xbfa54781	-1.2912446
35	0x3e7a013d	0.24414535
36	0x3dd426a6	0.10358934
37	0x3c3a904d	0.011386943
38	0x3f5bbd52	0.85835755
39	0xbdba851f	-0.09107422
40	0x3eb95e33	0.3620468
41	0x3fa11eb6	1.2587497
42	0x3e2ac2bf	0.16675852
43	0xbf4bdd55	-0.796346
44	0xbf4c984f	-0.79919904
45	0x3e23e2c2	0.1600447
46	0xbe5ff9f5	-0.21872695
47	0x3f763a1a	0.96182406

bn1.weight f4 [16]
0	0x40c3b61b	6.1159797
1	0x40edeb9e	7.435012
2	0x3fbb4651	1.4630834
3	0x40823290	4.068672
4	0x3fc68ed9	1.5512344
5	0x3f7707eb	0.96496457
6	0x403d0c76	2.9538856
7	0x40833550	4.100258
8	0x407a177b	3.9076831
9	0x3f6f8e30	0.93576336
10	0x3ff83017	1.9389676
11	0x4085e0ea	4.1837053
12	0x3fa9c375	1.3262774
13	0x3fd83fac	1.6894431
14	0x40be1188	5.93964
15	0x3f99d9f1	1.2019635

bn1.bias f4 [16]
0	0xbee2a525	-0.4426662
1	0x3f2499c1	0.6429711
2	0x3ffc6090	1.9716969
3	0xbfebb1cb	-1.8413633
4	0x3f9c72f0	1.2222576
5	0x3fabdc27	1.342656
6	0xbea3afa6	-0.31969947
7	0x3fa0b1ab	1.255422
8	0xbf5f9217	-0.8733229
9	0xbecc0875	-0.39850202
10	0xbfb32715	-1.3996302
11	0xbf161cff	-0.58637995
12	0x401a02ca	2.4064202
13	0xc0032746	-2.049272
14	0xc008cd4d	-2.1375306
15	0xbf910442	-1.1329424

bn1.running_mean f4 [16]
0	0xbe920ac0	-0.28523827
1	0xbf93efa6	-1.155751
2	0xbc8f99b3	-0.017529344
3	0x3f06289f	0.5240573
4	0x3e1cdd61	0.15318824
5	0x3de62862	0.11238171
6	0xbf0b50e9	-0.54420334
7	0xbe2cb115	-0.16864426
8	0xbfd9a9ba	-1.7004921
9	0x3fb78e74	1.4340348
10	0x4018ca80	2.3873596
11	0xbdaf95c9	-0.08573491
12	0x3f42e117	0.7612471
13	0xbf98927f	-1.1919707
14	0x3a977146	0.0011554144
15	0x403c8479	2.9455855

bn1.running_var f4 [16]
0	0x3e10fd72	0.14159182
1	0x3f345794	0.70446134
2	0x3d0658d7	0.032799568
3	0x3d2a5ec7	0.041594293
4	0x3e0fdf42	0.1405001
5	0x3cafdf77	0.021468861
6	0x3f04fda6	0.51949537
7	0x3e30bef1	0.17260338
8	0x3f93c334	1.1543946
9	0x3d1cb150	0.038255036
10	0x3d95c0dd	0.073121764
11	0x3dbb7b87	0.0915442
12	0x3d6a1489	0.05714849
13	0x3e0e492e	0.13895103
14	0x3def75f8	0.11692423
15	0x3d640f5d	0.055678714

conv2.bias f4 [16]
0	0x406f9f21	3.7440875
1	0xc0996f3e	-4.7948294
2	0x3ff1702f	1.8862361
3	0x3f7f445f	0.997137
4	0xc0b4b0a9	-5.646565
5	0xc03c1ae3	-2.939141
6	0x40537d32	3.3045163
7	0x3f7153b3	0.9426834
8	0xc08ecedc	-4.4627514
9	0x4059588e	3.39603
10	0x3f9be991	1.2180654
11	0xbe69dac1	-0.22837354
12	0xc0876b7c	-4.2318707
13	0x3f7b3f50	0.9814348
14	0x3e78cb42	0.24296287
15	0xbee7a4b9	-0.4524286

conv2.weight f4 [16, 16, 3]
0	0x00000000	0.0
1	0x80000000	-0.0
2	0x80000000	-0.0
3	0x00000000	0.0
4	0x00000000	0.0
5	0x80000000	-0.0
6	0x00000000	0.0
7	0x00000000	0.0
8	0x00000000	0.0
9	0x00000000	0.0
10	0x80000000	-0.0
11	0x00000000	0.0
12	0x80000000	-0.0
13	0x80000000	-0.0
14	0x00000000	0.0
15	0x00000000	0.0
16	0x00000000	0.0
17	0x80000000	-0.0
18	0x80000000	-0.0
19	0x80000000	-0.0
20	0x00000000	0.0
21	0x80000000	-0.0
22	0x80000000	-0.0
23	0x00000000	0.0
24	0x80000000	-0.0
25	0x80000000	-0.0
26	0x00000000	0.0
27	0x00000000	0.0
28	0x00000000	0.0
29	0x00000000	0.0
30	0x00000000	0.0
31	0x80000000	-0.0
32	0x00000000	0.0
33	0x00000000	0.0
34	0x00000000	0.0
35	0x80000000	-0.0
36	0x00000000	0.0
37	0x00000000	0.0
38	0x80000000	-0.0
39	0x80000000	-0.0
40	0x80000000	-0.0
41	0x00000000	0.0
42	0x00000000	0.0
43	0x00000000	0.0
44	0x00000000	0.0
45	0x80000000	-0.0
46	0x80000000	-0.0
47	0x00000000	0.0
48	0x3f285580	0.6575546
49	0xbe96a2e4	-0.2942115
50	0xbd2e49f0	-0.04255098
51	0xbee8d7bc	-0.45477092
52	0x3e830c60	0.2559538
53	0xbe01dd84	-0.12682158
54	0xbfcb1578	-1.5865927
55	0x3eebb203	0.4603425
56	0x3e4617d7	0.19345032
57	0x3e8ade75	0.27122846
58	0x3e11facc	0.14255828
59	0x3d045e9d	0.032316793
60	0xbf90fd6a	-1.1327336
61	0x3e8caf14	0.27477324
62	0xbc9d6337	-0.019212348
63	0xbea4d290	-0.32191896
64	0xbe76ab20	-0.24088717
65	0x3d4ae014	0.049530104
66	0xbf90d9e4	-1.1316495
67	0xbe990bbc	-0.29891765
68	0xbec434dd	-0.3832158
69	0xc01b130c	-2.4230375
70	0x3dc9c8a2	0.09852721
71	0x3ea1553c	0.3151034
72	0xbf1aa1fe	-0.6040343
73	0x3edf92dc	0.43666732
74	0x3ea4ec23	0.32211408
75	0xbe8d9c26	-0.27658194
76	0x3cf83f93	0.030303752
77	0x3eb02e7e	0.3441047
78	0x3fac1150	1.3442783
79	0xbe84c369	-0.25930336
80	0xbe61d92c	-0.22055501
81	0x3f7a3c27	0.97748035
82	0xbea3bca3	-0.31979856
83	0xba51e13a	-0.00080062787
84	0xbfc52aef	-1.5403727
85	0xbd30c3ec	-0.043155596
86	0xbe2e559a	-0.17024842
87	0x3f85aa93	1.044268
88	0x3e0d67e3	0.13809161
89	0xbe38dc7c	-0.18052858
90	0xbff2d4f4	-1.8971238
91	0x3e12f761	0.1435218
92	0xbe26eeb5	-0.16301997
93	0x3f3d743d	0.7400549
94	0x3de31e4e	0.110897645
95	0x3e2300e9	0.15918316
96	0x400e84fa	2.2268662
97	0x3e5670f0	0.2094152
98	0x3e5f4387	0.21803103
99	0x3f8554cd	1.0416504
100	0xbe45c5b6	-0.19313702
101	0xbe070878	-0.13186824
102	0xbe869831	-0.26287988
103	0x3ea731af	0.32655093
104	0xbc2532cf	-0.0100829145
105	0x3f1457dc	0.5794656
106	0xc00e5073	-2.2236602
107	0x3c74c97e	0.014940618
108	0x3d9a891e	0.07545684
109	0x3e8a693d	0.27033415
110	0x3f731b6b	0.9496371
111	0xbee02132	-0.43775326
112	0x3ddf3756	0.10899226
113	0x3e4f5ebb	0.2025098
114	0xbfa36434	-1.2764955
115	0xbf641af3	-0.8910362
116	0xbd1afef9	-0.037840817
117	0xbe9187ce	-0.28423923
118	0x3e8478b2	0.25873333
119	0x3eb11b68	0.34591222
120	0xbd382228	-0.04495445
121	0xbf7213dd	-0.9456156
122	0x3f2d7915	0.6776288
123	0xbf4d8e65	-0.802954
124	0xbe454ee9	-0.19268383
125	0x3e30287d	0.17202945
126	0xbd094912	-0.03351695
127	0x3eda26e3	0.42607793
128	0xbf2c8bba	-0.67400706
129	0x3eb56d4b	0.35434946
130	0x3e56faf5	0.2099417
131	0xbe8b5514	-0.27213347
132	0x3f89f318	1.0777311
133	0xbf1de74c	-0.61681056
134	0x3ebb83db	0.36624035
135	0xbe759827	-0.23983823
136	0x3e1f3476	0.15547356
137	0xbed3edb0	-0.4139228
138	0x3ecc2555	0.39872232
139	0x3e0bb95a	0.13644925
140	0x3e4636b8	0.19356811
141	0xbfc5f10f	-1.546419
142	0x3e8e4c70	0.27792692
143	0x3dc0b78d	0.094100095
144	0x80000000	-0.0
145	0x80000000	-0.0
146	0x00000000	0.0
147	0x00000000	0.0
148	0x80000000	-0.0
149	0x00000000	0.0
150	0x80000000	-0.0
151	0x00000000	0.0
152	0x80000000	-0.0
153	0x00000000	0.0
154	0x00000000	0.0
155	0x80000000	-0.0
156	0x00000000	0.0
157	0x00000000	0.0
158	0x00000000	0.0
159	0x80000000	-0.0
160	0x00000000	0.0
161	0x00000000	0.0
162	0x00000000	0.0
163	0x80000000	-0.0
164	0x80000000	-0.0
165	0x00000000	0.0
166	0x80000000	-0.0
167	0x80000000	-0.0
168	0x80000000	-0.0
169	0x80000000	-0.0
170	0x80000000	-0.0
171	0x00000000	0.0
172	0x00000000	0.0
173	0x00000000	0.0
174	0x80000000	-0.0
175	0x80000000	-0.0
176	0x80000000	-0.0
177	0x80000000	-0.0
178	0x80000000	-0.0
179	0x00000000	0.0
180	0x80000000	-0.0
181	0x00000000	0.0
182	0x00000000	0.0
183	0x80000000	-0.0
184	0x80000000	-0.0
185	0x80000000	-0.0
186	0x00000000	0.0
187	0x00000000	0.0
188	0x00000000	0.0
189	0x00000000	0.0
190	0x00000000	0.0
191	0x80000000	-0.0
192	0x3fd15f25	1.6357161
193	0xbfdf456d	-1.7443062
194	0xbf148dbf	-0.5802879
195	0x3fcfe3f0	1.6241436
196	0xbf33b7fa	-0.702026
197	0xbe9f5d45	-0.31125847
198	0xbe31b5be	-0.17354485
199	0xbf0eaf3f	-0.55736154
200	0xbd33f25b	-0.0439323
201	0x3dcaf86d	0.09910665
202	0x3f15b41c	0.5847795
203	0xbf043a6a	-0.5165163
204	0xbe6edc75	-0.23326285
205	0x3ddfd84b	0.109299265
206	0xbdd0e851	-0.10200561
207	0xbe80b291	-0.25136235
208	0xbebe7446	-0.37198085
209	0x3e7ce024	0.24694878
210	0xbf7b2188	-0.9809804
211	0x3f8d8486	1.1056068
212	0xbf8eb83c	-1.1149974
213	0x3d818279	0.06323714
214	0xbf3192b1	-0.6936446
215	0xbec6b3c8	-0.38809037
216	0xbea2d107	-0.318001
217	0xbf2c3ffa	-0.6728512
218	0x3e98db43	0.29854783
219	0x3f83b74d	1.0290314
220	0xbd427190	-0.047471583
221	0xbe9fa896	-0.31183308
222	0xbecc793a	-0.3993624
223	0xbf6df39c	-0.92949843
224	0x3ebe4ffe	0.37170404
225	0x3ec0c007	0.37646505
226	0x3f8f90d6	1.1216075
227	0x3f911b2c	1.1336417
228	0x3f0924cd	0.5357178
229	0x3f9064ef	1.1280802
230	0x3f4d93ec	0.80303836
231	0x3ec62fd6	0.3870837
232	0xbf197b0c	-0.5995338
233	0xbed2aba1	-0.41146567
234	0xbf51a9a3	-0.8189947
235	0xbef7b9c3	-0.48383912
236	0x3f789d63	0.97115153
237	0xbf3c3207	-0.73513836
238	0xbeccd0c0	-0.40003014
239	0xbe92b0b6	-0.28650445
240	0xbf88b094	-1.0678887
241	0x3e8f720a	0.28016692
242	0xbe921075	-0.2852818
243	0x3e609188	0.21930516
244	0xbe1bdeb3	-0.15221672
245	0x3d81dbc2	0.063407436
246	0xbe28a015	-0.16467316
247	0xbdd0a546	-0.101877734
248	0x3e633f23	0.22192053
249	0x401b1a30	2.4234734
250	0xbdf11e7c	-0.117733926
251	0xbd816536	-0.063181326
252	0x3f72bd4a	0.9482008
253	0xbf80d8ea	-1.0066197
254	0xbe3e73bc	-0.18598837
255	0x3ea19a33	0.31562957

bn2.weight f4 [16]
0	0x40944a9c	4.6341076
1	0x40b2325e	5.5686483
2	0x411dcdaa	9.862711
3	0x408aaab4	4.333338
4	0x408d7a46	4.421176
5	0x406e30c7	3.7217271
6	0x410e7c2c	8.905315
7	0x41278425	10.469762
8	0x4085946b	4.1743674
9	0x407f705d	3.991233
10	0x4133c89d	11.236478
11	0x41126fc3	9.152286
12	0x40995486	4.791568
13	0x41156890	9.338028
14	0x412197b4	10.099537
15	0x4108760b	8.528819

bn2.bias f4 [16]
0	0xbf867ff9	-1.0507804
1	0x3f1f09a7	0.62124103
2	0xc0332927	-2.7993867
3	0xc0fdd81a	-7.9326296
4	0xbce8b2a7	-0.0284055
5	0x4004fefa	2.0780625
6	0xc0cb893f	-6.3605037
7	0xc1069c94	-8.413227
8	0xbf9b5d52	-1.2137854
9	0xbfea0d08	-1.8285227
10	0xbfc31b39	-1.5242683
11	0xbef9125d	-0.48646823
12	0x3fa78620	1.3087807
13	0x3d6ef30f	0.058337267
14	0xbf885700	-1.065155
15	0x4036948c	2.8528166

bn2.running_mean f4 [16]
0	0x406f9f21	3.7440875
1	0xc19ca768	-19.581741
2	0x413663b3	11.399341
3	0x3f7f4460	0.99713707
4	0xc06b27ff	-3.6743162
5	0xc1229428	-10.161171
6	0x41208808	10.033211
7	0x40481308	3.1261616
8	0x4116aea4	9.417637
9	0x4142e360	12.180511
10	0x3f9be992	1.2180655
11	0xbe69dac2	-0.22837356
12	0xbe9f91ff	-0.31166074
13	0x413d7d98	11.843163
14	0x3e78cb42	0.24296287
15	0xc1590f15	-13.566182

bn2.running_var f4 [16]
0	0x29800251	5.684744e-14
1	0x4120cdb5	10.050221
2	0x41b44b00	22.536621
3	0x27666a09	3.1976394e-15
4	0x410e7bb8	8.905205
5	0x4193b4bb	18.463247
6	0x4185f1e8	16.743118
7	0x416d4a26	14.830603
8	0x406157b1	3.5209773
9	0x3fbbee7d	1.4682156
10	0x26ccd44b	1.4212886e-15
11	0x23ccd44b	2.2207634e-17
12	0x40fbaf5c	7.865156
13	0x42319455	44.394855
14	0x23ccd44b	2.2207634e-17
15	0x42c9c66c	100.88754

conv3.bias f4 [32]
0	0x3d95ba9a	0.07310982
1	0xbef9948d	-0.48746148
2	0xbe4a25c4	-0.19740969
3	0xbee8dd8d	-0.4548153
4	0x3d0fd1e1	0.035112265
5	0xbf60b313	-0.87773246
6	0x3e947d01	0.2900162
7	0x3cfd933f	0.030954001
8	0xbd784825	-0.060615677
9	0xbe62db59	-0.22153987
10	0xbf09a74a	-0.5377089
11	0xbf00e72c	-0.5035274
12	0xbe818f92	-0.25304848
13	0xbeacc72c	-0.33745706
14	0x3a8cdfc0	0.0010747835
15	0x3f42ff78	0.76171064
16	0x3ec9f6ae	0.39446014
17	0xbed9509f	-0.42444322
18	0x3e3d87cf	0.18508838
19	0xbe90c168	-0.28272557
20	0xbf164f58	-0.5871482
21	0xbe4933ec	-0.19648713
22	0x3d3a5f65	0.04550113
23	0xbe26bc80	-0.16282845
24	0xbeb846c9	-0.35991505
25	0x3e1bb11a	0.15204278
26	0x3ecb2a00	0.3968048
27	0xbe98d494	-0.29849684
28	0x3d824b4b	0.06362017
29	0x3e1beff8	0.1522826
30	0xbd6ea29b	-0.05826054
31	0xbf26e0ef	-0.6518697

conv3.weight f4 [32, 16, 3]
0	0x00000000	0.0
1	0x80000000	-0.0
2	0x00000000	0.0
3	0x80000000	-0.0
4	0x80000000	-0.0
5	0x80000000	-0.0
6	0x80000000	-0.0
7	0x00000000	0.0
8	0x80000000	-0.0
9	0x00000000	0.0
10	0x80000000	-0.0
11	0x00000000	0.0
12	0x00000000	0.0
13	0x80000000	-0.0
14	0x00000000	0.0
15	0x80000000	-0.0
16	0x00000000	0.0
17	0x80000000	-0.0
18	0x80000000	-0.0
19	0x00000000	0.0
20	0x80000000	-0.0
21	0x00000000	0.0
22	0x80000000	-0.0
23	0x00000000	0.0
24	0x80000000	-0.0
25	0x80000000	-0.0
26	0x80000000	-0.0
27	0x00000000	0.0
28	0x00000000	0.0
29	0x80000000	-0.0
30	0x80000000	-0.0
31	0x00000000	0.0
32	0x00000000	0.0
33	0x00000000	0.0
34	0x00000000	0.0
35	0x80000000	-0.0
36	0x80000000	-0.0
37	0x00000000	0.0
38	0x80000000	-0.0
39	0x00000000	0.0
40	0x80000000	-0.0
41	0x00000000	0.0
42	0x00000000	0.0
43	0x80000000	-0.0
44	0x80000000	-0.0
45	0x00000000	0.0
46	0x00000000	0.0
47	0x00000000	0.0
48	0x80000000	-0.0
49	0x00000000	0.0
50	0x80000000	-0.0
51	0x80000000	-0.0
52	0x80000000	-0.0
53	0x80000000	-0.0
54	0x80000000	-0.0
55	0x80000000	-0.0
56	0x00000000	0.0
57	0x80000000	-0.0
58	0x80000000	-0.0
59	0x00000000	0.0
60	0x80000000	-0.0
61	0x00000000	0.0
62	0x00000000	0.0
63	0x80000000	-0.0
64	0x80000000	-0.0
65	0x80000000	-0.0
66	0x00000000	0.0
67	0x00000000	0.0
68	0x00000000	0.0
69	0x00000000	0.0
70	0x00000000	0.0
71	0x80000000	-0.0
72	0x00000000	0.0
73	0x80000000	-0.0
74	0x80000000	-0.0
75	0x00000000	0.0
76	0x80000000	-0.0
77	0x00000000	0.0
78	0x00000000	0.0
79	0x80000000	-0.0
80	0x80000000	-0.0
81	0x00000000	0.0
82	0x80000000	-0.0
83	0x00000000	0.0
84	0x00000000	0.0
85	0x80000000	-0.0
86	0x80000000	-0.0
87	0x00000000	0.0
88	0x00000000	0.0
89	0x80000000	-0.0
90	0x00000000	0.0
91	0x00000000	0.0
92	0x00000000	0.0
93	0x80000000	-0.0
94	0x00000000	0.0
95	0x00000000	0.0
96	0xbeead425	-0.45864978
97	0xbd93011d	-0.07177947
98	0xbe45fee0	-0.19335508
99	0x3e0b2aba	0.13590518
100	0x3fc1e3c1	1.514763
101	0xc0080102	-2.1250615
102	0x3eff8f0a	0.49913818
103	0x3f49d193	0.7883541
104	0x3f14c0f6	0.58106935
105	0xbd1fb778	-0.03899333
106	0xbe24585d	-0.16049333
107	0x3cb70961	0.02234334
108	0x3f3d9a29	0.74063355
109	0xbe90e52e	-0.2829985
110	0xbf0eeae6	-0.55827177
111	0x3de54374	0.11194506
112	0x3e3b8681	0.18313028
113	0x3e270503	0.16310506
114	0x3f8456f1	1.0339032
115	0x3f0dc0cd	0.55372316
116	0xbf5e9a8f	-0.8695459
117	0x3fd95f3c	1.6982188
118	0xbebc36a7	-0.36760446
119	0xbea0120d	-0.31263772
120	0xbe6d46bc	-0.23171514
121	0xbd87bbcf	-0.066276185
122	0xbe7d3caf	-0.2473018
123	0x3eb34c09	0.35018948
124	0x3e5021a7	0.20325337
125	0xbe224502	-0.15846637
126	0xbe053689	-0.13009085
127	0x3ef2819a	0.47364503
128	0x3f003e26	0.5009483
129	0xbfc306b0	-1.5236416
130	0x3e02305f	0.12713765
131	0x40179dcf	2.3690069
132	0xbe3d320f	-0.18476127
133	0x3f126657	0.5718741
134	0xbdd13b79	-0.10216422
135	0xbfd20d23	-1.6410259
136	0x3f8efe47	1.1171349
137	0x3ebb3294	0.36562026
138	0x3fc6f1bd	1.5542523
139	0xbef26d46	-0.47348994
140	0xbecbcdbc	-0.398054
141	0xbd99b914	-0.07506004
142	0xbe64b715	-0.22335465
143	0xbf5d63a1	-0.86480147
144	0x80000000	-0.0
145	0x00000000	0.0
146	0x00000000	0.0
147	0x80000000	-0.0
148	0x00000000	0.0
149	0x00000000	0.0
150	0x00000000	0.0
151	0x00000000	0.0
152	0x00000000	0.0
153	0x00000000	0.0
154	0x80000000	-0.0
155	0x80000000	-0.0
156	0x80000000	-0.0
157	0x00000000	0.0
158	0x00000000	0.0
159	0x80000000	-0.0
160	0x00000000	0.0
161	0x00000000	0.0
162	0x00000000	0.0
163	0x00000000	0.0
164	0x80000000	-0.0
165	0x00000000	0.0
166	0x00000000	0.0
167	0x80000000	-0.0
168	0x80000000	-0.0
169	0x00000000	0.0
170	0x80000000	-0.0
171	0x80000000	-0.0
172	0x80000000	-0.0
173	0x80000000	-0.0
174	0x80000000	-0.0
175	0x00000000	0.0
176	0x80000000	-0.0
177	0x00000000	0.0
178	0x80000000	-0.0
179	0x80000000	-0.0
180	0x00000000	0.0
181	0x80000000	-0.0
182	0x00000000	0.0
183	0x00000000	0.0
184	0x00000000	0.0
185	0x00000000	0.0
186	0x80000000	-0.0
187	0x00000000	0.0
188	0x00000000	0.0
189	0x80000000	-0.0
190	0x80000000	-0.0
191	0x80000000	-0.0
192	0x00000000	0.0
193	0x80000000	-0.0
194	0x00000000	0.0
195	0x80000000	-0.0
196	0x00000000	0.0
197	0x80000000	-0.0
198	0x80000000	-0.0
199	0x80000000	-0.0
200	0x80000000	-0.0
201	0x80000000	-0.0
202	0x00000000	0.0
203	0x80000000	-0.0
204	0x00000000	0.0
205	0x80000000	-0.0
206	0x80000000	-0.0
207	0x00000000	0.0
208	0x80000000	-0.0
209	0x00000000	0.0
210	0x00000000	0.0
211	0x00000000	0.0
212	0x80000000	-0.0
213	0x80000000	-0.0
214	0x80000000	-0.0
215	0x80000000	-0.0
216	0x80000000	-0.0
217	0x00000000	0.0
218	0x80000000	-0.0
219	0x80000000	-0.0
220	0x80000000	-0.0
221	0x80000000	-0.0
222	0x80000000	-0.0
223	0x00000000	0.0
224	0x80000000	-0.0
225	0x00000000	0.0
226	0x80000000	-0.0
227	0x80000000	-0.0
228	0x80000000	-0.0
229	0x80000000	-0.0
230	0x80000000	-0.0
231	0x00000000	0.0
232	0x80000000	-0.0
233	0x00000000	0.0
234	0x00000000	0.0
235	0x00000000	0.0
236	0x00000000	0.0
237	0x80000000	-0.0
238	0x80000000	-0.0
239	0x80000000	-0.0
240	0xbf7f94df	-0.99836534
241	0xbdd459f2	-0.10368718
242	0xbe865137	-0.26233837
243	0xbf8682ac	-1.0508628
244	0x3e496cd4	0.19670421
245	0xbd10fb44	-0.035395876
246	0x3f481e03	0.78170794
247	0x3f6511c0	0.8948021
248	0x3f22002e	0.63281524
249	0xbe7073b8	-0.23481643
250	0xbdcb593f	-0.09929132
251	0xbeef023f	-0.466814
252	0xbfe4b388	-1.7867289
253	0xbf049984	-0.51796746
254	0x3ef657d0	0.4811387
255	0xbf4126d3	-0.75449866

bn3.weight f4 [32]
0	0x4091b762	4.5536356
1	0x40b91d13	5.784799
2	0x409469c0	4.637909
3	0x40fca127	7.894672
4	0x40bba63f	5.8640437
5	0x40f38dbc	7.6110516
6	0x409c4302	4.8831797
7	0x4112ee36	9.183157
8	0x40a16c33	5.044458
9	0x40aea57f	5.457702
10	0x40c71919	6.2218137
11	0x409b5765	4.8544183
12	0x40efe0f0	7.496208
13	0x41035560	8.2083435
14	0x40f80415	7.7504983
15	0x405c21ae	3.4395556
16	0x40b2fe08	5.5935097
17	0x40f8b9db	7.7726874
18	0x40b7a9f3	5.7394958
19	0x41111154	9.0667305
20	0x40e1154b	7.0338492
21	0x410a352b	8.63798
22	0x409bc8f4	4.8682804
23	0x40eda2d4	7.4261265
24	0x40da0113	6.812631
25	0x40bca1f8	5.8947716
26	0x411992b0	9.598312
27	0x407967ea	3.8969674
28	0x4122ec4e	10.182692
29	0x40c5be60	6.179489
30	0x40afb2fc	5.4905987
31	0x40a3fc11	5.12452

bn3.bias f4 [32]
0	0xc0068af2	-2.1022305
1	0xc0201ee9	-2.5018866
2	0xbffd013c	-1.9766002
3	0xc0928cfd	-4.5797105
4	0xbf8ed9f2	-1.1160262
5	0xc0e3b242	-7.11551
6	0xbfa9142b	-1.320928
7	0xc0b79406	-5.7368193
8	0xbf1287f6	-0.5723871
9	0xbf5ffe53	-0.8749744
10	0xbff55743	-1.9167255
11	0xc0493742	-3.1439977
12	0xc09b5740	-4.8544006
13	0xc0a9bce6	-5.304309
14	0xc08ace17	-4.3376575
15	0xbfa8ab44	-1.3177266
16	0xbf8543b7	-1.041129
17	0xc0caa3f3	-6.3325133
18	0xbf5f7f9a	-0.8730408
19	0xc0c5edf1	-6.1852956
20	0xc0b8db48	-5.7767677
21	0xc090f65e	-4.530074
22	0xbfce0c4b	-1.6097502
23	0xbfdf7fe3	-1.7460903
24	0xc09d5f57	-4.917888
25	0xbfb1dab0	-1.3894863
26	0xc0e291d7	-7.0803027
27	0xc02ced5f	-2.701988
28	0xc0e17434	-7.045435
29	0xbfb46950	-1.4094639
30	0xbeeb9a25	-0.4601604
31	0xc03f3cf6	-2.9880958

bn3.running_mean f4 [32]
0	0x3d95ba94	0.073109776
1	0xbef9948c	-0.48746145
2	0xc00e6ac6	-2.225267
3	0xbee8dd87	-0.45481512
4	0x3d0fd1da	0.03511224
5	0xc0c116b2	-6.0340204
6	0x3e947cfb	0.29001603
7	0x3cfd9337	0.030953987
8	0xbd78481e	-0.06061565
9	0xc0a82324	-5.2542896
10	0xc0a9baf6	-5.3040724
11	0xbf00e726	-0.50352705
12	0xc06267ec	-3.537593
13	0xbeacc72e	-0.33745712
14	0x3a8cdfc2	0.0010747837
15	0x3f42ff70	0.76171017
16	0x3ec9f6ae	0.39446014
17	0xc096804e	-4.703162
18	0x3e3d87d1	0.18508841
19	0xc03d473b	-2.9574726
20	0xc0131ef9	-2.2987654
21	0xc0aa19bf	-5.315643
22	0x3d3a5f5f	0.04550111
23	0xbe26bc82	-0.16282848
24	0xc012f290	-2.2960548
25	0x3e1bb114	0.15204269
26	0xc08d3e49	-4.413853
27	0xbe98d48e	-0.29849666
28	0x3d824b44	0.06362012
29	0xc1103bae	-9.01457
30	0xc08569f7	-4.169185
31	0xbf26e0e9	-0.65186936

bn3.running_var f4 [32]
0	0x25667175	1.9987761e-16
1	0x278006f9	3.5534697e-15
2	0x4362d8d8	226.84705
3	0x276cd890	3.2868978e-15
4	0x00000004	6e-45
5	0x435dd195	221.81868
6	0x26667175	7.9951043e-16
7	0x236cd890	1.28394445e-17
8	0x23a6719b	1.804587e-17
9	0x430069cb	128.41325
10	0x43a7ab88	335.3401
11	0x00000004	6e-45
12	0x43fbab87	503.34006
13	0x00000004	6e-45
14	0x00000004	6e-45
15	0x00000004	6e-45
16	0x26667175	7.9951043e-16
17	0x4363ad7b	227.67766
18	0x00000004	6e-45
19	0x43fa5168	500.636
20	0x42a96982	84.70607
21	0x43899487	275.16037
22	0x00000004	6e-45
23	0x00000004	6e-45
24	0x432d3a78	173.2284
25	0x26667175	7.9951043e-16
26	0x434bd892	203.84598
27	0x27667175	3.1980417e-15
28	0x248006f9	5.5522963e-17
29	0x43ef67c5	478.8107
30	0x4313d7b9	147.84267
31	0x25cce35f	3.5542432e-16

conv4.bias f4 [32]
0	0xbdf2c75f	-0.11854433
1	0x3b17b111	0.0023146311
2	0xbcfa2a86	-0.030537855
3	0xbed74cb1	-0.42050698
4	0x3d463e19	0.048399065
5	0xbe8b6371	-0.27224305
6	0xbe7385f4	-0.23781568
7	0xbe14ee81	-0.14544107
8	0xbd98a4cc	-0.074533075
9	0xbe7826c6	-0.24233541
10	0xbe4d9a0b	-0.20078294
11	0xbea1fcea	-0.3163827
12	0x3c50b940	0.01273948
13	0xbe886c6f	-0.26645228
14	0xbe70355c	-0.23457855
15	0x3e80bfa0	0.25146198
16	0xbe9cfa33	-0.30659637
17	0xbe218f33	-0.15777282
18	0xbdd0feb9	-0.102048345
19	0x3dbeccb0	0.09316385
20	0xbe1c527b	-0.15265839
21	0xbe8ce425	-0.2751781
22	0xbe665299	-0.22492446
23	0xbe8e3f2f	-0.2778258
24	0xbe88609e	-0.26636213
25	0xbdfbad79	-0.12288947
26	0xbda2680b	-0.07930001
27	0xbe04d832	-0.12973097
28	0x3ecd5717	0.40105507
29	0xbc1c51bc	-0.009540971
30	0xbf26fe1c	-0.6523149
31	0xbda04a50	-0.07826674

conv4.weight f4 [32, 32, 3]
0	0xbf4f29a0	-0.8092289
1	0x3d00489f	0.031319257
2	0xbe902703	-0.28154764
3	0x3eab65e9	0.3347619
4	0xbcd42760	-0.025897682
5	0x3d912d4c	0.07088718
6	0xbed41723	-0.41423902
7	0x3caa2c5d	0.020773107
8	0xbe5bc5dc	-0.21462196
9	0xbdb575dc	-0.088603705
10	0x3eb017f4	0.34393275
11	0xbe825f2d	-0.25463238
12	0xbf4d62e4	-0.8022902
13	0xbe8c1983	-0.27363214
14	0x3ec62a6b	0.38704237
15	0x3eaf1ff3	0.34204063
16	0xbfb38226	-1.4024093
17	0x3f6b3627	0.91879505
18	0x3eedabc9	0.46420124
19	0x3ee4858b	0.44633135
20	0x3ee98886	0.45611972
21	0x3c0edc34	0.008719493
22	0xbe0de2d5	-0.13856061
23	0x3ea4583c	0.32098567
24	0x3dc4f7cb	0.09617575
25	0x3e0a1139	0.13483132
26	0xbe4a0197	-0.19727169
27	0xbc184774	-0.0092943795
28	0xbeb8b438	-0.36074996
29	0x3e7c4fb1	0.24639775
30	0xbf1fc4b1	-0.624095
31	0x3e9caeaa	0.30602008
32	0x3ac8b93a	0.0015313991
33	0x3e77f4df	0.24214505
34	0x3dd517f1	0.10404957
35	0xbea30893	-0.3184248
36	0x3de13bfe	0.10997771
37	0x3ea85496	0.32877034
38	0x3ea06a94	0.31331313
39	0x3ddf875d	0.1091449
40	0xbe64d294	-0.22345954
41	0x3f06b06a	0.52612936
42	0x3ef6cf64	0.482051
43	0x3f1928b4	0.59827733
44	0xbc9938ae	-0.018703785
45	0xbd5a3928	-0.053277165
46	0xbe94e2a1	-0.29079154
47	0xbe6dfe0b	-0.23241441
48	0x3f86de12	1.053652
49	0x3e690cdd	0.22758813
50	0xbe3f1343	-0.18659692
51	0x3ea27a0b	0.31733736
52	0x3d918796	0.07105939
53	0xbea06a43	-0.3133107
54	0x3db60300	0.08887291
55	0xbeaf2b4d	-0.34212723
56	0x3e88a334	0.26687014
57	0xbd8a5015	-0.06753556
58	0xbea718f7	-0.32636234
59	0xbdbb2ec7	-0.091397814
60	0xbe094100	-0.13403702
61	0xbf04f0a5	-0.51929694
62	0x3eb73cfc	0.35788715
63	0xbd0d61b5	-0.03451701
64	0xbe61ffbd	-0.22070213
65	0x3eaea94e	0.34113544
66	0xbe81b270	-0.2533145
67	0xbf220348	-0.63286257
68	0xbf407c99	-0.7519012
69	0x3ed8b60c	0.4232639
70	0xbf5c6d4a	-0.8610426
71	0xbf15523e	-0.58328617
72	0xbda6f0c0	-0.08151388
73	0xbef22fed	-0.4730219
74	0xbea37f4e	-0.31933063
75	0xbe8bbeeb	-0.27294096
76	0x3f3261db	0.69680566
77	0x3f57ddb5	0.84322673
78	0xbd8a012b	-0.06738504
79	0xbdb2a2a0	-0.087224245
80	0xbdd049a3	-0.10170295
81	0x3ebceb73	0.36898383
82	0xbf072525	-0.52791053
83	0xbeb57056	-0.35437268
84	0xbe29c80a	-0.16580215
85	0x3efc11f8	0.4923246
86	0xbee1675b	-0.44024166
87	0x3f389525	0.72102576
88	0x3fb3dbfc	1.4051509
89	0xbfb3c3de	-1.4044149
90	0x3ed6cca5	0.41953006
91	0xbf2f9ff1	-0.68603426
92	0x3d23ae57	0.039961185
93	0x3e7ee5e3	0.24892382
94	0x3e5e2a25	0.21695764
95	0xbe5c16da	-0.21493092
96	0xbea60dd3	-0.32432422
97	0x3d40aa5c	0.047037467
98	0xbdf0a4be	-0.11750172
99	0x3f409f8a	0.7524344
100	0xbe4d93f0	-0.20075965
101	0x3e8ffba0	0.28121662
102	0xbf2706fc	-0.6524503
103	0xbe33c30b	-0.17554872
104	0x3fa7d00b	1.3110365
105	0xbe2ae407	-0.16688548
106	0xbf1f63e2	-0.62261784
107	0x3da2ad84	0.07943252
108	0xbd7ee36e	-0.062228613
109	0xbe57f322	-0.21088842
110	0x3e69aa85	0.22818954
111	0x3eb5bf11	0.35497335
112	0x3f5b6a65	0.8570922
113	0x3e323b81	0.17405511
114	0x3f292cdc	0.66084075
115	0xbe3abb9a	-0.18235627
116	0xbf5bbea1	-0.8583775
117	0x3ee0e491	0.43924382
118	0xbdb606d8	-0.08888024
119	0x3f1961e7	0.5991501
120	0xbf5bedac	-0.85909534
121	0xbe2deb88	-0.1698438
122	0xbecd4749	-0.4009345
123	0x3ec9cdd0	0.39414835
124	0xbeca8255	-0.3955256
125	0xbe6d1d7d	-0.2315578
126	0xbf1f3a4d	-0.62198335
127	0x3cd3e70d	0.02586701
128	0x3d67ee20	0.056623578
129	0x3ead1c5b	0.33810696
130	0x3de04138	0.109499395
131	0xbd3878b3	-0.045036983
132	0xbec311d9	-0.38099554
133	0x3c96a0bc	0.018387191
134	0xbf92c102	-1.1465151
135	0x3f787eff	0.9706878
136	0x3f2b7ddb	0.66988915
137	0xbeef9ac0	-0.46797752
138	0x3cdf9b47	0.027295722
139	0x3ef7c8f3	0.483955
140	0x3dc5f539	0.09665913
141	0xbf152850	-0.58264637
142	0xbe4b181b	-0.19833414
143	0xbf201ccd	-0.62543947
144	0x3f4f22c6	0.80912435
145	0x3f40a554	0.7525227
146	0xbec6238a	-0.3869899
147	0x3f32e749	0.69884163
148	0xbefc6f5c	-0.4930371
149	0x3dbc4448	0.09192711
150	0x3e558ddc	0.20854896
151	0x3e3f75cd	0.18697281
152	0xbfa717b5	-1.305411
153	0x3f0ead12	0.55732834
154	0xbef14df7	-0.47129795
155	0xbf13212b	-0.57472485
156	0x3f654a68	0.8956666
157	0x3f1f52b4	0.6223557
158	0xbf84916c	-1.0356879
159	0xbec2fc27	-0.38083002
160	0x3e095549	0.1341144
161	0xbdf248d3	-0.11830296
162	0x3eab04d4	0.3340212
163	0xbe0a6e1e	-0.13518569
164	0x3d4594d5	0.04823764
165	0xbf0503ec	-0.5195911
166	0x3db99a64	0.09062651
167	0x3f320e9b	0.69553536
168	0x3e25d37b	0.16193955
169	0x3f6120ee	0.8794087
170	0x3ee79cf2	0.45236927
171	0x3dbc3b8a	0.09191044
172	0x3cf0e52f	0.029406158
173	0xbeee60e0	-0.46558285
174	0x3e6c0e33	0.23052292
175	0x3ce8f796	0.02843837
176	0xbe262aac	-0.16227216
177	0x3e9721cb	0.2951797
178	0xbeae328b	-0.34022936
179	0xbe5dcdac	-0.21660489
180	0xbf92fda1	-1.1483651
181	0xbf8ea994	-1.1145501
182	0x3e716a02	0.23575595
183	0xbd89be84	-0.06725791
184	0x3f0f9f8b	0.5610282
185	0x3ef96c7c	0.4871558
186	0x3edc478e	0.43023342
187	0xbdd606bc	-0.10450503
188	0x3f6ed869	0.93298966
189	0x3debe13c	0.115175694
190	0x3e887483	0.2665139
191	0xbdc28928	-0.09498817
192	0xbf28bc93	-0.6591274
193	0xbecbb0e6	-0.397834
194	0xbe11fff1	-0.1425779
195	0xbea03e00	-0.31297302
196	0xbc17cbeb	-0.009264926
197	0xbec4175f	-0.3829908
198	0x3f018c13	0.5060436
199	0x3db3810b	0.08764847
200	0x3eacecbc	0.33774364
201	0xbe9a7f8d	-0.3017544
202	0xbe7c0c7b	-0.24614136
203	0x3b9868c2	0.00465116
204	0xbe8fdd90	-0.28098726
205	0xbeb1d704	-0.34734356
206	0xbd4c9e85	-0.049955864
207	0xbfa323a7	-1.2745255
208	0xbe112ad8	-0.141765
209	0x3fcfaa49	1.6223842
210	0x3f36356e	0.7117528
211	0x3f23f627	0.64047474
212	0x3e76daf0	0.24106956
213	0x3ecd4a95	0.40095964
214	0x3df72131	0.12066878
215	0x3aa66b70	0.0012696814
216	0xbf26e6a3	-0.65195674
217	0xbf2aaf7e	-0.6667403
218	0x3e133ff5	0.14379866
219	0x3f01abd4	0.50652814
220	0x3e99890c	0.2998737
221	0x3efc8be0	0.49325466
222	0xbec1d2cc	-0.37856138
223	0x3eb8891b	0.36042103
224	0x3e026b02	0.12736133
225	0xbf179cbb	-0.59223527
226	0x3e66aee3	0.22527651
227	0x3e62f548	0.2216388
228	0xbf7afe2a	-0.98044074
229	0x3ea81379	0.32827356
230	0xbdc0b987	-0.094103865
231	0x3e2168a1	0.15762569
232	0xbe52a859	-0.20572032
233	0xbddb337f	-0.107031815
234	0xbbd181a2	-0.0063936273
235	0x3eca2f7a	0.39489347
236	0xbe14f112	-0.14545086
237	0x3da1a241	0.078922756
238	0xbd95c034	-0.073120505
239	0xbea29c00	-0.31759644
240	0x3eaf46e1	0.34233764
241	0xbf6f2777	-0.93419594
242	0x3dba2071	0.09088219
243	0x3fd0ff8b	1.6327986
244	0xbf3506df	-0.7071361
245	0xbeadcf7f	-0.3394737
246	0x3ead2b59	0.33822134
247	0x3e2ff36d	0.17182703
248	0x3d9fb124	0.07797459
249	0x3e0ede6c	0.13952035
250	0x3ebe72c1	0.37196925
251	0xbeb9878e	-0.36236233
252	0x3e936dfe	0.28794855
253	0x3e7408ef	0.23831533
254	0xbeaa34a1	-0.33243278
255	0x3e129095	0.14312966

bn4.weight f4 [32]
0	0x40f738fd	7.7257066
1	0x4102296f	8.135116
2	0x40d8f5c8	6.7800026
3	0x40d3ee3f	6.622833
4	0x40f0f37b	7.5297217
5	0x40c935e9	6.287831
6	0x40f88f5e	7.767501
7	0x40dbb3e2	6.8657084
8	0x40cfb0fd	6.490355
9	0x40da5279	6.8225675
10	0x40f04a6f	7.509086
11	0x41193c8f	9.577285
12	0x40eb8438	7.35989
13	0x410d46e8	8.829811
14	0x40f55a60	7.667282
15	0x40d1d574	6.5573063
16	0x410cf1bf	8.80902
17	0x40cac8d8	6.337017
18	0x41075404	8.458012
19	0x41070677	8.439078
20	0x40ccb820	6.397476
21	0x40c746d3	6.2273955
22	0x40dd602d	6.91799
23	0x40d0cb5d	6.5248246
24	0x40e460df	7.136825
25	0x40e7827a	7.2346773
26	0x40ec8407	7.3911166
27	0x40faf935	7.842921
28	0x40f97f5d	7.7967973
29	0x40fe8c24	7.954607
30	0x410685c2	8.407656
31	0x410b399a	8.701563

bn4.bias f4 [32]
0	0xbf0cd342	-0.55009854
1	0xc00e57ea	-2.2241158
2	0xbffee198	-1.9912596
3	0xbe7e1cc1	-0.24815656
4	0xc038a213	-2.8848922
5	0xc009cb13	-2.1530197
6	0xc025a01a	-2.5878968
7	0xbe859868	-0.2609284
8	0xbfc4355a	-1.5328782
9	0xbfa94960	-1.3225517
10	0xbdea4fac	-0.114409775
11	0xbff57020	-1.9174843
12	0x3f00a86d	0.50257
13	0xbf4003c4	-0.75005746
14	0xbe2357c9	-0.15951456
15	0xbf9eee90	-1.2416553
16	0x3eb7c83d	0.35894957
17	0xbfd3ee79	-1.6557151
18	0xc028caf3	-2.637387
19	0x3bba231d	0.0056804554
20	0xbfca8141	-1.5820695
21	0xc012d5e3	-2.2943046
22	0xbff26030	-1.8935604
23	0x3fc18830	1.5119686
24	0xbe3be900	-0.18350601
25	0x3f9c4b80	1.2210541
26	0xbff6e5ec	-1.9288917
27	0x3e9a6607	0.30155966
28	0x3f3ddf80	0.7416916
29	0x3d9b5870	0.075852275
30	0xc060443a	-3.5041642
31	0xbed2a34c	-0.4114021

bn4.running_mean f4 [32]
0	0xbf077b65	-0.5292266
1	0x402f03ef	2.734615
2	0x4007e21b	2.1231754
3	0x3f8231b6	1.017142
4	0x3f6aea64	0.917639
5	0x3f7c67a9	0.9859567
6	0xbd537c9c	-0.05163251
7	0x3fbdbcfe	1.4823301
8	0x4004842c	2.0705671
9	0xbe4e2db3	-0.2013462
10	0x3e895909	0.2682574
11	0xbf398120	-0.72462654
12	0xb9ee090a	-0.00045401632
13	0x3f8cc0d3	1.0996345
14	0xbf772861	-0.9654599
15	0x3f012038	0.50439787
16	0xbdc43c90	-0.09581864
17	0x3ea510eb	0.3223947
18	0x3fc4b60a	1.5368054
19	0xbe485d15	-0.19566758
20	0x3d360f67	0.044448283
21	0xbfce9f44	-1.6142354
22	0xbe178ced	-0.14799853
23	0xbe4f86fa	-0.20266333
24	0xbfc0d7c0	-1.5065842
25	0x3e52c1b2	0.20581701
26	0x40143830	2.3159294
27	0xbf0a9718	-0.541368
28	0x3f07ef69	0.53099686
29	0xbe8c6dab	-0.2742742
30	0xc01ea8be	-2.4790492
31	0x3f39a4c7	0.72517055

bn4.running_var f4 [32]
0	0x418fd669	17.979692
1	0x4219754d	38.36455
2	0x41f6cfa2	30.851383
3	0x4189180b	17.13674
4	0x41a324c8	20.39296
5	0x41f9c908	31.22316
6	0x420e57d1	35.58576
7	0x422d237b	43.28465
8	0x420f8a81	35.885258
9	0x41599901	13.599854
10	0x4207ab04	33.917007
11	0x41e8b6e0	29.089294
12	0x41fd7adc	31.68499
13	0x42748a14	61.134842
14	0x42190180	38.251465
15	0x420fbb58	35.932953
16	0x41f4a6a0	30.58136
17	0x41e0eac6	28.114635
18	0x42149d82	37.153816
19	0x4214d239	37.205296
20	0x42043d31	33.059757
21	0x4210144a	36.019814
22	0x41ebf8f7	29.496565
23	0x418d70c8	17.680069
24	0x41fb7fbd	31.437372
25	0x41e383fb	28.439444
26	0x41d1a025	26.203196
27	0x41ac96cb	21.57363
28	0x41842067	16.515821
29	0x41c36dc4	24.428596
30	0x41d4a3bb	26.579947
31	0x4208c00e	34.187553

conv5.bias f4 [20]
0	0x3f3a11c5	0.72683364
1	0x3d973ecc	0.073850244
2	0xbf95d72b	-1.1706289
3	0x3f662ed7	0.8991522
4	0x3c1fd70e	0.009755863
5	0x3cdbced9	0.026832031
6	0x3e159454	0.14607364
7	0xbfc9e408	-1.5772715
8	0xbfa1b7a8	-1.2634172
9	0x3f040750	0.5157366
10	0x3fed62a1	1.8545724
11	0x3e98e977	0.2986562
12	0xbffd2662	-1.9777339
13	0xbf4748ea	-0.77845633
14	0xbef2e2b4	-0.47438586
15	0xbf128b89	-0.57244164
16	0xbf49ac47	-0.787785
17	0x3fb1188e	1.3835618
18	0x3db729c7	0.08943515
19	0xbf02470b	-0.5088965

conv5.weight f4 [20, 32, 1]
0	0x3efe7018	0.49694896
1	0xc087d6cb	-4.24497
2	0xbe228e0c	-0.15874499
3	0xbf8958ce	-1.0730226
4	0x3e4a839f	0.19776772
5	0x3f80dcd6	1.0067394
6	0x3e234ca2	0.15947202
7	0x3f6d7124	0.92750764
8	0xbef20827	-0.47271845
9	0xc0a31679	-5.0964932
10	0xbf4e980b	-0.8070075
11	0x3ff51761	1.914776
12	0xbd0a0abd	-0.033701647
13	0x401ab6ad	2.4173996
14	0x3e99614d	0.29957047
15	0x3f870165	1.05473
16	0xbeee6fa6	-0.46569556
17	0xc0527d56	-3.2889
18	0xbf3454af	-0.70441717
19	0xbf9d495f	-1.2288016
20	0xc0557b88	-3.3356647
21	0xbf989950	-1.1921787
22	0xbfc6d745	-1.5534445
23	0xbdbd1b03	-0.09233668
24	0x3f5bb4af	0.85822576
25	0xbd10fa78	-0.035395116
26	0x40348832	2.8208127
27	0xbe6455e5	-0.22298391
28	0x3f5e8c97	0.86933273
29	0xbf84dbf0	-1.037962
30	0xbfd63785	-1.6735693
31	0xbeeb572d	-0.45964947
32	0xc06763d7	-3.6154687
33	0x3ee7fb2b	0.45308813
34	0xc025f0e5	-2.592828
35	0x3dcda6be	0.10041569
36	0x3e3f2eab	0.18670146
37	0xbe2be4a7	-0.16786443
38	0xc01b5f02	-2.4276738
39	0x3f6cfa35	0.92569286
40	0x3f235540	0.63801956
41	0x3f0920ce	0.5356568
42	0xbd4b429d	-0.049624074
43	0xc0661630	-3.5951042
44	0x3d2e83d5	0.042606194
45	0xbebbbb62	-0.366664
46	0xbfd0de43	-1.6317829
47	0xc0782d49	-3.877764
48	0x3f01eaad	0.5074871
49	0x3f91644b	1.1358732
50	0x3ea2f404	0.31826794
51	0x3e9c829f	0.30568406
52	0xbf707308	-0.93925524
53	0xbfd809be	-1.6877973
54	0xc0307c80	-2.7575989
55	0xbe59cde2	-0.21269944
56	0xc00b31b8	-2.1749096
57	0xbeb7c3e9	-0.35891655
58	0xbca5b29d	-0.020226771
59	0x3f833750	1.0251255
60	0xbd682803	-0.056678783
61	0xbee9a435	-0.45633093
62	0x3fed4c45	1.8538901
63	0x3ffe0470	1.9845104
64	0x3efdae2f	0.49546954
65	0xc1051e5d	-8.319913
66	0x3f6e8193	0.93166465
67	0xbf3b7970	-0.73232174
68	0xc086ab6b	-4.208425
69	0x3f773445	0.9656413
70	0x3f8d136e	1.1021554
71	0x3ff9818b	1.9492658
72	0x40070253	2.1095169
73	0x3ffb620b	1.9639295
74	0xbf59c972	-0.85073006
75	0xbe8384f2	-0.25687367
76	0xbf210182	-0.62892926
77	0xbdf7cfdf	-0.12100195
78	0xbeb86168	-0.36011815
79	0x4047e7e9	3.1235297
80	0xbfd39a75	-1.6531512
81	0xbf4152ec	-0.75517154
82	0x3fbae2ac	1.4600425
83	0x3eb07b3c	0.3446902
84	0x3f42285d	0.7584284
85	0x3f464240	0.7744484
86	0x3fdd49a8	1.7288103
87	0xbfde295c	-1.7356372
88	0xc08d0cbd	-4.407805
89	0xbec2e223	-0.38063154
90	0xbec81f95	-0.39086595
91	0xbf53ad9e	-0.82686794
92	0xbfa04279	-1.2520286
93	0xbf13fcbc	-0.5780752
94	0x3e8c1114	0.2735678
95	0x3d214a7b	0.03937767
96	0xbf5b6ce0	-0.85713005
97	0xbf083f1f	-0.53221315
98	0xbf52f8ac	-0.82410693
99	0x3f644bcc	0.89178157
100	0xbcd545a2	-0.02603418
101	0x3fb77f26	1.4335678
102	0x3ed23b80	0.4106102
103	0xbfad7343	-1.35508
104	0xbf78c73b	-0.97179
105	0x3fb4cd81	1.4125215
106	0x3f71a332	0.9438964
107	0xbf132df7	-0.5749201
108	0x3e6680d6	0.22510085
109	0xc02ded81	-2.717621
110	0xbfab1caa	-1.3368123
111	0xbf64277c	-0.8912275
112	0x3d889e63	0.06670835
113	0x3f6f9312	0.93583786
114	0x3f73648c	0.950753
115	0xc02dd35f	-2.716026
116	0xc0162c4d	-2.346454
117	0x3fa6a6d0	1.3019657
118	0xbf9de4e2	-1.2335474
119	0x3fc00e31	1.5004331
120	0x3e47e74a	0.19521824
121	0x3e86c60a	0.26322967
122	0x3d445a49	0.047937665
123	0xbe012840	-0.1261301
124	0x3ec3261a	0.38115007
125	0x3f6252fc	0.88407874
126	0xbf3559e8	-0.7084031
127	0xc02dd40e	-2.7160678
128	0x3edd1678	0.43181205
129	0xc033cabc	-2.809249
130	0xc032b60f	-2.792362
131	0x3fc0797f	1.5037078
132	0xbe2b0ac2	-0.16703323
133	0x3f715a54	0.94278455
134	0x3f524f3a	0.8215214
135	0xbf3416c6	-0.7034725
136	0xbfdea312	-1.7393515
137	0x3c300688	0.010743745
138	0xbfba7d94	-1.4569573
139	0x3fe2a28b	1.7705854
140	0xbfdc6ce0	-1.7220726
141	0x3f5bf165	0.85915214
142	0x3f973872	1.1814101
143	0xbf0db41e	-0.5535296
144	0x3f25a100	0.6469879
145	0xc066521e	-3.598762
146	0xbdbd1f9e	-0.09234546
147	0xbfd1f67e	-1.6403348
148	0x3dda24dd	0.10651562
149	0x3f12f03c	0.5739782
150	0xbe19b28c	-0.15009516
151	0x3ed72fd5	0.4202868
152	0xc0634901	-3.5513308
153	0x3f1eab7e	0.61980426
154	0x3ced41f1	0.028962107
155	0xc02a6d85	-2.6629345
156	0x3f81bc44	1.0135579
157	0xbe02cbff	-0.12773131
158	0xc0bae3c6	-5.8403044
159	0x3f9a981c	1.207767
160	0xbebe7bf9	-0.3720396
161	0x3f754f04	0.95823693
162	0xbf021a25	-0.50821143
163	0xbfd3b510	-1.6539631
164	0xc025d39a	-2.5910401
165	0x40024506	2.0354629
166	0xc00cee1d	-2.2020333
167	0xbf163ba7	-0.5868477
168	0xc01bcdb3	-2.43443
169	0x3f7fab10	0.99870396
170	0x401af20f	2.421024
171	0xbebe3743	-0.37151536
172	0xbe66ff51	-0.22558333
173	0xbf9c37c6	-1.2204521
174	0xbe811f4a	-0.25219184
175	0xbfa9019b	-1.3203615
176	0xbeeea7b2	-0.46612316
177	0xbff65d19	-1.9247161
178	0xbf529271	-0.822547
179	0xc05ef9e4	-3.484002
180	0x3fbd52bf	1.4790877
181	0xbfad8bc7	-1.3558282
182	0x3f4eaf62	0.8073636
183	0x3ec632b9	0.38710573
184	0x4034e3b8	2.8263988
185	0x3df92146	0.121645495
186	0x4029e953	2.654866
187	0x3cb5297e	0.022114512
188	0x3f81701b	1.0112337
189	0x3f577b51	0.8417254
190	0xbfd8069a	-1.6877015
191	0xc035a0c4	-2.8379374
192	0x3d6c6590	0.057714045
193	0x3fb71401	1.430298
194	0x3f14cc27	0.5812401
195	0x3f639c36	0.88910234
196	0xc0080f08	-2.1259174
197	0xbf3a4caa	-0.7277323
198	0x3f7f0177	0.9961161
199	0xbe3484da	-0.17628804
200	0xbfd4fe47	-1.6640099
201	0xbfa8962d	-1.317083
202	0xbfe6b641	-1.802437
203	0xbf1bc17d	-0.60842115
204	0x3f4112f5	0.7541955
205	0x3ee4a97c	0.44660556
206	0xbf8f52e1	-1.1197168
207	0xbcca8a74	-0.024724223
208	0xbf2b4591	-0.66903025
209	0x3f92f0f2	1.1479781
210	0xc11cad0a	-9.792246
211	0x3e80656a	0.25077373
212	0x3f6a80e6	0.91602933
213	0x402af5c5	2.6712506
214	0x3f3ed475	0.74542934
215	0xbe02c1d9	-0.1276926
216	0xbf1bf759	-0.609243
217	0xbf18fcf4	-0.59760976
218	0xc01895a7	-2.384134
219	0x3d9804fa	0.07422824
220	0xbf968aff	-1.1761168
221	0xbec56b61	-0.38558486
222	0x3f3f7112	0.74781907
223	0x3f074e9c	0.52854323
224	0x3f13f09d	0.5778902
225	0xc0660865	-3.5942624
226	0x3febb7c0	1.8415451
227	0x3fbd420f	1.4785784
228	0x3fd3061d	1.6486241
229	0x3ed9e6aa	0.42558795
230	0x3fe385dd	1.7775227
231	0x3e8401f5	0.25782743
232	0xbeaae82e	-0.33380264
233	0xbfb73453	-1.4312843
234	0xbe0e87b9	-0.13918962
235	0x3fac08b3	1.3440155
236	0xbfefd465	-1.8736693
237	0x3e091b41	0.13389303
238	0x3ec36493	0.3816267
239	0xbe2733a2	-0.1632829
240	0x3e0237a3	0.12716536
241	0xc0a2321e	-5.068618
242	0x3ed5dc9d	0.41769877
243	0xbfe0a5e6	-1.7550628
244	0x3fffefdb	1.9995073
245	0xbf1acbee	-0.6046742
246	0xbf83c6e4	-1.0295072
247	0xbfdb111b	-1.7114595
248	0xc02e8431	-2.7268183
249	0xbf8c2650	-1.0949192
250	0x40174963	2.3638542
251	0xbf10b83c	-0.5653112
252	0xbe255b85	-0.16148193
253	0xbfe4eb74	-1.7884355
254	0xc02e6436	-2.7248664
255	0x3fa3b831	1.2790586
