networks/pretrained_models/ciciot2022/CNN1D_TrafficClassification_with_auxiliary_best_model.pth (torch, 120090 bytes, 86 tensors)

conv1.weight f4 [16, 1, 3]
0.14592959 0.58768123 -14.873401 -0.61113113 -2.3180275 4.7337937 1.331256 -3.2773619
-5.275529 -1.8670424 -1.925969 3.2662005 6.164145 -1.8960356 0.20131624 2.7397346
3.9200602 -0.90603346 -6.354628 0.607363 0.76208675 3.9769428 -0.87153757 -1.9577483
-2.108538 5.3230734 -0.00019570994 1.2885721 1.0785917 -5.8656206 2.0137415 2.3400178
3.2836843 -1.4369425 2.1673405 4.610559 -0.61255705 4.441223 -1.4863175 -11.461525
-1.6621238 0.38232884 -3.0889952 -1.3425577 -3.1071513 -0.4680547 -7.1130505 -7.823283
00000000: 916e 153e 4772 163f 73f9 6dc1 1773 1cbf
00000010: 905a 14c0 3d7b 9740 9966 aa3f 4cc0 51c0
00000020: 22d1 a8c0 3ffb eebf 2786 f6bf 6e09 5140
00000030: ad40 c540 4bb1 f2bf d825 4e3e d057 2f40
00000040: 44e2 7a40 cff1 67bf 1d59 cbc0 247c 1b3f
00000050: 1e18 433f 3b86 7e40 161d 5fbf 7f97 fabf
00000060: 49f2 06c0 9e56 aa40 7d37 4db9 eeef a43f
00000070: 4b0f 8a3f 2ab3 bbc0 24e1 0040 dac2 1540
00000080: e227 5240 bbed b7bf b5b5 0a40 b389 9340
00000090: 8ad0 1cbf 801e 8e40 a73f bebf 6862 37c1
000000a0: 79c0 d4bf 9bc0 c33e 19b2 45c0 eed8 abbf
000000b0: 91db 46c0 dea4 efbe 1c9e e3c0 5658 fac0

conv1.bias f4 [16]
-2.7457514 -3.8486168 4.248258 -2.5673788 0.90548116 -2.3117218 2.1213632 0.23697202
-3.663694 -3.4290252 -2.9819808 -5.9971395 0.58718914 0.62896234 -1.0247775 0.78077865
00000000: 64ba 2fc0 bd4f 76c0 bbf1 8740 ef4f 24c0
00000010: 9dcd 673f 40f3 13c0 6ac4 0740 cba8 723e
00000020: f679 6ac0 2675 5bc0 c6d8 3ec0 91e8 bfc0
00000030: 0752 163f ad03 213f e92b 83bf 1ce1 473f

bn1.weight f4 [16]
5.7416067 2.650308 5.4992185 3.447447 2.498739 2.0390491 2.7158644 2.455944
2.1814938 1.5715473 1.9153371 1.8693428 1.53346 6.535034 7.299954 8.054463
00000000: 3ebb b740 a59e 2940 99f9 af40 f9a2 5c40
00000010: 57eb 1f40 c87f 0240 b9d0 2d40 302e 1d40
00000020: 989d 0b40 7628 c93f c429 f53f a046 ef3f
00000030: 6b48 c43f 001f d140 3999 e940 15df 0041

bn1.bias f4 [16]
-1.9448668 -2.7563481 -2.1740136 -2.724893 -3.6221044 -0.9042091 0.06452006 -0.07055993
-1.7657344 0.31195477 -0.924022 1.0541725 0.8887463 -1.4173776 -2.6500347 -3.064779
00000000: 65f1 f8bf 0268 30c0 0a23 0bc0 a664 2ec0
00000010: 8fd0 67c0 3f7a 67bf 1823 843d b981 90bd
00000020: 9603 e2bf 89b8 9f3e b58c 6cbf 20ef 863f
00000030: e184 633f a16c b5bf 2b9a 29c0 5725 44c0

bn1.running_mean f4 [16]
-5.497172 -3.4973857 2.8457906 -2.6684341 1.7744137 -1.1922834 1.1532447 0.46117154
-3.0390964 -4.1102166 -1.49843 -4.9578085 1.0425727 -1.8494169 -2.4930623 -2.2146657
00000000: d5e8 afc0 2bd5 5fc0 6f21 3640 a0c7 2ac0
00000010: fd1f e33f be9c 98bf 869d 933f ad1e ec3e
00000020: 8e80 42c0 e586 83c0 8ecc bfbf 5ea6 9ec0
00000030: 0673 853f b1b9 ecbf 558e 1fc0 15bd 0dc0

bn1.running_var f4 [16]
18.647007 1.0993224 4.315163 0.59938943 2.4905422 2.6765864 2.7688584 0.7430084
1.6518707 1.9137862 4.0049124 2.5524032 1.0342844 13.679772 3.9362981 17.26878
00000000: 122d 9541 99b6 8c3f d115 8a40 9671 193f
00000010: 0b65 1f40 314d 2b40 fa34 3140 cc35 3e3f
00000020: 8070 d33f f2f6 f43f 3e28 8040 935a 2340
00000030: 6e63 843f 59e0 5a41 4fec 7b40 7626 8a41

submod1.weight f4 [6, 16, 1]
-0.060948294 0.06626634 0.1727956 0.23145314 0.1713643 0.008959728 -0.11277546 -0.107301004
-0.081168905 -0.0781969 -0.10378176 0.10796151 0.044276863 -0.025366005 -0.06860977 -0.036784157
-0.023212649 -0.026382977 -0.0010973833 0.20331408 0.19388919 0.008023507 -0.18851025 0.1728776
0.20643842 -0.34487805 -0.0031375058 0.26693037 0.082369514 -0.32082993 0.11429676 -0.13233757
-0.11160352 -2.8341472 -0.11884326 -2.6549044 -2.6727767 -0.045563504 -0.039816823 0.25014183
-2.3360221 0.069569185 -0.41890186 1.1996402 0.9375613 0.19763415 -0.08369057 -0.1178336
0.052441098 0.17452401 -0.20726055 0.102019146 0.27780032 0.081592634 -0.052841317 0.20871243
0.0551158 -0.015181184 0.24099942 0.0045049614 -0.029162027 -0.24330394 -0.23752631 0.18290417
0.18467146 0.1646814 0.1866832 0.03867823 0.18201794 0.22623923 -0.2873368 -0.08652757
0.18025897 -0.116781436 -0.06763717 -0.016394714 0.23016089 -0.2861285 0.09155569 -0.1489919
-0.26897514 0.15470621 -0.2877869 0.19758444 0.008958857 0.22152543 -0.013918991 0.18260816
-0.016986648 0.037186336 0.3060609 -0.08869882 0.015937885 0.07704055 0.120367005 -0.012353389
00000000: eba4 79bd a6b6 873d 54f1 303e 0d02 6d3e
00000010: 207a 2f3e d3cb 123c d2f6 e6bd a1c0 dbbd
00000020: e23b a6bd b225 a0bd 888b d4bd ed1a dd3d
00000030: a85b 353d 5ecc cfbc 4783 8cbd fcaa 16bd
00000040: 7428 bebc 1d21 d8bc 13d6 8fba 9131 503e
00000050: e38a 463e 0775 033c d508 41be d306 313e
00000060: 9864 533e db93 b0be 9d9e 4dbb 19ab 883e
00000070: 59b1 a83d d243 a4be 6b14 ea3d 8083 07be
00000080: 6390 e4bd ab62 35c0 1864 f3bd f4e9 29c0
00000090: c60e 2bc0 cca0 3abd f716 23bd 9712 803e
000000a0: 6381 15c0 4a7a 8e3d 4e7a d6be cf8d 993f
000000b0: 0404 703f 9b60 4a3e f665 abbd be52 f1bd
000000c0: 7acc 563d 6cb6 323e 1c3c 54be 6aef d03d
000000d0: d83b 8e3e 0a1a a73d 2370 58bd b6b8 553e
000000e0: 1bc1 613d 80ba 78bc 8dc8 763e 5b9e 933b
000000f0: 34e5 eebc ab24 79be 193a 73be 3b4b 3b3e
00000100: 841a 3d3e 3ea2 283e e129 3f3e 106d 1e3d
00000110: e962 3a3e 42ab 673e cf1d 93be 5e35 b1bd
00000120: cf95 383e 1b2b efbd 5b85 8abd 354e 86bc
00000130: 4caf 6b3e 6f7f 92be 8d81 bb3d 5591 18be
00000140: 1cb7 89be 4e6b 1e3e ce58 93be 9353 4a3e
00000150: 2bc8 123c 90d7 623e 7b0c 64bc a2fd 3a3e
00000160: 9527 8bbc b350 183d 04b4 9c3e baa7 b5bd
00000170: 2b90 823c 70c7 9d3d fa82 f63d de65 4abc

submod1.bias f4 [6]
0.14315471 -0.108558856 0.24334452 -0.11333072 0.10083109 -0.37762582
00000000: 2697 123e 1b54 debd 4e2f 793e f019 e8bd
00000010: 8880 ce3d 2c58 c1be

conv2.weight f4 [16, 16, 3]
3.2597764 -7.644253 0.17169648 -0.13758466 -0.21568955 0.79034925 -1.3344941 1.096915
3.6833296 0.59000534 0.28088978 -0.8835914 1.5930144 0.40289703 -0.06854083 0.2886823
0.52361226 0.14427492 -2.2249107 -1.2628229 2.3172877 -1.0305201 -0.3335072 0.031202698
2.5758357 -0.4324407 -2.1303444 -0.102743804 -2.4954376 -1.4667343 -1.0174686 -1.4760941
-1.025766 0.3485122 1.1393837 0.75498134 -3.4869123 1.0205704 2.475304 0.39795488
1.4369303 -3.6482463 2.3138273 -6.5678916 -5.1086593 4.9474826 -3.3345082 11.227604
-3.0325098 4.579629 2.8714833 2.1376257 -1.4452968 -0.5060647 -3.1952577 2.7870252
-2.6454747 -1.2014904 0.08639669 -0.500154 0.068003304 -0.07599289 0.26744154 -4.9093604
-0.7601754 1.8541698 0.27511752 -2.8681538 -1.7309294 5.619663 -1.2010912 -1.1770029
-0.013080736 1.8113505 2.228501 7.617677 1.4317001 -4.313892 -2.0119734 0.73080313
3.5455527 0.42745018 1.6458143 0.88892037 1.1293881 0.8995649 -1.4230523 5.884912
-1.9273878 1.0274919 -1.2124835 0.7612241 -0.13640982 -5.4465337 7.057253 0.07954556
1.7866181 -3.080419 1.812096 1.566225 0.18293612 -0.04845232 -1.515842 2.9630125
-1.5151086 -2.847428 -1.0387427 -0.13339058 -0.36624226 2.153333 0.97173893 -2.3905756
-0.23367508 -2.3753948 4.538994 2.891571 -0.26608154 -0.63376874 -0.6827743 -0.4792199
0.92735344 1.3938392 0.04983091 4.174979 1.8490336 1.923902 -7.6978664 -1.3362284
0.5073682 2.4817994 0.86578524 1.747967 4.77986 -0.658183 1.7414622 3.5222938
3.3339655 1.8028635 -4.7991114 -3.4605362 -2.332801 -3.7960498 8.658774 -2.037838
1.4618806 1.7944216 -0.51603776 -0.72991586 1.3149613 0.9489576 6.787487 -3.5516036
-1.5586307 -2.317931 -3.3825881 1.8466069 -2.4856422 1.0935221 -3.3628862 -1.9631696
1.1533091 1.7540216 3.9705675 3.9260483 -4.6498065 0.72946966 -2.4483945 1.1978588
-0.5669931 2.0497568 2.7039833 1.33272 2.412825 0.5413276 3.8060534 -3.3371534
-4.9273543 0.6080458 0.3195249 -1.6341915 -0.7002485 2.7372558 -1.2641785 5.223375
-6.2123027 1.0546898 3.8954437 -1.1358378 -1.6299446 7.4088507 -0.33659497 0.718301
0.22464356 -4.835147 0.1996628 5.0658345 0.5115739 -3.2366006 -3.6472743 -1.5017716
-0.088345714 -1.8049896 0.24156159 0.23003355 -2.592436 -6.6683006 1.6361102 0.79229766
2.0781913 0.6970234 -1.1941445 -0.3530254 5.706895 -0.42711788 1.8661518 2.1451733
-3.5529242 2.4878638 -4.6090956 -1.4876643 -2.2725346 -2.2718709 2.7141407 -2.8086374
2.0392454 -1.3707147 -0.36269653 2.8622062 1.7188045 -6.173762 -0.16924071 -1.0768836
1.7976148 1.9150245 3.071593 4.4053483 -1.4895524 0.31671667 7.7031693 -0.2919564
-3.1344736 10.826437 -0.5720576 0.30885512 0.47589236 -2.641095 4.9705334 2.6134582
5.298058 -0.089389585 0.2740991 0.74269885 -1.1466818 -0.69198924 2.2789116 0.50702614
00000000: 2da0 5040 b89d f4c0 34d1 2f3e fee2 0cbe
00000010: b9dd 5cbe 5454 4a3f b4d0 aabf b667 8c3f
00000020: acbb 6b40 970a 173f c9d0 8f3e 0c33 62bf
00000030: e5e7 cb3f 8548 ce3e 225f 8cbd 2bce 933e
00000040: 740b 063f cebc 133e f064 0ec0 2ea4 a1bf
00000050: 714e 1440 15e8 83bf 75c1 aabe cd9c ff3c
00000060: 7eda 2440 de68 ddbe 9057 08c0 586b d2bd
00000070: 40b5 1fc0 f3bd bbbf 693c 82bf a7f0 bcbf
00000080: 4d4c 83bf 3170 b23e 53d7 913f 7546 413f
00000090: 9229 5fc0 0da2 823f 616b 1e40 bec0 cb3e
000000a0: 55ed b73f de7c 69c0 bf15 1440 2b2c d2c0
000000b0: 237a a3c0 c751 9e40 9568 55c0 44a4 3341
000000c0: a414 42c0 528c 9240 62c6 3740 dcce 0840
000000d0: 7cff b8bf 758d 01bf 1a7f 4cc0 9f5e 3240
000000e0: 754f 29c0 70ca 99bf bff0 b03d 180a 00bf
000000f0: 5145 8b3d 29a2 9bbd 19ee 883e 7b19 9dc0
00000100: db9a 42bf 7055 ed3f 34dc 8c3e d58f 37c0
00000110: 188f ddbf 47d4 b340 5bbd 99bf 08a8 96bf
00000120: 9550 56bc 55da e73f c39f 0e40 03c4 f340
00000130: f341 b73f 670b 8ac0 2cc4 00c0 ea15 3b3f
00000140: 56ea 6240 c0da da3e 0baa d23f 4990 633f
00000150: ca8f 903f e349 663f 9426 b6bf 3351 bc40
00000160: a5b4 f6bf db84 833f a932 9bbf 95df 423f
00000170: 04af 0bbe 014a aec0 04d5 e140 c8e8 a23d
00000180: e7af e43f 9625 45c0 c3f2 e73f 107a c83f
00000190: 9b53 3b3e f175 46bd 1c07 c2bf ffa1 3d40
000001a0: 14ef c1bf 433c 36c0 85f5 84bf 8a97 08be
000001b0: 1b84 bbbe 35d0 0940 e2c3 783f 31ff 18c0
000001c0: 8548 6fbe 7806 18c0 703f 9140 800f 3940
000001d0: d73b 88be ab3e 22bf 4cca 2ebf 505c f5be
000001e0: 0967 6d3f 5369 b23f 7f1b 4c3d 6e99 8540
000001f0: 22ad ec3f 6c42 f63f ec54 f6c0 8809 abbf
00000200: e2e2 013f cdd5 1e40 1aa4 5d3f 62bd df3f
00000210: 9df4 9840 ae7e 28bf 3ce8 de3f 436d 6140
00000220: b15f 5540 3bc4 e63f 5292 99c0 6d79 5dc0
00000230: 9d4c 15c0 7bf2 72c0 578a 0a41 f06b 02c0
00000240: e71e bb3f 9baf e53f 0d1b 04bf c4db 3abf
00000250: a750 a83f e3ee 723f 1833 d940 794d 63c0
00000260: 3681 c7bf fb58 14c0 537c 58c0 9d5d ec3f
00000270: c314 1fc0 88f8 8b3f 8739 57c0 2449 fbbf
00000280: a29f 933f c883 e03f c71d 7e40 6044 7b40
00000290: 37cb 94c0 86be 3a3f 7fb2 1cc0 7053 993f
000002a0: 7626 11bf 372f 0340 100e 2d40 9296 aa3f
000002b0: ba6b 1a40 7294 0a3f 6196 7340 ec93 55c0
000002c0: e3ac 9dc0 e4a8 1b3f c598 a33e 302d d1bf
000002d0: 7c43 33bf 332f 2f40 9ad0 a1bf e325 a740
000002e0: 2fcb c6c0 1300 873f f34e 7940 2263 91bf
000002f0: 06a2 d0bf 4e15 ed40 2d56 acbe 93e2 373f
00000300: f608 663e 86b9 9ac0 6874 4c3e 511b a240
00000310: 82f6 023f 7724 4fc0 f16c 69c0 0d3a c0bf
00000320: 99ee b4bd e609 e7bf ec5b 773e ea8d 6b3e
00000330: 79ea 25c0 b862 d5c0 0f6c d13f 05d4 4a3f
00000340: 1601 0540 2070 323f bad9 98bf bfbf b4be
00000350: e29e b640 32af dabe 10de ee3f 854a 0940
00000360: 1c63 63c0 2939 1f40 b67d 93c0 c96b bebf
00000370: 3571 11c0 5566 11c0 7bb4 2d40 b7c0 33c0
00000380: ff82 0240 9473 afbf 5cb3 b9be 632e 3740
00000390: c901 dc3f 758f c5c0 704d 2dbe 52d7 89bf
000003a0: 3e18 e63f 861f f53f fb94 4440 9df8 8c40
000003b0: a7a9 bebf b028 a23e 5d80 f640 4f7b 95be
000003c0: 379b 48c0 1639 2d41 5e72 12bf 4222 9e3e
000003d0: 2aa8 f33e b307 29c0 9c0e 9f40 e642 2740
000003e0: b189 a940 e311 b7bd b856 8c3e 8321 3e3f
000003f0: 78c6 92bf 3526 31bf b0d9 1140 77cc 013f

conv2.bias f4 [16]
0.7558337 -0.73439825 -0.19724561 -0.6020536 -0.56956285 -2.0422223 2.7150376 1.1456254
7.159195 -2.7354307 0.90906876 -0.06337536 0.5515706 -1.0767137 -6.685052 -1.0524919
00000000: 517e 413f 8601 3cbf c1fa 49be 2f20 1abf
00000010: dfce 11bf c5b3 02c0 2dc3 2d40 daa3 923f
00000020: 2018 e540 4c11 2fc0 bbb8 683f f1ca 81bd
00000030: bb33 0d3f c1d1 89bf f2eb d5c0 0eb8 86bf

bn2.weight f4 [16]
3.9505553 3.2714217 3.4846396 6.794487 11.950289 8.524249 2.9181862 13.622067
7.146241 12.174197 5.8039026 2.8783953 4.124087 8.926552 8.56042 7.7790866
00000000: e6d5 7c40 f95e 5140 5604 5f40 706c d940
00000010: 6234 3f41 5363 0841 90c3 3a40 fdf3 5941
00000020: 02ae e440 83c9 4241 92b9 b940 a137 3840
00000030: 85f8 8340 28d3 0e41 7bf7 0841 47ee f840

bn2.bias f4 [16]
-3.2011967 -0.6020181 -7.2275863 -2.9037147 -4.5916824 -2.989185 -2.2099807 -11.922689
-4.1411514 -13.155274 -18.785612 -2.4508271 -3.6453333 -5.305038 -21.128897 -18.51697
00000000: 68e0 4cc0 dc1d 1abf 6348 e7c0 76d6 39c0
00000010: 10ef 92c0 cf4e 3fc0 5370 0dc0 56c3 3ec1
00000020: 5084 84c0 017c 52c1 ef48 96c1 5ada 1cc0
00000030: 244d 69c0 dfc2 a9c0 fb07 a9c1 c122 94c1

bn2.running_mean f4 [16]
-3.1189446 24.46212 28.446472 24.1831 11.959142 -2.0103357 1.440405 -9.935256
30.57776 22.593016 4.3252482 6.0114956 0.14101943 19.870342 -0.34340462 6.8568516
00000000: ca9c 47c0 6cb2 c341 6092 e341 fd76 c141
00000010: a558 3f41 57a9 00c0 315f b83f cff6 1ec1
00000020: 419f f441 7fbe b441 6f68 8a40 2c5e c040
00000030: 6667 103e 76f6 9e41 bbd2 afbe 546b db40

bn2.running_var f4 [16]
37.257446 218.36604 96.71009 556.2932 505.76627 317.24292 125.1385 53.98441
322.41647 149.75208 57.574112 91.92462 90.98642 98.760704 30.211359 40.447117
00000000: a007 1542 b55d 5a43 916b c142 c412 0b44
00000010: 15e2 fc43 189f 9e43 e946 fa42 09f0 5742
00000020: 4f35 a143 88c0 1543 e44b 6642 68d9 b742
00000030: 0cf9 b542 7b85 c542 ddb0 f141 d9c9 2142

submod2.weight f4 [6, 16, 1]
0.5830253 -0.19512922 -0.55989444 -0.10677384 0.0024390412 0.004970997 0.08794735 0.7301322
-0.22348996 0.38547865 -2.5040045 -0.31873193 -0.38865393 -0.26330054 0.17680134 0.9592381
-0.14051746 0.11020371 -0.22139975 -0.25915775 -0.06780407 -0.17829238 -0.124137424 0.1843992
0.15846562 2.3865414 3.3371818 0.27087885 0.43850648 -0.26449364 -2.1278744 0.9023158
-2.3570964 -1.435731 -1.6924359 -0.055354178 -0.0022131773 -0.03074089 -1.2373741 -2.9601595
0.0021578304 -2.1152823 -2.395802 -1.2949809 1.3658352 2.0480003 -2.436212 1.3922758
-0.1374105 0.10761717 0.43642893 -0.115683384 -0.14455377 -0.039167076 0.09919353 -0.19609268
-0.046392005 0.14458415 -1.9579797 0.120140396 0.04560841 -0.23542017 1.6268655 -2.5848835
-0.040505998 0.16376662 0.82117015 -0.081596486 -0.2775278 0.12736067 -0.1397477 1.0500551
0.118667774 -2.746031 -2.5718942 0.050445206 -0.5167763 -0.35773894 1.4109466 0.6056231
0.38918898 -0.2368568 0.1118608 -0.15481092 -0.079988405 0.06236771 0.14983827 0.44881746
-0.15977451 -0.04673013 -2.4402206 -0.024518931 -0.09463905 -0.14772108 0.5858489 -0.14322379
00000000: 2541 153f f4cf 47be 3e55 0fbf 3eac dabd
00000010: 52d8 1f3b bfe3 a23b be1d b43d f2e9 3a3f
00000020: 8dda 64be 755d c53e 9c41 20c0 d530 a3be
00000030: a6fd c6be 54cf 86be 690b 353e a190 753f
00000040: cfe3 0fbe 7cb2 e13d 9eb6 62be 53b0 84be
00000050: dcdc 8abd 4792 36be c33b febd 25d3 3c3e
00000060: d044 223e 18bd 1840 6394 5540 a2b0 8a3e
00000070: ec83 e03e b66b 87be 182f 08c0 2bfe 663f
00000080: abda 16c0 09c6 b7bf bda1 d8bf 10bb 62bd
00000090: f40a 11bb 52d4 fbbc 4662 9ebf 4173 3dc0
000000a0: 636a 0d3b c960 07c0 d254 19c0 efc1 a5bf
000000b0: b0d3 ae3f 7012 0340 e6ea 1bc0 1836 b23f
000000c0: 57b5 0cbe 6466 dc3d 9d73 df3e 69eb ecbd
000000d0: e705 14be a86d 20bd fa25 cb3d 85cc 48be
000000e0: 8b05 3ebd de0d 143e 149f fabf 2b0c f63d
000000f0: e2cf 3a3d fc11 71be 213d d03f bb6e 25c0
00000100: 9ee9 25bd 70b2 273e 3538 523f 0f1c a7bd
00000110: 2018 8ebe d66a 023e 051a 0fbe 3568 863f
00000120: 1708 f33d f9be 2fc0 ea99 24c0 a29f 4e3d
00000130: 744b 04bf 8f29 b7be e699 b43f 1e0a 1b3f
00000140: c743 c73e 978a 72be 4617 e53d c186 1ebe
00000150: f6d0 a3bd 4975 7f3d 346f 193e 67cb e53e
00000160: ee9b 23be 1868 3fbd 932c 1cc0 eddb c8bc
00000170: 1ed2 c1bd 3244 17be 32fa 153f 42a9 12be

submod2.bias f4 [6]
-0.09237736 -0.34045205 0.44549894 0.1506646 -0.12791009 -0.06364546
00000000: 5730 bdbd bb4f aebe 7018 e43e d247 1a3e
00000010: ddfa 02be 8d58 82bd

conv3.weight f4 [32, 16, 3]
-0.91565496 -2.4619148 -0.8054107 -1.216085 -5.3894 -3.4955108 -3.5293777 4.9090323
2.4115639 2.9192674 4.4415016 2.801202 4.582677 -3.930519 0.09078573 0.8709279
1.3499848 -5.923181 0.587114 2.9509544 2.6103854 -0.41151989 0.05665529 0.041342456
0.027776558 -5.60404 -1.5211853 -3.7160873 3.5600646 1.7831206 -2.3576272 6.32168
0.77406067 0.9645741 -0.80812514 2.8140924 -1.122872 2.3255272 0.73343915 0.27511337
-2.635033 -0.7826664 -0.596165 1.7240266 0.90932 -1.5358062 0.4263298 -0.62157345
-4.6292434 0.31615844 3.0379527 -3.3343754 2.450941 2.9909654 -2.3764637 -2.8342156
-2.1087942 5.524639 1.6731378 0.17093319 4.123278 5.9778347 -6.7773 -0.81846946
2.9429755 0.3955322 -3.1197834 -3.6175435 0.5223336 -2.247783 1.1680906 1.7628354
0.6790881 -2.5593734 -3.3671267 0.97092235 -0.61737573 0.15783414 -4.559189 -4.6196904
-8.945692 0.61052305 0.9294054 1.6635858 1.6953135 -4.854404 -1.9838439 -1.4235116
2.051452 1.098213 0.7949298 -0.7570465 -2.2631092 -3.5916398 0.492553 -1.9566957
0.5567338 3.1440797 -5.031474 -0.10658312 -3.9341316 -1.5304564 1.8118217 0.103428304
-0.28218997 -0.19385873 0.69776964 -4.041178 7.4086227 -1.1752834 4.349443 -3.5867472
-5.182033 4.5817695 1.8296586 1.5981779 -2.5625744 -0.77110505 -0.564181 -2.9377198
-1.7024387 3.3534195 -1.606498 -6.172474 0.7223234 -2.4681656 5.2770514 1.1313962
-1.008061 -2.00378 -2.0260205 2.5446224 0.4397795 1.3937232 3.0502374 1.4167902
1.3225209 -0.5316697 0.956758 -0.43557984 0.9478952 -0.28170234 -0.42469648 -0.46238208
-0.4760287 0.14956307 5.0599747 -2.1807787 -0.9835083 -1.4896892 0.84048194 2.5046875
2.1363666 -0.37399435 0.9842302 2.002367 9.216649 3.0276823 -4.9237647 -1.4611034
-1.6876999 -3.7825332 1.5927356 -0.45777515 0.76504064 0.8316784 -2.1529403 -0.92942387
-0.7345483 2.708205 -8.905696 2.1934962 2.5639937 0.29139438 4.9602113 4.2115993
1.7824407 0.7312673 0.70039415 -0.46246022 -0.8075608 -1.199256 -2.0825734 -0.32888374
-0.8954882 1.0413809 -0.6435724 -1.0753886 -2.4194658 -1.2739918 0.5334134 0.8119086
0.16549477 0.41164973 -1.2471696 -3.4936056 -3.9933572 -4.4031615 3.3839657 0.6673515
2.9963205 2.7651849 2.657471 4.7453985 1.1961498 6.2653685 -2.6589806 1.5980563
-8.972534 -4.6852036 -0.14075296 2.8020897 0.9003437 1.3856933 -0.48474452 1.3501654
-0.26217666 0.978737 -1.2678566 -5.394724 -2.3638036 2.0179405 -0.57149494 -0.80408156
-3.7178864 1.4095855 6.524086 4.7930675 -0.9703235 -1.1121912 -2.5620573 1.1948739
0.37155348 0.13825709 -0.30612093 2.075889 1.8699024 0.24046253 -1.617787 -0.21610971
4.7734537 -0.29483616 0.5320335 -0.49210417 -1.5154543 2.1121838 -0.021236477 0.5730273
-3.229665 7.1904182 1.2284186 -1.9084443 1.202251 -6.4656234 1.4792665 -3.1632025
00000000: 5d68 6abf 0390 1dc0 652f 4ebf aca8 9bbf
00000010: f775 acc0 73b6 5fc0 53e1 61c0 cb16 9d40
00000020: 1057 1a40 47d5 3a40 c820 8e40 e546 3340
00000030: 4aa5 9240 a08d 7bc0 deed b93d 21f5 5e3f
00000040: 4dcc ac3f b38a bdc0 1a4d 163f 70dc 3c40
00000050: 8e10 2740 bcb2 d2be 610f 683d b556 293d
00000060: aa8b e33c 4c54 b3c0 33b6 c2bf 60d4 6dc0
00000070: 19d8 6340 4c3d e43f 5de3 16c0 344b ca40
00000080: d728 463f 54ee 763f 4ae1 4ebf 171a 3440
00000090: 45ba 8fbf 70d5 1440 abc2 3b3f a9db 8c3e
000000a0: 61a4 28c0 d35c 48bf 459e 18bf e7ac dc3f
000000b0: 32c9 683f 4c95 c4bf e647 da3e 701f 1fbf
000000c0: c322 94c0 85df a13e d16d 4240 6866 55c0
000000d0: 38dc 1c40 fa6b 3f40 fb17 18c0 ca63 35c0
000000e0: 7cf6 06c0 d8c9 b040 6129 d63f 1c09 2f3e
000000f0: e5f1 8340 6c4a bf40 a4df d8c0 3787 51bf
00000100: b659 3c40 3283 ca3e 88aa 47c0 d585 67c0
00000110: a8b7 053f addb 0fc0 fe83 953f 97a4 e13f
00000120: b8d8 2d3f c6cc 23c0 017f 57c0 5e8e 783f
00000130: 560c 1ebf 469f 213e e0e4 91c0 81d4 93c0
00000140: 8e21 0fc1 3d4b 1c3f 83ed 6d3f 61f0 d43f
00000150: 0800 d93f 4757 9bc0 99ee fdbf a135 b6bf
00000160: fd4a 0340 3e92 8c3f 8580 4b3f cdcd 41bf
00000170: c8d6 10c0 6ddd 65c0 e82f fc3e 0175 fabf
00000180: 1b86 0e3f 9a38 4940 d601 a1c0 4048 dabd
00000190: d0c8 7bc0 ffe5 c3bf c6e9 e73f 38d2 d33d
000001a0: 347b 90be e782 46be 08a1 323f 5551 81c0
000001b0: 7013 ed40 b06f 96bf a32e 8b40 448d 65c0
000001c0: 37d3 a5c0 db9d 9240 4132 ea3f 1891 cc3f
000001d0: 3801 24c0 2467 45bf 2b6e 10bf 9a03 3cc0
000001e0: 83e9 d9bf 6d9e 5640 baa1 cdbf e884 c5c0
000001f0: 30ea 383f 6df6 1dc0 9bdd a840 97d1 903f
00000200: 2508 81bf ee3d 00c0 52aa 01c0 18db 2240
00000210: c72a e13e 8665 b23f 1737 4340 6259 b53f
00000220: 5d48 a93f 811b 08bf 18ee 743f 5204 dfbe
00000230: 43a9 723f 4a3b 90be d171 d9be 58bd ecbe
00000240: 09ba f3be 1027 193e 50eb a140 e191 0bc0
00000250: 33c7 7bbf 23ae bebf d329 573f cd4c 2040
00000260: 3bba 0840 307c bfbe 83f6 7b3f c826 0040
00000270: 6577 1341 8cc5 4140 7b8f 9dc0 7005 bbbf
00000280: 8d06 d8bf 0615 72c0 c3de cb3f 8161 eabe
00000290: b4d9 433f e0e8 543f c6c9 09c0 b9ee 6dbf
000002a0: 5b0b 3cbf 3b53 2d40 bb7d 0ec1 3e62 0c40
000002b0: 7918 2440 a531 953e 0dba 9e40 6cc5 8640
000002c0: 0427 e43f 5534 3b3f 084d 333f 96c7 ecbe
000002d0: 4ebc 4ebf 3881 99bf e248 05c0 7363 a8be
000002e0: b73e 65bf f84b 853f 29c1 24bf 55a6 89bf
000002f0: 87d8 1ac0 2a12 a3bf c88d 083f 3ed9 4f3f
00000300: 7677 293e c1c3 d23e 41a3 9fbf 3c97 5fc0
00000310: 2a93 7fc0 b3e6 8cc0 e592 5840 8cd7 2a3f
00000320: b7c3 3f40 caf8 3040 0114 2a40 4eda 9740
00000330: 701b 993f e67d c840 bd2c 2ac0 1c8d cc3f
00000340: 808f 0fc1 30ed 95c0 8b21 10be 7055 3340
00000350: ed7c 663f 665e b13f 6f30 f8be 38d2 ac3f
00000360: 053c 86be 828e 7a3f 2049 a2bf 94a1 acc0
00000370: 8f48 17c0 f025 0140 7e4d 12bf 4ad8 4dbf
00000380: daf1 6dc0 4c6d b43f 50c5 d040 cf60 9940
00000390: 1f67 78bf 485c 8ebf bff8 23c0 a1f1 983f
000003a0: 423c be3e 4493 0d3e e2bb 9cbe 5edb 0440
000003b0: f658 ef3f cf3b 763e a513 cfbf dd4b 5dbe
000003c0: 22c0 9840 c4f4 96be 5933 083f 14f5 fbbe
000003d0: 68fa c1bf 052e 0740 1ff8 adbc ebb1 123f
000003e0: d5b2 4ec0 e817 e640 d23c 9d3f e747 f4bf
000003f0: 5ce3 993f 63e6 cec0 9b58 bd3f e971 4ac0

conv3.bias f4 [32]
-0.196272 -0.47231552 -0.52209806 -0.22710489 -0.19340351 -0.13529705 0.0639058 0.40513122
0.07395272 0.06437531 0.2994095 -0.11829626 -0.27867037 -0.09746541 -0.3098357 -0.2296771
-0.55261 -0.5566481 0.041956287 0.06490642 -0.29293045 -0.68936396 -0.40323612 -0.283457
0.14880879 -0.39914578 0.000621787 -0.5357958 0.1421204 -0.17460468 -0.11183932 -0.11479107
00000000: 87fb 48be 57d3 f1be 38a8 05bf 2f8e 68be
00000010: 920b 46be 4f8b 0abe 0be1 823d 5c6d cf3e
00000020: 8674 973d 34d7 833d 344c 993e 4f45 f2bd
00000030: e2ad 8ebe f29b c7bd c9a2 9ebe 7930 6bbe
00000040: d977 0dbf 7d80 0ebf 5bda 2b3d a8ed 843d
00000050: fbfa 95be 287a 30bf f774 cebe 4721 91be
00000060: 5561 183e d65c ccbe 6bff 223a ea29 09bf
00000070: 0388 113e 92cb 32be 030c e5bd 9517 ebbd

bn3.weight f4 [32]
14.428865 9.396119 8.343203 8.483026 7.7873917 6.379771 6.1616044 6.358187
8.651997 5.952557 3.6979566 10.692713 8.382887 6.2761865 10.068774 6.169863
8.167088 8.457099 7.904317 7.89445 5.4465938 16.772186 4.9543214 6.5303926
8.227812 7.337621 7.5730214 12.919736 7.0810037 6.7591724 7.477986 7.538201
00000000: a2dc 6641 8156 1641 c27d 0541 79ba 0741
00000010: 5032 f940 1627 cc40 dd2b c540 4576 cb40
00000020: 946e 0a41 597b be40 52ab 6c40 5a15 2b41
00000030: 4e20 0641 85d6 c840 b319 2141 856f c540
00000040: 64ac 0241 4750 0741 2af0 fc40 569f fc40
00000050: 7f4a ae40 702d 8641 cd89 9e40 faf8 d040
00000060: 1ea5 0341 cbcd ea40 3156 f240 3db7 4e41
00000070: 9597 e240 244b d840 a94b ef40 f138 f140

bn3.bias f4 [32]
-14.219861 -6.267119 -6.2355714 -6.492394 -15.331844 -0.6318953 -9.941045 -7.43198
-8.540724 -4.8223014 -1.0380052 -13.245658 -9.573586 -6.368676 -7.203043 -6.767211
-4.9338384 -13.959634 -5.9746504 -8.469574 -8.141995 -15.414362 -10.915102 -5.770959
-4.3925815 -5.0008173 0.16203539 -14.152633 -11.052205 -6.4638715 -5.9596257 -9.071123
00000000: 8d84 63c1 3d8c c8c0 cd89 c7c0 b1c1 cfc0
00000010: 3c4f 75c1 e4c3 21bf 850e 1fc1 c8d2 edc0
00000020: cea6 08c1 4b50 9ac0 5bdd 84bf 37ee 53c1
00000030: 692d 19c1 32cc cbc0 547f e6c0 fe8c d8c0
00000040: 01e2 9dc0 a95a 5fc1 5630 bfc0 6083 07c1
00000050: 9d45 02c1 3aa1 76c1 42a4 2ec1 b2ab b8c0
00000060: 0790 8cc0 b206 a0c0 9bec 253e 2f71 62c1
00000070: d5d5 30c1 09d8 cec0 41b5 bec0 5223 11c1

bn3.running_mean f4 [32]
-17.468575 10.895705 7.2751794 -2.0632467 -4.8966737 -9.046963 -24.19945 6.009772
29.453775 -9.651087 -4.3185797 -2.202467 -19.285435 11.155186 -1.4306386 6.2809963
-9.9606695 -6.6456766 2.660461 -16.43872 11.029179 3.1229765 28.813766 8.623972
-11.729279 0.19334427 -21.992569 -7.622998 -9.187931 -5.4034963 -23.29699 -30.754068
00000000: a4bf 8bc1 cf54 2e41 45ce e840 3c0c 04c0
00000010: 8db1 9cc0 5cc0 10c1 7998 c1c1 0d50 c040
00000020: 55a1 eb41 da6a 1ac1 ce31 8ac0 38f5 0cc0
00000030: 9248 9ac1 a47b 3241 2a1f b7bf ecfd c840
00000040: e75e 1fc1 62a9 d4c0 fe44 2a40 8082 83c1
00000050: 8477 3041 d9de 4740 9882 e641 cafb 0941
00000060: 20ab 3bc1 0afc 453e c8f0 afc1 9aef f3c0
00000070: c401 13c1 71e9 acc0 3c60 bac1 5508 f6c1

bn3.running_var f4 [32]
1451.1807 1908.8201 1320.6243 1064.4532 834.6654 1497.8839 1307.5907 748.00433
794.15076 1101.8256 843.54767 1186.1642 924.56726 1102.9827 1641.0692 976.6341
2111.278 1229.4556 1508.6635 1545.4828 1060.9744 1340.592 849.05334 848.5808
1358.7953 1246.7896 3495.8513 1161.5096 693.639 1126.913 1627.2781 1174.1364
00000000: c865 b544 3e9a ee44 fa13 a544 810e 8544
00000010: 96aa 5044 493c bb44 e772 a344 4700 3b44
00000020: a689 4644 6bba 8944 0de3 5244 4145 9444
00000030: 4e24 6744 72df 8944 3722 cd44 9528 7444
00000040: 73f4 0345 94ae 9944 3b95 bc44 732f c144
00000050: 2e9f 8444 f292 a744 6a43 5444 2c25 5444
00000060: 73d9 a944 44d9 9b44 9f7d 5a45 4f30 9144
00000070: e568 2d44 37dd 8c44 e668 cb44 5dc4 9244

submod3.weight f4 [6, 32, 1]
-1.0214645 0.22296396 -0.2921774 0.24962506 -0.8489344 0.008058299 -0.38255143 0.7051497
-0.37205705 0.50270313 0.00012823865 -0.99139094 0.70889777 0.3547724 -0.6911817 -0.5743268
-0.2776384 -0.23164971 0.027142793 0.76797277 0.0062076333 -0.2473504 -0.1587278 -0.023821883
0.07577012 0.24715315 0.28415212 -1.1292993 -0.08014513 -0.0037259753 -0.48991412 -0.09700242
0.37626857 -0.912756 0.3588078 0.27305734 -0.6737858 -0.10729585 -0.16251881 0.5877077
-0.4872736 0.11018634 -0.10861271 0.89459443 -0.72951865 0.026005175 -0.20256834 -0.04438375
-0.4733934 0.8075576 0.4391742 -0.7311477 -0.5717531 0.7836766 -0.63324773 -0.02769403
-0.0058647646 0.73478377 -0.1779429 -1.123958 -0.2708392 0.27562532 -0.4994672 0.3169756
-0.58614755 0.13561247 0.6448308 0.2609145 -0.5575907 -0.7056808 -0.661052 -0.6909689
0.9865184 -0.77253544 -0.15291508 -0.5958897 -0.444496 -0.47023204 0.77129453 -0.9617493
0.86931443 -0.56059444 -0.5365465 -0.33125645 -0.17902626 0.7468183 -0.57382154 0.19611783
0.75018406 -0.33274347 0.111779094 -1.0842212 -0.54797643 -0.87241757 -0.20048206 -0.9017785
0.9520753 -0.9504765 -0.5573656 0.10570049 0.69667304 0.067730695 0.13954724 -0.82427174
-0.51138455 0.09093401 0.07301735 -0.84685916 0.11657716 0.80789894 0.92102355 0.43873996
-0.06766305 -0.58897066 -0.21464466 -0.010564348 0.059612796 -1.1299831 -0.59266895 -0.3971269
-0.3536168 -0.2560507 -0.2678359 1.154653 -0.9287075 0.37746632 0.87716603 0.67313623
0.15774333 0.95547056 -0.19565634 -1.4211487 0.8796917 0.2838521 0.94922185 -0.39293692
-0.2067114 -0.04612606 0.07191152 -0.21432024 -0.9241414 -0.43869415 -0.61078876 -0.05703844
-0.2968915 1.0149009 0.8437072 -0.16279225 0.20394762 -0.8469434 0.97998196 0.9113493
-0.975702 -0.2251394 0.13217288 0.042860664 1.0884072 -0.3308802 -0.5180984 -0.84902817
-1.1368079 0.4570506 -0.6088922 0.35058233 -0.9284915 0.15095767 -0.90008384 0.2568545
-0.054807056 0.1142711 0.2762757 -0.04105764 0.38583118 -0.025460778 0.14669852 0.36528885
-0.43765265 -1.0932602 -0.34225768 0.42314622 0.51496226 -0.9075506 0.62843806 -0.39763403
0.20159556 -0.69286263 0.2020078 -0.34072572 0.0629753 0.48260847 0.23633601 0.22228658
00000000: 59bf 82bf aa50 643e 4798 95be b69d 7f3e
00000010: c453 59bf f506 043c c8dd c3be b184 343f
00000020: 437e bebe 27b1 003f cd77 0639 cccb 7dbf
00000030: 537a 353f baa4 b53e 49f1 30bf 1507 13bf
00000040: 9f26 8ebe 9535 6dbe 905a de3c dd99 443f
00000050: 6769 cb3b 6c49 7dbe 8a89 22be 1c26 c3bc
00000060: 5d2d 9b3d b715 7d3e 637c 913e e18c 90bf
00000070: 2123 a4bd 7e2f 74bb 06d6 fabe 34a9 c6bd
00000080: 46a6 c03e 61aa 69bf a8b5 b73e 2cce 8b3e
00000090: 3a7d 2cbf edbd dbbd 556b 26be 0374 163f
000000a0: ed7b f9be 60a9 e13d 5770 debd 2404 653f
000000b0: bcc1 3abf ce08 d53c 136e 4fbe bccb 35bd
000000c0: 9f60 f2be 18bc 4e3f 71db e03e 7f2c 3bbf
000000d0: 695e 12bf 089f 483f 861c 22bf 97de e2bc
000000e0: 362d c0bb ca1a 3c3f aa36 36be dbdd 8fbf
000000f0: 70ab 8abe c31e 8d3e 2aba ffbe a04a a23e
00000100: c40d 16bf ffdd 0a3e a213 253f 9696 853e
00000110: 44be 0ebf 7fa7 34bf b43a 29bf 56e3 30bf
00000120: 788c 7c3f e2c4 45bf c595 1cbe 3a8c 18bf
00000130: fb94 e3be 41c2 f0be 8f73 453f 3435 76bf
00000140: 648b 5e3f 1e83 0fbf 1d5b 09bf 729a a9be
00000150: a952 37be 7c2f 3f3f f8e5 12bf 1dd3 483e
00000160: 100c 403f 5a5d aabe 70ec e43d c3c7 8abf
00000170: 2f48 0cbf c256 5fbf 2b4b 4dbe f5da 66bf
00000180: 35bb 733f 6e52 73bf 83af 0ebf 8079 d83d
00000190: 2a59 323f 64b6 8a3d 79e5 0e3e 7903 53bf
000001a0: 19ea 02bf 9c3b ba3d 1f8a 953d c3cb 58bf
000001b0: 02c0 ee3d 77d2 4e3f 33c8 6b3f 86a2 e03e
000001c0: ed92 8abd c8c6 16bf cfcb 5bbe 1616 2dbc
000001d0: 8c2c 743d 49a3 90bf 27b9 17bf 3854 cbbe
000001e0: 430d b5be 1419 83be c921 89be abcb 933f
000001f0: c6bf 6dbf 4443 c13e f48d 603f a852 2c3f
00000200: 7887 213e b899 743f 235a 48be 33e8 b5bf
00000210: 7a33 613f 1055 913e 3400 733f 072f c9be
00000220: 27ac 53be aeee 3cbd 5946 933d c476 5bbe
00000230: 8894 6cbf 859c e0be a75c 1cbf 24a1 69bd
00000240: 2a02 98be 46e8 813f 32fd 573f 03b3 26be
00000250: a5d7 503e 48d1 58bf 19e0 7a3f 304e 693f
00000260: 9bc7 79bf f18a 66be 5458 073e aa8e 2f3d
00000270: ed50 8b3f 2169 a9be 19a2 04bf e959 59bf
00000280: ec82 91bf 8902 ea3e 5ce0 1bbf 877f b33e
00000290: 9eb1 6dbf a694 1a3e e56b 66bf 6f82 833e
000002a0: 5d7d 60bd f706 ea3d 0274 8d3e 0e2c 28bd
000002b0: aa8b c53e 1f93 d0bc 2338 163e 2407 bb3e
000002c0: 0214 e0be f3ef 8bbf 663c afbe 9fa6 d83e
000002d0: 91d4 033f 3c55 68bf 51e1 203f b096 cbbe
000002e0: 116f 4e3e 725f 31bf 22db 4e3e 9a73 aebe
000002f0: 32f9 803d 7518 f73e 1102 723e 189f 633e

submod3.bias f4 [6]
0.23504262 -0.16978134 -0.06484161 -0.018201165 -0.045403853 0.039921455
00000000: 03af 703e 29db 2dbe aecb 84bd 9c1a 95bc
00000010: 64f9 39bd ae84 233d

conv4.weight f4 [32, 32, 3]
1.730674 1.4739519 -1.2148119 -4.4714904 -1.5093873 1.3700359 1.8642877 -2.3540108
1.6610285 1.7443916 3.8934386 -0.706115 -0.463886 0.50543034 4.4830256 -2.0812864
2.6150634 0.56894845 0.5237584 3.4693918 -2.2245433 2.4309714 0.65611345 -3.6690686
-3.9002311 -1.8497127 0.93959826 -0.82737327 -1.220121 -2.3620696 -0.7092397 -2.5141037
1.8787874 -4.6117578 3.249935 6.0382285 -2.6045597 2.2452564 2.4147382 -2.3540974
0.4349492 0.6211943 3.4927647 -2.4859066 -0.9986198 1.9287696 5.0786986 -1.9617203
-5.4146385 1.4889394 1.6345522 3.042349 4.9044504 -6.0138555 -2.34673 0.15991691
-1.4646667 -3.0663114 -6.7509813 -4.5249095 3.6912816 0.80115557 1.6844902 4.2656884
3.8373723 -2.5604029 -1.6978382 -0.8360797 -0.34654987 1.9132184 -2.678473 -1.5017608
1.9203168 4.2758536 1.5052931 -1.5750661 -1.7575336 0.40594643 -0.08207913 5.504871
-2.859523 1.3985502 -4.416423 1.1557069 -1.5121535 -1.899579 -3.1320095 -0.85510236
0.04319356 -0.49684712 3.0806196 -4.0562005 2.1872988 2.5592082 -2.0390804 1.3956063
5.9425416 -1.0565703 0.66575277 -3.9976952 -0.79043615 0.17839491 -1.496321 1.8040632
5.5214896 0.9399246 0.29576415 0.121797785 2.0089834 2.0477815 -1.7021464 0.37173584
-0.5298994 -2.743274 2.1976588 -1.288592 -3.9588044 1.5657841 -2.1019058 -0.101253636
1.0259088 0.6470495 -1.6624105 -1.7995225 -2.5650764 -0.5929541 5.8528013 -0.7555402
-4.4294767 1.53374 2.161118 0.47224975 1.6074555 -1.6091042 -1.0714722 7.0837045
0.6520443 -1.2410696 4.204515 3.3496184 -1.2270128 1.31643 4.2078133 -0.12052556
-0.37175697 3.9206665 -2.8833575 -0.26982394 -4.011621 0.6886876 -2.3407185 -2.933
-0.6216165 -1.8217366 -0.959726 -1.6297591 1.7087847 2.4440396 1.7466376 -7.411413
1.7456837 1.2192137 -3.1786036 0.030063415 2.835336 0.28503022 1.5523583 0.13696821
3.0618374 5.5208216 -5.0087647 0.9289257 -0.1374623 0.105613336 -2.6647408 2.3496373
0.8059265 3.9850063 1.1183001 1.2962048 -3.8446481 -1.0373183 2.336863 -3.8272023
0.96891296 -1.4153455 2.6806624 2.4044583 2.066343 -0.7995168 -1.3170632 -2.1542351
-0.044648804 3.0481486 0.1562151 3.0460818 0.2530901 2.1236398 -3.6180387 0.9114321
2.4567704 -3.5615313 -0.7810697 1.3933622 1.7138447 4.1464963 1.4061778 -2.2387993
-3.3649967 -0.50932384 2.5975196 6.450417 -1.63797 -4.914921 -4.0648923 -3.222331
0.29924968 0.76912105 -0.8396512 -3.6724796 -2.0143764 0.53777367 3.3321574 1.81044
-3.6378624 -2.6232295 6.3893466 3.218074 -3.0757246 -5.179709 -0.087892234 1.4047904
0.057607777 0.7242842 3.975934 -0.80801374 0.41448185 -0.8274463 -2.734659 -2.2640316
5.2839675 -0.26577765 0.90263206 4.4225698 0.71111155 -2.1622741 -0.74982345 -4.98816
-2.649689 3.5985613 6.356783 2.160002 0.4909105 2.435992 -1.4947089 -0.7898106
00000000: ba86 dd3f 75aa bc3f f57e 9bbf 7316 8fc0
00000010: 9a33 c1bf 565d af3f fba0 ee3f 1da8 16c0
00000020: 959c d43f 3948 df3f 192e 7940 f4c3 34bf
00000030: 7782 edbe e263 013f f274 8f40 cc33 05c0
00000040: 335d 2740 9ba6 113f 0815 063f 840a 5e40
00000050: eb5e 0ec0 0995 1b40 0df7 273f 05d2 6ac0
00000060: 639d 79c0 63c3 ecbf 8389 703f bcce 53bf
00000070: ed2c 9cbf 262c 17c0 bc90 35bf 13e7 20c0
00000080: 1b7c f03f 8593 93c0 effe 4f40 2b39 c140
00000090: 1bb1 26c0 48b2 0f40 128b 1a40 88a9 16c0
000000a0: a9b1 de3e 9706 1f3f 7589 5f40 1819 1fc0
000000b0: 8ca5 7fbf ece1 f63f b384 a240 a719 fbbf
000000c0: b844 adc0 9195 be3f 0239 d13f d9b5 4240
000000d0: 42f1 9c40 8171 c0c0 d330 16c0 42c1 233e
000000e0: 337a bbbf 723e 44c0 0a08 d8c0 0fcc 90c0
000000f0: f53d 6c40 8818 4d3f 609d d73f 8580 8840
00000100: 8297 7540 a4dd 23c0 c352 d9bf 5209 56bf
00000110: fc6e b1be 57e4 f43f 1a6c 2bc0 b339 c0bf
00000120: f1cc f53f cbd3 8840 72ad c03f c49b c9bf
00000130: dcf6 e0bf 36d8 cf3e 1a19 a8bd e727 b040
00000140: 6d02 37c0 b103 b33f 5653 8dc0 34ee 933f
00000150: 3f8e c1bf 6825 f3bf d872 48c0 fde7 5abf
00000160: bbeb 303d bf62 febe df28 4540 65cc 81c0
00000170: b4fc 0b40 11ca 2340 4b80 02c0 3aa3 b23f
00000180: 4d29 be40 b23d 87bf c66e 2a3f 3dda 7fc0
00000190: 065a 4abf 28ad 363e 7287 bfbf 8beb e63f
000001a0: 0bb0 b040 e69e 703f 666e 973e 1e71 f93d
000001b0: 2f93 0040 da0e 0340 efdf d9bf 2954 be3e
000001c0: 7da7 07bf cd91 2fc0 71a6 0c40 95f0 a4bf
000001d0: 0d5d 7dc0 9d6b c83f a085 06c0 115e cfbd
000001e0: fb50 833f 09a5 253f dec9 d4bf c156 e6bf
000001f0: 362a 24c0 d7cb 17bf 264a bb40 156b 41bf
00000200: 46be 8dc0 9851 c43f c24f 0a40 b8ca f13e
00000210: 1ac1 cd3f 20f7 cdbf 0026 89bf b5ad e240
00000220: 60ec 263f 5edb 9ebf 638b 8640 2660 5640
00000230: c10e 9dbf c780 a83f 68a6 8640 1bd6 f6bd
00000240: ee56 bebe 33ec 7a40 ee88 38c0 5d26 8abe
00000250: 335f 80c0 d54d 303f 55ce 15c0 46b6 3bc0
00000260: 4222 1fbf aa2e e9bf 9ab0 75bf f29b d0bf
00000270: 75b9 da3f 256b 1c40 d291 df3f 4c2a edc0
00000280: 9072 df3f 320f 9c3f 3e6e 4bc0 8d47 f63c
00000290: 2576 3540 7bef 913e adb3 c63f 6541 0c3e
000002a0: 25f5 4340 92aa b040 cd47 a0c0 13ce 6d3f
000002b0: ebc2 0cbe ce4b d83d 1d8b 2ac0 7560 1640
000002c0: 3351 4e3f 580a 7f40 7524 8f3f 0aea a53f
000002d0: b70e 76c0 d9c6 84bf 2a8f 1540 e2f0 74c0
000002e0: ae0a 783f 0b2a b5bf f98f 2b40 a5e2 1940
000002f0: f73e 0440 22ad 4cbf 8795 a8bf fdde 09c0
00000300: aae1 36bd de14 4340 daf6 1f3e 01f3 4240
00000310: 0795 813e b7e9 0740 f28d 67c0 9d53 693f
00000320: ba3b 1d40 21f0 63c0 2ff4 47bf b159 b23f
00000330: 435f db3f 19b0 8440 a2fd b33f 7d48 0fc0
00000340: 1b5c 57c0 0c63 02bf c33d 2640 d169 ce40
00000350: 00a9 d1bf 0847 9dc0 9913 82c0 ac3a 4ec0
00000360: 4137 993e 1ee5 443f 62f3 56bf e809 6bc0
00000370: 8beb 00c0 89ab 093f 1142 5540 7fbc e73f
00000380: bdd2 68c0 fee2 27c0 8775 cc40 edf4 4d40
00000390: acd8 44c0 2dc0 a5c0 d800 b4bd 2cd0 b33f
000003a0: 22f6 6b3d b06a 393f b475 7e40 fdd9 4ebf
000003b0: f736 d43e 85d3 53bf a704 2fc0 e5e5 10c0
000003c0: 4316 a940 0214 88be e512 673f b185 8d40
000003d0: 680b 363f b362 0ac0 6ef4 3fbf 029f 9fc0
000003e0: 8194 29c0 d44e 6640 c46a cb40 793d 0a40
000003f0: 9f58 fb3e 4be7 1b40 9f52 bfbf 0731 4abf

conv4.bias f4 [32]
-0.24557993 0.13746944 -0.029978646 -0.26603225 -0.10016546 -0.2510925 -0.22037272 -0.43252018
0.54833084 -0.2226854 -0.27654225 -0.10962673 -0.005056522 -0.43079603 -0.2799261 -0.073667966
-0.36515045 -0.115210064 -0.23858936 -0.72007346 -0.053932067 0.27081683 -0.3916591 -0.1251451
-0.2856915 -0.18050383 -0.50283533 -0.39164788 -0.93412226 -0.733685 0.22885394 -0.31736195
00000000: 4e79 7bbe cac4 0c3e c795 f5bc 6135 88be
00000010: 8c23 cdbd 328f 80be 63a9 61be 4973 ddbe
00000020: 695f 0c3f a407 64be f296 8dbe fb83 e0bd
00000030: 2eb1 a5bb 4c91 dcbe 7952 8fbe 3bdf 96bd
00000040: 00f5 babe 41f3 ebbd c550 74be bc56 38bf
00000050: dfe7 5cbd 81a8 8a3e 8b87 c8be 0926 00be
00000060: 2846 92be ffd5 38be d1b9 00bf 1286 c8be
00000070: a322 6fbf c8d2 3bbf b058 6a3e 447d a2be

bn4.weight f4 [32]
4.6839576 5.4243383 4.5909657 4.28583 6.6942787 5.903818 4.6240983 5.9286003
4.775792 11.274762 4.7874293 5.2118106 4.491657 3.7998626 6.134696 4.256037
4.967117 4.7667055 5.1176877 6.411827 6.2855453 6.929374 4.3785114 6.4677277
3.9070778 3.9970558 5.383626 6.1794763 5.621419 6.5971246 4.5903926 4.961034
00000000: fbe2 9540 2e94 ad40 31e9 9240 8525 8940
00000010: 8837 d640 14ec bc40 9df8 9340 18b7 bd40
00000020: 4ad3 9840 6d65 3441 9f32 9940 27c7 a640
00000030: a7bb 8f40 f330 7340 6e4f c440 7531 8840
00000040: 9ff2 9e40 da88 9840 19c4 a340 b02d cd40
00000050: 3023 c940 6fbd dd40 c41c 8c40 a0f7 ce40
00000060: 900d 7a40 c3cf 7f40 aa46 ac40 45be c540
00000070: aae2 b340 a51b d340 7fe4 9240 cac0 9e40

bn4.bias f4 [32]
-3.9686005 -4.882748 -3.4915726 -1.6642435 -3.652928 -5.9126816 -2.9845326 -3.977022
-3.6958396 -6.0634785 -2.7405355 -4.8151817 -3.108508 -4.31615 -4.1948338 -4.1447525
-4.1938405 -4.4422803 -5.5164895 0.68236053 -2.7593222 -6.7072797 -3.7684426 -4.220033
-1.6200827 -3.5395544 -3.0991523 -4.5727634 -0.42100623 -3.5757818 -4.2622604 -2.2140243
00000000: 8dfd 7dc0 793f 9cc0 ed75 5fc0 ee05 d5bf
00000010: 93c9 69c0 b034 bdc0 9502 3fc0 8787 7ec0
00000020: a388 6cc0 0408 c2c0 ef64 2fc0 f815 9ac0
00000030: ccf1 46c0 e71d 8ac0 143c 86c0 d0a1 84c0
00000040: f133 86c0 2927 8ec0 1587 b0c0 2eaf 2e3f
00000050: bc98 30c0 09a2 d6c0 2a2e 71c0 830a 87c0
00000060: df5e cfbf 0f88 62c0 8358 46c0 1454 92c0
00000070: 218e d7be 9cd9 64c0 7064 88c0 93b2 0dc0

bn4.running_mean f4 [32]
7.3500204 2.1168125 -11.950677 17.741117 -2.395029 12.808417 19.307243 34.015415
-11.7735195 -11.571217 -2.1323326 -4.49476 16.363348 20.629486 28.30134 35.088448
4.961327 18.823206 -21.790466 -11.239134 -5.501104 -8.008737 27.878134 0.865957
37.773354 0.49600297 34.26665 8.106707 -5.786997 -10.628226 -20.973469 13.620089
00000000: 5e33 eb40 db79 0740 f935 3fc1 cfed 8d41
00000010: 2848 19c0 47ef 4c41 3c75 9a41 c90f 0842
00000020: 5660 3cc1 b423 39c1 2378 08c0 13d5 8fc0
00000030: 23e8 8241 3009 a541 2569 e241 925a 0c42
00000040: 31c3 9e40 ed95 9641 e052 aec1 7ed3 33c1
00000050: 0b09 b0c0 c923 00c1 6b06 df41 5caf 5d3f
00000060: ea17 1742 1af4 fd3e 0d11 0942 12b5 0141
00000070: 142f b9c0 370d 2ac1 aac9 a7c1 e2eb 5941

bn4.running_var f4 [32]
6949.1997 5323.0273 5589.726 4160.4824 5785.51 3752.3606 4572.9395 5908.071
3951.684 8588.16 4729.1816 5542.4854 5493.7285 6127.217 4114.7373 4970.1006
6181.2583 4085.7073 5915.387 4937.383 6760.4863 4913.0586 7289.5063 5536.6206
7820.8203 4871.882 5112.364 3637.3362 5708.588 4575.5903 4713.709 7432.421
00000000: 9929 d945 3858 a645 cfad ae45 dc03 8245
00000010: 14cc b445 c585 6a45 84e7 8e45 91a0 b845
00000020: f2fa 7645 a430 0646 74c9 9345 e233 ad45
00000030: d4ad ab45 bc79 bf45 e695 8045 ce50 9b45
00000040: 112a c145 515b 7f45 19db b845 104b 9a45
00000050: e443 d345 7888 9945 0dcc e345 f704 ad45
00000060: 9066 f445 0e3f 9845 e9c2 9f45 6155 6345
00000070: b464 b245 b9fc 8e45 ac4d 9345 5e43 e845

submod4.weight f4 [6, 32, 1]
-0.06457115 -0.4337174 0.07588673 0.45274183 -0.5697003 -0.7139486 -0.2873488 0.18475308
-0.7492698 -0.6590834 -0.098752074 -0.13740471 0.19338566 -0.2581717 -0.3027437 0.5088893
0.115545146 -0.12474365 -0.57240427 0.32276028 0.1440848 -0.82657987 0.31602842 0.42661434
-0.108198754 0.46440375 0.3387314 0.119391754 -0.4385005 0.021680888 0.36429545 -0.06536453
0.041691374 -0.28443718 0.12599513 0.19796462 -0.55451226 -0.7356011 0.7293419 0.1738964
-0.36115015 0.7509937 0.13418724 0.673237 -0.3700742 0.091036394 -0.45996955 -0.17605738
-0.043673977 0.44282767 0.5012382 -0.36168718 -0.046238262 -0.53857464 0.32968122 0.014783176
0.2789421 -0.046065554 -0.034194022 -0.49117494 0.09258251 -0.7336994 0.072994724 0.11824126
0.2277277 0.3373487 0.20259708 -0.62139994 0.45750794 0.39069933 0.4103357 0.53500855
-0.63658047 0.37314084 0.28024995 -0.5106963 -0.7569556 -0.5551818 -0.6442841 -0.8186298
0.27088884 -0.29545838 -0.49937084 0.1052034 0.36646998 -0.23450531 -0.86758125 0.36032718
-0.72926164 -0.68843 -0.8766929 0.45893562 -0.6429943 0.20677248 -0.32270077 -1.1871743
-0.18724495 0.7095593 -0.38291726 0.14402428 -0.14498469 -0.21814045 -0.23877971 -0.69136685
0.2876429 -0.38726258 0.7382942 0.5371352 0.5963903 -0.29979867 -0.21252918 -0.5000231
-0.20006727 0.14816226 0.72055614 -0.3316576 -0.51975036 0.29780462 -0.1245929 -0.40584463
0.07046339 -0.0044571725 0.25101358 -0.91883475 0.27532247 0.32766622 -0.3951928 -0.18635832
0.69271326 -0.75734514 0.6496014 -0.17453212 0.9626759 0.43807563 -0.0913498 0.28275722
0.73975074 -0.47340217 -0.25957033 -0.42551807 -0.33943388 0.24744008 0.75354606 -0.12504274
-0.89001477 0.68690336 -0.28089365 0.03650964 -0.73958915 -0.21361127 0.10843768 -0.6563434
0.43890265 -0.8307224 -0.67436 -0.49232385 0.11463588 -0.63012725 0.60351765 0.3466179
-0.754138 -0.008778696 -0.61478305 -0.19599436 -0.6372815 -0.07008217 0.23400664 -0.12605825
-0.049273204 -0.2645465 -0.6967934 -0.512753 -0.0507539 0.49236152 -0.54775894 0.508455
0.45825118 -0.41942263 -0.65858674 0.16532971 0.044178348 0.49184114 -0.12411833 -0.087516345
0.027389904 0.11504608 0.37041909 0.56266946 0.4456646 -0.22065555 -0.2938924 0.0922841
00000000: e13d 84bd 3510 debe 806a 9b3d c7cd e73e
00000010: e1d7 11bf 56c5 36bf 621f 93be e92f 3d3e
00000020: 25d0 3fbf b1b9 28bf 873e cabd d2b3 0cbe
00000030: e406 463e 152f 84be 3901 9bbe 9246 023f
00000040: efa2 ec3d 9979 ffbd 1689 12bf d640 a53e
00000050: f78a 133e bd9a 53bf 7ace a13e 326d da3e
00000060: 4f97 ddbd 54c6 ed3e 346e ad3e aa83 f43d
00000070: 2383 e0be 1e9c b13c ef84 ba3e d7dd 85bd
00000080: 93c4 2a3d c0a1 91be de04 013e 3db7 4a3e
00000090: 84f4 0dbf 5b50 3cbf 27b6 3a3f e611 323e
000000a0: ace8 b8be 2041 403f 6168 093e 4359 2c3f
000000b0: 5e7a bdbe 4a71 ba3d 2181 ebbe 6348 34be
000000c0: 7ce3 32bd 4fba e23e 2651 003f 102f b9be
000000d0: 5564 3dbd 07e0 09bf facb a83e 2235 723c
000000e0: 80d1 8e3e 3caf 3cbd 080f 0cbd 487b fbbe
000000f0: e69b bd3d b9d3 3bbf 427e 953d 7928 f23d
00000100: 7331 693e f8b8 ac3e 9c75 4f3e 1114 1fbf
00000110: 7b3e ea3e be09 c83e 8517 d23e 52f6 083f
00000120: f0f6 22bf 510c bf3e ec7c 8f3e febc 02bf
00000130: d8c7 41bf 6520 0ebf ceef 24bf b991 51bf
00000140: f1b1 8a3e 5246 97be 89ad ffbe e174 d73d
00000150: f4a1 bb3e 2922 70be ce19 5ebf ce7c b83e
00000160: e4b0 3abf f33c 30bf f26e 60bf 9cf9 ea3e
00000170: 469b 24bf 2abc 533e 0939 a5be 54f5 97bf
00000180: 24bd 3fbe aea5 353f bb0d c4be 1a7b 133e
00000190: de76 14be 3660 5fbe ab82 74be 6bfd 30bf
000001a0: ee45 933e 4847 c6be d900 3d3f b181 093f
000001b0: 09ad 183f 367f 99be 40a1 59be 8401 00bf
000001c0: 6fde 4cbe d9b7 173e 5e76 383f 06cf a9be
000001d0: 5c0e 05bf d979 983e 902a ffbd deca cfbe
000001e0: 1c4f 903d 790d 92bb da84 803e c138 6bbf
000001f0: 11f7 8c3e dec3 a73e b656 cabe b7d4 3ebe
00000200: a855 313f 5fe1 41bf 474c 263f 8cb8 32be
00000210: ee71 763f 734b e03e 9b15 bbbd 8ec5 903e
00000220: 4e60 3d3f c561 f2be 67e6 84be 81dd d9be
00000230: 47ca adbe ef60 7d3e 65e8 403f 340b 00be
00000240: 02d8 63bf e6d8 2f3f 4bd1 8fbe 228b 153d
00000250: b755 3dbf eabc 5abe 9314 de3d 1f06 28bf
00000260: d9b7 e03e 39aa 54bf dba2 2cbf df11 fcbe
00000270: 37c6 ea3d 0550 21bf 2280 1a3f e777 b13e
00000280: 300f 41bf 85d4 0fbc 6c62 1dbf bfb2 48be
00000290: e124 23bf 3e87 8fbd 709f 6f3e 6a15 01be
000002a0: b3d2 49bd a472 87be 0d61 32bf c843 03bf
000002b0: 52e3 4fbd cf16 fc3e ee39 0cbf 1b2a 023f
000002c0: e69f ea3e 90be d6be 2499 28bf 314c 293e
000002d0: 5bf4 343d 9ad2 fb3e c031 febd c53b b3bd
000002e0: cb60 e03c 479d eb3d 92a7 bd3e 1b0b 103f
000002f0: 272e e43e 87f3 61be 1179 96be 72ff bc3d

submod4.bias f4 [6]
0.45923355 -0.29642016 -0.16138765 -0.22690326 0.07750605 0.45683524
00000000: a920 eb3e 62c4 97be ce42 25be 5459 68be
00000010: 7ebb 9e3d 4fe6 e93e

conv5.weight f4 [6, 32, 1]
-0.22676525 -0.5835634 0.46654868 0.9726049 -0.47530857 -0.93116784 -0.5462749 -0.044145253
-0.8243911 -0.7556177 -0.24984434 -0.6541475 0.9451644 0.005483227 -0.31414652 0.5609416
0.5660276 -1.1202561 -0.8983626 0.05680292 0.83956 -0.8629174 0.33113694 0.7643008
-0.9509003 1.3329945 0.73249066 0.33220938 -0.8086799 -0.289768 0.8714096 -0.52640676
-1.1322877 -0.3757572 1.9058629 0.6439779 -1.0963619 -1.9067835 1.9389948 -0.044517133
-0.39207074 2.7833812 0.7477986 1.417057 -0.8998507 -1.8082844 -0.47863805 0.11260921
-1.9805347 0.14372046 2.3694398 -0.12946272 -1.4374108 -0.67859334 -0.16569059 1.10149
1.6431149 -1.6090136 0.17013 -0.302003 -0.16389908 -1.7489426 -0.08018788 -0.004164079
0.77693814 2.1851192 2.0086648 -2.221803 0.3550568 3.4316642 0.5208787 0.45899612
-2.9339488 -0.44173652 0.3285778 -3.0702498 -4.9759474 5.7492666 0.46459085 -0.49563158
1.1539524 4.3757052 -3.4604535 0.5322897 2.1916888 -0.8545704 -8.819872 1.4608094
-3.2226927 1.4970285 -6.017313 3.0211017 -0.06553322 4.256186 -9.707272 -11.329984
-0.7790624 1.8311551 -2.5230498 -0.094272345 0.43382275 -0.03871797 0.7001079 -2.0654953
0.0552849 -0.29738584 1.9317296 0.97631264 0.9176826 -1.3969524 -0.11661727 -2.5643795
1.4065166 -0.41894448 2.0621173 -0.64901686 -1.9001775 0.5859673 1.2158308 -0.88793284
0.034739956 0.13842134 0.43640545 -1.7205663 0.19790067 1.2516078 -1.3700128 0.43289545
3.3773248 -2.0044286 1.7315465 -1.1116159 2.7057636 0.64591515 -1.3575401 1.4196951
1.8589177 -0.45364803 -0.8551385 -0.9514396 -1.7298056 -1.2313552 1.6911913 -0.5997612
-2.2007785 1.8747382 -0.6256032 0.19727059 -1.0605149 0.52961975 0.6521992 -1.9305313
1.3091979 -1.502648 -0.9894713 -0.83012015 0.25028425 -1.3370541 1.8938348 0.13374417
-1.87243 0.27155334 -1.3688322 -0.018369963 -1.1439112 0.13440984 0.030756598 -0.28649795
-0.10500749 -0.12898959 -1.1953814 -0.7044407 0.30971813 1.5222262 -0.83009595 0.6758714
1.169244 -1.2707748 -1.1460196 -0.19527002 1.0332773 0.7354545 -0.47345594 -0.055535372
-1.0613414 0.5632697 0.7034619 0.73066884 0.4517454 -0.1940146 -0.11051379 0.6814339
00000000: 2635 68be 6964 15bf 78df ee3e a2fc 783f
00000010: a55b f3be 0461 6ebf acd8 0bbf a7d1 34bd
00000020: 4c0b 53bf 2970 41bf 32d7 7fbe 3676 27bf
00000030: 4bf6 713f a4ac b33b d0d7 a0be de99 0f3f
00000040: 2fe7 103f 8d64 8fbf 17fb 65bf 2eaa 683d
00000050: 67ed 563f 28e8 5cbf c88a a93e 38a9 433f
00000060: 346e 73bf 909f aa3f 8284 3b3f 5917 aa3e
00000070: a505 4fbf 795c 94be b314 5f3f 98c2 06bf
00000080: ceee 90bf 3f63 c0be 51f3 f33f bcdb 243f
00000090: 9655 8cbf 7b11 f4bf fb30 f83f 9957 36bd
000000a0: 7fbd c8be eb22 3240 bb6f 3f3f 2062 b53f
000000b0: 9e5c 66bf dd75 e7bf 0c10 f5be a89f e63d
000000c0: 2982 fdbf 752b 133e e7a4 1740 e091 04be
000000d0: 14fd b7bf 4bb8 2dbf cbaa 29be a0fd 8c3f
000000e0: 9751 d23f 28f4 cdbf 8f36 2e3e 23a0 9abe
000000f0: 29d5 27be 5add dfbf 8b39 a4bd d472 88bb
00000100: 6be5 463f fed8 0b40 f78d 0040 0532 0ec0
00000110: 01ca b53e 63a0 5b40 4e58 053f 8a01 eb3e
00000120: d1c5 3bc0 4a2b e2be 593b a83e f97e 44c0
00000130: f63a 9fc0 fef9 b740 dade ed3e 6cc3 fdbe
00000140: b6b4 933f c705 8c40 1278 5dc0 2344 083f
00000150: a144 0c40 20c5 5abf 321e 0dc1 cdfb ba3f
00000160: 9940 4ec0 a19e bf3f d48d c0c0 bb59 4140
00000170: 4836 86bd ad32 8840 fc50 1bc1 9d47 35c1
00000180: a270 47bf 4a63 ea3f a679 21c0 dc11 c1bd
00000190: 041e de3e bc96 1ebd 453a 333f 1331 04c0
000001a0: 6b72 623d f542 98be ea42 f73f a0ef 793f
000001b0: 3fed 6a3f 56cf b2bf 09d5 eebd cb1e 24c0
000001c0: bc08 b43f e47f d6be bbf9 0340 f825 26bf
000001d0: 0439 f3bf f401 163f 58a0 9b3f 914f 63bf
000001e0: 7c4b 0e3d 53be 0d3e 8970 df3e 843b dcbf
000001f0: 79a6 4a3e af34 a03f 945c afbf 79a4 dd3e
00000200: 1726 5840 8f48 00c0 51a3 dd3f 6e49 8ebf
00000210: 3b2b 2d40 b25a 253f e0c3 adbf 92b8 b53f
00000220: 04f1 ed3f 8e44 e8be 5bea 5abf 8c91 73bf
00000230: 456a ddbf 0c9d 9dbf f578 d83f f389 19bf
00000240: 8ed9 0cc0 6cf7 ef3f 8827 20bf 4d01 4a3e
00000250: f4be 87bf 2995 073f 87f6 263f a61b f7bf
00000260: cc93 a73f c556 c0bf fe4d 7dbf c182 54bf
00000270: 4225 803e 9724 abbf 2e69 f23f 3bf4 083e
00000280: c9ab efbf 0a09 8b3e e535 afbf 9b7c 96bc
00000290: af6b 92bf bca2 093e 43f5 fb3c dcaf 92be
000002a0: 2b0e d7bd d915 04be 4202 99bf 3a56 34bf
000002b0: 6093 9e3e 4fd8 c23f 2b81 54bf e805 2d3f
000002c0: caa9 953f c0a8 a2bf c5b0 92bf ddf4 47be
000002d0: 6e42 843f bf46 3c3f d168 f2be 0f79 63bd
000002e0: 09da 87bf 7132 103f 1416 343f 1d0d 3b3f
000002f0: 2c4b e73e c3ab 46be 0e55 e2bd 7472 2e3f

conv5.bias f4 [6]
0.7781154 -1.3019491 0.5473427 -0.48485416 -0.65397215 0.873427
00000000: 9232 473f 45a6 a6bf a71e 0c3f ce3e f8be
00000010: b86a 27bf e998 5f3f

exp_avg f4 [16, 1, 3]
0.010051923 -0.0032082538 -2.3775292e-05 0.0012265168 0.0072737904 0.0037219143 -0.035685323 -0.003915451
-0.006565147 0.015589415 0.038185168 0.03138095 0.0016663214 0.006926611 0.014172767 0.005430266
-0.0010462828 0.011937911 -0.0029087993 -0.0156201115 -0.011852361 -0.0100794 -0.013139421 -0.014599685
-0.0008697 -0.00034924533 -0.005501288 0.01214818 0.016393298 0.0056927577 0.00090671185 0.00061434665
-0.0009898568 -0.010014438 -0.0059211617 -0.0003444884 0.009528578 0.0011481334 -0.00047692296 0.0008532412
-0.01589002 -0.0439907 -0.002355816 0.0002988647 0.0022163098 -0.0023890557 -0.00052558567 0.0006225232
00000000: d2b0 243c 9141 52bb 0d71 c7b7 13c3 a03a
00000010: fa58 ee3b 5ceb 733b c62a 12bd 2f4d 80bb
00000020: 7220 d7bb bf6a 7f3c 0d68 1c3d 5089 003d
00000030: 7868 da3a a0f8 e23b e534 683c 5ff0 b13b
00000040: 6d23 89ba 3a97 433c 8ea1 3ebb 7feb 7fbc
00000050: 6830 42bc 1124 25bc ba46 57bc 8433 6fbc
00000060: 94fc 63ba ea1a b7b9 2644 b4bb 2909 473c
00000070: 3d4b 863c 508a ba3b 67b0 6d3a 1b0c 213a
00000080: 15be 81ba 9913 24bc 4e06 c2bb 739c b4b9
00000090: c11d 1c3c f77c 963a 840b fab9 0cac 5f3a
000000a0: ca2b 82bc 982f 34bd 0964 1abb f1b0 9c39
000000b0: 823f 113b b491 1cbb 75c7 09ba d330 233a
